

module {
  func @graph(%arg0: memref<3x7x7xf32>, %arg1: memref<5x3x7x3xf32>) {
    %0 = "equeue.create_proc"() {name = "proc0,0", type = "AIEngine"} : () -> i32
    %1 = "equeue.create_mem"() {banks = 3 : i64, data = "f32", name = "mem0,0", shape = dense<3> : tensor<1xi64>, type = "RegisterFile"} : () -> i32
    %2 = "equeue.create_comp"(%1, %0) {name = "pe_0,0"} : (i32, i32) -> i32
    %3 = "equeue.create_proc"() {name = "proc0,1", type = "AIEngine"} : () -> i32
    %4 = "equeue.create_mem"() {banks = 3 : i64, data = "f32", name = "mem0,1", shape = dense<3> : tensor<1xi64>, type = "RegisterFile"} : () -> i32
    %5 = "equeue.create_comp"(%4, %3, %2) {name = "pe_0,1"} : (i32, i32, i32) -> i32
    %6 = "equeue.create_proc"() {name = "proc0,2", type = "AIEngine"} : () -> i32
    %7 = "equeue.create_mem"() {banks = 3 : i64, data = "f32", name = "mem0,2", shape = dense<3> : tensor<1xi64>, type = "RegisterFile"} : () -> i32
    %8 = "equeue.create_comp"(%7, %6, %5) {name = "pe_0,2"} : (i32, i32, i32) -> i32
    %9 = "equeue.create_proc"() {name = "proc0,3", type = "AIEngine"} : () -> i32
    %10 = "equeue.create_mem"() {banks = 3 : i64, data = "f32", name = "mem0,3", shape = dense<3> : tensor<1xi64>, type = "RegisterFile"} : () -> i32
    %11 = "equeue.create_comp"(%10, %9, %8) {name = "pe_0,3"} : (i32, i32, i32) -> i32
    %12 = "equeue.create_proc"() {name = "proc0,4", type = "AIEngine"} : () -> i32
    %13 = "equeue.create_mem"() {banks = 3 : i64, data = "f32", name = "mem0,4", shape = dense<3> : tensor<1xi64>, type = "RegisterFile"} : () -> i32
    %14 = "equeue.create_comp"(%13, %12, %11) {name = "pe_0,4"} : (i32, i32, i32) -> i32
    %15 = "equeue.create_proc"() {name = "proc1,0", type = "AIEngine"} : () -> i32
    %16 = "equeue.create_mem"() {banks = 3 : i64, data = "f32", name = "mem1,0", shape = dense<3> : tensor<1xi64>, type = "RegisterFile"} : () -> i32
    %17 = "equeue.create_comp"(%16, %15, %14) {name = "pe_1,0"} : (i32, i32, i32) -> i32
    %18 = "equeue.create_proc"() {name = "proc1,1", type = "AIEngine"} : () -> i32
    %19 = "equeue.create_mem"() {banks = 3 : i64, data = "f32", name = "mem1,1", shape = dense<3> : tensor<1xi64>, type = "RegisterFile"} : () -> i32
    %20 = "equeue.create_comp"(%19, %18, %17) {name = "pe_1,1"} : (i32, i32, i32) -> i32
    %21 = "equeue.create_proc"() {name = "proc1,2", type = "AIEngine"} : () -> i32
    %22 = "equeue.create_mem"() {banks = 3 : i64, data = "f32", name = "mem1,2", shape = dense<3> : tensor<1xi64>, type = "RegisterFile"} : () -> i32
    %23 = "equeue.create_comp"(%22, %21, %20) {name = "pe_1,2"} : (i32, i32, i32) -> i32
    %24 = "equeue.create_proc"() {name = "proc1,3", type = "AIEngine"} : () -> i32
    %25 = "equeue.create_mem"() {banks = 3 : i64, data = "f32", name = "mem1,3", shape = dense<3> : tensor<1xi64>, type = "RegisterFile"} : () -> i32
    %26 = "equeue.create_comp"(%25, %24, %23) {name = "pe_1,3"} : (i32, i32, i32) -> i32
    %27 = "equeue.create_proc"() {name = "proc1,4", type = "AIEngine"} : () -> i32
    %28 = "equeue.create_mem"() {banks = 3 : i64, data = "f32", name = "mem1,4", shape = dense<3> : tensor<1xi64>, type = "RegisterFile"} : () -> i32
    %29 = "equeue.create_comp"(%28, %27, %26) {name = "pe_1,4"} : (i32, i32, i32) -> i32
    %30 = "equeue.create_proc"() {name = "proc2,0", type = "AIEngine"} : () -> i32
    %31 = "equeue.create_mem"() {banks = 3 : i64, data = "f32", name = "mem2,0", shape = dense<3> : tensor<1xi64>, type = "RegisterFile"} : () -> i32
    %32 = "equeue.create_comp"(%31, %30, %29) {name = "pe_2,0"} : (i32, i32, i32) -> i32
    %33 = "equeue.create_proc"() {name = "proc2,1", type = "AIEngine"} : () -> i32
    %34 = "equeue.create_mem"() {banks = 3 : i64, data = "f32", name = "mem2,1", shape = dense<3> : tensor<1xi64>, type = "RegisterFile"} : () -> i32
    %35 = "equeue.create_comp"(%34, %33, %32) {name = "pe_2,1"} : (i32, i32, i32) -> i32
    %36 = "equeue.create_proc"() {name = "proc2,2", type = "AIEngine"} : () -> i32
    %37 = "equeue.create_mem"() {banks = 3 : i64, data = "f32", name = "mem2,2", shape = dense<3> : tensor<1xi64>, type = "RegisterFile"} : () -> i32
    %38 = "equeue.create_comp"(%37, %36, %35) {name = "pe_2,2"} : (i32, i32, i32) -> i32
    %39 = "equeue.create_proc"() {name = "proc2,3", type = "AIEngine"} : () -> i32
    %40 = "equeue.create_mem"() {banks = 3 : i64, data = "f32", name = "mem2,3", shape = dense<3> : tensor<1xi64>, type = "RegisterFile"} : () -> i32
    %41 = "equeue.create_comp"(%40, %39, %38) {name = "pe_2,3"} : (i32, i32, i32) -> i32
    %42 = "equeue.create_proc"() {name = "proc2,4", type = "AIEngine"} : () -> i32
    %43 = "equeue.create_mem"() {banks = 3 : i64, data = "f32", name = "mem2,4", shape = dense<3> : tensor<1xi64>, type = "RegisterFile"} : () -> i32
    %44 = "equeue.create_comp"(%43, %42, %41) {name = "pe_2,4"} : (i32, i32, i32) -> i32
    %45 = "equeue.create_proc"() {name = "proc3,0", type = "AIEngine"} : () -> i32
    %46 = "equeue.create_mem"() {banks = 3 : i64, data = "f32", name = "mem3,0", shape = dense<3> : tensor<1xi64>, type = "RegisterFile"} : () -> i32
    %47 = "equeue.create_comp"(%46, %45, %44) {name = "pe_3,0"} : (i32, i32, i32) -> i32
    %48 = "equeue.create_proc"() {name = "proc3,1", type = "AIEngine"} : () -> i32
    %49 = "equeue.create_mem"() {banks = 3 : i64, data = "f32", name = "mem3,1", shape = dense<3> : tensor<1xi64>, type = "RegisterFile"} : () -> i32
    %50 = "equeue.create_comp"(%49, %48, %47) {name = "pe_3,1"} : (i32, i32, i32) -> i32
    %51 = "equeue.create_proc"() {name = "proc3,2", type = "AIEngine"} : () -> i32
    %52 = "equeue.create_mem"() {banks = 3 : i64, data = "f32", name = "mem3,2", shape = dense<3> : tensor<1xi64>, type = "RegisterFile"} : () -> i32
    %53 = "equeue.create_comp"(%52, %51, %50) {name = "pe_3,2"} : (i32, i32, i32) -> i32
    %54 = "equeue.create_proc"() {name = "proc3,3", type = "AIEngine"} : () -> i32
    %55 = "equeue.create_mem"() {banks = 3 : i64, data = "f32", name = "mem3,3", shape = dense<3> : tensor<1xi64>, type = "RegisterFile"} : () -> i32
    %56 = "equeue.create_comp"(%55, %54, %53) {name = "pe_3,3"} : (i32, i32, i32) -> i32
    %57 = "equeue.create_proc"() {name = "proc3,4", type = "AIEngine"} : () -> i32
    %58 = "equeue.create_mem"() {banks = 3 : i64, data = "f32", name = "mem3,4", shape = dense<3> : tensor<1xi64>, type = "RegisterFile"} : () -> i32
    %59 = "equeue.create_comp"(%58, %57, %56) {name = "pe_3,4"} : (i32, i32, i32) -> i32
    %60 = "equeue.create_proc"() {name = "proc4,0", type = "AIEngine"} : () -> i32
    %61 = "equeue.create_mem"() {banks = 3 : i64, data = "f32", name = "mem4,0", shape = dense<3> : tensor<1xi64>, type = "RegisterFile"} : () -> i32
    %62 = "equeue.create_comp"(%61, %60, %59) {name = "pe_4,0"} : (i32, i32, i32) -> i32
    %63 = "equeue.create_proc"() {name = "proc4,1", type = "AIEngine"} : () -> i32
    %64 = "equeue.create_mem"() {banks = 3 : i64, data = "f32", name = "mem4,1", shape = dense<3> : tensor<1xi64>, type = "RegisterFile"} : () -> i32
    %65 = "equeue.create_comp"(%64, %63, %62) {name = "pe_4,1"} : (i32, i32, i32) -> i32
    %66 = "equeue.create_proc"() {name = "proc4,2", type = "AIEngine"} : () -> i32
    %67 = "equeue.create_mem"() {banks = 3 : i64, data = "f32", name = "mem4,2", shape = dense<3> : tensor<1xi64>, type = "RegisterFile"} : () -> i32
    %68 = "equeue.create_comp"(%67, %66, %65) {name = "pe_4,2"} : (i32, i32, i32) -> i32
    %69 = "equeue.create_proc"() {name = "proc4,3", type = "AIEngine"} : () -> i32
    %70 = "equeue.create_mem"() {banks = 3 : i64, data = "f32", name = "mem4,3", shape = dense<3> : tensor<1xi64>, type = "RegisterFile"} : () -> i32
    %71 = "equeue.create_comp"(%70, %69, %68) {name = "pe_4,3"} : (i32, i32, i32) -> i32
    %72 = "equeue.create_proc"() {name = "proc4,4", type = "AIEngine"} : () -> i32
    %73 = "equeue.create_mem"() {banks = 3 : i64, data = "f32", name = "mem4,4", shape = dense<3> : tensor<1xi64>, type = "RegisterFile"} : () -> i32
    %74 = "equeue.create_comp"(%73, %72, %71) {name = "pe_4,4"} : (i32, i32, i32) -> i32
    %75 = "equeue.create_mem"() {banks = 10 : i64, data = "f32", name = "mem", shape = dense<110592> : tensor<1xi64>, type = "SRAM"} : () -> i32
    %76 = "equeue.create_dma"() {name = "dma0"} : () -> i32
    %77 = "equeue.create_comp"(%76) {name = "dma_col"} : (i32) -> i32
    %78 = "equeue.create_dma"() {name = "dma1"} : () -> i32
    %79 = "equeue.create_comp"(%78, %77) {name = "dma_col"} : (i32, i32) -> i32
    %80 = "equeue.create_dma"() {name = "dma2"} : () -> i32
    %81 = "equeue.create_comp"(%80, %79) {name = "dma_col"} : (i32, i32) -> i32
    %82 = "equeue.create_dma"() {name = "dma3"} : () -> i32
    %83 = "equeue.create_comp"(%82, %81) {name = "dma_col"} : (i32, i32) -> i32
    %84 = "equeue.create_dma"() {name = "dma4"} : () -> i32
    %85 = "equeue.create_comp"(%84, %83) {name = "dma_col"} : (i32, i32) -> i32
    %86 = "equeue.create_dma"() {name = "dma0"} : () -> i32
    %87 = "equeue.create_comp"(%86) {name = "dma_row"} : (i32) -> i32
    %88 = "equeue.create_dma"() {name = "dma1"} : () -> i32
    %89 = "equeue.create_comp"(%88, %87) {name = "dma_row"} : (i32, i32) -> i32
    %90 = "equeue.create_dma"() {name = "dma2"} : () -> i32
    %91 = "equeue.create_comp"(%90, %89) {name = "dma_row"} : (i32, i32) -> i32
    %92 = "equeue.create_dma"() {name = "dma3"} : () -> i32
    %93 = "equeue.create_comp"(%92, %91) {name = "dma_row"} : (i32, i32) -> i32
    %94 = "equeue.create_dma"() {name = "dma4"} : () -> i32
    %95 = "equeue.create_comp"(%94, %93) {name = "dma_row"} : (i32, i32) -> i32
    %96 = "equeue.create_proc"() {name = "proc", type = "MicroPlate"} : () -> i32
    %97 = "equeue.create_comp"(%74, %96, %75, %95, %85) {name = "accel"} : (i32, i32, i32, i32, i32) -> i32
    %98 = "equeue.control_start"() : () -> !equeue.signal
    %done = "equeue.launch"(%98, %96, %97, %arg0, %arg1) ( {
    ^bb0(%arg2: i32, %arg3: memref<3x7x7xf32>, %arg4: memref<5x3x7x3xf32>):  // no predecessors
      %99 = "equeue.get_comp"(%arg2) {name = "proc"} : (i32) -> i32
      %100 = "equeue.get_comp"(%arg2) {name = "dma_row"} : (i32) -> i32
      %101 = "equeue.get_comp"(%arg2) {name = "dma_col"} : (i32) -> i32
      %102 = "equeue.get_comp"(%100) {name = "dma4"} : (i32) -> i32
      %103 = "equeue.get_comp"(%100) {name = "dma_row"} : (i32) -> i32
      %104 = "equeue.get_comp"(%103) {name = "dma3"} : (i32) -> i32
      %105 = "equeue.get_comp"(%103) {name = "dma_row"} : (i32) -> i32
      %106 = "equeue.get_comp"(%105) {name = "dma2"} : (i32) -> i32
      %107 = "equeue.get_comp"(%105) {name = "dma_row"} : (i32) -> i32
      %108 = "equeue.get_comp"(%107) {name = "dma1"} : (i32) -> i32
      %109 = "equeue.get_comp"(%107) {name = "dma_row"} : (i32) -> i32
      %110 = "equeue.get_comp"(%109) {name = "dma0"} : (i32) -> i32
      %111 = "equeue.get_comp"(%101) {name = "dma4"} : (i32) -> i32
      %112 = "equeue.get_comp"(%101) {name = "dma_col"} : (i32) -> i32
      %113 = "equeue.get_comp"(%112) {name = "dma3"} : (i32) -> i32
      %114 = "equeue.get_comp"(%112) {name = "dma_col"} : (i32) -> i32
      %115 = "equeue.get_comp"(%114) {name = "dma2"} : (i32) -> i32
      %116 = "equeue.get_comp"(%114) {name = "dma_col"} : (i32) -> i32
      %117 = "equeue.get_comp"(%116) {name = "dma1"} : (i32) -> i32
      %118 = "equeue.get_comp"(%116) {name = "dma_col"} : (i32) -> i32
      %119 = "equeue.get_comp"(%118) {name = "dma0"} : (i32) -> i32
      %120 = "equeue.get_comp"(%arg2) {name = "mem"} : (i32) -> i32
      %121 = "equeue.alloc"(%120) {data = "f32", shape = dense<[3, 7, 7]> : tensor<3xi64>} : (i32) -> memref<3x7x7xf32>
      %122 = "equeue.alloc"(%120) {data = "f32", shape = dense<[5, 3, 7, 3]> : tensor<4xi64>} : (i32) -> memref<5x3x7x3xf32>
      %123 = "equeue.alloc"(%120) {data = "f32", shape = dense<[5, 3, 3]> : tensor<3xi64>} : (i32) -> memref<5x3x3xf32>
      %124 = "equeue.get_comp"(%arg2) {name = "pe_4,4"} : (i32) -> i32
      %125 = "equeue.get_comp"(%124) {name = "mem4,4"} : (i32) -> i32
      %126 = "equeue.get_comp"(%124) {name = "proc4,4"} : (i32) -> i32
      %127 = "equeue.alloc"(%125) {data = "f32", shape = dense<1> : tensor<1xi64>} : (i32) -> memref<1xf32>
      %128 = "equeue.alloc"(%125) {data = "f32", shape = dense<1> : tensor<1xi64>} : (i32) -> memref<1xf32>
      %129 = "equeue.alloc"(%125) {data = "f32", shape = dense<1> : tensor<1xi64>} : (i32) -> memref<1xf32>
      %130 = "equeue.get_comp"(%124) {name = "pe_4,3"} : (i32) -> i32
      %131 = "equeue.get_comp"(%130) {name = "mem4,3"} : (i32) -> i32
      %132 = "equeue.get_comp"(%130) {name = "proc4,3"} : (i32) -> i32
      %133 = "equeue.alloc"(%131) {data = "f32", shape = dense<1> : tensor<1xi64>} : (i32) -> memref<1xf32>
      %134 = "equeue.alloc"(%131) {data = "f32", shape = dense<1> : tensor<1xi64>} : (i32) -> memref<1xf32>
      %135 = "equeue.alloc"(%131) {data = "f32", shape = dense<1> : tensor<1xi64>} : (i32) -> memref<1xf32>
      %136 = "equeue.get_comp"(%130) {name = "pe_4,2"} : (i32) -> i32
      %137 = "equeue.get_comp"(%136) {name = "mem4,2"} : (i32) -> i32
      %138 = "equeue.get_comp"(%136) {name = "proc4,2"} : (i32) -> i32
      %139 = "equeue.alloc"(%137) {data = "f32", shape = dense<1> : tensor<1xi64>} : (i32) -> memref<1xf32>
      %140 = "equeue.alloc"(%137) {data = "f32", shape = dense<1> : tensor<1xi64>} : (i32) -> memref<1xf32>
      %141 = "equeue.alloc"(%137) {data = "f32", shape = dense<1> : tensor<1xi64>} : (i32) -> memref<1xf32>
      %142 = "equeue.get_comp"(%136) {name = "pe_4,1"} : (i32) -> i32
      %143 = "equeue.get_comp"(%142) {name = "mem4,1"} : (i32) -> i32
      %144 = "equeue.get_comp"(%142) {name = "proc4,1"} : (i32) -> i32
      %145 = "equeue.alloc"(%143) {data = "f32", shape = dense<1> : tensor<1xi64>} : (i32) -> memref<1xf32>
      %146 = "equeue.alloc"(%143) {data = "f32", shape = dense<1> : tensor<1xi64>} : (i32) -> memref<1xf32>
      %147 = "equeue.alloc"(%143) {data = "f32", shape = dense<1> : tensor<1xi64>} : (i32) -> memref<1xf32>
      %148 = "equeue.get_comp"(%142) {name = "pe_4,0"} : (i32) -> i32
      %149 = "equeue.get_comp"(%148) {name = "mem4,0"} : (i32) -> i32
      %150 = "equeue.get_comp"(%148) {name = "proc4,0"} : (i32) -> i32
      %151 = "equeue.alloc"(%149) {data = "f32", shape = dense<1> : tensor<1xi64>} : (i32) -> memref<1xf32>
      %152 = "equeue.alloc"(%149) {data = "f32", shape = dense<1> : tensor<1xi64>} : (i32) -> memref<1xf32>
      %153 = "equeue.alloc"(%149) {data = "f32", shape = dense<1> : tensor<1xi64>} : (i32) -> memref<1xf32>
      %154 = "equeue.get_comp"(%148) {name = "pe_3,4"} : (i32) -> i32
      %155 = "equeue.get_comp"(%154) {name = "mem3,4"} : (i32) -> i32
      %156 = "equeue.get_comp"(%154) {name = "proc3,4"} : (i32) -> i32
      %157 = "equeue.alloc"(%155) {data = "f32", shape = dense<1> : tensor<1xi64>} : (i32) -> memref<1xf32>
      %158 = "equeue.alloc"(%155) {data = "f32", shape = dense<1> : tensor<1xi64>} : (i32) -> memref<1xf32>
      %159 = "equeue.alloc"(%155) {data = "f32", shape = dense<1> : tensor<1xi64>} : (i32) -> memref<1xf32>
      %160 = "equeue.get_comp"(%154) {name = "pe_3,3"} : (i32) -> i32
      %161 = "equeue.get_comp"(%160) {name = "mem3,3"} : (i32) -> i32
      %162 = "equeue.get_comp"(%160) {name = "proc3,3"} : (i32) -> i32
      %163 = "equeue.alloc"(%161) {data = "f32", shape = dense<1> : tensor<1xi64>} : (i32) -> memref<1xf32>
      %164 = "equeue.alloc"(%161) {data = "f32", shape = dense<1> : tensor<1xi64>} : (i32) -> memref<1xf32>
      %165 = "equeue.alloc"(%161) {data = "f32", shape = dense<1> : tensor<1xi64>} : (i32) -> memref<1xf32>
      %166 = "equeue.get_comp"(%160) {name = "pe_3,2"} : (i32) -> i32
      %167 = "equeue.get_comp"(%166) {name = "mem3,2"} : (i32) -> i32
      %168 = "equeue.get_comp"(%166) {name = "proc3,2"} : (i32) -> i32
      %169 = "equeue.alloc"(%167) {data = "f32", shape = dense<1> : tensor<1xi64>} : (i32) -> memref<1xf32>
      %170 = "equeue.alloc"(%167) {data = "f32", shape = dense<1> : tensor<1xi64>} : (i32) -> memref<1xf32>
      %171 = "equeue.alloc"(%167) {data = "f32", shape = dense<1> : tensor<1xi64>} : (i32) -> memref<1xf32>
      %172 = "equeue.get_comp"(%166) {name = "pe_3,1"} : (i32) -> i32
      %173 = "equeue.get_comp"(%172) {name = "mem3,1"} : (i32) -> i32
      %174 = "equeue.get_comp"(%172) {name = "proc3,1"} : (i32) -> i32
      %175 = "equeue.alloc"(%173) {data = "f32", shape = dense<1> : tensor<1xi64>} : (i32) -> memref<1xf32>
      %176 = "equeue.alloc"(%173) {data = "f32", shape = dense<1> : tensor<1xi64>} : (i32) -> memref<1xf32>
      %177 = "equeue.alloc"(%173) {data = "f32", shape = dense<1> : tensor<1xi64>} : (i32) -> memref<1xf32>
      %178 = "equeue.get_comp"(%172) {name = "pe_3,0"} : (i32) -> i32
      %179 = "equeue.get_comp"(%178) {name = "mem3,0"} : (i32) -> i32
      %180 = "equeue.get_comp"(%178) {name = "proc3,0"} : (i32) -> i32
      %181 = "equeue.alloc"(%179) {data = "f32", shape = dense<1> : tensor<1xi64>} : (i32) -> memref<1xf32>
      %182 = "equeue.alloc"(%179) {data = "f32", shape = dense<1> : tensor<1xi64>} : (i32) -> memref<1xf32>
      %183 = "equeue.alloc"(%179) {data = "f32", shape = dense<1> : tensor<1xi64>} : (i32) -> memref<1xf32>
      %184 = "equeue.get_comp"(%178) {name = "pe_2,4"} : (i32) -> i32
      %185 = "equeue.get_comp"(%184) {name = "mem2,4"} : (i32) -> i32
      %186 = "equeue.get_comp"(%184) {name = "proc2,4"} : (i32) -> i32
      %187 = "equeue.alloc"(%185) {data = "f32", shape = dense<1> : tensor<1xi64>} : (i32) -> memref<1xf32>
      %188 = "equeue.alloc"(%185) {data = "f32", shape = dense<1> : tensor<1xi64>} : (i32) -> memref<1xf32>
      %189 = "equeue.alloc"(%185) {data = "f32", shape = dense<1> : tensor<1xi64>} : (i32) -> memref<1xf32>
      %190 = "equeue.get_comp"(%184) {name = "pe_2,3"} : (i32) -> i32
      %191 = "equeue.get_comp"(%190) {name = "mem2,3"} : (i32) -> i32
      %192 = "equeue.get_comp"(%190) {name = "proc2,3"} : (i32) -> i32
      %193 = "equeue.alloc"(%191) {data = "f32", shape = dense<1> : tensor<1xi64>} : (i32) -> memref<1xf32>
      %194 = "equeue.alloc"(%191) {data = "f32", shape = dense<1> : tensor<1xi64>} : (i32) -> memref<1xf32>
      %195 = "equeue.alloc"(%191) {data = "f32", shape = dense<1> : tensor<1xi64>} : (i32) -> memref<1xf32>
      %196 = "equeue.get_comp"(%190) {name = "pe_2,2"} : (i32) -> i32
      %197 = "equeue.get_comp"(%196) {name = "mem2,2"} : (i32) -> i32
      %198 = "equeue.get_comp"(%196) {name = "proc2,2"} : (i32) -> i32
      %199 = "equeue.alloc"(%197) {data = "f32", shape = dense<1> : tensor<1xi64>} : (i32) -> memref<1xf32>
      %200 = "equeue.alloc"(%197) {data = "f32", shape = dense<1> : tensor<1xi64>} : (i32) -> memref<1xf32>
      %201 = "equeue.alloc"(%197) {data = "f32", shape = dense<1> : tensor<1xi64>} : (i32) -> memref<1xf32>
      %202 = "equeue.get_comp"(%196) {name = "pe_2,1"} : (i32) -> i32
      %203 = "equeue.get_comp"(%202) {name = "mem2,1"} : (i32) -> i32
      %204 = "equeue.get_comp"(%202) {name = "proc2,1"} : (i32) -> i32
      %205 = "equeue.alloc"(%203) {data = "f32", shape = dense<1> : tensor<1xi64>} : (i32) -> memref<1xf32>
      %206 = "equeue.alloc"(%203) {data = "f32", shape = dense<1> : tensor<1xi64>} : (i32) -> memref<1xf32>
      %207 = "equeue.alloc"(%203) {data = "f32", shape = dense<1> : tensor<1xi64>} : (i32) -> memref<1xf32>
      %208 = "equeue.get_comp"(%202) {name = "pe_2,0"} : (i32) -> i32
      %209 = "equeue.get_comp"(%208) {name = "mem2,0"} : (i32) -> i32
      %210 = "equeue.get_comp"(%208) {name = "proc2,0"} : (i32) -> i32
      %211 = "equeue.alloc"(%209) {data = "f32", shape = dense<1> : tensor<1xi64>} : (i32) -> memref<1xf32>
      %212 = "equeue.alloc"(%209) {data = "f32", shape = dense<1> : tensor<1xi64>} : (i32) -> memref<1xf32>
      %213 = "equeue.alloc"(%209) {data = "f32", shape = dense<1> : tensor<1xi64>} : (i32) -> memref<1xf32>
      %214 = "equeue.get_comp"(%208) {name = "pe_1,4"} : (i32) -> i32
      %215 = "equeue.get_comp"(%214) {name = "mem1,4"} : (i32) -> i32
      %216 = "equeue.get_comp"(%214) {name = "proc1,4"} : (i32) -> i32
      %217 = "equeue.alloc"(%215) {data = "f32", shape = dense<1> : tensor<1xi64>} : (i32) -> memref<1xf32>
      %218 = "equeue.alloc"(%215) {data = "f32", shape = dense<1> : tensor<1xi64>} : (i32) -> memref<1xf32>
      %219 = "equeue.alloc"(%215) {data = "f32", shape = dense<1> : tensor<1xi64>} : (i32) -> memref<1xf32>
      %220 = "equeue.get_comp"(%214) {name = "pe_1,3"} : (i32) -> i32
      %221 = "equeue.get_comp"(%220) {name = "mem1,3"} : (i32) -> i32
      %222 = "equeue.get_comp"(%220) {name = "proc1,3"} : (i32) -> i32
      %223 = "equeue.alloc"(%221) {data = "f32", shape = dense<1> : tensor<1xi64>} : (i32) -> memref<1xf32>
      %224 = "equeue.alloc"(%221) {data = "f32", shape = dense<1> : tensor<1xi64>} : (i32) -> memref<1xf32>
      %225 = "equeue.alloc"(%221) {data = "f32", shape = dense<1> : tensor<1xi64>} : (i32) -> memref<1xf32>
      %226 = "equeue.get_comp"(%220) {name = "pe_1,2"} : (i32) -> i32
      %227 = "equeue.get_comp"(%226) {name = "mem1,2"} : (i32) -> i32
      %228 = "equeue.get_comp"(%226) {name = "proc1,2"} : (i32) -> i32
      %229 = "equeue.alloc"(%227) {data = "f32", shape = dense<1> : tensor<1xi64>} : (i32) -> memref<1xf32>
      %230 = "equeue.alloc"(%227) {data = "f32", shape = dense<1> : tensor<1xi64>} : (i32) -> memref<1xf32>
      %231 = "equeue.alloc"(%227) {data = "f32", shape = dense<1> : tensor<1xi64>} : (i32) -> memref<1xf32>
      %232 = "equeue.get_comp"(%226) {name = "pe_1,1"} : (i32) -> i32
      %233 = "equeue.get_comp"(%232) {name = "mem1,1"} : (i32) -> i32
      %234 = "equeue.get_comp"(%232) {name = "proc1,1"} : (i32) -> i32
      %235 = "equeue.alloc"(%233) {data = "f32", shape = dense<1> : tensor<1xi64>} : (i32) -> memref<1xf32>
      %236 = "equeue.alloc"(%233) {data = "f32", shape = dense<1> : tensor<1xi64>} : (i32) -> memref<1xf32>
      %237 = "equeue.alloc"(%233) {data = "f32", shape = dense<1> : tensor<1xi64>} : (i32) -> memref<1xf32>
      %238 = "equeue.get_comp"(%232) {name = "pe_1,0"} : (i32) -> i32
      %239 = "equeue.get_comp"(%238) {name = "mem1,0"} : (i32) -> i32
      %240 = "equeue.get_comp"(%238) {name = "proc1,0"} : (i32) -> i32
      %241 = "equeue.alloc"(%239) {data = "f32", shape = dense<1> : tensor<1xi64>} : (i32) -> memref<1xf32>
      %242 = "equeue.alloc"(%239) {data = "f32", shape = dense<1> : tensor<1xi64>} : (i32) -> memref<1xf32>
      %243 = "equeue.alloc"(%239) {data = "f32", shape = dense<1> : tensor<1xi64>} : (i32) -> memref<1xf32>
      %244 = "equeue.get_comp"(%238) {name = "pe_0,4"} : (i32) -> i32
      %245 = "equeue.get_comp"(%244) {name = "mem0,4"} : (i32) -> i32
      %246 = "equeue.get_comp"(%244) {name = "proc0,4"} : (i32) -> i32
      %247 = "equeue.alloc"(%245) {data = "f32", shape = dense<1> : tensor<1xi64>} : (i32) -> memref<1xf32>
      %248 = "equeue.alloc"(%245) {data = "f32", shape = dense<1> : tensor<1xi64>} : (i32) -> memref<1xf32>
      %249 = "equeue.alloc"(%245) {data = "f32", shape = dense<1> : tensor<1xi64>} : (i32) -> memref<1xf32>
      %250 = "equeue.get_comp"(%244) {name = "pe_0,3"} : (i32) -> i32
      %251 = "equeue.get_comp"(%250) {name = "mem0,3"} : (i32) -> i32
      %252 = "equeue.get_comp"(%250) {name = "proc0,3"} : (i32) -> i32
      %253 = "equeue.alloc"(%251) {data = "f32", shape = dense<1> : tensor<1xi64>} : (i32) -> memref<1xf32>
      %254 = "equeue.alloc"(%251) {data = "f32", shape = dense<1> : tensor<1xi64>} : (i32) -> memref<1xf32>
      %255 = "equeue.alloc"(%251) {data = "f32", shape = dense<1> : tensor<1xi64>} : (i32) -> memref<1xf32>
      %256 = "equeue.get_comp"(%250) {name = "pe_0,2"} : (i32) -> i32
      %257 = "equeue.get_comp"(%256) {name = "mem0,2"} : (i32) -> i32
      %258 = "equeue.get_comp"(%256) {name = "proc0,2"} : (i32) -> i32
      %259 = "equeue.alloc"(%257) {data = "f32", shape = dense<1> : tensor<1xi64>} : (i32) -> memref<1xf32>
      %260 = "equeue.alloc"(%257) {data = "f32", shape = dense<1> : tensor<1xi64>} : (i32) -> memref<1xf32>
      %261 = "equeue.alloc"(%257) {data = "f32", shape = dense<1> : tensor<1xi64>} : (i32) -> memref<1xf32>
      %262 = "equeue.get_comp"(%256) {name = "pe_0,1"} : (i32) -> i32
      %263 = "equeue.get_comp"(%262) {name = "mem0,1"} : (i32) -> i32
      %264 = "equeue.get_comp"(%262) {name = "proc0,1"} : (i32) -> i32
      %265 = "equeue.alloc"(%263) {data = "f32", shape = dense<1> : tensor<1xi64>} : (i32) -> memref<1xf32>
      %266 = "equeue.alloc"(%263) {data = "f32", shape = dense<1> : tensor<1xi64>} : (i32) -> memref<1xf32>
      %267 = "equeue.alloc"(%263) {data = "f32", shape = dense<1> : tensor<1xi64>} : (i32) -> memref<1xf32>
      %268 = "equeue.get_comp"(%262) {name = "pe_0,0"} : (i32) -> i32
      %269 = "equeue.get_comp"(%268) {name = "mem0,0"} : (i32) -> i32
      %270 = "equeue.get_comp"(%268) {name = "proc0,0"} : (i32) -> i32
      %271 = "equeue.alloc"(%269) {data = "f32", shape = dense<1> : tensor<1xi64>} : (i32) -> memref<1xf32>
      %272 = "equeue.alloc"(%269) {data = "f32", shape = dense<1> : tensor<1xi64>} : (i32) -> memref<1xf32>
      %273 = "equeue.alloc"(%269) {data = "f32", shape = dense<1> : tensor<1xi64>} : (i32) -> memref<1xf32>
      %c0 = constant 0 : index
      %274 = "equeue.control_start"() : () -> !equeue.signal
      %275 = "equeue.memcpy"(%274, %122, %127, %111, %c0) {dest_bank = 0 : i64, src_bank = 0 : i64} : (!equeue.signal, memref<5x3x7x3xf32>, memref<1xf32>, i32, index) -> !equeue.signal
      %done_0 = "equeue.launch"(%275, %126, %127, %157) ( {
      ^bb0(%arg5: memref<1xf32>, %arg6: memref<1xf32>):  // no predecessors
        %3247 = "equeue.read"(%arg5) {bank = 0 : i64} : (memref<1xf32>) -> f32
        "equeue.write"(%3247, %arg6) {bank = 0 : i64} : (f32, memref<1xf32>) -> ()
        "equeue.return"() : () -> ()
      }) : (!equeue.signal, i32, memref<1xf32>, memref<1xf32>) -> !equeue.signal
      %done_1 = "equeue.launch"(%275, %156, %157, %187) ( {
      ^bb0(%arg5: memref<1xf32>, %arg6: memref<1xf32>):  // no predecessors
        %3247 = "equeue.read"(%arg5) {bank = 0 : i64} : (memref<1xf32>) -> f32
        "equeue.write"(%3247, %arg6) {bank = 0 : i64} : (f32, memref<1xf32>) -> ()
        "equeue.return"() : () -> ()
      }) : (!equeue.signal, i32, memref<1xf32>, memref<1xf32>) -> !equeue.signal
      %done_2 = "equeue.launch"(%275, %186, %187, %217) ( {
      ^bb0(%arg5: memref<1xf32>, %arg6: memref<1xf32>):  // no predecessors
        %3247 = "equeue.read"(%arg5) {bank = 0 : i64} : (memref<1xf32>) -> f32
        "equeue.write"(%3247, %arg6) {bank = 0 : i64} : (f32, memref<1xf32>) -> ()
        "equeue.return"() : () -> ()
      }) : (!equeue.signal, i32, memref<1xf32>, memref<1xf32>) -> !equeue.signal
      %done_3 = "equeue.launch"(%275, %216, %217, %247) ( {
      ^bb0(%arg5: memref<1xf32>, %arg6: memref<1xf32>):  // no predecessors
        %3247 = "equeue.read"(%arg5) {bank = 0 : i64} : (memref<1xf32>) -> f32
        "equeue.write"(%3247, %arg6) {bank = 0 : i64} : (f32, memref<1xf32>) -> ()
        "equeue.return"() : () -> ()
      }) : (!equeue.signal, i32, memref<1xf32>, memref<1xf32>) -> !equeue.signal
      %276 = "equeue.control_and"(%done_3, %275) : (!equeue.signal, !equeue.signal) -> !equeue.signal
      %277 = "equeue.memcpy"(%274, %122, %133, %113, %c0) {dest_bank = 0 : i64, src_bank = 1 : i64} : (!equeue.signal, memref<5x3x7x3xf32>, memref<1xf32>, i32, index) -> !equeue.signal
      %done_4 = "equeue.launch"(%277, %132, %133, %163) ( {
      ^bb0(%arg5: memref<1xf32>, %arg6: memref<1xf32>):  // no predecessors
        %3247 = "equeue.read"(%arg5) {bank = 0 : i64} : (memref<1xf32>) -> f32
        "equeue.write"(%3247, %arg6) {bank = 0 : i64} : (f32, memref<1xf32>) -> ()
        "equeue.return"() : () -> ()
      }) : (!equeue.signal, i32, memref<1xf32>, memref<1xf32>) -> !equeue.signal
      %done_5 = "equeue.launch"(%277, %162, %163, %193) ( {
      ^bb0(%arg5: memref<1xf32>, %arg6: memref<1xf32>):  // no predecessors
        %3247 = "equeue.read"(%arg5) {bank = 0 : i64} : (memref<1xf32>) -> f32
        "equeue.write"(%3247, %arg6) {bank = 0 : i64} : (f32, memref<1xf32>) -> ()
        "equeue.return"() : () -> ()
      }) : (!equeue.signal, i32, memref<1xf32>, memref<1xf32>) -> !equeue.signal
      %done_6 = "equeue.launch"(%277, %192, %193, %223) ( {
      ^bb0(%arg5: memref<1xf32>, %arg6: memref<1xf32>):  // no predecessors
        %3247 = "equeue.read"(%arg5) {bank = 0 : i64} : (memref<1xf32>) -> f32
        "equeue.write"(%3247, %arg6) {bank = 0 : i64} : (f32, memref<1xf32>) -> ()
        "equeue.return"() : () -> ()
      }) : (!equeue.signal, i32, memref<1xf32>, memref<1xf32>) -> !equeue.signal
      %done_7 = "equeue.launch"(%277, %222, %223, %253) ( {
      ^bb0(%arg5: memref<1xf32>, %arg6: memref<1xf32>):  // no predecessors
        %3247 = "equeue.read"(%arg5) {bank = 0 : i64} : (memref<1xf32>) -> f32
        "equeue.write"(%3247, %arg6) {bank = 0 : i64} : (f32, memref<1xf32>) -> ()
        "equeue.return"() : () -> ()
      }) : (!equeue.signal, i32, memref<1xf32>, memref<1xf32>) -> !equeue.signal
      %278 = "equeue.control_and"(%277, %276, %done_7) : (!equeue.signal, !equeue.signal, !equeue.signal) -> !equeue.signal
      %279 = "equeue.memcpy"(%274, %122, %139, %115, %c0) {dest_bank = 0 : i64, src_bank = 2 : i64} : (!equeue.signal, memref<5x3x7x3xf32>, memref<1xf32>, i32, index) -> !equeue.signal
      %done_8 = "equeue.launch"(%279, %138, %139, %169) ( {
      ^bb0(%arg5: memref<1xf32>, %arg6: memref<1xf32>):  // no predecessors
        %3247 = "equeue.read"(%arg5) {bank = 0 : i64} : (memref<1xf32>) -> f32
        "equeue.write"(%3247, %arg6) {bank = 0 : i64} : (f32, memref<1xf32>) -> ()
        "equeue.return"() : () -> ()
      }) : (!equeue.signal, i32, memref<1xf32>, memref<1xf32>) -> !equeue.signal
      %done_9 = "equeue.launch"(%279, %168, %169, %199) ( {
      ^bb0(%arg5: memref<1xf32>, %arg6: memref<1xf32>):  // no predecessors
        %3247 = "equeue.read"(%arg5) {bank = 0 : i64} : (memref<1xf32>) -> f32
        "equeue.write"(%3247, %arg6) {bank = 0 : i64} : (f32, memref<1xf32>) -> ()
        "equeue.return"() : () -> ()
      }) : (!equeue.signal, i32, memref<1xf32>, memref<1xf32>) -> !equeue.signal
      %done_10 = "equeue.launch"(%279, %198, %199, %229) ( {
      ^bb0(%arg5: memref<1xf32>, %arg6: memref<1xf32>):  // no predecessors
        %3247 = "equeue.read"(%arg5) {bank = 0 : i64} : (memref<1xf32>) -> f32
        "equeue.write"(%3247, %arg6) {bank = 0 : i64} : (f32, memref<1xf32>) -> ()
        "equeue.return"() : () -> ()
      }) : (!equeue.signal, i32, memref<1xf32>, memref<1xf32>) -> !equeue.signal
      %done_11 = "equeue.launch"(%279, %228, %229, %259) ( {
      ^bb0(%arg5: memref<1xf32>, %arg6: memref<1xf32>):  // no predecessors
        %3247 = "equeue.read"(%arg5) {bank = 0 : i64} : (memref<1xf32>) -> f32
        "equeue.write"(%3247, %arg6) {bank = 0 : i64} : (f32, memref<1xf32>) -> ()
        "equeue.return"() : () -> ()
      }) : (!equeue.signal, i32, memref<1xf32>, memref<1xf32>) -> !equeue.signal
      %280 = "equeue.control_and"(%279, %278, %done_11) : (!equeue.signal, !equeue.signal, !equeue.signal) -> !equeue.signal
      %281 = "equeue.memcpy"(%274, %122, %145, %117, %c0) {dest_bank = 0 : i64, src_bank = 3 : i64} : (!equeue.signal, memref<5x3x7x3xf32>, memref<1xf32>, i32, index) -> !equeue.signal
      %done_12 = "equeue.launch"(%281, %144, %145, %175) ( {
      ^bb0(%arg5: memref<1xf32>, %arg6: memref<1xf32>):  // no predecessors
        %3247 = "equeue.read"(%arg5) {bank = 0 : i64} : (memref<1xf32>) -> f32
        "equeue.write"(%3247, %arg6) {bank = 0 : i64} : (f32, memref<1xf32>) -> ()
        "equeue.return"() : () -> ()
      }) : (!equeue.signal, i32, memref<1xf32>, memref<1xf32>) -> !equeue.signal
      %done_13 = "equeue.launch"(%281, %174, %175, %205) ( {
      ^bb0(%arg5: memref<1xf32>, %arg6: memref<1xf32>):  // no predecessors
        %3247 = "equeue.read"(%arg5) {bank = 0 : i64} : (memref<1xf32>) -> f32
        "equeue.write"(%3247, %arg6) {bank = 0 : i64} : (f32, memref<1xf32>) -> ()
        "equeue.return"() : () -> ()
      }) : (!equeue.signal, i32, memref<1xf32>, memref<1xf32>) -> !equeue.signal
      %done_14 = "equeue.launch"(%281, %204, %205, %235) ( {
      ^bb0(%arg5: memref<1xf32>, %arg6: memref<1xf32>):  // no predecessors
        %3247 = "equeue.read"(%arg5) {bank = 0 : i64} : (memref<1xf32>) -> f32
        "equeue.write"(%3247, %arg6) {bank = 0 : i64} : (f32, memref<1xf32>) -> ()
        "equeue.return"() : () -> ()
      }) : (!equeue.signal, i32, memref<1xf32>, memref<1xf32>) -> !equeue.signal
      %done_15 = "equeue.launch"(%281, %234, %235, %265) ( {
      ^bb0(%arg5: memref<1xf32>, %arg6: memref<1xf32>):  // no predecessors
        %3247 = "equeue.read"(%arg5) {bank = 0 : i64} : (memref<1xf32>) -> f32
        "equeue.write"(%3247, %arg6) {bank = 0 : i64} : (f32, memref<1xf32>) -> ()
        "equeue.return"() : () -> ()
      }) : (!equeue.signal, i32, memref<1xf32>, memref<1xf32>) -> !equeue.signal
      %282 = "equeue.control_and"(%281, %280, %done_15) : (!equeue.signal, !equeue.signal, !equeue.signal) -> !equeue.signal
      %283 = "equeue.memcpy"(%274, %122, %151, %119, %c0) {dest_bank = 0 : i64, src_bank = 4 : i64} : (!equeue.signal, memref<5x3x7x3xf32>, memref<1xf32>, i32, index) -> !equeue.signal
      %done_16 = "equeue.launch"(%283, %150, %151, %181) ( {
      ^bb0(%arg5: memref<1xf32>, %arg6: memref<1xf32>):  // no predecessors
        %3247 = "equeue.read"(%arg5) {bank = 0 : i64} : (memref<1xf32>) -> f32
        "equeue.write"(%3247, %arg6) {bank = 0 : i64} : (f32, memref<1xf32>) -> ()
        "equeue.return"() : () -> ()
      }) : (!equeue.signal, i32, memref<1xf32>, memref<1xf32>) -> !equeue.signal
      %done_17 = "equeue.launch"(%283, %180, %181, %211) ( {
      ^bb0(%arg5: memref<1xf32>, %arg6: memref<1xf32>):  // no predecessors
        %3247 = "equeue.read"(%arg5) {bank = 0 : i64} : (memref<1xf32>) -> f32
        "equeue.write"(%3247, %arg6) {bank = 0 : i64} : (f32, memref<1xf32>) -> ()
        "equeue.return"() : () -> ()
      }) : (!equeue.signal, i32, memref<1xf32>, memref<1xf32>) -> !equeue.signal
      %done_18 = "equeue.launch"(%283, %210, %211, %241) ( {
      ^bb0(%arg5: memref<1xf32>, %arg6: memref<1xf32>):  // no predecessors
        %3247 = "equeue.read"(%arg5) {bank = 0 : i64} : (memref<1xf32>) -> f32
        "equeue.write"(%3247, %arg6) {bank = 0 : i64} : (f32, memref<1xf32>) -> ()
        "equeue.return"() : () -> ()
      }) : (!equeue.signal, i32, memref<1xf32>, memref<1xf32>) -> !equeue.signal
      %done_19 = "equeue.launch"(%283, %240, %241, %271) ( {
      ^bb0(%arg5: memref<1xf32>, %arg6: memref<1xf32>):  // no predecessors
        %3247 = "equeue.read"(%arg5) {bank = 0 : i64} : (memref<1xf32>) -> f32
        "equeue.write"(%3247, %arg6) {bank = 0 : i64} : (f32, memref<1xf32>) -> ()
        "equeue.return"() : () -> ()
      }) : (!equeue.signal, i32, memref<1xf32>, memref<1xf32>) -> !equeue.signal
      %284 = "equeue.control_and"(%283, %282, %done_19) : (!equeue.signal, !equeue.signal, !equeue.signal) -> !equeue.signal
      "equeue.await"(%284) : (!equeue.signal) -> ()
      %285 = "equeue.control_start"() : () -> !equeue.signal
      %286 = "equeue.memcpy"(%285, %122, %127, %111, %c0) {dest_bank = 0 : i64, src_bank = 0 : i64} : (!equeue.signal, memref<5x3x7x3xf32>, memref<1xf32>, i32, index) -> !equeue.signal
      %done_20 = "equeue.launch"(%286, %126, %127, %157) ( {
      ^bb0(%arg5: memref<1xf32>, %arg6: memref<1xf32>):  // no predecessors
        %3247 = "equeue.read"(%arg5) {bank = 0 : i64} : (memref<1xf32>) -> f32
        "equeue.write"(%3247, %arg6) {bank = 0 : i64} : (f32, memref<1xf32>) -> ()
        "equeue.return"() : () -> ()
      }) : (!equeue.signal, i32, memref<1xf32>, memref<1xf32>) -> !equeue.signal
      %done_21 = "equeue.launch"(%286, %156, %157, %187) ( {
      ^bb0(%arg5: memref<1xf32>, %arg6: memref<1xf32>):  // no predecessors
        %3247 = "equeue.read"(%arg5) {bank = 0 : i64} : (memref<1xf32>) -> f32
        "equeue.write"(%3247, %arg6) {bank = 0 : i64} : (f32, memref<1xf32>) -> ()
        "equeue.return"() : () -> ()
      }) : (!equeue.signal, i32, memref<1xf32>, memref<1xf32>) -> !equeue.signal
      %done_22 = "equeue.launch"(%286, %186, %187, %217) ( {
      ^bb0(%arg5: memref<1xf32>, %arg6: memref<1xf32>):  // no predecessors
        %3247 = "equeue.read"(%arg5) {bank = 0 : i64} : (memref<1xf32>) -> f32
        "equeue.write"(%3247, %arg6) {bank = 0 : i64} : (f32, memref<1xf32>) -> ()
        "equeue.return"() : () -> ()
      }) : (!equeue.signal, i32, memref<1xf32>, memref<1xf32>) -> !equeue.signal
      %done_23 = "equeue.launch"(%286, %216, %217, %247) ( {
      ^bb0(%arg5: memref<1xf32>, %arg6: memref<1xf32>):  // no predecessors
        %3247 = "equeue.read"(%arg5) {bank = 0 : i64} : (memref<1xf32>) -> f32
        "equeue.write"(%3247, %arg6) {bank = 0 : i64} : (f32, memref<1xf32>) -> ()
        "equeue.return"() : () -> ()
      }) : (!equeue.signal, i32, memref<1xf32>, memref<1xf32>) -> !equeue.signal
      %287 = "equeue.control_and"(%done_23, %286) : (!equeue.signal, !equeue.signal) -> !equeue.signal
      %288 = "equeue.memcpy"(%285, %122, %133, %113, %c0) {dest_bank = 0 : i64, src_bank = 1 : i64} : (!equeue.signal, memref<5x3x7x3xf32>, memref<1xf32>, i32, index) -> !equeue.signal
      %done_24 = "equeue.launch"(%288, %132, %133, %163) ( {
      ^bb0(%arg5: memref<1xf32>, %arg6: memref<1xf32>):  // no predecessors
        %3247 = "equeue.read"(%arg5) {bank = 0 : i64} : (memref<1xf32>) -> f32
        "equeue.write"(%3247, %arg6) {bank = 0 : i64} : (f32, memref<1xf32>) -> ()
        "equeue.return"() : () -> ()
      }) : (!equeue.signal, i32, memref<1xf32>, memref<1xf32>) -> !equeue.signal
      %done_25 = "equeue.launch"(%288, %162, %163, %193) ( {
      ^bb0(%arg5: memref<1xf32>, %arg6: memref<1xf32>):  // no predecessors
        %3247 = "equeue.read"(%arg5) {bank = 0 : i64} : (memref<1xf32>) -> f32
        "equeue.write"(%3247, %arg6) {bank = 0 : i64} : (f32, memref<1xf32>) -> ()
        "equeue.return"() : () -> ()
      }) : (!equeue.signal, i32, memref<1xf32>, memref<1xf32>) -> !equeue.signal
      %done_26 = "equeue.launch"(%288, %192, %193, %223) ( {
      ^bb0(%arg5: memref<1xf32>, %arg6: memref<1xf32>):  // no predecessors
        %3247 = "equeue.read"(%arg5) {bank = 0 : i64} : (memref<1xf32>) -> f32
        "equeue.write"(%3247, %arg6) {bank = 0 : i64} : (f32, memref<1xf32>) -> ()
        "equeue.return"() : () -> ()
      }) : (!equeue.signal, i32, memref<1xf32>, memref<1xf32>) -> !equeue.signal
      %done_27 = "equeue.launch"(%288, %222, %223, %253) ( {
      ^bb0(%arg5: memref<1xf32>, %arg6: memref<1xf32>):  // no predecessors
        %3247 = "equeue.read"(%arg5) {bank = 0 : i64} : (memref<1xf32>) -> f32
        "equeue.write"(%3247, %arg6) {bank = 0 : i64} : (f32, memref<1xf32>) -> ()
        "equeue.return"() : () -> ()
      }) : (!equeue.signal, i32, memref<1xf32>, memref<1xf32>) -> !equeue.signal
      %289 = "equeue.control_and"(%288, %287, %done_27) : (!equeue.signal, !equeue.signal, !equeue.signal) -> !equeue.signal
      %290 = "equeue.memcpy"(%285, %122, %139, %115, %c0) {dest_bank = 0 : i64, src_bank = 2 : i64} : (!equeue.signal, memref<5x3x7x3xf32>, memref<1xf32>, i32, index) -> !equeue.signal
      %done_28 = "equeue.launch"(%290, %138, %139, %169) ( {
      ^bb0(%arg5: memref<1xf32>, %arg6: memref<1xf32>):  // no predecessors
        %3247 = "equeue.read"(%arg5) {bank = 0 : i64} : (memref<1xf32>) -> f32
        "equeue.write"(%3247, %arg6) {bank = 0 : i64} : (f32, memref<1xf32>) -> ()
        "equeue.return"() : () -> ()
      }) : (!equeue.signal, i32, memref<1xf32>, memref<1xf32>) -> !equeue.signal
      %done_29 = "equeue.launch"(%290, %168, %169, %199) ( {
      ^bb0(%arg5: memref<1xf32>, %arg6: memref<1xf32>):  // no predecessors
        %3247 = "equeue.read"(%arg5) {bank = 0 : i64} : (memref<1xf32>) -> f32
        "equeue.write"(%3247, %arg6) {bank = 0 : i64} : (f32, memref<1xf32>) -> ()
        "equeue.return"() : () -> ()
      }) : (!equeue.signal, i32, memref<1xf32>, memref<1xf32>) -> !equeue.signal
      %done_30 = "equeue.launch"(%290, %198, %199, %229) ( {
      ^bb0(%arg5: memref<1xf32>, %arg6: memref<1xf32>):  // no predecessors
        %3247 = "equeue.read"(%arg5) {bank = 0 : i64} : (memref<1xf32>) -> f32
        "equeue.write"(%3247, %arg6) {bank = 0 : i64} : (f32, memref<1xf32>) -> ()
        "equeue.return"() : () -> ()
      }) : (!equeue.signal, i32, memref<1xf32>, memref<1xf32>) -> !equeue.signal
      %done_31 = "equeue.launch"(%290, %228, %229, %259) ( {
      ^bb0(%arg5: memref<1xf32>, %arg6: memref<1xf32>):  // no predecessors
        %3247 = "equeue.read"(%arg5) {bank = 0 : i64} : (memref<1xf32>) -> f32
        "equeue.write"(%3247, %arg6) {bank = 0 : i64} : (f32, memref<1xf32>) -> ()
        "equeue.return"() : () -> ()
      }) : (!equeue.signal, i32, memref<1xf32>, memref<1xf32>) -> !equeue.signal
      %291 = "equeue.control_and"(%290, %289, %done_31) : (!equeue.signal, !equeue.signal, !equeue.signal) -> !equeue.signal
      %292 = "equeue.memcpy"(%285, %122, %145, %117, %c0) {dest_bank = 0 : i64, src_bank = 3 : i64} : (!equeue.signal, memref<5x3x7x3xf32>, memref<1xf32>, i32, index) -> !equeue.signal
      %done_32 = "equeue.launch"(%292, %144, %145, %175) ( {
      ^bb0(%arg5: memref<1xf32>, %arg6: memref<1xf32>):  // no predecessors
        %3247 = "equeue.read"(%arg5) {bank = 0 : i64} : (memref<1xf32>) -> f32
        "equeue.write"(%3247, %arg6) {bank = 0 : i64} : (f32, memref<1xf32>) -> ()
        "equeue.return"() : () -> ()
      }) : (!equeue.signal, i32, memref<1xf32>, memref<1xf32>) -> !equeue.signal
      %done_33 = "equeue.launch"(%292, %174, %175, %205) ( {
      ^bb0(%arg5: memref<1xf32>, %arg6: memref<1xf32>):  // no predecessors
        %3247 = "equeue.read"(%arg5) {bank = 0 : i64} : (memref<1xf32>) -> f32
        "equeue.write"(%3247, %arg6) {bank = 0 : i64} : (f32, memref<1xf32>) -> ()
        "equeue.return"() : () -> ()
      }) : (!equeue.signal, i32, memref<1xf32>, memref<1xf32>) -> !equeue.signal
      %done_34 = "equeue.launch"(%292, %204, %205, %235) ( {
      ^bb0(%arg5: memref<1xf32>, %arg6: memref<1xf32>):  // no predecessors
        %3247 = "equeue.read"(%arg5) {bank = 0 : i64} : (memref<1xf32>) -> f32
        "equeue.write"(%3247, %arg6) {bank = 0 : i64} : (f32, memref<1xf32>) -> ()
        "equeue.return"() : () -> ()
      }) : (!equeue.signal, i32, memref<1xf32>, memref<1xf32>) -> !equeue.signal
      %done_35 = "equeue.launch"(%292, %234, %235, %265) ( {
      ^bb0(%arg5: memref<1xf32>, %arg6: memref<1xf32>):  // no predecessors
        %3247 = "equeue.read"(%arg5) {bank = 0 : i64} : (memref<1xf32>) -> f32
        "equeue.write"(%3247, %arg6) {bank = 0 : i64} : (f32, memref<1xf32>) -> ()
        "equeue.return"() : () -> ()
      }) : (!equeue.signal, i32, memref<1xf32>, memref<1xf32>) -> !equeue.signal
      %293 = "equeue.control_and"(%292, %291, %done_35) : (!equeue.signal, !equeue.signal, !equeue.signal) -> !equeue.signal
      %294 = "equeue.memcpy"(%285, %122, %151, %119, %c0) {dest_bank = 0 : i64, src_bank = 4 : i64} : (!equeue.signal, memref<5x3x7x3xf32>, memref<1xf32>, i32, index) -> !equeue.signal
      %done_36 = "equeue.launch"(%294, %150, %151, %181) ( {
      ^bb0(%arg5: memref<1xf32>, %arg6: memref<1xf32>):  // no predecessors
        %3247 = "equeue.read"(%arg5) {bank = 0 : i64} : (memref<1xf32>) -> f32
        "equeue.write"(%3247, %arg6) {bank = 0 : i64} : (f32, memref<1xf32>) -> ()
        "equeue.return"() : () -> ()
      }) : (!equeue.signal, i32, memref<1xf32>, memref<1xf32>) -> !equeue.signal
      %done_37 = "equeue.launch"(%294, %180, %181, %211) ( {
      ^bb0(%arg5: memref<1xf32>, %arg6: memref<1xf32>):  // no predecessors
        %3247 = "equeue.read"(%arg5) {bank = 0 : i64} : (memref<1xf32>) -> f32
        "equeue.write"(%3247, %arg6) {bank = 0 : i64} : (f32, memref<1xf32>) -> ()
        "equeue.return"() : () -> ()
      }) : (!equeue.signal, i32, memref<1xf32>, memref<1xf32>) -> !equeue.signal
      %done_38 = "equeue.launch"(%294, %210, %211, %241) ( {
      ^bb0(%arg5: memref<1xf32>, %arg6: memref<1xf32>):  // no predecessors
        %3247 = "equeue.read"(%arg5) {bank = 0 : i64} : (memref<1xf32>) -> f32
        "equeue.write"(%3247, %arg6) {bank = 0 : i64} : (f32, memref<1xf32>) -> ()
        "equeue.return"() : () -> ()
      }) : (!equeue.signal, i32, memref<1xf32>, memref<1xf32>) -> !equeue.signal
      %done_39 = "equeue.launch"(%294, %240, %241, %271) ( {
      ^bb0(%arg5: memref<1xf32>, %arg6: memref<1xf32>):  // no predecessors
        %3247 = "equeue.read"(%arg5) {bank = 0 : i64} : (memref<1xf32>) -> f32
        "equeue.write"(%3247, %arg6) {bank = 0 : i64} : (f32, memref<1xf32>) -> ()
        "equeue.return"() : () -> ()
      }) : (!equeue.signal, i32, memref<1xf32>, memref<1xf32>) -> !equeue.signal
      %295 = "equeue.control_and"(%294, %293, %done_39) : (!equeue.signal, !equeue.signal, !equeue.signal) -> !equeue.signal
      "equeue.await"(%295) : (!equeue.signal) -> ()
      %296 = "equeue.control_start"() : () -> !equeue.signal
      %297 = "equeue.memcpy"(%296, %122, %127, %111, %c0) {dest_bank = 0 : i64, src_bank = 0 : i64} : (!equeue.signal, memref<5x3x7x3xf32>, memref<1xf32>, i32, index) -> !equeue.signal
      %done_40 = "equeue.launch"(%297, %126, %127, %157) ( {
      ^bb0(%arg5: memref<1xf32>, %arg6: memref<1xf32>):  // no predecessors
        %3247 = "equeue.read"(%arg5) {bank = 0 : i64} : (memref<1xf32>) -> f32
        "equeue.write"(%3247, %arg6) {bank = 0 : i64} : (f32, memref<1xf32>) -> ()
        "equeue.return"() : () -> ()
      }) : (!equeue.signal, i32, memref<1xf32>, memref<1xf32>) -> !equeue.signal
      %done_41 = "equeue.launch"(%297, %156, %157, %187) ( {
      ^bb0(%arg5: memref<1xf32>, %arg6: memref<1xf32>):  // no predecessors
        %3247 = "equeue.read"(%arg5) {bank = 0 : i64} : (memref<1xf32>) -> f32
        "equeue.write"(%3247, %arg6) {bank = 0 : i64} : (f32, memref<1xf32>) -> ()
        "equeue.return"() : () -> ()
      }) : (!equeue.signal, i32, memref<1xf32>, memref<1xf32>) -> !equeue.signal
      %done_42 = "equeue.launch"(%297, %186, %187, %217) ( {
      ^bb0(%arg5: memref<1xf32>, %arg6: memref<1xf32>):  // no predecessors
        %3247 = "equeue.read"(%arg5) {bank = 0 : i64} : (memref<1xf32>) -> f32
        "equeue.write"(%3247, %arg6) {bank = 0 : i64} : (f32, memref<1xf32>) -> ()
        "equeue.return"() : () -> ()
      }) : (!equeue.signal, i32, memref<1xf32>, memref<1xf32>) -> !equeue.signal
      %done_43 = "equeue.launch"(%297, %216, %217, %247) ( {
      ^bb0(%arg5: memref<1xf32>, %arg6: memref<1xf32>):  // no predecessors
        %3247 = "equeue.read"(%arg5) {bank = 0 : i64} : (memref<1xf32>) -> f32
        "equeue.write"(%3247, %arg6) {bank = 0 : i64} : (f32, memref<1xf32>) -> ()
        "equeue.return"() : () -> ()
      }) : (!equeue.signal, i32, memref<1xf32>, memref<1xf32>) -> !equeue.signal
      %298 = "equeue.control_and"(%done_43, %297) : (!equeue.signal, !equeue.signal) -> !equeue.signal
      %299 = "equeue.memcpy"(%296, %122, %133, %113, %c0) {dest_bank = 0 : i64, src_bank = 1 : i64} : (!equeue.signal, memref<5x3x7x3xf32>, memref<1xf32>, i32, index) -> !equeue.signal
      %done_44 = "equeue.launch"(%299, %132, %133, %163) ( {
      ^bb0(%arg5: memref<1xf32>, %arg6: memref<1xf32>):  // no predecessors
        %3247 = "equeue.read"(%arg5) {bank = 0 : i64} : (memref<1xf32>) -> f32
        "equeue.write"(%3247, %arg6) {bank = 0 : i64} : (f32, memref<1xf32>) -> ()
        "equeue.return"() : () -> ()
      }) : (!equeue.signal, i32, memref<1xf32>, memref<1xf32>) -> !equeue.signal
      %done_45 = "equeue.launch"(%299, %162, %163, %193) ( {
      ^bb0(%arg5: memref<1xf32>, %arg6: memref<1xf32>):  // no predecessors
        %3247 = "equeue.read"(%arg5) {bank = 0 : i64} : (memref<1xf32>) -> f32
        "equeue.write"(%3247, %arg6) {bank = 0 : i64} : (f32, memref<1xf32>) -> ()
        "equeue.return"() : () -> ()
      }) : (!equeue.signal, i32, memref<1xf32>, memref<1xf32>) -> !equeue.signal
      %done_46 = "equeue.launch"(%299, %192, %193, %223) ( {
      ^bb0(%arg5: memref<1xf32>, %arg6: memref<1xf32>):  // no predecessors
        %3247 = "equeue.read"(%arg5) {bank = 0 : i64} : (memref<1xf32>) -> f32
        "equeue.write"(%3247, %arg6) {bank = 0 : i64} : (f32, memref<1xf32>) -> ()
        "equeue.return"() : () -> ()
      }) : (!equeue.signal, i32, memref<1xf32>, memref<1xf32>) -> !equeue.signal
      %done_47 = "equeue.launch"(%299, %222, %223, %253) ( {
      ^bb0(%arg5: memref<1xf32>, %arg6: memref<1xf32>):  // no predecessors
        %3247 = "equeue.read"(%arg5) {bank = 0 : i64} : (memref<1xf32>) -> f32
        "equeue.write"(%3247, %arg6) {bank = 0 : i64} : (f32, memref<1xf32>) -> ()
        "equeue.return"() : () -> ()
      }) : (!equeue.signal, i32, memref<1xf32>, memref<1xf32>) -> !equeue.signal
      %300 = "equeue.control_and"(%299, %298, %done_47) : (!equeue.signal, !equeue.signal, !equeue.signal) -> !equeue.signal
      %301 = "equeue.memcpy"(%296, %122, %139, %115, %c0) {dest_bank = 0 : i64, src_bank = 2 : i64} : (!equeue.signal, memref<5x3x7x3xf32>, memref<1xf32>, i32, index) -> !equeue.signal
      %done_48 = "equeue.launch"(%301, %138, %139, %169) ( {
      ^bb0(%arg5: memref<1xf32>, %arg6: memref<1xf32>):  // no predecessors
        %3247 = "equeue.read"(%arg5) {bank = 0 : i64} : (memref<1xf32>) -> f32
        "equeue.write"(%3247, %arg6) {bank = 0 : i64} : (f32, memref<1xf32>) -> ()
        "equeue.return"() : () -> ()
      }) : (!equeue.signal, i32, memref<1xf32>, memref<1xf32>) -> !equeue.signal
      %done_49 = "equeue.launch"(%301, %168, %169, %199) ( {
      ^bb0(%arg5: memref<1xf32>, %arg6: memref<1xf32>):  // no predecessors
        %3247 = "equeue.read"(%arg5) {bank = 0 : i64} : (memref<1xf32>) -> f32
        "equeue.write"(%3247, %arg6) {bank = 0 : i64} : (f32, memref<1xf32>) -> ()
        "equeue.return"() : () -> ()
      }) : (!equeue.signal, i32, memref<1xf32>, memref<1xf32>) -> !equeue.signal
      %done_50 = "equeue.launch"(%301, %198, %199, %229) ( {
      ^bb0(%arg5: memref<1xf32>, %arg6: memref<1xf32>):  // no predecessors
        %3247 = "equeue.read"(%arg5) {bank = 0 : i64} : (memref<1xf32>) -> f32
        "equeue.write"(%3247, %arg6) {bank = 0 : i64} : (f32, memref<1xf32>) -> ()
        "equeue.return"() : () -> ()
      }) : (!equeue.signal, i32, memref<1xf32>, memref<1xf32>) -> !equeue.signal
      %done_51 = "equeue.launch"(%301, %228, %229, %259) ( {
      ^bb0(%arg5: memref<1xf32>, %arg6: memref<1xf32>):  // no predecessors
        %3247 = "equeue.read"(%arg5) {bank = 0 : i64} : (memref<1xf32>) -> f32
        "equeue.write"(%3247, %arg6) {bank = 0 : i64} : (f32, memref<1xf32>) -> ()
        "equeue.return"() : () -> ()
      }) : (!equeue.signal, i32, memref<1xf32>, memref<1xf32>) -> !equeue.signal
      %302 = "equeue.control_and"(%301, %300, %done_51) : (!equeue.signal, !equeue.signal, !equeue.signal) -> !equeue.signal
      %303 = "equeue.memcpy"(%296, %122, %145, %117, %c0) {dest_bank = 0 : i64, src_bank = 3 : i64} : (!equeue.signal, memref<5x3x7x3xf32>, memref<1xf32>, i32, index) -> !equeue.signal
      %done_52 = "equeue.launch"(%303, %144, %145, %175) ( {
      ^bb0(%arg5: memref<1xf32>, %arg6: memref<1xf32>):  // no predecessors
        %3247 = "equeue.read"(%arg5) {bank = 0 : i64} : (memref<1xf32>) -> f32
        "equeue.write"(%3247, %arg6) {bank = 0 : i64} : (f32, memref<1xf32>) -> ()
        "equeue.return"() : () -> ()
      }) : (!equeue.signal, i32, memref<1xf32>, memref<1xf32>) -> !equeue.signal
      %done_53 = "equeue.launch"(%303, %174, %175, %205) ( {
      ^bb0(%arg5: memref<1xf32>, %arg6: memref<1xf32>):  // no predecessors
        %3247 = "equeue.read"(%arg5) {bank = 0 : i64} : (memref<1xf32>) -> f32
        "equeue.write"(%3247, %arg6) {bank = 0 : i64} : (f32, memref<1xf32>) -> ()
        "equeue.return"() : () -> ()
      }) : (!equeue.signal, i32, memref<1xf32>, memref<1xf32>) -> !equeue.signal
      %done_54 = "equeue.launch"(%303, %204, %205, %235) ( {
      ^bb0(%arg5: memref<1xf32>, %arg6: memref<1xf32>):  // no predecessors
        %3247 = "equeue.read"(%arg5) {bank = 0 : i64} : (memref<1xf32>) -> f32
        "equeue.write"(%3247, %arg6) {bank = 0 : i64} : (f32, memref<1xf32>) -> ()
        "equeue.return"() : () -> ()
      }) : (!equeue.signal, i32, memref<1xf32>, memref<1xf32>) -> !equeue.signal
      %done_55 = "equeue.launch"(%303, %234, %235, %265) ( {
      ^bb0(%arg5: memref<1xf32>, %arg6: memref<1xf32>):  // no predecessors
        %3247 = "equeue.read"(%arg5) {bank = 0 : i64} : (memref<1xf32>) -> f32
        "equeue.write"(%3247, %arg6) {bank = 0 : i64} : (f32, memref<1xf32>) -> ()
        "equeue.return"() : () -> ()
      }) : (!equeue.signal, i32, memref<1xf32>, memref<1xf32>) -> !equeue.signal
      %304 = "equeue.control_and"(%303, %302, %done_55) : (!equeue.signal, !equeue.signal, !equeue.signal) -> !equeue.signal
      %305 = "equeue.memcpy"(%296, %122, %151, %119, %c0) {dest_bank = 0 : i64, src_bank = 4 : i64} : (!equeue.signal, memref<5x3x7x3xf32>, memref<1xf32>, i32, index) -> !equeue.signal
      %done_56 = "equeue.launch"(%305, %150, %151, %181) ( {
      ^bb0(%arg5: memref<1xf32>, %arg6: memref<1xf32>):  // no predecessors
        %3247 = "equeue.read"(%arg5) {bank = 0 : i64} : (memref<1xf32>) -> f32
        "equeue.write"(%3247, %arg6) {bank = 0 : i64} : (f32, memref<1xf32>) -> ()
        "equeue.return"() : () -> ()
      }) : (!equeue.signal, i32, memref<1xf32>, memref<1xf32>) -> !equeue.signal
      %done_57 = "equeue.launch"(%305, %180, %181, %211) ( {
      ^bb0(%arg5: memref<1xf32>, %arg6: memref<1xf32>):  // no predecessors
        %3247 = "equeue.read"(%arg5) {bank = 0 : i64} : (memref<1xf32>) -> f32
        "equeue.write"(%3247, %arg6) {bank = 0 : i64} : (f32, memref<1xf32>) -> ()
        "equeue.return"() : () -> ()
      }) : (!equeue.signal, i32, memref<1xf32>, memref<1xf32>) -> !equeue.signal
      %done_58 = "equeue.launch"(%305, %210, %211, %241) ( {
      ^bb0(%arg5: memref<1xf32>, %arg6: memref<1xf32>):  // no predecessors
        %3247 = "equeue.read"(%arg5) {bank = 0 : i64} : (memref<1xf32>) -> f32
        "equeue.write"(%3247, %arg6) {bank = 0 : i64} : (f32, memref<1xf32>) -> ()
        "equeue.return"() : () -> ()
      }) : (!equeue.signal, i32, memref<1xf32>, memref<1xf32>) -> !equeue.signal
      %done_59 = "equeue.launch"(%305, %240, %241, %271) ( {
      ^bb0(%arg5: memref<1xf32>, %arg6: memref<1xf32>):  // no predecessors
        %3247 = "equeue.read"(%arg5) {bank = 0 : i64} : (memref<1xf32>) -> f32
        "equeue.write"(%3247, %arg6) {bank = 0 : i64} : (f32, memref<1xf32>) -> ()
        "equeue.return"() : () -> ()
      }) : (!equeue.signal, i32, memref<1xf32>, memref<1xf32>) -> !equeue.signal
      %306 = "equeue.control_and"(%305, %304, %done_59) : (!equeue.signal, !equeue.signal, !equeue.signal) -> !equeue.signal
      "equeue.await"(%306) : (!equeue.signal) -> ()
      %307 = "equeue.control_start"() : () -> !equeue.signal
      %308 = "equeue.memcpy"(%307, %122, %127, %111, %c0) {dest_bank = 0 : i64, src_bank = 0 : i64} : (!equeue.signal, memref<5x3x7x3xf32>, memref<1xf32>, i32, index) -> !equeue.signal
      %done_60 = "equeue.launch"(%308, %126, %127, %157) ( {
      ^bb0(%arg5: memref<1xf32>, %arg6: memref<1xf32>):  // no predecessors
        %3247 = "equeue.read"(%arg5) {bank = 0 : i64} : (memref<1xf32>) -> f32
        "equeue.write"(%3247, %arg6) {bank = 0 : i64} : (f32, memref<1xf32>) -> ()
        "equeue.return"() : () -> ()
      }) : (!equeue.signal, i32, memref<1xf32>, memref<1xf32>) -> !equeue.signal
      %done_61 = "equeue.launch"(%308, %156, %157, %187) ( {
      ^bb0(%arg5: memref<1xf32>, %arg6: memref<1xf32>):  // no predecessors
        %3247 = "equeue.read"(%arg5) {bank = 0 : i64} : (memref<1xf32>) -> f32
        "equeue.write"(%3247, %arg6) {bank = 0 : i64} : (f32, memref<1xf32>) -> ()
        "equeue.return"() : () -> ()
      }) : (!equeue.signal, i32, memref<1xf32>, memref<1xf32>) -> !equeue.signal
      %done_62 = "equeue.launch"(%308, %186, %187, %217) ( {
      ^bb0(%arg5: memref<1xf32>, %arg6: memref<1xf32>):  // no predecessors
        %3247 = "equeue.read"(%arg5) {bank = 0 : i64} : (memref<1xf32>) -> f32
        "equeue.write"(%3247, %arg6) {bank = 0 : i64} : (f32, memref<1xf32>) -> ()
        "equeue.return"() : () -> ()
      }) : (!equeue.signal, i32, memref<1xf32>, memref<1xf32>) -> !equeue.signal
      %done_63 = "equeue.launch"(%308, %216, %217, %247) ( {
      ^bb0(%arg5: memref<1xf32>, %arg6: memref<1xf32>):  // no predecessors
        %3247 = "equeue.read"(%arg5) {bank = 0 : i64} : (memref<1xf32>) -> f32
        "equeue.write"(%3247, %arg6) {bank = 0 : i64} : (f32, memref<1xf32>) -> ()
        "equeue.return"() : () -> ()
      }) : (!equeue.signal, i32, memref<1xf32>, memref<1xf32>) -> !equeue.signal
      %309 = "equeue.control_and"(%done_63, %308) : (!equeue.signal, !equeue.signal) -> !equeue.signal
      %310 = "equeue.memcpy"(%307, %122, %133, %113, %c0) {dest_bank = 0 : i64, src_bank = 1 : i64} : (!equeue.signal, memref<5x3x7x3xf32>, memref<1xf32>, i32, index) -> !equeue.signal
      %done_64 = "equeue.launch"(%310, %132, %133, %163) ( {
      ^bb0(%arg5: memref<1xf32>, %arg6: memref<1xf32>):  // no predecessors
        %3247 = "equeue.read"(%arg5) {bank = 0 : i64} : (memref<1xf32>) -> f32
        "equeue.write"(%3247, %arg6) {bank = 0 : i64} : (f32, memref<1xf32>) -> ()
        "equeue.return"() : () -> ()
      }) : (!equeue.signal, i32, memref<1xf32>, memref<1xf32>) -> !equeue.signal
      %done_65 = "equeue.launch"(%310, %162, %163, %193) ( {
      ^bb0(%arg5: memref<1xf32>, %arg6: memref<1xf32>):  // no predecessors
        %3247 = "equeue.read"(%arg5) {bank = 0 : i64} : (memref<1xf32>) -> f32
        "equeue.write"(%3247, %arg6) {bank = 0 : i64} : (f32, memref<1xf32>) -> ()
        "equeue.return"() : () -> ()
      }) : (!equeue.signal, i32, memref<1xf32>, memref<1xf32>) -> !equeue.signal
      %done_66 = "equeue.launch"(%310, %192, %193, %223) ( {
      ^bb0(%arg5: memref<1xf32>, %arg6: memref<1xf32>):  // no predecessors
        %3247 = "equeue.read"(%arg5) {bank = 0 : i64} : (memref<1xf32>) -> f32
        "equeue.write"(%3247, %arg6) {bank = 0 : i64} : (f32, memref<1xf32>) -> ()
        "equeue.return"() : () -> ()
      }) : (!equeue.signal, i32, memref<1xf32>, memref<1xf32>) -> !equeue.signal
      %done_67 = "equeue.launch"(%310, %222, %223, %253) ( {
      ^bb0(%arg5: memref<1xf32>, %arg6: memref<1xf32>):  // no predecessors
        %3247 = "equeue.read"(%arg5) {bank = 0 : i64} : (memref<1xf32>) -> f32
        "equeue.write"(%3247, %arg6) {bank = 0 : i64} : (f32, memref<1xf32>) -> ()
        "equeue.return"() : () -> ()
      }) : (!equeue.signal, i32, memref<1xf32>, memref<1xf32>) -> !equeue.signal
      %311 = "equeue.control_and"(%310, %309, %done_67) : (!equeue.signal, !equeue.signal, !equeue.signal) -> !equeue.signal
      %312 = "equeue.memcpy"(%307, %122, %139, %115, %c0) {dest_bank = 0 : i64, src_bank = 2 : i64} : (!equeue.signal, memref<5x3x7x3xf32>, memref<1xf32>, i32, index) -> !equeue.signal
      %done_68 = "equeue.launch"(%312, %138, %139, %169) ( {
      ^bb0(%arg5: memref<1xf32>, %arg6: memref<1xf32>):  // no predecessors
        %3247 = "equeue.read"(%arg5) {bank = 0 : i64} : (memref<1xf32>) -> f32
        "equeue.write"(%3247, %arg6) {bank = 0 : i64} : (f32, memref<1xf32>) -> ()
        "equeue.return"() : () -> ()
      }) : (!equeue.signal, i32, memref<1xf32>, memref<1xf32>) -> !equeue.signal
      %done_69 = "equeue.launch"(%312, %168, %169, %199) ( {
      ^bb0(%arg5: memref<1xf32>, %arg6: memref<1xf32>):  // no predecessors
        %3247 = "equeue.read"(%arg5) {bank = 0 : i64} : (memref<1xf32>) -> f32
        "equeue.write"(%3247, %arg6) {bank = 0 : i64} : (f32, memref<1xf32>) -> ()
        "equeue.return"() : () -> ()
      }) : (!equeue.signal, i32, memref<1xf32>, memref<1xf32>) -> !equeue.signal
      %done_70 = "equeue.launch"(%312, %198, %199, %229) ( {
      ^bb0(%arg5: memref<1xf32>, %arg6: memref<1xf32>):  // no predecessors
        %3247 = "equeue.read"(%arg5) {bank = 0 : i64} : (memref<1xf32>) -> f32
        "equeue.write"(%3247, %arg6) {bank = 0 : i64} : (f32, memref<1xf32>) -> ()
        "equeue.return"() : () -> ()
      }) : (!equeue.signal, i32, memref<1xf32>, memref<1xf32>) -> !equeue.signal
      %done_71 = "equeue.launch"(%312, %228, %229, %259) ( {
      ^bb0(%arg5: memref<1xf32>, %arg6: memref<1xf32>):  // no predecessors
        %3247 = "equeue.read"(%arg5) {bank = 0 : i64} : (memref<1xf32>) -> f32
        "equeue.write"(%3247, %arg6) {bank = 0 : i64} : (f32, memref<1xf32>) -> ()
        "equeue.return"() : () -> ()
      }) : (!equeue.signal, i32, memref<1xf32>, memref<1xf32>) -> !equeue.signal
      %313 = "equeue.control_and"(%312, %311, %done_71) : (!equeue.signal, !equeue.signal, !equeue.signal) -> !equeue.signal
      %314 = "equeue.memcpy"(%307, %122, %145, %117, %c0) {dest_bank = 0 : i64, src_bank = 3 : i64} : (!equeue.signal, memref<5x3x7x3xf32>, memref<1xf32>, i32, index) -> !equeue.signal
      %done_72 = "equeue.launch"(%314, %144, %145, %175) ( {
      ^bb0(%arg5: memref<1xf32>, %arg6: memref<1xf32>):  // no predecessors
        %3247 = "equeue.read"(%arg5) {bank = 0 : i64} : (memref<1xf32>) -> f32
        "equeue.write"(%3247, %arg6) {bank = 0 : i64} : (f32, memref<1xf32>) -> ()
        "equeue.return"() : () -> ()
      }) : (!equeue.signal, i32, memref<1xf32>, memref<1xf32>) -> !equeue.signal
      %done_73 = "equeue.launch"(%314, %174, %175, %205) ( {
      ^bb0(%arg5: memref<1xf32>, %arg6: memref<1xf32>):  // no predecessors
        %3247 = "equeue.read"(%arg5) {bank = 0 : i64} : (memref<1xf32>) -> f32
        "equeue.write"(%3247, %arg6) {bank = 0 : i64} : (f32, memref<1xf32>) -> ()
        "equeue.return"() : () -> ()
      }) : (!equeue.signal, i32, memref<1xf32>, memref<1xf32>) -> !equeue.signal
      %done_74 = "equeue.launch"(%314, %204, %205, %235) ( {
      ^bb0(%arg5: memref<1xf32>, %arg6: memref<1xf32>):  // no predecessors
        %3247 = "equeue.read"(%arg5) {bank = 0 : i64} : (memref<1xf32>) -> f32
        "equeue.write"(%3247, %arg6) {bank = 0 : i64} : (f32, memref<1xf32>) -> ()
        "equeue.return"() : () -> ()
      }) : (!equeue.signal, i32, memref<1xf32>, memref<1xf32>) -> !equeue.signal
      %done_75 = "equeue.launch"(%314, %234, %235, %265) ( {
      ^bb0(%arg5: memref<1xf32>, %arg6: memref<1xf32>):  // no predecessors
        %3247 = "equeue.read"(%arg5) {bank = 0 : i64} : (memref<1xf32>) -> f32
        "equeue.write"(%3247, %arg6) {bank = 0 : i64} : (f32, memref<1xf32>) -> ()
        "equeue.return"() : () -> ()
      }) : (!equeue.signal, i32, memref<1xf32>, memref<1xf32>) -> !equeue.signal
      %315 = "equeue.control_and"(%314, %313, %done_75) : (!equeue.signal, !equeue.signal, !equeue.signal) -> !equeue.signal
      %316 = "equeue.memcpy"(%307, %122, %151, %119, %c0) {dest_bank = 0 : i64, src_bank = 4 : i64} : (!equeue.signal, memref<5x3x7x3xf32>, memref<1xf32>, i32, index) -> !equeue.signal
      %done_76 = "equeue.launch"(%316, %150, %151, %181) ( {
      ^bb0(%arg5: memref<1xf32>, %arg6: memref<1xf32>):  // no predecessors
        %3247 = "equeue.read"(%arg5) {bank = 0 : i64} : (memref<1xf32>) -> f32
        "equeue.write"(%3247, %arg6) {bank = 0 : i64} : (f32, memref<1xf32>) -> ()
        "equeue.return"() : () -> ()
      }) : (!equeue.signal, i32, memref<1xf32>, memref<1xf32>) -> !equeue.signal
      %done_77 = "equeue.launch"(%316, %180, %181, %211) ( {
      ^bb0(%arg5: memref<1xf32>, %arg6: memref<1xf32>):  // no predecessors
        %3247 = "equeue.read"(%arg5) {bank = 0 : i64} : (memref<1xf32>) -> f32
        "equeue.write"(%3247, %arg6) {bank = 0 : i64} : (f32, memref<1xf32>) -> ()
        "equeue.return"() : () -> ()
      }) : (!equeue.signal, i32, memref<1xf32>, memref<1xf32>) -> !equeue.signal
      %done_78 = "equeue.launch"(%316, %210, %211, %241) ( {
      ^bb0(%arg5: memref<1xf32>, %arg6: memref<1xf32>):  // no predecessors
        %3247 = "equeue.read"(%arg5) {bank = 0 : i64} : (memref<1xf32>) -> f32
        "equeue.write"(%3247, %arg6) {bank = 0 : i64} : (f32, memref<1xf32>) -> ()
        "equeue.return"() : () -> ()
      }) : (!equeue.signal, i32, memref<1xf32>, memref<1xf32>) -> !equeue.signal
      %done_79 = "equeue.launch"(%316, %240, %241, %271) ( {
      ^bb0(%arg5: memref<1xf32>, %arg6: memref<1xf32>):  // no predecessors
        %3247 = "equeue.read"(%arg5) {bank = 0 : i64} : (memref<1xf32>) -> f32
        "equeue.write"(%3247, %arg6) {bank = 0 : i64} : (f32, memref<1xf32>) -> ()
        "equeue.return"() : () -> ()
      }) : (!equeue.signal, i32, memref<1xf32>, memref<1xf32>) -> !equeue.signal
      %317 = "equeue.control_and"(%316, %315, %done_79) : (!equeue.signal, !equeue.signal, !equeue.signal) -> !equeue.signal
      "equeue.await"(%317) : (!equeue.signal) -> ()
      %318 = "equeue.control_start"() : () -> !equeue.signal
      %319 = "equeue.memcpy"(%318, %121, %129, %102) {dest_bank = 0 : i64, src_bank = 0 : i64} : (!equeue.signal, memref<3x7x7xf32>, memref<1xf32>, i32) -> !equeue.signal
      %320 = "equeue.memcpy"(%318, %121, %159, %104) {dest_bank = 0 : i64, src_bank = 1 : i64} : (!equeue.signal, memref<3x7x7xf32>, memref<1xf32>, i32) -> !equeue.signal
      %321 = "equeue.control_and"(%319, %320) : (!equeue.signal, !equeue.signal) -> !equeue.signal
      %322 = "equeue.memcpy"(%318, %121, %189, %106) {dest_bank = 0 : i64, src_bank = 2 : i64} : (!equeue.signal, memref<3x7x7xf32>, memref<1xf32>, i32) -> !equeue.signal
      %323 = "equeue.control_and"(%321, %322) : (!equeue.signal, !equeue.signal) -> !equeue.signal
      %324 = "equeue.memcpy"(%318, %121, %219, %108) {dest_bank = 0 : i64, src_bank = 3 : i64} : (!equeue.signal, memref<3x7x7xf32>, memref<1xf32>, i32) -> !equeue.signal
      %325 = "equeue.control_and"(%323, %324) : (!equeue.signal, !equeue.signal) -> !equeue.signal
      %326 = "equeue.memcpy"(%318, %121, %249, %110) {dest_bank = 0 : i64, src_bank = 4 : i64} : (!equeue.signal, memref<3x7x7xf32>, memref<1xf32>, i32) -> !equeue.signal
      %327 = "equeue.control_and"(%325, %326) : (!equeue.signal, !equeue.signal) -> !equeue.signal
      "equeue.await"(%327) : (!equeue.signal) -> ()
      %328 = "equeue.control_start"() : () -> !equeue.signal
      %done_80 = "equeue.launch"(%328, %126, %129, %127, %128, %135, %159, %158) ( {
      ^bb0(%arg5: memref<1xf32>, %arg6: memref<1xf32>, %arg7: memref<1xf32>, %arg8: memref<1xf32>, %arg9: memref<1xf32>, %arg10: memref<1xf32>):  // no predecessors
        %3247 = "equeue.read"(%arg5) {bank = 0 : i64} : (memref<1xf32>) -> f32
        "equeue.write"(%3247, %arg8) {bank = 0 : i64} : (f32, memref<1xf32>) -> ()
        "equeue.write"(%3247, %arg9) {bank = 0 : i64} : (f32, memref<1xf32>) -> ()
        %3248 = "equeue.read"(%arg6) {bank = 1 : i64} : (memref<1xf32>) -> f32
        %3249 = mulf %3247, %3248 : f32
        %3250 = "equeue.read"(%arg7) {bank = 2 : i64} : (memref<1xf32>) -> f32
        %3251 = addf %3249, %3250 : f32
        "equeue.write"(%3251, %arg10) {bank = 2 : i64} : (f32, memref<1xf32>) -> ()
        "equeue.return"() : () -> ()
      }) : (!equeue.signal, i32, memref<1xf32>, memref<1xf32>, memref<1xf32>, memref<1xf32>, memref<1xf32>, memref<1xf32>) -> !equeue.signal
      %done_81 = "equeue.launch"(%328, %156, %159, %157, %158, %165, %189, %188) ( {
      ^bb0(%arg5: memref<1xf32>, %arg6: memref<1xf32>, %arg7: memref<1xf32>, %arg8: memref<1xf32>, %arg9: memref<1xf32>, %arg10: memref<1xf32>):  // no predecessors
        %3247 = "equeue.read"(%arg5) {bank = 0 : i64} : (memref<1xf32>) -> f32
        "equeue.write"(%3247, %arg8) {bank = 0 : i64} : (f32, memref<1xf32>) -> ()
        "equeue.write"(%3247, %arg9) {bank = 0 : i64} : (f32, memref<1xf32>) -> ()
        %3248 = "equeue.read"(%arg6) {bank = 1 : i64} : (memref<1xf32>) -> f32
        %3249 = mulf %3247, %3248 : f32
        %3250 = "equeue.read"(%arg7) {bank = 2 : i64} : (memref<1xf32>) -> f32
        %3251 = addf %3249, %3250 : f32
        "equeue.write"(%3251, %arg10) {bank = 2 : i64} : (f32, memref<1xf32>) -> ()
        "equeue.return"() : () -> ()
      }) : (!equeue.signal, i32, memref<1xf32>, memref<1xf32>, memref<1xf32>, memref<1xf32>, memref<1xf32>, memref<1xf32>) -> !equeue.signal
      %329 = "equeue.control_and"(%done_80, %done_81) : (!equeue.signal, !equeue.signal) -> !equeue.signal
      %done_82 = "equeue.launch"(%328, %186, %189, %187, %188, %195, %219, %218) ( {
      ^bb0(%arg5: memref<1xf32>, %arg6: memref<1xf32>, %arg7: memref<1xf32>, %arg8: memref<1xf32>, %arg9: memref<1xf32>, %arg10: memref<1xf32>):  // no predecessors
        %3247 = "equeue.read"(%arg5) {bank = 0 : i64} : (memref<1xf32>) -> f32
        "equeue.write"(%3247, %arg8) {bank = 0 : i64} : (f32, memref<1xf32>) -> ()
        "equeue.write"(%3247, %arg9) {bank = 0 : i64} : (f32, memref<1xf32>) -> ()
        %3248 = "equeue.read"(%arg6) {bank = 1 : i64} : (memref<1xf32>) -> f32
        %3249 = mulf %3247, %3248 : f32
        %3250 = "equeue.read"(%arg7) {bank = 2 : i64} : (memref<1xf32>) -> f32
        %3251 = addf %3249, %3250 : f32
        "equeue.write"(%3251, %arg10) {bank = 2 : i64} : (f32, memref<1xf32>) -> ()
        "equeue.return"() : () -> ()
      }) : (!equeue.signal, i32, memref<1xf32>, memref<1xf32>, memref<1xf32>, memref<1xf32>, memref<1xf32>, memref<1xf32>) -> !equeue.signal
      %330 = "equeue.control_and"(%329, %done_82) : (!equeue.signal, !equeue.signal) -> !equeue.signal
      %done_83 = "equeue.launch"(%328, %216, %219, %217, %218, %225, %249, %248) ( {
      ^bb0(%arg5: memref<1xf32>, %arg6: memref<1xf32>, %arg7: memref<1xf32>, %arg8: memref<1xf32>, %arg9: memref<1xf32>, %arg10: memref<1xf32>):  // no predecessors
        %3247 = "equeue.read"(%arg5) {bank = 0 : i64} : (memref<1xf32>) -> f32
        "equeue.write"(%3247, %arg8) {bank = 0 : i64} : (f32, memref<1xf32>) -> ()
        "equeue.write"(%3247, %arg9) {bank = 0 : i64} : (f32, memref<1xf32>) -> ()
        %3248 = "equeue.read"(%arg6) {bank = 1 : i64} : (memref<1xf32>) -> f32
        %3249 = mulf %3247, %3248 : f32
        %3250 = "equeue.read"(%arg7) {bank = 2 : i64} : (memref<1xf32>) -> f32
        %3251 = addf %3249, %3250 : f32
        "equeue.write"(%3251, %arg10) {bank = 2 : i64} : (f32, memref<1xf32>) -> ()
        "equeue.return"() : () -> ()
      }) : (!equeue.signal, i32, memref<1xf32>, memref<1xf32>, memref<1xf32>, memref<1xf32>, memref<1xf32>, memref<1xf32>) -> !equeue.signal
      %331 = "equeue.control_and"(%330, %done_83) : (!equeue.signal, !equeue.signal) -> !equeue.signal
      %done_84 = "equeue.launch"(%328, %246, %249, %247, %248, %255, %123) ( {
      ^bb0(%arg5: memref<1xf32>, %arg6: memref<1xf32>, %arg7: memref<1xf32>, %arg8: memref<1xf32>, %arg9: memref<5x3x3xf32>):  // no predecessors
        %3247 = "equeue.read"(%arg5) {bank = 0 : i64} : (memref<1xf32>) -> f32
        "equeue.write"(%3247, %arg8) {bank = 0 : i64} : (f32, memref<1xf32>) -> ()
        %3248 = "equeue.read"(%arg6) {bank = 1 : i64} : (memref<1xf32>) -> f32
        %3249 = mulf %3247, %3248 : f32
        %3250 = "equeue.read"(%arg7) {bank = 2 : i64} : (memref<1xf32>) -> f32
        %3251 = addf %3249, %3250 : f32
        "equeue.return"() : () -> ()
      }) : (!equeue.signal, i32, memref<1xf32>, memref<1xf32>, memref<1xf32>, memref<1xf32>, memref<5x3x3xf32>) -> !equeue.signal
      %332 = "equeue.control_and"(%331, %done_84) : (!equeue.signal, !equeue.signal) -> !equeue.signal
      %done_85 = "equeue.launch"(%328, %132, %135, %133, %134, %141, %165, %164) ( {
      ^bb0(%arg5: memref<1xf32>, %arg6: memref<1xf32>, %arg7: memref<1xf32>, %arg8: memref<1xf32>, %arg9: memref<1xf32>, %arg10: memref<1xf32>):  // no predecessors
        %3247 = "equeue.read"(%arg5) {bank = 0 : i64} : (memref<1xf32>) -> f32
        "equeue.write"(%3247, %arg8) {bank = 0 : i64} : (f32, memref<1xf32>) -> ()
        "equeue.write"(%3247, %arg9) {bank = 0 : i64} : (f32, memref<1xf32>) -> ()
        %3248 = "equeue.read"(%arg6) {bank = 1 : i64} : (memref<1xf32>) -> f32
        %3249 = mulf %3247, %3248 : f32
        %3250 = "equeue.read"(%arg7) {bank = 2 : i64} : (memref<1xf32>) -> f32
        %3251 = addf %3249, %3250 : f32
        "equeue.write"(%3251, %arg10) {bank = 2 : i64} : (f32, memref<1xf32>) -> ()
        "equeue.return"() : () -> ()
      }) : (!equeue.signal, i32, memref<1xf32>, memref<1xf32>, memref<1xf32>, memref<1xf32>, memref<1xf32>, memref<1xf32>) -> !equeue.signal
      %333 = "equeue.control_and"(%332, %done_85) : (!equeue.signal, !equeue.signal) -> !equeue.signal
      %done_86 = "equeue.launch"(%328, %162, %165, %163, %164, %171, %195, %194) ( {
      ^bb0(%arg5: memref<1xf32>, %arg6: memref<1xf32>, %arg7: memref<1xf32>, %arg8: memref<1xf32>, %arg9: memref<1xf32>, %arg10: memref<1xf32>):  // no predecessors
        %3247 = "equeue.read"(%arg5) {bank = 0 : i64} : (memref<1xf32>) -> f32
        "equeue.write"(%3247, %arg8) {bank = 0 : i64} : (f32, memref<1xf32>) -> ()
        "equeue.write"(%3247, %arg9) {bank = 0 : i64} : (f32, memref<1xf32>) -> ()
        %3248 = "equeue.read"(%arg6) {bank = 1 : i64} : (memref<1xf32>) -> f32
        %3249 = mulf %3247, %3248 : f32
        %3250 = "equeue.read"(%arg7) {bank = 2 : i64} : (memref<1xf32>) -> f32
        %3251 = addf %3249, %3250 : f32
        "equeue.write"(%3251, %arg10) {bank = 2 : i64} : (f32, memref<1xf32>) -> ()
        "equeue.return"() : () -> ()
      }) : (!equeue.signal, i32, memref<1xf32>, memref<1xf32>, memref<1xf32>, memref<1xf32>, memref<1xf32>, memref<1xf32>) -> !equeue.signal
      %334 = "equeue.control_and"(%333, %done_86) : (!equeue.signal, !equeue.signal) -> !equeue.signal
      %done_87 = "equeue.launch"(%328, %192, %195, %193, %194, %201, %225, %224) ( {
      ^bb0(%arg5: memref<1xf32>, %arg6: memref<1xf32>, %arg7: memref<1xf32>, %arg8: memref<1xf32>, %arg9: memref<1xf32>, %arg10: memref<1xf32>):  // no predecessors
        %3247 = "equeue.read"(%arg5) {bank = 0 : i64} : (memref<1xf32>) -> f32
        "equeue.write"(%3247, %arg8) {bank = 0 : i64} : (f32, memref<1xf32>) -> ()
        "equeue.write"(%3247, %arg9) {bank = 0 : i64} : (f32, memref<1xf32>) -> ()
        %3248 = "equeue.read"(%arg6) {bank = 1 : i64} : (memref<1xf32>) -> f32
        %3249 = mulf %3247, %3248 : f32
        %3250 = "equeue.read"(%arg7) {bank = 2 : i64} : (memref<1xf32>) -> f32
        %3251 = addf %3249, %3250 : f32
        "equeue.write"(%3251, %arg10) {bank = 2 : i64} : (f32, memref<1xf32>) -> ()
        "equeue.return"() : () -> ()
      }) : (!equeue.signal, i32, memref<1xf32>, memref<1xf32>, memref<1xf32>, memref<1xf32>, memref<1xf32>, memref<1xf32>) -> !equeue.signal
      %335 = "equeue.control_and"(%334, %done_87) : (!equeue.signal, !equeue.signal) -> !equeue.signal
      %done_88 = "equeue.launch"(%328, %222, %225, %223, %224, %231, %255, %254) ( {
      ^bb0(%arg5: memref<1xf32>, %arg6: memref<1xf32>, %arg7: memref<1xf32>, %arg8: memref<1xf32>, %arg9: memref<1xf32>, %arg10: memref<1xf32>):  // no predecessors
        %3247 = "equeue.read"(%arg5) {bank = 0 : i64} : (memref<1xf32>) -> f32
        "equeue.write"(%3247, %arg8) {bank = 0 : i64} : (f32, memref<1xf32>) -> ()
        "equeue.write"(%3247, %arg9) {bank = 0 : i64} : (f32, memref<1xf32>) -> ()
        %3248 = "equeue.read"(%arg6) {bank = 1 : i64} : (memref<1xf32>) -> f32
        %3249 = mulf %3247, %3248 : f32
        %3250 = "equeue.read"(%arg7) {bank = 2 : i64} : (memref<1xf32>) -> f32
        %3251 = addf %3249, %3250 : f32
        "equeue.write"(%3251, %arg10) {bank = 2 : i64} : (f32, memref<1xf32>) -> ()
        "equeue.return"() : () -> ()
      }) : (!equeue.signal, i32, memref<1xf32>, memref<1xf32>, memref<1xf32>, memref<1xf32>, memref<1xf32>, memref<1xf32>) -> !equeue.signal
      %336 = "equeue.control_and"(%335, %done_88) : (!equeue.signal, !equeue.signal) -> !equeue.signal
      %done_89 = "equeue.launch"(%328, %252, %255, %253, %254, %261, %123) ( {
      ^bb0(%arg5: memref<1xf32>, %arg6: memref<1xf32>, %arg7: memref<1xf32>, %arg8: memref<1xf32>, %arg9: memref<5x3x3xf32>):  // no predecessors
        %3247 = "equeue.read"(%arg5) {bank = 0 : i64} : (memref<1xf32>) -> f32
        "equeue.write"(%3247, %arg8) {bank = 0 : i64} : (f32, memref<1xf32>) -> ()
        %3248 = "equeue.read"(%arg6) {bank = 1 : i64} : (memref<1xf32>) -> f32
        %3249 = mulf %3247, %3248 : f32
        %3250 = "equeue.read"(%arg7) {bank = 2 : i64} : (memref<1xf32>) -> f32
        %3251 = addf %3249, %3250 : f32
        "equeue.return"() : () -> ()
      }) : (!equeue.signal, i32, memref<1xf32>, memref<1xf32>, memref<1xf32>, memref<1xf32>, memref<5x3x3xf32>) -> !equeue.signal
      %337 = "equeue.control_and"(%336, %done_89) : (!equeue.signal, !equeue.signal) -> !equeue.signal
      %done_90 = "equeue.launch"(%328, %138, %141, %139, %140, %147, %171, %170) ( {
      ^bb0(%arg5: memref<1xf32>, %arg6: memref<1xf32>, %arg7: memref<1xf32>, %arg8: memref<1xf32>, %arg9: memref<1xf32>, %arg10: memref<1xf32>):  // no predecessors
        %3247 = "equeue.read"(%arg5) {bank = 0 : i64} : (memref<1xf32>) -> f32
        "equeue.write"(%3247, %arg8) {bank = 0 : i64} : (f32, memref<1xf32>) -> ()
        "equeue.write"(%3247, %arg9) {bank = 0 : i64} : (f32, memref<1xf32>) -> ()
        %3248 = "equeue.read"(%arg6) {bank = 1 : i64} : (memref<1xf32>) -> f32
        %3249 = mulf %3247, %3248 : f32
        %3250 = "equeue.read"(%arg7) {bank = 2 : i64} : (memref<1xf32>) -> f32
        %3251 = addf %3249, %3250 : f32
        "equeue.write"(%3251, %arg10) {bank = 2 : i64} : (f32, memref<1xf32>) -> ()
        "equeue.return"() : () -> ()
      }) : (!equeue.signal, i32, memref<1xf32>, memref<1xf32>, memref<1xf32>, memref<1xf32>, memref<1xf32>, memref<1xf32>) -> !equeue.signal
      %338 = "equeue.control_and"(%337, %done_90) : (!equeue.signal, !equeue.signal) -> !equeue.signal
      %done_91 = "equeue.launch"(%328, %168, %171, %169, %170, %177, %201, %200) ( {
      ^bb0(%arg5: memref<1xf32>, %arg6: memref<1xf32>, %arg7: memref<1xf32>, %arg8: memref<1xf32>, %arg9: memref<1xf32>, %arg10: memref<1xf32>):  // no predecessors
        %3247 = "equeue.read"(%arg5) {bank = 0 : i64} : (memref<1xf32>) -> f32
        "equeue.write"(%3247, %arg8) {bank = 0 : i64} : (f32, memref<1xf32>) -> ()
        "equeue.write"(%3247, %arg9) {bank = 0 : i64} : (f32, memref<1xf32>) -> ()
        %3248 = "equeue.read"(%arg6) {bank = 1 : i64} : (memref<1xf32>) -> f32
        %3249 = mulf %3247, %3248 : f32
        %3250 = "equeue.read"(%arg7) {bank = 2 : i64} : (memref<1xf32>) -> f32
        %3251 = addf %3249, %3250 : f32
        "equeue.write"(%3251, %arg10) {bank = 2 : i64} : (f32, memref<1xf32>) -> ()
        "equeue.return"() : () -> ()
      }) : (!equeue.signal, i32, memref<1xf32>, memref<1xf32>, memref<1xf32>, memref<1xf32>, memref<1xf32>, memref<1xf32>) -> !equeue.signal
      %339 = "equeue.control_and"(%338, %done_91) : (!equeue.signal, !equeue.signal) -> !equeue.signal
      %done_92 = "equeue.launch"(%328, %198, %201, %199, %200, %207, %231, %230) ( {
      ^bb0(%arg5: memref<1xf32>, %arg6: memref<1xf32>, %arg7: memref<1xf32>, %arg8: memref<1xf32>, %arg9: memref<1xf32>, %arg10: memref<1xf32>):  // no predecessors
        %3247 = "equeue.read"(%arg5) {bank = 0 : i64} : (memref<1xf32>) -> f32
        "equeue.write"(%3247, %arg8) {bank = 0 : i64} : (f32, memref<1xf32>) -> ()
        "equeue.write"(%3247, %arg9) {bank = 0 : i64} : (f32, memref<1xf32>) -> ()
        %3248 = "equeue.read"(%arg6) {bank = 1 : i64} : (memref<1xf32>) -> f32
        %3249 = mulf %3247, %3248 : f32
        %3250 = "equeue.read"(%arg7) {bank = 2 : i64} : (memref<1xf32>) -> f32
        %3251 = addf %3249, %3250 : f32
        "equeue.write"(%3251, %arg10) {bank = 2 : i64} : (f32, memref<1xf32>) -> ()
        "equeue.return"() : () -> ()
      }) : (!equeue.signal, i32, memref<1xf32>, memref<1xf32>, memref<1xf32>, memref<1xf32>, memref<1xf32>, memref<1xf32>) -> !equeue.signal
      %340 = "equeue.control_and"(%339, %done_92) : (!equeue.signal, !equeue.signal) -> !equeue.signal
      %done_93 = "equeue.launch"(%328, %228, %231, %229, %230, %237, %261, %260) ( {
      ^bb0(%arg5: memref<1xf32>, %arg6: memref<1xf32>, %arg7: memref<1xf32>, %arg8: memref<1xf32>, %arg9: memref<1xf32>, %arg10: memref<1xf32>):  // no predecessors
        %3247 = "equeue.read"(%arg5) {bank = 0 : i64} : (memref<1xf32>) -> f32
        "equeue.write"(%3247, %arg8) {bank = 0 : i64} : (f32, memref<1xf32>) -> ()
        "equeue.write"(%3247, %arg9) {bank = 0 : i64} : (f32, memref<1xf32>) -> ()
        %3248 = "equeue.read"(%arg6) {bank = 1 : i64} : (memref<1xf32>) -> f32
        %3249 = mulf %3247, %3248 : f32
        %3250 = "equeue.read"(%arg7) {bank = 2 : i64} : (memref<1xf32>) -> f32
        %3251 = addf %3249, %3250 : f32
        "equeue.write"(%3251, %arg10) {bank = 2 : i64} : (f32, memref<1xf32>) -> ()
        "equeue.return"() : () -> ()
      }) : (!equeue.signal, i32, memref<1xf32>, memref<1xf32>, memref<1xf32>, memref<1xf32>, memref<1xf32>, memref<1xf32>) -> !equeue.signal
      %341 = "equeue.control_and"(%340, %done_93) : (!equeue.signal, !equeue.signal) -> !equeue.signal
      %done_94 = "equeue.launch"(%328, %258, %261, %259, %260, %267, %123) ( {
      ^bb0(%arg5: memref<1xf32>, %arg6: memref<1xf32>, %arg7: memref<1xf32>, %arg8: memref<1xf32>, %arg9: memref<5x3x3xf32>):  // no predecessors
        %3247 = "equeue.read"(%arg5) {bank = 0 : i64} : (memref<1xf32>) -> f32
        "equeue.write"(%3247, %arg8) {bank = 0 : i64} : (f32, memref<1xf32>) -> ()
        %3248 = "equeue.read"(%arg6) {bank = 1 : i64} : (memref<1xf32>) -> f32
        %3249 = mulf %3247, %3248 : f32
        %3250 = "equeue.read"(%arg7) {bank = 2 : i64} : (memref<1xf32>) -> f32
        %3251 = addf %3249, %3250 : f32
        "equeue.return"() : () -> ()
      }) : (!equeue.signal, i32, memref<1xf32>, memref<1xf32>, memref<1xf32>, memref<1xf32>, memref<5x3x3xf32>) -> !equeue.signal
      %342 = "equeue.control_and"(%341, %done_94) : (!equeue.signal, !equeue.signal) -> !equeue.signal
      %done_95 = "equeue.launch"(%328, %144, %147, %145, %146, %153, %177, %176) ( {
      ^bb0(%arg5: memref<1xf32>, %arg6: memref<1xf32>, %arg7: memref<1xf32>, %arg8: memref<1xf32>, %arg9: memref<1xf32>, %arg10: memref<1xf32>):  // no predecessors
        %3247 = "equeue.read"(%arg5) {bank = 0 : i64} : (memref<1xf32>) -> f32
        "equeue.write"(%3247, %arg8) {bank = 0 : i64} : (f32, memref<1xf32>) -> ()
        "equeue.write"(%3247, %arg9) {bank = 0 : i64} : (f32, memref<1xf32>) -> ()
        %3248 = "equeue.read"(%arg6) {bank = 1 : i64} : (memref<1xf32>) -> f32
        %3249 = mulf %3247, %3248 : f32
        %3250 = "equeue.read"(%arg7) {bank = 2 : i64} : (memref<1xf32>) -> f32
        %3251 = addf %3249, %3250 : f32
        "equeue.write"(%3251, %arg10) {bank = 2 : i64} : (f32, memref<1xf32>) -> ()
        "equeue.return"() : () -> ()
      }) : (!equeue.signal, i32, memref<1xf32>, memref<1xf32>, memref<1xf32>, memref<1xf32>, memref<1xf32>, memref<1xf32>) -> !equeue.signal
      %343 = "equeue.control_and"(%342, %done_95) : (!equeue.signal, !equeue.signal) -> !equeue.signal
      %done_96 = "equeue.launch"(%328, %174, %177, %175, %176, %183, %207, %206) ( {
      ^bb0(%arg5: memref<1xf32>, %arg6: memref<1xf32>, %arg7: memref<1xf32>, %arg8: memref<1xf32>, %arg9: memref<1xf32>, %arg10: memref<1xf32>):  // no predecessors
        %3247 = "equeue.read"(%arg5) {bank = 0 : i64} : (memref<1xf32>) -> f32
        "equeue.write"(%3247, %arg8) {bank = 0 : i64} : (f32, memref<1xf32>) -> ()
        "equeue.write"(%3247, %arg9) {bank = 0 : i64} : (f32, memref<1xf32>) -> ()
        %3248 = "equeue.read"(%arg6) {bank = 1 : i64} : (memref<1xf32>) -> f32
        %3249 = mulf %3247, %3248 : f32
        %3250 = "equeue.read"(%arg7) {bank = 2 : i64} : (memref<1xf32>) -> f32
        %3251 = addf %3249, %3250 : f32
        "equeue.write"(%3251, %arg10) {bank = 2 : i64} : (f32, memref<1xf32>) -> ()
        "equeue.return"() : () -> ()
      }) : (!equeue.signal, i32, memref<1xf32>, memref<1xf32>, memref<1xf32>, memref<1xf32>, memref<1xf32>, memref<1xf32>) -> !equeue.signal
      %344 = "equeue.control_and"(%343, %done_96) : (!equeue.signal, !equeue.signal) -> !equeue.signal
      %done_97 = "equeue.launch"(%328, %204, %207, %205, %206, %213, %237, %236) ( {
      ^bb0(%arg5: memref<1xf32>, %arg6: memref<1xf32>, %arg7: memref<1xf32>, %arg8: memref<1xf32>, %arg9: memref<1xf32>, %arg10: memref<1xf32>):  // no predecessors
        %3247 = "equeue.read"(%arg5) {bank = 0 : i64} : (memref<1xf32>) -> f32
        "equeue.write"(%3247, %arg8) {bank = 0 : i64} : (f32, memref<1xf32>) -> ()
        "equeue.write"(%3247, %arg9) {bank = 0 : i64} : (f32, memref<1xf32>) -> ()
        %3248 = "equeue.read"(%arg6) {bank = 1 : i64} : (memref<1xf32>) -> f32
        %3249 = mulf %3247, %3248 : f32
        %3250 = "equeue.read"(%arg7) {bank = 2 : i64} : (memref<1xf32>) -> f32
        %3251 = addf %3249, %3250 : f32
        "equeue.write"(%3251, %arg10) {bank = 2 : i64} : (f32, memref<1xf32>) -> ()
        "equeue.return"() : () -> ()
      }) : (!equeue.signal, i32, memref<1xf32>, memref<1xf32>, memref<1xf32>, memref<1xf32>, memref<1xf32>, memref<1xf32>) -> !equeue.signal
      %345 = "equeue.control_and"(%344, %done_97) : (!equeue.signal, !equeue.signal) -> !equeue.signal
      %done_98 = "equeue.launch"(%328, %234, %237, %235, %236, %243, %267, %266) ( {
      ^bb0(%arg5: memref<1xf32>, %arg6: memref<1xf32>, %arg7: memref<1xf32>, %arg8: memref<1xf32>, %arg9: memref<1xf32>, %arg10: memref<1xf32>):  // no predecessors
        %3247 = "equeue.read"(%arg5) {bank = 0 : i64} : (memref<1xf32>) -> f32
        "equeue.write"(%3247, %arg8) {bank = 0 : i64} : (f32, memref<1xf32>) -> ()
        "equeue.write"(%3247, %arg9) {bank = 0 : i64} : (f32, memref<1xf32>) -> ()
        %3248 = "equeue.read"(%arg6) {bank = 1 : i64} : (memref<1xf32>) -> f32
        %3249 = mulf %3247, %3248 : f32
        %3250 = "equeue.read"(%arg7) {bank = 2 : i64} : (memref<1xf32>) -> f32
        %3251 = addf %3249, %3250 : f32
        "equeue.write"(%3251, %arg10) {bank = 2 : i64} : (f32, memref<1xf32>) -> ()
        "equeue.return"() : () -> ()
      }) : (!equeue.signal, i32, memref<1xf32>, memref<1xf32>, memref<1xf32>, memref<1xf32>, memref<1xf32>, memref<1xf32>) -> !equeue.signal
      %346 = "equeue.control_and"(%345, %done_98) : (!equeue.signal, !equeue.signal) -> !equeue.signal
      %done_99 = "equeue.launch"(%328, %264, %267, %265, %266, %273, %123) ( {
      ^bb0(%arg5: memref<1xf32>, %arg6: memref<1xf32>, %arg7: memref<1xf32>, %arg8: memref<1xf32>, %arg9: memref<5x3x3xf32>):  // no predecessors
        %3247 = "equeue.read"(%arg5) {bank = 0 : i64} : (memref<1xf32>) -> f32
        "equeue.write"(%3247, %arg8) {bank = 0 : i64} : (f32, memref<1xf32>) -> ()
        %3248 = "equeue.read"(%arg6) {bank = 1 : i64} : (memref<1xf32>) -> f32
        %3249 = mulf %3247, %3248 : f32
        %3250 = "equeue.read"(%arg7) {bank = 2 : i64} : (memref<1xf32>) -> f32
        %3251 = addf %3249, %3250 : f32
        "equeue.return"() : () -> ()
      }) : (!equeue.signal, i32, memref<1xf32>, memref<1xf32>, memref<1xf32>, memref<1xf32>, memref<5x3x3xf32>) -> !equeue.signal
      %347 = "equeue.control_and"(%346, %done_99) : (!equeue.signal, !equeue.signal) -> !equeue.signal
      %done_100 = "equeue.launch"(%328, %150, %153, %151, %152, %183, %182) ( {
      ^bb0(%arg5: memref<1xf32>, %arg6: memref<1xf32>, %arg7: memref<1xf32>, %arg8: memref<1xf32>, %arg9: memref<1xf32>):  // no predecessors
        %3247 = "equeue.read"(%arg5) {bank = 0 : i64} : (memref<1xf32>) -> f32
        "equeue.write"(%3247, %arg8) {bank = 0 : i64} : (f32, memref<1xf32>) -> ()
        %3248 = "equeue.read"(%arg6) {bank = 1 : i64} : (memref<1xf32>) -> f32
        %3249 = mulf %3247, %3248 : f32
        %3250 = "equeue.read"(%arg7) {bank = 2 : i64} : (memref<1xf32>) -> f32
        %3251 = addf %3249, %3250 : f32
        "equeue.write"(%3251, %arg9) {bank = 2 : i64} : (f32, memref<1xf32>) -> ()
        "equeue.return"() : () -> ()
      }) : (!equeue.signal, i32, memref<1xf32>, memref<1xf32>, memref<1xf32>, memref<1xf32>, memref<1xf32>) -> !equeue.signal
      %348 = "equeue.control_and"(%347, %done_100) : (!equeue.signal, !equeue.signal) -> !equeue.signal
      %done_101 = "equeue.launch"(%328, %180, %183, %181, %182, %213, %212) ( {
      ^bb0(%arg5: memref<1xf32>, %arg6: memref<1xf32>, %arg7: memref<1xf32>, %arg8: memref<1xf32>, %arg9: memref<1xf32>):  // no predecessors
        %3247 = "equeue.read"(%arg5) {bank = 0 : i64} : (memref<1xf32>) -> f32
        "equeue.write"(%3247, %arg8) {bank = 0 : i64} : (f32, memref<1xf32>) -> ()
        %3248 = "equeue.read"(%arg6) {bank = 1 : i64} : (memref<1xf32>) -> f32
        %3249 = mulf %3247, %3248 : f32
        %3250 = "equeue.read"(%arg7) {bank = 2 : i64} : (memref<1xf32>) -> f32
        %3251 = addf %3249, %3250 : f32
        "equeue.write"(%3251, %arg9) {bank = 2 : i64} : (f32, memref<1xf32>) -> ()
        "equeue.return"() : () -> ()
      }) : (!equeue.signal, i32, memref<1xf32>, memref<1xf32>, memref<1xf32>, memref<1xf32>, memref<1xf32>) -> !equeue.signal
      %349 = "equeue.control_and"(%348, %done_101) : (!equeue.signal, !equeue.signal) -> !equeue.signal
      %done_102 = "equeue.launch"(%328, %210, %213, %211, %212, %243, %242) ( {
      ^bb0(%arg5: memref<1xf32>, %arg6: memref<1xf32>, %arg7: memref<1xf32>, %arg8: memref<1xf32>, %arg9: memref<1xf32>):  // no predecessors
        %3247 = "equeue.read"(%arg5) {bank = 0 : i64} : (memref<1xf32>) -> f32
        "equeue.write"(%3247, %arg8) {bank = 0 : i64} : (f32, memref<1xf32>) -> ()
        %3248 = "equeue.read"(%arg6) {bank = 1 : i64} : (memref<1xf32>) -> f32
        %3249 = mulf %3247, %3248 : f32
        %3250 = "equeue.read"(%arg7) {bank = 2 : i64} : (memref<1xf32>) -> f32
        %3251 = addf %3249, %3250 : f32
        "equeue.write"(%3251, %arg9) {bank = 2 : i64} : (f32, memref<1xf32>) -> ()
        "equeue.return"() : () -> ()
      }) : (!equeue.signal, i32, memref<1xf32>, memref<1xf32>, memref<1xf32>, memref<1xf32>, memref<1xf32>) -> !equeue.signal
      %350 = "equeue.control_and"(%349, %done_102) : (!equeue.signal, !equeue.signal) -> !equeue.signal
      %done_103 = "equeue.launch"(%328, %240, %243, %241, %242, %273, %272) ( {
      ^bb0(%arg5: memref<1xf32>, %arg6: memref<1xf32>, %arg7: memref<1xf32>, %arg8: memref<1xf32>, %arg9: memref<1xf32>):  // no predecessors
        %3247 = "equeue.read"(%arg5) {bank = 0 : i64} : (memref<1xf32>) -> f32
        "equeue.write"(%3247, %arg8) {bank = 0 : i64} : (f32, memref<1xf32>) -> ()
        %3248 = "equeue.read"(%arg6) {bank = 1 : i64} : (memref<1xf32>) -> f32
        %3249 = mulf %3247, %3248 : f32
        %3250 = "equeue.read"(%arg7) {bank = 2 : i64} : (memref<1xf32>) -> f32
        %3251 = addf %3249, %3250 : f32
        "equeue.write"(%3251, %arg9) {bank = 2 : i64} : (f32, memref<1xf32>) -> ()
        "equeue.return"() : () -> ()
      }) : (!equeue.signal, i32, memref<1xf32>, memref<1xf32>, memref<1xf32>, memref<1xf32>, memref<1xf32>) -> !equeue.signal
      %351 = "equeue.control_and"(%350, %done_103) : (!equeue.signal, !equeue.signal) -> !equeue.signal
      %done_104 = "equeue.launch"(%328, %270, %273, %271, %272, %123) ( {
      ^bb0(%arg5: memref<1xf32>, %arg6: memref<1xf32>, %arg7: memref<1xf32>, %arg8: memref<5x3x3xf32>):  // no predecessors
        %3247 = "equeue.read"(%arg5) {bank = 0 : i64} : (memref<1xf32>) -> f32
        %3248 = "equeue.read"(%arg6) {bank = 1 : i64} : (memref<1xf32>) -> f32
        %3249 = mulf %3247, %3248 : f32
        %3250 = "equeue.read"(%arg7) {bank = 2 : i64} : (memref<1xf32>) -> f32
        %3251 = addf %3249, %3250 : f32
        "equeue.return"() : () -> ()
      }) : (!equeue.signal, i32, memref<1xf32>, memref<1xf32>, memref<1xf32>, memref<5x3x3xf32>) -> !equeue.signal
      %352 = "equeue.control_and"(%351, %done_104) : (!equeue.signal, !equeue.signal) -> !equeue.signal
      "equeue.await"(%352) : (!equeue.signal) -> ()
      %353 = "equeue.control_start"() : () -> !equeue.signal
      %354 = "equeue.memcpy"(%353, %121, %129, %102, %c0) {dest_bank = 0 : i64, src_bank = 0 : i64} : (!equeue.signal, memref<3x7x7xf32>, memref<1xf32>, i32, index) -> !equeue.signal
      "equeue.await"(%354) : (!equeue.signal) -> ()
      %355 = "equeue.control_start"() : () -> !equeue.signal
      %done_105 = "equeue.launch"(%355, %126, %129, %127, %128, %135, %159, %158) ( {
      ^bb0(%arg5: memref<1xf32>, %arg6: memref<1xf32>, %arg7: memref<1xf32>, %arg8: memref<1xf32>, %arg9: memref<1xf32>, %arg10: memref<1xf32>):  // no predecessors
        %3247 = "equeue.read"(%arg5) {bank = 0 : i64} : (memref<1xf32>) -> f32
        "equeue.write"(%3247, %arg8) {bank = 0 : i64} : (f32, memref<1xf32>) -> ()
        "equeue.write"(%3247, %arg9) {bank = 0 : i64} : (f32, memref<1xf32>) -> ()
        %3248 = "equeue.read"(%arg6) {bank = 1 : i64} : (memref<1xf32>) -> f32
        %3249 = mulf %3247, %3248 : f32
        %3250 = "equeue.read"(%arg7) {bank = 2 : i64} : (memref<1xf32>) -> f32
        %3251 = addf %3249, %3250 : f32
        "equeue.write"(%3251, %arg10) {bank = 2 : i64} : (f32, memref<1xf32>) -> ()
        "equeue.return"() : () -> ()
      }) : (!equeue.signal, i32, memref<1xf32>, memref<1xf32>, memref<1xf32>, memref<1xf32>, memref<1xf32>, memref<1xf32>) -> !equeue.signal
      %done_106 = "equeue.launch"(%355, %156, %159, %157, %158, %165, %189, %188) ( {
      ^bb0(%arg5: memref<1xf32>, %arg6: memref<1xf32>, %arg7: memref<1xf32>, %arg8: memref<1xf32>, %arg9: memref<1xf32>, %arg10: memref<1xf32>):  // no predecessors
        %3247 = "equeue.read"(%arg5) {bank = 0 : i64} : (memref<1xf32>) -> f32
        "equeue.write"(%3247, %arg8) {bank = 0 : i64} : (f32, memref<1xf32>) -> ()
        "equeue.write"(%3247, %arg9) {bank = 0 : i64} : (f32, memref<1xf32>) -> ()
        %3248 = "equeue.read"(%arg6) {bank = 1 : i64} : (memref<1xf32>) -> f32
        %3249 = mulf %3247, %3248 : f32
        %3250 = "equeue.read"(%arg7) {bank = 2 : i64} : (memref<1xf32>) -> f32
        %3251 = addf %3249, %3250 : f32
        "equeue.write"(%3251, %arg10) {bank = 2 : i64} : (f32, memref<1xf32>) -> ()
        "equeue.return"() : () -> ()
      }) : (!equeue.signal, i32, memref<1xf32>, memref<1xf32>, memref<1xf32>, memref<1xf32>, memref<1xf32>, memref<1xf32>) -> !equeue.signal
      %356 = "equeue.control_and"(%done_105, %done_106) : (!equeue.signal, !equeue.signal) -> !equeue.signal
      %done_107 = "equeue.launch"(%355, %186, %189, %187, %188, %195, %219, %218) ( {
      ^bb0(%arg5: memref<1xf32>, %arg6: memref<1xf32>, %arg7: memref<1xf32>, %arg8: memref<1xf32>, %arg9: memref<1xf32>, %arg10: memref<1xf32>):  // no predecessors
        %3247 = "equeue.read"(%arg5) {bank = 0 : i64} : (memref<1xf32>) -> f32
        "equeue.write"(%3247, %arg8) {bank = 0 : i64} : (f32, memref<1xf32>) -> ()
        "equeue.write"(%3247, %arg9) {bank = 0 : i64} : (f32, memref<1xf32>) -> ()
        %3248 = "equeue.read"(%arg6) {bank = 1 : i64} : (memref<1xf32>) -> f32
        %3249 = mulf %3247, %3248 : f32
        %3250 = "equeue.read"(%arg7) {bank = 2 : i64} : (memref<1xf32>) -> f32
        %3251 = addf %3249, %3250 : f32
        "equeue.write"(%3251, %arg10) {bank = 2 : i64} : (f32, memref<1xf32>) -> ()
        "equeue.return"() : () -> ()
      }) : (!equeue.signal, i32, memref<1xf32>, memref<1xf32>, memref<1xf32>, memref<1xf32>, memref<1xf32>, memref<1xf32>) -> !equeue.signal
      %357 = "equeue.control_and"(%356, %done_107) : (!equeue.signal, !equeue.signal) -> !equeue.signal
      %done_108 = "equeue.launch"(%355, %216, %219, %217, %218, %225, %249, %248) ( {
      ^bb0(%arg5: memref<1xf32>, %arg6: memref<1xf32>, %arg7: memref<1xf32>, %arg8: memref<1xf32>, %arg9: memref<1xf32>, %arg10: memref<1xf32>):  // no predecessors
        %3247 = "equeue.read"(%arg5) {bank = 0 : i64} : (memref<1xf32>) -> f32
        "equeue.write"(%3247, %arg8) {bank = 0 : i64} : (f32, memref<1xf32>) -> ()
        "equeue.write"(%3247, %arg9) {bank = 0 : i64} : (f32, memref<1xf32>) -> ()
        %3248 = "equeue.read"(%arg6) {bank = 1 : i64} : (memref<1xf32>) -> f32
        %3249 = mulf %3247, %3248 : f32
        %3250 = "equeue.read"(%arg7) {bank = 2 : i64} : (memref<1xf32>) -> f32
        %3251 = addf %3249, %3250 : f32
        "equeue.write"(%3251, %arg10) {bank = 2 : i64} : (f32, memref<1xf32>) -> ()
        "equeue.return"() : () -> ()
      }) : (!equeue.signal, i32, memref<1xf32>, memref<1xf32>, memref<1xf32>, memref<1xf32>, memref<1xf32>, memref<1xf32>) -> !equeue.signal
      %358 = "equeue.control_and"(%357, %done_108) : (!equeue.signal, !equeue.signal) -> !equeue.signal
      %done_109 = "equeue.launch"(%355, %246, %249, %247, %248, %255, %123) ( {
      ^bb0(%arg5: memref<1xf32>, %arg6: memref<1xf32>, %arg7: memref<1xf32>, %arg8: memref<1xf32>, %arg9: memref<5x3x3xf32>):  // no predecessors
        %3247 = "equeue.read"(%arg5) {bank = 0 : i64} : (memref<1xf32>) -> f32
        "equeue.write"(%3247, %arg8) {bank = 0 : i64} : (f32, memref<1xf32>) -> ()
        %3248 = "equeue.read"(%arg6) {bank = 1 : i64} : (memref<1xf32>) -> f32
        %3249 = mulf %3247, %3248 : f32
        %3250 = "equeue.read"(%arg7) {bank = 2 : i64} : (memref<1xf32>) -> f32
        %3251 = addf %3249, %3250 : f32
        "equeue.return"() : () -> ()
      }) : (!equeue.signal, i32, memref<1xf32>, memref<1xf32>, memref<1xf32>, memref<1xf32>, memref<5x3x3xf32>) -> !equeue.signal
      %359 = "equeue.control_and"(%358, %done_109) : (!equeue.signal, !equeue.signal) -> !equeue.signal
      %done_110 = "equeue.launch"(%355, %132, %135, %133, %134, %141, %165, %164) ( {
      ^bb0(%arg5: memref<1xf32>, %arg6: memref<1xf32>, %arg7: memref<1xf32>, %arg8: memref<1xf32>, %arg9: memref<1xf32>, %arg10: memref<1xf32>):  // no predecessors
        %3247 = "equeue.read"(%arg5) {bank = 0 : i64} : (memref<1xf32>) -> f32
        "equeue.write"(%3247, %arg8) {bank = 0 : i64} : (f32, memref<1xf32>) -> ()
        "equeue.write"(%3247, %arg9) {bank = 0 : i64} : (f32, memref<1xf32>) -> ()
        %3248 = "equeue.read"(%arg6) {bank = 1 : i64} : (memref<1xf32>) -> f32
        %3249 = mulf %3247, %3248 : f32
        %3250 = "equeue.read"(%arg7) {bank = 2 : i64} : (memref<1xf32>) -> f32
        %3251 = addf %3249, %3250 : f32
        "equeue.write"(%3251, %arg10) {bank = 2 : i64} : (f32, memref<1xf32>) -> ()
        "equeue.return"() : () -> ()
      }) : (!equeue.signal, i32, memref<1xf32>, memref<1xf32>, memref<1xf32>, memref<1xf32>, memref<1xf32>, memref<1xf32>) -> !equeue.signal
      %360 = "equeue.control_and"(%359, %done_110) : (!equeue.signal, !equeue.signal) -> !equeue.signal
      %done_111 = "equeue.launch"(%355, %162, %165, %163, %164, %171, %195, %194) ( {
      ^bb0(%arg5: memref<1xf32>, %arg6: memref<1xf32>, %arg7: memref<1xf32>, %arg8: memref<1xf32>, %arg9: memref<1xf32>, %arg10: memref<1xf32>):  // no predecessors
        %3247 = "equeue.read"(%arg5) {bank = 0 : i64} : (memref<1xf32>) -> f32
        "equeue.write"(%3247, %arg8) {bank = 0 : i64} : (f32, memref<1xf32>) -> ()
        "equeue.write"(%3247, %arg9) {bank = 0 : i64} : (f32, memref<1xf32>) -> ()
        %3248 = "equeue.read"(%arg6) {bank = 1 : i64} : (memref<1xf32>) -> f32
        %3249 = mulf %3247, %3248 : f32
        %3250 = "equeue.read"(%arg7) {bank = 2 : i64} : (memref<1xf32>) -> f32
        %3251 = addf %3249, %3250 : f32
        "equeue.write"(%3251, %arg10) {bank = 2 : i64} : (f32, memref<1xf32>) -> ()
        "equeue.return"() : () -> ()
      }) : (!equeue.signal, i32, memref<1xf32>, memref<1xf32>, memref<1xf32>, memref<1xf32>, memref<1xf32>, memref<1xf32>) -> !equeue.signal
      %361 = "equeue.control_and"(%360, %done_111) : (!equeue.signal, !equeue.signal) -> !equeue.signal
      %done_112 = "equeue.launch"(%355, %192, %195, %193, %194, %201, %225, %224) ( {
      ^bb0(%arg5: memref<1xf32>, %arg6: memref<1xf32>, %arg7: memref<1xf32>, %arg8: memref<1xf32>, %arg9: memref<1xf32>, %arg10: memref<1xf32>):  // no predecessors
        %3247 = "equeue.read"(%arg5) {bank = 0 : i64} : (memref<1xf32>) -> f32
        "equeue.write"(%3247, %arg8) {bank = 0 : i64} : (f32, memref<1xf32>) -> ()
        "equeue.write"(%3247, %arg9) {bank = 0 : i64} : (f32, memref<1xf32>) -> ()
        %3248 = "equeue.read"(%arg6) {bank = 1 : i64} : (memref<1xf32>) -> f32
        %3249 = mulf %3247, %3248 : f32
        %3250 = "equeue.read"(%arg7) {bank = 2 : i64} : (memref<1xf32>) -> f32
        %3251 = addf %3249, %3250 : f32
        "equeue.write"(%3251, %arg10) {bank = 2 : i64} : (f32, memref<1xf32>) -> ()
        "equeue.return"() : () -> ()
      }) : (!equeue.signal, i32, memref<1xf32>, memref<1xf32>, memref<1xf32>, memref<1xf32>, memref<1xf32>, memref<1xf32>) -> !equeue.signal
      %362 = "equeue.control_and"(%361, %done_112) : (!equeue.signal, !equeue.signal) -> !equeue.signal
      %done_113 = "equeue.launch"(%355, %222, %225, %223, %224, %231, %255, %254) ( {
      ^bb0(%arg5: memref<1xf32>, %arg6: memref<1xf32>, %arg7: memref<1xf32>, %arg8: memref<1xf32>, %arg9: memref<1xf32>, %arg10: memref<1xf32>):  // no predecessors
        %3247 = "equeue.read"(%arg5) {bank = 0 : i64} : (memref<1xf32>) -> f32
        "equeue.write"(%3247, %arg8) {bank = 0 : i64} : (f32, memref<1xf32>) -> ()
        "equeue.write"(%3247, %arg9) {bank = 0 : i64} : (f32, memref<1xf32>) -> ()
        %3248 = "equeue.read"(%arg6) {bank = 1 : i64} : (memref<1xf32>) -> f32
        %3249 = mulf %3247, %3248 : f32
        %3250 = "equeue.read"(%arg7) {bank = 2 : i64} : (memref<1xf32>) -> f32
        %3251 = addf %3249, %3250 : f32
        "equeue.write"(%3251, %arg10) {bank = 2 : i64} : (f32, memref<1xf32>) -> ()
        "equeue.return"() : () -> ()
      }) : (!equeue.signal, i32, memref<1xf32>, memref<1xf32>, memref<1xf32>, memref<1xf32>, memref<1xf32>, memref<1xf32>) -> !equeue.signal
      %363 = "equeue.control_and"(%362, %done_113) : (!equeue.signal, !equeue.signal) -> !equeue.signal
      %done_114 = "equeue.launch"(%355, %252, %255, %253, %254, %261, %123) ( {
      ^bb0(%arg5: memref<1xf32>, %arg6: memref<1xf32>, %arg7: memref<1xf32>, %arg8: memref<1xf32>, %arg9: memref<5x3x3xf32>):  // no predecessors
        %3247 = "equeue.read"(%arg5) {bank = 0 : i64} : (memref<1xf32>) -> f32
        "equeue.write"(%3247, %arg8) {bank = 0 : i64} : (f32, memref<1xf32>) -> ()
        %3248 = "equeue.read"(%arg6) {bank = 1 : i64} : (memref<1xf32>) -> f32
        %3249 = mulf %3247, %3248 : f32
        %3250 = "equeue.read"(%arg7) {bank = 2 : i64} : (memref<1xf32>) -> f32
        %3251 = addf %3249, %3250 : f32
        "equeue.return"() : () -> ()
      }) : (!equeue.signal, i32, memref<1xf32>, memref<1xf32>, memref<1xf32>, memref<1xf32>, memref<5x3x3xf32>) -> !equeue.signal
      %364 = "equeue.control_and"(%363, %done_114) : (!equeue.signal, !equeue.signal) -> !equeue.signal
      %done_115 = "equeue.launch"(%355, %138, %141, %139, %140, %147, %171, %170) ( {
      ^bb0(%arg5: memref<1xf32>, %arg6: memref<1xf32>, %arg7: memref<1xf32>, %arg8: memref<1xf32>, %arg9: memref<1xf32>, %arg10: memref<1xf32>):  // no predecessors
        %3247 = "equeue.read"(%arg5) {bank = 0 : i64} : (memref<1xf32>) -> f32
        "equeue.write"(%3247, %arg8) {bank = 0 : i64} : (f32, memref<1xf32>) -> ()
        "equeue.write"(%3247, %arg9) {bank = 0 : i64} : (f32, memref<1xf32>) -> ()
        %3248 = "equeue.read"(%arg6) {bank = 1 : i64} : (memref<1xf32>) -> f32
        %3249 = mulf %3247, %3248 : f32
        %3250 = "equeue.read"(%arg7) {bank = 2 : i64} : (memref<1xf32>) -> f32
        %3251 = addf %3249, %3250 : f32
        "equeue.write"(%3251, %arg10) {bank = 2 : i64} : (f32, memref<1xf32>) -> ()
        "equeue.return"() : () -> ()
      }) : (!equeue.signal, i32, memref<1xf32>, memref<1xf32>, memref<1xf32>, memref<1xf32>, memref<1xf32>, memref<1xf32>) -> !equeue.signal
      %365 = "equeue.control_and"(%364, %done_115) : (!equeue.signal, !equeue.signal) -> !equeue.signal
      %done_116 = "equeue.launch"(%355, %168, %171, %169, %170, %177, %201, %200) ( {
      ^bb0(%arg5: memref<1xf32>, %arg6: memref<1xf32>, %arg7: memref<1xf32>, %arg8: memref<1xf32>, %arg9: memref<1xf32>, %arg10: memref<1xf32>):  // no predecessors
        %3247 = "equeue.read"(%arg5) {bank = 0 : i64} : (memref<1xf32>) -> f32
        "equeue.write"(%3247, %arg8) {bank = 0 : i64} : (f32, memref<1xf32>) -> ()
        "equeue.write"(%3247, %arg9) {bank = 0 : i64} : (f32, memref<1xf32>) -> ()
        %3248 = "equeue.read"(%arg6) {bank = 1 : i64} : (memref<1xf32>) -> f32
        %3249 = mulf %3247, %3248 : f32
        %3250 = "equeue.read"(%arg7) {bank = 2 : i64} : (memref<1xf32>) -> f32
        %3251 = addf %3249, %3250 : f32
        "equeue.write"(%3251, %arg10) {bank = 2 : i64} : (f32, memref<1xf32>) -> ()
        "equeue.return"() : () -> ()
      }) : (!equeue.signal, i32, memref<1xf32>, memref<1xf32>, memref<1xf32>, memref<1xf32>, memref<1xf32>, memref<1xf32>) -> !equeue.signal
      %366 = "equeue.control_and"(%365, %done_116) : (!equeue.signal, !equeue.signal) -> !equeue.signal
      %done_117 = "equeue.launch"(%355, %198, %201, %199, %200, %207, %231, %230) ( {
      ^bb0(%arg5: memref<1xf32>, %arg6: memref<1xf32>, %arg7: memref<1xf32>, %arg8: memref<1xf32>, %arg9: memref<1xf32>, %arg10: memref<1xf32>):  // no predecessors
        %3247 = "equeue.read"(%arg5) {bank = 0 : i64} : (memref<1xf32>) -> f32
        "equeue.write"(%3247, %arg8) {bank = 0 : i64} : (f32, memref<1xf32>) -> ()
        "equeue.write"(%3247, %arg9) {bank = 0 : i64} : (f32, memref<1xf32>) -> ()
        %3248 = "equeue.read"(%arg6) {bank = 1 : i64} : (memref<1xf32>) -> f32
        %3249 = mulf %3247, %3248 : f32
        %3250 = "equeue.read"(%arg7) {bank = 2 : i64} : (memref<1xf32>) -> f32
        %3251 = addf %3249, %3250 : f32
        "equeue.write"(%3251, %arg10) {bank = 2 : i64} : (f32, memref<1xf32>) -> ()
        "equeue.return"() : () -> ()
      }) : (!equeue.signal, i32, memref<1xf32>, memref<1xf32>, memref<1xf32>, memref<1xf32>, memref<1xf32>, memref<1xf32>) -> !equeue.signal
      %367 = "equeue.control_and"(%366, %done_117) : (!equeue.signal, !equeue.signal) -> !equeue.signal
      %done_118 = "equeue.launch"(%355, %228, %231, %229, %230, %237, %261, %260) ( {
      ^bb0(%arg5: memref<1xf32>, %arg6: memref<1xf32>, %arg7: memref<1xf32>, %arg8: memref<1xf32>, %arg9: memref<1xf32>, %arg10: memref<1xf32>):  // no predecessors
        %3247 = "equeue.read"(%arg5) {bank = 0 : i64} : (memref<1xf32>) -> f32
        "equeue.write"(%3247, %arg8) {bank = 0 : i64} : (f32, memref<1xf32>) -> ()
        "equeue.write"(%3247, %arg9) {bank = 0 : i64} : (f32, memref<1xf32>) -> ()
        %3248 = "equeue.read"(%arg6) {bank = 1 : i64} : (memref<1xf32>) -> f32
        %3249 = mulf %3247, %3248 : f32
        %3250 = "equeue.read"(%arg7) {bank = 2 : i64} : (memref<1xf32>) -> f32
        %3251 = addf %3249, %3250 : f32
        "equeue.write"(%3251, %arg10) {bank = 2 : i64} : (f32, memref<1xf32>) -> ()
        "equeue.return"() : () -> ()
      }) : (!equeue.signal, i32, memref<1xf32>, memref<1xf32>, memref<1xf32>, memref<1xf32>, memref<1xf32>, memref<1xf32>) -> !equeue.signal
      %368 = "equeue.control_and"(%367, %done_118) : (!equeue.signal, !equeue.signal) -> !equeue.signal
      %done_119 = "equeue.launch"(%355, %258, %261, %259, %260, %267, %123) ( {
      ^bb0(%arg5: memref<1xf32>, %arg6: memref<1xf32>, %arg7: memref<1xf32>, %arg8: memref<1xf32>, %arg9: memref<5x3x3xf32>):  // no predecessors
        %3247 = "equeue.read"(%arg5) {bank = 0 : i64} : (memref<1xf32>) -> f32
        "equeue.write"(%3247, %arg8) {bank = 0 : i64} : (f32, memref<1xf32>) -> ()
        %3248 = "equeue.read"(%arg6) {bank = 1 : i64} : (memref<1xf32>) -> f32
        %3249 = mulf %3247, %3248 : f32
        %3250 = "equeue.read"(%arg7) {bank = 2 : i64} : (memref<1xf32>) -> f32
        %3251 = addf %3249, %3250 : f32
        "equeue.return"() : () -> ()
      }) : (!equeue.signal, i32, memref<1xf32>, memref<1xf32>, memref<1xf32>, memref<1xf32>, memref<5x3x3xf32>) -> !equeue.signal
      %369 = "equeue.control_and"(%368, %done_119) : (!equeue.signal, !equeue.signal) -> !equeue.signal
      %done_120 = "equeue.launch"(%355, %144, %147, %145, %146, %153, %177, %176) ( {
      ^bb0(%arg5: memref<1xf32>, %arg6: memref<1xf32>, %arg7: memref<1xf32>, %arg8: memref<1xf32>, %arg9: memref<1xf32>, %arg10: memref<1xf32>):  // no predecessors
        %3247 = "equeue.read"(%arg5) {bank = 0 : i64} : (memref<1xf32>) -> f32
        "equeue.write"(%3247, %arg8) {bank = 0 : i64} : (f32, memref<1xf32>) -> ()
        "equeue.write"(%3247, %arg9) {bank = 0 : i64} : (f32, memref<1xf32>) -> ()
        %3248 = "equeue.read"(%arg6) {bank = 1 : i64} : (memref<1xf32>) -> f32
        %3249 = mulf %3247, %3248 : f32
        %3250 = "equeue.read"(%arg7) {bank = 2 : i64} : (memref<1xf32>) -> f32
        %3251 = addf %3249, %3250 : f32
        "equeue.write"(%3251, %arg10) {bank = 2 : i64} : (f32, memref<1xf32>) -> ()
        "equeue.return"() : () -> ()
      }) : (!equeue.signal, i32, memref<1xf32>, memref<1xf32>, memref<1xf32>, memref<1xf32>, memref<1xf32>, memref<1xf32>) -> !equeue.signal
      %370 = "equeue.control_and"(%369, %done_120) : (!equeue.signal, !equeue.signal) -> !equeue.signal
      %done_121 = "equeue.launch"(%355, %174, %177, %175, %176, %183, %207, %206) ( {
      ^bb0(%arg5: memref<1xf32>, %arg6: memref<1xf32>, %arg7: memref<1xf32>, %arg8: memref<1xf32>, %arg9: memref<1xf32>, %arg10: memref<1xf32>):  // no predecessors
        %3247 = "equeue.read"(%arg5) {bank = 0 : i64} : (memref<1xf32>) -> f32
        "equeue.write"(%3247, %arg8) {bank = 0 : i64} : (f32, memref<1xf32>) -> ()
        "equeue.write"(%3247, %arg9) {bank = 0 : i64} : (f32, memref<1xf32>) -> ()
        %3248 = "equeue.read"(%arg6) {bank = 1 : i64} : (memref<1xf32>) -> f32
        %3249 = mulf %3247, %3248 : f32
        %3250 = "equeue.read"(%arg7) {bank = 2 : i64} : (memref<1xf32>) -> f32
        %3251 = addf %3249, %3250 : f32
        "equeue.write"(%3251, %arg10) {bank = 2 : i64} : (f32, memref<1xf32>) -> ()
        "equeue.return"() : () -> ()
      }) : (!equeue.signal, i32, memref<1xf32>, memref<1xf32>, memref<1xf32>, memref<1xf32>, memref<1xf32>, memref<1xf32>) -> !equeue.signal
      %371 = "equeue.control_and"(%370, %done_121) : (!equeue.signal, !equeue.signal) -> !equeue.signal
      %done_122 = "equeue.launch"(%355, %204, %207, %205, %206, %213, %237, %236) ( {
      ^bb0(%arg5: memref<1xf32>, %arg6: memref<1xf32>, %arg7: memref<1xf32>, %arg8: memref<1xf32>, %arg9: memref<1xf32>, %arg10: memref<1xf32>):  // no predecessors
        %3247 = "equeue.read"(%arg5) {bank = 0 : i64} : (memref<1xf32>) -> f32
        "equeue.write"(%3247, %arg8) {bank = 0 : i64} : (f32, memref<1xf32>) -> ()
        "equeue.write"(%3247, %arg9) {bank = 0 : i64} : (f32, memref<1xf32>) -> ()
        %3248 = "equeue.read"(%arg6) {bank = 1 : i64} : (memref<1xf32>) -> f32
        %3249 = mulf %3247, %3248 : f32
        %3250 = "equeue.read"(%arg7) {bank = 2 : i64} : (memref<1xf32>) -> f32
        %3251 = addf %3249, %3250 : f32
        "equeue.write"(%3251, %arg10) {bank = 2 : i64} : (f32, memref<1xf32>) -> ()
        "equeue.return"() : () -> ()
      }) : (!equeue.signal, i32, memref<1xf32>, memref<1xf32>, memref<1xf32>, memref<1xf32>, memref<1xf32>, memref<1xf32>) -> !equeue.signal
      %372 = "equeue.control_and"(%371, %done_122) : (!equeue.signal, !equeue.signal) -> !equeue.signal
      %done_123 = "equeue.launch"(%355, %234, %237, %235, %236, %243, %267, %266) ( {
      ^bb0(%arg5: memref<1xf32>, %arg6: memref<1xf32>, %arg7: memref<1xf32>, %arg8: memref<1xf32>, %arg9: memref<1xf32>, %arg10: memref<1xf32>):  // no predecessors
        %3247 = "equeue.read"(%arg5) {bank = 0 : i64} : (memref<1xf32>) -> f32
        "equeue.write"(%3247, %arg8) {bank = 0 : i64} : (f32, memref<1xf32>) -> ()
        "equeue.write"(%3247, %arg9) {bank = 0 : i64} : (f32, memref<1xf32>) -> ()
        %3248 = "equeue.read"(%arg6) {bank = 1 : i64} : (memref<1xf32>) -> f32
        %3249 = mulf %3247, %3248 : f32
        %3250 = "equeue.read"(%arg7) {bank = 2 : i64} : (memref<1xf32>) -> f32
        %3251 = addf %3249, %3250 : f32
        "equeue.write"(%3251, %arg10) {bank = 2 : i64} : (f32, memref<1xf32>) -> ()
        "equeue.return"() : () -> ()
      }) : (!equeue.signal, i32, memref<1xf32>, memref<1xf32>, memref<1xf32>, memref<1xf32>, memref<1xf32>, memref<1xf32>) -> !equeue.signal
      %373 = "equeue.control_and"(%372, %done_123) : (!equeue.signal, !equeue.signal) -> !equeue.signal
      %done_124 = "equeue.launch"(%355, %264, %267, %265, %266, %273, %123) ( {
      ^bb0(%arg5: memref<1xf32>, %arg6: memref<1xf32>, %arg7: memref<1xf32>, %arg8: memref<1xf32>, %arg9: memref<5x3x3xf32>):  // no predecessors
        %3247 = "equeue.read"(%arg5) {bank = 0 : i64} : (memref<1xf32>) -> f32
        "equeue.write"(%3247, %arg8) {bank = 0 : i64} : (f32, memref<1xf32>) -> ()
        %3248 = "equeue.read"(%arg6) {bank = 1 : i64} : (memref<1xf32>) -> f32
        %3249 = mulf %3247, %3248 : f32
        %3250 = "equeue.read"(%arg7) {bank = 2 : i64} : (memref<1xf32>) -> f32
        %3251 = addf %3249, %3250 : f32
        "equeue.return"() : () -> ()
      }) : (!equeue.signal, i32, memref<1xf32>, memref<1xf32>, memref<1xf32>, memref<1xf32>, memref<5x3x3xf32>) -> !equeue.signal
      %374 = "equeue.control_and"(%373, %done_124) : (!equeue.signal, !equeue.signal) -> !equeue.signal
      %done_125 = "equeue.launch"(%355, %150, %153, %151, %152, %183, %182) ( {
      ^bb0(%arg5: memref<1xf32>, %arg6: memref<1xf32>, %arg7: memref<1xf32>, %arg8: memref<1xf32>, %arg9: memref<1xf32>):  // no predecessors
        %3247 = "equeue.read"(%arg5) {bank = 0 : i64} : (memref<1xf32>) -> f32
        "equeue.write"(%3247, %arg8) {bank = 0 : i64} : (f32, memref<1xf32>) -> ()
        %3248 = "equeue.read"(%arg6) {bank = 1 : i64} : (memref<1xf32>) -> f32
        %3249 = mulf %3247, %3248 : f32
        %3250 = "equeue.read"(%arg7) {bank = 2 : i64} : (memref<1xf32>) -> f32
        %3251 = addf %3249, %3250 : f32
        "equeue.write"(%3251, %arg9) {bank = 2 : i64} : (f32, memref<1xf32>) -> ()
        "equeue.return"() : () -> ()
      }) : (!equeue.signal, i32, memref<1xf32>, memref<1xf32>, memref<1xf32>, memref<1xf32>, memref<1xf32>) -> !equeue.signal
      %375 = "equeue.control_and"(%374, %done_125) : (!equeue.signal, !equeue.signal) -> !equeue.signal
      %done_126 = "equeue.launch"(%355, %180, %183, %181, %182, %213, %212) ( {
      ^bb0(%arg5: memref<1xf32>, %arg6: memref<1xf32>, %arg7: memref<1xf32>, %arg8: memref<1xf32>, %arg9: memref<1xf32>):  // no predecessors
        %3247 = "equeue.read"(%arg5) {bank = 0 : i64} : (memref<1xf32>) -> f32
        "equeue.write"(%3247, %arg8) {bank = 0 : i64} : (f32, memref<1xf32>) -> ()
        %3248 = "equeue.read"(%arg6) {bank = 1 : i64} : (memref<1xf32>) -> f32
        %3249 = mulf %3247, %3248 : f32
        %3250 = "equeue.read"(%arg7) {bank = 2 : i64} : (memref<1xf32>) -> f32
        %3251 = addf %3249, %3250 : f32
        "equeue.write"(%3251, %arg9) {bank = 2 : i64} : (f32, memref<1xf32>) -> ()
        "equeue.return"() : () -> ()
      }) : (!equeue.signal, i32, memref<1xf32>, memref<1xf32>, memref<1xf32>, memref<1xf32>, memref<1xf32>) -> !equeue.signal
      %376 = "equeue.control_and"(%375, %done_126) : (!equeue.signal, !equeue.signal) -> !equeue.signal
      %done_127 = "equeue.launch"(%355, %210, %213, %211, %212, %243, %242) ( {
      ^bb0(%arg5: memref<1xf32>, %arg6: memref<1xf32>, %arg7: memref<1xf32>, %arg8: memref<1xf32>, %arg9: memref<1xf32>):  // no predecessors
        %3247 = "equeue.read"(%arg5) {bank = 0 : i64} : (memref<1xf32>) -> f32
        "equeue.write"(%3247, %arg8) {bank = 0 : i64} : (f32, memref<1xf32>) -> ()
        %3248 = "equeue.read"(%arg6) {bank = 1 : i64} : (memref<1xf32>) -> f32
        %3249 = mulf %3247, %3248 : f32
        %3250 = "equeue.read"(%arg7) {bank = 2 : i64} : (memref<1xf32>) -> f32
        %3251 = addf %3249, %3250 : f32
        "equeue.write"(%3251, %arg9) {bank = 2 : i64} : (f32, memref<1xf32>) -> ()
        "equeue.return"() : () -> ()
      }) : (!equeue.signal, i32, memref<1xf32>, memref<1xf32>, memref<1xf32>, memref<1xf32>, memref<1xf32>) -> !equeue.signal
      %377 = "equeue.control_and"(%376, %done_127) : (!equeue.signal, !equeue.signal) -> !equeue.signal
      %done_128 = "equeue.launch"(%355, %240, %243, %241, %242, %273, %272) ( {
      ^bb0(%arg5: memref<1xf32>, %arg6: memref<1xf32>, %arg7: memref<1xf32>, %arg8: memref<1xf32>, %arg9: memref<1xf32>):  // no predecessors
        %3247 = "equeue.read"(%arg5) {bank = 0 : i64} : (memref<1xf32>) -> f32
        "equeue.write"(%3247, %arg8) {bank = 0 : i64} : (f32, memref<1xf32>) -> ()
        %3248 = "equeue.read"(%arg6) {bank = 1 : i64} : (memref<1xf32>) -> f32
        %3249 = mulf %3247, %3248 : f32
        %3250 = "equeue.read"(%arg7) {bank = 2 : i64} : (memref<1xf32>) -> f32
        %3251 = addf %3249, %3250 : f32
        "equeue.write"(%3251, %arg9) {bank = 2 : i64} : (f32, memref<1xf32>) -> ()
        "equeue.return"() : () -> ()
      }) : (!equeue.signal, i32, memref<1xf32>, memref<1xf32>, memref<1xf32>, memref<1xf32>, memref<1xf32>) -> !equeue.signal
      %378 = "equeue.control_and"(%377, %done_128) : (!equeue.signal, !equeue.signal) -> !equeue.signal
      %done_129 = "equeue.launch"(%355, %270, %273, %271, %272, %123) ( {
      ^bb0(%arg5: memref<1xf32>, %arg6: memref<1xf32>, %arg7: memref<1xf32>, %arg8: memref<5x3x3xf32>):  // no predecessors
        %3247 = "equeue.read"(%arg5) {bank = 0 : i64} : (memref<1xf32>) -> f32
        %3248 = "equeue.read"(%arg6) {bank = 1 : i64} : (memref<1xf32>) -> f32
        %3249 = mulf %3247, %3248 : f32
        %3250 = "equeue.read"(%arg7) {bank = 2 : i64} : (memref<1xf32>) -> f32
        %3251 = addf %3249, %3250 : f32
        "equeue.return"() : () -> ()
      }) : (!equeue.signal, i32, memref<1xf32>, memref<1xf32>, memref<1xf32>, memref<5x3x3xf32>) -> !equeue.signal
      %379 = "equeue.control_and"(%378, %done_129) : (!equeue.signal, !equeue.signal) -> !equeue.signal
      "equeue.await"(%379) : (!equeue.signal) -> ()
      %380 = "equeue.control_start"() : () -> !equeue.signal
      %381 = "equeue.memcpy"(%380, %121, %129, %102, %c0) {dest_bank = 0 : i64, src_bank = 0 : i64} : (!equeue.signal, memref<3x7x7xf32>, memref<1xf32>, i32, index) -> !equeue.signal
      "equeue.await"(%381) : (!equeue.signal) -> ()
      %382 = "equeue.control_start"() : () -> !equeue.signal
      %done_130 = "equeue.launch"(%382, %126, %129, %127, %128, %135, %159, %158) ( {
      ^bb0(%arg5: memref<1xf32>, %arg6: memref<1xf32>, %arg7: memref<1xf32>, %arg8: memref<1xf32>, %arg9: memref<1xf32>, %arg10: memref<1xf32>):  // no predecessors
        %3247 = "equeue.read"(%arg5) {bank = 0 : i64} : (memref<1xf32>) -> f32
        "equeue.write"(%3247, %arg8) {bank = 0 : i64} : (f32, memref<1xf32>) -> ()
        "equeue.write"(%3247, %arg9) {bank = 0 : i64} : (f32, memref<1xf32>) -> ()
        %3248 = "equeue.read"(%arg6) {bank = 1 : i64} : (memref<1xf32>) -> f32
        %3249 = mulf %3247, %3248 : f32
        %3250 = "equeue.read"(%arg7) {bank = 2 : i64} : (memref<1xf32>) -> f32
        %3251 = addf %3249, %3250 : f32
        "equeue.write"(%3251, %arg10) {bank = 2 : i64} : (f32, memref<1xf32>) -> ()
        "equeue.return"() : () -> ()
      }) : (!equeue.signal, i32, memref<1xf32>, memref<1xf32>, memref<1xf32>, memref<1xf32>, memref<1xf32>, memref<1xf32>) -> !equeue.signal
      %done_131 = "equeue.launch"(%382, %156, %159, %157, %158, %165, %189, %188) ( {
      ^bb0(%arg5: memref<1xf32>, %arg6: memref<1xf32>, %arg7: memref<1xf32>, %arg8: memref<1xf32>, %arg9: memref<1xf32>, %arg10: memref<1xf32>):  // no predecessors
        %3247 = "equeue.read"(%arg5) {bank = 0 : i64} : (memref<1xf32>) -> f32
        "equeue.write"(%3247, %arg8) {bank = 0 : i64} : (f32, memref<1xf32>) -> ()
        "equeue.write"(%3247, %arg9) {bank = 0 : i64} : (f32, memref<1xf32>) -> ()
        %3248 = "equeue.read"(%arg6) {bank = 1 : i64} : (memref<1xf32>) -> f32
        %3249 = mulf %3247, %3248 : f32
        %3250 = "equeue.read"(%arg7) {bank = 2 : i64} : (memref<1xf32>) -> f32
        %3251 = addf %3249, %3250 : f32
        "equeue.write"(%3251, %arg10) {bank = 2 : i64} : (f32, memref<1xf32>) -> ()
        "equeue.return"() : () -> ()
      }) : (!equeue.signal, i32, memref<1xf32>, memref<1xf32>, memref<1xf32>, memref<1xf32>, memref<1xf32>, memref<1xf32>) -> !equeue.signal
      %383 = "equeue.control_and"(%done_130, %done_131) : (!equeue.signal, !equeue.signal) -> !equeue.signal
      %done_132 = "equeue.launch"(%382, %186, %189, %187, %188, %195, %219, %218) ( {
      ^bb0(%arg5: memref<1xf32>, %arg6: memref<1xf32>, %arg7: memref<1xf32>, %arg8: memref<1xf32>, %arg9: memref<1xf32>, %arg10: memref<1xf32>):  // no predecessors
        %3247 = "equeue.read"(%arg5) {bank = 0 : i64} : (memref<1xf32>) -> f32
        "equeue.write"(%3247, %arg8) {bank = 0 : i64} : (f32, memref<1xf32>) -> ()
        "equeue.write"(%3247, %arg9) {bank = 0 : i64} : (f32, memref<1xf32>) -> ()
        %3248 = "equeue.read"(%arg6) {bank = 1 : i64} : (memref<1xf32>) -> f32
        %3249 = mulf %3247, %3248 : f32
        %3250 = "equeue.read"(%arg7) {bank = 2 : i64} : (memref<1xf32>) -> f32
        %3251 = addf %3249, %3250 : f32
        "equeue.write"(%3251, %arg10) {bank = 2 : i64} : (f32, memref<1xf32>) -> ()
        "equeue.return"() : () -> ()
      }) : (!equeue.signal, i32, memref<1xf32>, memref<1xf32>, memref<1xf32>, memref<1xf32>, memref<1xf32>, memref<1xf32>) -> !equeue.signal
      %384 = "equeue.control_and"(%383, %done_132) : (!equeue.signal, !equeue.signal) -> !equeue.signal
      %done_133 = "equeue.launch"(%382, %216, %219, %217, %218, %225, %249, %248) ( {
      ^bb0(%arg5: memref<1xf32>, %arg6: memref<1xf32>, %arg7: memref<1xf32>, %arg8: memref<1xf32>, %arg9: memref<1xf32>, %arg10: memref<1xf32>):  // no predecessors
        %3247 = "equeue.read"(%arg5) {bank = 0 : i64} : (memref<1xf32>) -> f32
        "equeue.write"(%3247, %arg8) {bank = 0 : i64} : (f32, memref<1xf32>) -> ()
        "equeue.write"(%3247, %arg9) {bank = 0 : i64} : (f32, memref<1xf32>) -> ()
        %3248 = "equeue.read"(%arg6) {bank = 1 : i64} : (memref<1xf32>) -> f32
        %3249 = mulf %3247, %3248 : f32
        %3250 = "equeue.read"(%arg7) {bank = 2 : i64} : (memref<1xf32>) -> f32
        %3251 = addf %3249, %3250 : f32
        "equeue.write"(%3251, %arg10) {bank = 2 : i64} : (f32, memref<1xf32>) -> ()
        "equeue.return"() : () -> ()
      }) : (!equeue.signal, i32, memref<1xf32>, memref<1xf32>, memref<1xf32>, memref<1xf32>, memref<1xf32>, memref<1xf32>) -> !equeue.signal
      %385 = "equeue.control_and"(%384, %done_133) : (!equeue.signal, !equeue.signal) -> !equeue.signal
      %done_134 = "equeue.launch"(%382, %246, %249, %247, %248, %255, %123) ( {
      ^bb0(%arg5: memref<1xf32>, %arg6: memref<1xf32>, %arg7: memref<1xf32>, %arg8: memref<1xf32>, %arg9: memref<5x3x3xf32>):  // no predecessors
        %3247 = "equeue.read"(%arg5) {bank = 0 : i64} : (memref<1xf32>) -> f32
        "equeue.write"(%3247, %arg8) {bank = 0 : i64} : (f32, memref<1xf32>) -> ()
        %3248 = "equeue.read"(%arg6) {bank = 1 : i64} : (memref<1xf32>) -> f32
        %3249 = mulf %3247, %3248 : f32
        %3250 = "equeue.read"(%arg7) {bank = 2 : i64} : (memref<1xf32>) -> f32
        %3251 = addf %3249, %3250 : f32
        "equeue.return"() : () -> ()
      }) : (!equeue.signal, i32, memref<1xf32>, memref<1xf32>, memref<1xf32>, memref<1xf32>, memref<5x3x3xf32>) -> !equeue.signal
      %386 = "equeue.control_and"(%385, %done_134) : (!equeue.signal, !equeue.signal) -> !equeue.signal
      %done_135 = "equeue.launch"(%382, %132, %135, %133, %134, %141, %165, %164) ( {
      ^bb0(%arg5: memref<1xf32>, %arg6: memref<1xf32>, %arg7: memref<1xf32>, %arg8: memref<1xf32>, %arg9: memref<1xf32>, %arg10: memref<1xf32>):  // no predecessors
        %3247 = "equeue.read"(%arg5) {bank = 0 : i64} : (memref<1xf32>) -> f32
        "equeue.write"(%3247, %arg8) {bank = 0 : i64} : (f32, memref<1xf32>) -> ()
        "equeue.write"(%3247, %arg9) {bank = 0 : i64} : (f32, memref<1xf32>) -> ()
        %3248 = "equeue.read"(%arg6) {bank = 1 : i64} : (memref<1xf32>) -> f32
        %3249 = mulf %3247, %3248 : f32
        %3250 = "equeue.read"(%arg7) {bank = 2 : i64} : (memref<1xf32>) -> f32
        %3251 = addf %3249, %3250 : f32
        "equeue.write"(%3251, %arg10) {bank = 2 : i64} : (f32, memref<1xf32>) -> ()
        "equeue.return"() : () -> ()
      }) : (!equeue.signal, i32, memref<1xf32>, memref<1xf32>, memref<1xf32>, memref<1xf32>, memref<1xf32>, memref<1xf32>) -> !equeue.signal
      %387 = "equeue.control_and"(%386, %done_135) : (!equeue.signal, !equeue.signal) -> !equeue.signal
      %done_136 = "equeue.launch"(%382, %162, %165, %163, %164, %171, %195, %194) ( {
      ^bb0(%arg5: memref<1xf32>, %arg6: memref<1xf32>, %arg7: memref<1xf32>, %arg8: memref<1xf32>, %arg9: memref<1xf32>, %arg10: memref<1xf32>):  // no predecessors
        %3247 = "equeue.read"(%arg5) {bank = 0 : i64} : (memref<1xf32>) -> f32
        "equeue.write"(%3247, %arg8) {bank = 0 : i64} : (f32, memref<1xf32>) -> ()
        "equeue.write"(%3247, %arg9) {bank = 0 : i64} : (f32, memref<1xf32>) -> ()
        %3248 = "equeue.read"(%arg6) {bank = 1 : i64} : (memref<1xf32>) -> f32
        %3249 = mulf %3247, %3248 : f32
        %3250 = "equeue.read"(%arg7) {bank = 2 : i64} : (memref<1xf32>) -> f32
        %3251 = addf %3249, %3250 : f32
        "equeue.write"(%3251, %arg10) {bank = 2 : i64} : (f32, memref<1xf32>) -> ()
        "equeue.return"() : () -> ()
      }) : (!equeue.signal, i32, memref<1xf32>, memref<1xf32>, memref<1xf32>, memref<1xf32>, memref<1xf32>, memref<1xf32>) -> !equeue.signal
      %388 = "equeue.control_and"(%387, %done_136) : (!equeue.signal, !equeue.signal) -> !equeue.signal
      %done_137 = "equeue.launch"(%382, %192, %195, %193, %194, %201, %225, %224) ( {
      ^bb0(%arg5: memref<1xf32>, %arg6: memref<1xf32>, %arg7: memref<1xf32>, %arg8: memref<1xf32>, %arg9: memref<1xf32>, %arg10: memref<1xf32>):  // no predecessors
        %3247 = "equeue.read"(%arg5) {bank = 0 : i64} : (memref<1xf32>) -> f32
        "equeue.write"(%3247, %arg8) {bank = 0 : i64} : (f32, memref<1xf32>) -> ()
        "equeue.write"(%3247, %arg9) {bank = 0 : i64} : (f32, memref<1xf32>) -> ()
        %3248 = "equeue.read"(%arg6) {bank = 1 : i64} : (memref<1xf32>) -> f32
        %3249 = mulf %3247, %3248 : f32
        %3250 = "equeue.read"(%arg7) {bank = 2 : i64} : (memref<1xf32>) -> f32
        %3251 = addf %3249, %3250 : f32
        "equeue.write"(%3251, %arg10) {bank = 2 : i64} : (f32, memref<1xf32>) -> ()
        "equeue.return"() : () -> ()
      }) : (!equeue.signal, i32, memref<1xf32>, memref<1xf32>, memref<1xf32>, memref<1xf32>, memref<1xf32>, memref<1xf32>) -> !equeue.signal
      %389 = "equeue.control_and"(%388, %done_137) : (!equeue.signal, !equeue.signal) -> !equeue.signal
      %done_138 = "equeue.launch"(%382, %222, %225, %223, %224, %231, %255, %254) ( {
      ^bb0(%arg5: memref<1xf32>, %arg6: memref<1xf32>, %arg7: memref<1xf32>, %arg8: memref<1xf32>, %arg9: memref<1xf32>, %arg10: memref<1xf32>):  // no predecessors
        %3247 = "equeue.read"(%arg5) {bank = 0 : i64} : (memref<1xf32>) -> f32
        "equeue.write"(%3247, %arg8) {bank = 0 : i64} : (f32, memref<1xf32>) -> ()
        "equeue.write"(%3247, %arg9) {bank = 0 : i64} : (f32, memref<1xf32>) -> ()
        %3248 = "equeue.read"(%arg6) {bank = 1 : i64} : (memref<1xf32>) -> f32
        %3249 = mulf %3247, %3248 : f32
        %3250 = "equeue.read"(%arg7) {bank = 2 : i64} : (memref<1xf32>) -> f32
        %3251 = addf %3249, %3250 : f32
        "equeue.write"(%3251, %arg10) {bank = 2 : i64} : (f32, memref<1xf32>) -> ()
        "equeue.return"() : () -> ()
      }) : (!equeue.signal, i32, memref<1xf32>, memref<1xf32>, memref<1xf32>, memref<1xf32>, memref<1xf32>, memref<1xf32>) -> !equeue.signal
      %390 = "equeue.control_and"(%389, %done_138) : (!equeue.signal, !equeue.signal) -> !equeue.signal
      %done_139 = "equeue.launch"(%382, %252, %255, %253, %254, %261, %123) ( {
      ^bb0(%arg5: memref<1xf32>, %arg6: memref<1xf32>, %arg7: memref<1xf32>, %arg8: memref<1xf32>, %arg9: memref<5x3x3xf32>):  // no predecessors
        %3247 = "equeue.read"(%arg5) {bank = 0 : i64} : (memref<1xf32>) -> f32
        "equeue.write"(%3247, %arg8) {bank = 0 : i64} : (f32, memref<1xf32>) -> ()
        %3248 = "equeue.read"(%arg6) {bank = 1 : i64} : (memref<1xf32>) -> f32
        %3249 = mulf %3247, %3248 : f32
        %3250 = "equeue.read"(%arg7) {bank = 2 : i64} : (memref<1xf32>) -> f32
        %3251 = addf %3249, %3250 : f32
        "equeue.return"() : () -> ()
      }) : (!equeue.signal, i32, memref<1xf32>, memref<1xf32>, memref<1xf32>, memref<1xf32>, memref<5x3x3xf32>) -> !equeue.signal
      %391 = "equeue.control_and"(%390, %done_139) : (!equeue.signal, !equeue.signal) -> !equeue.signal
      %done_140 = "equeue.launch"(%382, %138, %141, %139, %140, %147, %171, %170) ( {
      ^bb0(%arg5: memref<1xf32>, %arg6: memref<1xf32>, %arg7: memref<1xf32>, %arg8: memref<1xf32>, %arg9: memref<1xf32>, %arg10: memref<1xf32>):  // no predecessors
        %3247 = "equeue.read"(%arg5) {bank = 0 : i64} : (memref<1xf32>) -> f32
        "equeue.write"(%3247, %arg8) {bank = 0 : i64} : (f32, memref<1xf32>) -> ()
        "equeue.write"(%3247, %arg9) {bank = 0 : i64} : (f32, memref<1xf32>) -> ()
        %3248 = "equeue.read"(%arg6) {bank = 1 : i64} : (memref<1xf32>) -> f32
        %3249 = mulf %3247, %3248 : f32
        %3250 = "equeue.read"(%arg7) {bank = 2 : i64} : (memref<1xf32>) -> f32
        %3251 = addf %3249, %3250 : f32
        "equeue.write"(%3251, %arg10) {bank = 2 : i64} : (f32, memref<1xf32>) -> ()
        "equeue.return"() : () -> ()
      }) : (!equeue.signal, i32, memref<1xf32>, memref<1xf32>, memref<1xf32>, memref<1xf32>, memref<1xf32>, memref<1xf32>) -> !equeue.signal
      %392 = "equeue.control_and"(%391, %done_140) : (!equeue.signal, !equeue.signal) -> !equeue.signal
      %done_141 = "equeue.launch"(%382, %168, %171, %169, %170, %177, %201, %200) ( {
      ^bb0(%arg5: memref<1xf32>, %arg6: memref<1xf32>, %arg7: memref<1xf32>, %arg8: memref<1xf32>, %arg9: memref<1xf32>, %arg10: memref<1xf32>):  // no predecessors
        %3247 = "equeue.read"(%arg5) {bank = 0 : i64} : (memref<1xf32>) -> f32
        "equeue.write"(%3247, %arg8) {bank = 0 : i64} : (f32, memref<1xf32>) -> ()
        "equeue.write"(%3247, %arg9) {bank = 0 : i64} : (f32, memref<1xf32>) -> ()
        %3248 = "equeue.read"(%arg6) {bank = 1 : i64} : (memref<1xf32>) -> f32
        %3249 = mulf %3247, %3248 : f32
        %3250 = "equeue.read"(%arg7) {bank = 2 : i64} : (memref<1xf32>) -> f32
        %3251 = addf %3249, %3250 : f32
        "equeue.write"(%3251, %arg10) {bank = 2 : i64} : (f32, memref<1xf32>) -> ()
        "equeue.return"() : () -> ()
      }) : (!equeue.signal, i32, memref<1xf32>, memref<1xf32>, memref<1xf32>, memref<1xf32>, memref<1xf32>, memref<1xf32>) -> !equeue.signal
      %393 = "equeue.control_and"(%392, %done_141) : (!equeue.signal, !equeue.signal) -> !equeue.signal
      %done_142 = "equeue.launch"(%382, %198, %201, %199, %200, %207, %231, %230) ( {
      ^bb0(%arg5: memref<1xf32>, %arg6: memref<1xf32>, %arg7: memref<1xf32>, %arg8: memref<1xf32>, %arg9: memref<1xf32>, %arg10: memref<1xf32>):  // no predecessors
        %3247 = "equeue.read"(%arg5) {bank = 0 : i64} : (memref<1xf32>) -> f32
        "equeue.write"(%3247, %arg8) {bank = 0 : i64} : (f32, memref<1xf32>) -> ()
        "equeue.write"(%3247, %arg9) {bank = 0 : i64} : (f32, memref<1xf32>) -> ()
        %3248 = "equeue.read"(%arg6) {bank = 1 : i64} : (memref<1xf32>) -> f32
        %3249 = mulf %3247, %3248 : f32
        %3250 = "equeue.read"(%arg7) {bank = 2 : i64} : (memref<1xf32>) -> f32
        %3251 = addf %3249, %3250 : f32
        "equeue.write"(%3251, %arg10) {bank = 2 : i64} : (f32, memref<1xf32>) -> ()
        "equeue.return"() : () -> ()
      }) : (!equeue.signal, i32, memref<1xf32>, memref<1xf32>, memref<1xf32>, memref<1xf32>, memref<1xf32>, memref<1xf32>) -> !equeue.signal
      %394 = "equeue.control_and"(%393, %done_142) : (!equeue.signal, !equeue.signal) -> !equeue.signal
      %done_143 = "equeue.launch"(%382, %228, %231, %229, %230, %237, %261, %260) ( {
      ^bb0(%arg5: memref<1xf32>, %arg6: memref<1xf32>, %arg7: memref<1xf32>, %arg8: memref<1xf32>, %arg9: memref<1xf32>, %arg10: memref<1xf32>):  // no predecessors
        %3247 = "equeue.read"(%arg5) {bank = 0 : i64} : (memref<1xf32>) -> f32
        "equeue.write"(%3247, %arg8) {bank = 0 : i64} : (f32, memref<1xf32>) -> ()
        "equeue.write"(%3247, %arg9) {bank = 0 : i64} : (f32, memref<1xf32>) -> ()
        %3248 = "equeue.read"(%arg6) {bank = 1 : i64} : (memref<1xf32>) -> f32
        %3249 = mulf %3247, %3248 : f32
        %3250 = "equeue.read"(%arg7) {bank = 2 : i64} : (memref<1xf32>) -> f32
        %3251 = addf %3249, %3250 : f32
        "equeue.write"(%3251, %arg10) {bank = 2 : i64} : (f32, memref<1xf32>) -> ()
        "equeue.return"() : () -> ()
      }) : (!equeue.signal, i32, memref<1xf32>, memref<1xf32>, memref<1xf32>, memref<1xf32>, memref<1xf32>, memref<1xf32>) -> !equeue.signal
      %395 = "equeue.control_and"(%394, %done_143) : (!equeue.signal, !equeue.signal) -> !equeue.signal
      %done_144 = "equeue.launch"(%382, %258, %261, %259, %260, %267, %123) ( {
      ^bb0(%arg5: memref<1xf32>, %arg6: memref<1xf32>, %arg7: memref<1xf32>, %arg8: memref<1xf32>, %arg9: memref<5x3x3xf32>):  // no predecessors
        %3247 = "equeue.read"(%arg5) {bank = 0 : i64} : (memref<1xf32>) -> f32
        "equeue.write"(%3247, %arg8) {bank = 0 : i64} : (f32, memref<1xf32>) -> ()
        %3248 = "equeue.read"(%arg6) {bank = 1 : i64} : (memref<1xf32>) -> f32
        %3249 = mulf %3247, %3248 : f32
        %3250 = "equeue.read"(%arg7) {bank = 2 : i64} : (memref<1xf32>) -> f32
        %3251 = addf %3249, %3250 : f32
        "equeue.return"() : () -> ()
      }) : (!equeue.signal, i32, memref<1xf32>, memref<1xf32>, memref<1xf32>, memref<1xf32>, memref<5x3x3xf32>) -> !equeue.signal
      %396 = "equeue.control_and"(%395, %done_144) : (!equeue.signal, !equeue.signal) -> !equeue.signal
      %done_145 = "equeue.launch"(%382, %144, %147, %145, %146, %153, %177, %176) ( {
      ^bb0(%arg5: memref<1xf32>, %arg6: memref<1xf32>, %arg7: memref<1xf32>, %arg8: memref<1xf32>, %arg9: memref<1xf32>, %arg10: memref<1xf32>):  // no predecessors
        %3247 = "equeue.read"(%arg5) {bank = 0 : i64} : (memref<1xf32>) -> f32
        "equeue.write"(%3247, %arg8) {bank = 0 : i64} : (f32, memref<1xf32>) -> ()
        "equeue.write"(%3247, %arg9) {bank = 0 : i64} : (f32, memref<1xf32>) -> ()
        %3248 = "equeue.read"(%arg6) {bank = 1 : i64} : (memref<1xf32>) -> f32
        %3249 = mulf %3247, %3248 : f32
        %3250 = "equeue.read"(%arg7) {bank = 2 : i64} : (memref<1xf32>) -> f32
        %3251 = addf %3249, %3250 : f32
        "equeue.write"(%3251, %arg10) {bank = 2 : i64} : (f32, memref<1xf32>) -> ()
        "equeue.return"() : () -> ()
      }) : (!equeue.signal, i32, memref<1xf32>, memref<1xf32>, memref<1xf32>, memref<1xf32>, memref<1xf32>, memref<1xf32>) -> !equeue.signal
      %397 = "equeue.control_and"(%396, %done_145) : (!equeue.signal, !equeue.signal) -> !equeue.signal
      %done_146 = "equeue.launch"(%382, %174, %177, %175, %176, %183, %207, %206) ( {
      ^bb0(%arg5: memref<1xf32>, %arg6: memref<1xf32>, %arg7: memref<1xf32>, %arg8: memref<1xf32>, %arg9: memref<1xf32>, %arg10: memref<1xf32>):  // no predecessors
        %3247 = "equeue.read"(%arg5) {bank = 0 : i64} : (memref<1xf32>) -> f32
        "equeue.write"(%3247, %arg8) {bank = 0 : i64} : (f32, memref<1xf32>) -> ()
        "equeue.write"(%3247, %arg9) {bank = 0 : i64} : (f32, memref<1xf32>) -> ()
        %3248 = "equeue.read"(%arg6) {bank = 1 : i64} : (memref<1xf32>) -> f32
        %3249 = mulf %3247, %3248 : f32
        %3250 = "equeue.read"(%arg7) {bank = 2 : i64} : (memref<1xf32>) -> f32
        %3251 = addf %3249, %3250 : f32
        "equeue.write"(%3251, %arg10) {bank = 2 : i64} : (f32, memref<1xf32>) -> ()
        "equeue.return"() : () -> ()
      }) : (!equeue.signal, i32, memref<1xf32>, memref<1xf32>, memref<1xf32>, memref<1xf32>, memref<1xf32>, memref<1xf32>) -> !equeue.signal
      %398 = "equeue.control_and"(%397, %done_146) : (!equeue.signal, !equeue.signal) -> !equeue.signal
      %done_147 = "equeue.launch"(%382, %204, %207, %205, %206, %213, %237, %236) ( {
      ^bb0(%arg5: memref<1xf32>, %arg6: memref<1xf32>, %arg7: memref<1xf32>, %arg8: memref<1xf32>, %arg9: memref<1xf32>, %arg10: memref<1xf32>):  // no predecessors
        %3247 = "equeue.read"(%arg5) {bank = 0 : i64} : (memref<1xf32>) -> f32
        "equeue.write"(%3247, %arg8) {bank = 0 : i64} : (f32, memref<1xf32>) -> ()
        "equeue.write"(%3247, %arg9) {bank = 0 : i64} : (f32, memref<1xf32>) -> ()
        %3248 = "equeue.read"(%arg6) {bank = 1 : i64} : (memref<1xf32>) -> f32
        %3249 = mulf %3247, %3248 : f32
        %3250 = "equeue.read"(%arg7) {bank = 2 : i64} : (memref<1xf32>) -> f32
        %3251 = addf %3249, %3250 : f32
        "equeue.write"(%3251, %arg10) {bank = 2 : i64} : (f32, memref<1xf32>) -> ()
        "equeue.return"() : () -> ()
      }) : (!equeue.signal, i32, memref<1xf32>, memref<1xf32>, memref<1xf32>, memref<1xf32>, memref<1xf32>, memref<1xf32>) -> !equeue.signal
      %399 = "equeue.control_and"(%398, %done_147) : (!equeue.signal, !equeue.signal) -> !equeue.signal
      %done_148 = "equeue.launch"(%382, %234, %237, %235, %236, %243, %267, %266) ( {
      ^bb0(%arg5: memref<1xf32>, %arg6: memref<1xf32>, %arg7: memref<1xf32>, %arg8: memref<1xf32>, %arg9: memref<1xf32>, %arg10: memref<1xf32>):  // no predecessors
        %3247 = "equeue.read"(%arg5) {bank = 0 : i64} : (memref<1xf32>) -> f32
        "equeue.write"(%3247, %arg8) {bank = 0 : i64} : (f32, memref<1xf32>) -> ()
        "equeue.write"(%3247, %arg9) {bank = 0 : i64} : (f32, memref<1xf32>) -> ()
        %3248 = "equeue.read"(%arg6) {bank = 1 : i64} : (memref<1xf32>) -> f32
        %3249 = mulf %3247, %3248 : f32
        %3250 = "equeue.read"(%arg7) {bank = 2 : i64} : (memref<1xf32>) -> f32
        %3251 = addf %3249, %3250 : f32
        "equeue.write"(%3251, %arg10) {bank = 2 : i64} : (f32, memref<1xf32>) -> ()
        "equeue.return"() : () -> ()
      }) : (!equeue.signal, i32, memref<1xf32>, memref<1xf32>, memref<1xf32>, memref<1xf32>, memref<1xf32>, memref<1xf32>) -> !equeue.signal
      %400 = "equeue.control_and"(%399, %done_148) : (!equeue.signal, !equeue.signal) -> !equeue.signal
      %done_149 = "equeue.launch"(%382, %264, %267, %265, %266, %273, %123) ( {
      ^bb0(%arg5: memref<1xf32>, %arg6: memref<1xf32>, %arg7: memref<1xf32>, %arg8: memref<1xf32>, %arg9: memref<5x3x3xf32>):  // no predecessors
        %3247 = "equeue.read"(%arg5) {bank = 0 : i64} : (memref<1xf32>) -> f32
        "equeue.write"(%3247, %arg8) {bank = 0 : i64} : (f32, memref<1xf32>) -> ()
        %3248 = "equeue.read"(%arg6) {bank = 1 : i64} : (memref<1xf32>) -> f32
        %3249 = mulf %3247, %3248 : f32
        %3250 = "equeue.read"(%arg7) {bank = 2 : i64} : (memref<1xf32>) -> f32
        %3251 = addf %3249, %3250 : f32
        "equeue.return"() : () -> ()
      }) : (!equeue.signal, i32, memref<1xf32>, memref<1xf32>, memref<1xf32>, memref<1xf32>, memref<5x3x3xf32>) -> !equeue.signal
      %401 = "equeue.control_and"(%400, %done_149) : (!equeue.signal, !equeue.signal) -> !equeue.signal
      %done_150 = "equeue.launch"(%382, %150, %153, %151, %152, %183, %182) ( {
      ^bb0(%arg5: memref<1xf32>, %arg6: memref<1xf32>, %arg7: memref<1xf32>, %arg8: memref<1xf32>, %arg9: memref<1xf32>):  // no predecessors
        %3247 = "equeue.read"(%arg5) {bank = 0 : i64} : (memref<1xf32>) -> f32
        "equeue.write"(%3247, %arg8) {bank = 0 : i64} : (f32, memref<1xf32>) -> ()
        %3248 = "equeue.read"(%arg6) {bank = 1 : i64} : (memref<1xf32>) -> f32
        %3249 = mulf %3247, %3248 : f32
        %3250 = "equeue.read"(%arg7) {bank = 2 : i64} : (memref<1xf32>) -> f32
        %3251 = addf %3249, %3250 : f32
        "equeue.write"(%3251, %arg9) {bank = 2 : i64} : (f32, memref<1xf32>) -> ()
        "equeue.return"() : () -> ()
      }) : (!equeue.signal, i32, memref<1xf32>, memref<1xf32>, memref<1xf32>, memref<1xf32>, memref<1xf32>) -> !equeue.signal
      %402 = "equeue.control_and"(%401, %done_150) : (!equeue.signal, !equeue.signal) -> !equeue.signal
      %done_151 = "equeue.launch"(%382, %180, %183, %181, %182, %213, %212) ( {
      ^bb0(%arg5: memref<1xf32>, %arg6: memref<1xf32>, %arg7: memref<1xf32>, %arg8: memref<1xf32>, %arg9: memref<1xf32>):  // no predecessors
        %3247 = "equeue.read"(%arg5) {bank = 0 : i64} : (memref<1xf32>) -> f32
        "equeue.write"(%3247, %arg8) {bank = 0 : i64} : (f32, memref<1xf32>) -> ()
        %3248 = "equeue.read"(%arg6) {bank = 1 : i64} : (memref<1xf32>) -> f32
        %3249 = mulf %3247, %3248 : f32
        %3250 = "equeue.read"(%arg7) {bank = 2 : i64} : (memref<1xf32>) -> f32
        %3251 = addf %3249, %3250 : f32
        "equeue.write"(%3251, %arg9) {bank = 2 : i64} : (f32, memref<1xf32>) -> ()
        "equeue.return"() : () -> ()
      }) : (!equeue.signal, i32, memref<1xf32>, memref<1xf32>, memref<1xf32>, memref<1xf32>, memref<1xf32>) -> !equeue.signal
      %403 = "equeue.control_and"(%402, %done_151) : (!equeue.signal, !equeue.signal) -> !equeue.signal
      %done_152 = "equeue.launch"(%382, %210, %213, %211, %212, %243, %242) ( {
      ^bb0(%arg5: memref<1xf32>, %arg6: memref<1xf32>, %arg7: memref<1xf32>, %arg8: memref<1xf32>, %arg9: memref<1xf32>):  // no predecessors
        %3247 = "equeue.read"(%arg5) {bank = 0 : i64} : (memref<1xf32>) -> f32
        "equeue.write"(%3247, %arg8) {bank = 0 : i64} : (f32, memref<1xf32>) -> ()
        %3248 = "equeue.read"(%arg6) {bank = 1 : i64} : (memref<1xf32>) -> f32
        %3249 = mulf %3247, %3248 : f32
        %3250 = "equeue.read"(%arg7) {bank = 2 : i64} : (memref<1xf32>) -> f32
        %3251 = addf %3249, %3250 : f32
        "equeue.write"(%3251, %arg9) {bank = 2 : i64} : (f32, memref<1xf32>) -> ()
        "equeue.return"() : () -> ()
      }) : (!equeue.signal, i32, memref<1xf32>, memref<1xf32>, memref<1xf32>, memref<1xf32>, memref<1xf32>) -> !equeue.signal
      %404 = "equeue.control_and"(%403, %done_152) : (!equeue.signal, !equeue.signal) -> !equeue.signal
      %done_153 = "equeue.launch"(%382, %240, %243, %241, %242, %273, %272) ( {
      ^bb0(%arg5: memref<1xf32>, %arg6: memref<1xf32>, %arg7: memref<1xf32>, %arg8: memref<1xf32>, %arg9: memref<1xf32>):  // no predecessors
        %3247 = "equeue.read"(%arg5) {bank = 0 : i64} : (memref<1xf32>) -> f32
        "equeue.write"(%3247, %arg8) {bank = 0 : i64} : (f32, memref<1xf32>) -> ()
        %3248 = "equeue.read"(%arg6) {bank = 1 : i64} : (memref<1xf32>) -> f32
        %3249 = mulf %3247, %3248 : f32
        %3250 = "equeue.read"(%arg7) {bank = 2 : i64} : (memref<1xf32>) -> f32
        %3251 = addf %3249, %3250 : f32
        "equeue.write"(%3251, %arg9) {bank = 2 : i64} : (f32, memref<1xf32>) -> ()
        "equeue.return"() : () -> ()
      }) : (!equeue.signal, i32, memref<1xf32>, memref<1xf32>, memref<1xf32>, memref<1xf32>, memref<1xf32>) -> !equeue.signal
      %405 = "equeue.control_and"(%404, %done_153) : (!equeue.signal, !equeue.signal) -> !equeue.signal
      %done_154 = "equeue.launch"(%382, %270, %273, %271, %272, %123) ( {
      ^bb0(%arg5: memref<1xf32>, %arg6: memref<1xf32>, %arg7: memref<1xf32>, %arg8: memref<5x3x3xf32>):  // no predecessors
        %3247 = "equeue.read"(%arg5) {bank = 0 : i64} : (memref<1xf32>) -> f32
        %3248 = "equeue.read"(%arg6) {bank = 1 : i64} : (memref<1xf32>) -> f32
        %3249 = mulf %3247, %3248 : f32
        %3250 = "equeue.read"(%arg7) {bank = 2 : i64} : (memref<1xf32>) -> f32
        %3251 = addf %3249, %3250 : f32
        "equeue.return"() : () -> ()
      }) : (!equeue.signal, i32, memref<1xf32>, memref<1xf32>, memref<1xf32>, memref<5x3x3xf32>) -> !equeue.signal
      %406 = "equeue.control_and"(%405, %done_154) : (!equeue.signal, !equeue.signal) -> !equeue.signal
      "equeue.await"(%406) : (!equeue.signal) -> ()
      %407 = "equeue.control_start"() : () -> !equeue.signal
      %408 = "equeue.memcpy"(%407, %121, %129, %102, %c0) {dest_bank = 0 : i64, src_bank = 0 : i64} : (!equeue.signal, memref<3x7x7xf32>, memref<1xf32>, i32, index) -> !equeue.signal
      "equeue.await"(%408) : (!equeue.signal) -> ()
      %409 = "equeue.control_start"() : () -> !equeue.signal
      %done_155 = "equeue.launch"(%409, %126, %129, %127, %128, %135, %159, %158) ( {
      ^bb0(%arg5: memref<1xf32>, %arg6: memref<1xf32>, %arg7: memref<1xf32>, %arg8: memref<1xf32>, %arg9: memref<1xf32>, %arg10: memref<1xf32>):  // no predecessors
        %3247 = "equeue.read"(%arg5) {bank = 0 : i64} : (memref<1xf32>) -> f32
        "equeue.write"(%3247, %arg8) {bank = 0 : i64} : (f32, memref<1xf32>) -> ()
        "equeue.write"(%3247, %arg9) {bank = 0 : i64} : (f32, memref<1xf32>) -> ()
        %3248 = "equeue.read"(%arg6) {bank = 1 : i64} : (memref<1xf32>) -> f32
        %3249 = mulf %3247, %3248 : f32
        %3250 = "equeue.read"(%arg7) {bank = 2 : i64} : (memref<1xf32>) -> f32
        %3251 = addf %3249, %3250 : f32
        "equeue.write"(%3251, %arg10) {bank = 2 : i64} : (f32, memref<1xf32>) -> ()
        "equeue.return"() : () -> ()
      }) : (!equeue.signal, i32, memref<1xf32>, memref<1xf32>, memref<1xf32>, memref<1xf32>, memref<1xf32>, memref<1xf32>) -> !equeue.signal
      %done_156 = "equeue.launch"(%409, %156, %159, %157, %158, %165, %189, %188) ( {
      ^bb0(%arg5: memref<1xf32>, %arg6: memref<1xf32>, %arg7: memref<1xf32>, %arg8: memref<1xf32>, %arg9: memref<1xf32>, %arg10: memref<1xf32>):  // no predecessors
        %3247 = "equeue.read"(%arg5) {bank = 0 : i64} : (memref<1xf32>) -> f32
        "equeue.write"(%3247, %arg8) {bank = 0 : i64} : (f32, memref<1xf32>) -> ()
        "equeue.write"(%3247, %arg9) {bank = 0 : i64} : (f32, memref<1xf32>) -> ()
        %3248 = "equeue.read"(%arg6) {bank = 1 : i64} : (memref<1xf32>) -> f32
        %3249 = mulf %3247, %3248 : f32
        %3250 = "equeue.read"(%arg7) {bank = 2 : i64} : (memref<1xf32>) -> f32
        %3251 = addf %3249, %3250 : f32
        "equeue.write"(%3251, %arg10) {bank = 2 : i64} : (f32, memref<1xf32>) -> ()
        "equeue.return"() : () -> ()
      }) : (!equeue.signal, i32, memref<1xf32>, memref<1xf32>, memref<1xf32>, memref<1xf32>, memref<1xf32>, memref<1xf32>) -> !equeue.signal
      %410 = "equeue.control_and"(%done_155, %done_156) : (!equeue.signal, !equeue.signal) -> !equeue.signal
      %done_157 = "equeue.launch"(%409, %186, %189, %187, %188, %195, %219, %218) ( {
      ^bb0(%arg5: memref<1xf32>, %arg6: memref<1xf32>, %arg7: memref<1xf32>, %arg8: memref<1xf32>, %arg9: memref<1xf32>, %arg10: memref<1xf32>):  // no predecessors
        %3247 = "equeue.read"(%arg5) {bank = 0 : i64} : (memref<1xf32>) -> f32
        "equeue.write"(%3247, %arg8) {bank = 0 : i64} : (f32, memref<1xf32>) -> ()
        "equeue.write"(%3247, %arg9) {bank = 0 : i64} : (f32, memref<1xf32>) -> ()
        %3248 = "equeue.read"(%arg6) {bank = 1 : i64} : (memref<1xf32>) -> f32
        %3249 = mulf %3247, %3248 : f32
        %3250 = "equeue.read"(%arg7) {bank = 2 : i64} : (memref<1xf32>) -> f32
        %3251 = addf %3249, %3250 : f32
        "equeue.write"(%3251, %arg10) {bank = 2 : i64} : (f32, memref<1xf32>) -> ()
        "equeue.return"() : () -> ()
      }) : (!equeue.signal, i32, memref<1xf32>, memref<1xf32>, memref<1xf32>, memref<1xf32>, memref<1xf32>, memref<1xf32>) -> !equeue.signal
      %411 = "equeue.control_and"(%410, %done_157) : (!equeue.signal, !equeue.signal) -> !equeue.signal
      %done_158 = "equeue.launch"(%409, %216, %219, %217, %218, %225, %249, %248) ( {
      ^bb0(%arg5: memref<1xf32>, %arg6: memref<1xf32>, %arg7: memref<1xf32>, %arg8: memref<1xf32>, %arg9: memref<1xf32>, %arg10: memref<1xf32>):  // no predecessors
        %3247 = "equeue.read"(%arg5) {bank = 0 : i64} : (memref<1xf32>) -> f32
        "equeue.write"(%3247, %arg8) {bank = 0 : i64} : (f32, memref<1xf32>) -> ()
        "equeue.write"(%3247, %arg9) {bank = 0 : i64} : (f32, memref<1xf32>) -> ()
        %3248 = "equeue.read"(%arg6) {bank = 1 : i64} : (memref<1xf32>) -> f32
        %3249 = mulf %3247, %3248 : f32
        %3250 = "equeue.read"(%arg7) {bank = 2 : i64} : (memref<1xf32>) -> f32
        %3251 = addf %3249, %3250 : f32
        "equeue.write"(%3251, %arg10) {bank = 2 : i64} : (f32, memref<1xf32>) -> ()
        "equeue.return"() : () -> ()
      }) : (!equeue.signal, i32, memref<1xf32>, memref<1xf32>, memref<1xf32>, memref<1xf32>, memref<1xf32>, memref<1xf32>) -> !equeue.signal
      %412 = "equeue.control_and"(%411, %done_158) : (!equeue.signal, !equeue.signal) -> !equeue.signal
      %done_159 = "equeue.launch"(%409, %246, %249, %247, %248, %255, %123) ( {
      ^bb0(%arg5: memref<1xf32>, %arg6: memref<1xf32>, %arg7: memref<1xf32>, %arg8: memref<1xf32>, %arg9: memref<5x3x3xf32>):  // no predecessors
        %3247 = "equeue.read"(%arg5) {bank = 0 : i64} : (memref<1xf32>) -> f32
        "equeue.write"(%3247, %arg8) {bank = 0 : i64} : (f32, memref<1xf32>) -> ()
        %3248 = "equeue.read"(%arg6) {bank = 1 : i64} : (memref<1xf32>) -> f32
        %3249 = mulf %3247, %3248 : f32
        %3250 = "equeue.read"(%arg7) {bank = 2 : i64} : (memref<1xf32>) -> f32
…
        "equeue.return"() : () -> ()
      }) : (!equeue.signal, i32, memref<1xf32>, memref<1xf32>, memref<1xf32>, memref<5x3x3xf32>) -> !equeue.signal
      %3191 = "equeue.control_and"(%3190, %done_2894) : (!equeue.signal, !equeue.signal) -> !equeue.signal
      "equeue.await"(%3191) : (!equeue.signal) -> ()
      %3192 = "equeue.control_start"() : () -> !equeue.signal
      "equeue.await"(%3192) : (!equeue.signal) -> ()
      %3193 = "equeue.control_start"() : () -> !equeue.signal
      %done_2895 = "equeue.launch"(%3193, %126, %129, %127, %128, %135, %159, %158) ( {
      ^bb0(%arg5: memref<1xf32>, %arg6: memref<1xf32>, %arg7: memref<1xf32>, %arg8: memref<1xf32>, %arg9: memref<1xf32>, %arg10: memref<1xf32>):  // no predecessors
        %3247 = "equeue.read"(%arg5) {bank = 0 : i64} : (memref<1xf32>) -> f32
        "equeue.write"(%3247, %arg8) {bank = 0 : i64} : (f32, memref<1xf32>) -> ()
        "equeue.write"(%3247, %arg9) {bank = 0 : i64} : (f32, memref<1xf32>) -> ()
        %3248 = "equeue.read"(%arg6) {bank = 1 : i64} : (memref<1xf32>) -> f32
        %3249 = mulf %3247, %3248 : f32
        %3250 = "equeue.read"(%arg7) {bank = 2 : i64} : (memref<1xf32>) -> f32
        %3251 = addf %3249, %3250 : f32
        "equeue.write"(%3251, %arg10) {bank = 2 : i64} : (f32, memref<1xf32>) -> ()
        "equeue.return"() : () -> ()
      }) : (!equeue.signal, i32, memref<1xf32>, memref<1xf32>, memref<1xf32>, memref<1xf32>, memref<1xf32>, memref<1xf32>) -> !equeue.signal
      %done_2896 = "equeue.launch"(%3193, %156, %159, %157, %158, %165, %123) ( {
      ^bb0(%arg5: memref<1xf32>, %arg6: memref<1xf32>, %arg7: memref<1xf32>, %arg8: memref<1xf32>, %arg9: memref<5x3x3xf32>):  // no predecessors
        %3247 = "equeue.read"(%arg5) {bank = 0 : i64} : (memref<1xf32>) -> f32
        "equeue.write"(%3247, %arg8) {bank = 0 : i64} : (f32, memref<1xf32>) -> ()
        %3248 = "equeue.read"(%arg6) {bank = 1 : i64} : (memref<1xf32>) -> f32
        %3249 = mulf %3247, %3248 : f32
        %3250 = "equeue.read"(%arg7) {bank = 2 : i64} : (memref<1xf32>) -> f32
        %3251 = addf %3249, %3250 : f32
        "equeue.return"() : () -> ()
      }) : (!equeue.signal, i32, memref<1xf32>, memref<1xf32>, memref<1xf32>, memref<1xf32>, memref<5x3x3xf32>) -> !equeue.signal
      %3194 = "equeue.control_and"(%done_2895, %done_2896) : (!equeue.signal, !equeue.signal) -> !equeue.signal
      %done_2897 = "equeue.launch"(%3193, %132, %135, %133, %134, %141, %165, %164) ( {
      ^bb0(%arg5: memref<1xf32>, %arg6: memref<1xf32>, %arg7: memref<1xf32>, %arg8: memref<1xf32>, %arg9: memref<1xf32>, %arg10: memref<1xf32>):  // no predecessors
        %3247 = "equeue.read"(%arg5) {bank = 0 : i64} : (memref<1xf32>) -> f32
        "equeue.write"(%3247, %arg8) {bank = 0 : i64} : (f32, memref<1xf32>) -> ()
        "equeue.write"(%3247, %arg9) {bank = 0 : i64} : (f32, memref<1xf32>) -> ()
        %3248 = "equeue.read"(%arg6) {bank = 1 : i64} : (memref<1xf32>) -> f32
        %3249 = mulf %3247, %3248 : f32
        %3250 = "equeue.read"(%arg7) {bank = 2 : i64} : (memref<1xf32>) -> f32
        %3251 = addf %3249, %3250 : f32
        "equeue.write"(%3251, %arg10) {bank = 2 : i64} : (f32, memref<1xf32>) -> ()
        "equeue.return"() : () -> ()
      }) : (!equeue.signal, i32, memref<1xf32>, memref<1xf32>, memref<1xf32>, memref<1xf32>, memref<1xf32>, memref<1xf32>) -> !equeue.signal
      %3195 = "equeue.control_and"(%3194, %done_2897) : (!equeue.signal, !equeue.signal) -> !equeue.signal
      %done_2898 = "equeue.launch"(%3193, %162, %165, %163, %164, %171, %123) ( {
      ^bb0(%arg5: memref<1xf32>, %arg6: memref<1xf32>, %arg7: memref<1xf32>, %arg8: memref<1xf32>, %arg9: memref<5x3x3xf32>):  // no predecessors
        %3247 = "equeue.read"(%arg5) {bank = 0 : i64} : (memref<1xf32>) -> f32
        "equeue.write"(%3247, %arg8) {bank = 0 : i64} : (f32, memref<1xf32>) -> ()
        %3248 = "equeue.read"(%arg6) {bank = 1 : i64} : (memref<1xf32>) -> f32
        %3249 = mulf %3247, %3248 : f32
        %3250 = "equeue.read"(%arg7) {bank = 2 : i64} : (memref<1xf32>) -> f32
        %3251 = addf %3249, %3250 : f32
        "equeue.return"() : () -> ()
      }) : (!equeue.signal, i32, memref<1xf32>, memref<1xf32>, memref<1xf32>, memref<1xf32>, memref<5x3x3xf32>) -> !equeue.signal
      %3196 = "equeue.control_and"(%3195, %done_2898) : (!equeue.signal, !equeue.signal) -> !equeue.signal
      %done_2899 = "equeue.launch"(%3193, %138, %141, %139, %140, %147, %171, %170) ( {
      ^bb0(%arg5: memref<1xf32>, %arg6: memref<1xf32>, %arg7: memref<1xf32>, %arg8: memref<1xf32>, %arg9: memref<1xf32>, %arg10: memref<1xf32>):  // no predecessors
        %3247 = "equeue.read"(%arg5) {bank = 0 : i64} : (memref<1xf32>) -> f32
        "equeue.write"(%3247, %arg8) {bank = 0 : i64} : (f32, memref<1xf32>) -> ()
        "equeue.write"(%3247, %arg9) {bank = 0 : i64} : (f32, memref<1xf32>) -> ()
        %3248 = "equeue.read"(%arg6) {bank = 1 : i64} : (memref<1xf32>) -> f32
        %3249 = mulf %3247, %3248 : f32
        %3250 = "equeue.read"(%arg7) {bank = 2 : i64} : (memref<1xf32>) -> f32
        %3251 = addf %3249, %3250 : f32
        "equeue.write"(%3251, %arg10) {bank = 2 : i64} : (f32, memref<1xf32>) -> ()
        "equeue.return"() : () -> ()
      }) : (!equeue.signal, i32, memref<1xf32>, memref<1xf32>, memref<1xf32>, memref<1xf32>, memref<1xf32>, memref<1xf32>) -> !equeue.signal
      %3197 = "equeue.control_and"(%3196, %done_2899) : (!equeue.signal, !equeue.signal) -> !equeue.signal
      %done_2900 = "equeue.launch"(%3193, %168, %171, %169, %170, %177, %123) ( {
      ^bb0(%arg5: memref<1xf32>, %arg6: memref<1xf32>, %arg7: memref<1xf32>, %arg8: memref<1xf32>, %arg9: memref<5x3x3xf32>):  // no predecessors
        %3247 = "equeue.read"(%arg5) {bank = 0 : i64} : (memref<1xf32>) -> f32
        "equeue.write"(%3247, %arg8) {bank = 0 : i64} : (f32, memref<1xf32>) -> ()
        %3248 = "equeue.read"(%arg6) {bank = 1 : i64} : (memref<1xf32>) -> f32
        %3249 = mulf %3247, %3248 : f32
        %3250 = "equeue.read"(%arg7) {bank = 2 : i64} : (memref<1xf32>) -> f32
        %3251 = addf %3249, %3250 : f32
        "equeue.return"() : () -> ()
      }) : (!equeue.signal, i32, memref<1xf32>, memref<1xf32>, memref<1xf32>, memref<1xf32>, memref<5x3x3xf32>) -> !equeue.signal
      %3198 = "equeue.control_and"(%3197, %done_2900) : (!equeue.signal, !equeue.signal) -> !equeue.signal
      %done_2901 = "equeue.launch"(%3193, %144, %147, %145, %146, %153, %177, %176) ( {
      ^bb0(%arg5: memref<1xf32>, %arg6: memref<1xf32>, %arg7: memref<1xf32>, %arg8: memref<1xf32>, %arg9: memref<1xf32>, %arg10: memref<1xf32>):  // no predecessors
        %3247 = "equeue.read"(%arg5) {bank = 0 : i64} : (memref<1xf32>) -> f32
        "equeue.write"(%3247, %arg8) {bank = 0 : i64} : (f32, memref<1xf32>) -> ()
        "equeue.write"(%3247, %arg9) {bank = 0 : i64} : (f32, memref<1xf32>) -> ()
        %3248 = "equeue.read"(%arg6) {bank = 1 : i64} : (memref<1xf32>) -> f32
        %3249 = mulf %3247, %3248 : f32
        %3250 = "equeue.read"(%arg7) {bank = 2 : i64} : (memref<1xf32>) -> f32
        %3251 = addf %3249, %3250 : f32
        "equeue.write"(%3251, %arg10) {bank = 2 : i64} : (f32, memref<1xf32>) -> ()
        "equeue.return"() : () -> ()
      }) : (!equeue.signal, i32, memref<1xf32>, memref<1xf32>, memref<1xf32>, memref<1xf32>, memref<1xf32>, memref<1xf32>) -> !equeue.signal
      %3199 = "equeue.control_and"(%3198, %done_2901) : (!equeue.signal, !equeue.signal) -> !equeue.signal
      %done_2902 = "equeue.launch"(%3193, %174, %177, %175, %176, %183, %123) ( {
      ^bb0(%arg5: memref<1xf32>, %arg6: memref<1xf32>, %arg7: memref<1xf32>, %arg8: memref<1xf32>, %arg9: memref<5x3x3xf32>):  // no predecessors
        %3247 = "equeue.read"(%arg5) {bank = 0 : i64} : (memref<1xf32>) -> f32
        "equeue.write"(%3247, %arg8) {bank = 0 : i64} : (f32, memref<1xf32>) -> ()
        %3248 = "equeue.read"(%arg6) {bank = 1 : i64} : (memref<1xf32>) -> f32
        %3249 = mulf %3247, %3248 : f32
        %3250 = "equeue.read"(%arg7) {bank = 2 : i64} : (memref<1xf32>) -> f32
        %3251 = addf %3249, %3250 : f32
        "equeue.return"() : () -> ()
      }) : (!equeue.signal, i32, memref<1xf32>, memref<1xf32>, memref<1xf32>, memref<1xf32>, memref<5x3x3xf32>) -> !equeue.signal
      %3200 = "equeue.control_and"(%3199, %done_2902) : (!equeue.signal, !equeue.signal) -> !equeue.signal
      %done_2903 = "equeue.launch"(%3193, %150, %153, %151, %152, %183, %182) ( {
      ^bb0(%arg5: memref<1xf32>, %arg6: memref<1xf32>, %arg7: memref<1xf32>, %arg8: memref<1xf32>, %arg9: memref<1xf32>):  // no predecessors
        %3247 = "equeue.read"(%arg5) {bank = 0 : i64} : (memref<1xf32>) -> f32
        "equeue.write"(%3247, %arg8) {bank = 0 : i64} : (f32, memref<1xf32>) -> ()
        %3248 = "equeue.read"(%arg6) {bank = 1 : i64} : (memref<1xf32>) -> f32
        %3249 = mulf %3247, %3248 : f32
        %3250 = "equeue.read"(%arg7) {bank = 2 : i64} : (memref<1xf32>) -> f32
        %3251 = addf %3249, %3250 : f32
        "equeue.write"(%3251, %arg9) {bank = 2 : i64} : (f32, memref<1xf32>) -> ()
        "equeue.return"() : () -> ()
      }) : (!equeue.signal, i32, memref<1xf32>, memref<1xf32>, memref<1xf32>, memref<1xf32>, memref<1xf32>) -> !equeue.signal
      %3201 = "equeue.control_and"(%3200, %done_2903) : (!equeue.signal, !equeue.signal) -> !equeue.signal
      %done_2904 = "equeue.launch"(%3193, %180, %183, %181, %182, %123) ( {
      ^bb0(%arg5: memref<1xf32>, %arg6: memref<1xf32>, %arg7: memref<1xf32>, %arg8: memref<5x3x3xf32>):  // no predecessors
        %3247 = "equeue.read"(%arg5) {bank = 0 : i64} : (memref<1xf32>) -> f32
        %3248 = "equeue.read"(%arg6) {bank = 1 : i64} : (memref<1xf32>) -> f32
        %3249 = mulf %3247, %3248 : f32
        %3250 = "equeue.read"(%arg7) {bank = 2 : i64} : (memref<1xf32>) -> f32
        %3251 = addf %3249, %3250 : f32
        "equeue.return"() : () -> ()
      }) : (!equeue.signal, i32, memref<1xf32>, memref<1xf32>, memref<1xf32>, memref<5x3x3xf32>) -> !equeue.signal
      %3202 = "equeue.control_and"(%3201, %done_2904) : (!equeue.signal, !equeue.signal) -> !equeue.signal
      "equeue.await"(%3202) : (!equeue.signal) -> ()
      %3203 = "equeue.control_start"() : () -> !equeue.signal
      "equeue.await"(%3203) : (!equeue.signal) -> ()
      %3204 = "equeue.control_start"() : () -> !equeue.signal
      %done_2905 = "equeue.launch"(%3204, %126, %129, %127, %128, %135, %159, %158) ( {
      ^bb0(%arg5: memref<1xf32>, %arg6: memref<1xf32>, %arg7: memref<1xf32>, %arg8: memref<1xf32>, %arg9: memref<1xf32>, %arg10: memref<1xf32>):  // no predecessors
        %3247 = "equeue.read"(%arg5) {bank = 0 : i64} : (memref<1xf32>) -> f32
        "equeue.write"(%3247, %arg8) {bank = 0 : i64} : (f32, memref<1xf32>) -> ()
        "equeue.write"(%3247, %arg9) {bank = 0 : i64} : (f32, memref<1xf32>) -> ()
        %3248 = "equeue.read"(%arg6) {bank = 1 : i64} : (memref<1xf32>) -> f32
        %3249 = mulf %3247, %3248 : f32
        %3250 = "equeue.read"(%arg7) {bank = 2 : i64} : (memref<1xf32>) -> f32
        %3251 = addf %3249, %3250 : f32
        "equeue.write"(%3251, %arg10) {bank = 2 : i64} : (f32, memref<1xf32>) -> ()
        "equeue.return"() : () -> ()
      }) : (!equeue.signal, i32, memref<1xf32>, memref<1xf32>, memref<1xf32>, memref<1xf32>, memref<1xf32>, memref<1xf32>) -> !equeue.signal
      %done_2906 = "equeue.launch"(%3204, %156, %159, %157, %158, %165, %123) ( {
      ^bb0(%arg5: memref<1xf32>, %arg6: memref<1xf32>, %arg7: memref<1xf32>, %arg8: memref<1xf32>, %arg9: memref<5x3x3xf32>):  // no predecessors
        %3247 = "equeue.read"(%arg5) {bank = 0 : i64} : (memref<1xf32>) -> f32
        "equeue.write"(%3247, %arg8) {bank = 0 : i64} : (f32, memref<1xf32>) -> ()
        %3248 = "equeue.read"(%arg6) {bank = 1 : i64} : (memref<1xf32>) -> f32
        %3249 = mulf %3247, %3248 : f32
        %3250 = "equeue.read"(%arg7) {bank = 2 : i64} : (memref<1xf32>) -> f32
        %3251 = addf %3249, %3250 : f32
        "equeue.return"() : () -> ()
      }) : (!equeue.signal, i32, memref<1xf32>, memref<1xf32>, memref<1xf32>, memref<1xf32>, memref<5x3x3xf32>) -> !equeue.signal
      %3205 = "equeue.control_and"(%done_2905, %done_2906) : (!equeue.signal, !equeue.signal) -> !equeue.signal
      %done_2907 = "equeue.launch"(%3204, %132, %135, %133, %134, %141, %165, %164) ( {
      ^bb0(%arg5: memref<1xf32>, %arg6: memref<1xf32>, %arg7: memref<1xf32>, %arg8: memref<1xf32>, %arg9: memref<1xf32>, %arg10: memref<1xf32>):  // no predecessors
        %3247 = "equeue.read"(%arg5) {bank = 0 : i64} : (memref<1xf32>) -> f32
        "equeue.write"(%3247, %arg8) {bank = 0 : i64} : (f32, memref<1xf32>) -> ()
        "equeue.write"(%3247, %arg9) {bank = 0 : i64} : (f32, memref<1xf32>) -> ()
        %3248 = "equeue.read"(%arg6) {bank = 1 : i64} : (memref<1xf32>) -> f32
        %3249 = mulf %3247, %3248 : f32
        %3250 = "equeue.read"(%arg7) {bank = 2 : i64} : (memref<1xf32>) -> f32
        %3251 = addf %3249, %3250 : f32
        "equeue.write"(%3251, %arg10) {bank = 2 : i64} : (f32, memref<1xf32>) -> ()
        "equeue.return"() : () -> ()
      }) : (!equeue.signal, i32, memref<1xf32>, memref<1xf32>, memref<1xf32>, memref<1xf32>, memref<1xf32>, memref<1xf32>) -> !equeue.signal
      %3206 = "equeue.control_and"(%3205, %done_2907) : (!equeue.signal, !equeue.signal) -> !equeue.signal
      %done_2908 = "equeue.launch"(%3204, %162, %165, %163, %164, %171, %123) ( {
      ^bb0(%arg5: memref<1xf32>, %arg6: memref<1xf32>, %arg7: memref<1xf32>, %arg8: memref<1xf32>, %arg9: memref<5x3x3xf32>):  // no predecessors
        %3247 = "equeue.read"(%arg5) {bank = 0 : i64} : (memref<1xf32>) -> f32
        "equeue.write"(%3247, %arg8) {bank = 0 : i64} : (f32, memref<1xf32>) -> ()
        %3248 = "equeue.read"(%arg6) {bank = 1 : i64} : (memref<1xf32>) -> f32
        %3249 = mulf %3247, %3248 : f32
        %3250 = "equeue.read"(%arg7) {bank = 2 : i64} : (memref<1xf32>) -> f32
        %3251 = addf %3249, %3250 : f32
        "equeue.return"() : () -> ()
      }) : (!equeue.signal, i32, memref<1xf32>, memref<1xf32>, memref<1xf32>, memref<1xf32>, memref<5x3x3xf32>) -> !equeue.signal
      %3207 = "equeue.control_and"(%3206, %done_2908) : (!equeue.signal, !equeue.signal) -> !equeue.signal
      %done_2909 = "equeue.launch"(%3204, %138, %141, %139, %140, %147, %171, %170) ( {
      ^bb0(%arg5: memref<1xf32>, %arg6: memref<1xf32>, %arg7: memref<1xf32>, %arg8: memref<1xf32>, %arg9: memref<1xf32>, %arg10: memref<1xf32>):  // no predecessors
        %3247 = "equeue.read"(%arg5) {bank = 0 : i64} : (memref<1xf32>) -> f32
        "equeue.write"(%3247, %arg8) {bank = 0 : i64} : (f32, memref<1xf32>) -> ()
        "equeue.write"(%3247, %arg9) {bank = 0 : i64} : (f32, memref<1xf32>) -> ()
        %3248 = "equeue.read"(%arg6) {bank = 1 : i64} : (memref<1xf32>) -> f32
        %3249 = mulf %3247, %3248 : f32
        %3250 = "equeue.read"(%arg7) {bank = 2 : i64} : (memref<1xf32>) -> f32
        %3251 = addf %3249, %3250 : f32
        "equeue.write"(%3251, %arg10) {bank = 2 : i64} : (f32, memref<1xf32>) -> ()
        "equeue.return"() : () -> ()
      }) : (!equeue.signal, i32, memref<1xf32>, memref<1xf32>, memref<1xf32>, memref<1xf32>, memref<1xf32>, memref<1xf32>) -> !equeue.signal
      %3208 = "equeue.control_and"(%3207, %done_2909) : (!equeue.signal, !equeue.signal) -> !equeue.signal
      %done_2910 = "equeue.launch"(%3204, %168, %171, %169, %170, %177, %123) ( {
      ^bb0(%arg5: memref<1xf32>, %arg6: memref<1xf32>, %arg7: memref<1xf32>, %arg8: memref<1xf32>, %arg9: memref<5x3x3xf32>):  // no predecessors
        %3247 = "equeue.read"(%arg5) {bank = 0 : i64} : (memref<1xf32>) -> f32
        "equeue.write"(%3247, %arg8) {bank = 0 : i64} : (f32, memref<1xf32>) -> ()
        %3248 = "equeue.read"(%arg6) {bank = 1 : i64} : (memref<1xf32>) -> f32
        %3249 = mulf %3247, %3248 : f32
        %3250 = "equeue.read"(%arg7) {bank = 2 : i64} : (memref<1xf32>) -> f32
        %3251 = addf %3249, %3250 : f32
        "equeue.return"() : () -> ()
      }) : (!equeue.signal, i32, memref<1xf32>, memref<1xf32>, memref<1xf32>, memref<1xf32>, memref<5x3x3xf32>) -> !equeue.signal
      %3209 = "equeue.control_and"(%3208, %done_2910) : (!equeue.signal, !equeue.signal) -> !equeue.signal
      %done_2911 = "equeue.launch"(%3204, %144, %147, %145, %146, %153, %177, %176) ( {
      ^bb0(%arg5: memref<1xf32>, %arg6: memref<1xf32>, %arg7: memref<1xf32>, %arg8: memref<1xf32>, %arg9: memref<1xf32>, %arg10: memref<1xf32>):  // no predecessors
        %3247 = "equeue.read"(%arg5) {bank = 0 : i64} : (memref<1xf32>) -> f32
        "equeue.write"(%3247, %arg8) {bank = 0 : i64} : (f32, memref<1xf32>) -> ()
        "equeue.write"(%3247, %arg9) {bank = 0 : i64} : (f32, memref<1xf32>) -> ()
        %3248 = "equeue.read"(%arg6) {bank = 1 : i64} : (memref<1xf32>) -> f32
        %3249 = mulf %3247, %3248 : f32
        %3250 = "equeue.read"(%arg7) {bank = 2 : i64} : (memref<1xf32>) -> f32
        %3251 = addf %3249, %3250 : f32
        "equeue.write"(%3251, %arg10) {bank = 2 : i64} : (f32, memref<1xf32>) -> ()
        "equeue.return"() : () -> ()
      }) : (!equeue.signal, i32, memref<1xf32>, memref<1xf32>, memref<1xf32>, memref<1xf32>, memref<1xf32>, memref<1xf32>) -> !equeue.signal
      %3210 = "equeue.control_and"(%3209, %done_2911) : (!equeue.signal, !equeue.signal) -> !equeue.signal
      %done_2912 = "equeue.launch"(%3204, %174, %177, %175, %176, %183, %123) ( {
      ^bb0(%arg5: memref<1xf32>, %arg6: memref<1xf32>, %arg7: memref<1xf32>, %arg8: memref<1xf32>, %arg9: memref<5x3x3xf32>):  // no predecessors
        %3247 = "equeue.read"(%arg5) {bank = 0 : i64} : (memref<1xf32>) -> f32
        "equeue.write"(%3247, %arg8) {bank = 0 : i64} : (f32, memref<1xf32>) -> ()
        %3248 = "equeue.read"(%arg6) {bank = 1 : i64} : (memref<1xf32>) -> f32
        %3249 = mulf %3247, %3248 : f32
        %3250 = "equeue.read"(%arg7) {bank = 2 : i64} : (memref<1xf32>) -> f32
        %3251 = addf %3249, %3250 : f32
        "equeue.return"() : () -> ()
      }) : (!equeue.signal, i32, memref<1xf32>, memref<1xf32>, memref<1xf32>, memref<1xf32>, memref<5x3x3xf32>) -> !equeue.signal
      %3211 = "equeue.control_and"(%3210, %done_2912) : (!equeue.signal, !equeue.signal) -> !equeue.signal
      %done_2913 = "equeue.launch"(%3204, %150, %153, %151, %152, %183, %182) ( {
      ^bb0(%arg5: memref<1xf32>, %arg6: memref<1xf32>, %arg7: memref<1xf32>, %arg8: memref<1xf32>, %arg9: memref<1xf32>):  // no predecessors
        %3247 = "equeue.read"(%arg5) {bank = 0 : i64} : (memref<1xf32>) -> f32
        "equeue.write"(%3247, %arg8) {bank = 0 : i64} : (f32, memref<1xf32>) -> ()
        %3248 = "equeue.read"(%arg6) {bank = 1 : i64} : (memref<1xf32>) -> f32
        %3249 = mulf %3247, %3248 : f32
        %3250 = "equeue.read"(%arg7) {bank = 2 : i64} : (memref<1xf32>) -> f32
        %3251 = addf %3249, %3250 : f32
        "equeue.write"(%3251, %arg9) {bank = 2 : i64} : (f32, memref<1xf32>) -> ()
        "equeue.return"() : () -> ()
      }) : (!equeue.signal, i32, memref<1xf32>, memref<1xf32>, memref<1xf32>, memref<1xf32>, memref<1xf32>) -> !equeue.signal
      %3212 = "equeue.control_and"(%3211, %done_2913) : (!equeue.signal, !equeue.signal) -> !equeue.signal
      %done_2914 = "equeue.launch"(%3204, %180, %183, %181, %182, %123) ( {
      ^bb0(%arg5: memref<1xf32>, %arg6: memref<1xf32>, %arg7: memref<1xf32>, %arg8: memref<5x3x3xf32>):  // no predecessors
        %3247 = "equeue.read"(%arg5) {bank = 0 : i64} : (memref<1xf32>) -> f32
        %3248 = "equeue.read"(%arg6) {bank = 1 : i64} : (memref<1xf32>) -> f32
        %3249 = mulf %3247, %3248 : f32
        %3250 = "equeue.read"(%arg7) {bank = 2 : i64} : (memref<1xf32>) -> f32
        %3251 = addf %3249, %3250 : f32
        "equeue.return"() : () -> ()
      }) : (!equeue.signal, i32, memref<1xf32>, memref<1xf32>, memref<1xf32>, memref<5x3x3xf32>) -> !equeue.signal
      %3213 = "equeue.control_and"(%3212, %done_2914) : (!equeue.signal, !equeue.signal) -> !equeue.signal
      "equeue.await"(%3213) : (!equeue.signal) -> ()
      %3214 = "equeue.control_start"() : () -> !equeue.signal
      "equeue.await"(%3214) : (!equeue.signal) -> ()
      %3215 = "equeue.control_start"() : () -> !equeue.signal
      %done_2915 = "equeue.launch"(%3215, %126, %129, %127, %128, %135, %159, %158) ( {
      ^bb0(%arg5: memref<1xf32>, %arg6: memref<1xf32>, %arg7: memref<1xf32>, %arg8: memref<1xf32>, %arg9: memref<1xf32>, %arg10: memref<1xf32>):  // no predecessors
        %3247 = "equeue.read"(%arg5) {bank = 0 : i64} : (memref<1xf32>) -> f32
        "equeue.write"(%3247, %arg8) {bank = 0 : i64} : (f32, memref<1xf32>) -> ()
        "equeue.write"(%3247, %arg9) {bank = 0 : i64} : (f32, memref<1xf32>) -> ()
        %3248 = "equeue.read"(%arg6) {bank = 1 : i64} : (memref<1xf32>) -> f32
        %3249 = mulf %3247, %3248 : f32
        %3250 = "equeue.read"(%arg7) {bank = 2 : i64} : (memref<1xf32>) -> f32
        %3251 = addf %3249, %3250 : f32
        "equeue.write"(%3251, %arg10) {bank = 2 : i64} : (f32, memref<1xf32>) -> ()
        "equeue.return"() : () -> ()
      }) : (!equeue.signal, i32, memref<1xf32>, memref<1xf32>, memref<1xf32>, memref<1xf32>, memref<1xf32>, memref<1xf32>) -> !equeue.signal
      %done_2916 = "equeue.launch"(%3215, %156, %159, %157, %158, %165, %123) ( {
      ^bb0(%arg5: memref<1xf32>, %arg6: memref<1xf32>, %arg7: memref<1xf32>, %arg8: memref<1xf32>, %arg9: memref<5x3x3xf32>):  // no predecessors
        %3247 = "equeue.read"(%arg5) {bank = 0 : i64} : (memref<1xf32>) -> f32
        "equeue.write"(%3247, %arg8) {bank = 0 : i64} : (f32, memref<1xf32>) -> ()
        %3248 = "equeue.read"(%arg6) {bank = 1 : i64} : (memref<1xf32>) -> f32
        %3249 = mulf %3247, %3248 : f32
        %3250 = "equeue.read"(%arg7) {bank = 2 : i64} : (memref<1xf32>) -> f32
        %3251 = addf %3249, %3250 : f32
        "equeue.return"() : () -> ()
      }) : (!equeue.signal, i32, memref<1xf32>, memref<1xf32>, memref<1xf32>, memref<1xf32>, memref<5x3x3xf32>) -> !equeue.signal
      %3216 = "equeue.control_and"(%done_2915, %done_2916) : (!equeue.signal, !equeue.signal) -> !equeue.signal
      %done_2917 = "equeue.launch"(%3215, %132, %135, %133, %134, %141, %165, %164) ( {
      ^bb0(%arg5: memref<1xf32>, %arg6: memref<1xf32>, %arg7: memref<1xf32>, %arg8: memref<1xf32>, %arg9: memref<1xf32>, %arg10: memref<1xf32>):  // no predecessors
        %3247 = "equeue.read"(%arg5) {bank = 0 : i64} : (memref<1xf32>) -> f32
        "equeue.write"(%3247, %arg8) {bank = 0 : i64} : (f32, memref<1xf32>) -> ()
        "equeue.write"(%3247, %arg9) {bank = 0 : i64} : (f32, memref<1xf32>) -> ()
        %3248 = "equeue.read"(%arg6) {bank = 1 : i64} : (memref<1xf32>) -> f32
        %3249 = mulf %3247, %3248 : f32
        %3250 = "equeue.read"(%arg7) {bank = 2 : i64} : (memref<1xf32>) -> f32
        %3251 = addf %3249, %3250 : f32
        "equeue.write"(%3251, %arg10) {bank = 2 : i64} : (f32, memref<1xf32>) -> ()
        "equeue.return"() : () -> ()
      }) : (!equeue.signal, i32, memref<1xf32>, memref<1xf32>, memref<1xf32>, memref<1xf32>, memref<1xf32>, memref<1xf32>) -> !equeue.signal
      %3217 = "equeue.control_and"(%3216, %done_2917) : (!equeue.signal, !equeue.signal) -> !equeue.signal
      %done_2918 = "equeue.launch"(%3215, %162, %165, %163, %164, %171, %123) ( {
      ^bb0(%arg5: memref<1xf32>, %arg6: memref<1xf32>, %arg7: memref<1xf32>, %arg8: memref<1xf32>, %arg9: memref<5x3x3xf32>):  // no predecessors
        %3247 = "equeue.read"(%arg5) {bank = 0 : i64} : (memref<1xf32>) -> f32
        "equeue.write"(%3247, %arg8) {bank = 0 : i64} : (f32, memref<1xf32>) -> ()
        %3248 = "equeue.read"(%arg6) {bank = 1 : i64} : (memref<1xf32>) -> f32
        %3249 = mulf %3247, %3248 : f32
        %3250 = "equeue.read"(%arg7) {bank = 2 : i64} : (memref<1xf32>) -> f32
        %3251 = addf %3249, %3250 : f32
        "equeue.return"() : () -> ()
      }) : (!equeue.signal, i32, memref<1xf32>, memref<1xf32>, memref<1xf32>, memref<1xf32>, memref<5x3x3xf32>) -> !equeue.signal
      %3218 = "equeue.control_and"(%3217, %done_2918) : (!equeue.signal, !equeue.signal) -> !equeue.signal
      %done_2919 = "equeue.launch"(%3215, %138, %141, %139, %140, %147, %171, %170) ( {
      ^bb0(%arg5: memref<1xf32>, %arg6: memref<1xf32>, %arg7: memref<1xf32>, %arg8: memref<1xf32>, %arg9: memref<1xf32>, %arg10: memref<1xf32>):  // no predecessors
        %3247 = "equeue.read"(%arg5) {bank = 0 : i64} : (memref<1xf32>) -> f32
        "equeue.write"(%3247, %arg8) {bank = 0 : i64} : (f32, memref<1xf32>) -> ()
        "equeue.write"(%3247, %arg9) {bank = 0 : i64} : (f32, memref<1xf32>) -> ()
        %3248 = "equeue.read"(%arg6) {bank = 1 : i64} : (memref<1xf32>) -> f32
        %3249 = mulf %3247, %3248 : f32
        %3250 = "equeue.read"(%arg7) {bank = 2 : i64} : (memref<1xf32>) -> f32
        %3251 = addf %3249, %3250 : f32
        "equeue.write"(%3251, %arg10) {bank = 2 : i64} : (f32, memref<1xf32>) -> ()
        "equeue.return"() : () -> ()
      }) : (!equeue.signal, i32, memref<1xf32>, memref<1xf32>, memref<1xf32>, memref<1xf32>, memref<1xf32>, memref<1xf32>) -> !equeue.signal
      %3219 = "equeue.control_and"(%3218, %done_2919) : (!equeue.signal, !equeue.signal) -> !equeue.signal
      %done_2920 = "equeue.launch"(%3215, %168, %171, %169, %170, %177, %123) ( {
      ^bb0(%arg5: memref<1xf32>, %arg6: memref<1xf32>, %arg7: memref<1xf32>, %arg8: memref<1xf32>, %arg9: memref<5x3x3xf32>):  // no predecessors
        %3247 = "equeue.read"(%arg5) {bank = 0 : i64} : (memref<1xf32>) -> f32
        "equeue.write"(%3247, %arg8) {bank = 0 : i64} : (f32, memref<1xf32>) -> ()
        %3248 = "equeue.read"(%arg6) {bank = 1 : i64} : (memref<1xf32>) -> f32
        %3249 = mulf %3247, %3248 : f32
        %3250 = "equeue.read"(%arg7) {bank = 2 : i64} : (memref<1xf32>) -> f32
        %3251 = addf %3249, %3250 : f32
        "equeue.return"() : () -> ()
      }) : (!equeue.signal, i32, memref<1xf32>, memref<1xf32>, memref<1xf32>, memref<1xf32>, memref<5x3x3xf32>) -> !equeue.signal
      %3220 = "equeue.control_and"(%3219, %done_2920) : (!equeue.signal, !equeue.signal) -> !equeue.signal
      %done_2921 = "equeue.launch"(%3215, %144, %147, %145, %146, %153, %177, %176) ( {
      ^bb0(%arg5: memref<1xf32>, %arg6: memref<1xf32>, %arg7: memref<1xf32>, %arg8: memref<1xf32>, %arg9: memref<1xf32>, %arg10: memref<1xf32>):  // no predecessors
        %3247 = "equeue.read"(%arg5) {bank = 0 : i64} : (memref<1xf32>) -> f32
        "equeue.write"(%3247, %arg8) {bank = 0 : i64} : (f32, memref<1xf32>) -> ()
        "equeue.write"(%3247, %arg9) {bank = 0 : i64} : (f32, memref<1xf32>) -> ()
        %3248 = "equeue.read"(%arg6) {bank = 1 : i64} : (memref<1xf32>) -> f32
        %3249 = mulf %3247, %3248 : f32
        %3250 = "equeue.read"(%arg7) {bank = 2 : i64} : (memref<1xf32>) -> f32
        %3251 = addf %3249, %3250 : f32
        "equeue.write"(%3251, %arg10) {bank = 2 : i64} : (f32, memref<1xf32>) -> ()
        "equeue.return"() : () -> ()
      }) : (!equeue.signal, i32, memref<1xf32>, memref<1xf32>, memref<1xf32>, memref<1xf32>, memref<1xf32>, memref<1xf32>) -> !equeue.signal
      %3221 = "equeue.control_and"(%3220, %done_2921) : (!equeue.signal, !equeue.signal) -> !equeue.signal
      %done_2922 = "equeue.launch"(%3215, %174, %177, %175, %176, %183, %123) ( {
      ^bb0(%arg5: memref<1xf32>, %arg6: memref<1xf32>, %arg7: memref<1xf32>, %arg8: memref<1xf32>, %arg9: memref<5x3x3xf32>):  // no predecessors
        %3247 = "equeue.read"(%arg5) {bank = 0 : i64} : (memref<1xf32>) -> f32
        "equeue.write"(%3247, %arg8) {bank = 0 : i64} : (f32, memref<1xf32>) -> ()
        %3248 = "equeue.read"(%arg6) {bank = 1 : i64} : (memref<1xf32>) -> f32
        %3249 = mulf %3247, %3248 : f32
        %3250 = "equeue.read"(%arg7) {bank = 2 : i64} : (memref<1xf32>) -> f32
        %3251 = addf %3249, %3250 : f32
        "equeue.return"() : () -> ()
      }) : (!equeue.signal, i32, memref<1xf32>, memref<1xf32>, memref<1xf32>, memref<1xf32>, memref<5x3x3xf32>) -> !equeue.signal
      %3222 = "equeue.control_and"(%3221, %done_2922) : (!equeue.signal, !equeue.signal) -> !equeue.signal
      %done_2923 = "equeue.launch"(%3215, %150, %153, %151, %152, %183, %182) ( {
      ^bb0(%arg5: memref<1xf32>, %arg6: memref<1xf32>, %arg7: memref<1xf32>, %arg8: memref<1xf32>, %arg9: memref<1xf32>):  // no predecessors
        %3247 = "equeue.read"(%arg5) {bank = 0 : i64} : (memref<1xf32>) -> f32
        "equeue.write"(%3247, %arg8) {bank = 0 : i64} : (f32, memref<1xf32>) -> ()
        %3248 = "equeue.read"(%arg6) {bank = 1 : i64} : (memref<1xf32>) -> f32
        %3249 = mulf %3247, %3248 : f32
        %3250 = "equeue.read"(%arg7) {bank = 2 : i64} : (memref<1xf32>) -> f32
        %3251 = addf %3249, %3250 : f32
        "equeue.write"(%3251, %arg9) {bank = 2 : i64} : (f32, memref<1xf32>) -> ()
        "equeue.return"() : () -> ()
      }) : (!equeue.signal, i32, memref<1xf32>, memref<1xf32>, memref<1xf32>, memref<1xf32>, memref<1xf32>) -> !equeue.signal
      %3223 = "equeue.control_and"(%3222, %done_2923) : (!equeue.signal, !equeue.signal) -> !equeue.signal
      %done_2924 = "equeue.launch"(%3215, %180, %183, %181, %182, %123) ( {
      ^bb0(%arg5: memref<1xf32>, %arg6: memref<1xf32>, %arg7: memref<1xf32>, %arg8: memref<5x3x3xf32>):  // no predecessors
        %3247 = "equeue.read"(%arg5) {bank = 0 : i64} : (memref<1xf32>) -> f32
        %3248 = "equeue.read"(%arg6) {bank = 1 : i64} : (memref<1xf32>) -> f32
        %3249 = mulf %3247, %3248 : f32
        %3250 = "equeue.read"(%arg7) {bank = 2 : i64} : (memref<1xf32>) -> f32
        %3251 = addf %3249, %3250 : f32
        "equeue.return"() : () -> ()
      }) : (!equeue.signal, i32, memref<1xf32>, memref<1xf32>, memref<1xf32>, memref<5x3x3xf32>) -> !equeue.signal
      %3224 = "equeue.control_and"(%3223, %done_2924) : (!equeue.signal, !equeue.signal) -> !equeue.signal
      "equeue.await"(%3224) : (!equeue.signal) -> ()
      %3225 = "equeue.control_start"() : () -> !equeue.signal
      "equeue.await"(%3225) : (!equeue.signal) -> ()
      %3226 = "equeue.control_start"() : () -> !equeue.signal
      %done_2925 = "equeue.launch"(%3226, %126, %129, %127, %128, %135, %159, %158) ( {
      ^bb0(%arg5: memref<1xf32>, %arg6: memref<1xf32>, %arg7: memref<1xf32>, %arg8: memref<1xf32>, %arg9: memref<1xf32>, %arg10: memref<1xf32>):  // no predecessors
        %3247 = "equeue.read"(%arg5) {bank = 0 : i64} : (memref<1xf32>) -> f32
        "equeue.write"(%3247, %arg8) {bank = 0 : i64} : (f32, memref<1xf32>) -> ()
        "equeue.write"(%3247, %arg9) {bank = 0 : i64} : (f32, memref<1xf32>) -> ()
        %3248 = "equeue.read"(%arg6) {bank = 1 : i64} : (memref<1xf32>) -> f32
        %3249 = mulf %3247, %3248 : f32
        %3250 = "equeue.read"(%arg7) {bank = 2 : i64} : (memref<1xf32>) -> f32
        %3251 = addf %3249, %3250 : f32
        "equeue.write"(%3251, %arg10) {bank = 2 : i64} : (f32, memref<1xf32>) -> ()
        "equeue.return"() : () -> ()
      }) : (!equeue.signal, i32, memref<1xf32>, memref<1xf32>, memref<1xf32>, memref<1xf32>, memref<1xf32>, memref<1xf32>) -> !equeue.signal
      %done_2926 = "equeue.launch"(%3226, %156, %159, %157, %158, %165, %123) ( {
      ^bb0(%arg5: memref<1xf32>, %arg6: memref<1xf32>, %arg7: memref<1xf32>, %arg8: memref<1xf32>, %arg9: memref<5x3x3xf32>):  // no predecessors
        %3247 = "equeue.read"(%arg5) {bank = 0 : i64} : (memref<1xf32>) -> f32
        "equeue.write"(%3247, %arg8) {bank = 0 : i64} : (f32, memref<1xf32>) -> ()
        %3248 = "equeue.read"(%arg6) {bank = 1 : i64} : (memref<1xf32>) -> f32
        %3249 = mulf %3247, %3248 : f32
        %3250 = "equeue.read"(%arg7) {bank = 2 : i64} : (memref<1xf32>) -> f32
        %3251 = addf %3249, %3250 : f32
        "equeue.return"() : () -> ()
      }) : (!equeue.signal, i32, memref<1xf32>, memref<1xf32>, memref<1xf32>, memref<1xf32>, memref<5x3x3xf32>) -> !equeue.signal
      %3227 = "equeue.control_and"(%done_2925, %done_2926) : (!equeue.signal, !equeue.signal) -> !equeue.signal
      %done_2927 = "equeue.launch"(%3226, %132, %135, %133, %134, %141, %165, %164) ( {
      ^bb0(%arg5: memref<1xf32>, %arg6: memref<1xf32>, %arg7: memref<1xf32>, %arg8: memref<1xf32>, %arg9: memref<1xf32>, %arg10: memref<1xf32>):  // no predecessors
        %3247 = "equeue.read"(%arg5) {bank = 0 : i64} : (memref<1xf32>) -> f32
        "equeue.write"(%3247, %arg8) {bank = 0 : i64} : (f32, memref<1xf32>) -> ()
        "equeue.write"(%3247, %arg9) {bank = 0 : i64} : (f32, memref<1xf32>) -> ()
        %3248 = "equeue.read"(%arg6) {bank = 1 : i64} : (memref<1xf32>) -> f32
        %3249 = mulf %3247, %3248 : f32
        %3250 = "equeue.read"(%arg7) {bank = 2 : i64} : (memref<1xf32>) -> f32
        %3251 = addf %3249, %3250 : f32
        "equeue.write"(%3251, %arg10) {bank = 2 : i64} : (f32, memref<1xf32>) -> ()
        "equeue.return"() : () -> ()
      }) : (!equeue.signal, i32, memref<1xf32>, memref<1xf32>, memref<1xf32>, memref<1xf32>, memref<1xf32>, memref<1xf32>) -> !equeue.signal
      %3228 = "equeue.control_and"(%3227, %done_2927) : (!equeue.signal, !equeue.signal) -> !equeue.signal
      %done_2928 = "equeue.launch"(%3226, %162, %165, %163, %164, %171, %123) ( {
      ^bb0(%arg5: memref<1xf32>, %arg6: memref<1xf32>, %arg7: memref<1xf32>, %arg8: memref<1xf32>, %arg9: memref<5x3x3xf32>):  // no predecessors
        %3247 = "equeue.read"(%arg5) {bank = 0 : i64} : (memref<1xf32>) -> f32
        "equeue.write"(%3247, %arg8) {bank = 0 : i64} : (f32, memref<1xf32>) -> ()
        %3248 = "equeue.read"(%arg6) {bank = 1 : i64} : (memref<1xf32>) -> f32
        %3249 = mulf %3247, %3248 : f32
        %3250 = "equeue.read"(%arg7) {bank = 2 : i64} : (memref<1xf32>) -> f32
        %3251 = addf %3249, %3250 : f32
        "equeue.return"() : () -> ()
      }) : (!equeue.signal, i32, memref<1xf32>, memref<1xf32>, memref<1xf32>, memref<1xf32>, memref<5x3x3xf32>) -> !equeue.signal
      %3229 = "equeue.control_and"(%3228, %done_2928) : (!equeue.signal, !equeue.signal) -> !equeue.signal
      %done_2929 = "equeue.launch"(%3226, %138, %141, %139, %140, %147, %171, %170) ( {
      ^bb0(%arg5: memref<1xf32>, %arg6: memref<1xf32>, %arg7: memref<1xf32>, %arg8: memref<1xf32>, %arg9: memref<1xf32>, %arg10: memref<1xf32>):  // no predecessors
        %3247 = "equeue.read"(%arg5) {bank = 0 : i64} : (memref<1xf32>) -> f32
        "equeue.write"(%3247, %arg8) {bank = 0 : i64} : (f32, memref<1xf32>) -> ()
        "equeue.write"(%3247, %arg9) {bank = 0 : i64} : (f32, memref<1xf32>) -> ()
        %3248 = "equeue.read"(%arg6) {bank = 1 : i64} : (memref<1xf32>) -> f32
        %3249 = mulf %3247, %3248 : f32
        %3250 = "equeue.read"(%arg7) {bank = 2 : i64} : (memref<1xf32>) -> f32
        %3251 = addf %3249, %3250 : f32
        "equeue.write"(%3251, %arg10) {bank = 2 : i64} : (f32, memref<1xf32>) -> ()
        "equeue.return"() : () -> ()
      }) : (!equeue.signal, i32, memref<1xf32>, memref<1xf32>, memref<1xf32>, memref<1xf32>, memref<1xf32>, memref<1xf32>) -> !equeue.signal
      %3230 = "equeue.control_and"(%3229, %done_2929) : (!equeue.signal, !equeue.signal) -> !equeue.signal
      %done_2930 = "equeue.launch"(%3226, %168, %171, %169, %170, %177, %123) ( {
      ^bb0(%arg5: memref<1xf32>, %arg6: memref<1xf32>, %arg7: memref<1xf32>, %arg8: memref<1xf32>, %arg9: memref<5x3x3xf32>):  // no predecessors
        %3247 = "equeue.read"(%arg5) {bank = 0 : i64} : (memref<1xf32>) -> f32
        "equeue.write"(%3247, %arg8) {bank = 0 : i64} : (f32, memref<1xf32>) -> ()
        %3248 = "equeue.read"(%arg6) {bank = 1 : i64} : (memref<1xf32>) -> f32
        %3249 = mulf %3247, %3248 : f32
        %3250 = "equeue.read"(%arg7) {bank = 2 : i64} : (memref<1xf32>) -> f32
        %3251 = addf %3249, %3250 : f32
        "equeue.return"() : () -> ()
      }) : (!equeue.signal, i32, memref<1xf32>, memref<1xf32>, memref<1xf32>, memref<1xf32>, memref<5x3x3xf32>) -> !equeue.signal
      %3231 = "equeue.control_and"(%3230, %done_2930) : (!equeue.signal, !equeue.signal) -> !equeue.signal
      %done_2931 = "equeue.launch"(%3226, %144, %147, %145, %146, %153, %177, %176) ( {
      ^bb0(%arg5: memref<1xf32>, %arg6: memref<1xf32>, %arg7: memref<1xf32>, %arg8: memref<1xf32>, %arg9: memref<1xf32>, %arg10: memref<1xf32>):  // no predecessors
        %3247 = "equeue.read"(%arg5) {bank = 0 : i64} : (memref<1xf32>) -> f32
        "equeue.write"(%3247, %arg8) {bank = 0 : i64} : (f32, memref<1xf32>) -> ()
        "equeue.write"(%3247, %arg9) {bank = 0 : i64} : (f32, memref<1xf32>) -> ()
        %3248 = "equeue.read"(%arg6) {bank = 1 : i64} : (memref<1xf32>) -> f32
        %3249 = mulf %3247, %3248 : f32
        %3250 = "equeue.read"(%arg7) {bank = 2 : i64} : (memref<1xf32>) -> f32
        %3251 = addf %3249, %3250 : f32
        "equeue.write"(%3251, %arg10) {bank = 2 : i64} : (f32, memref<1xf32>) -> ()
        "equeue.return"() : () -> ()
      }) : (!equeue.signal, i32, memref<1xf32>, memref<1xf32>, memref<1xf32>, memref<1xf32>, memref<1xf32>, memref<1xf32>) -> !equeue.signal
      %3232 = "equeue.control_and"(%3231, %done_2931) : (!equeue.signal, !equeue.signal) -> !equeue.signal
      %done_2932 = "equeue.launch"(%3226, %174, %177, %175, %176, %183, %123) ( {
      ^bb0(%arg5: memref<1xf32>, %arg6: memref<1xf32>, %arg7: memref<1xf32>, %arg8: memref<1xf32>, %arg9: memref<5x3x3xf32>):  // no predecessors
        %3247 = "equeue.read"(%arg5) {bank = 0 : i64} : (memref<1xf32>) -> f32
        "equeue.write"(%3247, %arg8) {bank = 0 : i64} : (f32, memref<1xf32>) -> ()
        %3248 = "equeue.read"(%arg6) {bank = 1 : i64} : (memref<1xf32>) -> f32
        %3249 = mulf %3247, %3248 : f32
        %3250 = "equeue.read"(%arg7) {bank = 2 : i64} : (memref<1xf32>) -> f32
        %3251 = addf %3249, %3250 : f32
        "equeue.return"() : () -> ()
      }) : (!equeue.signal, i32, memref<1xf32>, memref<1xf32>, memref<1xf32>, memref<1xf32>, memref<5x3x3xf32>) -> !equeue.signal
      %3233 = "equeue.control_and"(%3232, %done_2932) : (!equeue.signal, !equeue.signal) -> !equeue.signal
      %done_2933 = "equeue.launch"(%3226, %150, %153, %151, %152, %183, %182) ( {
      ^bb0(%arg5: memref<1xf32>, %arg6: memref<1xf32>, %arg7: memref<1xf32>, %arg8: memref<1xf32>, %arg9: memref<1xf32>):  // no predecessors
        %3247 = "equeue.read"(%arg5) {bank = 0 : i64} : (memref<1xf32>) -> f32
        "equeue.write"(%3247, %arg8) {bank = 0 : i64} : (f32, memref<1xf32>) -> ()
        %3248 = "equeue.read"(%arg6) {bank = 1 : i64} : (memref<1xf32>) -> f32
        %3249 = mulf %3247, %3248 : f32
        %3250 = "equeue.read"(%arg7) {bank = 2 : i64} : (memref<1xf32>) -> f32
        %3251 = addf %3249, %3250 : f32
        "equeue.write"(%3251, %arg9) {bank = 2 : i64} : (f32, memref<1xf32>) -> ()
        "equeue.return"() : () -> ()
      }) : (!equeue.signal, i32, memref<1xf32>, memref<1xf32>, memref<1xf32>, memref<1xf32>, memref<1xf32>) -> !equeue.signal
      %3234 = "equeue.control_and"(%3233, %done_2933) : (!equeue.signal, !equeue.signal) -> !equeue.signal
      %done_2934 = "equeue.launch"(%3226, %180, %183, %181, %182, %123) ( {
      ^bb0(%arg5: memref<1xf32>, %arg6: memref<1xf32>, %arg7: memref<1xf32>, %arg8: memref<5x3x3xf32>):  // no predecessors
        %3247 = "equeue.read"(%arg5) {bank = 0 : i64} : (memref<1xf32>) -> f32
        %3248 = "equeue.read"(%arg6) {bank = 1 : i64} : (memref<1xf32>) -> f32
        %3249 = mulf %3247, %3248 : f32
        %3250 = "equeue.read"(%arg7) {bank = 2 : i64} : (memref<1xf32>) -> f32
        %3251 = addf %3249, %3250 : f32
        "equeue.return"() : () -> ()
      }) : (!equeue.signal, i32, memref<1xf32>, memref<1xf32>, memref<1xf32>, memref<5x3x3xf32>) -> !equeue.signal
      %3235 = "equeue.control_and"(%3234, %done_2934) : (!equeue.signal, !equeue.signal) -> !equeue.signal
      "equeue.await"(%3235) : (!equeue.signal) -> ()
      %3236 = "equeue.control_start"() : () -> !equeue.signal
      "equeue.await"(%3236) : (!equeue.signal) -> ()
      %3237 = "equeue.control_start"() : () -> !equeue.signal
      %done_2935 = "equeue.launch"(%3237, %126, %129, %127, %128, %135, %159, %158) ( {
      ^bb0(%arg5: memref<1xf32>, %arg6: memref<1xf32>, %arg7: memref<1xf32>, %arg8: memref<1xf32>, %arg9: memref<1xf32>, %arg10: memref<1xf32>):  // no predecessors
        %3247 = "equeue.read"(%arg5) {bank = 0 : i64} : (memref<1xf32>) -> f32
        "equeue.write"(%3247, %arg8) {bank = 0 : i64} : (f32, memref<1xf32>) -> ()
        "equeue.write"(%3247, %arg9) {bank = 0 : i64} : (f32, memref<1xf32>) -> ()
        %3248 = "equeue.read"(%arg6) {bank = 1 : i64} : (memref<1xf32>) -> f32
        %3249 = mulf %3247, %3248 : f32
        %3250 = "equeue.read"(%arg7) {bank = 2 : i64} : (memref<1xf32>) -> f32
        %3251 = addf %3249, %3250 : f32
        "equeue.write"(%3251, %arg10) {bank = 2 : i64} : (f32, memref<1xf32>) -> ()
        "equeue.return"() : () -> ()
      }) : (!equeue.signal, i32, memref<1xf32>, memref<1xf32>, memref<1xf32>, memref<1xf32>, memref<1xf32>, memref<1xf32>) -> !equeue.signal
      %done_2936 = "equeue.launch"(%3237, %156, %159, %157, %158, %165, %123) ( {
      ^bb0(%arg5: memref<1xf32>, %arg6: memref<1xf32>, %arg7: memref<1xf32>, %arg8: memref<1xf32>, %arg9: memref<5x3x3xf32>):  // no predecessors
        %3247 = "equeue.read"(%arg5) {bank = 0 : i64} : (memref<1xf32>) -> f32
        "equeue.write"(%3247, %arg8) {bank = 0 : i64} : (f32, memref<1xf32>) -> ()
        %3248 = "equeue.read"(%arg6) {bank = 1 : i64} : (memref<1xf32>) -> f32
        %3249 = mulf %3247, %3248 : f32
        %3250 = "equeue.read"(%arg7) {bank = 2 : i64} : (memref<1xf32>) -> f32
        %3251 = addf %3249, %3250 : f32
        "equeue.return"() : () -> ()
      }) : (!equeue.signal, i32, memref<1xf32>, memref<1xf32>, memref<1xf32>, memref<1xf32>, memref<5x3x3xf32>) -> !equeue.signal
      %3238 = "equeue.control_and"(%done_2935, %done_2936) : (!equeue.signal, !equeue.signal) -> !equeue.signal
      %done_2937 = "equeue.launch"(%3237, %132, %135, %133, %134, %141, %165, %164) ( {
      ^bb0(%arg5: memref<1xf32>, %arg6: memref<1xf32>, %arg7: memref<1xf32>, %arg8: memref<1xf32>, %arg9: memref<1xf32>, %arg10: memref<1xf32>):  // no predecessors
        %3247 = "equeue.read"(%arg5) {bank = 0 : i64} : (memref<1xf32>) -> f32
        "equeue.write"(%3247, %arg8) {bank = 0 : i64} : (f32, memref<1xf32>) -> ()
        "equeue.write"(%3247, %arg9) {bank = 0 : i64} : (f32, memref<1xf32>) -> ()
        %3248 = "equeue.read"(%arg6) {bank = 1 : i64} : (memref<1xf32>) -> f32
        %3249 = mulf %3247, %3248 : f32
        %3250 = "equeue.read"(%arg7) {bank = 2 : i64} : (memref<1xf32>) -> f32
        %3251 = addf %3249, %3250 : f32
        "equeue.write"(%3251, %arg10) {bank = 2 : i64} : (f32, memref<1xf32>) -> ()
        "equeue.return"() : () -> ()
      }) : (!equeue.signal, i32, memref<1xf32>, memref<1xf32>, memref<1xf32>, memref<1xf32>, memref<1xf32>, memref<1xf32>) -> !equeue.signal
      %3239 = "equeue.control_and"(%3238, %done_2937) : (!equeue.signal, !equeue.signal) -> !equeue.signal
      %done_2938 = "equeue.launch"(%3237, %162, %165, %163, %164, %171, %123) ( {
      ^bb0(%arg5: memref<1xf32>, %arg6: memref<1xf32>, %arg7: memref<1xf32>, %arg8: memref<1xf32>, %arg9: memref<5x3x3xf32>):  // no predecessors
        %3247 = "equeue.read"(%arg5) {bank = 0 : i64} : (memref<1xf32>) -> f32
        "equeue.write"(%3247, %arg8) {bank = 0 : i64} : (f32, memref<1xf32>) -> ()
        %3248 = "equeue.read"(%arg6) {bank = 1 : i64} : (memref<1xf32>) -> f32
        %3249 = mulf %3247, %3248 : f32
        %3250 = "equeue.read"(%arg7) {bank = 2 : i64} : (memref<1xf32>) -> f32
        %3251 = addf %3249, %3250 : f32
        "equeue.return"() : () -> ()
      }) : (!equeue.signal, i32, memref<1xf32>, memref<1xf32>, memref<1xf32>, memref<1xf32>, memref<5x3x3xf32>) -> !equeue.signal
      %3240 = "equeue.control_and"(%3239, %done_2938) : (!equeue.signal, !equeue.signal) -> !equeue.signal
      %done_2939 = "equeue.launch"(%3237, %138, %141, %139, %140, %147, %171, %170) ( {
      ^bb0(%arg5: memref<1xf32>, %arg6: memref<1xf32>, %arg7: memref<1xf32>, %arg8: memref<1xf32>, %arg9: memref<1xf32>, %arg10: memref<1xf32>):  // no predecessors
        %3247 = "equeue.read"(%arg5) {bank = 0 : i64} : (memref<1xf32>) -> f32
        "equeue.write"(%3247, %arg8) {bank = 0 : i64} : (f32, memref<1xf32>) -> ()
        "equeue.write"(%3247, %arg9) {bank = 0 : i64} : (f32, memref<1xf32>) -> ()
        %3248 = "equeue.read"(%arg6) {bank = 1 : i64} : (memref<1xf32>) -> f32
        %3249 = mulf %3247, %3248 : f32
        %3250 = "equeue.read"(%arg7) {bank = 2 : i64} : (memref<1xf32>) -> f32
        %3251 = addf %3249, %3250 : f32
        "equeue.write"(%3251, %arg10) {bank = 2 : i64} : (f32, memref<1xf32>) -> ()
        "equeue.return"() : () -> ()
      }) : (!equeue.signal, i32, memref<1xf32>, memref<1xf32>, memref<1xf32>, memref<1xf32>, memref<1xf32>, memref<1xf32>) -> !equeue.signal
      %3241 = "equeue.control_and"(%3240, %done_2939) : (!equeue.signal, !equeue.signal) -> !equeue.signal
      %done_2940 = "equeue.launch"(%3237, %168, %171, %169, %170, %177, %123) ( {
      ^bb0(%arg5: memref<1xf32>, %arg6: memref<1xf32>, %arg7: memref<1xf32>, %arg8: memref<1xf32>, %arg9: memref<5x3x3xf32>):  // no predecessors
        %3247 = "equeue.read"(%arg5) {bank = 0 : i64} : (memref<1xf32>) -> f32
        "equeue.write"(%3247, %arg8) {bank = 0 : i64} : (f32, memref<1xf32>) -> ()
        %3248 = "equeue.read"(%arg6) {bank = 1 : i64} : (memref<1xf32>) -> f32
        %3249 = mulf %3247, %3248 : f32
        %3250 = "equeue.read"(%arg7) {bank = 2 : i64} : (memref<1xf32>) -> f32
        %3251 = addf %3249, %3250 : f32
        "equeue.return"() : () -> ()
      }) : (!equeue.signal, i32, memref<1xf32>, memref<1xf32>, memref<1xf32>, memref<1xf32>, memref<5x3x3xf32>) -> !equeue.signal
      %3242 = "equeue.control_and"(%3241, %done_2940) : (!equeue.signal, !equeue.signal) -> !equeue.signal
      %done_2941 = "equeue.launch"(%3237, %144, %147, %145, %146, %153, %177, %176) ( {
      ^bb0(%arg5: memref<1xf32>, %arg6: memref<1xf32>, %arg7: memref<1xf32>, %arg8: memref<1xf32>, %arg9: memref<1xf32>, %arg10: memref<1xf32>):  // no predecessors
        %3247 = "equeue.read"(%arg5) {bank = 0 : i64} : (memref<1xf32>) -> f32
        "equeue.write"(%3247, %arg8) {bank = 0 : i64} : (f32, memref<1xf32>) -> ()
        "equeue.write"(%3247, %arg9) {bank = 0 : i64} : (f32, memref<1xf32>) -> ()
        %3248 = "equeue.read"(%arg6) {bank = 1 : i64} : (memref<1xf32>) -> f32
        %3249 = mulf %3247, %3248 : f32
        %3250 = "equeue.read"(%arg7) {bank = 2 : i64} : (memref<1xf32>) -> f32
        %3251 = addf %3249, %3250 : f32
        "equeue.write"(%3251, %arg10) {bank = 2 : i64} : (f32, memref<1xf32>) -> ()
        "equeue.return"() : () -> ()
      }) : (!equeue.signal, i32, memref<1xf32>, memref<1xf32>, memref<1xf32>, memref<1xf32>, memref<1xf32>, memref<1xf32>) -> !equeue.signal
      %3243 = "equeue.control_and"(%3242, %done_2941) : (!equeue.signal, !equeue.signal) -> !equeue.signal
      %done_2942 = "equeue.launch"(%3237, %174, %177, %175, %176, %183, %123) ( {
      ^bb0(%arg5: memref<1xf32>, %arg6: memref<1xf32>, %arg7: memref<1xf32>, %arg8: memref<1xf32>, %arg9: memref<5x3x3xf32>):  // no predecessors
        %3247 = "equeue.read"(%arg5) {bank = 0 : i64} : (memref<1xf32>) -> f32
        "equeue.write"(%3247, %arg8) {bank = 0 : i64} : (f32, memref<1xf32>) -> ()
        %3248 = "equeue.read"(%arg6) {bank = 1 : i64} : (memref<1xf32>) -> f32
        %3249 = mulf %3247, %3248 : f32
        %3250 = "equeue.read"(%arg7) {bank = 2 : i64} : (memref<1xf32>) -> f32
        %3251 = addf %3249, %3250 : f32
        "equeue.return"() : () -> ()
      }) : (!equeue.signal, i32, memref<1xf32>, memref<1xf32>, memref<1xf32>, memref<1xf32>, memref<5x3x3xf32>) -> !equeue.signal
      %3244 = "equeue.control_and"(%3243, %done_2942) : (!equeue.signal, !equeue.signal) -> !equeue.signal
      %done_2943 = "equeue.launch"(%3237, %150, %153, %151, %152, %183, %182) ( {
      ^bb0(%arg5: memref<1xf32>, %arg6: memref<1xf32>, %arg7: memref<1xf32>, %arg8: memref<1xf32>, %arg9: memref<1xf32>):  // no predecessors
        %3247 = "equeue.read"(%arg5) {bank = 0 : i64} : (memref<1xf32>) -> f32
        "equeue.write"(%3247, %arg8) {bank = 0 : i64} : (f32, memref<1xf32>) -> ()
        %3248 = "equeue.read"(%arg6) {bank = 1 : i64} : (memref<1xf32>) -> f32
        %3249 = mulf %3247, %3248 : f32
        %3250 = "equeue.read"(%arg7) {bank = 2 : i64} : (memref<1xf32>) -> f32
        %3251 = addf %3249, %3250 : f32
        "equeue.write"(%3251, %arg9) {bank = 2 : i64} : (f32, memref<1xf32>) -> ()
        "equeue.return"() : () -> ()
      }) : (!equeue.signal, i32, memref<1xf32>, memref<1xf32>, memref<1xf32>, memref<1xf32>, memref<1xf32>) -> !equeue.signal
      %3245 = "equeue.control_and"(%3244, %done_2943) : (!equeue.signal, !equeue.signal) -> !equeue.signal
      %done_2944 = "equeue.launch"(%3237, %180, %183, %181, %182, %123) ( {
      ^bb0(%arg5: memref<1xf32>, %arg6: memref<1xf32>, %arg7: memref<1xf32>, %arg8: memref<5x3x3xf32>):  // no predecessors
        %3247 = "equeue.read"(%arg5) {bank = 0 : i64} : (memref<1xf32>) -> f32
        %3248 = "equeue.read"(%arg6) {bank = 1 : i64} : (memref<1xf32>) -> f32
        %3249 = mulf %3247, %3248 : f32
        %3250 = "equeue.read"(%arg7) {bank = 2 : i64} : (memref<1xf32>) -> f32
        %3251 = addf %3249, %3250 : f32
        "equeue.return"() : () -> ()
      }) : (!equeue.signal, i32, memref<1xf32>, memref<1xf32>, memref<1xf32>, memref<5x3x3xf32>) -> !equeue.signal
      %3246 = "equeue.control_and"(%3245, %done_2944) : (!equeue.signal, !equeue.signal) -> !equeue.signal
      "equeue.await"(%3246) : (!equeue.signal) -> ()
      "equeue.return"() : () -> ()
    }) : (!equeue.signal, i32, i32, memref<3x7x7xf32>, memref<5x3x7x3xf32>) -> !equeue.signal
    return
  }
}
