

module {
  func @graph(%arg0: memref<3x7x7xf32>, %arg1: memref<5x3x7x3xf32>) {
    %0 = "equeue.create_proc"() {name = "proc0,0", type = "AIEngine"} : () -> i32
    %1 = "equeue.create_mem"() {banks = 3 : i64, data = "f32", name = "mem0,0", shape = dense<3> : tensor<1xi64>, type = "RegisterFile"} : () -> i32
    %2 = "equeue.create_comp"(%1, %0) {name = "pe_0,0"} : (i32, i32) -> i32
    %3 = "equeue.create_proc"() {name = "proc0,1", type = "AIEngine"} : () -> i32
    %4 = "equeue.create_mem"() {banks = 3 : i64, data = "f32", name = "mem0,1", shape = dense<3> : tensor<1xi64>, type = "RegisterFile"} : () -> i32
    %5 = "equeue.create_comp"(%4, %3, %2) {name = "pe_0,1"} : (i32, i32, i32) -> i32
    %6 = "equeue.create_proc"() {name = "proc0,2", type = "AIEngine"} : () -> i32
    %7 = "equeue.create_mem"() {banks = 3 : i64, data = "f32", name = "mem0,2", shape = dense<3> : tensor<1xi64>, type = "RegisterFile"} : () -> i32
    %8 = "equeue.create_comp"(%7, %6, %5) {name = "pe_0,2"} : (i32, i32, i32) -> i32
    %9 = "equeue.create_proc"() {name = "proc0,3", type = "AIEngine"} : () -> i32
    %10 = "equeue.create_mem"() {banks = 3 : i64, data = "f32", name = "mem0,3", shape = dense<3> : tensor<1xi64>, type = "RegisterFile"} : () -> i32
    %11 = "equeue.create_comp"(%10, %9, %8) {name = "pe_0,3"} : (i32, i32, i32) -> i32
    %12 = "equeue.create_proc"() {name = "proc0,4", type = "AIEngine"} : () -> i32
    %13 = "equeue.create_mem"() {banks = 3 : i64, data = "f32", name = "mem0,4", shape = dense<3> : tensor<1xi64>, type = "RegisterFile"} : () -> i32
    %14 = "equeue.create_comp"(%13, %12, %11) {name = "pe_0,4"} : (i32, i32, i32) -> i32
    %15 = "equeue.create_proc"() {name = "proc1,0", type = "AIEngine"} : () -> i32
    %16 = "equeue.create_mem"() {banks = 3 : i64, data = "f32", name = "mem1,0", shape = dense<3> : tensor<1xi64>, type = "RegisterFile"} : () -> i32
    %17 = "equeue.create_comp"(%16, %15, %14) {name = "pe_1,0"} : (i32, i32, i32) -> i32
    %18 = "equeue.create_proc"() {name = "proc1,1", type = "AIEngine"} : () -> i32
    %19 = "equeue.create_mem"() {banks = 3 : i64, data = "f32", name = "mem1,1", shape = dense<3> : tensor<1xi64>, type = "RegisterFile"} : () -> i32
    %20 = "equeue.create_comp"(%19, %18, %17) {name = "pe_1,1"} : (i32, i32, i32) -> i32
    %21 = "equeue.create_proc"() {name = "proc1,2", type = "AIEngine"} : () -> i32
    %22 = "equeue.create_mem"() {banks = 3 : i64, data = "f32", name = "mem1,2", shape = dense<3> : tensor<1xi64>, type = "RegisterFile"} : () -> i32
    %23 = "equeue.create_comp"(%22, %21, %20) {name = "pe_1,2"} : (i32, i32, i32) -> i32
    %24 = "equeue.create_proc"() {name = "proc1,3", type = "AIEngine"} : () -> i32
    %25 = "equeue.create_mem"() {banks = 3 : i64, data = "f32", name = "mem1,3", shape = dense<3> : tensor<1xi64>, type = "RegisterFile"} : () -> i32
    %26 = "equeue.create_comp"(%25, %24, %23) {name = "pe_1,3"} : (i32, i32, i32) -> i32
    %27 = "equeue.create_proc"() {name = "proc1,4", type = "AIEngine"} : () -> i32
    %28 = "equeue.create_mem"() {banks = 3 : i64, data = "f32", name = "mem1,4", shape = dense<3> : tensor<1xi64>, type = "RegisterFile"} : () -> i32
    %29 = "equeue.create_comp"(%28, %27, %26) {name = "pe_1,4"} : (i32, i32, i32) -> i32
    %30 = "equeue.create_proc"() {name = "proc2,0", type = "AIEngine"} : () -> i32
    %31 = "equeue.create_mem"() {banks = 3 : i64, data = "f32", name = "mem2,0", shape = dense<3> : tensor<1xi64>, type = "RegisterFile"} : () -> i32
    %32 = "equeue.create_comp"(%31, %30, %29) {name = "pe_2,0"} : (i32, i32, i32) -> i32
    %33 = "equeue.create_proc"() {name = "proc2,1", type = "AIEngine"} : () -> i32
    %34 = "equeue.create_mem"() {banks = 3 : i64, data = "f32", name = "mem2,1", shape = dense<3> : tensor<1xi64>, type = "RegisterFile"} : () -> i32
    %35 = "equeue.create_comp"(%34, %33, %32) {name = "pe_2,1"} : (i32, i32, i32) -> i32
    %36 = "equeue.create_proc"() {name = "proc2,2", type = "AIEngine"} : () -> i32
    %37 = "equeue.create_mem"() {banks = 3 : i64, data = "f32", name = "mem2,2", shape = dense<3> : tensor<1xi64>, type = "RegisterFile"} : () -> i32
    %38 = "equeue.create_comp"(%37, %36, %35) {name = "pe_2,2"} : (i32, i32, i32) -> i32
    %39 = "equeue.create_proc"() {name = "proc2,3", type = "AIEngine"} : () -> i32
    %40 = "equeue.create_mem"() {banks = 3 : i64, data = "f32", name = "mem2,3", shape = dense<3> : tensor<1xi64>, type = "RegisterFile"} : () -> i32
    %41 = "equeue.create_comp"(%40, %39, %38) {name = "pe_2,3"} : (i32, i32, i32) -> i32
    %42 = "equeue.create_proc"() {name = "proc2,4", type = "AIEngine"} : () -> i32
    %43 = "equeue.create_mem"() {banks = 3 : i64, data = "f32", name = "mem2,4", shape = dense<3> : tensor<1xi64>, type = "RegisterFile"} : () -> i32
    %44 = "equeue.create_comp"(%43, %42, %41) {name = "pe_2,4"} : (i32, i32, i32) -> i32
    %45 = "equeue.create_proc"() {name = "proc3,0", type = "AIEngine"} : () -> i32
    %46 = "equeue.create_mem"() {banks = 3 : i64, data = "f32", name = "mem3,0", shape = dense<3> : tensor<1xi64>, type = "RegisterFile"} : () -> i32
    %47 = "equeue.create_comp"(%46, %45, %44) {name = "pe_3,0"} : (i32, i32, i32) -> i32
    %48 = "equeue.create_proc"() {name = "proc3,1", type = "AIEngine"} : () -> i32
    %49 = "equeue.create_mem"() {banks = 3 : i64, data = "f32", name = "mem3,1", shape = dense<3> : tensor<1xi64>, type = "RegisterFile"} : () -> i32
    %50 = "equeue.create_comp"(%49, %48, %47) {name = "pe_3,1"} : (i32, i32, i32) -> i32
    %51 = "equeue.create_proc"() {name = "proc3,2", type = "AIEngine"} : () -> i32
    %52 = "equeue.create_mem"() {banks = 3 : i64, data = "f32", name = "mem3,2", shape = dense<3> : tensor<1xi64>, type = "RegisterFile"} : () -> i32
    %53 = "equeue.create_comp"(%52, %51, %50) {name = "pe_3,2"} : (i32, i32, i32) -> i32
    %54 = "equeue.create_proc"() {name = "proc3,3", type = "AIEngine"} : () -> i32
    %55 = "equeue.create_mem"() {banks = 3 : i64, data = "f32", name = "mem3,3", shape = dense<3> : tensor<1xi64>, type = "RegisterFile"} : () -> i32
    %56 = "equeue.create_comp"(%55, %54, %53) {name = "pe_3,3"} : (i32, i32, i32) -> i32
    %57 = "equeue.create_proc"() {name = "proc3,4", type = "AIEngine"} : () -> i32
    %58 = "equeue.create_mem"() {banks = 3 : i64, data = "f32", name = "mem3,4", shape = dense<3> : tensor<1xi64>, type = "RegisterFile"} : () -> i32
    %59 = "equeue.create_comp"(%58, %57, %56) {name = "pe_3,4"} : (i32, i32, i32) -> i32
    %60 = "equeue.create_proc"() {name = "proc4,0", type = "AIEngine"} : () -> i32
    %61 = "equeue.create_mem"() {banks = 3 : i64, data = "f32", name = "mem4,0", shape = dense<3> : tensor<1xi64>, type = "RegisterFile"} : () -> i32
    %62 = "equeue.create_comp"(%61, %60, %59) {name = "pe_4,0"} : (i32, i32, i32) -> i32
    %63 = "equeue.create_proc"() {name = "proc4,1", type = "AIEngine"} : () -> i32
    %64 = "equeue.create_mem"() {banks = 3 : i64, data = "f32", name = "mem4,1", shape = dense<3> : tensor<1xi64>, type = "RegisterFile"} : () -> i32
    %65 = "equeue.create_comp"(%64, %63, %62) {name = "pe_4,1"} : (i32, i32, i32) -> i32
    %66 = "equeue.create_proc"() {name = "proc4,2", type = "AIEngine"} : () -> i32
    %67 = "equeue.create_mem"() {banks = 3 : i64, data = "f32", name = "mem4,2", shape = dense<3> : tensor<1xi64>, type = "RegisterFile"} : () -> i32
    %68 = "equeue.create_comp"(%67, %66, %65) {name = "pe_4,2"} : (i32, i32, i32) -> i32
    %69 = "equeue.create_proc"() {name = "proc4,3", type = "AIEngine"} : () -> i32
    %70 = "equeue.create_mem"() {banks = 3 : i64, data = "f32", name = "mem4,3", shape = dense<3> : tensor<1xi64>, type = "RegisterFile"} : () -> i32
    %71 = "equeue.create_comp"(%70, %69, %68) {name = "pe_4,3"} : (i32, i32, i32) -> i32
    %72 = "equeue.create_proc"() {name = "proc4,4", type = "AIEngine"} : () -> i32
    %73 = "equeue.create_mem"() {banks = 3 : i64, data = "f32", name = "mem4,4", shape = dense<3> : tensor<1xi64>, type = "RegisterFile"} : () -> i32
    %74 = "equeue.create_comp"(%73, %72, %71) {name = "pe_4,4"} : (i32, i32, i32) -> i32
    %75 = "equeue.create_mem"() {banks = 10 : i64, data = "f32", name = "mem", shape = dense<110592> : tensor<1xi64>, type = "SRAM"} : () -> i32
    %76 = "equeue.create_dma"() {name = "dma0"} : () -> i32
    %77 = "equeue.create_comp"(%76) {name = "dma_col"} : (i32) -> i32
    %78 = "equeue.create_dma"() {name = "dma1"} : () -> i32
    %79 = "equeue.create_comp"(%78, %77) {name = "dma_col"} : (i32, i32) -> i32
    %80 = "equeue.create_dma"() {name = "dma2"} : () -> i32
    %81 = "equeue.create_comp"(%80, %79) {name = "dma_col"} : (i32, i32) -> i32
    %82 = "equeue.create_dma"() {name = "dma3"} : () -> i32
    %83 = "equeue.create_comp"(%82, %81) {name = "dma_col"} : (i32, i32) -> i32
    %84 = "equeue.create_dma"() {name = "dma4"} : () -> i32
    %85 = "equeue.create_comp"(%84, %83) {name = "dma_col"} : (i32, i32) -> i32
    %86 = "equeue.create_dma"() {name = "dma0"} : () -> i32
    %87 = "equeue.create_comp"(%86) {name = "dma_row"} : (i32) -> i32
    %88 = "equeue.create_dma"() {name = "dma1"} : () -> i32
    %89 = "equeue.create_comp"(%88, %87) {name = "dma_row"} : (i32, i32) -> i32
    %90 = "equeue.create_dma"() {name = "dma2"} : () -> i32
    %91 = "equeue.create_comp"(%90, %89) {name = "dma_row"} : (i32, i32) -> i32
    %92 = "equeue.create_dma"() {name = "dma3"} : () -> i32
    %93 = "equeue.create_comp"(%92, %91) {name = "dma_row"} : (i32, i32) -> i32
    %94 = "equeue.create_dma"() {name = "dma4"} : () -> i32
    %95 = "equeue.create_comp"(%94, %93) {name = "dma_row"} : (i32, i32) -> i32
    %96 = "equeue.create_proc"() {name = "proc", type = "MicroPlate"} : () -> i32
    %97 = "equeue.create_comp"(%74, %96, %75, %95, %85) {name = "accel"} : (i32, i32, i32, i32, i32) -> i32
    %98 = "equeue.control_start"() : () -> !equeue.signal
    %done = "equeue.launch"(%98, %96, %97, %arg0, %arg1) ( {
    ^bb0(%arg2: i32, %arg3: memref<3x7x7xf32>, %arg4: memref<5x3x7x3xf32>):  // no predecessors
      %99 = "equeue.get_comp"(%arg2) {name = "proc"} : (i32) -> i32
      %100 = "equeue.get_comp"(%arg2) {name = "dma_row"} : (i32) -> i32
      %101 = "equeue.get_comp"(%arg2) {name = "dma_col"} : (i32) -> i32
      %102 = "equeue.get_comp"(%100) {name = "dma4"} : (i32) -> i32
      %103 = "equeue.get_comp"(%100) {name = "dma_row"} : (i32) -> i32
      %104 = "equeue.get_comp"(%103) {name = "dma3"} : (i32) -> i32
      %105 = "equeue.get_comp"(%103) {name = "dma_row"} : (i32) -> i32
      %106 = "equeue.get_comp"(%105) {name = "dma2"} : (i32) -> i32
      %107 = "equeue.get_comp"(%105) {name = "dma_row"} : (i32) -> i32
      %108 = "equeue.get_comp"(%107) {name = "dma1"} : (i32) -> i32
      %109 = "equeue.get_comp"(%107) {name = "dma_row"} : (i32) -> i32
      %110 = "equeue.get_comp"(%109) {name = "dma0"} : (i32) -> i32
      %111 = "equeue.get_comp"(%101) {name = "dma4"} : (i32) -> i32
      %112 = "equeue.get_comp"(%101) {name = "dma_col"} : (i32) -> i32
      %113 = "equeue.get_comp"(%112) {name = "dma3"} : (i32) -> i32
      %114 = "equeue.get_comp"(%112) {name = "dma_col"} : (i32) -> i32
      %115 = "equeue.get_comp"(%114) {name = "dma2"} : (i32) -> i32
      %116 = "equeue.get_comp"(%114) {name = "dma_col"} : (i32) -> i32
      %117 = "equeue.get_comp"(%116) {name = "dma1"} : (i32) -> i32
      %118 = "equeue.get_comp"(%116) {name = "dma_col"} : (i32) -> i32
      %119 = "equeue.get_comp"(%118) {name = "dma0"} : (i32) -> i32
      %120 = "equeue.get_comp"(%arg2) {name = "mem"} : (i32) -> i32
      %121 = "equeue.alloc"(%120) {data = "f32", shape = dense<[3, 7, 7]> : tensor<3xi64>} : (i32) -> memref<3x7x7xf32>
      %122 = "equeue.alloc"(%120) {data = "f32", shape = dense<[5, 3, 7, 3]> : tensor<4xi64>} : (i32) -> memref<5x3x7x3xf32>
      %123 = "equeue.alloc"(%120) {data = "f32", shape = dense<[5, 3, 3]> : tensor<3xi64>} : (i32) -> memref<5x3x3xf32>
      %124 = "equeue.get_comp"(%arg2) {name = "pe_4,4"} : (i32) -> i32
      %125 = "equeue.get_comp"(%124) {name = "mem4,4"} : (i32) -> i32
      %126 = "equeue.get_comp"(%124) {name = "proc4,4"} : (i32) -> i32
      %127 = "equeue.alloc"(%125) {data = "f32", shape = dense<1> : tensor<1xi64>} : (i32) -> memref<1xf32>
      %128 = "equeue.alloc"(%125) {data = "f32", shape = dense<1> : tensor<1xi64>} : (i32) -> memref<1xf32>
      %129 = "equeue.alloc"(%125) {data = "f32", shape = dense<1> : tensor<1xi64>} : (i32) -> memref<1xf32>
      %130 = "equeue.get_comp"(%124) {name = "pe_4,3"} : (i32) -> i32
      %131 = "equeue.get_comp"(%130) {name = "mem4,3"} : (i32) -> i32
      %132 = "equeue.get_comp"(%130) {name = "proc4,3"} : (i32) -> i32
      %133 = "equeue.alloc"(%131) {data = "f32", shape = dense<1> : tensor<1xi64>} : (i32) -> memref<1xf32>
      %134 = "equeue.alloc"(%131) {data = "f32", shape = dense<1> : tensor<1xi64>} : (i32) -> memref<1xf32>
      %135 = "equeue.alloc"(%131) {data = "f32", shape = dense<1> : tensor<1xi64>} : (i32) -> memref<1xf32>
      %136 = "equeue.get_comp"(%130) {name = "pe_4,2"} : (i32) -> i32
      %137 = "equeue.get_comp"(%136) {name = "mem4,2"} : (i32) -> i32
      %138 = "equeue.get_comp"(%136) {name = "proc4,2"} : (i32) -> i32
      %139 = "equeue.alloc"(%137) {data = "f32", shape = dense<1> : tensor<1xi64>} : (i32) -> memref<1xf32>
      %140 = "equeue.alloc"(%137) {data = "f32", shape = dense<1> : tensor<1xi64>} : (i32) -> memref<1xf32>
      %141 = "equeue.alloc"(%137) {data = "f32", shape = dense<1> : tensor<1xi64>} : (i32) -> memref<1xf32>
      %142 = "equeue.get_comp"(%136) {name = "pe_4,1"} : (i32) -> i32
      %143 = "equeue.get_comp"(%142) {name = "mem4,1"} : (i32) -> i32
      %144 = "equeue.get_comp"(%142) {name = "proc4,1"} : (i32) -> i32
      %145 = "equeue.alloc"(%143) {data = "f32", shape = dense<1> : tensor<1xi64>} : (i32) -> memref<1xf32>
      %146 = "equeue.alloc"(%143) {data = "f32", shape = dense<1> : tensor<1xi64>} : (i32) -> memref<1xf32>
      %147 = "equeue.alloc"(%143) {data = "f32", shape = dense<1> : tensor<1xi64>} : (i32) -> memref<1xf32>
      %148 = "equeue.get_comp"(%142) {name = "pe_4,0"} : (i32) -> i32
      %149 = "equeue.get_comp"(%148) {name = "mem4,0"} : (i32) -> i32
      %150 = "equeue.get_comp"(%148) {name = "proc4,0"} : (i32) -> i32
      %151 = "equeue.alloc"(%149) {data = "f32", shape = dense<1> : tensor<1xi64>} : (i32) -> memref<1xf32>
      %152 = "equeue.alloc"(%149) {data = "f32", shape = dense<1> : tensor<1xi64>} : (i32) -> memref<1xf32>
      %153 = "equeue.alloc"(%149) {data = "f32", shape = dense<1> : tensor<1xi64>} : (i32) -> memref<1xf32>
      %154 = "equeue.get_comp"(%148) {name = "pe_3,4"} : (i32) -> i32
      %155 = "equeue.get_comp"(%154) {name = "mem3,4"} : (i32) -> i32
      %156 = "equeue.get_comp"(%154) {name = "proc3,4"} : (i32) -> i32
      %157 = "equeue.alloc"(%155) {data = "f32", shape = dense<1> : tensor<1xi64>} : (i32) -> memref<1xf32>
      %158 = "equeue.alloc"(%155) {data = "f32", shape = dense<1> : tensor<1xi64>} : (i32) -> memref<1xf32>
      %159 = "equeue.alloc"(%155) {data = "f32", shape = dense<1> : tensor<1xi64>} : (i32) -> memref<1xf32>
      %160 = "equeue.get_comp"(%154) {name = "pe_3,3"} : (i32) -> i32
      %161 = "equeue.get_comp"(%160) {name = "mem3,3"} : (i32) -> i32
      %162 = "equeue.get_comp"(%160) {name = "proc3,3"} : (i32) -> i32
      %163 = "equeue.alloc"(%161) {data = "f32", shape = dense<1> : tensor<1xi64>} : (i32) -> memref<1xf32>
      %164 = "equeue.alloc"(%161) {data = "f32", shape = dense<1> : tensor<1xi64>} : (i32) -> memref<1xf32>
      %165 = "equeue.alloc"(%161) {data = "f32", shape = dense<1> : tensor<1xi64>} : (i32) -> memref<1xf32>
      %166 = "equeue.get_comp"(%160) {name = "pe_3,2"} : (i32) -> i32
      %167 = "equeue.get_comp"(%166) {name = "mem3,2"} : (i32) -> i32
      %168 = "equeue.get_comp"(%166) {name = "proc3,2"} : (i32) -> i32
      %169 = "equeue.alloc"(%167) {data = "f32", shape = dense<1> : tensor<1xi64>} : (i32) -> memref<1xf32>
      %170 = "equeue.alloc"(%167) {data = "f32", shape = dense<1> : tensor<1xi64>} : (i32) -> memref<1xf32>
      %171 = "equeue.alloc"(%167) {data = "f32", shape = dense<1> : tensor<1xi64>} : (i32) -> memref<1xf32>
      %172 = "equeue.get_comp"(%166) {name = "pe_3,1"} : (i32) -> i32
      %173 = "equeue.get_comp"(%172) {name = "mem3,1"} : (i32) -> i32
      %174 = "equeue.get_comp"(%172) {name = "proc3,1"} : (i32) -> i32
      %175 = "equeue.alloc"(%173) {data = "f32", shape = dense<1> : tensor<1xi64>} : (i32) -> memref<1xf32>
      %176 = "equeue.alloc"(%173) {data = "f32", shape = dense<1> : tensor<1xi64>} : (i32) -> memref<1xf32>
      %177 = "equeue.alloc"(%173) {data = "f32", shape = dense<1> : tensor<1xi64>} : (i32) -> memref<1xf32>
      %178 = "equeue.get_comp"(%172) {name = "pe_3,0"} : (i32) -> i32
      %179 = "equeue.get_comp"(%178) {name = "mem3,0"} : (i32) -> i32
      %180 = "equeue.get_comp"(%178) {name = "proc3,0"} : (i32) -> i32
      %181 = "equeue.alloc"(%179) {data = "f32", shape = dense<1> : tensor<1xi64>} : (i32) -> memref<1xf32>
      %182 = "equeue.alloc"(%179) {data = "f32", shape = dense<1> : tensor<1xi64>} : (i32) -> memref<1xf32>
      %183 = "equeue.alloc"(%179) {data = "f32", shape = dense<1> : tensor<1xi64>} : (i32) -> memref<1xf32>
      %184 = "equeue.get_comp"(%178) {name = "pe_2,4"} : (i32) -> i32
      %185 = "equeue.get_comp"(%184) {name = "mem2,4"} : (i32) -> i32
      %186 = "equeue.get_comp"(%184) {name = "proc2,4"} : (i32) -> i32
      %187 = "equeue.alloc"(%185) {data = "f32", shape = dense<1> : tensor<1xi64>} : (i32) -> memref<1xf32>
      %188 = "equeue.alloc"(%185) {data = "f32", shape = dense<1> : tensor<1xi64>} : (i32) -> memref<1xf32>
      %189 = "equeue.alloc"(%185) {data = "f32", shape = dense<1> : tensor<1xi64>} : (i32) -> memref<1xf32>
      %190 = "equeue.get_comp"(%184) {name = "pe_2,3"} : (i32) -> i32
      %191 = "equeue.get_comp"(%190) {name = "mem2,3"} : (i32) -> i32
      %192 = "equeue.get_comp"(%190) {name = "proc2,3"} : (i32) -> i32
      %193 = "equeue.alloc"(%191) {data = "f32", shape = dense<1> : tensor<1xi64>} : (i32) -> memref<1xf32>
      %194 = "equeue.alloc"(%191) {data = "f32", shape = dense<1> : tensor<1xi64>} : (i32) -> memref<1xf32>
      %195 = "equeue.alloc"(%191) {data = "f32", shape = dense<1> : tensor<1xi64>} : (i32) -> memref<1xf32>
      %196 = "equeue.get_comp"(%190) {name = "pe_2,2"} : (i32) -> i32
      %197 = "equeue.get_comp"(%196) {name = "mem2,2"} : (i32) -> i32
      %198 = "equeue.get_comp"(%196) {name = "proc2,2"} : (i32) -> i32
      %199 = "equeue.alloc"(%197) {data = "f32", shape = dense<1> : tensor<1xi64>} : (i32) -> memref<1xf32>
      %200 = "equeue.alloc"(%197) {data = "f32", shape = dense<1> : tensor<1xi64>} : (i32) -> memref<1xf32>
      %201 = "equeue.alloc"(%197) {data = "f32", shape = dense<1> : tensor<1xi64>} : (i32) -> memref<1xf32>
      %202 = "equeue.get_comp"(%196) {name = "pe_2,1"} : (i32) -> i32
      %203 = "equeue.get_comp"(%202) {name = "mem2,1"} : (i32) -> i32
      %204 = "equeue.get_comp"(%202) {name = "proc2,1"} : (i32) -> i32
      %205 = "equeue.alloc"(%203) {data = "f32", shape = dense<1> : tensor<1xi64>} : (i32) -> memref<1xf32>
      %206 = "equeue.alloc"(%203) {data = "f32", shape = dense<1> : tensor<1xi64>} : (i32) -> memref<1xf32>
      %207 = "equeue.alloc"(%203) {data = "f32", shape = dense<1> : tensor<1xi64>} : (i32) -> memref<1xf32>
      %208 = "equeue.get_comp"(%202) {name = "pe_2,0"} : (i32) -> i32
      %209 = "equeue.get_comp"(%208) {name = "mem2,0"} : (i32) -> i32
      %210 = "equeue.get_comp"(%208) {name = "proc2,0"} : (i32) -> i32
      %211 = "equeue.alloc"(%209) {data = "f32", shape = dense<1> : tensor<1xi64>} : (i32) -> memref<1xf32>
      %212 = "equeue.alloc"(%209) {data = "f32", shape = dense<1> : tensor<1xi64>} : (i32) -> memref<1xf32>
      %213 = "equeue.alloc"(%209) {data = "f32", shape = dense<1> : tensor<1xi64>} : (i32) -> memref<1xf32>
      %214 = "equeue.get_comp"(%208) {name = "pe_1,4"} : (i32) -> i32
      %215 = "equeue.get_comp"(%214) {name = "mem1,4"} : (i32) -> i32
      %216 = "equeue.get_comp"(%214) {name = "proc1,4"} : (i32) -> i32
      %217 = "equeue.alloc"(%215) {data = "f32", shape = dense<1> : tensor<1xi64>} : (i32) -> memref<1xf32>
      %218 = "equeue.alloc"(%215) {data = "f32", shape = dense<1> : tensor<1xi64>} : (i32) -> memref<1xf32>
      %219 = "equeue.alloc"(%215) {data = "f32", shape = dense<1> : tensor<1xi64>} : (i32) -> memref<1xf32>
      %220 = "equeue.get_comp"(%214) {name = "pe_1,3"} : (i32) -> i32
      %221 = "equeue.get_comp"(%220) {name = "mem1,3"} : (i32) -> i32
      %222 = "equeue.get_comp"(%220) {name = "proc1,3"} : (i32) -> i32
      %223 = "equeue.alloc"(%221) {data = "f32", shape = dense<1> : tensor<1xi64>} : (i32) -> memref<1xf32>
      %224 = "equeue.alloc"(%221) {data = "f32", shape = dense<1> : tensor<1xi64>} : (i32) -> memref<1xf32>
      %225 = "equeue.alloc"(%221) {data = "f32", shape = dense<1> : tensor<1xi64>} : (i32) -> memref<1xf32>
      %226 = "equeue.get_comp"(%220) {name = "pe_1,2"} : (i32) -> i32
      %227 = "equeue.get_comp"(%226) {name = "mem1,2"} : (i32) -> i32
      %228 = "equeue.get_comp"(%226) {name = "proc1,2"} : (i32) -> i32
      %229 = "equeue.alloc"(%227) {data = "f32", shape = dense<1> : tensor<1xi64>} : (i32) -> memref<1xf32>
      %230 = "equeue.alloc"(%227) {data = "f32", shape = dense<1> : tensor<1xi64>} : (i32) -> memref<1xf32>
      %231 = "equeue.alloc"(%227) {data = "f32", shape = dense<1> : tensor<1xi64>} : (i32) -> memref<1xf32>
      %232 = "equeue.get_comp"(%226) {name = "pe_1,1"} : (i32) -> i32
      %233 = "equeue.get_comp"(%232) {name = "mem1,1"} : (i32) -> i32
      %234 = "equeue.get_comp"(%232) {name = "proc1,1"} : (i32) -> i32
      %235 = "equeue.alloc"(%233) {data = "f32", shape = dense<1> : tensor<1xi64>} : (i32) -> memref<1xf32>
      %236 = "equeue.alloc"(%233) {data = "f32", shape = dense<1> : tensor<1xi64>} : (i32) -> memref<1xf32>
      %237 = "equeue.alloc"(%233) {data = "f32", shape = dense<1> : tensor<1xi64>} : (i32) -> memref<1xf32>
      %238 = "equeue.get_comp"(%232) {name = "pe_1,0"} : (i32) -> i32
      %239 = "equeue.get_comp"(%238) {name = "mem1,0"} : (i32) -> i32
      %240 = "equeue.get_comp"(%238) {name = "proc1,0"} : (i32) -> i32
      %241 = "equeue.alloc"(%239) {data = "f32", shape = dense<1> : tensor<1xi64>} : (i32) -> memref<1xf32>
      %242 = "equeue.alloc"(%239) {data = "f32", shape = dense<1> : tensor<1xi64>} : (i32) -> memref<1xf32>
      %243 = "equeue.alloc"(%239) {data = "f32", shape = dense<1> : tensor<1xi64>} : (i32) -> memref<1xf32>
      %244 = "equeue.get_comp"(%238) {name = "pe_0,4"} : (i32) -> i32
      %245 = "equeue.get_comp"(%244) {name = "mem0,4"} : (i32) -> i32
      %246 = "equeue.get_comp"(%244) {name = "proc0,4"} : (i32) -> i32
      %247 = "equeue.alloc"(%245) {data = "f32", shape = dense<1> : tensor<1xi64>} : (i32) -> memref<1xf32>
      %248 = "equeue.alloc"(%245) {data = "f32", shape = dense<1> : tensor<1xi64>} : (i32) -> memref<1xf32>
      %249 = "equeue.alloc"(%245) {data = "f32", shape = dense<1> : tensor<1xi64>} : (i32) -> memref<1xf32>
      %250 = "equeue.get_comp"(%244) {name = "pe_0,3"} : (i32) -> i32
      %251 = "equeue.get_comp"(%250) {name = "mem0,3"} : (i32) -> i32
      %252 = "equeue.get_comp"(%250) {name = "proc0,3"} : (i32) -> i32
      %253 = "equeue.alloc"(%251) {data = "f32", shape = dense<1> : tensor<1xi64>} : (i32) -> memref<1xf32>
      %254 = "equeue.alloc"(%251) {data = "f32", shape = dense<1> : tensor<1xi64>} : (i32) -> memref<1xf32>
      %255 = "equeue.alloc"(%251) {data = "f32", shape = dense<1> : tensor<1xi64>} : (i32) -> memref<1xf32>
      %256 = "equeue.get_comp"(%250) {name = "pe_0,2"} : (i32) -> i32
      %257 = "equeue.get_comp"(%256) {name = "mem0,2"} : (i32) -> i32
      %258 = "equeue.get_comp"(%256) {name = "proc0,2"} : (i32) -> i32
      %259 = "equeue.alloc"(%257) {data = "f32", shape = dense<1> : tensor<1xi64>} : (i32) -> memref<1xf32>
      %260 = "equeue.alloc"(%257) {data = "f32", shape = dense<1> : tensor<1xi64>} : (i32) -> memref<1xf32>
      %261 = "equeue.alloc"(%257) {data = "f32", shape = dense<1> : tensor<1xi64>} : (i32) -> memref<1xf32>
      %262 = "equeue.get_comp"(%256) {name = "pe_0,1"} : (i32) -> i32
      %263 = "equeue.get_comp"(%262) {name = "mem0,1"} : (i32) -> i32
      %264 = "equeue.get_comp"(%262) {name = "proc0,1"} : (i32) -> i32
      %265 = "equeue.alloc"(%263) {data = "f32", shape = dense<1> : tensor<1xi64>} : (i32) -> memref<1xf32>
      %266 = "equeue.alloc"(%263) {data = "f32", shape = dense<1> : tensor<1xi64>} : (i32) -> memref<1xf32>
      %267 = "equeue.alloc"(%263) {data = "f32", shape = dense<1> : tensor<1xi64>} : (i32) -> memref<1xf32>
      %268 = "equeue.get_comp"(%262) {name = "pe_0,0"} : (i32) -> i32
      %269 = "equeue.get_comp"(%268) {name = "mem0,0"} : (i32) -> i32
      %270 = "equeue.get_comp"(%268) {name = "proc0,0"} : (i32) -> i32
      %271 = "equeue.alloc"(%269) {data = "f32", shape = dense<1> : tensor<1xi64>} : (i32) -> memref<1xf32>
      %272 = "equeue.alloc"(%269) {data = "f32", shape = dense<1> : tensor<1xi64>} : (i32) -> memref<1xf32>
      %273 = "equeue.alloc"(%269) {data = "f32", shape = dense<1> : tensor<1xi64>} : (i32) -> memref<1xf32>
      %274 = "equeue.control_start"() : () -> !equeue.signal
      %c0 = constant 0 : index
      %275 = "equeue.memcpy"(%274, %122, %127, %111, %c0) {dest_bank = 0 : i64, src_bank = 0 : i64} : (!equeue.signal, memref<5x3x7x3xf32>, memref<1xf32>, i32, index) -> !equeue.signal
      %276 = "equeue.memcpy"(%274, %121, %129, %102, %c0) {dest_bank = 1 : i64, src_bank = 0 : i64} : (!equeue.signal, memref<3x7x7xf32>, memref<1xf32>, i32, index) -> !equeue.signal
      "equeue.await"(%276, %275) : (!equeue.signal, !equeue.signal) -> ()
      %277 = "equeue.control_start"() : () -> !equeue.signal
      %done_0 = "equeue.launch"(%277, %126, %129, %127, %128, %135, %157, %123) ( {
      ^bb0(%arg5: memref<1xf32>, %arg6: memref<1xf32>, %arg7: memref<1xf32>, %arg8: memref<1xf32>, %arg9: memref<1xf32>, %arg10: memref<5x3x3xf32>):  // no predecessors
        %2710 = "equeue.read"(%arg6) {bank = 0 : i64} : (memref<1xf32>) -> f32
        "equeue.write"(%2710, %arg9) {bank = 0 : i64} : (f32, memref<1xf32>) -> ()
        %2711 = "equeue.read"(%arg5) {bank = 1 : i64} : (memref<1xf32>) -> f32
        "equeue.write"(%2711, %arg8) {bank = 1 : i64} : (f32, memref<1xf32>) -> ()
        %2712 = mulf %2711, %2710 : f32
        %2713 = "equeue.read"(%arg7) {bank = 2 : i64} : (memref<1xf32>) -> f32
        %2714 = addf %2712, %2713 : f32
        "equeue.write"(%2714, %arg7) {bank = 2 : i64} : (f32, memref<1xf32>) -> ()
        "equeue.return"() : () -> ()
      }) : (!equeue.signal, i32, memref<1xf32>, memref<1xf32>, memref<1xf32>, memref<1xf32>, memref<1xf32>, memref<5x3x3xf32>) -> !equeue.signal
      %done_1 = "equeue.launch"(%277, %156, %159, %157, %158, %165, %187, %123) ( {
      ^bb0(%arg5: memref<1xf32>, %arg6: memref<1xf32>, %arg7: memref<1xf32>, %arg8: memref<1xf32>, %arg9: memref<1xf32>, %arg10: memref<5x3x3xf32>):  // no predecessors
        %2710 = "equeue.read"(%arg6) {bank = 0 : i64} : (memref<1xf32>) -> f32
        "equeue.write"(%2710, %arg9) {bank = 0 : i64} : (f32, memref<1xf32>) -> ()
        %2711 = "equeue.read"(%arg5) {bank = 1 : i64} : (memref<1xf32>) -> f32
        "equeue.write"(%2711, %arg8) {bank = 1 : i64} : (f32, memref<1xf32>) -> ()
        %2712 = mulf %2711, %2710 : f32
        %2713 = "equeue.read"(%arg7) {bank = 2 : i64} : (memref<1xf32>) -> f32
        %2714 = addf %2712, %2713 : f32
        "equeue.write"(%2714, %arg7) {bank = 2 : i64} : (f32, memref<1xf32>) -> ()
        "equeue.return"() : () -> ()
      }) : (!equeue.signal, i32, memref<1xf32>, memref<1xf32>, memref<1xf32>, memref<1xf32>, memref<1xf32>, memref<5x3x3xf32>) -> !equeue.signal
      %278 = "equeue.control_and"(%done_0, %done_1) : (!equeue.signal, !equeue.signal) -> !equeue.signal
      %done_2 = "equeue.launch"(%277, %186, %189, %187, %188, %195, %217, %123) ( {
      ^bb0(%arg5: memref<1xf32>, %arg6: memref<1xf32>, %arg7: memref<1xf32>, %arg8: memref<1xf32>, %arg9: memref<1xf32>, %arg10: memref<5x3x3xf32>):  // no predecessors
        %2710 = "equeue.read"(%arg6) {bank = 0 : i64} : (memref<1xf32>) -> f32
        "equeue.write"(%2710, %arg9) {bank = 0 : i64} : (f32, memref<1xf32>) -> ()
        %2711 = "equeue.read"(%arg5) {bank = 1 : i64} : (memref<1xf32>) -> f32
        "equeue.write"(%2711, %arg8) {bank = 1 : i64} : (f32, memref<1xf32>) -> ()
        %2712 = mulf %2711, %2710 : f32
        %2713 = "equeue.read"(%arg7) {bank = 2 : i64} : (memref<1xf32>) -> f32
        %2714 = addf %2712, %2713 : f32
        "equeue.write"(%2714, %arg7) {bank = 2 : i64} : (f32, memref<1xf32>) -> ()
        "equeue.return"() : () -> ()
      }) : (!equeue.signal, i32, memref<1xf32>, memref<1xf32>, memref<1xf32>, memref<1xf32>, memref<1xf32>, memref<5x3x3xf32>) -> !equeue.signal
      %279 = "equeue.control_and"(%278, %done_2) : (!equeue.signal, !equeue.signal) -> !equeue.signal
      %done_3 = "equeue.launch"(%277, %216, %219, %217, %218, %225, %247, %123) ( {
      ^bb0(%arg5: memref<1xf32>, %arg6: memref<1xf32>, %arg7: memref<1xf32>, %arg8: memref<1xf32>, %arg9: memref<1xf32>, %arg10: memref<5x3x3xf32>):  // no predecessors
        %2710 = "equeue.read"(%arg6) {bank = 0 : i64} : (memref<1xf32>) -> f32
        "equeue.write"(%2710, %arg9) {bank = 0 : i64} : (f32, memref<1xf32>) -> ()
        %2711 = "equeue.read"(%arg5) {bank = 1 : i64} : (memref<1xf32>) -> f32
        "equeue.write"(%2711, %arg8) {bank = 1 : i64} : (f32, memref<1xf32>) -> ()
        %2712 = mulf %2711, %2710 : f32
        %2713 = "equeue.read"(%arg7) {bank = 2 : i64} : (memref<1xf32>) -> f32
        %2714 = addf %2712, %2713 : f32
        "equeue.write"(%2714, %arg7) {bank = 2 : i64} : (f32, memref<1xf32>) -> ()
        "equeue.return"() : () -> ()
      }) : (!equeue.signal, i32, memref<1xf32>, memref<1xf32>, memref<1xf32>, memref<1xf32>, memref<1xf32>, memref<5x3x3xf32>) -> !equeue.signal
      %280 = "equeue.control_and"(%279, %done_3) : (!equeue.signal, !equeue.signal) -> !equeue.signal
      %done_4 = "equeue.launch"(%277, %246, %249, %247, %248, %255, %123) ( {
      ^bb0(%arg5: memref<1xf32>, %arg6: memref<1xf32>, %arg7: memref<1xf32>, %arg8: memref<1xf32>, %arg9: memref<5x3x3xf32>):  // no predecessors
        %2710 = "equeue.read"(%arg6) {bank = 0 : i64} : (memref<1xf32>) -> f32
        %2711 = "equeue.read"(%arg5) {bank = 1 : i64} : (memref<1xf32>) -> f32
        "equeue.write"(%2711, %arg8) {bank = 1 : i64} : (f32, memref<1xf32>) -> ()
        %2712 = mulf %2711, %2710 : f32
        %2713 = "equeue.read"(%arg7) {bank = 2 : i64} : (memref<1xf32>) -> f32
        %2714 = addf %2712, %2713 : f32
        "equeue.write"(%2714, %arg7) {bank = 2 : i64} : (f32, memref<1xf32>) -> ()
        "equeue.return"() : () -> ()
      }) : (!equeue.signal, i32, memref<1xf32>, memref<1xf32>, memref<1xf32>, memref<1xf32>, memref<5x3x3xf32>) -> !equeue.signal
      %281 = "equeue.control_and"(%280, %done_4) : (!equeue.signal, !equeue.signal) -> !equeue.signal
      %done_5 = "equeue.launch"(%277, %132, %135, %133, %134, %141, %163, %123) ( {
      ^bb0(%arg5: memref<1xf32>, %arg6: memref<1xf32>, %arg7: memref<1xf32>, %arg8: memref<1xf32>, %arg9: memref<1xf32>, %arg10: memref<5x3x3xf32>):  // no predecessors
        %2710 = "equeue.read"(%arg6) {bank = 0 : i64} : (memref<1xf32>) -> f32
        "equeue.write"(%2710, %arg9) {bank = 0 : i64} : (f32, memref<1xf32>) -> ()
        %2711 = "equeue.read"(%arg5) {bank = 1 : i64} : (memref<1xf32>) -> f32
        "equeue.write"(%2711, %arg8) {bank = 1 : i64} : (f32, memref<1xf32>) -> ()
        %2712 = mulf %2711, %2710 : f32
        %2713 = "equeue.read"(%arg7) {bank = 2 : i64} : (memref<1xf32>) -> f32
        %2714 = addf %2712, %2713 : f32
        "equeue.write"(%2714, %arg7) {bank = 2 : i64} : (f32, memref<1xf32>) -> ()
        "equeue.return"() : () -> ()
      }) : (!equeue.signal, i32, memref<1xf32>, memref<1xf32>, memref<1xf32>, memref<1xf32>, memref<1xf32>, memref<5x3x3xf32>) -> !equeue.signal
      %282 = "equeue.control_and"(%281, %done_5) : (!equeue.signal, !equeue.signal) -> !equeue.signal
      %done_6 = "equeue.launch"(%277, %162, %165, %163, %164, %171, %193, %123) ( {
      ^bb0(%arg5: memref<1xf32>, %arg6: memref<1xf32>, %arg7: memref<1xf32>, %arg8: memref<1xf32>, %arg9: memref<1xf32>, %arg10: memref<5x3x3xf32>):  // no predecessors
        %2710 = "equeue.read"(%arg6) {bank = 0 : i64} : (memref<1xf32>) -> f32
        "equeue.write"(%2710, %arg9) {bank = 0 : i64} : (f32, memref<1xf32>) -> ()
        %2711 = "equeue.read"(%arg5) {bank = 1 : i64} : (memref<1xf32>) -> f32
        "equeue.write"(%2711, %arg8) {bank = 1 : i64} : (f32, memref<1xf32>) -> ()
        %2712 = mulf %2711, %2710 : f32
        %2713 = "equeue.read"(%arg7) {bank = 2 : i64} : (memref<1xf32>) -> f32
        %2714 = addf %2712, %2713 : f32
        "equeue.write"(%2714, %arg7) {bank = 2 : i64} : (f32, memref<1xf32>) -> ()
        "equeue.return"() : () -> ()
      }) : (!equeue.signal, i32, memref<1xf32>, memref<1xf32>, memref<1xf32>, memref<1xf32>, memref<1xf32>, memref<5x3x3xf32>) -> !equeue.signal
      %283 = "equeue.control_and"(%282, %done_6) : (!equeue.signal, !equeue.signal) -> !equeue.signal
      %done_7 = "equeue.launch"(%277, %192, %195, %193, %194, %201, %223, %123) ( {
      ^bb0(%arg5: memref<1xf32>, %arg6: memref<1xf32>, %arg7: memref<1xf32>, %arg8: memref<1xf32>, %arg9: memref<1xf32>, %arg10: memref<5x3x3xf32>):  // no predecessors
        %2710 = "equeue.read"(%arg6) {bank = 0 : i64} : (memref<1xf32>) -> f32
        "equeue.write"(%2710, %arg9) {bank = 0 : i64} : (f32, memref<1xf32>) -> ()
        %2711 = "equeue.read"(%arg5) {bank = 1 : i64} : (memref<1xf32>) -> f32
        "equeue.write"(%2711, %arg8) {bank = 1 : i64} : (f32, memref<1xf32>) -> ()
        %2712 = mulf %2711, %2710 : f32
        %2713 = "equeue.read"(%arg7) {bank = 2 : i64} : (memref<1xf32>) -> f32
        %2714 = addf %2712, %2713 : f32
        "equeue.write"(%2714, %arg7) {bank = 2 : i64} : (f32, memref<1xf32>) -> ()
        "equeue.return"() : () -> ()
      }) : (!equeue.signal, i32, memref<1xf32>, memref<1xf32>, memref<1xf32>, memref<1xf32>, memref<1xf32>, memref<5x3x3xf32>) -> !equeue.signal
      %284 = "equeue.control_and"(%283, %done_7) : (!equeue.signal, !equeue.signal) -> !equeue.signal
      %done_8 = "equeue.launch"(%277, %222, %225, %223, %224, %231, %253, %123) ( {
      ^bb0(%arg5: memref<1xf32>, %arg6: memref<1xf32>, %arg7: memref<1xf32>, %arg8: memref<1xf32>, %arg9: memref<1xf32>, %arg10: memref<5x3x3xf32>):  // no predecessors
        %2710 = "equeue.read"(%arg6) {bank = 0 : i64} : (memref<1xf32>) -> f32
        "equeue.write"(%2710, %arg9) {bank = 0 : i64} : (f32, memref<1xf32>) -> ()
        %2711 = "equeue.read"(%arg5) {bank = 1 : i64} : (memref<1xf32>) -> f32
        "equeue.write"(%2711, %arg8) {bank = 1 : i64} : (f32, memref<1xf32>) -> ()
        %2712 = mulf %2711, %2710 : f32
        %2713 = "equeue.read"(%arg7) {bank = 2 : i64} : (memref<1xf32>) -> f32
        %2714 = addf %2712, %2713 : f32
        "equeue.write"(%2714, %arg7) {bank = 2 : i64} : (f32, memref<1xf32>) -> ()
        "equeue.return"() : () -> ()
      }) : (!equeue.signal, i32, memref<1xf32>, memref<1xf32>, memref<1xf32>, memref<1xf32>, memref<1xf32>, memref<5x3x3xf32>) -> !equeue.signal
      %285 = "equeue.control_and"(%284, %done_8) : (!equeue.signal, !equeue.signal) -> !equeue.signal
      %done_9 = "equeue.launch"(%277, %252, %255, %253, %254, %261, %123) ( {
      ^bb0(%arg5: memref<1xf32>, %arg6: memref<1xf32>, %arg7: memref<1xf32>, %arg8: memref<1xf32>, %arg9: memref<5x3x3xf32>):  // no predecessors
        %2710 = "equeue.read"(%arg6) {bank = 0 : i64} : (memref<1xf32>) -> f32
        %2711 = "equeue.read"(%arg5) {bank = 1 : i64} : (memref<1xf32>) -> f32
        "equeue.write"(%2711, %arg8) {bank = 1 : i64} : (f32, memref<1xf32>) -> ()
        %2712 = mulf %2711, %2710 : f32
        %2713 = "equeue.read"(%arg7) {bank = 2 : i64} : (memref<1xf32>) -> f32
        %2714 = addf %2712, %2713 : f32
        "equeue.write"(%2714, %arg7) {bank = 2 : i64} : (f32, memref<1xf32>) -> ()
        "equeue.return"() : () -> ()
      }) : (!equeue.signal, i32, memref<1xf32>, memref<1xf32>, memref<1xf32>, memref<1xf32>, memref<5x3x3xf32>) -> !equeue.signal
      %286 = "equeue.control_and"(%285, %done_9) : (!equeue.signal, !equeue.signal) -> !equeue.signal
      %done_10 = "equeue.launch"(%277, %138, %141, %139, %140, %147, %169, %123) ( {
      ^bb0(%arg5: memref<1xf32>, %arg6: memref<1xf32>, %arg7: memref<1xf32>, %arg8: memref<1xf32>, %arg9: memref<1xf32>, %arg10: memref<5x3x3xf32>):  // no predecessors
        %2710 = "equeue.read"(%arg6) {bank = 0 : i64} : (memref<1xf32>) -> f32
        "equeue.write"(%2710, %arg9) {bank = 0 : i64} : (f32, memref<1xf32>) -> ()
        %2711 = "equeue.read"(%arg5) {bank = 1 : i64} : (memref<1xf32>) -> f32
        "equeue.write"(%2711, %arg8) {bank = 1 : i64} : (f32, memref<1xf32>) -> ()
        %2712 = mulf %2711, %2710 : f32
        %2713 = "equeue.read"(%arg7) {bank = 2 : i64} : (memref<1xf32>) -> f32
        %2714 = addf %2712, %2713 : f32
        "equeue.write"(%2714, %arg7) {bank = 2 : i64} : (f32, memref<1xf32>) -> ()
        "equeue.return"() : () -> ()
      }) : (!equeue.signal, i32, memref<1xf32>, memref<1xf32>, memref<1xf32>, memref<1xf32>, memref<1xf32>, memref<5x3x3xf32>) -> !equeue.signal
      %287 = "equeue.control_and"(%286, %done_10) : (!equeue.signal, !equeue.signal) -> !equeue.signal
      %done_11 = "equeue.launch"(%277, %168, %171, %169, %170, %177, %199, %123) ( {
      ^bb0(%arg5: memref<1xf32>, %arg6: memref<1xf32>, %arg7: memref<1xf32>, %arg8: memref<1xf32>, %arg9: memref<1xf32>, %arg10: memref<5x3x3xf32>):  // no predecessors
        %2710 = "equeue.read"(%arg6) {bank = 0 : i64} : (memref<1xf32>) -> f32
        "equeue.write"(%2710, %arg9) {bank = 0 : i64} : (f32, memref<1xf32>) -> ()
        %2711 = "equeue.read"(%arg5) {bank = 1 : i64} : (memref<1xf32>) -> f32
        "equeue.write"(%2711, %arg8) {bank = 1 : i64} : (f32, memref<1xf32>) -> ()
        %2712 = mulf %2711, %2710 : f32
        %2713 = "equeue.read"(%arg7) {bank = 2 : i64} : (memref<1xf32>) -> f32
        %2714 = addf %2712, %2713 : f32
        "equeue.write"(%2714, %arg7) {bank = 2 : i64} : (f32, memref<1xf32>) -> ()
        "equeue.return"() : () -> ()
      }) : (!equeue.signal, i32, memref<1xf32>, memref<1xf32>, memref<1xf32>, memref<1xf32>, memref<1xf32>, memref<5x3x3xf32>) -> !equeue.signal
      %288 = "equeue.control_and"(%287, %done_11) : (!equeue.signal, !equeue.signal) -> !equeue.signal
      %done_12 = "equeue.launch"(%277, %198, %201, %199, %200, %207, %229, %123) ( {
      ^bb0(%arg5: memref<1xf32>, %arg6: memref<1xf32>, %arg7: memref<1xf32>, %arg8: memref<1xf32>, %arg9: memref<1xf32>, %arg10: memref<5x3x3xf32>):  // no predecessors
        %2710 = "equeue.read"(%arg6) {bank = 0 : i64} : (memref<1xf32>) -> f32
        "equeue.write"(%2710, %arg9) {bank = 0 : i64} : (f32, memref<1xf32>) -> ()
        %2711 = "equeue.read"(%arg5) {bank = 1 : i64} : (memref<1xf32>) -> f32
        "equeue.write"(%2711, %arg8) {bank = 1 : i64} : (f32, memref<1xf32>) -> ()
        %2712 = mulf %2711, %2710 : f32
        %2713 = "equeue.read"(%arg7) {bank = 2 : i64} : (memref<1xf32>) -> f32
        %2714 = addf %2712, %2713 : f32
        "equeue.write"(%2714, %arg7) {bank = 2 : i64} : (f32, memref<1xf32>) -> ()
        "equeue.return"() : () -> ()
      }) : (!equeue.signal, i32, memref<1xf32>, memref<1xf32>, memref<1xf32>, memref<1xf32>, memref<1xf32>, memref<5x3x3xf32>) -> !equeue.signal
      %289 = "equeue.control_and"(%288, %done_12) : (!equeue.signal, !equeue.signal) -> !equeue.signal
      %done_13 = "equeue.launch"(%277, %228, %231, %229, %230, %237, %259, %123) ( {
      ^bb0(%arg5: memref<1xf32>, %arg6: memref<1xf32>, %arg7: memref<1xf32>, %arg8: memref<1xf32>, %arg9: memref<1xf32>, %arg10: memref<5x3x3xf32>):  // no predecessors
        %2710 = "equeue.read"(%arg6) {bank = 0 : i64} : (memref<1xf32>) -> f32
        "equeue.write"(%2710, %arg9) {bank = 0 : i64} : (f32, memref<1xf32>) -> ()
        %2711 = "equeue.read"(%arg5) {bank = 1 : i64} : (memref<1xf32>) -> f32
        "equeue.write"(%2711, %arg8) {bank = 1 : i64} : (f32, memref<1xf32>) -> ()
        %2712 = mulf %2711, %2710 : f32
        %2713 = "equeue.read"(%arg7) {bank = 2 : i64} : (memref<1xf32>) -> f32
        %2714 = addf %2712, %2713 : f32
        "equeue.write"(%2714, %arg7) {bank = 2 : i64} : (f32, memref<1xf32>) -> ()
        "equeue.return"() : () -> ()
      }) : (!equeue.signal, i32, memref<1xf32>, memref<1xf32>, memref<1xf32>, memref<1xf32>, memref<1xf32>, memref<5x3x3xf32>) -> !equeue.signal
      %290 = "equeue.control_and"(%289, %done_13) : (!equeue.signal, !equeue.signal) -> !equeue.signal
      %done_14 = "equeue.launch"(%277, %258, %261, %259, %260, %267, %123) ( {
      ^bb0(%arg5: memref<1xf32>, %arg6: memref<1xf32>, %arg7: memref<1xf32>, %arg8: memref<1xf32>, %arg9: memref<5x3x3xf32>):  // no predecessors
        %2710 = "equeue.read"(%arg6) {bank = 0 : i64} : (memref<1xf32>) -> f32
        %2711 = "equeue.read"(%arg5) {bank = 1 : i64} : (memref<1xf32>) -> f32
        "equeue.write"(%2711, %arg8) {bank = 1 : i64} : (f32, memref<1xf32>) -> ()
        %2712 = mulf %2711, %2710 : f32
        %2713 = "equeue.read"(%arg7) {bank = 2 : i64} : (memref<1xf32>) -> f32
        %2714 = addf %2712, %2713 : f32
        "equeue.write"(%2714, %arg7) {bank = 2 : i64} : (f32, memref<1xf32>) -> ()
        "equeue.return"() : () -> ()
      }) : (!equeue.signal, i32, memref<1xf32>, memref<1xf32>, memref<1xf32>, memref<1xf32>, memref<5x3x3xf32>) -> !equeue.signal
      %291 = "equeue.control_and"(%290, %done_14) : (!equeue.signal, !equeue.signal) -> !equeue.signal
      %done_15 = "equeue.launch"(%277, %144, %147, %145, %146, %153, %175, %123) ( {
      ^bb0(%arg5: memref<1xf32>, %arg6: memref<1xf32>, %arg7: memref<1xf32>, %arg8: memref<1xf32>, %arg9: memref<1xf32>, %arg10: memref<5x3x3xf32>):  // no predecessors
        %2710 = "equeue.read"(%arg6) {bank = 0 : i64} : (memref<1xf32>) -> f32
        "equeue.write"(%2710, %arg9) {bank = 0 : i64} : (f32, memref<1xf32>) -> ()
        %2711 = "equeue.read"(%arg5) {bank = 1 : i64} : (memref<1xf32>) -> f32
        "equeue.write"(%2711, %arg8) {bank = 1 : i64} : (f32, memref<1xf32>) -> ()
        %2712 = mulf %2711, %2710 : f32
        %2713 = "equeue.read"(%arg7) {bank = 2 : i64} : (memref<1xf32>) -> f32
        %2714 = addf %2712, %2713 : f32
        "equeue.write"(%2714, %arg7) {bank = 2 : i64} : (f32, memref<1xf32>) -> ()
        "equeue.return"() : () -> ()
      }) : (!equeue.signal, i32, memref<1xf32>, memref<1xf32>, memref<1xf32>, memref<1xf32>, memref<1xf32>, memref<5x3x3xf32>) -> !equeue.signal
      %292 = "equeue.control_and"(%291, %done_15) : (!equeue.signal, !equeue.signal) -> !equeue.signal
      %done_16 = "equeue.launch"(%277, %174, %177, %175, %176, %183, %205, %123) ( {
      ^bb0(%arg5: memref<1xf32>, %arg6: memref<1xf32>, %arg7: memref<1xf32>, %arg8: memref<1xf32>, %arg9: memref<1xf32>, %arg10: memref<5x3x3xf32>):  // no predecessors
        %2710 = "equeue.read"(%arg6) {bank = 0 : i64} : (memref<1xf32>) -> f32
        "equeue.write"(%2710, %arg9) {bank = 0 : i64} : (f32, memref<1xf32>) -> ()
        %2711 = "equeue.read"(%arg5) {bank = 1 : i64} : (memref<1xf32>) -> f32
        "equeue.write"(%2711, %arg8) {bank = 1 : i64} : (f32, memref<1xf32>) -> ()
        %2712 = mulf %2711, %2710 : f32
        %2713 = "equeue.read"(%arg7) {bank = 2 : i64} : (memref<1xf32>) -> f32
        %2714 = addf %2712, %2713 : f32
        "equeue.write"(%2714, %arg7) {bank = 2 : i64} : (f32, memref<1xf32>) -> ()
        "equeue.return"() : () -> ()
      }) : (!equeue.signal, i32, memref<1xf32>, memref<1xf32>, memref<1xf32>, memref<1xf32>, memref<1xf32>, memref<5x3x3xf32>) -> !equeue.signal
      %293 = "equeue.control_and"(%292, %done_16) : (!equeue.signal, !equeue.signal) -> !equeue.signal
      %done_17 = "equeue.launch"(%277, %204, %207, %205, %206, %213, %235, %123) ( {
      ^bb0(%arg5: memref<1xf32>, %arg6: memref<1xf32>, %arg7: memref<1xf32>, %arg8: memref<1xf32>, %arg9: memref<1xf32>, %arg10: memref<5x3x3xf32>):  // no predecessors
        %2710 = "equeue.read"(%arg6) {bank = 0 : i64} : (memref<1xf32>) -> f32
        "equeue.write"(%2710, %arg9) {bank = 0 : i64} : (f32, memref<1xf32>) -> ()
        %2711 = "equeue.read"(%arg5) {bank = 1 : i64} : (memref<1xf32>) -> f32
        "equeue.write"(%2711, %arg8) {bank = 1 : i64} : (f32, memref<1xf32>) -> ()
        %2712 = mulf %2711, %2710 : f32
        %2713 = "equeue.read"(%arg7) {bank = 2 : i64} : (memref<1xf32>) -> f32
        %2714 = addf %2712, %2713 : f32
        "equeue.write"(%2714, %arg7) {bank = 2 : i64} : (f32, memref<1xf32>) -> ()
        "equeue.return"() : () -> ()
      }) : (!equeue.signal, i32, memref<1xf32>, memref<1xf32>, memref<1xf32>, memref<1xf32>, memref<1xf32>, memref<5x3x3xf32>) -> !equeue.signal
      %294 = "equeue.control_and"(%293, %done_17) : (!equeue.signal, !equeue.signal) -> !equeue.signal
      %done_18 = "equeue.launch"(%277, %234, %237, %235, %236, %243, %265, %123) ( {
      ^bb0(%arg5: memref<1xf32>, %arg6: memref<1xf32>, %arg7: memref<1xf32>, %arg8: memref<1xf32>, %arg9: memref<1xf32>, %arg10: memref<5x3x3xf32>):  // no predecessors
        %2710 = "equeue.read"(%arg6) {bank = 0 : i64} : (memref<1xf32>) -> f32
        "equeue.write"(%2710, %arg9) {bank = 0 : i64} : (f32, memref<1xf32>) -> ()
        %2711 = "equeue.read"(%arg5) {bank = 1 : i64} : (memref<1xf32>) -> f32
        "equeue.write"(%2711, %arg8) {bank = 1 : i64} : (f32, memref<1xf32>) -> ()
        %2712 = mulf %2711, %2710 : f32
        %2713 = "equeue.read"(%arg7) {bank = 2 : i64} : (memref<1xf32>) -> f32
        %2714 = addf %2712, %2713 : f32
        "equeue.write"(%2714, %arg7) {bank = 2 : i64} : (f32, memref<1xf32>) -> ()
        "equeue.return"() : () -> ()
      }) : (!equeue.signal, i32, memref<1xf32>, memref<1xf32>, memref<1xf32>, memref<1xf32>, memref<1xf32>, memref<5x3x3xf32>) -> !equeue.signal
      %295 = "equeue.control_and"(%294, %done_18) : (!equeue.signal, !equeue.signal) -> !equeue.signal
      %done_19 = "equeue.launch"(%277, %264, %267, %265, %266, %273, %123) ( {
      ^bb0(%arg5: memref<1xf32>, %arg6: memref<1xf32>, %arg7: memref<1xf32>, %arg8: memref<1xf32>, %arg9: memref<5x3x3xf32>):  // no predecessors
        %2710 = "equeue.read"(%arg6) {bank = 0 : i64} : (memref<1xf32>) -> f32
        %2711 = "equeue.read"(%arg5) {bank = 1 : i64} : (memref<1xf32>) -> f32
        "equeue.write"(%2711, %arg8) {bank = 1 : i64} : (f32, memref<1xf32>) -> ()
        %2712 = mulf %2711, %2710 : f32
        %2713 = "equeue.read"(%arg7) {bank = 2 : i64} : (memref<1xf32>) -> f32
        %2714 = addf %2712, %2713 : f32
        "equeue.write"(%2714, %arg7) {bank = 2 : i64} : (f32, memref<1xf32>) -> ()
        "equeue.return"() : () -> ()
      }) : (!equeue.signal, i32, memref<1xf32>, memref<1xf32>, memref<1xf32>, memref<1xf32>, memref<5x3x3xf32>) -> !equeue.signal
      %296 = "equeue.control_and"(%295, %done_19) : (!equeue.signal, !equeue.signal) -> !equeue.signal
      %done_20 = "equeue.launch"(%277, %150, %153, %151, %152, %181, %123) ( {
      ^bb0(%arg5: memref<1xf32>, %arg6: memref<1xf32>, %arg7: memref<1xf32>, %arg8: memref<1xf32>, %arg9: memref<5x3x3xf32>):  // no predecessors
        %2710 = "equeue.read"(%arg6) {bank = 0 : i64} : (memref<1xf32>) -> f32
        "equeue.write"(%2710, %arg8) {bank = 0 : i64} : (f32, memref<1xf32>) -> ()
        %2711 = "equeue.read"(%arg5) {bank = 1 : i64} : (memref<1xf32>) -> f32
        %2712 = mulf %2711, %2710 : f32
        %2713 = "equeue.read"(%arg7) {bank = 2 : i64} : (memref<1xf32>) -> f32
        %2714 = addf %2712, %2713 : f32
        "equeue.write"(%2714, %arg7) {bank = 2 : i64} : (f32, memref<1xf32>) -> ()
        "equeue.return"() : () -> ()
      }) : (!equeue.signal, i32, memref<1xf32>, memref<1xf32>, memref<1xf32>, memref<1xf32>, memref<5x3x3xf32>) -> !equeue.signal
      %297 = "equeue.control_and"(%296, %done_20) : (!equeue.signal, !equeue.signal) -> !equeue.signal
      %done_21 = "equeue.launch"(%277, %180, %183, %181, %182, %211, %123) ( {
      ^bb0(%arg5: memref<1xf32>, %arg6: memref<1xf32>, %arg7: memref<1xf32>, %arg8: memref<1xf32>, %arg9: memref<5x3x3xf32>):  // no predecessors
        %2710 = "equeue.read"(%arg6) {bank = 0 : i64} : (memref<1xf32>) -> f32
        "equeue.write"(%2710, %arg8) {bank = 0 : i64} : (f32, memref<1xf32>) -> ()
        %2711 = "equeue.read"(%arg5) {bank = 1 : i64} : (memref<1xf32>) -> f32
        %2712 = mulf %2711, %2710 : f32
        %2713 = "equeue.read"(%arg7) {bank = 2 : i64} : (memref<1xf32>) -> f32
        %2714 = addf %2712, %2713 : f32
        "equeue.write"(%2714, %arg7) {bank = 2 : i64} : (f32, memref<1xf32>) -> ()
        "equeue.return"() : () -> ()
      }) : (!equeue.signal, i32, memref<1xf32>, memref<1xf32>, memref<1xf32>, memref<1xf32>, memref<5x3x3xf32>) -> !equeue.signal
      %298 = "equeue.control_and"(%297, %done_21) : (!equeue.signal, !equeue.signal) -> !equeue.signal
      %done_22 = "equeue.launch"(%277, %210, %213, %211, %212, %241, %123) ( {
      ^bb0(%arg5: memref<1xf32>, %arg6: memref<1xf32>, %arg7: memref<1xf32>, %arg8: memref<1xf32>, %arg9: memref<5x3x3xf32>):  // no predecessors
        %2710 = "equeue.read"(%arg6) {bank = 0 : i64} : (memref<1xf32>) -> f32
        "equeue.write"(%2710, %arg8) {bank = 0 : i64} : (f32, memref<1xf32>) -> ()
        %2711 = "equeue.read"(%arg5) {bank = 1 : i64} : (memref<1xf32>) -> f32
        %2712 = mulf %2711, %2710 : f32
        %2713 = "equeue.read"(%arg7) {bank = 2 : i64} : (memref<1xf32>) -> f32
        %2714 = addf %2712, %2713 : f32
        "equeue.write"(%2714, %arg7) {bank = 2 : i64} : (f32, memref<1xf32>) -> ()
        "equeue.return"() : () -> ()
      }) : (!equeue.signal, i32, memref<1xf32>, memref<1xf32>, memref<1xf32>, memref<1xf32>, memref<5x3x3xf32>) -> !equeue.signal
      %299 = "equeue.control_and"(%298, %done_22) : (!equeue.signal, !equeue.signal) -> !equeue.signal
      %done_23 = "equeue.launch"(%277, %240, %243, %241, %242, %271, %123) ( {
      ^bb0(%arg5: memref<1xf32>, %arg6: memref<1xf32>, %arg7: memref<1xf32>, %arg8: memref<1xf32>, %arg9: memref<5x3x3xf32>):  // no predecessors
        %2710 = "equeue.read"(%arg6) {bank = 0 : i64} : (memref<1xf32>) -> f32
        "equeue.write"(%2710, %arg8) {bank = 0 : i64} : (f32, memref<1xf32>) -> ()
        %2711 = "equeue.read"(%arg5) {bank = 1 : i64} : (memref<1xf32>) -> f32
        %2712 = mulf %2711, %2710 : f32
        %2713 = "equeue.read"(%arg7) {bank = 2 : i64} : (memref<1xf32>) -> f32
        %2714 = addf %2712, %2713 : f32
        "equeue.write"(%2714, %arg7) {bank = 2 : i64} : (f32, memref<1xf32>) -> ()
        "equeue.return"() : () -> ()
      }) : (!equeue.signal, i32, memref<1xf32>, memref<1xf32>, memref<1xf32>, memref<1xf32>, memref<5x3x3xf32>) -> !equeue.signal
      %300 = "equeue.control_and"(%299, %done_23) : (!equeue.signal, !equeue.signal) -> !equeue.signal
      %done_24 = "equeue.launch"(%277, %270, %273, %271, %272, %123) ( {
      ^bb0(%arg5: memref<1xf32>, %arg6: memref<1xf32>, %arg7: memref<1xf32>, %arg8: memref<5x3x3xf32>):  // no predecessors
        %2710 = "equeue.read"(%arg6) {bank = 0 : i64} : (memref<1xf32>) -> f32
        %2711 = "equeue.read"(%arg5) {bank = 1 : i64} : (memref<1xf32>) -> f32
        %2712 = mulf %2711, %2710 : f32
        %2713 = "equeue.read"(%arg7) {bank = 2 : i64} : (memref<1xf32>) -> f32
        %2714 = addf %2712, %2713 : f32
        "equeue.write"(%2714, %arg7) {bank = 2 : i64} : (f32, memref<1xf32>) -> ()
        "equeue.return"() : () -> ()
      }) : (!equeue.signal, i32, memref<1xf32>, memref<1xf32>, memref<1xf32>, memref<5x3x3xf32>) -> !equeue.signal
      %301 = "equeue.control_and"(%300, %done_24) : (!equeue.signal, !equeue.signal) -> !equeue.signal
      "equeue.await"(%301) : (!equeue.signal) -> ()
      %302 = "equeue.control_start"() : () -> !equeue.signal
      %c0_25 = constant 0 : index
      %303 = "equeue.memcpy"(%302, %122, %127, %111, %c0_25) {dest_bank = 0 : i64, src_bank = 0 : i64} : (!equeue.signal, memref<5x3x7x3xf32>, memref<1xf32>, i32, index) -> !equeue.signal
      %304 = "equeue.memcpy"(%302, %122, %133, %113, %c0_25) {dest_bank = 0 : i64, src_bank = 1 : i64} : (!equeue.signal, memref<5x3x7x3xf32>, memref<1xf32>, i32, index) -> !equeue.signal
      %305 = "equeue.control_and"(%304, %303) : (!equeue.signal, !equeue.signal) -> !equeue.signal
      %306 = "equeue.memcpy"(%302, %121, %129, %102, %c0_25) {dest_bank = 1 : i64, src_bank = 0 : i64} : (!equeue.signal, memref<3x7x7xf32>, memref<1xf32>, i32, index) -> !equeue.signal
      %307 = "equeue.memcpy"(%302, %121, %159, %104, %c0_25) {dest_bank = 1 : i64, src_bank = 1 : i64} : (!equeue.signal, memref<3x7x7xf32>, memref<1xf32>, i32, index) -> !equeue.signal
      %308 = "equeue.control_and"(%307, %306) : (!equeue.signal, !equeue.signal) -> !equeue.signal
      "equeue.await"(%308, %305) : (!equeue.signal, !equeue.signal) -> ()
      %309 = "equeue.control_start"() : () -> !equeue.signal
      %done_26 = "equeue.launch"(%309, %126, %129, %127, %128, %135, %157, %123) ( {
      ^bb0(%arg5: memref<1xf32>, %arg6: memref<1xf32>, %arg7: memref<1xf32>, %arg8: memref<1xf32>, %arg9: memref<1xf32>, %arg10: memref<5x3x3xf32>):  // no predecessors
        %2710 = "equeue.read"(%arg6) {bank = 0 : i64} : (memref<1xf32>) -> f32
        "equeue.write"(%2710, %arg9) {bank = 0 : i64} : (f32, memref<1xf32>) -> ()
        %2711 = "equeue.read"(%arg5) {bank = 1 : i64} : (memref<1xf32>) -> f32
        "equeue.write"(%2711, %arg8) {bank = 1 : i64} : (f32, memref<1xf32>) -> ()
        %2712 = mulf %2711, %2710 : f32
        %2713 = "equeue.read"(%arg7) {bank = 2 : i64} : (memref<1xf32>) -> f32
        %2714 = addf %2712, %2713 : f32
        "equeue.write"(%2714, %arg7) {bank = 2 : i64} : (f32, memref<1xf32>) -> ()
        "equeue.return"() : () -> ()
      }) : (!equeue.signal, i32, memref<1xf32>, memref<1xf32>, memref<1xf32>, memref<1xf32>, memref<1xf32>, memref<5x3x3xf32>) -> !equeue.signal
      %done_27 = "equeue.launch"(%309, %156, %159, %157, %158, %165, %187, %123) ( {
      ^bb0(%arg5: memref<1xf32>, %arg6: memref<1xf32>, %arg7: memref<1xf32>, %arg8: memref<1xf32>, %arg9: memref<1xf32>, %arg10: memref<5x3x3xf32>):  // no predecessors
        %2710 = "equeue.read"(%arg6) {bank = 0 : i64} : (memref<1xf32>) -> f32
        "equeue.write"(%2710, %arg9) {bank = 0 : i64} : (f32, memref<1xf32>) -> ()
        %2711 = "equeue.read"(%arg5) {bank = 1 : i64} : (memref<1xf32>) -> f32
        "equeue.write"(%2711, %arg8) {bank = 1 : i64} : (f32, memref<1xf32>) -> ()
        %2712 = mulf %2711, %2710 : f32
        %2713 = "equeue.read"(%arg7) {bank = 2 : i64} : (memref<1xf32>) -> f32
        %2714 = addf %2712, %2713 : f32
        "equeue.write"(%2714, %arg7) {bank = 2 : i64} : (f32, memref<1xf32>) -> ()
        "equeue.return"() : () -> ()
      }) : (!equeue.signal, i32, memref<1xf32>, memref<1xf32>, memref<1xf32>, memref<1xf32>, memref<1xf32>, memref<5x3x3xf32>) -> !equeue.signal
      %310 = "equeue.control_and"(%done_26, %done_27) : (!equeue.signal, !equeue.signal) -> !equeue.signal
      %done_28 = "equeue.launch"(%309, %186, %189, %187, %188, %195, %217, %123) ( {
      ^bb0(%arg5: memref<1xf32>, %arg6: memref<1xf32>, %arg7: memref<1xf32>, %arg8: memref<1xf32>, %arg9: memref<1xf32>, %arg10: memref<5x3x3xf32>):  // no predecessors
        %2710 = "equeue.read"(%arg6) {bank = 0 : i64} : (memref<1xf32>) -> f32
        "equeue.write"(%2710, %arg9) {bank = 0 : i64} : (f32, memref<1xf32>) -> ()
        %2711 = "equeue.read"(%arg5) {bank = 1 : i64} : (memref<1xf32>) -> f32
        "equeue.write"(%2711, %arg8) {bank = 1 : i64} : (f32, memref<1xf32>) -> ()
        %2712 = mulf %2711, %2710 : f32
        %2713 = "equeue.read"(%arg7) {bank = 2 : i64} : (memref<1xf32>) -> f32
        %2714 = addf %2712, %2713 : f32
        "equeue.write"(%2714, %arg7) {bank = 2 : i64} : (f32, memref<1xf32>) -> ()
        "equeue.return"() : () -> ()
      }) : (!equeue.signal, i32, memref<1xf32>, memref<1xf32>, memref<1xf32>, memref<1xf32>, memref<1xf32>, memref<5x3x3xf32>) -> !equeue.signal
      %311 = "equeue.control_and"(%310, %done_28) : (!equeue.signal, !equeue.signal) -> !equeue.signal
      %done_29 = "equeue.launch"(%309, %216, %219, %217, %218, %225, %247, %123) ( {
      ^bb0(%arg5: memref<1xf32>, %arg6: memref<1xf32>, %arg7: memref<1xf32>, %arg8: memref<1xf32>, %arg9: memref<1xf32>, %arg10: memref<5x3x3xf32>):  // no predecessors
        %2710 = "equeue.read"(%arg6) {bank = 0 : i64} : (memref<1xf32>) -> f32
        "equeue.write"(%2710, %arg9) {bank = 0 : i64} : (f32, memref<1xf32>) -> ()
        %2711 = "equeue.read"(%arg5) {bank = 1 : i64} : (memref<1xf32>) -> f32
        "equeue.write"(%2711, %arg8) {bank = 1 : i64} : (f32, memref<1xf32>) -> ()
        %2712 = mulf %2711, %2710 : f32
        %2713 = "equeue.read"(%arg7) {bank = 2 : i64} : (memref<1xf32>) -> f32
        %2714 = addf %2712, %2713 : f32
        "equeue.write"(%2714, %arg7) {bank = 2 : i64} : (f32, memref<1xf32>) -> ()
        "equeue.return"() : () -> ()
      }) : (!equeue.signal, i32, memref<1xf32>, memref<1xf32>, memref<1xf32>, memref<1xf32>, memref<1xf32>, memref<5x3x3xf32>) -> !equeue.signal
      %312 = "equeue.control_and"(%311, %done_29) : (!equeue.signal, !equeue.signal) -> !equeue.signal
      %done_30 = "equeue.launch"(%309, %246, %249, %247, %248, %255, %123) ( {
      ^bb0(%arg5: memref<1xf32>, %arg6: memref<1xf32>, %arg7: memref<1xf32>, %arg8: memref<1xf32>, %arg9: memref<5x3x3xf32>):  // no predecessors
        %2710 = "equeue.read"(%arg6) {bank = 0 : i64} : (memref<1xf32>) -> f32
        %2711 = "equeue.read"(%arg5) {bank = 1 : i64} : (memref<1xf32>) -> f32
        "equeue.write"(%2711, %arg8) {bank = 1 : i64} : (f32, memref<1xf32>) -> ()
        %2712 = mulf %2711, %2710 : f32
        %2713 = "equeue.read"(%arg7) {bank = 2 : i64} : (memref<1xf32>) -> f32
        %2714 = addf %2712, %2713 : f32
        "equeue.write"(%2714, %arg7) {bank = 2 : i64} : (f32, memref<1xf32>) -> ()
        "equeue.return"() : () -> ()
      }) : (!equeue.signal, i32, memref<1xf32>, memref<1xf32>, memref<1xf32>, memref<1xf32>, memref<5x3x3xf32>) -> !equeue.signal
      %313 = "equeue.control_and"(%312, %done_30) : (!equeue.signal, !equeue.signal) -> !equeue.signal
      %done_31 = "equeue.launch"(%309, %132, %135, %133, %134, %141, %163, %123) ( {
      ^bb0(%arg5: memref<1xf32>, %arg6: memref<1xf32>, %arg7: memref<1xf32>, %arg8: memref<1xf32>, %arg9: memref<1xf32>, %arg10: memref<5x3x3xf32>):  // no predecessors
        %2710 = "equeue.read"(%arg6) {bank = 0 : i64} : (memref<1xf32>) -> f32
        "equeue.write"(%2710, %arg9) {bank = 0 : i64} : (f32, memref<1xf32>) -> ()
        %2711 = "equeue.read"(%arg5) {bank = 1 : i64} : (memref<1xf32>) -> f32
        "equeue.write"(%2711, %arg8) {bank = 1 : i64} : (f32, memref<1xf32>) -> ()
        %2712 = mulf %2711, %2710 : f32
        %2713 = "equeue.read"(%arg7) {bank = 2 : i64} : (memref<1xf32>) -> f32
        %2714 = addf %2712, %2713 : f32
        "equeue.write"(%2714, %arg7) {bank = 2 : i64} : (f32, memref<1xf32>) -> ()
        "equeue.return"() : () -> ()
      }) : (!equeue.signal, i32, memref<1xf32>, memref<1xf32>, memref<1xf32>, memref<1xf32>, memref<1xf32>, memref<5x3x3xf32>) -> !equeue.signal
      %314 = "equeue.control_and"(%313, %done_31) : (!equeue.signal, !equeue.signal) -> !equeue.signal
      %done_32 = "equeue.launch"(%309, %162, %165, %163, %164, %171, %193, %123) ( {
      ^bb0(%arg5: memref<1xf32>, %arg6: memref<1xf32>, %arg7: memref<1xf32>, %arg8: memref<1xf32>, %arg9: memref<1xf32>, %arg10: memref<5x3x3xf32>):  // no predecessors
        %2710 = "equeue.read"(%arg6) {bank = 0 : i64} : (memref<1xf32>) -> f32
        "equeue.write"(%2710, %arg9) {bank = 0 : i64} : (f32, memref<1xf32>) -> ()
        %2711 = "equeue.read"(%arg5) {bank = 1 : i64} : (memref<1xf32>) -> f32
        "equeue.write"(%2711, %arg8) {bank = 1 : i64} : (f32, memref<1xf32>) -> ()
        %2712 = mulf %2711, %2710 : f32
        %2713 = "equeue.read"(%arg7) {bank = 2 : i64} : (memref<1xf32>) -> f32
        %2714 = addf %2712, %2713 : f32
        "equeue.write"(%2714, %arg7) {bank = 2 : i64} : (f32, memref<1xf32>) -> ()
        "equeue.return"() : () -> ()
      }) : (!equeue.signal, i32, memref<1xf32>, memref<1xf32>, memref<1xf32>, memref<1xf32>, memref<1xf32>, memref<5x3x3xf32>) -> !equeue.signal
      %315 = "equeue.control_and"(%314, %done_32) : (!equeue.signal, !equeue.signal) -> !equeue.signal
      %done_33 = "equeue.launch"(%309, %192, %195, %193, %194, %201, %223, %123) ( {
      ^bb0(%arg5: memref<1xf32>, %arg6: memref<1xf32>, %arg7: memref<1xf32>, %arg8: memref<1xf32>, %arg9: memref<1xf32>, %arg10: memref<5x3x3xf32>):  // no predecessors
        %2710 = "equeue.read"(%arg6) {bank = 0 : i64} : (memref<1xf32>) -> f32
        "equeue.write"(%2710, %arg9) {bank = 0 : i64} : (f32, memref<1xf32>) -> ()
        %2711 = "equeue.read"(%arg5) {bank = 1 : i64} : (memref<1xf32>) -> f32
        "equeue.write"(%2711, %arg8) {bank = 1 : i64} : (f32, memref<1xf32>) -> ()
        %2712 = mulf %2711, %2710 : f32
        %2713 = "equeue.read"(%arg7) {bank = 2 : i64} : (memref<1xf32>) -> f32
        %2714 = addf %2712, %2713 : f32
        "equeue.write"(%2714, %arg7) {bank = 2 : i64} : (f32, memref<1xf32>) -> ()
        "equeue.return"() : () -> ()
      }) : (!equeue.signal, i32, memref<1xf32>, memref<1xf32>, memref<1xf32>, memref<1xf32>, memref<1xf32>, memref<5x3x3xf32>) -> !equeue.signal
      %316 = "equeue.control_and"(%315, %done_33) : (!equeue.signal, !equeue.signal) -> !equeue.signal
      %done_34 = "equeue.launch"(%309, %222, %225, %223, %224, %231, %253, %123) ( {
      ^bb0(%arg5: memref<1xf32>, %arg6: memref<1xf32>, %arg7: memref<1xf32>, %arg8: memref<1xf32>, %arg9: memref<1xf32>, %arg10: memref<5x3x3xf32>):  // no predecessors
        %2710 = "equeue.read"(%arg6) {bank = 0 : i64} : (memref<1xf32>) -> f32
        "equeue.write"(%2710, %arg9) {bank = 0 : i64} : (f32, memref<1xf32>) -> ()
        %2711 = "equeue.read"(%arg5) {bank = 1 : i64} : (memref<1xf32>) -> f32
        "equeue.write"(%2711, %arg8) {bank = 1 : i64} : (f32, memref<1xf32>) -> ()
        %2712 = mulf %2711, %2710 : f32
        %2713 = "equeue.read"(%arg7) {bank = 2 : i64} : (memref<1xf32>) -> f32
        %2714 = addf %2712, %2713 : f32
        "equeue.write"(%2714, %arg7) {bank = 2 : i64} : (f32, memref<1xf32>) -> ()
        "equeue.return"() : () -> ()
      }) : (!equeue.signal, i32, memref<1xf32>, memref<1xf32>, memref<1xf32>, memref<1xf32>, memref<1xf32>, memref<5x3x3xf32>) -> !equeue.signal
      %317 = "equeue.control_and"(%316, %done_34) : (!equeue.signal, !equeue.signal) -> !equeue.signal
      %done_35 = "equeue.launch"(%309, %252, %255, %253, %254, %261, %123) ( {
      ^bb0(%arg5: memref<1xf32>, %arg6: memref<1xf32>, %arg7: memref<1xf32>, %arg8: memref<1xf32>, %arg9: memref<5x3x3xf32>):  // no predecessors
        %2710 = "equeue.read"(%arg6) {bank = 0 : i64} : (memref<1xf32>) -> f32
        %2711 = "equeue.read"(%arg5) {bank = 1 : i64} : (memref<1xf32>) -> f32
        "equeue.write"(%2711, %arg8) {bank = 1 : i64} : (f32, memref<1xf32>) -> ()
        %2712 = mulf %2711, %2710 : f32
        %2713 = "equeue.read"(%arg7) {bank = 2 : i64} : (memref<1xf32>) -> f32
        %2714 = addf %2712, %2713 : f32
        "equeue.write"(%2714, %arg7) {bank = 2 : i64} : (f32, memref<1xf32>) -> ()
        "equeue.return"() : () -> ()
      }) : (!equeue.signal, i32, memref<1xf32>, memref<1xf32>, memref<1xf32>, memref<1xf32>, memref<5x3x3xf32>) -> !equeue.signal
      %318 = "equeue.control_and"(%317, %done_35) : (!equeue.signal, !equeue.signal) -> !equeue.signal
      %done_36 = "equeue.launch"(%309, %138, %141, %139, %140, %147, %169, %123) ( {
      ^bb0(%arg5: memref<1xf32>, %arg6: memref<1xf32>, %arg7: memref<1xf32>, %arg8: memref<1xf32>, %arg9: memref<1xf32>, %arg10: memref<5x3x3xf32>):  // no predecessors
        %2710 = "equeue.read"(%arg6) {bank = 0 : i64} : (memref<1xf32>) -> f32
        "equeue.write"(%2710, %arg9) {bank = 0 : i64} : (f32, memref<1xf32>) -> ()
        %2711 = "equeue.read"(%arg5) {bank = 1 : i64} : (memref<1xf32>) -> f32
        "equeue.write"(%2711, %arg8) {bank = 1 : i64} : (f32, memref<1xf32>) -> ()
        %2712 = mulf %2711, %2710 : f32
        %2713 = "equeue.read"(%arg7) {bank = 2 : i64} : (memref<1xf32>) -> f32
        %2714 = addf %2712, %2713 : f32
        "equeue.write"(%2714, %arg7) {bank = 2 : i64} : (f32, memref<1xf32>) -> ()
        "equeue.return"() : () -> ()
      }) : (!equeue.signal, i32, memref<1xf32>, memref<1xf32>, memref<1xf32>, memref<1xf32>, memref<1xf32>, memref<5x3x3xf32>) -> !equeue.signal
      %319 = "equeue.control_and"(%318, %done_36) : (!equeue.signal, !equeue.signal) -> !equeue.signal
      %done_37 = "equeue.launch"(%309, %168, %171, %169, %170, %177, %199, %123) ( {
      ^bb0(%arg5: memref<1xf32>, %arg6: memref<1xf32>, %arg7: memref<1xf32>, %arg8: memref<1xf32>, %arg9: memref<1xf32>, %arg10: memref<5x3x3xf32>):  // no predecessors
        %2710 = "equeue.read"(%arg6) {bank = 0 : i64} : (memref<1xf32>) -> f32
        "equeue.write"(%2710, %arg9) {bank = 0 : i64} : (f32, memref<1xf32>) -> ()
        %2711 = "equeue.read"(%arg5) {bank = 1 : i64} : (memref<1xf32>) -> f32
        "equeue.write"(%2711, %arg8) {bank = 1 : i64} : (f32, memref<1xf32>) -> ()
        %2712 = mulf %2711, %2710 : f32
        %2713 = "equeue.read"(%arg7) {bank = 2 : i64} : (memref<1xf32>) -> f32
        %2714 = addf %2712, %2713 : f32
        "equeue.write"(%2714, %arg7) {bank = 2 : i64} : (f32, memref<1xf32>) -> ()
        "equeue.return"() : () -> ()
      }) : (!equeue.signal, i32, memref<1xf32>, memref<1xf32>, memref<1xf32>, memref<1xf32>, memref<1xf32>, memref<5x3x3xf32>) -> !equeue.signal
      %320 = "equeue.control_and"(%319, %done_37) : (!equeue.signal, !equeue.signal) -> !equeue.signal
      %done_38 = "equeue.launch"(%309, %198, %201, %199, %200, %207, %229, %123) ( {
      ^bb0(%arg5: memref<1xf32>, %arg6: memref<1xf32>, %arg7: memref<1xf32>, %arg8: memref<1xf32>, %arg9: memref<1xf32>, %arg10: memref<5x3x3xf32>):  // no predecessors
        %2710 = "equeue.read"(%arg6) {bank = 0 : i64} : (memref<1xf32>) -> f32
        "equeue.write"(%2710, %arg9) {bank = 0 : i64} : (f32, memref<1xf32>) -> ()
        %2711 = "equeue.read"(%arg5) {bank = 1 : i64} : (memref<1xf32>) -> f32
        "equeue.write"(%2711, %arg8) {bank = 1 : i64} : (f32, memref<1xf32>) -> ()
        %2712 = mulf %2711, %2710 : f32
        %2713 = "equeue.read"(%arg7) {bank = 2 : i64} : (memref<1xf32>) -> f32
        %2714 = addf %2712, %2713 : f32
        "equeue.write"(%2714, %arg7) {bank = 2 : i64} : (f32, memref<1xf32>) -> ()
        "equeue.return"() : () -> ()
      }) : (!equeue.signal, i32, memref<1xf32>, memref<1xf32>, memref<1xf32>, memref<1xf32>, memref<1xf32>, memref<5x3x3xf32>) -> !equeue.signal
      %321 = "equeue.control_and"(%320, %done_38) : (!equeue.signal, !equeue.signal) -> !equeue.signal
      %done_39 = "equeue.launch"(%309, %228, %231, %229, %230, %237, %259, %123) ( {
      ^bb0(%arg5: memref<1xf32>, %arg6: memref<1xf32>, %arg7: memref<1xf32>, %arg8: memref<1xf32>, %arg9: memref<1xf32>, %arg10: memref<5x3x3xf32>):  // no predecessors
        %2710 = "equeue.read"(%arg6) {bank = 0 : i64} : (memref<1xf32>) -> f32
        "equeue.write"(%2710, %arg9) {bank = 0 : i64} : (f32, memref<1xf32>) -> ()
        %2711 = "equeue.read"(%arg5) {bank = 1 : i64} : (memref<1xf32>) -> f32
        "equeue.write"(%2711, %arg8) {bank = 1 : i64} : (f32, memref<1xf32>) -> ()
        %2712 = mulf %2711, %2710 : f32
        %2713 = "equeue.read"(%arg7) {bank = 2 : i64} : (memref<1xf32>) -> f32
        %2714 = addf %2712, %2713 : f32
        "equeue.write"(%2714, %arg7) {bank = 2 : i64} : (f32, memref<1xf32>) -> ()
        "equeue.return"() : () -> ()
      }) : (!equeue.signal, i32, memref<1xf32>, memref<1xf32>, memref<1xf32>, memref<1xf32>, memref<1xf32>, memref<5x3x3xf32>) -> !equeue.signal
      %322 = "equeue.control_and"(%321, %done_39) : (!equeue.signal, !equeue.signal) -> !equeue.signal
      %done_40 = "equeue.launch"(%309, %258, %261, %259, %260, %267, %123) ( {
      ^bb0(%arg5: memref<1xf32>, %arg6: memref<1xf32>, %arg7: memref<1xf32>, %arg8: memref<1xf32>, %arg9: memref<5x3x3xf32>):  // no predecessors
        %2710 = "equeue.read"(%arg6) {bank = 0 : i64} : (memref<1xf32>) -> f32
        %2711 = "equeue.read"(%arg5) {bank = 1 : i64} : (memref<1xf32>) -> f32
        "equeue.write"(%2711, %arg8) {bank = 1 : i64} : (f32, memref<1xf32>) -> ()
        %2712 = mulf %2711, %2710 : f32
        %2713 = "equeue.read"(%arg7) {bank = 2 : i64} : (memref<1xf32>) -> f32
        %2714 = addf %2712, %2713 : f32
        "equeue.write"(%2714, %arg7) {bank = 2 : i64} : (f32, memref<1xf32>) -> ()
        "equeue.return"() : () -> ()
      }) : (!equeue.signal, i32, memref<1xf32>, memref<1xf32>, memref<1xf32>, memref<1xf32>, memref<5x3x3xf32>) -> !equeue.signal
      %323 = "equeue.control_and"(%322, %done_40) : (!equeue.signal, !equeue.signal) -> !equeue.signal
      %done_41 = "equeue.launch"(%309, %144, %147, %145, %146, %153, %175, %123) ( {
      ^bb0(%arg5: memref<1xf32>, %arg6: memref<1xf32>, %arg7: memref<1xf32>, %arg8: memref<1xf32>, %arg9: memref<1xf32>, %arg10: memref<5x3x3xf32>):  // no predecessors
        %2710 = "equeue.read"(%arg6) {bank = 0 : i64} : (memref<1xf32>) -> f32
        "equeue.write"(%2710, %arg9) {bank = 0 : i64} : (f32, memref<1xf32>) -> ()
        %2711 = "equeue.read"(%arg5) {bank = 1 : i64} : (memref<1xf32>) -> f32
        "equeue.write"(%2711, %arg8) {bank = 1 : i64} : (f32, memref<1xf32>) -> ()
        %2712 = mulf %2711, %2710 : f32
        %2713 = "equeue.read"(%arg7) {bank = 2 : i64} : (memref<1xf32>) -> f32
        %2714 = addf %2712, %2713 : f32
        "equeue.write"(%2714, %arg7) {bank = 2 : i64} : (f32, memref<1xf32>) -> ()
        "equeue.return"() : () -> ()
      }) : (!equeue.signal, i32, memref<1xf32>, memref<1xf32>, memref<1xf32>, memref<1xf32>, memref<1xf32>, memref<5x3x3xf32>) -> !equeue.signal
      %324 = "equeue.control_and"(%323, %done_41) : (!equeue.signal, !equeue.signal) -> !equeue.signal
      %done_42 = "equeue.launch"(%309, %174, %177, %175, %176, %183, %205, %123) ( {
      ^bb0(%arg5: memref<1xf32>, %arg6: memref<1xf32>, %arg7: memref<1xf32>, %arg8: memref<1xf32>, %arg9: memref<1xf32>, %arg10: memref<5x3x3xf32>):  // no predecessors
        %2710 = "equeue.read"(%arg6) {bank = 0 : i64} : (memref<1xf32>) -> f32
        "equeue.write"(%2710, %arg9) {bank = 0 : i64} : (f32, memref<1xf32>) -> ()
        %2711 = "equeue.read"(%arg5) {bank = 1 : i64} : (memref<1xf32>) -> f32
        "equeue.write"(%2711, %arg8) {bank = 1 : i64} : (f32, memref<1xf32>) -> ()
        %2712 = mulf %2711, %2710 : f32
        %2713 = "equeue.read"(%arg7) {bank = 2 : i64} : (memref<1xf32>) -> f32
        %2714 = addf %2712, %2713 : f32
        "equeue.write"(%2714, %arg7) {bank = 2 : i64} : (f32, memref<1xf32>) -> ()
        "equeue.return"() : () -> ()
      }) : (!equeue.signal, i32, memref<1xf32>, memref<1xf32>, memref<1xf32>, memref<1xf32>, memref<1xf32>, memref<5x3x3xf32>) -> !equeue.signal
      %325 = "equeue.control_and"(%324, %done_42) : (!equeue.signal, !equeue.signal) -> !equeue.signal
      %done_43 = "equeue.launch"(%309, %204, %207, %205, %206, %213, %235, %123) ( {
      ^bb0(%arg5: memref<1xf32>, %arg6: memref<1xf32>, %arg7: memref<1xf32>, %arg8: memref<1xf32>, %arg9: memref<1xf32>, %arg10: memref<5x3x3xf32>):  // no predecessors
        %2710 = "equeue.read"(%arg6) {bank = 0 : i64} : (memref<1xf32>) -> f32
        "equeue.write"(%2710, %arg9) {bank = 0 : i64} : (f32, memref<1xf32>) -> ()
        %2711 = "equeue.read"(%arg5) {bank = 1 : i64} : (memref<1xf32>) -> f32
        "equeue.write"(%2711, %arg8) {bank = 1 : i64} : (f32, memref<1xf32>) -> ()
        %2712 = mulf %2711, %2710 : f32
        %2713 = "equeue.read"(%arg7) {bank = 2 : i64} : (memref<1xf32>) -> f32
        %2714 = addf %2712, %2713 : f32
        "equeue.write"(%2714, %arg7) {bank = 2 : i64} : (f32, memref<1xf32>) -> ()
        "equeue.return"() : () -> ()
      }) : (!equeue.signal, i32, memref<1xf32>, memref<1xf32>, memref<1xf32>, memref<1xf32>, memref<1xf32>, memref<5x3x3xf32>) -> !equeue.signal
      %326 = "equeue.control_and"(%325, %done_43) : (!equeue.signal, !equeue.signal) -> !equeue.signal
      %done_44 = "equeue.launch"(%309, %234, %237, %235, %236, %243, %265, %123) ( {
      ^bb0(%arg5: memref<1xf32>, %arg6: memref<1xf32>, %arg7: memref<1xf32>, %arg8: memref<1xf32>, %arg9: memref<1xf32>, %arg10: memref<5x3x3xf32>):  // no predecessors
        %2710 = "equeue.read"(%arg6) {bank = 0 : i64} : (memref<1xf32>) -> f32
        "equeue.write"(%2710, %arg9) {bank = 0 : i64} : (f32, memref<1xf32>) -> ()
        %2711 = "equeue.read"(%arg5) {bank = 1 : i64} : (memref<1xf32>) -> f32
        "equeue.write"(%2711, %arg8) {bank = 1 : i64} : (f32, memref<1xf32>) -> ()
        %2712 = mulf %2711, %2710 : f32
        %2713 = "equeue.read"(%arg7) {bank = 2 : i64} : (memref<1xf32>) -> f32
        %2714 = addf %2712, %2713 : f32
        "equeue.write"(%2714, %arg7) {bank = 2 : i64} : (f32, memref<1xf32>) -> ()
        "equeue.return"() : () -> ()
      }) : (!equeue.signal, i32, memref<1xf32>, memref<1xf32>, memref<1xf32>, memref<1xf32>, memref<1xf32>, memref<5x3x3xf32>) -> !equeue.signal
      %327 = "equeue.control_and"(%326, %done_44) : (!equeue.signal, !equeue.signal) -> !equeue.signal
      %done_45 = "equeue.launch"(%309, %264, %267, %265, %266, %273, %123) ( {
      ^bb0(%arg5: memref<1xf32>, %arg6: memref<1xf32>, %arg7: memref<1xf32>, %arg8: memref<1xf32>, %arg9: memref<5x3x3xf32>):  // no predecessors
        %2710 = "equeue.read"(%arg6) {bank = 0 : i64} : (memref<1xf32>) -> f32
        %2711 = "equeue.read"(%arg5) {bank = 1 : i64} : (memref<1xf32>) -> f32
        "equeue.write"(%2711, %arg8) {bank = 1 : i64} : (f32, memref<1xf32>) -> ()
        %2712 = mulf %2711, %2710 : f32
        %2713 = "equeue.read"(%arg7) {bank = 2 : i64} : (memref<1xf32>) -> f32
        %2714 = addf %2712, %2713 : f32
        "equeue.write"(%2714, %arg7) {bank = 2 : i64} : (f32, memref<1xf32>) -> ()
        "equeue.return"() : () -> ()
      }) : (!equeue.signal, i32, memref<1xf32>, memref<1xf32>, memref<1xf32>, memref<1xf32>, memref<5x3x3xf32>) -> !equeue.signal
      %328 = "equeue.control_and"(%327, %done_45) : (!equeue.signal, !equeue.signal) -> !equeue.signal
      %done_46 = "equeue.launch"(%309, %150, %153, %151, %152, %181, %123) ( {
      ^bb0(%arg5: memref<1xf32>, %arg6: memref<1xf32>, %arg7: memref<1xf32>, %arg8: memref<1xf32>, %arg9: memref<5x3x3xf32>):  // no predecessors
        %2710 = "equeue.read"(%arg6) {bank = 0 : i64} : (memref<1xf32>) -> f32
        "equeue.write"(%2710, %arg8) {bank = 0 : i64} : (f32, memref<1xf32>) -> ()
        %2711 = "equeue.read"(%arg5) {bank = 1 : i64} : (memref<1xf32>) -> f32
        %2712 = mulf %2711, %2710 : f32
        %2713 = "equeue.read"(%arg7) {bank = 2 : i64} : (memref<1xf32>) -> f32
        %2714 = addf %2712, %2713 : f32
        "equeue.write"(%2714, %arg7) {bank = 2 : i64} : (f32, memref<1xf32>) -> ()
        "equeue.return"() : () -> ()
      }) : (!equeue.signal, i32, memref<1xf32>, memref<1xf32>, memref<1xf32>, memref<1xf32>, memref<5x3x3xf32>) -> !equeue.signal
      %329 = "equeue.control_and"(%328, %done_46) : (!equeue.signal, !equeue.signal) -> !equeue.signal
      %done_47 = "equeue.launch"(%309, %180, %183, %181, %182, %211, %123) ( {
      ^bb0(%arg5: memref<1xf32>, %arg6: memref<1xf32>, %arg7: memref<1xf32>, %arg8: memref<1xf32>, %arg9: memref<5x3x3xf32>):  // no predecessors
        %2710 = "equeue.read"(%arg6) {bank = 0 : i64} : (memref<1xf32>) -> f32
        "equeue.write"(%2710, %arg8) {bank = 0 : i64} : (f32, memref<1xf32>) -> ()
        %2711 = "equeue.read"(%arg5) {bank = 1 : i64} : (memref<1xf32>) -> f32
        %2712 = mulf %2711, %2710 : f32
        %2713 = "equeue.read"(%arg7) {bank = 2 : i64} : (memref<1xf32>) -> f32
        %2714 = addf %2712, %2713 : f32
        "equeue.write"(%2714, %arg7) {bank = 2 : i64} : (f32, memref<1xf32>) -> ()
        "equeue.return"() : () -> ()
      }) : (!equeue.signal, i32, memref<1xf32>, memref<1xf32>, memref<1xf32>, memref<1xf32>, memref<5x3x3xf32>) -> !equeue.signal
      %330 = "equeue.control_and"(%329, %done_47) : (!equeue.signal, !equeue.signal) -> !equeue.signal
      %done_48 = "equeue.launch"(%309, %210, %213, %211, %212, %241, %123) ( {
      ^bb0(%arg5: memref<1xf32>, %arg6: memref<1xf32>, %arg7: memref<1xf32>, %arg8: memref<1xf32>, %arg9: memref<5x3x3xf32>):  // no predecessors
        %2710 = "equeue.read"(%arg6) {bank = 0 : i64} : (memref<1xf32>) -> f32
        "equeue.write"(%2710, %arg8) {bank = 0 : i64} : (f32, memref<1xf32>) -> ()
        %2711 = "equeue.read"(%arg5) {bank = 1 : i64} : (memref<1xf32>) -> f32
        %2712 = mulf %2711, %2710 : f32
        %2713 = "equeue.read"(%arg7) {bank = 2 : i64} : (memref<1xf32>) -> f32
        %2714 = addf %2712, %2713 : f32
        "equeue.write"(%2714, %arg7) {bank = 2 : i64} : (f32, memref<1xf32>) -> ()
        "equeue.return"() : () -> ()
      }) : (!equeue.signal, i32, memref<1xf32>, memref<1xf32>, memref<1xf32>, memref<1xf32>, memref<5x3x3xf32>) -> !equeue.signal
      %331 = "equeue.control_and"(%330, %done_48) : (!equeue.signal, !equeue.signal) -> !equeue.signal
      %done_49 = "equeue.launch"(%309, %240, %243, %241, %242, %271, %123) ( {
      ^bb0(%arg5: memref<1xf32>, %arg6: memref<1xf32>, %arg7: memref<1xf32>, %arg8: memref<1xf32>, %arg9: memref<5x3x3xf32>):  // no predecessors
        %2710 = "equeue.read"(%arg6) {bank = 0 : i64} : (memref<1xf32>) -> f32
        "equeue.write"(%2710, %arg8) {bank = 0 : i64} : (f32, memref<1xf32>) -> ()
        %2711 = "equeue.read"(%arg5) {bank = 1 : i64} : (memref<1xf32>) -> f32
        %2712 = mulf %2711, %2710 : f32
        %2713 = "equeue.read"(%arg7) {bank = 2 : i64} : (memref<1xf32>) -> f32
        %2714 = addf %2712, %2713 : f32
        "equeue.write"(%2714, %arg7) {bank = 2 : i64} : (f32, memref<1xf32>) -> ()
        "equeue.return"() : () -> ()
      }) : (!equeue.signal, i32, memref<1xf32>, memref<1xf32>, memref<1xf32>, memref<1xf32>, memref<5x3x3xf32>) -> !equeue.signal
      %332 = "equeue.control_and"(%331, %done_49) : (!equeue.signal, !equeue.signal) -> !equeue.signal
      %done_50 = "equeue.launch"(%309, %270, %273, %271, %272, %123) ( {
      ^bb0(%arg5: memref<1xf32>, %arg6: memref<1xf32>, %arg7: memref<1xf32>, %arg8: memref<5x3x3xf32>):  // no predecessors
        %2710 = "equeue.read"(%arg6) {bank = 0 : i64} : (memref<1xf32>) -> f32
        %2711 = "equeue.read"(%arg5) {bank = 1 : i64} : (memref<1xf32>) -> f32
        %2712 = mulf %2711, %2710 : f32
        %2713 = "equeue.read"(%arg7) {bank = 2 : i64} : (memref<1xf32>) -> f32
        %2714 = addf %2712, %2713 : f32
        "equeue.write"(%2714, %arg7) {bank = 2 : i64} : (f32, memref<1xf32>) -> ()
        "equeue.return"() : () -> ()
      }) : (!equeue.signal, i32, memref<1xf32>, memref<1xf32>, memref<1xf32>, memref<5x3x3xf32>) -> !equeue.signal
      %333 = "equeue.control_and"(%332, %done_50) : (!equeue.signal, !equeue.signal) -> !equeue.signal
      "equeue.await"(%333) : (!equeue.signal) -> ()
      %334 = "equeue.control_start"() : () -> !equeue.signal
      %c0_51 = constant 0 : index
      %335 = "equeue.memcpy"(%334, %122, %127, %111, %c0_51) {dest_bank = 0 : i64, src_bank = 0 : i64} : (!equeue.signal, memref<5x3x7x3xf32>, memref<1xf32>, i32, index) -> !equeue.signal
      %336 = "equeue.memcpy"(%334, %122, %133, %113, %c0_51) {dest_bank = 0 : i64, src_bank = 1 : i64} : (!equeue.signal, memref<5x3x7x3xf32>, memref<1xf32>, i32, index) -> !equeue.signal
      %337 = "equeue.control_and"(%336, %335) : (!equeue.signal, !equeue.signal) -> !equeue.signal
      %338 = "equeue.memcpy"(%334, %122, %139, %115, %c0_51) {dest_bank = 0 : i64, src_bank = 2 : i64} : (!equeue.signal, memref<5x3x7x3xf32>, memref<1xf32>, i32, index) -> !equeue.signal
      %339 = "equeue.control_and"(%338, %337) : (!equeue.signal, !equeue.signal) -> !equeue.signal
      %340 = "equeue.memcpy"(%334, %121, %129, %102, %c0_51) {dest_bank = 1 : i64, src_bank = 0 : i64} : (!equeue.signal, memref<3x7x7xf32>, memref<1xf32>, i32, index) -> !equeue.signal
      %341 = "equeue.memcpy"(%334, %121, %159, %104, %c0_51) {dest_bank = 1 : i64, src_bank = 1 : i64} : (!equeue.signal, memref<3x7x7xf32>, memref<1xf32>, i32, index) -> !equeue.signal
      %342 = "equeue.control_and"(%341, %340) : (!equeue.signal, !equeue.signal) -> !equeue.signal
      %343 = "equeue.memcpy"(%334, %121, %189, %106, %c0_51) {dest_bank = 1 : i64, src_bank = 2 : i64} : (!equeue.signal, memref<3x7x7xf32>, memref<1xf32>, i32, index) -> !equeue.signal
      %344 = "equeue.control_and"(%343, %342) : (!equeue.signal, !equeue.signal) -> !equeue.signal
      "equeue.await"(%344, %339) : (!equeue.signal, !equeue.signal) -> ()
      %345 = "equeue.control_start"() : () -> !equeue.signal
      %done_52 = "equeue.launch"(%345, %126, %129, %127, %128, %135, %157, %123) ( {
      ^bb0(%arg5: memref<1xf32>, %arg6: memref<1xf32>, %arg7: memref<1xf32>, %arg8: memref<1xf32>, %arg9: memref<1xf32>, %arg10: memref<5x3x3xf32>):  // no predecessors
        %2710 = "equeue.read"(%arg6) {bank = 0 : i64} : (memref<1xf32>) -> f32
        "equeue.write"(%2710, %arg9) {bank = 0 : i64} : (f32, memref<1xf32>) -> ()
        %2711 = "equeue.read"(%arg5) {bank = 1 : i64} : (memref<1xf32>) -> f32
        "equeue.write"(%2711, %arg8) {bank = 1 : i64} : (f32, memref<1xf32>) -> ()
        %2712 = mulf %2711, %2710 : f32
        %2713 = "equeue.read"(%arg7) {bank = 2 : i64} : (memref<1xf32>) -> f32
        %2714 = addf %2712, %2713 : f32
        "equeue.write"(%2714, %arg7) {bank = 2 : i64} : (f32, memref<1xf32>) -> ()
        "equeue.return"() : () -> ()
      }) : (!equeue.signal, i32, memref<1xf32>, memref<1xf32>, memref<1xf32>, memref<1xf32>, memref<1xf32>, memref<5x3x3xf32>) -> !equeue.signal
      %done_53 = "equeue.launch"(%345, %156, %159, %157, %158, %165, %187, %123) ( {
      ^bb0(%arg5: memref<1xf32>, %arg6: memref<1xf32>, %arg7: memref<1xf32>, %arg8: memref<1xf32>, %arg9: memref<1xf32>, %arg10: memref<5x3x3xf32>):  // no predecessors
        %2710 = "equeue.read"(%arg6) {bank = 0 : i64} : (memref<1xf32>) -> f32
        "equeue.write"(%2710, %arg9) {bank = 0 : i64} : (f32, memref<1xf32>) -> ()
        %2711 = "equeue.read"(%arg5) {bank = 1 : i64} : (memref<1xf32>) -> f32
        "equeue.write"(%2711, %arg8) {bank = 1 : i64} : (f32, memref<1xf32>) -> ()
        %2712 = mulf %2711, %2710 : f32
        %2713 = "equeue.read"(%arg7) {bank = 2 : i64} : (memref<1xf32>) -> f32
        %2714 = addf %2712, %2713 : f32
        "equeue.write"(%2714, %arg7) {bank = 2 : i64} : (f32, memref<1xf32>) -> ()
        "equeue.return"() : () -> ()
      }) : (!equeue.signal, i32, memref<1xf32>, memref<1xf32>, memref<1xf32>, memref<1xf32>, memref<1xf32>, memref<5x3x3xf32>) -> !equeue.signal
      %346 = "equeue.control_and"(%done_52, %done_53) : (!equeue.signal, !equeue.signal) -> !equeue.signal
      %done_54 = "equeue.launch"(%345, %186, %189, %187, %188, %195, %217, %123) ( {
      ^bb0(%arg5: memref<1xf32>, %arg6: memref<1xf32>, %arg7: memref<1xf32>, %arg8: memref<1xf32>, %arg9: memref<1xf32>, %arg10: memref<5x3x3xf32>):  // no predecessors
        %2710 = "equeue.read"(%arg6) {bank = 0 : i64} : (memref<1xf32>) -> f32
        "equeue.write"(%2710, %arg9) {bank = 0 : i64} : (f32, memref<1xf32>) -> ()
        %2711 = "equeue.read"(%arg5) {bank = 1 : i64} : (memref<1xf32>) -> f32
        "equeue.write"(%2711, %arg8) {bank = 1 : i64} : (f32, memref<1xf32>) -> ()
        %2712 = mulf %2711, %2710 : f32
        %2713 = "equeue.read"(%arg7) {bank = 2 : i64} : (memref<1xf32>) -> f32
        %2714 = addf %2712, %2713 : f32
        "equeue.write"(%2714, %arg7) {bank = 2 : i64} : (f32, memref<1xf32>) -> ()
        "equeue.return"() : () -> ()
      }) : (!equeue.signal, i32, memref<1xf32>, memref<1xf32>, memref<1xf32>, memref<1xf32>, memref<1xf32>, memref<5x3x3xf32>) -> !equeue.signal
      %347 = "equeue.control_and"(%346, %done_54) : (!equeue.signal, !equeue.signal) -> !equeue.signal
      %done_55 = "equeue.launch"(%345, %216, %219, %217, %218, %225, %247, %123) ( {
      ^bb0(%arg5: memref<1xf32>, %arg6: memref<1xf32>, %arg7: memref<1xf32>, %arg8: memref<1xf32>, %arg9: memref<1xf32>, %arg10: memref<5x3x3xf32>):  // no predecessors
        %2710 = "equeue.read"(%arg6) {bank = 0 : i64} : (memref<1xf32>) -> f32
        "equeue.write"(%2710, %arg9) {bank = 0 : i64} : (f32, memref<1xf32>) -> ()
        %2711 = "equeue.read"(%arg5) {bank = 1 : i64} : (memref<1xf32>) -> f32
        "equeue.write"(%2711, %arg8) {bank = 1 : i64} : (f32, memref<1xf32>) -> ()
        %2712 = mulf %2711, %2710 : f32
        %2713 = "equeue.read"(%arg7) {bank = 2 : i64} : (memref<1xf32>) -> f32
        %2714 = addf %2712, %2713 : f32
        "equeue.write"(%2714, %arg7) {bank = 2 : i64} : (f32, memref<1xf32>) -> ()
        "equeue.return"() : () -> ()
      }) : (!equeue.signal, i32, memref<1xf32>, memref<1xf32>, memref<1xf32>, memref<1xf32>, memref<1xf32>, memref<5x3x3xf32>) -> !equeue.signal
      %348 = "equeue.control_and"(%347, %done_55) : (!equeue.signal, !equeue.signal) -> !equeue.signal
      %done_56 = "equeue.launch"(%345, %246, %249, %247, %248, %255, %123) ( {
      ^bb0(%arg5: memref<1xf32>, %arg6: memref<1xf32>, %arg7: memref<1xf32>, %arg8: memref<1xf32>, %arg9: memref<5x3x3xf32>):  // no predecessors
        %2710 = "equeue.read"(%arg6) {bank = 0 : i64} : (memref<1xf32>) -> f32
        %2711 = "equeue.read"(%arg5) {bank = 1 : i64} : (memref<1xf32>) -> f32
        "equeue.write"(%2711, %arg8) {bank = 1 : i64} : (f32, memref<1xf32>) -> ()
        %2712 = mulf %2711, %2710 : f32
        %2713 = "equeue.read"(%arg7) {bank = 2 : i64} : (memref<1xf32>) -> f32
        %2714 = addf %2712, %2713 : f32
        "equeue.write"(%2714, %arg7) {bank = 2 : i64} : (f32, memref<1xf32>) -> ()
        "equeue.return"() : () -> ()
      }) : (!equeue.signal, i32, memref<1xf32>, memref<1xf32>, memref<1xf32>, memref<1xf32>, memref<5x3x3xf32>) -> !equeue.signal
      %349 = "equeue.control_and"(%348, %done_56) : (!equeue.signal, !equeue.signal) -> !equeue.signal
      %done_57 = "equeue.launch"(%345, %132, %135, %133, %134, %141, %163, %123) ( {
      ^bb0(%arg5: memref<1xf32>, %arg6: memref<1xf32>, %arg7: memref<1xf32>, %arg8: memref<1xf32>, %arg9: memref<1xf32>, %arg10: memref<5x3x3xf32>):  // no predecessors
        %2710 = "equeue.read"(%arg6) {bank = 0 : i64} : (memref<1xf32>) -> f32
        "equeue.write"(%2710, %arg9) {bank = 0 : i64} : (f32, memref<1xf32>) -> ()
        %2711 = "equeue.read"(%arg5) {bank = 1 : i64} : (memref<1xf32>) -> f32
        "equeue.write"(%2711, %arg8) {bank = 1 : i64} : (f32, memref<1xf32>) -> ()
        %2712 = mulf %2711, %2710 : f32
        %2713 = "equeue.read"(%arg7) {bank = 2 : i64} : (memref<1xf32>) -> f32
        %2714 = addf %2712, %2713 : f32
        "equeue.write"(%2714, %arg7) {bank = 2 : i64} : (f32, memref<1xf32>) -> ()
        "equeue.return"() : () -> ()
      }) : (!equeue.signal, i32, memref<1xf32>, memref<1xf32>, memref<1xf32>, memref<1xf32>, memref<1xf32>, memref<5x3x3xf32>) -> !equeue.signal
      %350 = "equeue.control_and"(%349, %done_57) : (!equeue.signal, !equeue.signal) -> !equeue.signal
      %done_58 = "equeue.launch"(%345, %162, %165, %163, %164, %171, %193, %123) ( {
      ^bb0(%arg5: memref<1xf32>, %arg6: memref<1xf32>, %arg7: memref<1xf32>, %arg8: memref<1xf32>, %arg9: memref<1xf32>, %arg10: memref<5x3x3xf32>):  // no predecessors
        %2710 = "equeue.read"(%arg6) {bank = 0 : i64} : (memref<1xf32>) -> f32
        "equeue.write"(%2710, %arg9) {bank = 0 : i64} : (f32, memref<1xf32>) -> ()
        %2711 = "equeue.read"(%arg5) {bank = 1 : i64} : (memref<1xf32>) -> f32
        "equeue.write"(%2711, %arg8) {bank = 1 : i64} : (f32, memref<1xf32>) -> ()
        %2712 = mulf %2711, %2710 : f32
        %2713 = "equeue.read"(%arg7) {bank = 2 : i64} : (memref<1xf32>) -> f32
        %2714 = addf %2712, %2713 : f32
        "equeue.write"(%2714, %arg7) {bank = 2 : i64} : (f32, memref<1xf32>) -> ()
        "equeue.return"() : () -> ()
      }) : (!equeue.signal, i32, memref<1xf32>, memref<1xf32>, memref<1xf32>, memref<1xf32>, memref<1xf32>, memref<5x3x3xf32>) -> !equeue.signal
      %351 = "equeue.control_and"(%350, %done_58) : (!equeue.signal, !equeue.signal) -> !equeue.signal
      %done_59 = "equeue.launch"(%345, %192, %195, %193, %194, %201, %223, %123) ( {
      ^bb0(%arg5: memref<1xf32>, %arg6: memref<1xf32>, %arg7: memref<1xf32>, %arg8: memref<1xf32>, %arg9: memref<1xf32>, %arg10: memref<5x3x3xf32>):  // no predecessors
        %2710 = "equeue.read"(%arg6) {bank = 0 : i64} : (memref<1xf32>) -> f32
        "equeue.write"(%2710, %arg9) {bank = 0 : i64} : (f32, memref<1xf32>) -> ()
        %2711 = "equeue.read"(%arg5) {bank = 1 : i64} : (memref<1xf32>) -> f32
        "equeue.write"(%2711, %arg8) {bank = 1 : i64} : (f32, memref<1xf32>) -> ()
        %2712 = mulf %2711, %2710 : f32
        %2713 = "equeue.read"(%arg7) {bank = 2 : i64} : (memref<1xf32>) -> f32
        %2714 = addf %2712, %2713 : f32
        "equeue.write"(%2714, %arg7) {bank = 2 : i64} : (f32, memref<1xf32>) -> ()
        "equeue.return"() : () -> ()
      }) : (!equeue.signal, i32, memref<1xf32>, memref<1xf32>, memref<1xf32>, memref<1xf32>, memref<1xf32>, memref<5x3x3xf32>) -> !equeue.signal
      %352 = "equeue.control_and"(%351, %done_59) : (!equeue.signal, !equeue.signal) -> !equeue.signal
      %done_60 = "equeue.launch"(%345, %222, %225, %223, %224, %231, %253, %123) ( {
      ^bb0(%arg5: memref<1xf32>, %arg6: memref<1xf32>, %arg7: memref<1xf32>, %arg8: memref<1xf32>, %arg9: memref<1xf32>, %arg10: memref<5x3x3xf32>):  // no predecessors
        %2710 = "equeue.read"(%arg6) {bank = 0 : i64} : (memref<1xf32>) -> f32
        "equeue.write"(%2710, %arg9) {bank = 0 : i64} : (f32, memref<1xf32>) -> ()
        %2711 = "equeue.read"(%arg5) {bank = 1 : i64} : (memref<1xf32>) -> f32
        "equeue.write"(%2711, %arg8) {bank = 1 : i64} : (f32, memref<1xf32>) -> ()
        %2712 = mulf %2711, %2710 : f32
        %2713 = "equeue.read"(%arg7) {bank = 2 : i64} : (memref<1xf32>) -> f32
        %2714 = addf %2712, %2713 : f32
        "equeue.write"(%2714, %arg7) {bank = 2 : i64} : (f32, memref<1xf32>) -> ()
        "equeue.return"() : () -> ()
      }) : (!equeue.signal, i32, memref<1xf32>, memref<1xf32>, memref<1xf32>, memref<1xf32>, memref<1xf32>, memref<5x3x3xf32>) -> !equeue.signal
      %353 = "equeue.control_and"(%352, %done_60) : (!equeue.signal, !equeue.signal) -> !equeue.signal
      %done_61 = "equeue.launch"(%345, %252, %255, %253, %254, %261, %123) ( {
      ^bb0(%arg5: memref<1xf32>, %arg6: memref<1xf32>, %arg7: memref<1xf32>, %arg8: memref<1xf32>, %arg9: memref<5x3x3xf32>):  // no predecessors
        %2710 = "equeue.read"(%arg6) {bank = 0 : i64} : (memref<1xf32>) -> f32
        %2711 = "equeue.read"(%arg5) {bank = 1 : i64} : (memref<1xf32>) -> f32
        "equeue.write"(%2711, %arg8) {bank = 1 : i64} : (f32, memref<1xf32>) -> ()
        %2712 = mulf %2711, %2710 : f32
        %2713 = "equeue.read"(%arg7) {bank = 2 : i64} : (memref<1xf32>) -> f32
        %2714 = addf %2712, %2713 : f32
        "equeue.write"(%2714, %arg7) {bank = 2 : i64} : (f32, memref<1xf32>) -> ()
        "equeue.return"() : () -> ()
      }) : (!equeue.signal, i32, memref<1xf32>, memref<1xf32>, memref<1xf32>, memref<1xf32>, memref<5x3x3xf32>) -> !equeue.signal
      %354 = "equeue.control_and"(%353, %done_61) : (!equeue.signal, !equeue.signal) -> !equeue.signal
      %done_62 = "equeue.launch"(%345, %138, %141, %139, %140, %147, %169, %123) ( {
      ^bb0(%arg5: memref<1xf32>, %arg6: memref<1xf32>, %arg7: memref<1xf32>, %arg8: memref<1xf32>, %arg9: memref<1xf32>, %arg10: memref<5x3x3xf32>):  // no predecessors
        %2710 = "equeue.read"(%arg6) {bank = 0 : i64} : (memref<1xf32>) -> f32
        "equeue.write"(%2710, %arg9) {bank = 0 : i64} : (f32, memref<1xf32>) -> ()
        %2711 = "equeue.read"(%arg5) {bank = 1 : i64} : (memref<1xf32>) -> f32
        "equeue.write"(%2711, %arg8) {bank = 1 : i64} : (f32, memref<1xf32>) -> ()
        %2712 = mulf %2711, %2710 : f32
        %2713 = "equeue.read"(%arg7) {bank = 2 : i64} : (memref<1xf32>) -> f32
        %2714 = addf %2712, %2713 : f32
        "equeue.write"(%2714, %arg7) {bank = 2 : i64} : (f32, memref<1xf32>) -> ()
        "equeue.return"() : () -> ()
      }) : (!equeue.signal, i32, memref<1xf32>, memref<1xf32>, memref<1xf32>, memref<1xf32>, memref<1xf32>, memref<5x3x3xf32>) -> !equeue.signal
      %355 = "equeue.control_and"(%354, %done_62) : (!equeue.signal, !equeue.signal) -> !equeue.signal
      %done_63 = "equeue.launch"(%345, %168, %171, %169, %170, %177, %199, %123) ( {
      ^bb0(%arg5: memref<1xf32>, %arg6: memref<1xf32>, %arg7: memref<1xf32>, %arg8: memref<1xf32>, %arg9: memref<1xf32>, %arg10: memref<5x3x3xf32>):  // no predecessors
        %2710 = "equeue.read"(%arg6) {bank = 0 : i64} : (memref<1xf32>) -> f32
        "equeue.write"(%2710, %arg9) {bank = 0 : i64} : (f32, memref<1xf32>) -> ()
        %2711 = "equeue.read"(%arg5) {bank = 1 : i64} : (memref<1xf32>) -> f32
        "equeue.write"(%2711, %arg8) {bank = 1 : i64} : (f32, memref<1xf32>) -> ()
        %2712 = mulf %2711, %2710 : f32
        %2713 = "equeue.read"(%arg7) {bank = 2 : i64} : (memref<1xf32>) -> f32
        %2714 = addf %2712, %2713 : f32
        "equeue.write"(%2714, %arg7) {bank = 2 : i64} : (f32, memref<1xf32>) -> ()
        "equeue.return"() : () -> ()
      }) : (!equeue.signal, i32, memref<1xf32>, memref<1xf32>, memref<1xf32>, memref<1xf32>, memref<1xf32>, memref<5x3x3xf32>) -> !equeue.signal
      %356 = "equeue.control_and"(%355, %done_63) : (!equeue.signal, !equeue.signal) -> !equeue.signal
      %done_64 = "equeue.launch"(%345, %198, %201, %199, %200, %207, %229, %123) ( {
      ^bb0(%arg5: memref<1xf32>, %arg6: memref<1xf32>, %arg7: memref<1xf32>, %arg8: memref<1xf32>, %arg9: memref<1xf32>, %arg10: memref<5x3x3xf32>):  // no predecessors
        %2710 = "equeue.read"(%arg6) {bank = 0 : i64} : (memref<1xf32>) -> f32
        "equeue.write"(%2710, %arg9) {bank = 0 : i64} : (f32, memref<1xf32>) -> ()
        %2711 = "equeue.read"(%arg5) {bank = 1 : i64} : (memref<1xf32>) -> f32
        "equeue.write"(%2711, %arg8) {bank = 1 : i64} : (f32, memref<1xf32>) -> ()
        %2712 = mulf %2711, %2710 : f32
        %2713 = "equeue.read"(%arg7) {bank = 2 : i64} : (memref<1xf32>) -> f32
        %2714 = addf %2712, %2713 : f32
        "equeue.write"(%2714, %arg7) {bank = 2 : i64} : (f32, memref<1xf32>) -> ()
        "equeue.return"() : () -> ()
      }) : (!equeue.signal, i32, memref<1xf32>, memref<1xf32>, memref<1xf32>, memref<1xf32>, memref<1xf32>, memref<5x3x3xf32>) -> !equeue.signal
      %357 = "equeue.control_and"(%356, %done_64) : (!equeue.signal, !equeue.signal) -> !equeue.signal
      %done_65 = "equeue.launch"(%345, %228, %231, %229, %230, %237, %259, %123) ( {
      ^bb0(%arg5: memref<1xf32>, %arg6: memref<1xf32>, %arg7: memref<1xf32>, %arg8: memref<1xf32>, %arg9: memref<1xf32>, %arg10: memref<5x3x3xf32>):  // no predecessors
        %2710 = "equeue.read"(%arg6) {bank = 0 : i64} : (memref<1xf32>) -> f32
        "equeue.write"(%2710, %arg9) {bank = 0 : i64} : (f32, memref<1xf32>) -> ()
        %2711 = "equeue.read"(%arg5) {bank = 1 : i64} : (memref<1xf32>) -> f32
        "equeue.write"(%2711, %arg8) {bank = 1 : i64} : (f32, memref<1xf32>) -> ()
        %2712 = mulf %2711, %2710 : f32
        %2713 = "equeue.read"(%arg7) {bank = 2 : i64} : (memref<1xf32>) -> f32
        %2714 = addf %2712, %2713 : f32
        "equeue.write"(%2714, %arg7) {bank = 2 : i64} : (f32, memref<1xf32>) -> ()
        "equeue.return"() : () -> ()
      }) : (!equeue.signal, i32, memref<1xf32>, memref<1xf32>, memref<1xf32>, memref<1xf32>, memref<1xf32>, memref<5x3x3xf32>) -> !equeue.signal
      %358 = "equeue.control_and"(%357, %done_65) : (!equeue.signal, !equeue.signal) -> !equeue.signal
      %done_66 = "equeue.launch"(%345, %258, %261, %259, %260, %267, %123) ( {
      ^bb0(%arg5: memref<1xf32>, %arg6: memref<1xf32>, %arg7: memref<1xf32>, %arg8: memref<1xf32>, %arg9: memref<5x3x3xf32>):  // no predecessors
        %2710 = "equeue.read"(%arg6) {bank = 0 : i64} : (memref<1xf32>) -> f32
        %2711 = "equeue.read"(%arg5) {bank = 1 : i64} : (memref<1xf32>) -> f32
        "equeue.write"(%2711, %arg8) {bank = 1 : i64} : (f32, memref<1xf32>) -> ()
        %2712 = mulf %2711, %2710 : f32
        %2713 = "equeue.read"(%arg7) {bank = 2 : i64} : (memref<1xf32>) -> f32
        %2714 = addf %2712, %2713 : f32
        "equeue.write"(%2714, %arg7) {bank = 2 : i64} : (f32, memref<1xf32>) -> ()
        "equeue.return"() : () -> ()
      }) : (!equeue.signal, i32, memref<1xf32>, memref<1xf32>, memref<1xf32>, memref<1xf32>, memref<5x3x3xf32>) -> !equeue.signal
      %359 = "equeue.control_and"(%358, %done_66) : (!equeue.signal, !equeue.signal) -> !equeue.signal
      %done_67 = "equeue.launch"(%345, %144, %147, %145, %146, %153, %175, %123) ( {
      ^bb0(%arg5: memref<1xf32>, %arg6: memref<1xf32>, %arg7: memref<1xf32>, %arg8: memref<1xf32>, %arg9: memref<1xf32>, %arg10: memref<5x3x3xf32>):  // no predecessors
        %2710 = "equeue.read"(%arg6) {bank = 0 : i64} : (memref<1xf32>) -> f32
        "equeue.write"(%2710, %arg9) {bank = 0 : i64} : (f32, memref<1xf32>) -> ()
        %2711 = "equeue.read"(%arg5) {bank = 1 : i64} : (memref<1xf32>) -> f32
        "equeue.write"(%2711, %arg8) {bank = 1 : i64} : (f32, memref<1xf32>) -> ()
        %2712 = mulf %2711, %2710 : f32
        %2713 = "equeue.read"(%arg7) {bank = 2 : i64} : (memref<1xf32>) -> f32
        %2714 = addf %2712, %2713 : f32
        "equeue.write"(%2714, %arg7) {bank = 2 : i64} : (f32, memref<1xf32>) -> ()
        "equeue.return"() : () -> ()
      }) : (!equeue.signal, i32, memref<1xf32>, memref<1xf32>, memref<1xf32>, memref<1xf32>, memref<1xf32>, memref<5x3x3xf32>) -> !equeue.signal
      %360 = "equeue.control_and"(%359, %done_67) : (!equeue.signal, !equeue.signal) -> !equeue.signal
      %done_68 = "equeue.launch"(%345, %174, %177, %175, %176, %183, %205, %123) ( {
      ^bb0(%arg5: memref<1xf32>, %arg6: memref<1xf32>, %arg7: memref<1xf32>, %arg8: memref<1xf32>, %arg9: memref<1xf32>, %arg10: memref<5x3x3xf32>):  // no predecessors
        %2710 = "equeue.read"(%arg6) {bank = 0 : i64} : (memref<1xf32>) -> f32
        "equeue.write"(%2710, %arg9) {bank = 0 : i64} : (f32, memref<1xf32>) -> ()
        %2711 = "equeue.read"(%arg5) {bank = 1 : i64} : (memref<1xf32>) -> f32
        "equeue.write"(%2711, %arg8) {bank = 1 : i64} : (f32, memref<1xf32>) -> ()
        %2712 = mulf %2711, %2710 : f32
        %2713 = "equeue.read"(%arg7) {bank = 2 : i64} : (memref<1xf32>) -> f32
        %2714 = addf %2712, %2713 : f32
        "equeue.write"(%2714, %arg7) {bank = 2 : i64} : (f32, memref<1xf32>) -> ()
        "equeue.return"() : () -> ()
      }) : (!equeue.signal, i32, memref<1xf32>, memref<1xf32>, memref<1xf32>, memref<1xf32>, memref<1xf32>, memref<5x3x3xf32>) -> !equeue.signal
      %361 = "equeue.control_and"(%360, %done_68) : (!equeue.signal, !equeue.signal) -> !equeue.signal
      %done_69 = "equeue.launch"(%345, %204, %207, %205, %206, %213, %235, %123) ( {
      ^bb0(%arg5: memref<1xf32>, %arg6: memref<1xf32>, %arg7: memref<1xf32>, %arg8: memref<1xf32>, %arg9: memref<1xf32>, %arg10: memref<5x3x3xf32>):  // no predecessors
        %2710 = "equeue.read"(%arg6) {bank = 0 : i64} : (memref<1xf32>) -> f32
        "equeue.write"(%2710, %arg9) {bank = 0 : i64} : (f32, memref<1xf32>) -> ()
        %2711 = "equeue.read"(%arg5) {bank = 1 : i64} : (memref<1xf32>) -> f32
        "equeue.write"(%2711, %arg8) {bank = 1 : i64} : (f32, memref<1xf32>) -> ()
        %2712 = mulf %2711, %2710 : f32
        %2713 = "equeue.read"(%arg7) {bank = 2 : i64} : (memref<1xf32>) -> f32
        %2714 = addf %2712, %2713 : f32
        "equeue.write"(%2714, %arg7) {bank = 2 : i64} : (f32, memref<1xf32>) -> ()
        "equeue.return"() : () -> ()
      }) : (!equeue.signal, i32, memref<1xf32>, memref<1xf32>, memref<1xf32>, memref<1xf32>, memref<1xf32>, memref<5x3x3xf32>) -> !equeue.signal
      %362 = "equeue.control_and"(%361, %done_69) : (!equeue.signal, !equeue.signal) -> !equeue.signal
      %done_70 = "equeue.launch"(%345, %234, %237, %235, %236, %243, %265, %123) ( {
      ^bb0(%arg5: memref<1xf32>, %arg6: memref<1xf32>, %arg7: memref<1xf32>, %arg8: memref<1xf32>, %arg9: memref<1xf32>, %arg10: memref<5x3x3xf32>):  // no predecessors
        %2710 = "equeue.read"(%arg6) {bank = 0 : i64} : (memref<1xf32>) -> f32
        "equeue.write"(%2710, %arg9) {bank = 0 : i64} : (f32, memref<1xf32>) -> ()
        %2711 = "equeue.read"(%arg5) {bank = 1 : i64} : (memref<1xf32>) -> f32
        "equeue.write"(%2711, %arg8) {bank = 1 : i64} : (f32, memref<1xf32>) -> ()
        %2712 = mulf %2711, %2710 : f32
        %2713 = "equeue.read"(%arg7) {bank = 2 : i64} : (memref<1xf32>) -> f32
        %2714 = addf %2712, %2713 : f32
        "equeue.write"(%2714, %arg7) {bank = 2 : i64} : (f32, memref<1xf32>) -> ()
        "equeue.return"() : () -> ()
      }) : (!equeue.signal, i32, memref<1xf32>, memref<1xf32>, memref<1xf32>, memref<1xf32>, memref<1xf32>, memref<5x3x3xf32>) -> !equeue.signal
      %363 = "equeue.control_and"(%362, %done_70) : (!equeue.signal, !equeue.signal) -> !equeue.signal
      %done_71 = "equeue.launch"(%345, %264, %267, %265, %266, %273, %123) ( {
      ^bb0(%arg5: memref<1xf32>, %arg6: memref<1xf32>, %arg7: memref<1xf32>, %arg8: memref<1xf32>, %arg9: memref<5x3x3xf32>):  // no predecessors
        %2710 = "equeue.read"(%arg6) {bank = 0 : i64} : (memref<1xf32>) -> f32
        %2711 = "equeue.read"(%arg5) {bank = 1 : i64} : (memref<1xf32>) -> f32
        "equeue.write"(%2711, %arg8) {bank = 1 : i64} : (f32, memref<1xf32>) -> ()
        %2712 = mulf %2711, %2710 : f32
        %2713 = "equeue.read"(%arg7) {bank = 2 : i64} : (memref<1xf32>) -> f32
        %2714 = addf %2712, %2713 : f32
        "equeue.write"(%2714, %arg7) {bank = 2 : i64} : (f32, memref<1xf32>) -> ()
        "equeue.return"() : () -> ()
      }) : (!equeue.signal, i32, memref<1xf32>, memref<1xf32>, memref<1xf32>, memref<1xf32>, memref<5x3x3xf32>) -> !equeue.signal
      %364 = "equeue.control_and"(%363, %done_71) : (!equeue.signal, !equeue.signal) -> !equeue.signal
      %done_72 = "equeue.launch"(%345, %150, %153, %151, %152, %181, %123) ( {
      ^bb0(%arg5: memref<1xf32>, %arg6: memref<1xf32>, %arg7: memref<1xf32>, %arg8: memref<1xf32>, %arg9: memref<5x3x3xf32>):  // no predecessors
        %2710 = "equeue.read"(%arg6) {bank = 0 : i64} : (memref<1xf32>) -> f32
        "equeue.write"(%2710, %arg8) {bank = 0 : i64} : (f32, memref<1xf32>) -> ()
        %2711 = "equeue.read"(%arg5) {bank = 1 : i64} : (memref<1xf32>) -> f32
        %2712 = mulf %2711, %2710 : f32
        %2713 = "equeue.read"(%arg7) {bank = 2 : i64} : (memref<1xf32>) -> f32
        %2714 = addf %2712, %2713 : f32
        "equeue.write"(%2714, %arg7) {bank = 2 : i64} : (f32, memref<1xf32>) -> ()
        "equeue.return"() : () -> ()
      }) : (!equeue.signal, i32, memref<1xf32>, memref<1xf32>, memref<1xf32>, memref<1xf32>, memref<5x3x3xf32>) -> !equeue.signal
      %365 = "equeue.control_and"(%364, %done_72) : (!equeue.signal, !equeue.signal) -> !equeue.signal
      %done_73 = "equeue.launch"(%345, %180, %183, %181, %182, %211, %123) ( {
      ^bb0(%arg5: memref<1xf32>, %arg6: memref<1xf32>, %arg7: memref<1xf32>, %arg8: memref<1xf32>, %arg9: memref<5x3x3xf32>):  // no predecessors
        %2710 = "equeue.read"(%arg6) {bank = 0 : i64} : (memref<1xf32>) -> f32
        "equeue.write"(%2710, %arg8) {bank = 0 : i64} : (f32, memref<1xf32>) -> ()
        %2711 = "equeue.read"(%arg5) {bank = 1 : i64} : (memref<1xf32>) -> f32
        %2712 = mulf %2711, %2710 : f32
        %2713 = "equeue.read"(%arg7) {bank = 2 : i64} : (memref<1xf32>) -> f32
        %2714 = addf %2712, %2713 : f32
        "equeue.write"(%2714, %arg7) {bank = 2 : i64} : (f32, memref<1xf32>) -> ()
        "equeue.return"() : () -> ()
      }) : (!equeue.signal, i32, memref<1xf32>, memref<1xf32>, memref<1xf32>, memref<1xf32>, memref<5x3x3xf32>) -> !equeue.signal
      %366 = "equeue.control_and"(%365, %done_73) : (!equeue.signal, !equeue.signal) -> !equeue.signal
      %done_74 = "equeue.launch"(%345, %210, %213, %211, %212, %241, %123) ( {
      ^bb0(%arg5: memref<1xf32>, %arg6: memref<1xf32>, %arg7: memref<1xf32>, %arg8: memref<1xf32>, %arg9: memref<5x3x3xf32>):  // no predecessors
        %2710 = "equeue.read"(%arg6) {bank = 0 : i64} : (memref<1xf32>) -> f32
        "equeue.write"(%2710, %arg8) {bank = 0 : i64} : (f32, memref<1xf32>) -> ()
        %2711 = "equeue.read"(%arg5) {bank = 1 : i64} : (memref<1xf32>) -> f32
        %2712 = mulf %2711, %2710 : f32
        %2713 = "equeue.read"(%arg7) {bank = 2 : i64} : (memref<1xf32>) -> f32
        %2714 = addf %2712, %2713 : f32
        "equeue.write"(%2714, %arg7) {bank = 2 : i64} : (f32, memref<1xf32>) -> ()
        "equeue.return"() : () -> ()
      }) : (!equeue.signal, i32, memref<1xf32>, memref<1xf32>, memref<1xf32>, memref<1xf32>, memref<5x3x3xf32>) -> !equeue.signal
      %367 = "equeue.control_and"(%366, %done_74) : (!equeue.signal, !equeue.signal) -> !equeue.signal
      %done_75 = "equeue.launch"(%345, %240, %243, %241, %242, %271, %123) ( {
      ^bb0(%arg5: memref<1xf32>, %arg6: memref<1xf32>, %arg7: memref<1xf32>, %arg8: memref<1xf32>, %arg9: memref<5x3x3xf32>):  // no predecessors
        %2710 = "equeue.read"(%arg6) {bank = 0 : i64} : (memref<1xf32>) -> f32
        "equeue.write"(%2710, %arg8) {bank = 0 : i64} : (f32, memref<1xf32>) -> ()
        %2711 = "equeue.read"(%arg5) {bank = 1 : i64} : (memref<1xf32>) -> f32
        %2712 = mulf %2711, %2710 : f32
        %2713 = "equeue.read"(%arg7) {bank = 2 : i64} : (memref<1xf32>) -> f32
        %2714 = addf %2712, %2713 : f32
        "equeue.write"(%2714, %arg7) {bank = 2 : i64} : (f32, memref<1xf32>) -> ()
        "equeue.return"() : () -> ()
      }) : (!equeue.signal, i32, memref<1xf32>, memref<1xf32>, memref<1xf32>, memref<1xf32>, memref<5x3x3xf32>) -> !equeue.signal
      %368 = "equeue.control_and"(%367, %done_75) : (!equeue.signal, !equeue.signal) -> !equeue.signal
      %done_76 = "equeue.launch"(%345, %270, %273, %271, %272, %123) ( {
      ^bb0(%arg5: memref<1xf32>, %arg6: memref<1xf32>, %arg7: memref<1xf32>, %arg8: memref<5x3x3xf32>):  // no predecessors
        %2710 = "equeue.read"(%arg6) {bank = 0 : i64} : (memref<1xf32>) -> f32
        %2711 = "equeue.read"(%arg5) {bank = 1 : i64} : (memref<1xf32>) -> f32
        %2712 = mulf %2711, %2710 : f32
        %2713 = "equeue.read"(%arg7) {bank = 2 : i64} : (memref<1xf32>) -> f32
        %2714 = addf %2712, %2713 : f32
        "equeue.write"(%2714, %arg7) {bank = 2 : i64} : (f32, memref<1xf32>) -> ()
        "equeue.return"() : () -> ()
      }) : (!equeue.signal, i32, memref<1xf32>, memref<1xf32>, memref<1xf32>, memref<5x3x3xf32>) -> !equeue.signal
      %369 = "equeue.control_and"(%368, %done_76) : (!equeue.signal, !equeue.signal) -> !equeue.signal
      "equeue.await"(%369) : (!equeue.signal) -> ()
      %370 = "equeue.control_start"() : () -> !equeue.signal
      %c0_77 = constant 0 : index
      %371 = "equeue.memcpy"(%370, %122, %127, %111, %c0_77) {dest_bank = 0 : i64, src_bank = 0 : i64} : (!equeue.signal, memref<5x3x7x3xf32>, memref<1xf32>, i32, index) -> !equeue.signal
      %372 = "equeue.memcpy"(%370, %122, %133, %113, %c0_77) {dest_bank = 0 : i64, src_bank = 1 : i64} : (!equeue.signal, memref<5x3x7x3xf32>, memref<1xf32>, i32, index) -> !equeue.signal
      %373 = "equeue.control_and"(%372, %371) : (!equeue.signal, !equeue.signal) -> !equeue.signal
      %374 = "equeue.memcpy"(%370, %122, %139, %115, %c0_77) {dest_bank = 0 : i64, src_bank = 2 : i64} : (!equeue.signal, memref<5x3x7x3xf32>, memref<1xf32>, i32, index) -> !equeue.signal
      %375 = "equeue.control_and"(%374, %373) : (!equeue.signal, !equeue.signal) -> !equeue.signal
      %376 = "equeue.memcpy"(%370, %122, %145, %117, %c0_77) {dest_bank = 0 : i64, src_bank = 3 : i64} : (!equeue.signal, memref<5x3x7x3xf32>, memref<1xf32>, i32, index) -> !equeue.signal
      %377 = "equeue.control_and"(%376, %375) : (!equeue.signal, !equeue.signal) -> !equeue.signal
      %378 = "equeue.memcpy"(%370, %121, %129, %102, %c0_77) {dest_bank = 1 : i64, src_bank = 0 : i64} : (!equeue.signal, memref<3x7x7xf32>, memref<1xf32>, i32, index) -> !equeue.signal
      %379 = "equeue.memcpy"(%370, %121, %159, %104, %c0_77) {dest_bank = 1 : i64, src_bank = 1 : i64} : (!equeue.signal, memref<3x7x7xf32>, memref<1xf32>, i32, index) -> !equeue.signal
      %380 = "equeue.control_and"(%379, %378) : (!equeue.signal, !equeue.signal) -> !equeue.signal
      %381 = "equeue.memcpy"(%370, %121, %189, %106, %c0_77) {dest_bank = 1 : i64, src_bank = 2 : i64} : (!equeue.signal, memref<3x7x7xf32>, memref<1xf32>, i32, index) -> !equeue.signal
      %382 = "equeue.control_and"(%381, %380) : (!equeue.signal, !equeue.signal) -> !equeue.signal
      %383 = "equeue.memcpy"(%370, %121, %219, %108, %c0_77) {dest_bank = 1 : i64, src_bank = 3 : i64} : (!equeue.signal, memref<3x7x7xf32>, memref<1xf32>, i32, index) -> !equeue.signal
      %384 = "equeue.control_and"(%383, %382) : (!equeue.signal, !equeue.signal) -> !equeue.signal
      "equeue.await"(%384, %377) : (!equeue.signal, !equeue.signal) -> ()
      %385 = "equeue.control_start"() : () -> !equeue.signal
      %done_78 = "equeue.launch"(%385, %126, %129, %127, %128, %135, %157, %123) ( {
      ^bb0(%arg5: memref<1xf32>, %arg6: memref<1xf32>, %arg7: memref<1xf32>, %arg8: memref<1xf32>, %arg9: memref<1xf32>, %arg10: memref<5x3x3xf32>):  // no predecessors
        %2710 = "equeue.read"(%arg6) {bank = 0 : i64} : (memref<1xf32>) -> f32
        "equeue.write"(%2710, %arg9) {bank = 0 : i64} : (f32, memref<1xf32>) -> ()
        %2711 = "equeue.read"(%arg5) {bank = 1 : i64} : (memref<1xf32>) -> f32
        "equeue.write"(%2711, %arg8) {bank = 1 : i64} : (f32, memref<1xf32>) -> ()
        %2712 = mulf %2711, %2710 : f32
        %2713 = "equeue.read"(%arg7) {bank = 2 : i64} : (memref<1xf32>) -> f32
        %2714 = addf %2712, %2713 : f32
        "equeue.write"(%2714, %arg7) {bank = 2 : i64} : (f32, memref<1xf32>) -> ()
        "equeue.return"() : () -> ()
      }) : (!equeue.signal, i32, memref<1xf32>, memref<1xf32>, memref<1xf32>, memref<1xf32>, memref<1xf32>, memref<5x3x3xf32>) -> !equeue.signal
      %done_79 = "equeue.launch"(%385, %156, %159, %157, %158, %165, %187, %123) ( {
      ^bb0(%arg5: memref<1xf32>, %arg6: memref<1xf32>, %arg7: memref<1xf32>, %arg8: memref<1xf32>, %arg9: memref<1xf32>, %arg10: memref<5x3x3xf32>):  // no predecessors
        %2710 = "equeue.read"(%arg6) {bank = 0 : i64} : (memref<1xf32>) -> f32
        "equeue.write"(%2710, %arg9) {bank = 0 : i64} : (f32, memref<1xf32>) -> ()
        %2711 = "equeue.read"(%arg5) {bank = 1 : i64} : (memref<1xf32>) -> f32
        "equeue.write"(%2711, %arg8) {bank = 1 : i64} : (f32, memref<1xf32>) -> ()
        %2712 = mulf %2711, %2710 : f32
        %2713 = "equeue.read"(%arg7) {bank = 2 : i64} : (memref<1xf32>) -> f32
        %2714 = addf %2712, %2713 : f32
        "equeue.write"(%2714, %arg7) {bank = 2 : i64} : (f32, memref<1xf32>) -> ()
        "equeue.return"() : () -> ()
      }) : (!equeue.signal, i32, memref<1xf32>, memref<1xf32>, memref<1xf32>, memref<1xf32>, memref<1xf32>, memref<5x3x3xf32>) -> !equeue.signal
      %386 = "equeue.control_and"(%done_78, %done_79) : (!equeue.signal, !equeue.signal) -> !equeue.signal
      %done_80 = "equeue.launch"(%385, %186, %189, %187, %188, %195, %217, %123) ( {
      ^bb0(%arg5: memref<1xf32>, %arg6: memref<1xf32>, %arg7: memref<1xf32>, %arg8: memref<1xf32>, %arg9: memref<1xf32>, %arg10: memref<5x3x3xf32>):  // no predecessors
        %2710 = "equeue.read"(%arg6) {bank = 0 : i64} : (memref<1xf32>) -> f32
        "equeue.write"(%2710, %arg9) {bank = 0 : i64} : (f32, memref<1xf32>) -> ()
        %2711 = "equeue.read"(%arg5) {bank = 1 : i64} : (memref<1xf32>) -> f32
        "equeue.write"(%2711, %arg8) {bank = 1 : i64} : (f32, memref<1xf32>) -> ()
        %2712 = mulf %2711, %2710 : f32
        %2713 = "equeue.read"(%arg7) {bank = 2 : i64} : (memref<1xf32>) -> f32
        %2714 = addf %2712, %2713 : f32
        "equeue.write"(%2714, %arg7) {bank = 2 : i64} : (f32, memref<1xf32>) -> ()
        "equeue.return"() : () -> ()
      }) : (!equeue.signal, i32, memref<1xf32>, memref<1xf32>, memref<1xf32>, memref<1xf32>, memref<1xf32>, memref<5x3x3xf32>) -> !equeue.signal
      %387 = "equeue.control_and"(%386, %done_80) : (!equeue.signal, !equeue.signal) -> !equeue.signal
      %done_81 = "equeue.launch"(%385, %216, %219, %217, %218, %225, %247, %123) ( {
      ^bb0(%arg5: memref<1xf32>, %arg6: memref<1xf32>, %arg7: memref<1xf32>, %arg8: memref<1xf32>, %arg9: memref<1xf32>, %arg10: memref<5x3x3xf32>):  // no predecessors
        %2710 = "equeue.read"(%arg6) {bank = 0 : i64} : (memref<1xf32>) -> f32
        "equeue.write"(%2710, %arg9) {bank = 0 : i64} : (f32, memref<1xf32>) -> ()
        %2711 = "equeue.read"(%arg5) {bank = 1 : i64} : (memref<1xf32>) -> f32
        "equeue.write"(%2711, %arg8) {bank = 1 : i64} : (f32, memref<1xf32>) -> ()
        %2712 = mulf %2711, %2710 : f32
        %2713 = "equeue.read"(%arg7) {bank = 2 : i64} : (memref<1xf32>) -> f32
        %2714 = addf %2712, %2713 : f32
        "equeue.write"(%2714, %arg7) {bank = 2 : i64} : (f32, memref<1xf32>) -> ()
        "equeue.return"() : () -> ()
      }) : (!equeue.signal, i32, memref<1xf32>, memref<1xf32>, memref<1xf32>, memref<1xf32>, memref<1xf32>, memref<5x3x3xf32>) -> !equeue.signal
      %388 = "equeue.control_and"(%387, %done_81) : (!equeue.signal, !equeue.signal) -> !equeue.signal
      %done_82 = "equeue.launch"(%385, %246, %249, %247, %248, %255, %123) ( {
      ^bb0(%arg5: memref<1xf32>, %arg6: memref<1xf32>, %arg7: memref<1xf32>, %arg8: memref<1xf32>, %arg9: memref<5x3x3xf32>):  // no predecessors
        %2710 = "equeue.read"(%arg6) {bank = 0 : i64} : (memref<1xf32>) -> f32
        %2711 = "equeue.read"(%arg5) {bank = 1 : i64} : (memref<1xf32>) -> f32
        "equeue.write"(%2711, %arg8) {bank = 1 : i64} : (f32, memref<1xf32>) -> ()
        %2712 = mulf %2711, %2710 : f32
        %2713 = "equeue.read"(%arg7) {bank = 2 : i64} : (memref<1xf32>) -> f32
        %2714 = addf %2712, %2713 : f32
        "equeue.write"(%2714, %arg7) {bank = 2 : i64} : (f32, memref<1xf32>) -> ()
        "equeue.return"() : () -> ()
      }) : (!equeue.signal, i32, memref<1xf32>, memref<1xf32>, memref<1xf32>, memref<1xf32>, memref<5x3x3xf32>) -> !equeue.signal
      %389 = "equeue.control_and"(%388, %done_82) : (!equeue.signal, !equeue.signal) -> !equeue.signal
      %done_83 = "equeue.launch"(%385, %132, %135, %133, %134, %141, %163, %123) ( {
      ^bb0(%arg5: memref<1xf32>, %arg6: memref<1xf32>, %arg7: memref<1xf32>, %arg8: memref<1xf32>, %arg9: memref<1xf32>, %arg10: memref<5x3x3xf32>):  // no predecessors
        %2710 = "equeue.read"(%arg6) {bank = 0 : i64} : (memref<1xf32>) -> f32
        "equeue.write"(%2710, %arg9) {bank = 0 : i64} : (f32, memref<1xf32>) -> ()
        %2711 = "equeue.read"(%arg5) {bank = 1 : i64} : (memref<1xf32>) -> f32
        "equeue.write"(%2711, %arg8) {bank = 1 : i64} : (f32, memref<1xf32>) -> ()
        %2712 = mulf %2711, %2710 : f32
        %2713 = "equeue.read"(%arg7) {bank = 2 : i64} : (memref<1xf32>) -> f32
        %2714 = addf %2712, %2713 : f32
        "equeue.write"(%2714, %arg7) {bank = 2 : i64} : (f32, memref<1xf32>) -> ()
        "equeue.return"() : () -> ()
      }) : (!equeue.signal, i32, memref<1xf32>, memref<1xf32>, memref<1xf32>, memref<1xf32>, memref<1xf32>, memref<5x3x3xf32>) -> !equeue.signal
      %390 = "equeue.control_and"(%389, %done_83) : (!equeue.signal, !equeue.signal) -> !equeue.signal
      %done_84 = "equeue.launch"(%385, %162, %165, %163, %164, %171, %193, %123) ( {
      ^bb0(%arg5: memref<1xf32>, %arg6: memref<1xf32>, %arg7: memref<1xf32>, %arg8: memref<1xf32>, %arg9: memref<1xf32>, %arg10: memref<5x3x3xf32>):  // no predecessors
        %2710 = "equeue.read"(%arg6) {bank = 0 : i64} : (memref<1xf32>) -> f32
        "equeue.write"(%2710, %arg9) {bank = 0 : i64} : (f32, memref<1xf32>) -> ()
        %2711 = "equeue.read"(%arg5) {bank = 1 : i64} : (memref<1xf32>) -> f32
        "equeue.write"(%2711, %arg8) {bank = 1 : i64} : (f32, memref<1xf32>) -> ()
        %2712 = mulf %2711, %2710 : f32
        %2713 = "equeue.read"(%arg7) {bank = 2 : i64} : (memref<1xf32>) -> f32
        %2714 = addf %2712, %2713 : f32
        "equeue.write"(%2714, %arg7) {bank = 2 : i64} : (f32, memref<1xf32>) -> ()
        "equeue.return"() : () -> ()
      }) : (!equeue.signal, i32, memref<1xf32>, memref<1xf32>, memref<1xf32>, memref<1xf32>, memref<1xf32>, memref<5x3x3xf32>) -> !equeue.signal
      %391 = "equeue.control_and"(%390, %done_84) : (!equeue.signal, !equeue.signal) -> !equeue.signal
      %done_85 = "equeue.launch"(%385, %192, %195, %193, %194, %201, %223, %123) ( {
      ^bb0(%arg5: memref<1xf32>, %arg6: memref<1xf32>, %arg7: memref<1xf32>, %arg8: memref<1xf32>, %arg9: memref<1xf32>, %arg10: memref<5x3x3xf32>):  // no predecessors
        %2710 = "equeue.read"(%arg6) {bank = 0 : i64} : (memref<1xf32>) -> f32
        "equeue.write"(%2710, %arg9) {bank = 0 : i64} : (f32, memref<1xf32>) -> ()
        %2711 = "equeue.read"(%arg5) {bank = 1 : i64} : (memref<1xf32>) -> f32
        "equeue.write"(%2711, %arg8) {bank = 1 : i64} : (f32, memref<1xf32>) -> ()
        %2712 = mulf %2711, %2710 : f32
        %2713 = "equeue.read"(%arg7) {bank = 2 : i64} : (memref<1xf32>) -> f32
        %2714 = addf %2712, %2713 : f32
        "equeue.write"(%2714, %arg7) {bank = 2 : i64} : (f32, memref<1xf32>) -> ()
        "equeue.return"() : () -> ()
      }) : (!equeue.signal, i32, memref<1xf32>, memref<1xf32>, memref<1xf32>, memref<1xf32>, memref<1xf32>, memref<5x3x3xf32>) -> !equeue.signal
      %392 = "equeue.control_and"(%391, %done_85) : (!equeue.signal, !equeue.signal) -> !equeue.signal
      %done_86 = "equeue.launch"(%385, %222, %225, %223, %224, %231, %253, %123) ( {
      ^bb0(%arg5: memref<1xf32>, %arg6: memref<1xf32>, %arg7: memref<1xf32>, %arg8: memref<1xf32>, %arg9: memref<1xf32>, %arg10: memref<5x3x3xf32>):  // no predecessors
        %2710 = "equeue.read"(%arg6) {bank = 0 : i64} : (memref<1xf32>) -> f32
        "equeue.write"(%2710, %arg9) {bank = 0 : i64} : (f32, memref<1xf32>) -> ()
        %2711 = "equeue.read"(%arg5) {bank = 1 : i64} : (memref<1xf32>) -> f32
        "equeue.write"(%2711, %arg8) {bank = 1 : i64} : (f32, memref<1xf32>) -> ()
        %2712 = mulf %2711, %2710 : f32
        %2713 = "equeue.read"(%arg7) {bank = 2 : i64} : (memref<1xf32>) -> f32
        %2714 = addf %2712, %2713 : f32
        "equeue.write"(%2714, %arg7) {bank = 2 : i64} : (f32, memref<1xf32>) -> ()
        "equeue.return"() : () -> ()
      }) : (!equeue.signal, i32, memref<1xf32>, memref<1xf32>, memref<1xf32>, memref<1xf32>, memref<1xf32>, memref<5x3x3xf32>) -> !equeue.signal
      %393 = "equeue.control_and"(%392, %done_86) : (!equeue.signal, !equeue.signal) -> !equeue.signal
      %done_87 = "equeue.launch"(%385, %252, %255, %253, %254, %261, %123) ( {
      ^bb0(%arg5: memref<1xf32>, %arg6: memref<1xf32>, %arg7: memref<1xf32>, %arg8: memref<1xf32>, %arg9: memref<5x3x3xf32>):  // no predecessors
        %2710 = "equeue.read"(%arg6) {bank = 0 : i64} : (memref<1xf32>) -> f32
        %2711 = "equeue.read"(%arg5) {bank = 1 : i64} : (memref<1xf32>) -> f32
        "equeue.write"(%2711, %arg8) {bank = 1 : i64} : (f32, memref<1xf32>) -> ()
        %2712 = mulf %2711, %2710 : f32
        %2713 = "equeue.read"(%arg7) {bank = 2 : i64} : (memref<1xf32>) -> f32
        %2714 = addf %2712, %2713 : f32
        "equeue.write"(%2714, %arg7) {bank = 2 : i64} : (f32, memref<1xf32>) -> ()
        "equeue.return"() : () -> ()
      }) : (!equeue.signal, i32, memref<1xf32>, memref<1xf32>, memref<1xf32>, memref<1xf32>, memref<5x3x3xf32>) -> !equeue.signal
      %394 = "equeue.control_and"(%393, %done_87) : (!equeue.signal, !equeue.signal) -> !equeue.signal
      %done_88 = "equeue.launch"(%385, %138, %141, %139, %140, %147, %169, %123) ( {
      ^bb0(%arg5: memref<1xf32>, %arg6: memref<1xf32>, %arg7: memref<1xf32>, %arg8: memref<1xf32>, %arg9: memref<1xf32>, %arg10: memref<5x3x3xf32>):  // no predecessors
        %2710 = "equeue.read"(%arg6) {bank = 0 : i64} : (memref<1xf32>) -> f32
        "equeue.write"(%2710, %arg9) {bank = 0 : i64} : (f32, memref<1xf32>) -> ()
        %2711 = "equeue.read"(%arg5) {bank = 1 : i64} : (memref<1xf32>) -> f32
        "equeue.write"(%2711, %arg8) {bank = 1 : i64} : (f32, memref<1xf32>) -> ()
        %2712 = mulf %2711, %2710 : f32
        %2713 = "equeue.read"(%arg7) {bank = 2 : i64} : (memref<1xf32>) -> f32
        %2714 = addf %2712, %2713 : f32
        "equeue.write"(%2714, %arg7) {bank = 2 : i64} : (f32, memref<1xf32>) -> ()
        "equeue.return"() : () -> ()
      }) : (!equeue.signal, i32, memref<1xf32>, memref<1xf32>, memref<1xf32>, memref<1xf32>, memref<1xf32>, memref<5x3x3xf32>) -> !equeue.signal
      %395 = "equeue.control_and"(%394, %done_88) : (!equeue.signal, !equeue.signal) -> !equeue.signal
      %done_89 = "equeue.launch"(%385, %168, %171, %169, %170, %177, %199, %123) ( {
      ^bb0(%arg5: memref<1xf32>, %arg6: memref<1xf32>, %arg7: memref<1xf32>, %arg8: memref<1xf32>, %arg9: memref<1xf32>, %arg10: memref<5x3x3xf32>):  // no predecessors
        %2710 = "equeue.read"(%arg6) {bank = 0 : i64} : (memref<1xf32>) -> f32
        "equeue.write"(%2710, %arg9) {bank = 0 : i64} : (f32, memref<1xf32>) -> ()
        %2711 = "equeue.read"(%arg5) {bank = 1 : i64} : (memref<1xf32>) -> f32
        "equeue.write"(%2711, %arg8) {bank = 1 : i64} : (f32, memref<1xf32>) -> ()
        %2712 = mulf %2711, %2710 : f32
        %2713 = "equeue.read"(%arg7) {bank = 2 : i64} : (memref<1xf32>) -> f32
        %2714 = addf %2712, %2713 : f32
        "equeue.write"(%2714, %arg7) {bank = 2 : i64} : (f32, memref<1xf32>) -> ()
        "equeue.return"() : () -> ()
      }) : (!equeue.signal, i32, memref<1xf32>, memref<1xf32>, memref<1xf32>, memref<1xf32>, memref<1xf32>, memref<5x3x3xf32>) -> !equeue.signal
      %396 = "equeue.control_and"(%395, %done_89) : (!equeue.signal, !equeue.signal) -> !equeue.signal
      %done_90 = "equeue.launch"(%385, %198, %201, %199, %200, %207, %229, %123) ( {
      ^bb0(%arg5: memref<1xf32>, %arg6: memref<1xf32>, %arg7: memref<1xf32>, %arg8: memref<1xf32>, %arg9: memref<1xf32>, %arg10: memref<5x3x3xf32>):  // no predecessors
        %2710 = "equeue.read"(%arg6) {bank = 0 : i64} : (memref<1xf32>) -> f32
        "equeue.write"(%2710, %arg9) {bank = 0 : i64} : (f32, memref<1xf32>) -> ()
        %2711 = "equeue.read"(%arg5) {bank = 1 : i64} : (memref<1xf32>) -> f32
        "equeue.write"(%2711, %arg8) {bank = 1 : i64} : (f32, memref<1xf32>) -> ()
        %2712 = mulf %2711, %2710 : f32
        %2713 = "equeue.read"(%arg7) {bank = 2 : i64} : (memref<1xf32>) -> f32
        %2714 = addf %2712, %2713 : f32
        "equeue.write"(%2714, %arg7) {bank = 2 : i64} : (f32, memref<1xf32>) -> ()
        "equeue.return"() : () -> ()
      }) : (!equeue.signal, i32, memref<1xf32>, memref<1xf32>, memref<1xf32>, memref<1xf32>, memref<1xf32>, memref<5x3x3xf32>) -> !equeue.signal
      %397 = "equeue.control_and"(%396, %done_90) : (!equeue.signal, !equeue.signal) -> !equeue.signal
      %done_91 = "equeue.launch"(%385, %228, %231, %229, %230, %237, %259, %123) ( {
      ^bb0(%arg5: memref<1xf32>, %arg6: memref<1xf32>, %arg7: memref<1xf32>, %arg8: memref<1xf32>, %arg9: memref<1xf32>, %arg10: memref<5x3x3xf32>):  // no predecessors
        %2710 = "equeue.read"(%arg6) {bank = 0 : i64} : (memref<1xf32>) -> f32
        "equeue.write"(%2710, %arg9) {bank = 0 : i64} : (f32, memref<1xf32>) -> ()
        %2711 = "equeue.read"(%arg5) {bank = 1 : i64} : (memref<1xf32>) -> f32
        "equeue.write"(%2711, %arg8) {bank = 1 : i64} : (f32, memref<1xf32>) -> ()
        %2712 = mulf %2711, %2710 : f32
        %2713 = "equeue.read"(%arg7) {bank = 2 : i64} : (memref<1xf32>) -> f32
        %2714 = addf %2712, %2713 : f32
        "equeue.write"(%2714, %arg7) {bank = 2 : i64} : (f32, memref<1xf32>) -> ()
        "equeue.return"() : () -> ()
      }) : (!equeue.signal, i32, memref<1xf32>, memref<1xf32>, memref<1xf32>, memref<1xf32>, memref<1xf32>, memref<5x3x3xf32>) -> !equeue.signal
      %398 = "equeue.control_and"(%397, %done_91) : (!equeue.signal, !equeue.signal) -> !equeue.signal
      %done_92 = "equeue.launch"(%385, %258, %261, %259, %260, %267, %123) ( {
      ^bb0(%arg5: memref<1xf32>, %arg6: memref<1xf32>, %arg7: memref<1xf32>, %arg8: memref<1xf32>, %arg9: memref<5x3x3xf32>):  // no predecessors
        %2710 = "equeue.read"(%arg6) {bank = 0 : i64} : (memref<1xf32>) -> f32
        %2711 = "equeue.read"(%arg5) {bank = 1 : i64} : (memref<1xf32>) -> f32
        "equeue.write"(%2711, %arg8) {bank = 1 : i64} : (f32, memref<1xf32>) -> ()
        %2712 = mulf %2711, %2710 : f32
        %2713 = "equeue.read"(%arg7) {bank = 2 : i64} : (memref<1xf32>) -> f32
        %2714 = addf %2712, %2713 : f32
        "equeue.write"(%2714, %arg7) {bank = 2 : i64} : (f32, memref<1xf32>) -> ()
        "equeue.return"() : () -> ()
      }) : (!equeue.signal, i32, memref<1xf32>, memref<1xf32>, memref<1xf32>, memref<1xf32>, memref<5x3x3xf32>) -> !equeue.signal
      %399 = "equeue.control_and"(%398, %done_92) : (!equeue.signal, !equeue.signal) -> !equeue.signal
      %done_93 = "equeue.launch"(%385, %144, %147, %145, %146, %153, %175, %123) ( {
      ^bb0(%arg5: memref<1xf32>, %arg6: memref<1xf32>, %arg7: memref<1xf32>, %arg8: memref<1xf32>, %arg9: memref<1xf32>, %arg10: memref<5x3x3xf32>):  // no predecessors
        %2710 = "equeue.read"(%arg6) {bank = 0 : i64} : (memref<1xf32>) -> f32
        "equeue.write"(%2710, %arg9) {bank = 0 : i64} : (f32, memref<1xf32>) -> ()
        %2711 = "equeue.read"(%arg5) {bank = 1 : i64} : (memref<1xf32>) -> f32
        "equeue.write"(%2711, %arg8) {bank = 1 : i64} : (f32, memref<1xf32>) -> ()
        %2712 = mulf %2711, %2710 : f32
        %2713 = "equeue.read"(%arg7) {bank = 2 : i64} : (memref<1xf32>) -> f32
        %2714 = addf %2712, %2713 : f32
        "equeue.write"(%2714, %arg7) {bank = 2 : i64} : (f32, memref<1xf32>) -> ()
        "equeue.return"() : () -> ()
      }) : (!equeue.signal, i32, memref<1xf32>, memref<1xf32>, memref<1xf32>, memref<1xf32>, memref<1xf32>, memref<5x3x3xf32>) -> !equeue.signal
      %400 = "equeue.control_and"(%399, %done_93) : (!equeue.signal, !equeue.signal) -> !equeue.signal
      %done_94 = "equeue.launch"(%385, %174, %177, %175, %176, %183, %205, %123) ( {
      ^bb0(%arg5: memref<1xf32>, %arg6: memref<1xf32>, %arg7: memref<1xf32>, %arg8: memref<1xf32>, %arg9: memref<1xf32>, %arg10: memref<5x3x3xf32>):  // no predecessors
        %2710 = "equeue.read"(%arg6) {bank = 0 : i64} : (memref<1xf32>) -> f32
        "equeue.write"(%2710, %arg9) {bank = 0 : i64} : (f32, memref<1xf32>) -> ()
        %2711 = "equeue.read"(%arg5) {bank = 1 : i64} : (memref<1xf32>) -> f32
        "equeue.write"(%2711, %arg8) {bank = 1 : i64} : (f32, memref<1xf32>) -> ()
        %2712 = mulf %2711, %2710 : f32
        %2713 = "equeue.read"(%arg7) {bank = 2 : i64} : (memref<1xf32>) -> f32
        %2714 = addf %2712, %2713 : f32
        "equeue.write"(%2714, %arg7) {bank = 2 : i64} : (f32, memref<1xf32>) -> ()
        "equeue.return"() : () -> ()
      }) : (!equeue.signal, i32, memref<1xf32>, memref<1xf32>, memref<1xf32>, memref<1xf32>, memref<1xf32>, memref<5x3x3xf32>) -> !equeue.signal
      %401 = "equeue.control_and"(%400, %done_94) : (!equeue.signal, !equeue.signal) -> !equeue.signal
      %done_95 = "equeue.launch"(%385, %204, %207, %205, %206, %213, %235, %123) ( {
      ^bb0(%arg5: memref<1xf32>, %arg6: memref<1xf32>, %arg7: memref<1xf32>, %arg8: memref<1xf32>, %arg9: memref<1xf32>, %arg10: memref<5x3x3xf32>):  // no predecessors
        %2710 = "equeue.read"(%arg6) {bank = 0 : i64} : (memref<1xf32>) -> f32
        "equeue.write"(%2710, %arg9) {bank = 0 : i64} : (f32, memref<1xf32>) -> ()
        %2711 = "equeue.read"(%arg5) {bank = 1 : i64} : (memref<1xf32>) -> f32
        "equeue.write"(%2711, %arg8) {bank = 1 : i64} : (f32, memref<1xf32>) -> ()
        %2712 = mulf %2711, %2710 : f32
        %2713 = "equeue.read"(%arg7) {bank = 2 : i64} : (memref<1xf32>) -> f32
        %2714 = addf %2712, %2713 : f32
        "equeue.write"(%2714, %arg7) {bank = 2 : i64} : (f32, memref<1xf32>) -> ()
        "equeue.return"() : () -> ()
      }) : (!equeue.signal, i32, memref<1xf32>, memref<1xf32>, memref<1xf32>, memref<1xf32>, memref<1xf32>, memref<5x3x3xf32>) -> !equeue.signal
      %402 = "equeue.control_and"(%401, %done_95) : (!equeue.signal, !equeue.signal) -> !equeue.signal
      %done_96 = "equeue.launch"(%385, %234, %237, %235, %236, %243, %265, %123) ( {
      ^bb0(%arg5: memref<1xf32>, %arg6: memref<1xf32>, %arg7: memref<1xf32>, %arg8: memref<1xf32>, %arg9: memref<1xf32>, %arg10: memref<5x3x3xf32>):  // no predecessors
        %2710 = "equeue.read"(%arg6) {bank = 0 : i64} : (memref<1xf32>) -> f32
        "equeue.write"(%2710, %arg9) {bank = 0 : i64} : (f32, memref<1xf32>) -> ()
        %2711 = "equeue.read"(%arg5) {bank = 1 : i64} : (memref<1xf32>) -> f32
        "equeue.write"(%2711, %arg8) {bank = 1 : i64} : (f32, memref<1xf32>) -> ()
        %2712 = mulf %2711, %2710 : f32
        %2713 = "equeue.read"(%arg7) {bank = 2 : i64} : (memref<1xf32>) -> f32
        %2714 = addf %2712, %2713 : f32
        "equeue.write"(%2714, %arg7) {bank = 2 : i64} : (f32, memref<1xf32>) -> ()
        "equeue.return"() : () -> ()
      }) : (!equeue.signal, i32, memref<1xf32>, memref<1xf32>, memref<1xf32>, memref<1xf32>, memref<1xf32>, memref<5x3x3xf32>) -> !equeue.signal
      %403 = "equeue.control_and"(%402, %done_96) : (!equeue.signal, !equeue.signal) -> !equeue.signal
      %done_97 = "equeue.launch"(%385, %264, %267, %265, %266, %273, %123) ( {
      ^bb0(%arg5: memref<1xf32>, %arg6: memref<1xf32>, %arg7: memref<1xf32>, %arg8: memref<1xf32>, %arg9: memref<5x3x3xf32>):  // no predecessors
        %2710 = "equeue.read"(%arg6) {bank = 0 : i64} : (memref<1xf32>) -> f32
        %2711 = "equeue.read"(%arg5) {bank = 1 : i64} : (memref<1xf32>) -> f32
        "equeue.write"(%2711, %arg8) {bank = 1 : i64} : (f32, memref<1xf32>) -> ()
        %2712 = mulf %2711, %2710 : f32
        %2713 = "equeue.read"(%arg7) {bank = 2 : i64} : (memref<1xf32>) -> f32
        %2714 = addf %2712, %2713 : f32
        "equeue.write"(%2714, %arg7) {bank = 2 : i64} : (f32, memref<1xf32>) -> ()
        "equeue.return"() : () -> ()
      }) : (!equeue.signal, i32, memref<1xf32>, memref<1xf32>, memref<1xf32>, memref<1xf32>, memref<5x3x3xf32>) -> !equeue.signal
      %404 = "equeue.control_and"(%403, %done_97) : (!equeue.signal, !equeue.signal) -> !equeue.signal
      %done_98 = "equeue.launch"(%385, %150, %153, %151, %152, %181, %123) ( {
      ^bb0(%arg5: memref<1xf32>, %arg6: memref<1xf32>, %arg7: memref<1xf32>, %arg8: memref<1xf32>, %arg9: memref<5x3x3xf32>):  // no predecessors
        %2710 = "equeue.read"(%arg6) {bank = 0 : i64} : (memref<1xf32>) -> f32
        "equeue.write"(%2710, %arg8) {bank = 0 : i64} : (f32, memref<1xf32>) -> ()
        %2711 = "equeue.read"(%arg5) {bank = 1 : i64} : (memref<1xf32>) -> f32
        %2712 = mulf %2711, %2710 : f32
        %2713 = "equeue.read"(%arg7) {bank = 2 : i64} : (memref<1xf32>) -> f32
        %2714 = addf %2712, %2713 : f32
        "equeue.write"(%2714, %arg7) {bank = 2 : i64} : (f32, memref<1xf32>) -> ()
        "equeue.return"() : () -> ()
      }) : (!equeue.signal, i32, memref<1xf32>, memref<1xf32>, memref<1xf32>, memref<1xf32>, memref<5x3x3xf32>) -> !equeue.signal
      %405 = "equeue.control_and"(%404, %done_98) : (!equeue.signal, !equeue.signal) -> !equeue.signal
      %done_99 = "equeue.launch"(%385, %180, %183, %181, %182, %211, %123) ( {
      ^bb0(%arg5: memref<1xf32>, %arg6: memref<1xf32>, %arg7: memref<1xf32>, %arg8: memref<1xf32>, %arg9: memref<5x3x3xf32>):  // no predecessors
        %2710 = "equeue.read"(%arg6) {bank = 0 : i64} : (memref<1xf32>) -> f32
        "equeue.write"(%2710, %arg8) {bank = 0 : i64} : (f32, memref<1xf32>) -> ()
        %2711 = "equeue.read"(%arg5) {bank = 1 : i64} : (memref<1xf32>) -> f32
        %2712 = mulf %2711, %2710 : f32
        %2713 = "equeue.read"(%arg7) {bank = 2 : i64} : (memref<1xf32>) -> f32
        %2714 = addf %2712, %2713 : f32
        "equeue.write"(%2714, %arg7) {bank = 2 : i64} : (f32, memref<1xf32>) -> ()
        "equeue.return"() : () -> ()
      }) : (!equeue.signal, i32, memref<1xf32>, memref<1xf32>, memref<1xf32>, memref<1xf32>, memref<5x3x3xf32>) -> !equeue.signal
      %406 = "equeue.control_and"(%405, %done_99) : (!equeue.signal, !equeue.signal) -> !equeue.signal
      %done_100 = "equeue.launch"(%385, %210, %213, %211, %212, %241, %123) ( {
      ^bb0(%arg5: memref<1xf32>, %arg6: memref<1xf32>, %arg7: memref<1xf32>, %arg8: memref<1xf32>, %arg9: memref<5x3x3xf32>):  // no predecessors
        %2710 = "equeue.read"(%arg6) {bank = 0 : i64} : (memref<1xf32>) -> f32
        "equeue.write"(%2710, %arg8) {bank = 0 : i64} : (f32, memref<1xf32>) -> ()
        %2711 = "equeue.read"(%arg5) {bank = 1 : i64} : (memref<1xf32>) -> f32
        %2712 = mulf %2711, %2710 : f32
        %2713 = "equeue.read"(%arg7) {bank = 2 : i64} : (memref<1xf32>) -> f32
        %2714 = addf %2712, %2713 : f32
        "equeue.write"(%2714, %arg7) {bank = 2 : i64} : (f32, memref<1xf32>) -> ()
        "equeue.return"() : () -> ()
      }) : (!equeue.signal, i32, memref<1xf32>, memref<1xf32>, memref<1xf32>, memref<1xf32>, memref<5x3x3xf32>) -> !equeue.signal
      %407 = "equeue.control_and"(%406, %done_100) : (!equeue.signal, !equeue.signal) -> !equeue.signal
      %done_101 = "equeue.launch"(%385, %240, %243, %241, %242, %271, %123) ( {
      ^bb0(%arg5: memref<1xf32>, %arg6: memref<1xf32>, %arg7: memref<1xf32>, %arg8: memref<1xf32>, %arg9: memref<5x3x3xf32>):  // no predecessors
        %2710 = "equeue.read"(%arg6) {bank = 0 : i64} : (memref<1xf32>) -> f32
        "equeue.write"(%2710, %arg8) {bank = 0 : i64} : (f32, memref<1xf32>) -> ()
        %2711 = "equeue.read"(%arg5) {bank = 1 : i64} : (memref<1xf32>) -> f32
        %2712 = mulf %2711, %2710 : f32
        %2713 = "equeue.read"(%arg7) {bank = 2 : i64} : (memref<1xf32>) -> f32
        %2714 = addf %2712, %2713 : f32
        "equeue.write"(%2714, %arg7) {bank = 2 : i64} : (f32, memref<1xf32>) -> ()
        "equeue.return"() : () -> ()
      }) : (!equeue.signal, i32, memref<1xf32>, memref<1xf32>, memref<1xf32>, memref<1xf32>, memref<5x3x3xf32>) -> !equeue.signal
      %408 = "equeue.control_and"(%407, %done_101) : (!equeue.signal, !equeue.signal) -> !equeue.signal
      %done_102 = "equeue.launch"(%385, %270, %273, %271, %272, %123) ( {
      ^bb0(%arg5: memref<1xf32>, %arg6: memref<1xf32>, %arg7: memref<1xf32>, %arg8: memref<5x3x3xf32>):  // no predecessors
        %2710 = "equeue.read"(%arg6) {bank = 0 : i64} : (memref<1xf32>) -> f32
        %2711 = "equeue.read"(%arg5) {bank = 1 : i64} : (memref<1xf32>) -> f32
        %2712 = mulf %2711, %2710 : f32
        %2713 = "equeue.read"(%arg7) {bank = 2 : i64} : (memref<1xf32>) -> f32
        %2714 = addf %2712, %2713 : f32
        "equeue.write"(%2714, %arg7) {bank = 2 : i64} : (f32, memref<1xf32>) -> ()
        "equeue.return"() : () -> ()
      }) : (!equeue.signal, i32, memref<1xf32>, memref<1xf32>, memref<1xf32>, memref<5x3x3xf32>) -> !equeue.signal
      %409 = "equeue.control_and"(%408, %done_102) : (!equeue.signal, !equeue.signal) -> !equeue.signal
      "equeue.await"(%409) : (!equeue.signal) -> ()
      %410 = "equeue.control_start"() : () -> !equeue.signal
      %c0_103 = constant 0 : index
      %411 = "equeue.memcpy"(%410, %122, %127, %111, %c0_103) {dest_bank = 0 : i64, src_bank = 0 : i64} : (!equeue.signal, memref<5x3x7x3xf32>, memref<1xf32>, i32, index) -> !equeue.signal
      %412 = "equeue.memcpy"(%410, %122, %133, %113, %c0_103) {dest_bank = 0 : i64, src_bank = 1 : i64} : (!equeue.signal, memref<5x3x7x3xf32>, memref<1xf32>, i32, index) -> !equeue.signal
      %413 = "equeue.control_and"(%412, %411) : (!equeue.signal, !equeue.signal) -> !equeue.signal
      %414 = "equeue.memcpy"(%410, %122, %139, %115, %c0_103) {dest_bank = 0 : i64, src_bank = 2 : i64} : (!equeue.signal, memref<5x3x7x3xf32>, memref<1xf32>, i32, index) -> !equeue.signal
      %415 = "equeue.control_and"(%414, %413) : (!equeue.signal, !equeue.signal) -> !equeue.signal
      %416 = "equeue.memcpy"(%410, %122, %145, %117, %c0_103) {dest_bank = 0 : i64, src_bank = 3 : i64} : (!equeue.signal, memref<5x3x7x3xf32>, memref<1xf32>, i32, index) -> !equeue.signal
      %417 = "equeue.control_and"(%416, %415) : (!equeue.signal, !equeue.signal) -> !equeue.signal
      %418 = "equeue.memcpy"(%410, %122, %151, %119, %c0_103) {dest_bank = 0 : i64, src_bank = 4 : i64} : (!equeue.signal, memref<5x3x7x3xf32>, memref<1xf32>, i32, index) -> !equeue.signal
      %419 = "equeue.control_and"(%418, %417) : (!equeue.signal, !equeue.signal) -> !equeue.signal
      %420 = "equeue.memcpy"(%410, %121, %129, %102, %c0_103) {dest_bank = 1 : i64, src_bank = 0 : i64} : (!equeue.signal, memref<3x7x7xf32>, memref<1xf32>, i32, index) -> !equeue.signal
      %421 = "equeue.memcpy"(%410, %121, %159, %104, %c0_103) {dest_bank = 1 : i64, src_bank = 1 : i64} : (!equeue.signal, memref<3x7x7xf32>, memref<1xf32>, i32, index) -> !equeue.signal
      %422 = "equeue.control_and"(%421, %420) : (!equeue.signal, !equeue.signal) -> !equeue.signal
      %423 = "equeue.memcpy"(%410, %121, %189, %106, %c0_103) {dest_bank = 1 : i64, src_bank = 2 : i64} : (!equeue.signal, memref<3x7x7xf32>, memref<1xf32>, i32, index) -> !equeue.signal
      %424 = "equeue.control_and"(%423, %422) : (!equeue.signal, !equeue.signal) -> !equeue.signal
      %425 = "equeue.memcpy"(%410, %121, %219, %108, %c0_103) {dest_bank = 1 : i64, src_bank = 3 : i64} : (!equeue.signal, memref<3x7x7xf32>, memref<1xf32>, i32, index) -> !equeue.signal
      %426 = "equeue.control_and"(%425, %424) : (!equeue.signal, !equeue.signal) -> !equeue.signal
      %427 = "equeue.memcpy"(%410, %121, %249, %110, %c0_103) {dest_bank = 1 : i64, src_bank = 4 : i64} : (!equeue.signal, memref<3x7x7xf32>, memref<1xf32>, i32, index) -> !equeue.signal
      %428 = "equeue.control_and"(%427, %426) : (!equeue.signal, !equeue.signal) -> !equeue.signal
      "equeue.await"(%428, %419) : (!equeue.signal, !equeue.signal) -> ()
      %429 = "equeue.control_start"() : () -> !equeue.signal
      %done_104 = "equeue.launch"(%429, %126, %129, %127, %128, %135, %157, %123) ( {
      ^bb0(%arg5: memref<1xf32>, %arg6: memref<1xf32>, %arg7: memref<1xf32>, %arg8: memref<1xf32>, %arg9: memref<1xf32>, %arg10: memref<5x3x3xf32>):  // no predecessors
        %2710 = "equeue.read"(%arg6) {bank = 0 : i64} : (memref<1xf32>) -> f32
        "equeue.write"(%2710, %arg9) {bank = 0 : i64} : (f32, memref<1xf32>) -> ()
        %2711 = "equeue.read"(%arg5) {bank = 1 : i64} : (memref<1xf32>) -> f32
        "equeue.write"(%2711, %arg8) {bank = 1 : i64} : (f32, memref<1xf32>) -> ()
        %2712 = mulf %2711, %2710 : f32
        %2713 = "equeue.read"(%arg7) {bank = 2 : i64} : (memref<1xf32>) -> f32
        %2714 = addf %2712, %2713 : f32
        "equeue.write"(%2714, %arg7) {bank = 2 : i64} : (f32, memref<1xf32>) -> ()
        "equeue.return"() : () -> ()
      }) : (!equeue.signal, i32, memref<1xf32>, memref<1xf32>, memref<1xf32>, memref<1xf32>, memref<1xf32>, memref<5x3x3xf32>) -> !equeue.signal
      %done_105 = "equeue.launch"(%429, %156, %159, %157, %158, %165, %187, %123) ( {
      ^bb0(%arg5: memref<1xf32>, %arg6: memref<1xf32>, %arg7: memref<1xf32>, %arg8: memref<1xf32>, %arg9: memref<1xf32>, %arg10: memref<5x3x3xf32>):  // no predecessors
        %2710 = "equeue.read"(%arg6) {bank = 0 : i64} : (memref<1xf32>) -> f32
        "equeue.write"(%2710, %arg9) {bank = 0 : i64} : (f32, memref<1xf32>) -> ()
        %2711 = "equeue.read"(%arg5) {bank = 1 : i64} : (memref<1xf32>) -> f32
        "equeue.write"(%2711, %arg8) {bank = 1 : i64} : (f32, memref<1xf32>) -> ()
        %2712 = mulf %2711, %2710 : f32
        %2713 = "equeue.read"(%arg7) {bank = 2 : i64} : (memref<1xf32>) -> f32
        %2714 = addf %2712, %2713 : f32
        "equeue.write"(%2714, %arg7) {bank = 2 : i64} : (f32, memref<1xf32>) -> ()
        "equeue.return"() : () -> ()
      }) : (!equeue.signal, i32, memref<1xf32>, memref<1xf32>, memref<1xf32>, memref<1xf32>, memref<1xf32>, memref<5x3x3xf32>) -> !equeue.signal
      %430 = "equeue.control_and"(%done_104, %done_105) : (!equeue.signal, !equeue.signal) -> !equeue.signal
      %done_106 = "equeue.launch"(%429, %186, %189, %187, %188, %195, %217, %123) ( {
      ^bb0(%arg5: memref<1xf32>, %arg6: memref<1xf32>, %arg7: memref<1xf32>, %arg8: memref<1xf32>, %arg9: memref<1xf32>, %arg10: memref<5x3x3xf32>):  // no predecessors
        %2710 = "equeue.read"(%arg6) {bank = 0 : i64} : (memref<1xf32>) -> f32
        "equeue.write"(%2710, %arg9) {bank = 0 : i64} : (f32, memref<1xf32>) -> ()
        %2711 = "equeue.read"(%arg5) {bank = 1 : i64} : (memref<1xf32>) -> f32
        "equeue.write"(%2711, %arg8) {bank = 1 : i64} : (f32, memref<1xf32>) -> ()
        %2712 = mulf %2711, %2710 : f32
        %2713 = "equeue.read"(%arg7) {bank = 2 : i64} : (memref<1xf32>) -> f32
        %2714 = addf %2712, %2713 : f32
        "equeue.write"(%2714, %arg7) {bank = 2 : i64} : (f32, memref<1xf32>) -> ()
        "equeue.return"() : () -> ()
      }) : (!equeue.signal, i32, memref<1xf32>, memref<1xf32>, memref<1xf32>, memref<1xf32>, memref<1xf32>, memref<5x3x3xf32>) -> !equeue.signal
      %431 = "equeue.control_and"(%430, %done_106) : (!equeue.signal, !equeue.signal) -> !equeue.signal
      %done_107 = "equeue.launch"(%429, %216, %219, %217, %218, %225, %247, %123) ( {
      ^bb0(%arg5: memref<1xf32>, %arg6: memref<1xf32>, %arg7: memref<1xf32>, %arg8: memref<1xf32>, %arg9: memref<1xf32>, %arg10: memref<5x3x3xf32>):  // no predecessors
        %2710 = "equeue.read"(%arg6) {bank = 0 : i64} : (memref<1xf32>) -> f32
        "equeue.write"(%2710, %arg9) {bank = 0 : i64} : (f32, memref<1xf32>) -> ()
        %2711 = "equeue.read"(%arg5) {bank = 1 : i64} : (memref<1xf32>) -> f32
        "equeue.write"(%2711, %arg8) {bank = 1 : i64} : (f32, memref<1xf32>) -> ()
        %2712 = mulf %2711, %2710 : f32
        %2713 = "equeue.read"(%arg7) {bank = 2 : i64} : (memref<1xf32>) -> f32
        %2714 = addf %2712, %2713 : f32
        "equeue.write"(%2714, %arg7) {bank = 2 : i64} : (f32, memref<1xf32>) -> ()
        "equeue.return"() : () -> ()
      }) : (!equeue.signal, i32, memref<1xf32>, memref<1xf32>, memref<1xf32>, memref<1xf32>, memref<1xf32>, memref<5x3x3xf32>) -> !equeue.signal
      %432 = "equeue.control_and"(%431, %done_107) : (!equeue.signal, !equeue.signal) -> !equeue.signal
      %done_108 = "equeue.launch"(%429, %246, %249, %247, %248, %255, %123) ( {
      ^bb0(%arg5: memref<1xf32>, %arg6: memref<1xf32>, %arg7: memref<1xf32>, %arg8: memref<1xf32>, %arg9: memref<5x3x3xf32>):  // no predecessors
        %2710 = "equeue.read"(%arg6) {bank = 0 : i64} : (memref<1xf32>) -> f32
        %2711 = "equeue.read"(%arg5) {bank = 1 : i64} : (memref<1xf32>) -> f32
        "equeue.write"(%2711, %arg8) {bank = 1 : i64} : (f32, memref<1xf32>) -> ()
        %2712 = mulf %2711, %2710 : f32
        %2713 = "equeue.read"(%arg7) {bank = 2 : i64} : (memref<1xf32>) -> f32
        %2714 = addf %2712, %2713 : f32
        "equeue.write"(%2714, %arg7) {bank = 2 : i64} : (f32, memref<1xf32>) -> ()
        "equeue.return"() : () -> ()
      }) : (!equeue.signal, i32, memref<1xf32>, memref<1xf32>, memref<1xf32>, memref<1xf32>, memref<5x3x3xf32>) -> !equeue.signal
      %433 = "equeue.control_and"(%432, %done_108) : (!equeue.signal, !equeue.signal) -> !equeue.signal
      %done_109 = "equeue.launch"(%429, %132, %135, %133, %134, %141, %163, %123) ( {
      ^bb0(%arg5: memref<1xf32>, %arg6: memref<1xf32>, %arg7: memref<1xf32>, %arg8: memref<1xf32>, %arg9: memref<1xf32>, %arg10: memref<5x3x3xf32>):  // no predecessors
        %2710 = "equeue.read"(%arg6) {bank = 0 : i64} : (memref<1xf32>) -> f32
        "equeue.write"(%2710, %arg9) {bank = 0 : i64} : (f32, memref<1xf32>) -> ()
        %2711 = "equeue.read"(%arg5) {bank = 1 : i64} : (memref<1xf32>) -> f32
        "equeue.write"(%2711, %arg8) {bank = 1 : i64} : (f32, memref<1xf32>) -> ()
        %2712 = mulf %2711, %2710 : f32
        %2713 = "equeue.read"(%arg7) {bank = 2 : i64} : (memref<1xf32>) -> f32
        %2714 = addf %2712, %2713 : f32
        "equeue.write"(%2714, %arg7) {bank = 2 : i64} : (f32, memref<1xf32>) -> ()
        "equeue.return"() : () -> ()
      }) : (!equeue.signal, i32, memref<1xf32>, memref<1xf32>, memref<1xf32>, memref<1xf32>, memref<1xf32>, memref<5x3x3xf32>) -> !equeue.signal
      %434 = "equeue.control_and"(%433, %done_109) : (!equeue.signal, !equeue.signal) -> !equeue.signal
      %done_110 = "equeue.launch"(%429, %162, %165, %163, %164, %171, %193, %123) ( {
      ^bb0(%arg5: memref<1xf32>, %arg6: memref<1xf32>, %arg7: memref<1xf32>, %arg8: memref<1xf32>, %arg9: memref<1xf32>, %arg10: memref<5x3x3xf32>):  // no predecessors
        %2710 = "equeue.read"(%arg6) {bank = 0 : i64} : (memref<1xf32>) -> f32
        "equeue.write"(%2710, %arg9) {bank = 0 : i64} : (f32, memref<1xf32>) -> ()
        %2711 = "equeue.read"(%arg5) {bank = 1 : i64} : (memref<1xf32>) -> f32
        "equeue.write"(%2711, %arg8) {bank = 1 : i64} : (f32, memref<1xf32>) -> ()
        %2712 = mulf %2711, %2710 : f32
        %2713 = "equeue.read"(%arg7) {bank = 2 : i64} : (memref<1xf32>) -> f32
        %2714 = addf %2712, %2713 : f32
        "equeue.write"(%2714, %arg7) {bank = 2 : i64} : (f32, memref<1xf32>) -> ()
        "equeue.return"() : () -> ()
      }) : (!equeue.signal, i32, memref<1xf32>, memref<1xf32>, memref<1xf32>, memref<1xf32>, memref<1xf32>, memref<5x3x3xf32>) -> !equeue.signal
      %435 = "equeue.control_and"(%434, %done_110) : (!equeue.signal, !equeue.signal) -> !equeue.signal
      %done_111 = "equeue.launch"(%429, %192, %195, %193, %194, %201, %223, %123) ( {
      ^bb0(%arg5: memref<1xf32>, %arg6: memref<1xf32>, %arg7: memref<1xf32>, %arg8: memref<1xf32>, %arg9: memref<1xf32>, %arg10: memref<5x3x3xf32>):  // no predecessors
        %2710 = "equeue.read"(%arg6) {bank = 0 : i64} : (memref<1xf32>) -> f32
        "equeue.write"(%2710, %arg9) {bank = 0 : i64} : (f32, memref<1xf32>) -> ()
        %2711 = "equeue.read"(%arg5) {bank = 1 : i64} : (memref<1xf32>) -> f32
        "equeue.write"(%2711, %arg8) {bank = 1 : i64} : (f32, memref<1xf32>) -> ()
        %2712 = mulf %2711, %2710 : f32
        %2713 = "equeue.read"(%arg7) {bank = 2 : i64} : (memref<1xf32>) -> f32
        %2714 = addf %2712, %2713 : f32
        "equeue.write"(%2714, %arg7) {bank = 2 : i64} : (f32, memref<1xf32>) -> ()
        "equeue.return"() : () -> ()
      }) : (!equeue.signal, i32, memref<1xf32>, memref<1xf32>, memref<1xf32>, memref<1xf32>, memref<1xf32>, memref<5x3x3xf32>) -> !equeue.signal
      %436 = "equeue.control_and"(%435, %done_111) : (!equeue.signal, !equeue.signal) -> !equeue.signal
      %done_112 = "equeue.launch"(%429, %222, %225, %223, %224, %231, %253, %123) ( {
      ^bb0(%arg5: memref<1xf32>, %arg6: memref<1xf32>, %arg7: memref<1xf32>, %arg8: memref<1xf32>, %arg9: memref<1xf32>, %arg10: memref<5x3x3xf32>):  // no predecessors
        %2710 = "equeue.read"(%arg6) {bank = 0 : i64} : (memref<1xf32>) -> f32
        "equeue.write"(%2710, %arg9) {bank = 0 : i64} : (f32, memref<1xf32>) -> ()
        %2711 = "equeue.read"(%arg5) {bank = 1 : i64} : (memref<1xf32>) -> f32
        "equeue.write"(%2711, %arg8) {bank = 1 : i64} : (f32, memref<1xf32>) -> ()
        %2712 = mulf %2711, %2710 : f32
        %2713 = "equeue.read"(%arg7) {bank = 2 : i64} : (memref<1xf32>) -> f32
        %2714 = addf %2712, %2713 : f32
        "equeue.write"(%2714, %arg7) {bank = 2 : i64} : (f32, memref<1xf32>) -> ()
        "equeue.return"() : () -> ()
      }) : (!equeue.signal, i32, memref<1xf32>, memref<1xf32>, memref<1xf32>, memref<1xf32>, memref<1xf32>, memref<5x3x3xf32>) -> !equeue.signal
      %437 = "equeue.control_and"(%436, %done_112) : (!equeue.signal, !equeue.signal) -> !equeue.signal
      %done_113 = "equeue.launch"(%429, %252, %255, %253, %254, %261, %123) ( {
      ^bb0(%arg5: memref<1xf32>, %arg6: memref<1xf32>, %arg7: memref<1xf32>, %arg8: memref<1xf32>, %arg9: memref<5x3x3xf32>):  // no predecessors
        %2710 = "equeue.read"(%arg6) {bank = 0 : i64} : (memref<1xf32>) -> f32
        %2711 = "equeue.read"(%arg5) {bank = 1 : i64} : (memref<1xf32>) -> f32
        "equeue.write"(%2711, %arg8) {bank = 1 : i64} : (f32, memref<1xf32>) -> ()
        %2712 = mulf %2711, %2710 : f32
        %2713 = "equeue.read"(%arg7) {bank = 2 : i64} : (memref<1xf32>) -> f32
        %2714 = addf %2712, %2713 : f32
        "equeue.write"(%2714, %arg7) {bank = 2 : i64} : (f32, memref<1xf32>) -> ()
        "equeue.return"() : () -> ()
      }) : (!equeue.signal, i32, memref<1xf32>, memref<1xf32>, memref<1xf32>, memref<1xf32>, memref<5x3x3xf32>) -> !equeue.signal
      %438 = "equeue.control_and"(%437, %done_113) : (!equeue.signal, !equeue.signal) -> !equeue.signal
…
        %2714 = addf %2712, %2713 : f32
        "equeue.write"(%2714, %arg7) {bank = 2 : i64} : (f32, memref<1xf32>) -> ()
        "equeue.return"() : () -> ()
      }) : (!equeue.signal, i32, memref<1xf32>, memref<1xf32>, memref<1xf32>, memref<1xf32>, memref<1xf32>, memref<5x3x3xf32>) -> !equeue.signal
      %2661 = "equeue.control_and"(%2660, %done_1459) : (!equeue.signal, !equeue.signal) -> !equeue.signal
      %done_1460 = "equeue.launch"(%2658, %246, %249, %247, %248, %255, %123) ( {
      ^bb0(%arg5: memref<1xf32>, %arg6: memref<1xf32>, %arg7: memref<1xf32>, %arg8: memref<1xf32>, %arg9: memref<5x3x3xf32>):  // no predecessors
        %2710 = "equeue.read"(%arg6) {bank = 0 : i64} : (memref<1xf32>) -> f32
        %2711 = "equeue.read"(%arg5) {bank = 1 : i64} : (memref<1xf32>) -> f32
        "equeue.write"(%2711, %arg8) {bank = 1 : i64} : (f32, memref<1xf32>) -> ()
        %2712 = mulf %2711, %2710 : f32
        %2713 = "equeue.read"(%arg7) {bank = 2 : i64} : (memref<1xf32>) -> f32
        %2714 = addf %2712, %2713 : f32
        "equeue.write"(%2714, %arg7) {bank = 2 : i64} : (f32, memref<1xf32>) -> ()
        "equeue.return"() : () -> ()
      }) : (!equeue.signal, i32, memref<1xf32>, memref<1xf32>, memref<1xf32>, memref<1xf32>, memref<5x3x3xf32>) -> !equeue.signal
      %2662 = "equeue.control_and"(%2661, %done_1460) : (!equeue.signal, !equeue.signal) -> !equeue.signal
      %done_1461 = "equeue.launch"(%2658, %132, %135, %133, %134, %141, %163, %123) ( {
      ^bb0(%arg5: memref<1xf32>, %arg6: memref<1xf32>, %arg7: memref<1xf32>, %arg8: memref<1xf32>, %arg9: memref<1xf32>, %arg10: memref<5x3x3xf32>):  // no predecessors
        %2710 = "equeue.read"(%arg6) {bank = 0 : i64} : (memref<1xf32>) -> f32
        "equeue.write"(%2710, %arg9) {bank = 0 : i64} : (f32, memref<1xf32>) -> ()
        %2711 = "equeue.read"(%arg5) {bank = 1 : i64} : (memref<1xf32>) -> f32
        "equeue.write"(%2711, %arg8) {bank = 1 : i64} : (f32, memref<1xf32>) -> ()
        %2712 = mulf %2711, %2710 : f32
        %2713 = "equeue.read"(%arg7) {bank = 2 : i64} : (memref<1xf32>) -> f32
        %2714 = addf %2712, %2713 : f32
        "equeue.write"(%2714, %arg7) {bank = 2 : i64} : (f32, memref<1xf32>) -> ()
        "equeue.return"() : () -> ()
      }) : (!equeue.signal, i32, memref<1xf32>, memref<1xf32>, memref<1xf32>, memref<1xf32>, memref<1xf32>, memref<5x3x3xf32>) -> !equeue.signal
      %2663 = "equeue.control_and"(%2662, %done_1461) : (!equeue.signal, !equeue.signal) -> !equeue.signal
      %done_1462 = "equeue.launch"(%2658, %162, %165, %163, %164, %171, %193, %123) ( {
      ^bb0(%arg5: memref<1xf32>, %arg6: memref<1xf32>, %arg7: memref<1xf32>, %arg8: memref<1xf32>, %arg9: memref<1xf32>, %arg10: memref<5x3x3xf32>):  // no predecessors
        %2710 = "equeue.read"(%arg6) {bank = 0 : i64} : (memref<1xf32>) -> f32
        "equeue.write"(%2710, %arg9) {bank = 0 : i64} : (f32, memref<1xf32>) -> ()
        %2711 = "equeue.read"(%arg5) {bank = 1 : i64} : (memref<1xf32>) -> f32
        "equeue.write"(%2711, %arg8) {bank = 1 : i64} : (f32, memref<1xf32>) -> ()
        %2712 = mulf %2711, %2710 : f32
        %2713 = "equeue.read"(%arg7) {bank = 2 : i64} : (memref<1xf32>) -> f32
        %2714 = addf %2712, %2713 : f32
        "equeue.write"(%2714, %arg7) {bank = 2 : i64} : (f32, memref<1xf32>) -> ()
        %cst = constant 7.000000e+00 : f32
        "equeue.write"(%cst, %arg7) {bank = 2 : i64} : (f32, memref<1xf32>) -> ()
        "equeue.write"(%2714, %arg10) {bank = 1 : i64} : (f32, memref<5x3x3xf32>) -> ()
        "equeue.return"() : () -> ()
      }) : (!equeue.signal, i32, memref<1xf32>, memref<1xf32>, memref<1xf32>, memref<1xf32>, memref<1xf32>, memref<5x3x3xf32>) -> !equeue.signal
      %2664 = "equeue.control_and"(%2663, %done_1462) : (!equeue.signal, !equeue.signal) -> !equeue.signal
      %done_1463 = "equeue.launch"(%2658, %192, %195, %193, %194, %201, %223, %123) ( {
      ^bb0(%arg5: memref<1xf32>, %arg6: memref<1xf32>, %arg7: memref<1xf32>, %arg8: memref<1xf32>, %arg9: memref<1xf32>, %arg10: memref<5x3x3xf32>):  // no predecessors
        %2710 = "equeue.read"(%arg6) {bank = 0 : i64} : (memref<1xf32>) -> f32
        "equeue.write"(%2710, %arg9) {bank = 0 : i64} : (f32, memref<1xf32>) -> ()
        %2711 = "equeue.read"(%arg5) {bank = 1 : i64} : (memref<1xf32>) -> f32
        "equeue.write"(%2711, %arg8) {bank = 1 : i64} : (f32, memref<1xf32>) -> ()
        %2712 = mulf %2711, %2710 : f32
        %2713 = "equeue.read"(%arg7) {bank = 2 : i64} : (memref<1xf32>) -> f32
        %2714 = addf %2712, %2713 : f32
        "equeue.write"(%2714, %arg7) {bank = 2 : i64} : (f32, memref<1xf32>) -> ()
        "equeue.return"() : () -> ()
      }) : (!equeue.signal, i32, memref<1xf32>, memref<1xf32>, memref<1xf32>, memref<1xf32>, memref<1xf32>, memref<5x3x3xf32>) -> !equeue.signal
      %2665 = "equeue.control_and"(%2664, %done_1463) : (!equeue.signal, !equeue.signal) -> !equeue.signal
      %done_1464 = "equeue.launch"(%2658, %222, %225, %223, %224, %231, %253, %123) ( {
      ^bb0(%arg5: memref<1xf32>, %arg6: memref<1xf32>, %arg7: memref<1xf32>, %arg8: memref<1xf32>, %arg9: memref<1xf32>, %arg10: memref<5x3x3xf32>):  // no predecessors
        %2710 = "equeue.read"(%arg6) {bank = 0 : i64} : (memref<1xf32>) -> f32
        "equeue.write"(%2710, %arg9) {bank = 0 : i64} : (f32, memref<1xf32>) -> ()
        %2711 = "equeue.read"(%arg5) {bank = 1 : i64} : (memref<1xf32>) -> f32
        "equeue.write"(%2711, %arg8) {bank = 1 : i64} : (f32, memref<1xf32>) -> ()
        %2712 = mulf %2711, %2710 : f32
        %2713 = "equeue.read"(%arg7) {bank = 2 : i64} : (memref<1xf32>) -> f32
        %2714 = addf %2712, %2713 : f32
        "equeue.write"(%2714, %arg7) {bank = 2 : i64} : (f32, memref<1xf32>) -> ()
        "equeue.return"() : () -> ()
      }) : (!equeue.signal, i32, memref<1xf32>, memref<1xf32>, memref<1xf32>, memref<1xf32>, memref<1xf32>, memref<5x3x3xf32>) -> !equeue.signal
      %2666 = "equeue.control_and"(%2665, %done_1464) : (!equeue.signal, !equeue.signal) -> !equeue.signal
      %done_1465 = "equeue.launch"(%2658, %252, %255, %253, %254, %261, %123) ( {
      ^bb0(%arg5: memref<1xf32>, %arg6: memref<1xf32>, %arg7: memref<1xf32>, %arg8: memref<1xf32>, %arg9: memref<5x3x3xf32>):  // no predecessors
        %2710 = "equeue.read"(%arg6) {bank = 0 : i64} : (memref<1xf32>) -> f32
        %2711 = "equeue.read"(%arg5) {bank = 1 : i64} : (memref<1xf32>) -> f32
        "equeue.write"(%2711, %arg8) {bank = 1 : i64} : (f32, memref<1xf32>) -> ()
        %2712 = mulf %2711, %2710 : f32
        %2713 = "equeue.read"(%arg7) {bank = 2 : i64} : (memref<1xf32>) -> f32
        %2714 = addf %2712, %2713 : f32
        "equeue.write"(%2714, %arg7) {bank = 2 : i64} : (f32, memref<1xf32>) -> ()
        "equeue.return"() : () -> ()
      }) : (!equeue.signal, i32, memref<1xf32>, memref<1xf32>, memref<1xf32>, memref<1xf32>, memref<5x3x3xf32>) -> !equeue.signal
      %2667 = "equeue.control_and"(%2666, %done_1465) : (!equeue.signal, !equeue.signal) -> !equeue.signal
      %done_1466 = "equeue.launch"(%2658, %138, %141, %139, %140, %147, %169, %123) ( {
      ^bb0(%arg5: memref<1xf32>, %arg6: memref<1xf32>, %arg7: memref<1xf32>, %arg8: memref<1xf32>, %arg9: memref<1xf32>, %arg10: memref<5x3x3xf32>):  // no predecessors
        %2710 = "equeue.read"(%arg6) {bank = 0 : i64} : (memref<1xf32>) -> f32
        "equeue.write"(%2710, %arg9) {bank = 0 : i64} : (f32, memref<1xf32>) -> ()
        %2711 = "equeue.read"(%arg5) {bank = 1 : i64} : (memref<1xf32>) -> f32
        "equeue.write"(%2711, %arg8) {bank = 1 : i64} : (f32, memref<1xf32>) -> ()
        %2712 = mulf %2711, %2710 : f32
        %2713 = "equeue.read"(%arg7) {bank = 2 : i64} : (memref<1xf32>) -> f32
        %2714 = addf %2712, %2713 : f32
        "equeue.write"(%2714, %arg7) {bank = 2 : i64} : (f32, memref<1xf32>) -> ()
        %cst = constant 7.000000e+00 : f32
        "equeue.write"(%cst, %arg7) {bank = 2 : i64} : (f32, memref<1xf32>) -> ()
        "equeue.write"(%2714, %arg10) {bank = 2 : i64} : (f32, memref<5x3x3xf32>) -> ()
        "equeue.return"() : () -> ()
      }) : (!equeue.signal, i32, memref<1xf32>, memref<1xf32>, memref<1xf32>, memref<1xf32>, memref<1xf32>, memref<5x3x3xf32>) -> !equeue.signal
      %2668 = "equeue.control_and"(%2667, %done_1466) : (!equeue.signal, !equeue.signal) -> !equeue.signal
      %done_1467 = "equeue.launch"(%2658, %168, %171, %169, %170, %177, %199, %123) ( {
      ^bb0(%arg5: memref<1xf32>, %arg6: memref<1xf32>, %arg7: memref<1xf32>, %arg8: memref<1xf32>, %arg9: memref<1xf32>, %arg10: memref<5x3x3xf32>):  // no predecessors
        %2710 = "equeue.read"(%arg6) {bank = 0 : i64} : (memref<1xf32>) -> f32
        "equeue.write"(%2710, %arg9) {bank = 0 : i64} : (f32, memref<1xf32>) -> ()
        %2711 = "equeue.read"(%arg5) {bank = 1 : i64} : (memref<1xf32>) -> f32
        "equeue.write"(%2711, %arg8) {bank = 1 : i64} : (f32, memref<1xf32>) -> ()
        %2712 = mulf %2711, %2710 : f32
        %2713 = "equeue.read"(%arg7) {bank = 2 : i64} : (memref<1xf32>) -> f32
        %2714 = addf %2712, %2713 : f32
        "equeue.write"(%2714, %arg7) {bank = 2 : i64} : (f32, memref<1xf32>) -> ()
        "equeue.return"() : () -> ()
      }) : (!equeue.signal, i32, memref<1xf32>, memref<1xf32>, memref<1xf32>, memref<1xf32>, memref<1xf32>, memref<5x3x3xf32>) -> !equeue.signal
      %2669 = "equeue.control_and"(%2668, %done_1467) : (!equeue.signal, !equeue.signal) -> !equeue.signal
      %done_1468 = "equeue.launch"(%2658, %198, %201, %199, %200, %207, %229, %123) ( {
      ^bb0(%arg5: memref<1xf32>, %arg6: memref<1xf32>, %arg7: memref<1xf32>, %arg8: memref<1xf32>, %arg9: memref<1xf32>, %arg10: memref<5x3x3xf32>):  // no predecessors
        %2710 = "equeue.read"(%arg6) {bank = 0 : i64} : (memref<1xf32>) -> f32
        "equeue.write"(%2710, %arg9) {bank = 0 : i64} : (f32, memref<1xf32>) -> ()
        %2711 = "equeue.read"(%arg5) {bank = 1 : i64} : (memref<1xf32>) -> f32
        "equeue.write"(%2711, %arg8) {bank = 1 : i64} : (f32, memref<1xf32>) -> ()
        %2712 = mulf %2711, %2710 : f32
        %2713 = "equeue.read"(%arg7) {bank = 2 : i64} : (memref<1xf32>) -> f32
        %2714 = addf %2712, %2713 : f32
        "equeue.write"(%2714, %arg7) {bank = 2 : i64} : (f32, memref<1xf32>) -> ()
        "equeue.return"() : () -> ()
      }) : (!equeue.signal, i32, memref<1xf32>, memref<1xf32>, memref<1xf32>, memref<1xf32>, memref<1xf32>, memref<5x3x3xf32>) -> !equeue.signal
      %2670 = "equeue.control_and"(%2669, %done_1468) : (!equeue.signal, !equeue.signal) -> !equeue.signal
      %done_1469 = "equeue.launch"(%2658, %228, %231, %229, %230, %237, %259, %123) ( {
      ^bb0(%arg5: memref<1xf32>, %arg6: memref<1xf32>, %arg7: memref<1xf32>, %arg8: memref<1xf32>, %arg9: memref<1xf32>, %arg10: memref<5x3x3xf32>):  // no predecessors
        %2710 = "equeue.read"(%arg6) {bank = 0 : i64} : (memref<1xf32>) -> f32
        "equeue.write"(%2710, %arg9) {bank = 0 : i64} : (f32, memref<1xf32>) -> ()
        %2711 = "equeue.read"(%arg5) {bank = 1 : i64} : (memref<1xf32>) -> f32
        "equeue.write"(%2711, %arg8) {bank = 1 : i64} : (f32, memref<1xf32>) -> ()
        %2712 = mulf %2711, %2710 : f32
        %2713 = "equeue.read"(%arg7) {bank = 2 : i64} : (memref<1xf32>) -> f32
        %2714 = addf %2712, %2713 : f32
        "equeue.write"(%2714, %arg7) {bank = 2 : i64} : (f32, memref<1xf32>) -> ()
        "equeue.return"() : () -> ()
      }) : (!equeue.signal, i32, memref<1xf32>, memref<1xf32>, memref<1xf32>, memref<1xf32>, memref<1xf32>, memref<5x3x3xf32>) -> !equeue.signal
      %2671 = "equeue.control_and"(%2670, %done_1469) : (!equeue.signal, !equeue.signal) -> !equeue.signal
      %done_1470 = "equeue.launch"(%2658, %258, %261, %259, %260, %267, %123) ( {
      ^bb0(%arg5: memref<1xf32>, %arg6: memref<1xf32>, %arg7: memref<1xf32>, %arg8: memref<1xf32>, %arg9: memref<5x3x3xf32>):  // no predecessors
        %2710 = "equeue.read"(%arg6) {bank = 0 : i64} : (memref<1xf32>) -> f32
        %2711 = "equeue.read"(%arg5) {bank = 1 : i64} : (memref<1xf32>) -> f32
        "equeue.write"(%2711, %arg8) {bank = 1 : i64} : (f32, memref<1xf32>) -> ()
        %2712 = mulf %2711, %2710 : f32
        %2713 = "equeue.read"(%arg7) {bank = 2 : i64} : (memref<1xf32>) -> f32
        %2714 = addf %2712, %2713 : f32
        "equeue.write"(%2714, %arg7) {bank = 2 : i64} : (f32, memref<1xf32>) -> ()
        "equeue.return"() : () -> ()
      }) : (!equeue.signal, i32, memref<1xf32>, memref<1xf32>, memref<1xf32>, memref<1xf32>, memref<5x3x3xf32>) -> !equeue.signal
      %2672 = "equeue.control_and"(%2671, %done_1470) : (!equeue.signal, !equeue.signal) -> !equeue.signal
      %done_1471 = "equeue.launch"(%2658, %144, %147, %145, %146, %153, %175, %123) ( {
      ^bb0(%arg5: memref<1xf32>, %arg6: memref<1xf32>, %arg7: memref<1xf32>, %arg8: memref<1xf32>, %arg9: memref<1xf32>, %arg10: memref<5x3x3xf32>):  // no predecessors
        %2710 = "equeue.read"(%arg6) {bank = 0 : i64} : (memref<1xf32>) -> f32
        "equeue.write"(%2710, %arg9) {bank = 0 : i64} : (f32, memref<1xf32>) -> ()
        %2711 = "equeue.read"(%arg5) {bank = 1 : i64} : (memref<1xf32>) -> f32
        "equeue.write"(%2711, %arg8) {bank = 1 : i64} : (f32, memref<1xf32>) -> ()
        %2712 = mulf %2711, %2710 : f32
        %2713 = "equeue.read"(%arg7) {bank = 2 : i64} : (memref<1xf32>) -> f32
        %2714 = addf %2712, %2713 : f32
        "equeue.write"(%2714, %arg7) {bank = 2 : i64} : (f32, memref<1xf32>) -> ()
        "equeue.return"() : () -> ()
      }) : (!equeue.signal, i32, memref<1xf32>, memref<1xf32>, memref<1xf32>, memref<1xf32>, memref<1xf32>, memref<5x3x3xf32>) -> !equeue.signal
      %2673 = "equeue.control_and"(%2672, %done_1471) : (!equeue.signal, !equeue.signal) -> !equeue.signal
      %done_1472 = "equeue.launch"(%2658, %174, %177, %175, %176, %183, %205, %123) ( {
      ^bb0(%arg5: memref<1xf32>, %arg6: memref<1xf32>, %arg7: memref<1xf32>, %arg8: memref<1xf32>, %arg9: memref<1xf32>, %arg10: memref<5x3x3xf32>):  // no predecessors
        %2710 = "equeue.read"(%arg6) {bank = 0 : i64} : (memref<1xf32>) -> f32
        "equeue.write"(%2710, %arg9) {bank = 0 : i64} : (f32, memref<1xf32>) -> ()
        %2711 = "equeue.read"(%arg5) {bank = 1 : i64} : (memref<1xf32>) -> f32
        "equeue.write"(%2711, %arg8) {bank = 1 : i64} : (f32, memref<1xf32>) -> ()
        %2712 = mulf %2711, %2710 : f32
        %2713 = "equeue.read"(%arg7) {bank = 2 : i64} : (memref<1xf32>) -> f32
        %2714 = addf %2712, %2713 : f32
        "equeue.write"(%2714, %arg7) {bank = 2 : i64} : (f32, memref<1xf32>) -> ()
        "equeue.return"() : () -> ()
      }) : (!equeue.signal, i32, memref<1xf32>, memref<1xf32>, memref<1xf32>, memref<1xf32>, memref<1xf32>, memref<5x3x3xf32>) -> !equeue.signal
      %2674 = "equeue.control_and"(%2673, %done_1472) : (!equeue.signal, !equeue.signal) -> !equeue.signal
      %done_1473 = "equeue.launch"(%2658, %204, %207, %205, %206, %213, %235, %123) ( {
      ^bb0(%arg5: memref<1xf32>, %arg6: memref<1xf32>, %arg7: memref<1xf32>, %arg8: memref<1xf32>, %arg9: memref<1xf32>, %arg10: memref<5x3x3xf32>):  // no predecessors
        %2710 = "equeue.read"(%arg6) {bank = 0 : i64} : (memref<1xf32>) -> f32
        "equeue.write"(%2710, %arg9) {bank = 0 : i64} : (f32, memref<1xf32>) -> ()
        %2711 = "equeue.read"(%arg5) {bank = 1 : i64} : (memref<1xf32>) -> f32
        "equeue.write"(%2711, %arg8) {bank = 1 : i64} : (f32, memref<1xf32>) -> ()
        %2712 = mulf %2711, %2710 : f32
        %2713 = "equeue.read"(%arg7) {bank = 2 : i64} : (memref<1xf32>) -> f32
        %2714 = addf %2712, %2713 : f32
        "equeue.write"(%2714, %arg7) {bank = 2 : i64} : (f32, memref<1xf32>) -> ()
        "equeue.return"() : () -> ()
      }) : (!equeue.signal, i32, memref<1xf32>, memref<1xf32>, memref<1xf32>, memref<1xf32>, memref<1xf32>, memref<5x3x3xf32>) -> !equeue.signal
      %2675 = "equeue.control_and"(%2674, %done_1473) : (!equeue.signal, !equeue.signal) -> !equeue.signal
      %done_1474 = "equeue.launch"(%2658, %234, %237, %235, %236, %243, %265, %123) ( {
      ^bb0(%arg5: memref<1xf32>, %arg6: memref<1xf32>, %arg7: memref<1xf32>, %arg8: memref<1xf32>, %arg9: memref<1xf32>, %arg10: memref<5x3x3xf32>):  // no predecessors
        %2710 = "equeue.read"(%arg6) {bank = 0 : i64} : (memref<1xf32>) -> f32
        "equeue.write"(%2710, %arg9) {bank = 0 : i64} : (f32, memref<1xf32>) -> ()
        %2711 = "equeue.read"(%arg5) {bank = 1 : i64} : (memref<1xf32>) -> f32
        "equeue.write"(%2711, %arg8) {bank = 1 : i64} : (f32, memref<1xf32>) -> ()
        %2712 = mulf %2711, %2710 : f32
        %2713 = "equeue.read"(%arg7) {bank = 2 : i64} : (memref<1xf32>) -> f32
        %2714 = addf %2712, %2713 : f32
        "equeue.write"(%2714, %arg7) {bank = 2 : i64} : (f32, memref<1xf32>) -> ()
        "equeue.return"() : () -> ()
      }) : (!equeue.signal, i32, memref<1xf32>, memref<1xf32>, memref<1xf32>, memref<1xf32>, memref<1xf32>, memref<5x3x3xf32>) -> !equeue.signal
      %2676 = "equeue.control_and"(%2675, %done_1474) : (!equeue.signal, !equeue.signal) -> !equeue.signal
      %done_1475 = "equeue.launch"(%2658, %264, %267, %265, %266, %273, %123) ( {
      ^bb0(%arg5: memref<1xf32>, %arg6: memref<1xf32>, %arg7: memref<1xf32>, %arg8: memref<1xf32>, %arg9: memref<5x3x3xf32>):  // no predecessors
        %2710 = "equeue.read"(%arg6) {bank = 0 : i64} : (memref<1xf32>) -> f32
        %2711 = "equeue.read"(%arg5) {bank = 1 : i64} : (memref<1xf32>) -> f32
        "equeue.write"(%2711, %arg8) {bank = 1 : i64} : (f32, memref<1xf32>) -> ()
        %2712 = mulf %2711, %2710 : f32
        %2713 = "equeue.read"(%arg7) {bank = 2 : i64} : (memref<1xf32>) -> f32
        %2714 = addf %2712, %2713 : f32
        "equeue.write"(%2714, %arg7) {bank = 2 : i64} : (f32, memref<1xf32>) -> ()
        "equeue.return"() : () -> ()
      }) : (!equeue.signal, i32, memref<1xf32>, memref<1xf32>, memref<1xf32>, memref<1xf32>, memref<5x3x3xf32>) -> !equeue.signal
      %2677 = "equeue.control_and"(%2676, %done_1475) : (!equeue.signal, !equeue.signal) -> !equeue.signal
      %done_1476 = "equeue.launch"(%2658, %150, %153, %151, %152, %181, %123) ( {
      ^bb0(%arg5: memref<1xf32>, %arg6: memref<1xf32>, %arg7: memref<1xf32>, %arg8: memref<1xf32>, %arg9: memref<5x3x3xf32>):  // no predecessors
        %2710 = "equeue.read"(%arg6) {bank = 0 : i64} : (memref<1xf32>) -> f32
        "equeue.write"(%2710, %arg8) {bank = 0 : i64} : (f32, memref<1xf32>) -> ()
        %2711 = "equeue.read"(%arg5) {bank = 1 : i64} : (memref<1xf32>) -> f32
        %2712 = mulf %2711, %2710 : f32
        %2713 = "equeue.read"(%arg7) {bank = 2 : i64} : (memref<1xf32>) -> f32
        %2714 = addf %2712, %2713 : f32
        "equeue.write"(%2714, %arg7) {bank = 2 : i64} : (f32, memref<1xf32>) -> ()
        "equeue.return"() : () -> ()
      }) : (!equeue.signal, i32, memref<1xf32>, memref<1xf32>, memref<1xf32>, memref<1xf32>, memref<5x3x3xf32>) -> !equeue.signal
      %2678 = "equeue.control_and"(%2677, %done_1476) : (!equeue.signal, !equeue.signal) -> !equeue.signal
      %done_1477 = "equeue.launch"(%2658, %180, %183, %181, %182, %211, %123) ( {
      ^bb0(%arg5: memref<1xf32>, %arg6: memref<1xf32>, %arg7: memref<1xf32>, %arg8: memref<1xf32>, %arg9: memref<5x3x3xf32>):  // no predecessors
        %2710 = "equeue.read"(%arg6) {bank = 0 : i64} : (memref<1xf32>) -> f32
        "equeue.write"(%2710, %arg8) {bank = 0 : i64} : (f32, memref<1xf32>) -> ()
        %2711 = "equeue.read"(%arg5) {bank = 1 : i64} : (memref<1xf32>) -> f32
        %2712 = mulf %2711, %2710 : f32
        %2713 = "equeue.read"(%arg7) {bank = 2 : i64} : (memref<1xf32>) -> f32
        %2714 = addf %2712, %2713 : f32
        "equeue.write"(%2714, %arg7) {bank = 2 : i64} : (f32, memref<1xf32>) -> ()
        "equeue.return"() : () -> ()
      }) : (!equeue.signal, i32, memref<1xf32>, memref<1xf32>, memref<1xf32>, memref<1xf32>, memref<5x3x3xf32>) -> !equeue.signal
      %2679 = "equeue.control_and"(%2678, %done_1477) : (!equeue.signal, !equeue.signal) -> !equeue.signal
      %done_1478 = "equeue.launch"(%2658, %210, %213, %211, %212, %241, %123) ( {
      ^bb0(%arg5: memref<1xf32>, %arg6: memref<1xf32>, %arg7: memref<1xf32>, %arg8: memref<1xf32>, %arg9: memref<5x3x3xf32>):  // no predecessors
        %2710 = "equeue.read"(%arg6) {bank = 0 : i64} : (memref<1xf32>) -> f32
        "equeue.write"(%2710, %arg8) {bank = 0 : i64} : (f32, memref<1xf32>) -> ()
        %2711 = "equeue.read"(%arg5) {bank = 1 : i64} : (memref<1xf32>) -> f32
        %2712 = mulf %2711, %2710 : f32
        %2713 = "equeue.read"(%arg7) {bank = 2 : i64} : (memref<1xf32>) -> f32
        %2714 = addf %2712, %2713 : f32
        "equeue.write"(%2714, %arg7) {bank = 2 : i64} : (f32, memref<1xf32>) -> ()
        "equeue.return"() : () -> ()
      }) : (!equeue.signal, i32, memref<1xf32>, memref<1xf32>, memref<1xf32>, memref<1xf32>, memref<5x3x3xf32>) -> !equeue.signal
      %2680 = "equeue.control_and"(%2679, %done_1478) : (!equeue.signal, !equeue.signal) -> !equeue.signal
      %done_1479 = "equeue.launch"(%2658, %240, %243, %241, %242, %271, %123) ( {
      ^bb0(%arg5: memref<1xf32>, %arg6: memref<1xf32>, %arg7: memref<1xf32>, %arg8: memref<1xf32>, %arg9: memref<5x3x3xf32>):  // no predecessors
        %2710 = "equeue.read"(%arg6) {bank = 0 : i64} : (memref<1xf32>) -> f32
        "equeue.write"(%2710, %arg8) {bank = 0 : i64} : (f32, memref<1xf32>) -> ()
        %2711 = "equeue.read"(%arg5) {bank = 1 : i64} : (memref<1xf32>) -> f32
        %2712 = mulf %2711, %2710 : f32
        %2713 = "equeue.read"(%arg7) {bank = 2 : i64} : (memref<1xf32>) -> f32
        %2714 = addf %2712, %2713 : f32
        "equeue.write"(%2714, %arg7) {bank = 2 : i64} : (f32, memref<1xf32>) -> ()
        "equeue.return"() : () -> ()
      }) : (!equeue.signal, i32, memref<1xf32>, memref<1xf32>, memref<1xf32>, memref<1xf32>, memref<5x3x3xf32>) -> !equeue.signal
      %2681 = "equeue.control_and"(%2680, %done_1479) : (!equeue.signal, !equeue.signal) -> !equeue.signal
      %done_1480 = "equeue.launch"(%2658, %270, %273, %271, %272, %123) ( {
      ^bb0(%arg5: memref<1xf32>, %arg6: memref<1xf32>, %arg7: memref<1xf32>, %arg8: memref<5x3x3xf32>):  // no predecessors
        %2710 = "equeue.read"(%arg6) {bank = 0 : i64} : (memref<1xf32>) -> f32
        %2711 = "equeue.read"(%arg5) {bank = 1 : i64} : (memref<1xf32>) -> f32
        %2712 = mulf %2711, %2710 : f32
        %2713 = "equeue.read"(%arg7) {bank = 2 : i64} : (memref<1xf32>) -> f32
        %2714 = addf %2712, %2713 : f32
        "equeue.write"(%2714, %arg7) {bank = 2 : i64} : (f32, memref<1xf32>) -> ()
        "equeue.return"() : () -> ()
      }) : (!equeue.signal, i32, memref<1xf32>, memref<1xf32>, memref<1xf32>, memref<5x3x3xf32>) -> !equeue.signal
      %2682 = "equeue.control_and"(%2681, %done_1480) : (!equeue.signal, !equeue.signal) -> !equeue.signal
      "equeue.await"(%2682) : (!equeue.signal) -> ()
      %2683 = "equeue.control_start"() : () -> !equeue.signal
      %c0_1481 = constant 0 : index
      %2684 = "equeue.memcpy"(%2683, %121, %129, %102, %c0_1481) {dest_bank = 1 : i64, src_bank = 0 : i64} : (!equeue.signal, memref<3x7x7xf32>, memref<1xf32>, i32, index) -> !equeue.signal
      "equeue.await"(%2684) : (!equeue.signal) -> ()
      %2685 = "equeue.control_start"() : () -> !equeue.signal
      %done_1482 = "equeue.launch"(%2685, %126, %129, %127, %128, %135, %157, %123) ( {
      ^bb0(%arg5: memref<1xf32>, %arg6: memref<1xf32>, %arg7: memref<1xf32>, %arg8: memref<1xf32>, %arg9: memref<1xf32>, %arg10: memref<5x3x3xf32>):  // no predecessors
        %2710 = "equeue.read"(%arg6) {bank = 0 : i64} : (memref<1xf32>) -> f32
        "equeue.write"(%2710, %arg9) {bank = 0 : i64} : (f32, memref<1xf32>) -> ()
        %2711 = "equeue.read"(%arg5) {bank = 1 : i64} : (memref<1xf32>) -> f32
        "equeue.write"(%2711, %arg8) {bank = 1 : i64} : (f32, memref<1xf32>) -> ()
        %2712 = mulf %2711, %2710 : f32
        %2713 = "equeue.read"(%arg7) {bank = 2 : i64} : (memref<1xf32>) -> f32
        %2714 = addf %2712, %2713 : f32
        "equeue.write"(%2714, %arg7) {bank = 2 : i64} : (f32, memref<1xf32>) -> ()
        "equeue.return"() : () -> ()
      }) : (!equeue.signal, i32, memref<1xf32>, memref<1xf32>, memref<1xf32>, memref<1xf32>, memref<1xf32>, memref<5x3x3xf32>) -> !equeue.signal
      %done_1483 = "equeue.launch"(%2685, %156, %159, %157, %158, %165, %187, %123) ( {
      ^bb0(%arg5: memref<1xf32>, %arg6: memref<1xf32>, %arg7: memref<1xf32>, %arg8: memref<1xf32>, %arg9: memref<1xf32>, %arg10: memref<5x3x3xf32>):  // no predecessors
        %2710 = "equeue.read"(%arg6) {bank = 0 : i64} : (memref<1xf32>) -> f32
        "equeue.write"(%2710, %arg9) {bank = 0 : i64} : (f32, memref<1xf32>) -> ()
        %2711 = "equeue.read"(%arg5) {bank = 1 : i64} : (memref<1xf32>) -> f32
        "equeue.write"(%2711, %arg8) {bank = 1 : i64} : (f32, memref<1xf32>) -> ()
        %2712 = mulf %2711, %2710 : f32
        %2713 = "equeue.read"(%arg7) {bank = 2 : i64} : (memref<1xf32>) -> f32
        %2714 = addf %2712, %2713 : f32
        "equeue.write"(%2714, %arg7) {bank = 2 : i64} : (f32, memref<1xf32>) -> ()
        "equeue.return"() : () -> ()
      }) : (!equeue.signal, i32, memref<1xf32>, memref<1xf32>, memref<1xf32>, memref<1xf32>, memref<1xf32>, memref<5x3x3xf32>) -> !equeue.signal
      %2686 = "equeue.control_and"(%done_1482, %done_1483) : (!equeue.signal, !equeue.signal) -> !equeue.signal
      %done_1484 = "equeue.launch"(%2685, %186, %189, %187, %188, %195, %217, %123) ( {
      ^bb0(%arg5: memref<1xf32>, %arg6: memref<1xf32>, %arg7: memref<1xf32>, %arg8: memref<1xf32>, %arg9: memref<1xf32>, %arg10: memref<5x3x3xf32>):  // no predecessors
        %2710 = "equeue.read"(%arg6) {bank = 0 : i64} : (memref<1xf32>) -> f32
        "equeue.write"(%2710, %arg9) {bank = 0 : i64} : (f32, memref<1xf32>) -> ()
        %2711 = "equeue.read"(%arg5) {bank = 1 : i64} : (memref<1xf32>) -> f32
        "equeue.write"(%2711, %arg8) {bank = 1 : i64} : (f32, memref<1xf32>) -> ()
        %2712 = mulf %2711, %2710 : f32
        %2713 = "equeue.read"(%arg7) {bank = 2 : i64} : (memref<1xf32>) -> f32
        %2714 = addf %2712, %2713 : f32
        "equeue.write"(%2714, %arg7) {bank = 2 : i64} : (f32, memref<1xf32>) -> ()
        "equeue.return"() : () -> ()
      }) : (!equeue.signal, i32, memref<1xf32>, memref<1xf32>, memref<1xf32>, memref<1xf32>, memref<1xf32>, memref<5x3x3xf32>) -> !equeue.signal
      %2687 = "equeue.control_and"(%2686, %done_1484) : (!equeue.signal, !equeue.signal) -> !equeue.signal
      %done_1485 = "equeue.launch"(%2685, %216, %219, %217, %218, %225, %247, %123) ( {
      ^bb0(%arg5: memref<1xf32>, %arg6: memref<1xf32>, %arg7: memref<1xf32>, %arg8: memref<1xf32>, %arg9: memref<1xf32>, %arg10: memref<5x3x3xf32>):  // no predecessors
        %2710 = "equeue.read"(%arg6) {bank = 0 : i64} : (memref<1xf32>) -> f32
        "equeue.write"(%2710, %arg9) {bank = 0 : i64} : (f32, memref<1xf32>) -> ()
        %2711 = "equeue.read"(%arg5) {bank = 1 : i64} : (memref<1xf32>) -> f32
        "equeue.write"(%2711, %arg8) {bank = 1 : i64} : (f32, memref<1xf32>) -> ()
        %2712 = mulf %2711, %2710 : f32
        %2713 = "equeue.read"(%arg7) {bank = 2 : i64} : (memref<1xf32>) -> f32
        %2714 = addf %2712, %2713 : f32
        "equeue.write"(%2714, %arg7) {bank = 2 : i64} : (f32, memref<1xf32>) -> ()
        "equeue.return"() : () -> ()
      }) : (!equeue.signal, i32, memref<1xf32>, memref<1xf32>, memref<1xf32>, memref<1xf32>, memref<1xf32>, memref<5x3x3xf32>) -> !equeue.signal
      %2688 = "equeue.control_and"(%2687, %done_1485) : (!equeue.signal, !equeue.signal) -> !equeue.signal
      %done_1486 = "equeue.launch"(%2685, %246, %249, %247, %248, %255, %123) ( {
      ^bb0(%arg5: memref<1xf32>, %arg6: memref<1xf32>, %arg7: memref<1xf32>, %arg8: memref<1xf32>, %arg9: memref<5x3x3xf32>):  // no predecessors
        %2710 = "equeue.read"(%arg6) {bank = 0 : i64} : (memref<1xf32>) -> f32
        %2711 = "equeue.read"(%arg5) {bank = 1 : i64} : (memref<1xf32>) -> f32
        "equeue.write"(%2711, %arg8) {bank = 1 : i64} : (f32, memref<1xf32>) -> ()
        %2712 = mulf %2711, %2710 : f32
        %2713 = "equeue.read"(%arg7) {bank = 2 : i64} : (memref<1xf32>) -> f32
        %2714 = addf %2712, %2713 : f32
        "equeue.write"(%2714, %arg7) {bank = 2 : i64} : (f32, memref<1xf32>) -> ()
        "equeue.return"() : () -> ()
      }) : (!equeue.signal, i32, memref<1xf32>, memref<1xf32>, memref<1xf32>, memref<1xf32>, memref<5x3x3xf32>) -> !equeue.signal
      %2689 = "equeue.control_and"(%2688, %done_1486) : (!equeue.signal, !equeue.signal) -> !equeue.signal
      %done_1487 = "equeue.launch"(%2685, %132, %135, %133, %134, %141, %163, %123) ( {
      ^bb0(%arg5: memref<1xf32>, %arg6: memref<1xf32>, %arg7: memref<1xf32>, %arg8: memref<1xf32>, %arg9: memref<1xf32>, %arg10: memref<5x3x3xf32>):  // no predecessors
        %2710 = "equeue.read"(%arg6) {bank = 0 : i64} : (memref<1xf32>) -> f32
        "equeue.write"(%2710, %arg9) {bank = 0 : i64} : (f32, memref<1xf32>) -> ()
        %2711 = "equeue.read"(%arg5) {bank = 1 : i64} : (memref<1xf32>) -> f32
        "equeue.write"(%2711, %arg8) {bank = 1 : i64} : (f32, memref<1xf32>) -> ()
        %2712 = mulf %2711, %2710 : f32
        %2713 = "equeue.read"(%arg7) {bank = 2 : i64} : (memref<1xf32>) -> f32
        %2714 = addf %2712, %2713 : f32
        "equeue.write"(%2714, %arg7) {bank = 2 : i64} : (f32, memref<1xf32>) -> ()
        "equeue.return"() : () -> ()
      }) : (!equeue.signal, i32, memref<1xf32>, memref<1xf32>, memref<1xf32>, memref<1xf32>, memref<1xf32>, memref<5x3x3xf32>) -> !equeue.signal
      %2690 = "equeue.control_and"(%2689, %done_1487) : (!equeue.signal, !equeue.signal) -> !equeue.signal
      %done_1488 = "equeue.launch"(%2685, %162, %165, %163, %164, %171, %193, %123) ( {
      ^bb0(%arg5: memref<1xf32>, %arg6: memref<1xf32>, %arg7: memref<1xf32>, %arg8: memref<1xf32>, %arg9: memref<1xf32>, %arg10: memref<5x3x3xf32>):  // no predecessors
        %2710 = "equeue.read"(%arg6) {bank = 0 : i64} : (memref<1xf32>) -> f32
        "equeue.write"(%2710, %arg9) {bank = 0 : i64} : (f32, memref<1xf32>) -> ()
        %2711 = "equeue.read"(%arg5) {bank = 1 : i64} : (memref<1xf32>) -> f32
        "equeue.write"(%2711, %arg8) {bank = 1 : i64} : (f32, memref<1xf32>) -> ()
        %2712 = mulf %2711, %2710 : f32
        %2713 = "equeue.read"(%arg7) {bank = 2 : i64} : (memref<1xf32>) -> f32
        %2714 = addf %2712, %2713 : f32
        "equeue.write"(%2714, %arg7) {bank = 2 : i64} : (f32, memref<1xf32>) -> ()
        "equeue.return"() : () -> ()
      }) : (!equeue.signal, i32, memref<1xf32>, memref<1xf32>, memref<1xf32>, memref<1xf32>, memref<1xf32>, memref<5x3x3xf32>) -> !equeue.signal
      %2691 = "equeue.control_and"(%2690, %done_1488) : (!equeue.signal, !equeue.signal) -> !equeue.signal
      %done_1489 = "equeue.launch"(%2685, %192, %195, %193, %194, %201, %223, %123) ( {
      ^bb0(%arg5: memref<1xf32>, %arg6: memref<1xf32>, %arg7: memref<1xf32>, %arg8: memref<1xf32>, %arg9: memref<1xf32>, %arg10: memref<5x3x3xf32>):  // no predecessors
        %2710 = "equeue.read"(%arg6) {bank = 0 : i64} : (memref<1xf32>) -> f32
        "equeue.write"(%2710, %arg9) {bank = 0 : i64} : (f32, memref<1xf32>) -> ()
        %2711 = "equeue.read"(%arg5) {bank = 1 : i64} : (memref<1xf32>) -> f32
        "equeue.write"(%2711, %arg8) {bank = 1 : i64} : (f32, memref<1xf32>) -> ()
        %2712 = mulf %2711, %2710 : f32
        %2713 = "equeue.read"(%arg7) {bank = 2 : i64} : (memref<1xf32>) -> f32
        %2714 = addf %2712, %2713 : f32
        "equeue.write"(%2714, %arg7) {bank = 2 : i64} : (f32, memref<1xf32>) -> ()
        "equeue.return"() : () -> ()
      }) : (!equeue.signal, i32, memref<1xf32>, memref<1xf32>, memref<1xf32>, memref<1xf32>, memref<1xf32>, memref<5x3x3xf32>) -> !equeue.signal
      %2692 = "equeue.control_and"(%2691, %done_1489) : (!equeue.signal, !equeue.signal) -> !equeue.signal
      %done_1490 = "equeue.launch"(%2685, %222, %225, %223, %224, %231, %253, %123) ( {
      ^bb0(%arg5: memref<1xf32>, %arg6: memref<1xf32>, %arg7: memref<1xf32>, %arg8: memref<1xf32>, %arg9: memref<1xf32>, %arg10: memref<5x3x3xf32>):  // no predecessors
        %2710 = "equeue.read"(%arg6) {bank = 0 : i64} : (memref<1xf32>) -> f32
        "equeue.write"(%2710, %arg9) {bank = 0 : i64} : (f32, memref<1xf32>) -> ()
        %2711 = "equeue.read"(%arg5) {bank = 1 : i64} : (memref<1xf32>) -> f32
        "equeue.write"(%2711, %arg8) {bank = 1 : i64} : (f32, memref<1xf32>) -> ()
        %2712 = mulf %2711, %2710 : f32
        %2713 = "equeue.read"(%arg7) {bank = 2 : i64} : (memref<1xf32>) -> f32
        %2714 = addf %2712, %2713 : f32
        "equeue.write"(%2714, %arg7) {bank = 2 : i64} : (f32, memref<1xf32>) -> ()
        "equeue.return"() : () -> ()
      }) : (!equeue.signal, i32, memref<1xf32>, memref<1xf32>, memref<1xf32>, memref<1xf32>, memref<1xf32>, memref<5x3x3xf32>) -> !equeue.signal
      %2693 = "equeue.control_and"(%2692, %done_1490) : (!equeue.signal, !equeue.signal) -> !equeue.signal
      %done_1491 = "equeue.launch"(%2685, %252, %255, %253, %254, %261, %123) ( {
      ^bb0(%arg5: memref<1xf32>, %arg6: memref<1xf32>, %arg7: memref<1xf32>, %arg8: memref<1xf32>, %arg9: memref<5x3x3xf32>):  // no predecessors
        %2710 = "equeue.read"(%arg6) {bank = 0 : i64} : (memref<1xf32>) -> f32
        %2711 = "equeue.read"(%arg5) {bank = 1 : i64} : (memref<1xf32>) -> f32
        "equeue.write"(%2711, %arg8) {bank = 1 : i64} : (f32, memref<1xf32>) -> ()
        %2712 = mulf %2711, %2710 : f32
        %2713 = "equeue.read"(%arg7) {bank = 2 : i64} : (memref<1xf32>) -> f32
        %2714 = addf %2712, %2713 : f32
        "equeue.write"(%2714, %arg7) {bank = 2 : i64} : (f32, memref<1xf32>) -> ()
        "equeue.return"() : () -> ()
      }) : (!equeue.signal, i32, memref<1xf32>, memref<1xf32>, memref<1xf32>, memref<1xf32>, memref<5x3x3xf32>) -> !equeue.signal
      %2694 = "equeue.control_and"(%2693, %done_1491) : (!equeue.signal, !equeue.signal) -> !equeue.signal
      %done_1492 = "equeue.launch"(%2685, %138, %141, %139, %140, %147, %169, %123) ( {
      ^bb0(%arg5: memref<1xf32>, %arg6: memref<1xf32>, %arg7: memref<1xf32>, %arg8: memref<1xf32>, %arg9: memref<1xf32>, %arg10: memref<5x3x3xf32>):  // no predecessors
        %2710 = "equeue.read"(%arg6) {bank = 0 : i64} : (memref<1xf32>) -> f32
        "equeue.write"(%2710, %arg9) {bank = 0 : i64} : (f32, memref<1xf32>) -> ()
        %2711 = "equeue.read"(%arg5) {bank = 1 : i64} : (memref<1xf32>) -> f32
        "equeue.write"(%2711, %arg8) {bank = 1 : i64} : (f32, memref<1xf32>) -> ()
        %2712 = mulf %2711, %2710 : f32
        %2713 = "equeue.read"(%arg7) {bank = 2 : i64} : (memref<1xf32>) -> f32
        %2714 = addf %2712, %2713 : f32
        "equeue.write"(%2714, %arg7) {bank = 2 : i64} : (f32, memref<1xf32>) -> ()
        "equeue.return"() : () -> ()
      }) : (!equeue.signal, i32, memref<1xf32>, memref<1xf32>, memref<1xf32>, memref<1xf32>, memref<1xf32>, memref<5x3x3xf32>) -> !equeue.signal
      %2695 = "equeue.control_and"(%2694, %done_1492) : (!equeue.signal, !equeue.signal) -> !equeue.signal
      %done_1493 = "equeue.launch"(%2685, %168, %171, %169, %170, %177, %199, %123) ( {
      ^bb0(%arg5: memref<1xf32>, %arg6: memref<1xf32>, %arg7: memref<1xf32>, %arg8: memref<1xf32>, %arg9: memref<1xf32>, %arg10: memref<5x3x3xf32>):  // no predecessors
        %2710 = "equeue.read"(%arg6) {bank = 0 : i64} : (memref<1xf32>) -> f32
        "equeue.write"(%2710, %arg9) {bank = 0 : i64} : (f32, memref<1xf32>) -> ()
        %2711 = "equeue.read"(%arg5) {bank = 1 : i64} : (memref<1xf32>) -> f32
        "equeue.write"(%2711, %arg8) {bank = 1 : i64} : (f32, memref<1xf32>) -> ()
        %2712 = mulf %2711, %2710 : f32
        %2713 = "equeue.read"(%arg7) {bank = 2 : i64} : (memref<1xf32>) -> f32
        %2714 = addf %2712, %2713 : f32
        "equeue.write"(%2714, %arg7) {bank = 2 : i64} : (f32, memref<1xf32>) -> ()
        "equeue.return"() : () -> ()
      }) : (!equeue.signal, i32, memref<1xf32>, memref<1xf32>, memref<1xf32>, memref<1xf32>, memref<1xf32>, memref<5x3x3xf32>) -> !equeue.signal
      %2696 = "equeue.control_and"(%2695, %done_1493) : (!equeue.signal, !equeue.signal) -> !equeue.signal
      %done_1494 = "equeue.launch"(%2685, %198, %201, %199, %200, %207, %229, %123) ( {
      ^bb0(%arg5: memref<1xf32>, %arg6: memref<1xf32>, %arg7: memref<1xf32>, %arg8: memref<1xf32>, %arg9: memref<1xf32>, %arg10: memref<5x3x3xf32>):  // no predecessors
        %2710 = "equeue.read"(%arg6) {bank = 0 : i64} : (memref<1xf32>) -> f32
        "equeue.write"(%2710, %arg9) {bank = 0 : i64} : (f32, memref<1xf32>) -> ()
        %2711 = "equeue.read"(%arg5) {bank = 1 : i64} : (memref<1xf32>) -> f32
        "equeue.write"(%2711, %arg8) {bank = 1 : i64} : (f32, memref<1xf32>) -> ()
        %2712 = mulf %2711, %2710 : f32
        %2713 = "equeue.read"(%arg7) {bank = 2 : i64} : (memref<1xf32>) -> f32
        %2714 = addf %2712, %2713 : f32
        "equeue.write"(%2714, %arg7) {bank = 2 : i64} : (f32, memref<1xf32>) -> ()
        "equeue.return"() : () -> ()
      }) : (!equeue.signal, i32, memref<1xf32>, memref<1xf32>, memref<1xf32>, memref<1xf32>, memref<1xf32>, memref<5x3x3xf32>) -> !equeue.signal
      %2697 = "equeue.control_and"(%2696, %done_1494) : (!equeue.signal, !equeue.signal) -> !equeue.signal
      %done_1495 = "equeue.launch"(%2685, %228, %231, %229, %230, %237, %259, %123) ( {
      ^bb0(%arg5: memref<1xf32>, %arg6: memref<1xf32>, %arg7: memref<1xf32>, %arg8: memref<1xf32>, %arg9: memref<1xf32>, %arg10: memref<5x3x3xf32>):  // no predecessors
        %2710 = "equeue.read"(%arg6) {bank = 0 : i64} : (memref<1xf32>) -> f32
        "equeue.write"(%2710, %arg9) {bank = 0 : i64} : (f32, memref<1xf32>) -> ()
        %2711 = "equeue.read"(%arg5) {bank = 1 : i64} : (memref<1xf32>) -> f32
        "equeue.write"(%2711, %arg8) {bank = 1 : i64} : (f32, memref<1xf32>) -> ()
        %2712 = mulf %2711, %2710 : f32
        %2713 = "equeue.read"(%arg7) {bank = 2 : i64} : (memref<1xf32>) -> f32
        %2714 = addf %2712, %2713 : f32
        "equeue.write"(%2714, %arg7) {bank = 2 : i64} : (f32, memref<1xf32>) -> ()
        "equeue.return"() : () -> ()
      }) : (!equeue.signal, i32, memref<1xf32>, memref<1xf32>, memref<1xf32>, memref<1xf32>, memref<1xf32>, memref<5x3x3xf32>) -> !equeue.signal
      %2698 = "equeue.control_and"(%2697, %done_1495) : (!equeue.signal, !equeue.signal) -> !equeue.signal
      %done_1496 = "equeue.launch"(%2685, %258, %261, %259, %260, %267, %123) ( {
      ^bb0(%arg5: memref<1xf32>, %arg6: memref<1xf32>, %arg7: memref<1xf32>, %arg8: memref<1xf32>, %arg9: memref<5x3x3xf32>):  // no predecessors
        %2710 = "equeue.read"(%arg6) {bank = 0 : i64} : (memref<1xf32>) -> f32
        %2711 = "equeue.read"(%arg5) {bank = 1 : i64} : (memref<1xf32>) -> f32
        "equeue.write"(%2711, %arg8) {bank = 1 : i64} : (f32, memref<1xf32>) -> ()
        %2712 = mulf %2711, %2710 : f32
        %2713 = "equeue.read"(%arg7) {bank = 2 : i64} : (memref<1xf32>) -> f32
        %2714 = addf %2712, %2713 : f32
        "equeue.write"(%2714, %arg7) {bank = 2 : i64} : (f32, memref<1xf32>) -> ()
        "equeue.return"() : () -> ()
      }) : (!equeue.signal, i32, memref<1xf32>, memref<1xf32>, memref<1xf32>, memref<1xf32>, memref<5x3x3xf32>) -> !equeue.signal
      %2699 = "equeue.control_and"(%2698, %done_1496) : (!equeue.signal, !equeue.signal) -> !equeue.signal
      %done_1497 = "equeue.launch"(%2685, %144, %147, %145, %146, %153, %175, %123) ( {
      ^bb0(%arg5: memref<1xf32>, %arg6: memref<1xf32>, %arg7: memref<1xf32>, %arg8: memref<1xf32>, %arg9: memref<1xf32>, %arg10: memref<5x3x3xf32>):  // no predecessors
        %2710 = "equeue.read"(%arg6) {bank = 0 : i64} : (memref<1xf32>) -> f32
        "equeue.write"(%2710, %arg9) {bank = 0 : i64} : (f32, memref<1xf32>) -> ()
        %2711 = "equeue.read"(%arg5) {bank = 1 : i64} : (memref<1xf32>) -> f32
        "equeue.write"(%2711, %arg8) {bank = 1 : i64} : (f32, memref<1xf32>) -> ()
        %2712 = mulf %2711, %2710 : f32
        %2713 = "equeue.read"(%arg7) {bank = 2 : i64} : (memref<1xf32>) -> f32
        %2714 = addf %2712, %2713 : f32
        "equeue.write"(%2714, %arg7) {bank = 2 : i64} : (f32, memref<1xf32>) -> ()
        "equeue.return"() : () -> ()
      }) : (!equeue.signal, i32, memref<1xf32>, memref<1xf32>, memref<1xf32>, memref<1xf32>, memref<1xf32>, memref<5x3x3xf32>) -> !equeue.signal
      %2700 = "equeue.control_and"(%2699, %done_1497) : (!equeue.signal, !equeue.signal) -> !equeue.signal
      %done_1498 = "equeue.launch"(%2685, %174, %177, %175, %176, %183, %205, %123) ( {
      ^bb0(%arg5: memref<1xf32>, %arg6: memref<1xf32>, %arg7: memref<1xf32>, %arg8: memref<1xf32>, %arg9: memref<1xf32>, %arg10: memref<5x3x3xf32>):  // no predecessors
        %2710 = "equeue.read"(%arg6) {bank = 0 : i64} : (memref<1xf32>) -> f32
        "equeue.write"(%2710, %arg9) {bank = 0 : i64} : (f32, memref<1xf32>) -> ()
        %2711 = "equeue.read"(%arg5) {bank = 1 : i64} : (memref<1xf32>) -> f32
        "equeue.write"(%2711, %arg8) {bank = 1 : i64} : (f32, memref<1xf32>) -> ()
        %2712 = mulf %2711, %2710 : f32
        %2713 = "equeue.read"(%arg7) {bank = 2 : i64} : (memref<1xf32>) -> f32
        %2714 = addf %2712, %2713 : f32
        "equeue.write"(%2714, %arg7) {bank = 2 : i64} : (f32, memref<1xf32>) -> ()
        "equeue.return"() : () -> ()
      }) : (!equeue.signal, i32, memref<1xf32>, memref<1xf32>, memref<1xf32>, memref<1xf32>, memref<1xf32>, memref<5x3x3xf32>) -> !equeue.signal
      %2701 = "equeue.control_and"(%2700, %done_1498) : (!equeue.signal, !equeue.signal) -> !equeue.signal
      %done_1499 = "equeue.launch"(%2685, %204, %207, %205, %206, %213, %235, %123) ( {
      ^bb0(%arg5: memref<1xf32>, %arg6: memref<1xf32>, %arg7: memref<1xf32>, %arg8: memref<1xf32>, %arg9: memref<1xf32>, %arg10: memref<5x3x3xf32>):  // no predecessors
        %2710 = "equeue.read"(%arg6) {bank = 0 : i64} : (memref<1xf32>) -> f32
        "equeue.write"(%2710, %arg9) {bank = 0 : i64} : (f32, memref<1xf32>) -> ()
        %2711 = "equeue.read"(%arg5) {bank = 1 : i64} : (memref<1xf32>) -> f32
        "equeue.write"(%2711, %arg8) {bank = 1 : i64} : (f32, memref<1xf32>) -> ()
        %2712 = mulf %2711, %2710 : f32
        %2713 = "equeue.read"(%arg7) {bank = 2 : i64} : (memref<1xf32>) -> f32
        %2714 = addf %2712, %2713 : f32
        "equeue.write"(%2714, %arg7) {bank = 2 : i64} : (f32, memref<1xf32>) -> ()
        "equeue.return"() : () -> ()
      }) : (!equeue.signal, i32, memref<1xf32>, memref<1xf32>, memref<1xf32>, memref<1xf32>, memref<1xf32>, memref<5x3x3xf32>) -> !equeue.signal
      %2702 = "equeue.control_and"(%2701, %done_1499) : (!equeue.signal, !equeue.signal) -> !equeue.signal
      %done_1500 = "equeue.launch"(%2685, %234, %237, %235, %236, %243, %265, %123) ( {
      ^bb0(%arg5: memref<1xf32>, %arg6: memref<1xf32>, %arg7: memref<1xf32>, %arg8: memref<1xf32>, %arg9: memref<1xf32>, %arg10: memref<5x3x3xf32>):  // no predecessors
        %2710 = "equeue.read"(%arg6) {bank = 0 : i64} : (memref<1xf32>) -> f32
        "equeue.write"(%2710, %arg9) {bank = 0 : i64} : (f32, memref<1xf32>) -> ()
        %2711 = "equeue.read"(%arg5) {bank = 1 : i64} : (memref<1xf32>) -> f32
        "equeue.write"(%2711, %arg8) {bank = 1 : i64} : (f32, memref<1xf32>) -> ()
        %2712 = mulf %2711, %2710 : f32
        %2713 = "equeue.read"(%arg7) {bank = 2 : i64} : (memref<1xf32>) -> f32
        %2714 = addf %2712, %2713 : f32
        "equeue.write"(%2714, %arg7) {bank = 2 : i64} : (f32, memref<1xf32>) -> ()
        "equeue.return"() : () -> ()
      }) : (!equeue.signal, i32, memref<1xf32>, memref<1xf32>, memref<1xf32>, memref<1xf32>, memref<1xf32>, memref<5x3x3xf32>) -> !equeue.signal
      %2703 = "equeue.control_and"(%2702, %done_1500) : (!equeue.signal, !equeue.signal) -> !equeue.signal
      %done_1501 = "equeue.launch"(%2685, %264, %267, %265, %266, %273, %123) ( {
      ^bb0(%arg5: memref<1xf32>, %arg6: memref<1xf32>, %arg7: memref<1xf32>, %arg8: memref<1xf32>, %arg9: memref<5x3x3xf32>):  // no predecessors
        %2710 = "equeue.read"(%arg6) {bank = 0 : i64} : (memref<1xf32>) -> f32
        %2711 = "equeue.read"(%arg5) {bank = 1 : i64} : (memref<1xf32>) -> f32
        "equeue.write"(%2711, %arg8) {bank = 1 : i64} : (f32, memref<1xf32>) -> ()
        %2712 = mulf %2711, %2710 : f32
        %2713 = "equeue.read"(%arg7) {bank = 2 : i64} : (memref<1xf32>) -> f32
        %2714 = addf %2712, %2713 : f32
        "equeue.write"(%2714, %arg7) {bank = 2 : i64} : (f32, memref<1xf32>) -> ()
        "equeue.return"() : () -> ()
      }) : (!equeue.signal, i32, memref<1xf32>, memref<1xf32>, memref<1xf32>, memref<1xf32>, memref<5x3x3xf32>) -> !equeue.signal
      %2704 = "equeue.control_and"(%2703, %done_1501) : (!equeue.signal, !equeue.signal) -> !equeue.signal
      %done_1502 = "equeue.launch"(%2685, %150, %153, %151, %152, %181, %123) ( {
      ^bb0(%arg5: memref<1xf32>, %arg6: memref<1xf32>, %arg7: memref<1xf32>, %arg8: memref<1xf32>, %arg9: memref<5x3x3xf32>):  // no predecessors
        %2710 = "equeue.read"(%arg6) {bank = 0 : i64} : (memref<1xf32>) -> f32
        "equeue.write"(%2710, %arg8) {bank = 0 : i64} : (f32, memref<1xf32>) -> ()
        %2711 = "equeue.read"(%arg5) {bank = 1 : i64} : (memref<1xf32>) -> f32
        %2712 = mulf %2711, %2710 : f32
        %2713 = "equeue.read"(%arg7) {bank = 2 : i64} : (memref<1xf32>) -> f32
        %2714 = addf %2712, %2713 : f32
        "equeue.write"(%2714, %arg7) {bank = 2 : i64} : (f32, memref<1xf32>) -> ()
        "equeue.return"() : () -> ()
      }) : (!equeue.signal, i32, memref<1xf32>, memref<1xf32>, memref<1xf32>, memref<1xf32>, memref<5x3x3xf32>) -> !equeue.signal
      %2705 = "equeue.control_and"(%2704, %done_1502) : (!equeue.signal, !equeue.signal) -> !equeue.signal
      %done_1503 = "equeue.launch"(%2685, %180, %183, %181, %182, %211, %123) ( {
      ^bb0(%arg5: memref<1xf32>, %arg6: memref<1xf32>, %arg7: memref<1xf32>, %arg8: memref<1xf32>, %arg9: memref<5x3x3xf32>):  // no predecessors
        %2710 = "equeue.read"(%arg6) {bank = 0 : i64} : (memref<1xf32>) -> f32
        "equeue.write"(%2710, %arg8) {bank = 0 : i64} : (f32, memref<1xf32>) -> ()
        %2711 = "equeue.read"(%arg5) {bank = 1 : i64} : (memref<1xf32>) -> f32
        %2712 = mulf %2711, %2710 : f32
        %2713 = "equeue.read"(%arg7) {bank = 2 : i64} : (memref<1xf32>) -> f32
        %2714 = addf %2712, %2713 : f32
        "equeue.write"(%2714, %arg7) {bank = 2 : i64} : (f32, memref<1xf32>) -> ()
        "equeue.return"() : () -> ()
      }) : (!equeue.signal, i32, memref<1xf32>, memref<1xf32>, memref<1xf32>, memref<1xf32>, memref<5x3x3xf32>) -> !equeue.signal
      %2706 = "equeue.control_and"(%2705, %done_1503) : (!equeue.signal, !equeue.signal) -> !equeue.signal
      %done_1504 = "equeue.launch"(%2685, %210, %213, %211, %212, %241, %123) ( {
      ^bb0(%arg5: memref<1xf32>, %arg6: memref<1xf32>, %arg7: memref<1xf32>, %arg8: memref<1xf32>, %arg9: memref<5x3x3xf32>):  // no predecessors
        %2710 = "equeue.read"(%arg6) {bank = 0 : i64} : (memref<1xf32>) -> f32
        "equeue.write"(%2710, %arg8) {bank = 0 : i64} : (f32, memref<1xf32>) -> ()
        %2711 = "equeue.read"(%arg5) {bank = 1 : i64} : (memref<1xf32>) -> f32
        %2712 = mulf %2711, %2710 : f32
        %2713 = "equeue.read"(%arg7) {bank = 2 : i64} : (memref<1xf32>) -> f32
        %2714 = addf %2712, %2713 : f32
        "equeue.write"(%2714, %arg7) {bank = 2 : i64} : (f32, memref<1xf32>) -> ()
        "equeue.return"() : () -> ()
      }) : (!equeue.signal, i32, memref<1xf32>, memref<1xf32>, memref<1xf32>, memref<1xf32>, memref<5x3x3xf32>) -> !equeue.signal
      %2707 = "equeue.control_and"(%2706, %done_1504) : (!equeue.signal, !equeue.signal) -> !equeue.signal
      %done_1505 = "equeue.launch"(%2685, %240, %243, %241, %242, %271, %123) ( {
      ^bb0(%arg5: memref<1xf32>, %arg6: memref<1xf32>, %arg7: memref<1xf32>, %arg8: memref<1xf32>, %arg9: memref<5x3x3xf32>):  // no predecessors
        %2710 = "equeue.read"(%arg6) {bank = 0 : i64} : (memref<1xf32>) -> f32
        "equeue.write"(%2710, %arg8) {bank = 0 : i64} : (f32, memref<1xf32>) -> ()
        %2711 = "equeue.read"(%arg5) {bank = 1 : i64} : (memref<1xf32>) -> f32
        %2712 = mulf %2711, %2710 : f32
        %2713 = "equeue.read"(%arg7) {bank = 2 : i64} : (memref<1xf32>) -> f32
        %2714 = addf %2712, %2713 : f32
        "equeue.write"(%2714, %arg7) {bank = 2 : i64} : (f32, memref<1xf32>) -> ()
        "equeue.return"() : () -> ()
      }) : (!equeue.signal, i32, memref<1xf32>, memref<1xf32>, memref<1xf32>, memref<1xf32>, memref<5x3x3xf32>) -> !equeue.signal
      %2708 = "equeue.control_and"(%2707, %done_1505) : (!equeue.signal, !equeue.signal) -> !equeue.signal
      %done_1506 = "equeue.launch"(%2685, %270, %273, %271, %272, %123) ( {
      ^bb0(%arg5: memref<1xf32>, %arg6: memref<1xf32>, %arg7: memref<1xf32>, %arg8: memref<5x3x3xf32>):  // no predecessors
        %2710 = "equeue.read"(%arg6) {bank = 0 : i64} : (memref<1xf32>) -> f32
        %2711 = "equeue.read"(%arg5) {bank = 1 : i64} : (memref<1xf32>) -> f32
        %2712 = mulf %2711, %2710 : f32
        %2713 = "equeue.read"(%arg7) {bank = 2 : i64} : (memref<1xf32>) -> f32
        %2714 = addf %2712, %2713 : f32
        "equeue.write"(%2714, %arg7) {bank = 2 : i64} : (f32, memref<1xf32>) -> ()
        "equeue.return"() : () -> ()
      }) : (!equeue.signal, i32, memref<1xf32>, memref<1xf32>, memref<1xf32>, memref<5x3x3xf32>) -> !equeue.signal
      %2709 = "equeue.control_and"(%2708, %done_1506) : (!equeue.signal, !equeue.signal) -> !equeue.signal
      "equeue.await"(%2709) : (!equeue.signal) -> ()
      "equeue.return"() : () -> ()
    }) : (!equeue.signal, i32, i32, memref<3x7x7xf32>, memref<5x3x7x3xf32>) -> !equeue.signal
    return
  }
}
