3 3 45 27 9


module {
  func @graph(%arg0: memref<5x7x7xf32>, %arg1: memref<3x5x7x3xf32>) {
    %0 = "equeue.create_proc"() {name = "proc0,0", type = "AIEngine"} : () -> i32
    %1 = "equeue.create_mem"() {banks = 3 : i64, data = "f32", name = "mem0,0", shape = dense<3> : tensor<1xi64>, type = "RegisterFile"} : () -> i32
    %2 = "equeue.create_comp"(%1, %0) {name = "pe_0,0"} : (i32, i32) -> i32
    %3 = "equeue.create_proc"() {name = "proc0,1", type = "AIEngine"} : () -> i32
    %4 = "equeue.create_mem"() {banks = 3 : i64, data = "f32", name = "mem0,1", shape = dense<3> : tensor<1xi64>, type = "RegisterFile"} : () -> i32
    %5 = "equeue.create_comp"(%4, %3, %2) {name = "pe_0,1"} : (i32, i32, i32) -> i32
    %6 = "equeue.create_proc"() {name = "proc0,2", type = "AIEngine"} : () -> i32
    %7 = "equeue.create_mem"() {banks = 3 : i64, data = "f32", name = "mem0,2", shape = dense<3> : tensor<1xi64>, type = "RegisterFile"} : () -> i32
    %8 = "equeue.create_comp"(%7, %6, %5) {name = "pe_0,2"} : (i32, i32, i32) -> i32
    %9 = "equeue.create_proc"() {name = "proc0,3", type = "AIEngine"} : () -> i32
    %10 = "equeue.create_mem"() {banks = 3 : i64, data = "f32", name = "mem0,3", shape = dense<3> : tensor<1xi64>, type = "RegisterFile"} : () -> i32
    %11 = "equeue.create_comp"(%10, %9, %8) {name = "pe_0,3"} : (i32, i32, i32) -> i32
    %12 = "equeue.create_proc"() {name = "proc0,4", type = "AIEngine"} : () -> i32
    %13 = "equeue.create_mem"() {banks = 3 : i64, data = "f32", name = "mem0,4", shape = dense<3> : tensor<1xi64>, type = "RegisterFile"} : () -> i32
    %14 = "equeue.create_comp"(%13, %12, %11) {name = "pe_0,4"} : (i32, i32, i32) -> i32
    %15 = "equeue.create_proc"() {name = "proc1,0", type = "AIEngine"} : () -> i32
    %16 = "equeue.create_mem"() {banks = 3 : i64, data = "f32", name = "mem1,0", shape = dense<3> : tensor<1xi64>, type = "RegisterFile"} : () -> i32
    %17 = "equeue.create_comp"(%16, %15, %14) {name = "pe_1,0"} : (i32, i32, i32) -> i32
    %18 = "equeue.create_proc"() {name = "proc1,1", type = "AIEngine"} : () -> i32
    %19 = "equeue.create_mem"() {banks = 3 : i64, data = "f32", name = "mem1,1", shape = dense<3> : tensor<1xi64>, type = "RegisterFile"} : () -> i32
    %20 = "equeue.create_comp"(%19, %18, %17) {name = "pe_1,1"} : (i32, i32, i32) -> i32
    %21 = "equeue.create_proc"() {name = "proc1,2", type = "AIEngine"} : () -> i32
    %22 = "equeue.create_mem"() {banks = 3 : i64, data = "f32", name = "mem1,2", shape = dense<3> : tensor<1xi64>, type = "RegisterFile"} : () -> i32
    %23 = "equeue.create_comp"(%22, %21, %20) {name = "pe_1,2"} : (i32, i32, i32) -> i32
    %24 = "equeue.create_proc"() {name = "proc1,3", type = "AIEngine"} : () -> i32
    %25 = "equeue.create_mem"() {banks = 3 : i64, data = "f32", name = "mem1,3", shape = dense<3> : tensor<1xi64>, type = "RegisterFile"} : () -> i32
    %26 = "equeue.create_comp"(%25, %24, %23) {name = "pe_1,3"} : (i32, i32, i32) -> i32
    %27 = "equeue.create_proc"() {name = "proc1,4", type = "AIEngine"} : () -> i32
    %28 = "equeue.create_mem"() {banks = 3 : i64, data = "f32", name = "mem1,4", shape = dense<3> : tensor<1xi64>, type = "RegisterFile"} : () -> i32
    %29 = "equeue.create_comp"(%28, %27, %26) {name = "pe_1,4"} : (i32, i32, i32) -> i32
    %30 = "equeue.create_proc"() {name = "proc2,0", type = "AIEngine"} : () -> i32
    %31 = "equeue.create_mem"() {banks = 3 : i64, data = "f32", name = "mem2,0", shape = dense<3> : tensor<1xi64>, type = "RegisterFile"} : () -> i32
    %32 = "equeue.create_comp"(%31, %30, %29) {name = "pe_2,0"} : (i32, i32, i32) -> i32
    %33 = "equeue.create_proc"() {name = "proc2,1", type = "AIEngine"} : () -> i32
    %34 = "equeue.create_mem"() {banks = 3 : i64, data = "f32", name = "mem2,1", shape = dense<3> : tensor<1xi64>, type = "RegisterFile"} : () -> i32
    %35 = "equeue.create_comp"(%34, %33, %32) {name = "pe_2,1"} : (i32, i32, i32) -> i32
    %36 = "equeue.create_proc"() {name = "proc2,2", type = "AIEngine"} : () -> i32
    %37 = "equeue.create_mem"() {banks = 3 : i64, data = "f32", name = "mem2,2", shape = dense<3> : tensor<1xi64>, type = "RegisterFile"} : () -> i32
    %38 = "equeue.create_comp"(%37, %36, %35) {name = "pe_2,2"} : (i32, i32, i32) -> i32
    %39 = "equeue.create_proc"() {name = "proc2,3", type = "AIEngine"} : () -> i32
    %40 = "equeue.create_mem"() {banks = 3 : i64, data = "f32", name = "mem2,3", shape = dense<3> : tensor<1xi64>, type = "RegisterFile"} : () -> i32
    %41 = "equeue.create_comp"(%40, %39, %38) {name = "pe_2,3"} : (i32, i32, i32) -> i32
    %42 = "equeue.create_proc"() {name = "proc2,4", type = "AIEngine"} : () -> i32
    %43 = "equeue.create_mem"() {banks = 3 : i64, data = "f32", name = "mem2,4", shape = dense<3> : tensor<1xi64>, type = "RegisterFile"} : () -> i32
    %44 = "equeue.create_comp"(%43, %42, %41) {name = "pe_2,4"} : (i32, i32, i32) -> i32
    %45 = "equeue.create_proc"() {name = "proc3,0", type = "AIEngine"} : () -> i32
    %46 = "equeue.create_mem"() {banks = 3 : i64, data = "f32", name = "mem3,0", shape = dense<3> : tensor<1xi64>, type = "RegisterFile"} : () -> i32
    %47 = "equeue.create_comp"(%46, %45, %44) {name = "pe_3,0"} : (i32, i32, i32) -> i32
    %48 = "equeue.create_proc"() {name = "proc3,1", type = "AIEngine"} : () -> i32
    %49 = "equeue.create_mem"() {banks = 3 : i64, data = "f32", name = "mem3,1", shape = dense<3> : tensor<1xi64>, type = "RegisterFile"} : () -> i32
    %50 = "equeue.create_comp"(%49, %48, %47) {name = "pe_3,1"} : (i32, i32, i32) -> i32
    %51 = "equeue.create_proc"() {name = "proc3,2", type = "AIEngine"} : () -> i32
    %52 = "equeue.create_mem"() {banks = 3 : i64, data = "f32", name = "mem3,2", shape = dense<3> : tensor<1xi64>, type = "RegisterFile"} : () -> i32
    %53 = "equeue.create_comp"(%52, %51, %50) {name = "pe_3,2"} : (i32, i32, i32) -> i32
    %54 = "equeue.create_proc"() {name = "proc3,3", type = "AIEngine"} : () -> i32
    %55 = "equeue.create_mem"() {banks = 3 : i64, data = "f32", name = "mem3,3", shape = dense<3> : tensor<1xi64>, type = "RegisterFile"} : () -> i32
    %56 = "equeue.create_comp"(%55, %54, %53) {name = "pe_3,3"} : (i32, i32, i32) -> i32
    %57 = "equeue.create_proc"() {name = "proc3,4", type = "AIEngine"} : () -> i32
    %58 = "equeue.create_mem"() {banks = 3 : i64, data = "f32", name = "mem3,4", shape = dense<3> : tensor<1xi64>, type = "RegisterFile"} : () -> i32
    %59 = "equeue.create_comp"(%58, %57, %56) {name = "pe_3,4"} : (i32, i32, i32) -> i32
    %60 = "equeue.create_proc"() {name = "proc4,0", type = "AIEngine"} : () -> i32
    %61 = "equeue.create_mem"() {banks = 3 : i64, data = "f32", name = "mem4,0", shape = dense<3> : tensor<1xi64>, type = "RegisterFile"} : () -> i32
    %62 = "equeue.create_comp"(%61, %60, %59) {name = "pe_4,0"} : (i32, i32, i32) -> i32
    %63 = "equeue.create_proc"() {name = "proc4,1", type = "AIEngine"} : () -> i32
    %64 = "equeue.create_mem"() {banks = 3 : i64, data = "f32", name = "mem4,1", shape = dense<3> : tensor<1xi64>, type = "RegisterFile"} : () -> i32
    %65 = "equeue.create_comp"(%64, %63, %62) {name = "pe_4,1"} : (i32, i32, i32) -> i32
    %66 = "equeue.create_proc"() {name = "proc4,2", type = "AIEngine"} : () -> i32
    %67 = "equeue.create_mem"() {banks = 3 : i64, data = "f32", name = "mem4,2", shape = dense<3> : tensor<1xi64>, type = "RegisterFile"} : () -> i32
    %68 = "equeue.create_comp"(%67, %66, %65) {name = "pe_4,2"} : (i32, i32, i32) -> i32
    %69 = "equeue.create_proc"() {name = "proc4,3", type = "AIEngine"} : () -> i32
    %70 = "equeue.create_mem"() {banks = 3 : i64, data = "f32", name = "mem4,3", shape = dense<3> : tensor<1xi64>, type = "RegisterFile"} : () -> i32
    %71 = "equeue.create_comp"(%70, %69, %68) {name = "pe_4,3"} : (i32, i32, i32) -> i32
    %72 = "equeue.create_proc"() {name = "proc4,4", type = "AIEngine"} : () -> i32
    %73 = "equeue.create_mem"() {banks = 3 : i64, data = "f32", name = "mem4,4", shape = dense<3> : tensor<1xi64>, type = "RegisterFile"} : () -> i32
    %74 = "equeue.create_comp"(%73, %72, %71) {name = "pe_4,4"} : (i32, i32, i32) -> i32
    %75 = "equeue.create_mem"() {banks = 10 : i64, data = "f32", name = "mem", shape = dense<110592> : tensor<1xi64>, type = "SRAM"} : () -> i32
    %76 = "equeue.create_dma"() {name = "dma0"} : () -> i32
    %77 = "equeue.create_comp"(%76) {name = "dma_col"} : (i32) -> i32
    %78 = "equeue.create_dma"() {name = "dma1"} : () -> i32
    %79 = "equeue.create_comp"(%78, %77) {name = "dma_col"} : (i32, i32) -> i32
    %80 = "equeue.create_dma"() {name = "dma2"} : () -> i32
    %81 = "equeue.create_comp"(%80, %79) {name = "dma_col"} : (i32, i32) -> i32
    %82 = "equeue.create_dma"() {name = "dma3"} : () -> i32
    %83 = "equeue.create_comp"(%82, %81) {name = "dma_col"} : (i32, i32) -> i32
    %84 = "equeue.create_dma"() {name = "dma4"} : () -> i32
    %85 = "equeue.create_comp"(%84, %83) {name = "dma_col"} : (i32, i32) -> i32
    %86 = "equeue.create_dma"() {name = "dma0"} : () -> i32
    %87 = "equeue.create_comp"(%86) {name = "dma_row"} : (i32) -> i32
    %88 = "equeue.create_dma"() {name = "dma1"} : () -> i32
    %89 = "equeue.create_comp"(%88, %87) {name = "dma_row"} : (i32, i32) -> i32
    %90 = "equeue.create_dma"() {name = "dma2"} : () -> i32
    %91 = "equeue.create_comp"(%90, %89) {name = "dma_row"} : (i32, i32) -> i32
    %92 = "equeue.create_dma"() {name = "dma3"} : () -> i32
    %93 = "equeue.create_comp"(%92, %91) {name = "dma_row"} : (i32, i32) -> i32
    %94 = "equeue.create_dma"() {name = "dma4"} : () -> i32
    %95 = "equeue.create_comp"(%94, %93) {name = "dma_row"} : (i32, i32) -> i32
    %96 = "equeue.create_proc"() {name = "proc", type = "MicroPlate"} : () -> i32
    %97 = "equeue.create_comp"(%74, %96, %75, %95, %85) {name = "accel"} : (i32, i32, i32, i32, i32) -> i32
    %98 = "equeue.control_start"() : () -> !equeue.signal
    %done = "equeue.launch"(%98, %96, %97, %arg0, %arg1) ( {
    ^bb0(%arg2: i32, %arg3: memref<5x7x7xf32>, %arg4: memref<3x5x7x3xf32>):  // no predecessors
      %99 = "equeue.get_comp"(%arg2) {name = "proc"} : (i32) -> i32
      %100 = "equeue.get_comp"(%arg2) {name = "dma_row"} : (i32) -> i32
      %101 = "equeue.get_comp"(%arg2) {name = "dma_col"} : (i32) -> i32
      %102 = "equeue.get_comp"(%100) {name = "dma4"} : (i32) -> i32
      %103 = "equeue.get_comp"(%100) {name = "dma_row"} : (i32) -> i32
      %104 = "equeue.get_comp"(%103) {name = "dma3"} : (i32) -> i32
      %105 = "equeue.get_comp"(%103) {name = "dma_row"} : (i32) -> i32
      %106 = "equeue.get_comp"(%105) {name = "dma2"} : (i32) -> i32
      %107 = "equeue.get_comp"(%105) {name = "dma_row"} : (i32) -> i32
      %108 = "equeue.get_comp"(%107) {name = "dma1"} : (i32) -> i32
      %109 = "equeue.get_comp"(%107) {name = "dma_row"} : (i32) -> i32
      %110 = "equeue.get_comp"(%109) {name = "dma0"} : (i32) -> i32
      %111 = "equeue.get_comp"(%101) {name = "dma4"} : (i32) -> i32
      %112 = "equeue.get_comp"(%101) {name = "dma_col"} : (i32) -> i32
      %113 = "equeue.get_comp"(%112) {name = "dma3"} : (i32) -> i32
      %114 = "equeue.get_comp"(%112) {name = "dma_col"} : (i32) -> i32
      %115 = "equeue.get_comp"(%114) {name = "dma2"} : (i32) -> i32
      %116 = "equeue.get_comp"(%114) {name = "dma_col"} : (i32) -> i32
      %117 = "equeue.get_comp"(%116) {name = "dma1"} : (i32) -> i32
      %118 = "equeue.get_comp"(%116) {name = "dma_col"} : (i32) -> i32
      %119 = "equeue.get_comp"(%118) {name = "dma0"} : (i32) -> i32
      %120 = "equeue.get_comp"(%arg2) {name = "mem"} : (i32) -> i32
      %121 = "equeue.alloc"(%120) {data = "f32", shape = dense<[5, 7, 7]> : tensor<3xi64>} : (i32) -> memref<5x7x7xf32>
      %122 = "equeue.alloc"(%120) {data = "f32", shape = dense<[3, 5, 7, 3]> : tensor<4xi64>} : (i32) -> memref<3x5x7x3xf32>
      %123 = "equeue.alloc"(%120) {data = "f32", shape = dense<3> : tensor<3xi64>} : (i32) -> memref<3x3x3xf32>
      %124 = "equeue.get_comp"(%arg2) {name = "pe_4,4"} : (i32) -> i32
      %125 = "equeue.get_comp"(%124) {name = "mem4,4"} : (i32) -> i32
      %126 = "equeue.get_comp"(%124) {name = "proc4,4"} : (i32) -> i32
      %127 = "equeue.alloc"(%125) {data = "f32", shape = dense<1> : tensor<1xi64>} : (i32) -> memref<1xf32>
      %128 = "equeue.alloc"(%125) {data = "f32", shape = dense<1> : tensor<1xi64>} : (i32) -> memref<1xf32>
      %129 = "equeue.alloc"(%125) {data = "f32", shape = dense<1> : tensor<1xi64>} : (i32) -> memref<1xf32>
      %130 = "equeue.get_comp"(%124) {name = "pe_4,3"} : (i32) -> i32
      %131 = "equeue.get_comp"(%130) {name = "mem4,3"} : (i32) -> i32
      %132 = "equeue.get_comp"(%130) {name = "proc4,3"} : (i32) -> i32
      %133 = "equeue.alloc"(%131) {data = "f32", shape = dense<1> : tensor<1xi64>} : (i32) -> memref<1xf32>
      %134 = "equeue.alloc"(%131) {data = "f32", shape = dense<1> : tensor<1xi64>} : (i32) -> memref<1xf32>
      %135 = "equeue.alloc"(%131) {data = "f32", shape = dense<1> : tensor<1xi64>} : (i32) -> memref<1xf32>
      %136 = "equeue.get_comp"(%130) {name = "pe_4,2"} : (i32) -> i32
      %137 = "equeue.get_comp"(%136) {name = "mem4,2"} : (i32) -> i32
      %138 = "equeue.get_comp"(%136) {name = "proc4,2"} : (i32) -> i32
      %139 = "equeue.alloc"(%137) {data = "f32", shape = dense<1> : tensor<1xi64>} : (i32) -> memref<1xf32>
      %140 = "equeue.alloc"(%137) {data = "f32", shape = dense<1> : tensor<1xi64>} : (i32) -> memref<1xf32>
      %141 = "equeue.alloc"(%137) {data = "f32", shape = dense<1> : tensor<1xi64>} : (i32) -> memref<1xf32>
      %142 = "equeue.get_comp"(%136) {name = "pe_4,1"} : (i32) -> i32
      %143 = "equeue.get_comp"(%142) {name = "mem4,1"} : (i32) -> i32
      %144 = "equeue.get_comp"(%142) {name = "proc4,1"} : (i32) -> i32
      %145 = "equeue.alloc"(%143) {data = "f32", shape = dense<1> : tensor<1xi64>} : (i32) -> memref<1xf32>
      %146 = "equeue.alloc"(%143) {data = "f32", shape = dense<1> : tensor<1xi64>} : (i32) -> memref<1xf32>
      %147 = "equeue.alloc"(%143) {data = "f32", shape = dense<1> : tensor<1xi64>} : (i32) -> memref<1xf32>
      %148 = "equeue.get_comp"(%142) {name = "pe_4,0"} : (i32) -> i32
      %149 = "equeue.get_comp"(%148) {name = "mem4,0"} : (i32) -> i32
      %150 = "equeue.get_comp"(%148) {name = "proc4,0"} : (i32) -> i32
      %151 = "equeue.alloc"(%149) {data = "f32", shape = dense<1> : tensor<1xi64>} : (i32) -> memref<1xf32>
      %152 = "equeue.alloc"(%149) {data = "f32", shape = dense<1> : tensor<1xi64>} : (i32) -> memref<1xf32>
      %153 = "equeue.alloc"(%149) {data = "f32", shape = dense<1> : tensor<1xi64>} : (i32) -> memref<1xf32>
      %154 = "equeue.get_comp"(%148) {name = "pe_3,4"} : (i32) -> i32
      %155 = "equeue.get_comp"(%154) {name = "mem3,4"} : (i32) -> i32
      %156 = "equeue.get_comp"(%154) {name = "proc3,4"} : (i32) -> i32
      %157 = "equeue.alloc"(%155) {data = "f32", shape = dense<1> : tensor<1xi64>} : (i32) -> memref<1xf32>
      %158 = "equeue.alloc"(%155) {data = "f32", shape = dense<1> : tensor<1xi64>} : (i32) -> memref<1xf32>
      %159 = "equeue.alloc"(%155) {data = "f32", shape = dense<1> : tensor<1xi64>} : (i32) -> memref<1xf32>
      %160 = "equeue.get_comp"(%154) {name = "pe_3,3"} : (i32) -> i32
      %161 = "equeue.get_comp"(%160) {name = "mem3,3"} : (i32) -> i32
      %162 = "equeue.get_comp"(%160) {name = "proc3,3"} : (i32) -> i32
      %163 = "equeue.alloc"(%161) {data = "f32", shape = dense<1> : tensor<1xi64>} : (i32) -> memref<1xf32>
      %164 = "equeue.alloc"(%161) {data = "f32", shape = dense<1> : tensor<1xi64>} : (i32) -> memref<1xf32>
      %165 = "equeue.alloc"(%161) {data = "f32", shape = dense<1> : tensor<1xi64>} : (i32) -> memref<1xf32>
      %166 = "equeue.get_comp"(%160) {name = "pe_3,2"} : (i32) -> i32
      %167 = "equeue.get_comp"(%166) {name = "mem3,2"} : (i32) -> i32
      %168 = "equeue.get_comp"(%166) {name = "proc3,2"} : (i32) -> i32
      %169 = "equeue.alloc"(%167) {data = "f32", shape = dense<1> : tensor<1xi64>} : (i32) -> memref<1xf32>
      %170 = "equeue.alloc"(%167) {data = "f32", shape = dense<1> : tensor<1xi64>} : (i32) -> memref<1xf32>
      %171 = "equeue.alloc"(%167) {data = "f32", shape = dense<1> : tensor<1xi64>} : (i32) -> memref<1xf32>
      %172 = "equeue.get_comp"(%166) {name = "pe_3,1"} : (i32) -> i32
      %173 = "equeue.get_comp"(%172) {name = "mem3,1"} : (i32) -> i32
      %174 = "equeue.get_comp"(%172) {name = "proc3,1"} : (i32) -> i32
      %175 = "equeue.alloc"(%173) {data = "f32", shape = dense<1> : tensor<1xi64>} : (i32) -> memref<1xf32>
      %176 = "equeue.alloc"(%173) {data = "f32", shape = dense<1> : tensor<1xi64>} : (i32) -> memref<1xf32>
      %177 = "equeue.alloc"(%173) {data = "f32", shape = dense<1> : tensor<1xi64>} : (i32) -> memref<1xf32>
      %178 = "equeue.get_comp"(%172) {name = "pe_3,0"} : (i32) -> i32
      %179 = "equeue.get_comp"(%178) {name = "mem3,0"} : (i32) -> i32
      %180 = "equeue.get_comp"(%178) {name = "proc3,0"} : (i32) -> i32
      %181 = "equeue.alloc"(%179) {data = "f32", shape = dense<1> : tensor<1xi64>} : (i32) -> memref<1xf32>
      %182 = "equeue.alloc"(%179) {data = "f32", shape = dense<1> : tensor<1xi64>} : (i32) -> memref<1xf32>
      %183 = "equeue.alloc"(%179) {data = "f32", shape = dense<1> : tensor<1xi64>} : (i32) -> memref<1xf32>
      %184 = "equeue.get_comp"(%178) {name = "pe_2,4"} : (i32) -> i32
      %185 = "equeue.get_comp"(%184) {name = "mem2,4"} : (i32) -> i32
      %186 = "equeue.get_comp"(%184) {name = "proc2,4"} : (i32) -> i32
      %187 = "equeue.alloc"(%185) {data = "f32", shape = dense<1> : tensor<1xi64>} : (i32) -> memref<1xf32>
      %188 = "equeue.alloc"(%185) {data = "f32", shape = dense<1> : tensor<1xi64>} : (i32) -> memref<1xf32>
      %189 = "equeue.alloc"(%185) {data = "f32", shape = dense<1> : tensor<1xi64>} : (i32) -> memref<1xf32>
      %190 = "equeue.get_comp"(%184) {name = "pe_2,3"} : (i32) -> i32
      %191 = "equeue.get_comp"(%190) {name = "mem2,3"} : (i32) -> i32
      %192 = "equeue.get_comp"(%190) {name = "proc2,3"} : (i32) -> i32
      %193 = "equeue.alloc"(%191) {data = "f32", shape = dense<1> : tensor<1xi64>} : (i32) -> memref<1xf32>
      %194 = "equeue.alloc"(%191) {data = "f32", shape = dense<1> : tensor<1xi64>} : (i32) -> memref<1xf32>
      %195 = "equeue.alloc"(%191) {data = "f32", shape = dense<1> : tensor<1xi64>} : (i32) -> memref<1xf32>
      %196 = "equeue.get_comp"(%190) {name = "pe_2,2"} : (i32) -> i32
      %197 = "equeue.get_comp"(%196) {name = "mem2,2"} : (i32) -> i32
      %198 = "equeue.get_comp"(%196) {name = "proc2,2"} : (i32) -> i32
      %199 = "equeue.alloc"(%197) {data = "f32", shape = dense<1> : tensor<1xi64>} : (i32) -> memref<1xf32>
      %200 = "equeue.alloc"(%197) {data = "f32", shape = dense<1> : tensor<1xi64>} : (i32) -> memref<1xf32>
      %201 = "equeue.alloc"(%197) {data = "f32", shape = dense<1> : tensor<1xi64>} : (i32) -> memref<1xf32>
      %202 = "equeue.get_comp"(%196) {name = "pe_2,1"} : (i32) -> i32
      %203 = "equeue.get_comp"(%202) {name = "mem2,1"} : (i32) -> i32
      %204 = "equeue.get_comp"(%202) {name = "proc2,1"} : (i32) -> i32
      %205 = "equeue.alloc"(%203) {data = "f32", shape = dense<1> : tensor<1xi64>} : (i32) -> memref<1xf32>
      %206 = "equeue.alloc"(%203) {data = "f32", shape = dense<1> : tensor<1xi64>} : (i32) -> memref<1xf32>
      %207 = "equeue.alloc"(%203) {data = "f32", shape = dense<1> : tensor<1xi64>} : (i32) -> memref<1xf32>
      %208 = "equeue.get_comp"(%202) {name = "pe_2,0"} : (i32) -> i32
      %209 = "equeue.get_comp"(%208) {name = "mem2,0"} : (i32) -> i32
      %210 = "equeue.get_comp"(%208) {name = "proc2,0"} : (i32) -> i32
      %211 = "equeue.alloc"(%209) {data = "f32", shape = dense<1> : tensor<1xi64>} : (i32) -> memref<1xf32>
      %212 = "equeue.alloc"(%209) {data = "f32", shape = dense<1> : tensor<1xi64>} : (i32) -> memref<1xf32>
      %213 = "equeue.alloc"(%209) {data = "f32", shape = dense<1> : tensor<1xi64>} : (i32) -> memref<1xf32>
      %214 = "equeue.get_comp"(%208) {name = "pe_1,4"} : (i32) -> i32
      %215 = "equeue.get_comp"(%214) {name = "mem1,4"} : (i32) -> i32
      %216 = "equeue.get_comp"(%214) {name = "proc1,4"} : (i32) -> i32
      %217 = "equeue.alloc"(%215) {data = "f32", shape = dense<1> : tensor<1xi64>} : (i32) -> memref<1xf32>
      %218 = "equeue.alloc"(%215) {data = "f32", shape = dense<1> : tensor<1xi64>} : (i32) -> memref<1xf32>
      %219 = "equeue.alloc"(%215) {data = "f32", shape = dense<1> : tensor<1xi64>} : (i32) -> memref<1xf32>
      %220 = "equeue.get_comp"(%214) {name = "pe_1,3"} : (i32) -> i32
      %221 = "equeue.get_comp"(%220) {name = "mem1,3"} : (i32) -> i32
      %222 = "equeue.get_comp"(%220) {name = "proc1,3"} : (i32) -> i32
      %223 = "equeue.alloc"(%221) {data = "f32", shape = dense<1> : tensor<1xi64>} : (i32) -> memref<1xf32>
      %224 = "equeue.alloc"(%221) {data = "f32", shape = dense<1> : tensor<1xi64>} : (i32) -> memref<1xf32>
      %225 = "equeue.alloc"(%221) {data = "f32", shape = dense<1> : tensor<1xi64>} : (i32) -> memref<1xf32>
      %226 = "equeue.get_comp"(%220) {name = "pe_1,2"} : (i32) -> i32
      %227 = "equeue.get_comp"(%226) {name = "mem1,2"} : (i32) -> i32
      %228 = "equeue.get_comp"(%226) {name = "proc1,2"} : (i32) -> i32
      %229 = "equeue.alloc"(%227) {data = "f32", shape = dense<1> : tensor<1xi64>} : (i32) -> memref<1xf32>
      %230 = "equeue.alloc"(%227) {data = "f32", shape = dense<1> : tensor<1xi64>} : (i32) -> memref<1xf32>
      %231 = "equeue.alloc"(%227) {data = "f32", shape = dense<1> : tensor<1xi64>} : (i32) -> memref<1xf32>
      %232 = "equeue.get_comp"(%226) {name = "pe_1,1"} : (i32) -> i32
      %233 = "equeue.get_comp"(%232) {name = "mem1,1"} : (i32) -> i32
      %234 = "equeue.get_comp"(%232) {name = "proc1,1"} : (i32) -> i32
      %235 = "equeue.alloc"(%233) {data = "f32", shape = dense<1> : tensor<1xi64>} : (i32) -> memref<1xf32>
      %236 = "equeue.alloc"(%233) {data = "f32", shape = dense<1> : tensor<1xi64>} : (i32) -> memref<1xf32>
      %237 = "equeue.alloc"(%233) {data = "f32", shape = dense<1> : tensor<1xi64>} : (i32) -> memref<1xf32>
      %238 = "equeue.get_comp"(%232) {name = "pe_1,0"} : (i32) -> i32
      %239 = "equeue.get_comp"(%238) {name = "mem1,0"} : (i32) -> i32
      %240 = "equeue.get_comp"(%238) {name = "proc1,0"} : (i32) -> i32
      %241 = "equeue.alloc"(%239) {data = "f32", shape = dense<1> : tensor<1xi64>} : (i32) -> memref<1xf32>
      %242 = "equeue.alloc"(%239) {data = "f32", shape = dense<1> : tensor<1xi64>} : (i32) -> memref<1xf32>
      %243 = "equeue.alloc"(%239) {data = "f32", shape = dense<1> : tensor<1xi64>} : (i32) -> memref<1xf32>
      %244 = "equeue.get_comp"(%238) {name = "pe_0,4"} : (i32) -> i32
      %245 = "equeue.get_comp"(%244) {name = "mem0,4"} : (i32) -> i32
      %246 = "equeue.get_comp"(%244) {name = "proc0,4"} : (i32) -> i32
      %247 = "equeue.alloc"(%245) {data = "f32", shape = dense<1> : tensor<1xi64>} : (i32) -> memref<1xf32>
      %248 = "equeue.alloc"(%245) {data = "f32", shape = dense<1> : tensor<1xi64>} : (i32) -> memref<1xf32>
      %249 = "equeue.alloc"(%245) {data = "f32", shape = dense<1> : tensor<1xi64>} : (i32) -> memref<1xf32>
      %250 = "equeue.get_comp"(%244) {name = "pe_0,3"} : (i32) -> i32
      %251 = "equeue.get_comp"(%250) {name = "mem0,3"} : (i32) -> i32
      %252 = "equeue.get_comp"(%250) {name = "proc0,3"} : (i32) -> i32
      %253 = "equeue.alloc"(%251) {data = "f32", shape = dense<1> : tensor<1xi64>} : (i32) -> memref<1xf32>
      %254 = "equeue.alloc"(%251) {data = "f32", shape = dense<1> : tensor<1xi64>} : (i32) -> memref<1xf32>
      %255 = "equeue.alloc"(%251) {data = "f32", shape = dense<1> : tensor<1xi64>} : (i32) -> memref<1xf32>
      %256 = "equeue.get_comp"(%250) {name = "pe_0,2"} : (i32) -> i32
      %257 = "equeue.get_comp"(%256) {name = "mem0,2"} : (i32) -> i32
      %258 = "equeue.get_comp"(%256) {name = "proc0,2"} : (i32) -> i32
      %259 = "equeue.alloc"(%257) {data = "f32", shape = dense<1> : tensor<1xi64>} : (i32) -> memref<1xf32>
      %260 = "equeue.alloc"(%257) {data = "f32", shape = dense<1> : tensor<1xi64>} : (i32) -> memref<1xf32>
      %261 = "equeue.alloc"(%257) {data = "f32", shape = dense<1> : tensor<1xi64>} : (i32) -> memref<1xf32>
      %262 = "equeue.get_comp"(%256) {name = "pe_0,1"} : (i32) -> i32
      %263 = "equeue.get_comp"(%262) {name = "mem0,1"} : (i32) -> i32
      %264 = "equeue.get_comp"(%262) {name = "proc0,1"} : (i32) -> i32
      %265 = "equeue.alloc"(%263) {data = "f32", shape = dense<1> : tensor<1xi64>} : (i32) -> memref<1xf32>
      %266 = "equeue.alloc"(%263) {data = "f32", shape = dense<1> : tensor<1xi64>} : (i32) -> memref<1xf32>
      %267 = "equeue.alloc"(%263) {data = "f32", shape = dense<1> : tensor<1xi64>} : (i32) -> memref<1xf32>
      %268 = "equeue.get_comp"(%262) {name = "pe_0,0"} : (i32) -> i32
      %269 = "equeue.get_comp"(%268) {name = "mem0,0"} : (i32) -> i32
      %270 = "equeue.get_comp"(%268) {name = "proc0,0"} : (i32) -> i32
      %271 = "equeue.alloc"(%269) {data = "f32", shape = dense<1> : tensor<1xi64>} : (i32) -> memref<1xf32>
      %272 = "equeue.alloc"(%269) {data = "f32", shape = dense<1> : tensor<1xi64>} : (i32) -> memref<1xf32>
      %273 = "equeue.alloc"(%269) {data = "f32", shape = dense<1> : tensor<1xi64>} : (i32) -> memref<1xf32>
      %c0 = constant 0 : index
      %274 = "equeue.control_start"() : () -> !equeue.signal
      %275 = "equeue.memcpy"(%274, %122, %127, %111, %c0) {dest_bank = 0 : i64, src_bank = 0 : i64} : (!equeue.signal, memref<3x5x7x3xf32>, memref<1xf32>, i32, index) -> !equeue.signal
      %done_0 = "equeue.launch"(%275, %126, %127, %157) ( {
      ^bb0(%arg5: memref<1xf32>, %arg6: memref<1xf32>):  // no predecessors
        %3127 = "equeue.read"(%arg5) {bank = 0 : i64} : (memref<1xf32>) -> f32
        "equeue.write"(%3127, %arg6) {bank = 0 : i64} : (f32, memref<1xf32>) -> ()
        "equeue.return"() : () -> ()
      }) : (!equeue.signal, i32, memref<1xf32>, memref<1xf32>) -> !equeue.signal
      %done_1 = "equeue.launch"(%275, %156, %157, %187) ( {
      ^bb0(%arg5: memref<1xf32>, %arg6: memref<1xf32>):  // no predecessors
        %3127 = "equeue.read"(%arg5) {bank = 0 : i64} : (memref<1xf32>) -> f32
        "equeue.write"(%3127, %arg6) {bank = 0 : i64} : (f32, memref<1xf32>) -> ()
        "equeue.return"() : () -> ()
      }) : (!equeue.signal, i32, memref<1xf32>, memref<1xf32>) -> !equeue.signal
      %done_2 = "equeue.launch"(%275, %186, %187, %217) ( {
      ^bb0(%arg5: memref<1xf32>, %arg6: memref<1xf32>):  // no predecessors
        %3127 = "equeue.read"(%arg5) {bank = 0 : i64} : (memref<1xf32>) -> f32
        "equeue.write"(%3127, %arg6) {bank = 0 : i64} : (f32, memref<1xf32>) -> ()
        "equeue.return"() : () -> ()
      }) : (!equeue.signal, i32, memref<1xf32>, memref<1xf32>) -> !equeue.signal
      %done_3 = "equeue.launch"(%275, %216, %217, %247) ( {
      ^bb0(%arg5: memref<1xf32>, %arg6: memref<1xf32>):  // no predecessors
        %3127 = "equeue.read"(%arg5) {bank = 0 : i64} : (memref<1xf32>) -> f32
        "equeue.write"(%3127, %arg6) {bank = 0 : i64} : (f32, memref<1xf32>) -> ()
        "equeue.return"() : () -> ()
      }) : (!equeue.signal, i32, memref<1xf32>, memref<1xf32>) -> !equeue.signal
      %276 = "equeue.control_and"(%done_3, %275) : (!equeue.signal, !equeue.signal) -> !equeue.signal
      %277 = "equeue.memcpy"(%274, %122, %133, %113, %c0) {dest_bank = 0 : i64, src_bank = 1 : i64} : (!equeue.signal, memref<3x5x7x3xf32>, memref<1xf32>, i32, index) -> !equeue.signal
      %done_4 = "equeue.launch"(%277, %132, %133, %163) ( {
      ^bb0(%arg5: memref<1xf32>, %arg6: memref<1xf32>):  // no predecessors
        %3127 = "equeue.read"(%arg5) {bank = 0 : i64} : (memref<1xf32>) -> f32
        "equeue.write"(%3127, %arg6) {bank = 0 : i64} : (f32, memref<1xf32>) -> ()
        "equeue.return"() : () -> ()
      }) : (!equeue.signal, i32, memref<1xf32>, memref<1xf32>) -> !equeue.signal
      %done_5 = "equeue.launch"(%277, %162, %163, %193) ( {
      ^bb0(%arg5: memref<1xf32>, %arg6: memref<1xf32>):  // no predecessors
        %3127 = "equeue.read"(%arg5) {bank = 0 : i64} : (memref<1xf32>) -> f32
        "equeue.write"(%3127, %arg6) {bank = 0 : i64} : (f32, memref<1xf32>) -> ()
        "equeue.return"() : () -> ()
      }) : (!equeue.signal, i32, memref<1xf32>, memref<1xf32>) -> !equeue.signal
      %done_6 = "equeue.launch"(%277, %192, %193, %223) ( {
      ^bb0(%arg5: memref<1xf32>, %arg6: memref<1xf32>):  // no predecessors
        %3127 = "equeue.read"(%arg5) {bank = 0 : i64} : (memref<1xf32>) -> f32
        "equeue.write"(%3127, %arg6) {bank = 0 : i64} : (f32, memref<1xf32>) -> ()
        "equeue.return"() : () -> ()
      }) : (!equeue.signal, i32, memref<1xf32>, memref<1xf32>) -> !equeue.signal
      %done_7 = "equeue.launch"(%277, %222, %223, %253) ( {
      ^bb0(%arg5: memref<1xf32>, %arg6: memref<1xf32>):  // no predecessors
        %3127 = "equeue.read"(%arg5) {bank = 0 : i64} : (memref<1xf32>) -> f32
        "equeue.write"(%3127, %arg6) {bank = 0 : i64} : (f32, memref<1xf32>) -> ()
        "equeue.return"() : () -> ()
      }) : (!equeue.signal, i32, memref<1xf32>, memref<1xf32>) -> !equeue.signal
      %278 = "equeue.control_and"(%277, %276, %done_7) : (!equeue.signal, !equeue.signal, !equeue.signal) -> !equeue.signal
      %279 = "equeue.memcpy"(%274, %122, %139, %115, %c0) {dest_bank = 0 : i64, src_bank = 2 : i64} : (!equeue.signal, memref<3x5x7x3xf32>, memref<1xf32>, i32, index) -> !equeue.signal
      %done_8 = "equeue.launch"(%279, %138, %139, %169) ( {
      ^bb0(%arg5: memref<1xf32>, %arg6: memref<1xf32>):  // no predecessors
        %3127 = "equeue.read"(%arg5) {bank = 0 : i64} : (memref<1xf32>) -> f32
        "equeue.write"(%3127, %arg6) {bank = 0 : i64} : (f32, memref<1xf32>) -> ()
        "equeue.return"() : () -> ()
      }) : (!equeue.signal, i32, memref<1xf32>, memref<1xf32>) -> !equeue.signal
      %done_9 = "equeue.launch"(%279, %168, %169, %199) ( {
      ^bb0(%arg5: memref<1xf32>, %arg6: memref<1xf32>):  // no predecessors
        %3127 = "equeue.read"(%arg5) {bank = 0 : i64} : (memref<1xf32>) -> f32
        "equeue.write"(%3127, %arg6) {bank = 0 : i64} : (f32, memref<1xf32>) -> ()
        "equeue.return"() : () -> ()
      }) : (!equeue.signal, i32, memref<1xf32>, memref<1xf32>) -> !equeue.signal
      %done_10 = "equeue.launch"(%279, %198, %199, %229) ( {
      ^bb0(%arg5: memref<1xf32>, %arg6: memref<1xf32>):  // no predecessors
        %3127 = "equeue.read"(%arg5) {bank = 0 : i64} : (memref<1xf32>) -> f32
        "equeue.write"(%3127, %arg6) {bank = 0 : i64} : (f32, memref<1xf32>) -> ()
        "equeue.return"() : () -> ()
      }) : (!equeue.signal, i32, memref<1xf32>, memref<1xf32>) -> !equeue.signal
      %done_11 = "equeue.launch"(%279, %228, %229, %259) ( {
      ^bb0(%arg5: memref<1xf32>, %arg6: memref<1xf32>):  // no predecessors
        %3127 = "equeue.read"(%arg5) {bank = 0 : i64} : (memref<1xf32>) -> f32
        "equeue.write"(%3127, %arg6) {bank = 0 : i64} : (f32, memref<1xf32>) -> ()
        "equeue.return"() : () -> ()
      }) : (!equeue.signal, i32, memref<1xf32>, memref<1xf32>) -> !equeue.signal
      %280 = "equeue.control_and"(%279, %278, %done_11) : (!equeue.signal, !equeue.signal, !equeue.signal) -> !equeue.signal
      "equeue.await"(%280) : (!equeue.signal) -> ()
      %281 = "equeue.control_start"() : () -> !equeue.signal
      %282 = "equeue.memcpy"(%281, %122, %127, %111, %c0) {dest_bank = 0 : i64, src_bank = 0 : i64} : (!equeue.signal, memref<3x5x7x3xf32>, memref<1xf32>, i32, index) -> !equeue.signal
      %done_12 = "equeue.launch"(%282, %126, %127, %157) ( {
      ^bb0(%arg5: memref<1xf32>, %arg6: memref<1xf32>):  // no predecessors
        %3127 = "equeue.read"(%arg5) {bank = 0 : i64} : (memref<1xf32>) -> f32
        "equeue.write"(%3127, %arg6) {bank = 0 : i64} : (f32, memref<1xf32>) -> ()
        "equeue.return"() : () -> ()
      }) : (!equeue.signal, i32, memref<1xf32>, memref<1xf32>) -> !equeue.signal
      %done_13 = "equeue.launch"(%282, %156, %157, %187) ( {
      ^bb0(%arg5: memref<1xf32>, %arg6: memref<1xf32>):  // no predecessors
        %3127 = "equeue.read"(%arg5) {bank = 0 : i64} : (memref<1xf32>) -> f32
        "equeue.write"(%3127, %arg6) {bank = 0 : i64} : (f32, memref<1xf32>) -> ()
        "equeue.return"() : () -> ()
      }) : (!equeue.signal, i32, memref<1xf32>, memref<1xf32>) -> !equeue.signal
      %done_14 = "equeue.launch"(%282, %186, %187, %217) ( {
      ^bb0(%arg5: memref<1xf32>, %arg6: memref<1xf32>):  // no predecessors
        %3127 = "equeue.read"(%arg5) {bank = 0 : i64} : (memref<1xf32>) -> f32
        "equeue.write"(%3127, %arg6) {bank = 0 : i64} : (f32, memref<1xf32>) -> ()
        "equeue.return"() : () -> ()
      }) : (!equeue.signal, i32, memref<1xf32>, memref<1xf32>) -> !equeue.signal
      %done_15 = "equeue.launch"(%282, %216, %217, %247) ( {
      ^bb0(%arg5: memref<1xf32>, %arg6: memref<1xf32>):  // no predecessors
        %3127 = "equeue.read"(%arg5) {bank = 0 : i64} : (memref<1xf32>) -> f32
        "equeue.write"(%3127, %arg6) {bank = 0 : i64} : (f32, memref<1xf32>) -> ()
        "equeue.return"() : () -> ()
      }) : (!equeue.signal, i32, memref<1xf32>, memref<1xf32>) -> !equeue.signal
      %283 = "equeue.control_and"(%done_15, %282) : (!equeue.signal, !equeue.signal) -> !equeue.signal
      %284 = "equeue.memcpy"(%281, %122, %133, %113, %c0) {dest_bank = 0 : i64, src_bank = 1 : i64} : (!equeue.signal, memref<3x5x7x3xf32>, memref<1xf32>, i32, index) -> !equeue.signal
      %done_16 = "equeue.launch"(%284, %132, %133, %163) ( {
      ^bb0(%arg5: memref<1xf32>, %arg6: memref<1xf32>):  // no predecessors
        %3127 = "equeue.read"(%arg5) {bank = 0 : i64} : (memref<1xf32>) -> f32
        "equeue.write"(%3127, %arg6) {bank = 0 : i64} : (f32, memref<1xf32>) -> ()
        "equeue.return"() : () -> ()
      }) : (!equeue.signal, i32, memref<1xf32>, memref<1xf32>) -> !equeue.signal
      %done_17 = "equeue.launch"(%284, %162, %163, %193) ( {
      ^bb0(%arg5: memref<1xf32>, %arg6: memref<1xf32>):  // no predecessors
        %3127 = "equeue.read"(%arg5) {bank = 0 : i64} : (memref<1xf32>) -> f32
        "equeue.write"(%3127, %arg6) {bank = 0 : i64} : (f32, memref<1xf32>) -> ()
        "equeue.return"() : () -> ()
      }) : (!equeue.signal, i32, memref<1xf32>, memref<1xf32>) -> !equeue.signal
      %done_18 = "equeue.launch"(%284, %192, %193, %223) ( {
      ^bb0(%arg5: memref<1xf32>, %arg6: memref<1xf32>):  // no predecessors
        %3127 = "equeue.read"(%arg5) {bank = 0 : i64} : (memref<1xf32>) -> f32
        "equeue.write"(%3127, %arg6) {bank = 0 : i64} : (f32, memref<1xf32>) -> ()
        "equeue.return"() : () -> ()
      }) : (!equeue.signal, i32, memref<1xf32>, memref<1xf32>) -> !equeue.signal
      %done_19 = "equeue.launch"(%284, %222, %223, %253) ( {
      ^bb0(%arg5: memref<1xf32>, %arg6: memref<1xf32>):  // no predecessors
        %3127 = "equeue.read"(%arg5) {bank = 0 : i64} : (memref<1xf32>) -> f32
        "equeue.write"(%3127, %arg6) {bank = 0 : i64} : (f32, memref<1xf32>) -> ()
        "equeue.return"() : () -> ()
      }) : (!equeue.signal, i32, memref<1xf32>, memref<1xf32>) -> !equeue.signal
      %285 = "equeue.control_and"(%284, %283, %done_19) : (!equeue.signal, !equeue.signal, !equeue.signal) -> !equeue.signal
      %286 = "equeue.memcpy"(%281, %122, %139, %115, %c0) {dest_bank = 0 : i64, src_bank = 2 : i64} : (!equeue.signal, memref<3x5x7x3xf32>, memref<1xf32>, i32, index) -> !equeue.signal
      %done_20 = "equeue.launch"(%286, %138, %139, %169) ( {
      ^bb0(%arg5: memref<1xf32>, %arg6: memref<1xf32>):  // no predecessors
        %3127 = "equeue.read"(%arg5) {bank = 0 : i64} : (memref<1xf32>) -> f32
        "equeue.write"(%3127, %arg6) {bank = 0 : i64} : (f32, memref<1xf32>) -> ()
        "equeue.return"() : () -> ()
      }) : (!equeue.signal, i32, memref<1xf32>, memref<1xf32>) -> !equeue.signal
      %done_21 = "equeue.launch"(%286, %168, %169, %199) ( {
      ^bb0(%arg5: memref<1xf32>, %arg6: memref<1xf32>):  // no predecessors
        %3127 = "equeue.read"(%arg5) {bank = 0 : i64} : (memref<1xf32>) -> f32
        "equeue.write"(%3127, %arg6) {bank = 0 : i64} : (f32, memref<1xf32>) -> ()
        "equeue.return"() : () -> ()
      }) : (!equeue.signal, i32, memref<1xf32>, memref<1xf32>) -> !equeue.signal
      %done_22 = "equeue.launch"(%286, %198, %199, %229) ( {
      ^bb0(%arg5: memref<1xf32>, %arg6: memref<1xf32>):  // no predecessors
        %3127 = "equeue.read"(%arg5) {bank = 0 : i64} : (memref<1xf32>) -> f32
        "equeue.write"(%3127, %arg6) {bank = 0 : i64} : (f32, memref<1xf32>) -> ()
        "equeue.return"() : () -> ()
      }) : (!equeue.signal, i32, memref<1xf32>, memref<1xf32>) -> !equeue.signal
      %done_23 = "equeue.launch"(%286, %228, %229, %259) ( {
      ^bb0(%arg5: memref<1xf32>, %arg6: memref<1xf32>):  // no predecessors
        %3127 = "equeue.read"(%arg5) {bank = 0 : i64} : (memref<1xf32>) -> f32
        "equeue.write"(%3127, %arg6) {bank = 0 : i64} : (f32, memref<1xf32>) -> ()
        "equeue.return"() : () -> ()
      }) : (!equeue.signal, i32, memref<1xf32>, memref<1xf32>) -> !equeue.signal
      %287 = "equeue.control_and"(%286, %285, %done_23) : (!equeue.signal, !equeue.signal, !equeue.signal) -> !equeue.signal
      "equeue.await"(%287) : (!equeue.signal) -> ()
      %288 = "equeue.control_start"() : () -> !equeue.signal
      %289 = "equeue.memcpy"(%288, %122, %127, %111, %c0) {dest_bank = 0 : i64, src_bank = 0 : i64} : (!equeue.signal, memref<3x5x7x3xf32>, memref<1xf32>, i32, index) -> !equeue.signal
      %done_24 = "equeue.launch"(%289, %126, %127, %157) ( {
      ^bb0(%arg5: memref<1xf32>, %arg6: memref<1xf32>):  // no predecessors
        %3127 = "equeue.read"(%arg5) {bank = 0 : i64} : (memref<1xf32>) -> f32
        "equeue.write"(%3127, %arg6) {bank = 0 : i64} : (f32, memref<1xf32>) -> ()
        "equeue.return"() : () -> ()
      }) : (!equeue.signal, i32, memref<1xf32>, memref<1xf32>) -> !equeue.signal
      %done_25 = "equeue.launch"(%289, %156, %157, %187) ( {
      ^bb0(%arg5: memref<1xf32>, %arg6: memref<1xf32>):  // no predecessors
        %3127 = "equeue.read"(%arg5) {bank = 0 : i64} : (memref<1xf32>) -> f32
        "equeue.write"(%3127, %arg6) {bank = 0 : i64} : (f32, memref<1xf32>) -> ()
        "equeue.return"() : () -> ()
      }) : (!equeue.signal, i32, memref<1xf32>, memref<1xf32>) -> !equeue.signal
      %done_26 = "equeue.launch"(%289, %186, %187, %217) ( {
      ^bb0(%arg5: memref<1xf32>, %arg6: memref<1xf32>):  // no predecessors
        %3127 = "equeue.read"(%arg5) {bank = 0 : i64} : (memref<1xf32>) -> f32
        "equeue.write"(%3127, %arg6) {bank = 0 : i64} : (f32, memref<1xf32>) -> ()
        "equeue.return"() : () -> ()
      }) : (!equeue.signal, i32, memref<1xf32>, memref<1xf32>) -> !equeue.signal
      %done_27 = "equeue.launch"(%289, %216, %217, %247) ( {
      ^bb0(%arg5: memref<1xf32>, %arg6: memref<1xf32>):  // no predecessors
        %3127 = "equeue.read"(%arg5) {bank = 0 : i64} : (memref<1xf32>) -> f32
        "equeue.write"(%3127, %arg6) {bank = 0 : i64} : (f32, memref<1xf32>) -> ()
        "equeue.return"() : () -> ()
      }) : (!equeue.signal, i32, memref<1xf32>, memref<1xf32>) -> !equeue.signal
      %290 = "equeue.control_and"(%done_27, %289) : (!equeue.signal, !equeue.signal) -> !equeue.signal
      %291 = "equeue.memcpy"(%288, %122, %133, %113, %c0) {dest_bank = 0 : i64, src_bank = 1 : i64} : (!equeue.signal, memref<3x5x7x3xf32>, memref<1xf32>, i32, index) -> !equeue.signal
      %done_28 = "equeue.launch"(%291, %132, %133, %163) ( {
      ^bb0(%arg5: memref<1xf32>, %arg6: memref<1xf32>):  // no predecessors
        %3127 = "equeue.read"(%arg5) {bank = 0 : i64} : (memref<1xf32>) -> f32
        "equeue.write"(%3127, %arg6) {bank = 0 : i64} : (f32, memref<1xf32>) -> ()
        "equeue.return"() : () -> ()
      }) : (!equeue.signal, i32, memref<1xf32>, memref<1xf32>) -> !equeue.signal
      %done_29 = "equeue.launch"(%291, %162, %163, %193) ( {
      ^bb0(%arg5: memref<1xf32>, %arg6: memref<1xf32>):  // no predecessors
        %3127 = "equeue.read"(%arg5) {bank = 0 : i64} : (memref<1xf32>) -> f32
        "equeue.write"(%3127, %arg6) {bank = 0 : i64} : (f32, memref<1xf32>) -> ()
        "equeue.return"() : () -> ()
      }) : (!equeue.signal, i32, memref<1xf32>, memref<1xf32>) -> !equeue.signal
      %done_30 = "equeue.launch"(%291, %192, %193, %223) ( {
      ^bb0(%arg5: memref<1xf32>, %arg6: memref<1xf32>):  // no predecessors
        %3127 = "equeue.read"(%arg5) {bank = 0 : i64} : (memref<1xf32>) -> f32
        "equeue.write"(%3127, %arg6) {bank = 0 : i64} : (f32, memref<1xf32>) -> ()
        "equeue.return"() : () -> ()
      }) : (!equeue.signal, i32, memref<1xf32>, memref<1xf32>) -> !equeue.signal
      %done_31 = "equeue.launch"(%291, %222, %223, %253) ( {
      ^bb0(%arg5: memref<1xf32>, %arg6: memref<1xf32>):  // no predecessors
        %3127 = "equeue.read"(%arg5) {bank = 0 : i64} : (memref<1xf32>) -> f32
        "equeue.write"(%3127, %arg6) {bank = 0 : i64} : (f32, memref<1xf32>) -> ()
        "equeue.return"() : () -> ()
      }) : (!equeue.signal, i32, memref<1xf32>, memref<1xf32>) -> !equeue.signal
      %292 = "equeue.control_and"(%291, %290, %done_31) : (!equeue.signal, !equeue.signal, !equeue.signal) -> !equeue.signal
      %293 = "equeue.memcpy"(%288, %122, %139, %115, %c0) {dest_bank = 0 : i64, src_bank = 2 : i64} : (!equeue.signal, memref<3x5x7x3xf32>, memref<1xf32>, i32, index) -> !equeue.signal
      %done_32 = "equeue.launch"(%293, %138, %139, %169) ( {
      ^bb0(%arg5: memref<1xf32>, %arg6: memref<1xf32>):  // no predecessors
        %3127 = "equeue.read"(%arg5) {bank = 0 : i64} : (memref<1xf32>) -> f32
        "equeue.write"(%3127, %arg6) {bank = 0 : i64} : (f32, memref<1xf32>) -> ()
        "equeue.return"() : () -> ()
      }) : (!equeue.signal, i32, memref<1xf32>, memref<1xf32>) -> !equeue.signal
      %done_33 = "equeue.launch"(%293, %168, %169, %199) ( {
      ^bb0(%arg5: memref<1xf32>, %arg6: memref<1xf32>):  // no predecessors
        %3127 = "equeue.read"(%arg5) {bank = 0 : i64} : (memref<1xf32>) -> f32
        "equeue.write"(%3127, %arg6) {bank = 0 : i64} : (f32, memref<1xf32>) -> ()
        "equeue.return"() : () -> ()
      }) : (!equeue.signal, i32, memref<1xf32>, memref<1xf32>) -> !equeue.signal
      %done_34 = "equeue.launch"(%293, %198, %199, %229) ( {
      ^bb0(%arg5: memref<1xf32>, %arg6: memref<1xf32>):  // no predecessors
        %3127 = "equeue.read"(%arg5) {bank = 0 : i64} : (memref<1xf32>) -> f32
        "equeue.write"(%3127, %arg6) {bank = 0 : i64} : (f32, memref<1xf32>) -> ()
        "equeue.return"() : () -> ()
      }) : (!equeue.signal, i32, memref<1xf32>, memref<1xf32>) -> !equeue.signal
      %done_35 = "equeue.launch"(%293, %228, %229, %259) ( {
      ^bb0(%arg5: memref<1xf32>, %arg6: memref<1xf32>):  // no predecessors
        %3127 = "equeue.read"(%arg5) {bank = 0 : i64} : (memref<1xf32>) -> f32
        "equeue.write"(%3127, %arg6) {bank = 0 : i64} : (f32, memref<1xf32>) -> ()
        "equeue.return"() : () -> ()
      }) : (!equeue.signal, i32, memref<1xf32>, memref<1xf32>) -> !equeue.signal
      %294 = "equeue.control_and"(%293, %292, %done_35) : (!equeue.signal, !equeue.signal, !equeue.signal) -> !equeue.signal
      "equeue.await"(%294) : (!equeue.signal) -> ()
      %295 = "equeue.control_start"() : () -> !equeue.signal
      %296 = "equeue.memcpy"(%295, %122, %127, %111, %c0) {dest_bank = 0 : i64, src_bank = 0 : i64} : (!equeue.signal, memref<3x5x7x3xf32>, memref<1xf32>, i32, index) -> !equeue.signal
      %done_36 = "equeue.launch"(%296, %126, %127, %157) ( {
      ^bb0(%arg5: memref<1xf32>, %arg6: memref<1xf32>):  // no predecessors
        %3127 = "equeue.read"(%arg5) {bank = 0 : i64} : (memref<1xf32>) -> f32
        "equeue.write"(%3127, %arg6) {bank = 0 : i64} : (f32, memref<1xf32>) -> ()
        "equeue.return"() : () -> ()
      }) : (!equeue.signal, i32, memref<1xf32>, memref<1xf32>) -> !equeue.signal
      %done_37 = "equeue.launch"(%296, %156, %157, %187) ( {
      ^bb0(%arg5: memref<1xf32>, %arg6: memref<1xf32>):  // no predecessors
        %3127 = "equeue.read"(%arg5) {bank = 0 : i64} : (memref<1xf32>) -> f32
        "equeue.write"(%3127, %arg6) {bank = 0 : i64} : (f32, memref<1xf32>) -> ()
        "equeue.return"() : () -> ()
      }) : (!equeue.signal, i32, memref<1xf32>, memref<1xf32>) -> !equeue.signal
      %done_38 = "equeue.launch"(%296, %186, %187, %217) ( {
      ^bb0(%arg5: memref<1xf32>, %arg6: memref<1xf32>):  // no predecessors
        %3127 = "equeue.read"(%arg5) {bank = 0 : i64} : (memref<1xf32>) -> f32
        "equeue.write"(%3127, %arg6) {bank = 0 : i64} : (f32, memref<1xf32>) -> ()
        "equeue.return"() : () -> ()
      }) : (!equeue.signal, i32, memref<1xf32>, memref<1xf32>) -> !equeue.signal
      %done_39 = "equeue.launch"(%296, %216, %217, %247) ( {
      ^bb0(%arg5: memref<1xf32>, %arg6: memref<1xf32>):  // no predecessors
        %3127 = "equeue.read"(%arg5) {bank = 0 : i64} : (memref<1xf32>) -> f32
        "equeue.write"(%3127, %arg6) {bank = 0 : i64} : (f32, memref<1xf32>) -> ()
        "equeue.return"() : () -> ()
      }) : (!equeue.signal, i32, memref<1xf32>, memref<1xf32>) -> !equeue.signal
      %297 = "equeue.control_and"(%done_39, %296) : (!equeue.signal, !equeue.signal) -> !equeue.signal
      %298 = "equeue.memcpy"(%295, %122, %133, %113, %c0) {dest_bank = 0 : i64, src_bank = 1 : i64} : (!equeue.signal, memref<3x5x7x3xf32>, memref<1xf32>, i32, index) -> !equeue.signal
      %done_40 = "equeue.launch"(%298, %132, %133, %163) ( {
      ^bb0(%arg5: memref<1xf32>, %arg6: memref<1xf32>):  // no predecessors
        %3127 = "equeue.read"(%arg5) {bank = 0 : i64} : (memref<1xf32>) -> f32
        "equeue.write"(%3127, %arg6) {bank = 0 : i64} : (f32, memref<1xf32>) -> ()
        "equeue.return"() : () -> ()
      }) : (!equeue.signal, i32, memref<1xf32>, memref<1xf32>) -> !equeue.signal
      %done_41 = "equeue.launch"(%298, %162, %163, %193) ( {
      ^bb0(%arg5: memref<1xf32>, %arg6: memref<1xf32>):  // no predecessors
        %3127 = "equeue.read"(%arg5) {bank = 0 : i64} : (memref<1xf32>) -> f32
        "equeue.write"(%3127, %arg6) {bank = 0 : i64} : (f32, memref<1xf32>) -> ()
        "equeue.return"() : () -> ()
      }) : (!equeue.signal, i32, memref<1xf32>, memref<1xf32>) -> !equeue.signal
      %done_42 = "equeue.launch"(%298, %192, %193, %223) ( {
      ^bb0(%arg5: memref<1xf32>, %arg6: memref<1xf32>):  // no predecessors
        %3127 = "equeue.read"(%arg5) {bank = 0 : i64} : (memref<1xf32>) -> f32
        "equeue.write"(%3127, %arg6) {bank = 0 : i64} : (f32, memref<1xf32>) -> ()
        "equeue.return"() : () -> ()
      }) : (!equeue.signal, i32, memref<1xf32>, memref<1xf32>) -> !equeue.signal
      %done_43 = "equeue.launch"(%298, %222, %223, %253) ( {
      ^bb0(%arg5: memref<1xf32>, %arg6: memref<1xf32>):  // no predecessors
        %3127 = "equeue.read"(%arg5) {bank = 0 : i64} : (memref<1xf32>) -> f32
        "equeue.write"(%3127, %arg6) {bank = 0 : i64} : (f32, memref<1xf32>) -> ()
        "equeue.return"() : () -> ()
      }) : (!equeue.signal, i32, memref<1xf32>, memref<1xf32>) -> !equeue.signal
      %299 = "equeue.control_and"(%298, %297, %done_43) : (!equeue.signal, !equeue.signal, !equeue.signal) -> !equeue.signal
      %300 = "equeue.memcpy"(%295, %122, %139, %115, %c0) {dest_bank = 0 : i64, src_bank = 2 : i64} : (!equeue.signal, memref<3x5x7x3xf32>, memref<1xf32>, i32, index) -> !equeue.signal
      %done_44 = "equeue.launch"(%300, %138, %139, %169) ( {
      ^bb0(%arg5: memref<1xf32>, %arg6: memref<1xf32>):  // no predecessors
        %3127 = "equeue.read"(%arg5) {bank = 0 : i64} : (memref<1xf32>) -> f32
        "equeue.write"(%3127, %arg6) {bank = 0 : i64} : (f32, memref<1xf32>) -> ()
        "equeue.return"() : () -> ()
      }) : (!equeue.signal, i32, memref<1xf32>, memref<1xf32>) -> !equeue.signal
      %done_45 = "equeue.launch"(%300, %168, %169, %199) ( {
      ^bb0(%arg5: memref<1xf32>, %arg6: memref<1xf32>):  // no predecessors
        %3127 = "equeue.read"(%arg5) {bank = 0 : i64} : (memref<1xf32>) -> f32
        "equeue.write"(%3127, %arg6) {bank = 0 : i64} : (f32, memref<1xf32>) -> ()
        "equeue.return"() : () -> ()
      }) : (!equeue.signal, i32, memref<1xf32>, memref<1xf32>) -> !equeue.signal
      %done_46 = "equeue.launch"(%300, %198, %199, %229) ( {
      ^bb0(%arg5: memref<1xf32>, %arg6: memref<1xf32>):  // no predecessors
        %3127 = "equeue.read"(%arg5) {bank = 0 : i64} : (memref<1xf32>) -> f32
        "equeue.write"(%3127, %arg6) {bank = 0 : i64} : (f32, memref<1xf32>) -> ()
        "equeue.return"() : () -> ()
      }) : (!equeue.signal, i32, memref<1xf32>, memref<1xf32>) -> !equeue.signal
      %done_47 = "equeue.launch"(%300, %228, %229, %259) ( {
      ^bb0(%arg5: memref<1xf32>, %arg6: memref<1xf32>):  // no predecessors
        %3127 = "equeue.read"(%arg5) {bank = 0 : i64} : (memref<1xf32>) -> f32
        "equeue.write"(%3127, %arg6) {bank = 0 : i64} : (f32, memref<1xf32>) -> ()
        "equeue.return"() : () -> ()
      }) : (!equeue.signal, i32, memref<1xf32>, memref<1xf32>) -> !equeue.signal
      %301 = "equeue.control_and"(%300, %299, %done_47) : (!equeue.signal, !equeue.signal, !equeue.signal) -> !equeue.signal
      "equeue.await"(%301) : (!equeue.signal) -> ()
      %302 = "equeue.control_start"() : () -> !equeue.signal
      %303 = "equeue.memcpy"(%302, %121, %129, %102) {dest_bank = 0 : i64, src_bank = 0 : i64} : (!equeue.signal, memref<5x7x7xf32>, memref<1xf32>, i32) -> !equeue.signal
      %304 = "equeue.memcpy"(%302, %121, %159, %104) {dest_bank = 0 : i64, src_bank = 1 : i64} : (!equeue.signal, memref<5x7x7xf32>, memref<1xf32>, i32) -> !equeue.signal
      %305 = "equeue.control_and"(%303, %304) : (!equeue.signal, !equeue.signal) -> !equeue.signal
      %306 = "equeue.memcpy"(%302, %121, %189, %106) {dest_bank = 0 : i64, src_bank = 2 : i64} : (!equeue.signal, memref<5x7x7xf32>, memref<1xf32>, i32) -> !equeue.signal
      %307 = "equeue.control_and"(%305, %306) : (!equeue.signal, !equeue.signal) -> !equeue.signal
      %308 = "equeue.memcpy"(%302, %121, %219, %108) {dest_bank = 0 : i64, src_bank = 3 : i64} : (!equeue.signal, memref<5x7x7xf32>, memref<1xf32>, i32) -> !equeue.signal
      %309 = "equeue.control_and"(%307, %308) : (!equeue.signal, !equeue.signal) -> !equeue.signal
      %310 = "equeue.memcpy"(%302, %121, %249, %110) {dest_bank = 0 : i64, src_bank = 4 : i64} : (!equeue.signal, memref<5x7x7xf32>, memref<1xf32>, i32) -> !equeue.signal
      %311 = "equeue.control_and"(%309, %310) : (!equeue.signal, !equeue.signal) -> !equeue.signal
      "equeue.await"(%311) : (!equeue.signal) -> ()
      %312 = "equeue.control_start"() : () -> !equeue.signal
      %done_48 = "equeue.launch"(%312, %126, %129, %127, %128, %135, %159, %123) ( {
      ^bb0(%arg5: memref<1xf32>, %arg6: memref<1xf32>, %arg7: memref<1xf32>, %arg8: memref<1xf32>, %arg9: memref<1xf32>, %arg10: memref<3x3x3xf32>):  // no predecessors
        %3127 = "equeue.read"(%arg5) {bank = 0 : i64} : (memref<1xf32>) -> f32
        "equeue.write"(%3127, %arg8) {bank = 0 : i64} : (f32, memref<1xf32>) -> ()
        %3128 = "equeue.read"(%arg6) {bank = 1 : i64} : (memref<1xf32>) -> f32
        "equeue.write"(%3128, %arg9) {bank = 0 : i64} : (f32, memref<1xf32>) -> ()
        %3129 = mulf %3127, %3128 : f32
        %3130 = "equeue.read"(%arg7) {bank = 2 : i64} : (memref<1xf32>) -> f32
        %3131 = addf %3129, %3130 : f32
        %3132 = addf %3131, %3130 : f32
        "equeue.write"(%3132, %arg10) {bank = 0 : i64} : (f32, memref<3x3x3xf32>) -> ()
        "equeue.return"() : () -> ()
      }) : (!equeue.signal, i32, memref<1xf32>, memref<1xf32>, memref<1xf32>, memref<1xf32>, memref<1xf32>, memref<3x3x3xf32>) -> !equeue.signal
      %done_49 = "equeue.launch"(%312, %156, %159, %157, %158, %165, %189, %123) ( {
      ^bb0(%arg5: memref<1xf32>, %arg6: memref<1xf32>, %arg7: memref<1xf32>, %arg8: memref<1xf32>, %arg9: memref<1xf32>, %arg10: memref<3x3x3xf32>):  // no predecessors
        %3127 = "equeue.read"(%arg5) {bank = 0 : i64} : (memref<1xf32>) -> f32
        "equeue.write"(%3127, %arg8) {bank = 0 : i64} : (f32, memref<1xf32>) -> ()
        %3128 = "equeue.read"(%arg6) {bank = 1 : i64} : (memref<1xf32>) -> f32
        "equeue.write"(%3128, %arg9) {bank = 0 : i64} : (f32, memref<1xf32>) -> ()
        %3129 = mulf %3127, %3128 : f32
        %3130 = "equeue.read"(%arg7) {bank = 2 : i64} : (memref<1xf32>) -> f32
        %3131 = addf %3129, %3130 : f32
        "equeue.write"(%3131, %arg7) {bank = 2 : i64} : (f32, memref<1xf32>) -> ()
        "equeue.return"() : () -> ()
      }) : (!equeue.signal, i32, memref<1xf32>, memref<1xf32>, memref<1xf32>, memref<1xf32>, memref<1xf32>, memref<3x3x3xf32>) -> !equeue.signal
      %313 = "equeue.control_and"(%done_48, %done_49) : (!equeue.signal, !equeue.signal) -> !equeue.signal
      %done_50 = "equeue.launch"(%312, %186, %189, %187, %188, %195, %219, %123) ( {
      ^bb0(%arg5: memref<1xf32>, %arg6: memref<1xf32>, %arg7: memref<1xf32>, %arg8: memref<1xf32>, %arg9: memref<1xf32>, %arg10: memref<3x3x3xf32>):  // no predecessors
        %3127 = "equeue.read"(%arg5) {bank = 0 : i64} : (memref<1xf32>) -> f32
        "equeue.write"(%3127, %arg8) {bank = 0 : i64} : (f32, memref<1xf32>) -> ()
        %3128 = "equeue.read"(%arg6) {bank = 1 : i64} : (memref<1xf32>) -> f32
        "equeue.write"(%3128, %arg9) {bank = 0 : i64} : (f32, memref<1xf32>) -> ()
        %3129 = mulf %3127, %3128 : f32
        %3130 = "equeue.read"(%arg7) {bank = 2 : i64} : (memref<1xf32>) -> f32
        %3131 = addf %3129, %3130 : f32
        "equeue.write"(%3131, %arg7) {bank = 2 : i64} : (f32, memref<1xf32>) -> ()
        "equeue.return"() : () -> ()
      }) : (!equeue.signal, i32, memref<1xf32>, memref<1xf32>, memref<1xf32>, memref<1xf32>, memref<1xf32>, memref<3x3x3xf32>) -> !equeue.signal
      %314 = "equeue.control_and"(%313, %done_50) : (!equeue.signal, !equeue.signal) -> !equeue.signal
      %done_51 = "equeue.launch"(%312, %216, %219, %217, %218, %225, %249, %123) ( {
      ^bb0(%arg5: memref<1xf32>, %arg6: memref<1xf32>, %arg7: memref<1xf32>, %arg8: memref<1xf32>, %arg9: memref<1xf32>, %arg10: memref<3x3x3xf32>):  // no predecessors
        %3127 = "equeue.read"(%arg5) {bank = 0 : i64} : (memref<1xf32>) -> f32
        "equeue.write"(%3127, %arg8) {bank = 0 : i64} : (f32, memref<1xf32>) -> ()
        %3128 = "equeue.read"(%arg6) {bank = 1 : i64} : (memref<1xf32>) -> f32
        "equeue.write"(%3128, %arg9) {bank = 0 : i64} : (f32, memref<1xf32>) -> ()
        %3129 = mulf %3127, %3128 : f32
        %3130 = "equeue.read"(%arg7) {bank = 2 : i64} : (memref<1xf32>) -> f32
        %3131 = addf %3129, %3130 : f32
        "equeue.write"(%3131, %arg7) {bank = 2 : i64} : (f32, memref<1xf32>) -> ()
        "equeue.return"() : () -> ()
      }) : (!equeue.signal, i32, memref<1xf32>, memref<1xf32>, memref<1xf32>, memref<1xf32>, memref<1xf32>, memref<3x3x3xf32>) -> !equeue.signal
      %315 = "equeue.control_and"(%314, %done_51) : (!equeue.signal, !equeue.signal) -> !equeue.signal
      %done_52 = "equeue.launch"(%312, %246, %249, %247, %248, %255, %123) ( {
      ^bb0(%arg5: memref<1xf32>, %arg6: memref<1xf32>, %arg7: memref<1xf32>, %arg8: memref<1xf32>, %arg9: memref<3x3x3xf32>):  // no predecessors
        %3127 = "equeue.read"(%arg5) {bank = 0 : i64} : (memref<1xf32>) -> f32
        "equeue.write"(%3127, %arg8) {bank = 0 : i64} : (f32, memref<1xf32>) -> ()
        %3128 = "equeue.read"(%arg6) {bank = 1 : i64} : (memref<1xf32>) -> f32
        %3129 = mulf %3127, %3128 : f32
        %3130 = "equeue.read"(%arg7) {bank = 2 : i64} : (memref<1xf32>) -> f32
        %3131 = addf %3129, %3130 : f32
        "equeue.return"() : () -> ()
      }) : (!equeue.signal, i32, memref<1xf32>, memref<1xf32>, memref<1xf32>, memref<1xf32>, memref<3x3x3xf32>) -> !equeue.signal
      %316 = "equeue.control_and"(%315, %done_52) : (!equeue.signal, !equeue.signal) -> !equeue.signal
      %done_53 = "equeue.launch"(%312, %132, %135, %133, %134, %141, %165, %123) ( {
      ^bb0(%arg5: memref<1xf32>, %arg6: memref<1xf32>, %arg7: memref<1xf32>, %arg8: memref<1xf32>, %arg9: memref<1xf32>, %arg10: memref<3x3x3xf32>):  // no predecessors
        %3127 = "equeue.read"(%arg5) {bank = 0 : i64} : (memref<1xf32>) -> f32
        "equeue.write"(%3127, %arg8) {bank = 0 : i64} : (f32, memref<1xf32>) -> ()
        %3128 = "equeue.read"(%arg6) {bank = 1 : i64} : (memref<1xf32>) -> f32
        "equeue.write"(%3128, %arg9) {bank = 0 : i64} : (f32, memref<1xf32>) -> ()
        %3129 = mulf %3127, %3128 : f32
        %3130 = "equeue.read"(%arg7) {bank = 2 : i64} : (memref<1xf32>) -> f32
        %3131 = addf %3129, %3130 : f32
        "equeue.write"(%3131, %arg7) {bank = 2 : i64} : (f32, memref<1xf32>) -> ()
        "equeue.return"() : () -> ()
      }) : (!equeue.signal, i32, memref<1xf32>, memref<1xf32>, memref<1xf32>, memref<1xf32>, memref<1xf32>, memref<3x3x3xf32>) -> !equeue.signal
      %317 = "equeue.control_and"(%316, %done_53) : (!equeue.signal, !equeue.signal) -> !equeue.signal
      %done_54 = "equeue.launch"(%312, %162, %165, %163, %164, %171, %195, %123) ( {
      ^bb0(%arg5: memref<1xf32>, %arg6: memref<1xf32>, %arg7: memref<1xf32>, %arg8: memref<1xf32>, %arg9: memref<1xf32>, %arg10: memref<3x3x3xf32>):  // no predecessors
        %3127 = "equeue.read"(%arg5) {bank = 0 : i64} : (memref<1xf32>) -> f32
        "equeue.write"(%3127, %arg8) {bank = 0 : i64} : (f32, memref<1xf32>) -> ()
        %3128 = "equeue.read"(%arg6) {bank = 1 : i64} : (memref<1xf32>) -> f32
        "equeue.write"(%3128, %arg9) {bank = 0 : i64} : (f32, memref<1xf32>) -> ()
        %3129 = mulf %3127, %3128 : f32
        %3130 = "equeue.read"(%arg7) {bank = 2 : i64} : (memref<1xf32>) -> f32
        %3131 = addf %3129, %3130 : f32
        "equeue.write"(%3131, %arg7) {bank = 2 : i64} : (f32, memref<1xf32>) -> ()
        "equeue.return"() : () -> ()
      }) : (!equeue.signal, i32, memref<1xf32>, memref<1xf32>, memref<1xf32>, memref<1xf32>, memref<1xf32>, memref<3x3x3xf32>) -> !equeue.signal
      %318 = "equeue.control_and"(%317, %done_54) : (!equeue.signal, !equeue.signal) -> !equeue.signal
      %done_55 = "equeue.launch"(%312, %192, %195, %193, %194, %201, %225, %123) ( {
      ^bb0(%arg5: memref<1xf32>, %arg6: memref<1xf32>, %arg7: memref<1xf32>, %arg8: memref<1xf32>, %arg9: memref<1xf32>, %arg10: memref<3x3x3xf32>):  // no predecessors
        %3127 = "equeue.read"(%arg5) {bank = 0 : i64} : (memref<1xf32>) -> f32
        "equeue.write"(%3127, %arg8) {bank = 0 : i64} : (f32, memref<1xf32>) -> ()
        %3128 = "equeue.read"(%arg6) {bank = 1 : i64} : (memref<1xf32>) -> f32
        "equeue.write"(%3128, %arg9) {bank = 0 : i64} : (f32, memref<1xf32>) -> ()
        %3129 = mulf %3127, %3128 : f32
        %3130 = "equeue.read"(%arg7) {bank = 2 : i64} : (memref<1xf32>) -> f32
        %3131 = addf %3129, %3130 : f32
        "equeue.write"(%3131, %arg7) {bank = 2 : i64} : (f32, memref<1xf32>) -> ()
        "equeue.return"() : () -> ()
      }) : (!equeue.signal, i32, memref<1xf32>, memref<1xf32>, memref<1xf32>, memref<1xf32>, memref<1xf32>, memref<3x3x3xf32>) -> !equeue.signal
      %319 = "equeue.control_and"(%318, %done_55) : (!equeue.signal, !equeue.signal) -> !equeue.signal
      %done_56 = "equeue.launch"(%312, %222, %225, %223, %224, %231, %255, %123) ( {
      ^bb0(%arg5: memref<1xf32>, %arg6: memref<1xf32>, %arg7: memref<1xf32>, %arg8: memref<1xf32>, %arg9: memref<1xf32>, %arg10: memref<3x3x3xf32>):  // no predecessors
        %3127 = "equeue.read"(%arg5) {bank = 0 : i64} : (memref<1xf32>) -> f32
        "equeue.write"(%3127, %arg8) {bank = 0 : i64} : (f32, memref<1xf32>) -> ()
        %3128 = "equeue.read"(%arg6) {bank = 1 : i64} : (memref<1xf32>) -> f32
        "equeue.write"(%3128, %arg9) {bank = 0 : i64} : (f32, memref<1xf32>) -> ()
        %3129 = mulf %3127, %3128 : f32
        %3130 = "equeue.read"(%arg7) {bank = 2 : i64} : (memref<1xf32>) -> f32
        %3131 = addf %3129, %3130 : f32
        "equeue.write"(%3131, %arg7) {bank = 2 : i64} : (f32, memref<1xf32>) -> ()
        "equeue.return"() : () -> ()
      }) : (!equeue.signal, i32, memref<1xf32>, memref<1xf32>, memref<1xf32>, memref<1xf32>, memref<1xf32>, memref<3x3x3xf32>) -> !equeue.signal
      %320 = "equeue.control_and"(%319, %done_56) : (!equeue.signal, !equeue.signal) -> !equeue.signal
      %done_57 = "equeue.launch"(%312, %252, %255, %253, %254, %261, %123) ( {
      ^bb0(%arg5: memref<1xf32>, %arg6: memref<1xf32>, %arg7: memref<1xf32>, %arg8: memref<1xf32>, %arg9: memref<3x3x3xf32>):  // no predecessors
        %3127 = "equeue.read"(%arg5) {bank = 0 : i64} : (memref<1xf32>) -> f32
        "equeue.write"(%3127, %arg8) {bank = 0 : i64} : (f32, memref<1xf32>) -> ()
        %3128 = "equeue.read"(%arg6) {bank = 1 : i64} : (memref<1xf32>) -> f32
        %3129 = mulf %3127, %3128 : f32
        %3130 = "equeue.read"(%arg7) {bank = 2 : i64} : (memref<1xf32>) -> f32
        %3131 = addf %3129, %3130 : f32
        "equeue.return"() : () -> ()
      }) : (!equeue.signal, i32, memref<1xf32>, memref<1xf32>, memref<1xf32>, memref<1xf32>, memref<3x3x3xf32>) -> !equeue.signal
      %321 = "equeue.control_and"(%320, %done_57) : (!equeue.signal, !equeue.signal) -> !equeue.signal
      %done_58 = "equeue.launch"(%312, %138, %141, %139, %140, %171, %123) ( {
      ^bb0(%arg5: memref<1xf32>, %arg6: memref<1xf32>, %arg7: memref<1xf32>, %arg8: memref<1xf32>, %arg9: memref<3x3x3xf32>):  // no predecessors
        %3127 = "equeue.read"(%arg5) {bank = 0 : i64} : (memref<1xf32>) -> f32
        "equeue.write"(%3127, %arg8) {bank = 0 : i64} : (f32, memref<1xf32>) -> ()
        %3128 = "equeue.read"(%arg6) {bank = 1 : i64} : (memref<1xf32>) -> f32
        %3129 = mulf %3127, %3128 : f32
        %3130 = "equeue.read"(%arg7) {bank = 2 : i64} : (memref<1xf32>) -> f32
        %3131 = addf %3129, %3130 : f32
        "equeue.write"(%3131, %arg7) {bank = 2 : i64} : (f32, memref<1xf32>) -> ()
        "equeue.return"() : () -> ()
      }) : (!equeue.signal, i32, memref<1xf32>, memref<1xf32>, memref<1xf32>, memref<1xf32>, memref<3x3x3xf32>) -> !equeue.signal
      %322 = "equeue.control_and"(%321, %done_58) : (!equeue.signal, !equeue.signal) -> !equeue.signal
      %done_59 = "equeue.launch"(%312, %168, %171, %169, %170, %201, %123) ( {
      ^bb0(%arg5: memref<1xf32>, %arg6: memref<1xf32>, %arg7: memref<1xf32>, %arg8: memref<1xf32>, %arg9: memref<3x3x3xf32>):  // no predecessors
        %3127 = "equeue.read"(%arg5) {bank = 0 : i64} : (memref<1xf32>) -> f32
        "equeue.write"(%3127, %arg8) {bank = 0 : i64} : (f32, memref<1xf32>) -> ()
        %3128 = "equeue.read"(%arg6) {bank = 1 : i64} : (memref<1xf32>) -> f32
        %3129 = mulf %3127, %3128 : f32
        %3130 = "equeue.read"(%arg7) {bank = 2 : i64} : (memref<1xf32>) -> f32
        %3131 = addf %3129, %3130 : f32
        "equeue.write"(%3131, %arg7) {bank = 2 : i64} : (f32, memref<1xf32>) -> ()
        "equeue.return"() : () -> ()
      }) : (!equeue.signal, i32, memref<1xf32>, memref<1xf32>, memref<1xf32>, memref<1xf32>, memref<3x3x3xf32>) -> !equeue.signal
      %323 = "equeue.control_and"(%322, %done_59) : (!equeue.signal, !equeue.signal) -> !equeue.signal
      %done_60 = "equeue.launch"(%312, %198, %201, %199, %200, %231, %123) ( {
      ^bb0(%arg5: memref<1xf32>, %arg6: memref<1xf32>, %arg7: memref<1xf32>, %arg8: memref<1xf32>, %arg9: memref<3x3x3xf32>):  // no predecessors
        %3127 = "equeue.read"(%arg5) {bank = 0 : i64} : (memref<1xf32>) -> f32
        "equeue.write"(%3127, %arg8) {bank = 0 : i64} : (f32, memref<1xf32>) -> ()
        %3128 = "equeue.read"(%arg6) {bank = 1 : i64} : (memref<1xf32>) -> f32
        %3129 = mulf %3127, %3128 : f32
        %3130 = "equeue.read"(%arg7) {bank = 2 : i64} : (memref<1xf32>) -> f32
        %3131 = addf %3129, %3130 : f32
        "equeue.write"(%3131, %arg7) {bank = 2 : i64} : (f32, memref<1xf32>) -> ()
        "equeue.return"() : () -> ()
      }) : (!equeue.signal, i32, memref<1xf32>, memref<1xf32>, memref<1xf32>, memref<1xf32>, memref<3x3x3xf32>) -> !equeue.signal
      %324 = "equeue.control_and"(%323, %done_60) : (!equeue.signal, !equeue.signal) -> !equeue.signal
      %done_61 = "equeue.launch"(%312, %228, %231, %229, %230, %261, %123) ( {
      ^bb0(%arg5: memref<1xf32>, %arg6: memref<1xf32>, %arg7: memref<1xf32>, %arg8: memref<1xf32>, %arg9: memref<3x3x3xf32>):  // no predecessors
        %3127 = "equeue.read"(%arg5) {bank = 0 : i64} : (memref<1xf32>) -> f32
        "equeue.write"(%3127, %arg8) {bank = 0 : i64} : (f32, memref<1xf32>) -> ()
        %3128 = "equeue.read"(%arg6) {bank = 1 : i64} : (memref<1xf32>) -> f32
        %3129 = mulf %3127, %3128 : f32
        %3130 = "equeue.read"(%arg7) {bank = 2 : i64} : (memref<1xf32>) -> f32
        %3131 = addf %3129, %3130 : f32
        "equeue.write"(%3131, %arg7) {bank = 2 : i64} : (f32, memref<1xf32>) -> ()
        "equeue.return"() : () -> ()
      }) : (!equeue.signal, i32, memref<1xf32>, memref<1xf32>, memref<1xf32>, memref<1xf32>, memref<3x3x3xf32>) -> !equeue.signal
      %325 = "equeue.control_and"(%324, %done_61) : (!equeue.signal, !equeue.signal) -> !equeue.signal
      %done_62 = "equeue.launch"(%312, %258, %261, %259, %260, %123) ( {
      ^bb0(%arg5: memref<1xf32>, %arg6: memref<1xf32>, %arg7: memref<1xf32>, %arg8: memref<3x3x3xf32>):  // no predecessors
        %3127 = "equeue.read"(%arg5) {bank = 0 : i64} : (memref<1xf32>) -> f32
        %3128 = "equeue.read"(%arg6) {bank = 1 : i64} : (memref<1xf32>) -> f32
        %3129 = mulf %3127, %3128 : f32
        %3130 = "equeue.read"(%arg7) {bank = 2 : i64} : (memref<1xf32>) -> f32
        %3131 = addf %3129, %3130 : f32
        "equeue.return"() : () -> ()
      }) : (!equeue.signal, i32, memref<1xf32>, memref<1xf32>, memref<1xf32>, memref<3x3x3xf32>) -> !equeue.signal
      %326 = "equeue.control_and"(%325, %done_62) : (!equeue.signal, !equeue.signal) -> !equeue.signal
      "equeue.await"(%326) : (!equeue.signal) -> ()
      %327 = "equeue.control_start"() : () -> !equeue.signal
      %328 = "equeue.memcpy"(%327, %121, %129, %102, %c0) {dest_bank = 0 : i64, src_bank = 0 : i64} : (!equeue.signal, memref<5x7x7xf32>, memref<1xf32>, i32, index) -> !equeue.signal
      "equeue.await"(%328) : (!equeue.signal) -> ()
      %329 = "equeue.control_start"() : () -> !equeue.signal
      %done_63 = "equeue.launch"(%329, %126, %129, %127, %128, %135, %159, %123) ( {
      ^bb0(%arg5: memref<1xf32>, %arg6: memref<1xf32>, %arg7: memref<1xf32>, %arg8: memref<1xf32>, %arg9: memref<1xf32>, %arg10: memref<3x3x3xf32>):  // no predecessors
        %3127 = "equeue.read"(%arg5) {bank = 0 : i64} : (memref<1xf32>) -> f32
        "equeue.write"(%3127, %arg8) {bank = 0 : i64} : (f32, memref<1xf32>) -> ()
        %3128 = "equeue.read"(%arg6) {bank = 1 : i64} : (memref<1xf32>) -> f32
        "equeue.write"(%3128, %arg9) {bank = 0 : i64} : (f32, memref<1xf32>) -> ()
        %3129 = mulf %3127, %3128 : f32
        %3130 = "equeue.read"(%arg7) {bank = 2 : i64} : (memref<1xf32>) -> f32
        %3131 = addf %3129, %3130 : f32
        "equeue.write"(%3131, %arg7) {bank = 2 : i64} : (f32, memref<1xf32>) -> ()
        "equeue.return"() : () -> ()
      }) : (!equeue.signal, i32, memref<1xf32>, memref<1xf32>, memref<1xf32>, memref<1xf32>, memref<1xf32>, memref<3x3x3xf32>) -> !equeue.signal
      %done_64 = "equeue.launch"(%329, %156, %159, %157, %158, %165, %189, %123) ( {
      ^bb0(%arg5: memref<1xf32>, %arg6: memref<1xf32>, %arg7: memref<1xf32>, %arg8: memref<1xf32>, %arg9: memref<1xf32>, %arg10: memref<3x3x3xf32>):  // no predecessors
        %3127 = "equeue.read"(%arg5) {bank = 0 : i64} : (memref<1xf32>) -> f32
        "equeue.write"(%3127, %arg8) {bank = 0 : i64} : (f32, memref<1xf32>) -> ()
        %3128 = "equeue.read"(%arg6) {bank = 1 : i64} : (memref<1xf32>) -> f32
        "equeue.write"(%3128, %arg9) {bank = 0 : i64} : (f32, memref<1xf32>) -> ()
        %3129 = mulf %3127, %3128 : f32
        %3130 = "equeue.read"(%arg7) {bank = 2 : i64} : (memref<1xf32>) -> f32
        %3131 = addf %3129, %3130 : f32
        "equeue.write"(%3131, %arg7) {bank = 2 : i64} : (f32, memref<1xf32>) -> ()
        "equeue.return"() : () -> ()
      }) : (!equeue.signal, i32, memref<1xf32>, memref<1xf32>, memref<1xf32>, memref<1xf32>, memref<1xf32>, memref<3x3x3xf32>) -> !equeue.signal
      %330 = "equeue.control_and"(%done_63, %done_64) : (!equeue.signal, !equeue.signal) -> !equeue.signal
      %done_65 = "equeue.launch"(%329, %186, %189, %187, %188, %195, %219, %123) ( {
      ^bb0(%arg5: memref<1xf32>, %arg6: memref<1xf32>, %arg7: memref<1xf32>, %arg8: memref<1xf32>, %arg9: memref<1xf32>, %arg10: memref<3x3x3xf32>):  // no predecessors
        %3127 = "equeue.read"(%arg5) {bank = 0 : i64} : (memref<1xf32>) -> f32
        "equeue.write"(%3127, %arg8) {bank = 0 : i64} : (f32, memref<1xf32>) -> ()
        %3128 = "equeue.read"(%arg6) {bank = 1 : i64} : (memref<1xf32>) -> f32
        "equeue.write"(%3128, %arg9) {bank = 0 : i64} : (f32, memref<1xf32>) -> ()
        %3129 = mulf %3127, %3128 : f32
        %3130 = "equeue.read"(%arg7) {bank = 2 : i64} : (memref<1xf32>) -> f32
        %3131 = addf %3129, %3130 : f32
        "equeue.write"(%3131, %arg7) {bank = 2 : i64} : (f32, memref<1xf32>) -> ()
        "equeue.return"() : () -> ()
      }) : (!equeue.signal, i32, memref<1xf32>, memref<1xf32>, memref<1xf32>, memref<1xf32>, memref<1xf32>, memref<3x3x3xf32>) -> !equeue.signal
      %331 = "equeue.control_and"(%330, %done_65) : (!equeue.signal, !equeue.signal) -> !equeue.signal
      %done_66 = "equeue.launch"(%329, %216, %219, %217, %218, %225, %249, %123) ( {
      ^bb0(%arg5: memref<1xf32>, %arg6: memref<1xf32>, %arg7: memref<1xf32>, %arg8: memref<1xf32>, %arg9: memref<1xf32>, %arg10: memref<3x3x3xf32>):  // no predecessors
        %3127 = "equeue.read"(%arg5) {bank = 0 : i64} : (memref<1xf32>) -> f32
        "equeue.write"(%3127, %arg8) {bank = 0 : i64} : (f32, memref<1xf32>) -> ()
        %3128 = "equeue.read"(%arg6) {bank = 1 : i64} : (memref<1xf32>) -> f32
        "equeue.write"(%3128, %arg9) {bank = 0 : i64} : (f32, memref<1xf32>) -> ()
        %3129 = mulf %3127, %3128 : f32
        %3130 = "equeue.read"(%arg7) {bank = 2 : i64} : (memref<1xf32>) -> f32
        %3131 = addf %3129, %3130 : f32
        "equeue.write"(%3131, %arg7) {bank = 2 : i64} : (f32, memref<1xf32>) -> ()
        "equeue.return"() : () -> ()
      }) : (!equeue.signal, i32, memref<1xf32>, memref<1xf32>, memref<1xf32>, memref<1xf32>, memref<1xf32>, memref<3x3x3xf32>) -> !equeue.signal
      %332 = "equeue.control_and"(%331, %done_66) : (!equeue.signal, !equeue.signal) -> !equeue.signal
      %done_67 = "equeue.launch"(%329, %246, %249, %247, %248, %255, %123) ( {
      ^bb0(%arg5: memref<1xf32>, %arg6: memref<1xf32>, %arg7: memref<1xf32>, %arg8: memref<1xf32>, %arg9: memref<3x3x3xf32>):  // no predecessors
        %3127 = "equeue.read"(%arg5) {bank = 0 : i64} : (memref<1xf32>) -> f32
        "equeue.write"(%3127, %arg8) {bank = 0 : i64} : (f32, memref<1xf32>) -> ()
        %3128 = "equeue.read"(%arg6) {bank = 1 : i64} : (memref<1xf32>) -> f32
        %3129 = mulf %3127, %3128 : f32
        %3130 = "equeue.read"(%arg7) {bank = 2 : i64} : (memref<1xf32>) -> f32
        %3131 = addf %3129, %3130 : f32
        "equeue.return"() : () -> ()
      }) : (!equeue.signal, i32, memref<1xf32>, memref<1xf32>, memref<1xf32>, memref<1xf32>, memref<3x3x3xf32>) -> !equeue.signal
      %333 = "equeue.control_and"(%332, %done_67) : (!equeue.signal, !equeue.signal) -> !equeue.signal
      %done_68 = "equeue.launch"(%329, %132, %135, %133, %134, %141, %165, %123) ( {
      ^bb0(%arg5: memref<1xf32>, %arg6: memref<1xf32>, %arg7: memref<1xf32>, %arg8: memref<1xf32>, %arg9: memref<1xf32>, %arg10: memref<3x3x3xf32>):  // no predecessors
        %3127 = "equeue.read"(%arg5) {bank = 0 : i64} : (memref<1xf32>) -> f32
        "equeue.write"(%3127, %arg8) {bank = 0 : i64} : (f32, memref<1xf32>) -> ()
        %3128 = "equeue.read"(%arg6) {bank = 1 : i64} : (memref<1xf32>) -> f32
        "equeue.write"(%3128, %arg9) {bank = 0 : i64} : (f32, memref<1xf32>) -> ()
        %3129 = mulf %3127, %3128 : f32
        %3130 = "equeue.read"(%arg7) {bank = 2 : i64} : (memref<1xf32>) -> f32
        %3131 = addf %3129, %3130 : f32
        "equeue.write"(%3131, %arg7) {bank = 2 : i64} : (f32, memref<1xf32>) -> ()
        "equeue.return"() : () -> ()
      }) : (!equeue.signal, i32, memref<1xf32>, memref<1xf32>, memref<1xf32>, memref<1xf32>, memref<1xf32>, memref<3x3x3xf32>) -> !equeue.signal
      %334 = "equeue.control_and"(%333, %done_68) : (!equeue.signal, !equeue.signal) -> !equeue.signal
      %done_69 = "equeue.launch"(%329, %162, %165, %163, %164, %171, %195, %123) ( {
      ^bb0(%arg5: memref<1xf32>, %arg6: memref<1xf32>, %arg7: memref<1xf32>, %arg8: memref<1xf32>, %arg9: memref<1xf32>, %arg10: memref<3x3x3xf32>):  // no predecessors
        %3127 = "equeue.read"(%arg5) {bank = 0 : i64} : (memref<1xf32>) -> f32
        "equeue.write"(%3127, %arg8) {bank = 0 : i64} : (f32, memref<1xf32>) -> ()
        %3128 = "equeue.read"(%arg6) {bank = 1 : i64} : (memref<1xf32>) -> f32
        "equeue.write"(%3128, %arg9) {bank = 0 : i64} : (f32, memref<1xf32>) -> ()
        %3129 = mulf %3127, %3128 : f32
        %3130 = "equeue.read"(%arg7) {bank = 2 : i64} : (memref<1xf32>) -> f32
        %3131 = addf %3129, %3130 : f32
        "equeue.write"(%3131, %arg7) {bank = 2 : i64} : (f32, memref<1xf32>) -> ()
        "equeue.return"() : () -> ()
      }) : (!equeue.signal, i32, memref<1xf32>, memref<1xf32>, memref<1xf32>, memref<1xf32>, memref<1xf32>, memref<3x3x3xf32>) -> !equeue.signal
      %335 = "equeue.control_and"(%334, %done_69) : (!equeue.signal, !equeue.signal) -> !equeue.signal
      %done_70 = "equeue.launch"(%329, %192, %195, %193, %194, %201, %225, %123) ( {
      ^bb0(%arg5: memref<1xf32>, %arg6: memref<1xf32>, %arg7: memref<1xf32>, %arg8: memref<1xf32>, %arg9: memref<1xf32>, %arg10: memref<3x3x3xf32>):  // no predecessors
        %3127 = "equeue.read"(%arg5) {bank = 0 : i64} : (memref<1xf32>) -> f32
        "equeue.write"(%3127, %arg8) {bank = 0 : i64} : (f32, memref<1xf32>) -> ()
        %3128 = "equeue.read"(%arg6) {bank = 1 : i64} : (memref<1xf32>) -> f32
        "equeue.write"(%3128, %arg9) {bank = 0 : i64} : (f32, memref<1xf32>) -> ()
        %3129 = mulf %3127, %3128 : f32
        %3130 = "equeue.read"(%arg7) {bank = 2 : i64} : (memref<1xf32>) -> f32
        %3131 = addf %3129, %3130 : f32
        "equeue.write"(%3131, %arg7) {bank = 2 : i64} : (f32, memref<1xf32>) -> ()
        "equeue.return"() : () -> ()
      }) : (!equeue.signal, i32, memref<1xf32>, memref<1xf32>, memref<1xf32>, memref<1xf32>, memref<1xf32>, memref<3x3x3xf32>) -> !equeue.signal
      %336 = "equeue.control_and"(%335, %done_70) : (!equeue.signal, !equeue.signal) -> !equeue.signal
      %done_71 = "equeue.launch"(%329, %222, %225, %223, %224, %231, %255, %123) ( {
      ^bb0(%arg5: memref<1xf32>, %arg6: memref<1xf32>, %arg7: memref<1xf32>, %arg8: memref<1xf32>, %arg9: memref<1xf32>, %arg10: memref<3x3x3xf32>):  // no predecessors
        %3127 = "equeue.read"(%arg5) {bank = 0 : i64} : (memref<1xf32>) -> f32
        "equeue.write"(%3127, %arg8) {bank = 0 : i64} : (f32, memref<1xf32>) -> ()
        %3128 = "equeue.read"(%arg6) {bank = 1 : i64} : (memref<1xf32>) -> f32
        "equeue.write"(%3128, %arg9) {bank = 0 : i64} : (f32, memref<1xf32>) -> ()
        %3129 = mulf %3127, %3128 : f32
        %3130 = "equeue.read"(%arg7) {bank = 2 : i64} : (memref<1xf32>) -> f32
        %3131 = addf %3129, %3130 : f32
        "equeue.write"(%3131, %arg7) {bank = 2 : i64} : (f32, memref<1xf32>) -> ()
        "equeue.return"() : () -> ()
      }) : (!equeue.signal, i32, memref<1xf32>, memref<1xf32>, memref<1xf32>, memref<1xf32>, memref<1xf32>, memref<3x3x3xf32>) -> !equeue.signal
      %337 = "equeue.control_and"(%336, %done_71) : (!equeue.signal, !equeue.signal) -> !equeue.signal
      %done_72 = "equeue.launch"(%329, %252, %255, %253, %254, %261, %123) ( {
      ^bb0(%arg5: memref<1xf32>, %arg6: memref<1xf32>, %arg7: memref<1xf32>, %arg8: memref<1xf32>, %arg9: memref<3x3x3xf32>):  // no predecessors
        %3127 = "equeue.read"(%arg5) {bank = 0 : i64} : (memref<1xf32>) -> f32
        "equeue.write"(%3127, %arg8) {bank = 0 : i64} : (f32, memref<1xf32>) -> ()
        %3128 = "equeue.read"(%arg6) {bank = 1 : i64} : (memref<1xf32>) -> f32
        %3129 = mulf %3127, %3128 : f32
        %3130 = "equeue.read"(%arg7) {bank = 2 : i64} : (memref<1xf32>) -> f32
        %3131 = addf %3129, %3130 : f32
        "equeue.return"() : () -> ()
      }) : (!equeue.signal, i32, memref<1xf32>, memref<1xf32>, memref<1xf32>, memref<1xf32>, memref<3x3x3xf32>) -> !equeue.signal
      %338 = "equeue.control_and"(%337, %done_72) : (!equeue.signal, !equeue.signal) -> !equeue.signal
      %done_73 = "equeue.launch"(%329, %138, %141, %139, %140, %171, %123) ( {
      ^bb0(%arg5: memref<1xf32>, %arg6: memref<1xf32>, %arg7: memref<1xf32>, %arg8: memref<1xf32>, %arg9: memref<3x3x3xf32>):  // no predecessors
        %3127 = "equeue.read"(%arg5) {bank = 0 : i64} : (memref<1xf32>) -> f32
        "equeue.write"(%3127, %arg8) {bank = 0 : i64} : (f32, memref<1xf32>) -> ()
        %3128 = "equeue.read"(%arg6) {bank = 1 : i64} : (memref<1xf32>) -> f32
        %3129 = mulf %3127, %3128 : f32
        %3130 = "equeue.read"(%arg7) {bank = 2 : i64} : (memref<1xf32>) -> f32
        %3131 = addf %3129, %3130 : f32
        "equeue.write"(%3131, %arg7) {bank = 2 : i64} : (f32, memref<1xf32>) -> ()
        "equeue.return"() : () -> ()
      }) : (!equeue.signal, i32, memref<1xf32>, memref<1xf32>, memref<1xf32>, memref<1xf32>, memref<3x3x3xf32>) -> !equeue.signal
      %339 = "equeue.control_and"(%338, %done_73) : (!equeue.signal, !equeue.signal) -> !equeue.signal
      %done_74 = "equeue.launch"(%329, %168, %171, %169, %170, %201, %123) ( {
      ^bb0(%arg5: memref<1xf32>, %arg6: memref<1xf32>, %arg7: memref<1xf32>, %arg8: memref<1xf32>, %arg9: memref<3x3x3xf32>):  // no predecessors
        %3127 = "equeue.read"(%arg5) {bank = 0 : i64} : (memref<1xf32>) -> f32
        "equeue.write"(%3127, %arg8) {bank = 0 : i64} : (f32, memref<1xf32>) -> ()
        %3128 = "equeue.read"(%arg6) {bank = 1 : i64} : (memref<1xf32>) -> f32
        %3129 = mulf %3127, %3128 : f32
        %3130 = "equeue.read"(%arg7) {bank = 2 : i64} : (memref<1xf32>) -> f32
        %3131 = addf %3129, %3130 : f32
        "equeue.write"(%3131, %arg7) {bank = 2 : i64} : (f32, memref<1xf32>) -> ()
        "equeue.return"() : () -> ()
      }) : (!equeue.signal, i32, memref<1xf32>, memref<1xf32>, memref<1xf32>, memref<1xf32>, memref<3x3x3xf32>) -> !equeue.signal
      %340 = "equeue.control_and"(%339, %done_74) : (!equeue.signal, !equeue.signal) -> !equeue.signal
      %done_75 = "equeue.launch"(%329, %198, %201, %199, %200, %231, %123) ( {
      ^bb0(%arg5: memref<1xf32>, %arg6: memref<1xf32>, %arg7: memref<1xf32>, %arg8: memref<1xf32>, %arg9: memref<3x3x3xf32>):  // no predecessors
        %3127 = "equeue.read"(%arg5) {bank = 0 : i64} : (memref<1xf32>) -> f32
        "equeue.write"(%3127, %arg8) {bank = 0 : i64} : (f32, memref<1xf32>) -> ()
        %3128 = "equeue.read"(%arg6) {bank = 1 : i64} : (memref<1xf32>) -> f32
        %3129 = mulf %3127, %3128 : f32
        %3130 = "equeue.read"(%arg7) {bank = 2 : i64} : (memref<1xf32>) -> f32
        %3131 = addf %3129, %3130 : f32
        "equeue.write"(%3131, %arg7) {bank = 2 : i64} : (f32, memref<1xf32>) -> ()
        "equeue.return"() : () -> ()
      }) : (!equeue.signal, i32, memref<1xf32>, memref<1xf32>, memref<1xf32>, memref<1xf32>, memref<3x3x3xf32>) -> !equeue.signal
      %341 = "equeue.control_and"(%340, %done_75) : (!equeue.signal, !equeue.signal) -> !equeue.signal
      %done_76 = "equeue.launch"(%329, %228, %231, %229, %230, %261, %123) ( {
      ^bb0(%arg5: memref<1xf32>, %arg6: memref<1xf32>, %arg7: memref<1xf32>, %arg8: memref<1xf32>, %arg9: memref<3x3x3xf32>):  // no predecessors
        %3127 = "equeue.read"(%arg5) {bank = 0 : i64} : (memref<1xf32>) -> f32
        "equeue.write"(%3127, %arg8) {bank = 0 : i64} : (f32, memref<1xf32>) -> ()
        %3128 = "equeue.read"(%arg6) {bank = 1 : i64} : (memref<1xf32>) -> f32
        %3129 = mulf %3127, %3128 : f32
        %3130 = "equeue.read"(%arg7) {bank = 2 : i64} : (memref<1xf32>) -> f32
        %3131 = addf %3129, %3130 : f32
        "equeue.write"(%3131, %arg7) {bank = 2 : i64} : (f32, memref<1xf32>) -> ()
        "equeue.return"() : () -> ()
      }) : (!equeue.signal, i32, memref<1xf32>, memref<1xf32>, memref<1xf32>, memref<1xf32>, memref<3x3x3xf32>) -> !equeue.signal
      %342 = "equeue.control_and"(%341, %done_76) : (!equeue.signal, !equeue.signal) -> !equeue.signal
      %done_77 = "equeue.launch"(%329, %258, %261, %259, %260, %123) ( {
      ^bb0(%arg5: memref<1xf32>, %arg6: memref<1xf32>, %arg7: memref<1xf32>, %arg8: memref<3x3x3xf32>):  // no predecessors
        %3127 = "equeue.read"(%arg5) {bank = 0 : i64} : (memref<1xf32>) -> f32
        %3128 = "equeue.read"(%arg6) {bank = 1 : i64} : (memref<1xf32>) -> f32
        %3129 = mulf %3127, %3128 : f32
        %3130 = "equeue.read"(%arg7) {bank = 2 : i64} : (memref<1xf32>) -> f32
        %3131 = addf %3129, %3130 : f32
        "equeue.return"() : () -> ()
      }) : (!equeue.signal, i32, memref<1xf32>, memref<1xf32>, memref<1xf32>, memref<3x3x3xf32>) -> !equeue.signal
      %343 = "equeue.control_and"(%342, %done_77) : (!equeue.signal, !equeue.signal) -> !equeue.signal
      "equeue.await"(%343) : (!equeue.signal) -> ()
      %344 = "equeue.control_start"() : () -> !equeue.signal
      %345 = "equeue.memcpy"(%344, %121, %129, %102, %c0) {dest_bank = 0 : i64, src_bank = 0 : i64} : (!equeue.signal, memref<5x7x7xf32>, memref<1xf32>, i32, index) -> !equeue.signal
      "equeue.await"(%345) : (!equeue.signal) -> ()
      %346 = "equeue.control_start"() : () -> !equeue.signal
      %done_78 = "equeue.launch"(%346, %126, %129, %127, %128, %135, %159, %123) ( {
      ^bb0(%arg5: memref<1xf32>, %arg6: memref<1xf32>, %arg7: memref<1xf32>, %arg8: memref<1xf32>, %arg9: memref<1xf32>, %arg10: memref<3x3x3xf32>):  // no predecessors
        %3127 = "equeue.read"(%arg5) {bank = 0 : i64} : (memref<1xf32>) -> f32
        "equeue.write"(%3127, %arg8) {bank = 0 : i64} : (f32, memref<1xf32>) -> ()
        %3128 = "equeue.read"(%arg6) {bank = 1 : i64} : (memref<1xf32>) -> f32
        "equeue.write"(%3128, %arg9) {bank = 0 : i64} : (f32, memref<1xf32>) -> ()
        %3129 = mulf %3127, %3128 : f32
        %3130 = "equeue.read"(%arg7) {bank = 2 : i64} : (memref<1xf32>) -> f32
        %3131 = addf %3129, %3130 : f32
        "equeue.write"(%3131, %arg7) {bank = 2 : i64} : (f32, memref<1xf32>) -> ()
        "equeue.return"() : () -> ()
      }) : (!equeue.signal, i32, memref<1xf32>, memref<1xf32>, memref<1xf32>, memref<1xf32>, memref<1xf32>, memref<3x3x3xf32>) -> !equeue.signal
      %done_79 = "equeue.launch"(%346, %156, %159, %157, %158, %165, %189, %123) ( {
      ^bb0(%arg5: memref<1xf32>, %arg6: memref<1xf32>, %arg7: memref<1xf32>, %arg8: memref<1xf32>, %arg9: memref<1xf32>, %arg10: memref<3x3x3xf32>):  // no predecessors
        %3127 = "equeue.read"(%arg5) {bank = 0 : i64} : (memref<1xf32>) -> f32
        "equeue.write"(%3127, %arg8) {bank = 0 : i64} : (f32, memref<1xf32>) -> ()
        %3128 = "equeue.read"(%arg6) {bank = 1 : i64} : (memref<1xf32>) -> f32
        "equeue.write"(%3128, %arg9) {bank = 0 : i64} : (f32, memref<1xf32>) -> ()
        %3129 = mulf %3127, %3128 : f32
        %3130 = "equeue.read"(%arg7) {bank = 2 : i64} : (memref<1xf32>) -> f32
        %3131 = addf %3129, %3130 : f32
        "equeue.write"(%3131, %arg7) {bank = 2 : i64} : (f32, memref<1xf32>) -> ()
        "equeue.return"() : () -> ()
      }) : (!equeue.signal, i32, memref<1xf32>, memref<1xf32>, memref<1xf32>, memref<1xf32>, memref<1xf32>, memref<3x3x3xf32>) -> !equeue.signal
      %347 = "equeue.control_and"(%done_78, %done_79) : (!equeue.signal, !equeue.signal) -> !equeue.signal
      %done_80 = "equeue.launch"(%346, %186, %189, %187, %188, %195, %219, %123) ( {
      ^bb0(%arg5: memref<1xf32>, %arg6: memref<1xf32>, %arg7: memref<1xf32>, %arg8: memref<1xf32>, %arg9: memref<1xf32>, %arg10: memref<3x3x3xf32>):  // no predecessors
        %3127 = "equeue.read"(%arg5) {bank = 0 : i64} : (memref<1xf32>) -> f32
        "equeue.write"(%3127, %arg8) {bank = 0 : i64} : (f32, memref<1xf32>) -> ()
        %3128 = "equeue.read"(%arg6) {bank = 1 : i64} : (memref<1xf32>) -> f32
        "equeue.write"(%3128, %arg9) {bank = 0 : i64} : (f32, memref<1xf32>) -> ()
        %3129 = mulf %3127, %3128 : f32
        %3130 = "equeue.read"(%arg7) {bank = 2 : i64} : (memref<1xf32>) -> f32
        %3131 = addf %3129, %3130 : f32
        "equeue.write"(%3131, %arg7) {bank = 2 : i64} : (f32, memref<1xf32>) -> ()
        "equeue.return"() : () -> ()
      }) : (!equeue.signal, i32, memref<1xf32>, memref<1xf32>, memref<1xf32>, memref<1xf32>, memref<1xf32>, memref<3x3x3xf32>) -> !equeue.signal
      %348 = "equeue.control_and"(%347, %done_80) : (!equeue.signal, !equeue.signal) -> !equeue.signal
      %done_81 = "equeue.launch"(%346, %216, %219, %217, %218, %225, %249, %123) ( {
      ^bb0(%arg5: memref<1xf32>, %arg6: memref<1xf32>, %arg7: memref<1xf32>, %arg8: memref<1xf32>, %arg9: memref<1xf32>, %arg10: memref<3x3x3xf32>):  // no predecessors
        %3127 = "equeue.read"(%arg5) {bank = 0 : i64} : (memref<1xf32>) -> f32
        "equeue.write"(%3127, %arg8) {bank = 0 : i64} : (f32, memref<1xf32>) -> ()
        %3128 = "equeue.read"(%arg6) {bank = 1 : i64} : (memref<1xf32>) -> f32
        "equeue.write"(%3128, %arg9) {bank = 0 : i64} : (f32, memref<1xf32>) -> ()
        %3129 = mulf %3127, %3128 : f32
        %3130 = "equeue.read"(%arg7) {bank = 2 : i64} : (memref<1xf32>) -> f32
        %3131 = addf %3129, %3130 : f32
        "equeue.write"(%3131, %arg7) {bank = 2 : i64} : (f32, memref<1xf32>) -> ()
        "equeue.return"() : () -> ()
      }) : (!equeue.signal, i32, memref<1xf32>, memref<1xf32>, memref<1xf32>, memref<1xf32>, memref<1xf32>, memref<3x3x3xf32>) -> !equeue.signal
      %349 = "equeue.control_and"(%348, %done_81) : (!equeue.signal, !equeue.signal) -> !equeue.signal
      %done_82 = "equeue.launch"(%346, %246, %249, %247, %248, %255, %123) ( {
      ^bb0(%arg5: memref<1xf32>, %arg6: memref<1xf32>, %arg7: memref<1xf32>, %arg8: memref<1xf32>, %arg9: memref<3x3x3xf32>):  // no predecessors
        %3127 = "equeue.read"(%arg5) {bank = 0 : i64} : (memref<1xf32>) -> f32
        "equeue.write"(%3127, %arg8) {bank = 0 : i64} : (f32, memref<1xf32>) -> ()
        %3128 = "equeue.read"(%arg6) {bank = 1 : i64} : (memref<1xf32>) -> f32
        %3129 = mulf %3127, %3128 : f32
        %3130 = "equeue.read"(%arg7) {bank = 2 : i64} : (memref<1xf32>) -> f32
        %3131 = addf %3129, %3130 : f32
        "equeue.return"() : () -> ()
      }) : (!equeue.signal, i32, memref<1xf32>, memref<1xf32>, memref<1xf32>, memref<1xf32>, memref<3x3x3xf32>) -> !equeue.signal
      %350 = "equeue.control_and"(%349, %done_82) : (!equeue.signal, !equeue.signal) -> !equeue.signal
      %done_83 = "equeue.launch"(%346, %132, %135, %133, %134, %141, %165, %123) ( {
      ^bb0(%arg5: memref<1xf32>, %arg6: memref<1xf32>, %arg7: memref<1xf32>, %arg8: memref<1xf32>, %arg9: memref<1xf32>, %arg10: memref<3x3x3xf32>):  // no predecessors
        %3127 = "equeue.read"(%arg5) {bank = 0 : i64} : (memref<1xf32>) -> f32
        "equeue.write"(%3127, %arg8) {bank = 0 : i64} : (f32, memref<1xf32>) -> ()
        %3128 = "equeue.read"(%arg6) {bank = 1 : i64} : (memref<1xf32>) -> f32
        "equeue.write"(%3128, %arg9) {bank = 0 : i64} : (f32, memref<1xf32>) -> ()
        %3129 = mulf %3127, %3128 : f32
        %3130 = "equeue.read"(%arg7) {bank = 2 : i64} : (memref<1xf32>) -> f32
        %3131 = addf %3129, %3130 : f32
        "equeue.write"(%3131, %arg7) {bank = 2 : i64} : (f32, memref<1xf32>) -> ()
        "equeue.return"() : () -> ()
      }) : (!equeue.signal, i32, memref<1xf32>, memref<1xf32>, memref<1xf32>, memref<1xf32>, memref<1xf32>, memref<3x3x3xf32>) -> !equeue.signal
      %351 = "equeue.control_and"(%350, %done_83) : (!equeue.signal, !equeue.signal) -> !equeue.signal
      %done_84 = "equeue.launch"(%346, %162, %165, %163, %164, %171, %195, %123) ( {
      ^bb0(%arg5: memref<1xf32>, %arg6: memref<1xf32>, %arg7: memref<1xf32>, %arg8: memref<1xf32>, %arg9: memref<1xf32>, %arg10: memref<3x3x3xf32>):  // no predecessors
        %3127 = "equeue.read"(%arg5) {bank = 0 : i64} : (memref<1xf32>) -> f32
        "equeue.write"(%3127, %arg8) {bank = 0 : i64} : (f32, memref<1xf32>) -> ()
        %3128 = "equeue.read"(%arg6) {bank = 1 : i64} : (memref<1xf32>) -> f32
        "equeue.write"(%3128, %arg9) {bank = 0 : i64} : (f32, memref<1xf32>) -> ()
        %3129 = mulf %3127, %3128 : f32
        %3130 = "equeue.read"(%arg7) {bank = 2 : i64} : (memref<1xf32>) -> f32
        %3131 = addf %3129, %3130 : f32
        "equeue.write"(%3131, %arg7) {bank = 2 : i64} : (f32, memref<1xf32>) -> ()
        "equeue.return"() : () -> ()
      }) : (!equeue.signal, i32, memref<1xf32>, memref<1xf32>, memref<1xf32>, memref<1xf32>, memref<1xf32>, memref<3x3x3xf32>) -> !equeue.signal
      %352 = "equeue.control_and"(%351, %done_84) : (!equeue.signal, !equeue.signal) -> !equeue.signal
      %done_85 = "equeue.launch"(%346, %192, %195, %193, %194, %201, %225, %123) ( {
      ^bb0(%arg5: memref<1xf32>, %arg6: memref<1xf32>, %arg7: memref<1xf32>, %arg8: memref<1xf32>, %arg9: memref<1xf32>, %arg10: memref<3x3x3xf32>):  // no predecessors
        %3127 = "equeue.read"(%arg5) {bank = 0 : i64} : (memref<1xf32>) -> f32
        "equeue.write"(%3127, %arg8) {bank = 0 : i64} : (f32, memref<1xf32>) -> ()
        %3128 = "equeue.read"(%arg6) {bank = 1 : i64} : (memref<1xf32>) -> f32
        "equeue.write"(%3128, %arg9) {bank = 0 : i64} : (f32, memref<1xf32>) -> ()
        %3129 = mulf %3127, %3128 : f32
        %3130 = "equeue.read"(%arg7) {bank = 2 : i64} : (memref<1xf32>) -> f32
        %3131 = addf %3129, %3130 : f32
        "equeue.write"(%3131, %arg7) {bank = 2 : i64} : (f32, memref<1xf32>) -> ()
        "equeue.return"() : () -> ()
      }) : (!equeue.signal, i32, memref<1xf32>, memref<1xf32>, memref<1xf32>, memref<1xf32>, memref<1xf32>, memref<3x3x3xf32>) -> !equeue.signal
      %353 = "equeue.control_and"(%352, %done_85) : (!equeue.signal, !equeue.signal) -> !equeue.signal
      %done_86 = "equeue.launch"(%346, %222, %225, %223, %224, %231, %255, %123) ( {
      ^bb0(%arg5: memref<1xf32>, %arg6: memref<1xf32>, %arg7: memref<1xf32>, %arg8: memref<1xf32>, %arg9: memref<1xf32>, %arg10: memref<3x3x3xf32>):  // no predecessors
        %3127 = "equeue.read"(%arg5) {bank = 0 : i64} : (memref<1xf32>) -> f32
        "equeue.write"(%3127, %arg8) {bank = 0 : i64} : (f32, memref<1xf32>) -> ()
        %3128 = "equeue.read"(%arg6) {bank = 1 : i64} : (memref<1xf32>) -> f32
        "equeue.write"(%3128, %arg9) {bank = 0 : i64} : (f32, memref<1xf32>) -> ()
        %3129 = mulf %3127, %3128 : f32
        %3130 = "equeue.read"(%arg7) {bank = 2 : i64} : (memref<1xf32>) -> f32
        %3131 = addf %3129, %3130 : f32
        "equeue.write"(%3131, %arg7) {bank = 2 : i64} : (f32, memref<1xf32>) -> ()
        "equeue.return"() : () -> ()
      }) : (!equeue.signal, i32, memref<1xf32>, memref<1xf32>, memref<1xf32>, memref<1xf32>, memref<1xf32>, memref<3x3x3xf32>) -> !equeue.signal
      %354 = "equeue.control_and"(%353, %done_86) : (!equeue.signal, !equeue.signal) -> !equeue.signal
      %done_87 = "equeue.launch"(%346, %252, %255, %253, %254, %261, %123) ( {
      ^bb0(%arg5: memref<1xf32>, %arg6: memref<1xf32>, %arg7: memref<1xf32>, %arg8: memref<1xf32>, %arg9: memref<3x3x3xf32>):  // no predecessors
        %3127 = "equeue.read"(%arg5) {bank = 0 : i64} : (memref<1xf32>) -> f32
        "equeue.write"(%3127, %arg8) {bank = 0 : i64} : (f32, memref<1xf32>) -> ()
        %3128 = "equeue.read"(%arg6) {bank = 1 : i64} : (memref<1xf32>) -> f32
        %3129 = mulf %3127, %3128 : f32
        %3130 = "equeue.read"(%arg7) {bank = 2 : i64} : (memref<1xf32>) -> f32
        %3131 = addf %3129, %3130 : f32
        "equeue.return"() : () -> ()
      }) : (!equeue.signal, i32, memref<1xf32>, memref<1xf32>, memref<1xf32>, memref<1xf32>, memref<3x3x3xf32>) -> !equeue.signal
      %355 = "equeue.control_and"(%354, %done_87) : (!equeue.signal, !equeue.signal) -> !equeue.signal
      %done_88 = "equeue.launch"(%346, %138, %141, %139, %140, %171, %123) ( {
      ^bb0(%arg5: memref<1xf32>, %arg6: memref<1xf32>, %arg7: memref<1xf32>, %arg8: memref<1xf32>, %arg9: memref<3x3x3xf32>):  // no predecessors
        %3127 = "equeue.read"(%arg5) {bank = 0 : i64} : (memref<1xf32>) -> f32
        "equeue.write"(%3127, %arg8) {bank = 0 : i64} : (f32, memref<1xf32>) -> ()
        %3128 = "equeue.read"(%arg6) {bank = 1 : i64} : (memref<1xf32>) -> f32
        %3129 = mulf %3127, %3128 : f32
        %3130 = "equeue.read"(%arg7) {bank = 2 : i64} : (memref<1xf32>) -> f32
        %3131 = addf %3129, %3130 : f32
        "equeue.write"(%3131, %arg7) {bank = 2 : i64} : (f32, memref<1xf32>) -> ()
        "equeue.return"() : () -> ()
      }) : (!equeue.signal, i32, memref<1xf32>, memref<1xf32>, memref<1xf32>, memref<1xf32>, memref<3x3x3xf32>) -> !equeue.signal
      %356 = "equeue.control_and"(%355, %done_88) : (!equeue.signal, !equeue.signal) -> !equeue.signal
      %done_89 = "equeue.launch"(%346, %168, %171, %169, %170, %201, %123) ( {
      ^bb0(%arg5: memref<1xf32>, %arg6: memref<1xf32>, %arg7: memref<1xf32>, %arg8: memref<1xf32>, %arg9: memref<3x3x3xf32>):  // no predecessors
        %3127 = "equeue.read"(%arg5) {bank = 0 : i64} : (memref<1xf32>) -> f32
        "equeue.write"(%3127, %arg8) {bank = 0 : i64} : (f32, memref<1xf32>) -> ()
        %3128 = "equeue.read"(%arg6) {bank = 1 : i64} : (memref<1xf32>) -> f32
        %3129 = mulf %3127, %3128 : f32
        %3130 = "equeue.read"(%arg7) {bank = 2 : i64} : (memref<1xf32>) -> f32
        %3131 = addf %3129, %3130 : f32
        "equeue.write"(%3131, %arg7) {bank = 2 : i64} : (f32, memref<1xf32>) -> ()
        "equeue.return"() : () -> ()
      }) : (!equeue.signal, i32, memref<1xf32>, memref<1xf32>, memref<1xf32>, memref<1xf32>, memref<3x3x3xf32>) -> !equeue.signal
      %357 = "equeue.control_and"(%356, %done_89) : (!equeue.signal, !equeue.signal) -> !equeue.signal
      %done_90 = "equeue.launch"(%346, %198, %201, %199, %200, %231, %123) ( {
      ^bb0(%arg5: memref<1xf32>, %arg6: memref<1xf32>, %arg7: memref<1xf32>, %arg8: memref<1xf32>, %arg9: memref<3x3x3xf32>):  // no predecessors
        %3127 = "equeue.read"(%arg5) {bank = 0 : i64} : (memref<1xf32>) -> f32
        "equeue.write"(%3127, %arg8) {bank = 0 : i64} : (f32, memref<1xf32>) -> ()
        %3128 = "equeue.read"(%arg6) {bank = 1 : i64} : (memref<1xf32>) -> f32
        %3129 = mulf %3127, %3128 : f32
        %3130 = "equeue.read"(%arg7) {bank = 2 : i64} : (memref<1xf32>) -> f32
        %3131 = addf %3129, %3130 : f32
        "equeue.write"(%3131, %arg7) {bank = 2 : i64} : (f32, memref<1xf32>) -> ()
        "equeue.return"() : () -> ()
      }) : (!equeue.signal, i32, memref<1xf32>, memref<1xf32>, memref<1xf32>, memref<1xf32>, memref<3x3x3xf32>) -> !equeue.signal
      %358 = "equeue.control_and"(%357, %done_90) : (!equeue.signal, !equeue.signal) -> !equeue.signal
      %done_91 = "equeue.launch"(%346, %228, %231, %229, %230, %261, %123) ( {
      ^bb0(%arg5: memref<1xf32>, %arg6: memref<1xf32>, %arg7: memref<1xf32>, %arg8: memref<1xf32>, %arg9: memref<3x3x3xf32>):  // no predecessors
        %3127 = "equeue.read"(%arg5) {bank = 0 : i64} : (memref<1xf32>) -> f32
        "equeue.write"(%3127, %arg8) {bank = 0 : i64} : (f32, memref<1xf32>) -> ()
        %3128 = "equeue.read"(%arg6) {bank = 1 : i64} : (memref<1xf32>) -> f32
        %3129 = mulf %3127, %3128 : f32
        %3130 = "equeue.read"(%arg7) {bank = 2 : i64} : (memref<1xf32>) -> f32
        %3131 = addf %3129, %3130 : f32
        "equeue.write"(%3131, %arg7) {bank = 2 : i64} : (f32, memref<1xf32>) -> ()
        "equeue.return"() : () -> ()
      }) : (!equeue.signal, i32, memref<1xf32>, memref<1xf32>, memref<1xf32>, memref<1xf32>, memref<3x3x3xf32>) -> !equeue.signal
      %359 = "equeue.control_and"(%358, %done_91) : (!equeue.signal, !equeue.signal) -> !equeue.signal
      %done_92 = "equeue.launch"(%346, %258, %261, %259, %260, %123) ( {
      ^bb0(%arg5: memref<1xf32>, %arg6: memref<1xf32>, %arg7: memref<1xf32>, %arg8: memref<3x3x3xf32>):  // no predecessors
        %3127 = "equeue.read"(%arg5) {bank = 0 : i64} : (memref<1xf32>) -> f32
        %3128 = "equeue.read"(%arg6) {bank = 1 : i64} : (memref<1xf32>) -> f32
        %3129 = mulf %3127, %3128 : f32
        %3130 = "equeue.read"(%arg7) {bank = 2 : i64} : (memref<1xf32>) -> f32
        %3131 = addf %3129, %3130 : f32
        "equeue.return"() : () -> ()
      }) : (!equeue.signal, i32, memref<1xf32>, memref<1xf32>, memref<1xf32>, memref<3x3x3xf32>) -> !equeue.signal
      %360 = "equeue.control_and"(%359, %done_92) : (!equeue.signal, !equeue.signal) -> !equeue.signal
      "equeue.await"(%360) : (!equeue.signal) -> ()
      %361 = "equeue.control_start"() : () -> !equeue.signal
      %362 = "equeue.memcpy"(%361, %121, %129, %102, %c0) {dest_bank = 0 : i64, src_bank = 0 : i64} : (!equeue.signal, memref<5x7x7xf32>, memref<1xf32>, i32, index) -> !equeue.signal
      "equeue.await"(%362) : (!equeue.signal) -> ()
      %363 = "equeue.control_start"() : () -> !equeue.signal
      %done_93 = "equeue.launch"(%363, %126, %129, %127, %128, %135, %159, %123) ( {
      ^bb0(%arg5: memref<1xf32>, %arg6: memref<1xf32>, %arg7: memref<1xf32>, %arg8: memref<1xf32>, %arg9: memref<1xf32>, %arg10: memref<3x3x3xf32>):  // no predecessors
        %3127 = "equeue.read"(%arg5) {bank = 0 : i64} : (memref<1xf32>) -> f32
        "equeue.write"(%3127, %arg8) {bank = 0 : i64} : (f32, memref<1xf32>) -> ()
        %3128 = "equeue.read"(%arg6) {bank = 1 : i64} : (memref<1xf32>) -> f32
        "equeue.write"(%3128, %arg9) {bank = 0 : i64} : (f32, memref<1xf32>) -> ()
        %3129 = mulf %3127, %3128 : f32
        %3130 = "equeue.read"(%arg7) {bank = 2 : i64} : (memref<1xf32>) -> f32
        %3131 = addf %3129, %3130 : f32
        "equeue.write"(%3131, %arg7) {bank = 2 : i64} : (f32, memref<1xf32>) -> ()
        "equeue.return"() : () -> ()
      }) : (!equeue.signal, i32, memref<1xf32>, memref<1xf32>, memref<1xf32>, memref<1xf32>, memref<1xf32>, memref<3x3x3xf32>) -> !equeue.signal
      %done_94 = "equeue.launch"(%363, %156, %159, %157, %158, %165, %189, %123) ( {
      ^bb0(%arg5: memref<1xf32>, %arg6: memref<1xf32>, %arg7: memref<1xf32>, %arg8: memref<1xf32>, %arg9: memref<1xf32>, %arg10: memref<3x3x3xf32>):  // no predecessors
        %3127 = "equeue.read"(%arg5) {bank = 0 : i64} : (memref<1xf32>) -> f32
        "equeue.write"(%3127, %arg8) {bank = 0 : i64} : (f32, memref<1xf32>) -> ()
        %3128 = "equeue.read"(%arg6) {bank = 1 : i64} : (memref<1xf32>) -> f32
        "equeue.write"(%3128, %arg9) {bank = 0 : i64} : (f32, memref<1xf32>) -> ()
        %3129 = mulf %3127, %3128 : f32
        %3130 = "equeue.read"(%arg7) {bank = 2 : i64} : (memref<1xf32>) -> f32
        %3131 = addf %3129, %3130 : f32
        "equeue.write"(%3131, %arg7) {bank = 2 : i64} : (f32, memref<1xf32>) -> ()
        "equeue.return"() : () -> ()
      }) : (!equeue.signal, i32, memref<1xf32>, memref<1xf32>, memref<1xf32>, memref<1xf32>, memref<1xf32>, memref<3x3x3xf32>) -> !equeue.signal
      %364 = "equeue.control_and"(%done_93, %done_94) : (!equeue.signal, !equeue.signal) -> !equeue.signal
      %done_95 = "equeue.launch"(%363, %186, %189, %187, %188, %195, %219, %123) ( {
      ^bb0(%arg5: memref<1xf32>, %arg6: memref<1xf32>, %arg7: memref<1xf32>, %arg8: memref<1xf32>, %arg9: memref<1xf32>, %arg10: memref<3x3x3xf32>):  // no predecessors
        %3127 = "equeue.read"(%arg5) {bank = 0 : i64} : (memref<1xf32>) -> f32
        "equeue.write"(%3127, %arg8) {bank = 0 : i64} : (f32, memref<1xf32>) -> ()
        %3128 = "equeue.read"(%arg6) {bank = 1 : i64} : (memref<1xf32>) -> f32
        "equeue.write"(%3128, %arg9) {bank = 0 : i64} : (f32, memref<1xf32>) -> ()
        %3129 = mulf %3127, %3128 : f32
        %3130 = "equeue.read"(%arg7) {bank = 2 : i64} : (memref<1xf32>) -> f32
        %3131 = addf %3129, %3130 : f32
        "equeue.write"(%3131, %arg7) {bank = 2 : i64} : (f32, memref<1xf32>) -> ()
        "equeue.return"() : () -> ()
      }) : (!equeue.signal, i32, memref<1xf32>, memref<1xf32>, memref<1xf32>, memref<1xf32>, memref<1xf32>, memref<3x3x3xf32>) -> !equeue.signal
      %365 = "equeue.control_and"(%364, %done_95) : (!equeue.signal, !equeue.signal) -> !equeue.signal
      %done_96 = "equeue.launch"(%363, %216, %219, %217, %218, %225, %249, %123) ( {
      ^bb0(%arg5: memref<1xf32>, %arg6: memref<1xf32>, %arg7: memref<1xf32>, %arg8: memref<1xf32>, %arg9: memref<1xf32>, %arg10: memref<3x3x3xf32>):  // no predecessors
        %3127 = "equeue.read"(%arg5) {bank = 0 : i64} : (memref<1xf32>) -> f32
        "equeue.write"(%3127, %arg8) {bank = 0 : i64} : (f32, memref<1xf32>) -> ()
        %3128 = "equeue.read"(%arg6) {bank = 1 : i64} : (memref<1xf32>) -> f32
        "equeue.write"(%3128, %arg9) {bank = 0 : i64} : (f32, memref<1xf32>) -> ()
        %3129 = mulf %3127, %3128 : f32
        %3130 = "equeue.read"(%arg7) {bank = 2 : i64} : (memref<1xf32>) -> f32
        %3131 = addf %3129, %3130 : f32
        "equeue.write"(%3131, %arg7) {bank = 2 : i64} : (f32, memref<1xf32>) -> ()
        "equeue.return"() : () -> ()
      }) : (!equeue.signal, i32, memref<1xf32>, memref<1xf32>, memref<1xf32>, memref<1xf32>, memref<1xf32>, memref<3x3x3xf32>) -> !equeue.signal
      %366 = "equeue.control_and"(%365, %done_96) : (!equeue.signal, !equeue.signal) -> !equeue.signal
      %done_97 = "equeue.launch"(%363, %246, %249, %247, %248, %255, %123) ( {
      ^bb0(%arg5: memref<1xf32>, %arg6: memref<1xf32>, %arg7: memref<1xf32>, %arg8: memref<1xf32>, %arg9: memref<3x3x3xf32>):  // no predecessors
        %3127 = "equeue.read"(%arg5) {bank = 0 : i64} : (memref<1xf32>) -> f32
        "equeue.write"(%3127, %arg8) {bank = 0 : i64} : (f32, memref<1xf32>) -> ()
        %3128 = "equeue.read"(%arg6) {bank = 1 : i64} : (memref<1xf32>) -> f32
        %3129 = mulf %3127, %3128 : f32
        %3130 = "equeue.read"(%arg7) {bank = 2 : i64} : (memref<1xf32>) -> f32
        %3131 = addf %3129, %3130 : f32
        "equeue.return"() : () -> ()
      }) : (!equeue.signal, i32, memref<1xf32>, memref<1xf32>, memref<1xf32>, memref<1xf32>, memref<3x3x3xf32>) -> !equeue.signal
      %367 = "equeue.control_and"(%366, %done_97) : (!equeue.signal, !equeue.signal) -> !equeue.signal
      %done_98 = "equeue.launch"(%363, %132, %135, %133, %134, %141, %165, %123) ( {
      ^bb0(%arg5: memref<1xf32>, %arg6: memref<1xf32>, %arg7: memref<1xf32>, %arg8: memref<1xf32>, %arg9: memref<1xf32>, %arg10: memref<3x3x3xf32>):  // no predecessors
        %3127 = "equeue.read"(%arg5) {bank = 0 : i64} : (memref<1xf32>) -> f32
        "equeue.write"(%3127, %arg8) {bank = 0 : i64} : (f32, memref<1xf32>) -> ()
        %3128 = "equeue.read"(%arg6) {bank = 1 : i64} : (memref<1xf32>) -> f32
        "equeue.write"(%3128, %arg9) {bank = 0 : i64} : (f32, memref<1xf32>) -> ()
        %3129 = mulf %3127, %3128 : f32
        %3130 = "equeue.read"(%arg7) {bank = 2 : i64} : (memref<1xf32>) -> f32
        %3131 = addf %3129, %3130 : f32
        "equeue.write"(%3131, %arg7) {bank = 2 : i64} : (f32, memref<1xf32>) -> ()
        "equeue.return"() : () -> ()
      }) : (!equeue.signal, i32, memref<1xf32>, memref<1xf32>, memref<1xf32>, memref<1xf32>, memref<1xf32>, memref<3x3x3xf32>) -> !equeue.signal
      %368 = "equeue.control_and"(%367, %done_98) : (!equeue.signal, !equeue.signal) -> !equeue.signal
      %done_99 = "equeue.launch"(%363, %162, %165, %163, %164, %171, %195, %123) ( {
      ^bb0(%arg5: memref<1xf32>, %arg6: memref<1xf32>, %arg7: memref<1xf32>, %arg8: memref<1xf32>, %arg9: memref<1xf32>, %arg10: memref<3x3x3xf32>):  // no predecessors
        %3127 = "equeue.read"(%arg5) {bank = 0 : i64} : (memref<1xf32>) -> f32
        "equeue.write"(%3127, %arg8) {bank = 0 : i64} : (f32, memref<1xf32>) -> ()
        %3128 = "equeue.read"(%arg6) {bank = 1 : i64} : (memref<1xf32>) -> f32
        "equeue.write"(%3128, %arg9) {bank = 0 : i64} : (f32, memref<1xf32>) -> ()
        %3129 = mulf %3127, %3128 : f32
        %3130 = "equeue.read"(%arg7) {bank = 2 : i64} : (memref<1xf32>) -> f32
        %3131 = addf %3129, %3130 : f32
        "equeue.write"(%3131, %arg7) {bank = 2 : i64} : (f32, memref<1xf32>) -> ()
        "equeue.return"() : () -> ()
      }) : (!equeue.signal, i32, memref<1xf32>, memref<1xf32>, memref<1xf32>, memref<1xf32>, memref<1xf32>, memref<3x3x3xf32>) -> !equeue.signal
      %369 = "equeue.control_and"(%368, %done_99) : (!equeue.signal, !equeue.signal) -> !equeue.signal
      %done_100 = "equeue.launch"(%363, %192, %195, %193, %194, %201, %225, %123) ( {
      ^bb0(%arg5: memref<1xf32>, %arg6: memref<1xf32>, %arg7: memref<1xf32>, %arg8: memref<1xf32>, %arg9: memref<1xf32>, %arg10: memref<3x3x3xf32>):  // no predecessors
        %3127 = "equeue.read"(%arg5) {bank = 0 : i64} : (memref<1xf32>) -> f32
        "equeue.write"(%3127, %arg8) {bank = 0 : i64} : (f32, memref<1xf32>) -> ()
        %3128 = "equeue.read"(%arg6) {bank = 1 : i64} : (memref<1xf32>) -> f32
        "equeue.write"(%3128, %arg9) {bank = 0 : i64} : (f32, memref<1xf32>) -> ()
        %3129 = mulf %3127, %3128 : f32
        %3130 = "equeue.read"(%arg7) {bank = 2 : i64} : (memref<1xf32>) -> f32
        %3131 = addf %3129, %3130 : f32
        "equeue.write"(%3131, %arg7) {bank = 2 : i64} : (f32, memref<1xf32>) -> ()
        "equeue.return"() : () -> ()
      }) : (!equeue.signal, i32, memref<1xf32>, memref<1xf32>, memref<1xf32>, memref<1xf32>, memref<1xf32>, memref<3x3x3xf32>) -> !equeue.signal
      %370 = "equeue.control_and"(%369, %done_100) : (!equeue.signal, !equeue.signal) -> !equeue.signal
      %done_101 = "equeue.launch"(%363, %222, %225, %223, %224, %231, %255, %123) ( {
      ^bb0(%arg5: memref<1xf32>, %arg6: memref<1xf32>, %arg7: memref<1xf32>, %arg8: memref<1xf32>, %arg9: memref<1xf32>, %arg10: memref<3x3x3xf32>):  // no predecessors
        %3127 = "equeue.read"(%arg5) {bank = 0 : i64} : (memref<1xf32>) -> f32
        "equeue.write"(%3127, %arg8) {bank = 0 : i64} : (f32, memref<1xf32>) -> ()
        %3128 = "equeue.read"(%arg6) {bank = 1 : i64} : (memref<1xf32>) -> f32
        "equeue.write"(%3128, %arg9) {bank = 0 : i64} : (f32, memref<1xf32>) -> ()
        %3129 = mulf %3127, %3128 : f32
        %3130 = "equeue.read"(%arg7) {bank = 2 : i64} : (memref<1xf32>) -> f32
        %3131 = addf %3129, %3130 : f32
        "equeue.write"(%3131, %arg7) {bank = 2 : i64} : (f32, memref<1xf32>) -> ()
        "equeue.return"() : () -> ()
      }) : (!equeue.signal, i32, memref<1xf32>, memref<1xf32>, memref<1xf32>, memref<1xf32>, memref<1xf32>, memref<3x3x3xf32>) -> !equeue.signal
      %371 = "equeue.control_and"(%370, %done_101) : (!equeue.signal, !equeue.signal) -> !equeue.signal
      %done_102 = "equeue.launch"(%363, %252, %255, %253, %254, %261, %123) ( {
      ^bb0(%arg5: memref<1xf32>, %arg6: memref<1xf32>, %arg7: memref<1xf32>, %arg8: memref<1xf32>, %arg9: memref<3x3x3xf32>):  // no predecessors
        %3127 = "equeue.read"(%arg5) {bank = 0 : i64} : (memref<1xf32>) -> f32
        "equeue.write"(%3127, %arg8) {bank = 0 : i64} : (f32, memref<1xf32>) -> ()
        %3128 = "equeue.read"(%arg6) {bank = 1 : i64} : (memref<1xf32>) -> f32
        %3129 = mulf %3127, %3128 : f32
        %3130 = "equeue.read"(%arg7) {bank = 2 : i64} : (memref<1xf32>) -> f32
        %3131 = addf %3129, %3130 : f32
        "equeue.return"() : () -> ()
      }) : (!equeue.signal, i32, memref<1xf32>, memref<1xf32>, memref<1xf32>, memref<1xf32>, memref<3x3x3xf32>) -> !equeue.signal
      %372 = "equeue.control_and"(%371, %done_102) : (!equeue.signal, !equeue.signal) -> !equeue.signal
      %done_103 = "equeue.launch"(%363, %138, %141, %139, %140, %171, %123) ( {
      ^bb0(%arg5: memref<1xf32>, %arg6: memref<1xf32>, %arg7: memref<1xf32>, %arg8: memref<1xf32>, %arg9: memref<3x3x3xf32>):  // no predecessors
        %3127 = "equeue.read"(%arg5) {bank = 0 : i64} : (memref<1xf32>) -> f32
        "equeue.write"(%3127, %arg8) {bank = 0 : i64} : (f32, memref<1xf32>) -> ()
        %3128 = "equeue.read"(%arg6) {bank = 1 : i64} : (memref<1xf32>) -> f32
        %3129 = mulf %3127, %3128 : f32
        %3130 = "equeue.read"(%arg7) {bank = 2 : i64} : (memref<1xf32>) -> f32
        %3131 = addf %3129, %3130 : f32
        "equeue.write"(%3131, %arg7) {bank = 2 : i64} : (f32, memref<1xf32>) -> ()
        "equeue.return"() : () -> ()
      }) : (!equeue.signal, i32, memref<1xf32>, memref<1xf32>, memref<1xf32>, memref<1xf32>, memref<3x3x3xf32>) -> !equeue.signal
      %373 = "equeue.control_and"(%372, %done_103) : (!equeue.signal, !equeue.signal) -> !equeue.signal
      %done_104 = "equeue.launch"(%363, %168, %171, %169, %170, %201, %123) ( {
      ^bb0(%arg5: memref<1xf32>, %arg6: memref<1xf32>, %arg7: memref<1xf32>, %arg8: memref<1xf32>, %arg9: memref<3x3x3xf32>):  // no predecessors
        %3127 = "equeue.read"(%arg5) {bank = 0 : i64} : (memref<1xf32>) -> f32
        "equeue.write"(%3127, %arg8) {bank = 0 : i64} : (f32, memref<1xf32>) -> ()
        %3128 = "equeue.read"(%arg6) {bank = 1 : i64} : (memref<1xf32>) -> f32
        %3129 = mulf %3127, %3128 : f32
        %3130 = "equeue.read"(%arg7) {bank = 2 : i64} : (memref<1xf32>) -> f32
        %3131 = addf %3129, %3130 : f32
        "equeue.write"(%3131, %arg7) {bank = 2 : i64} : (f32, memref<1xf32>) -> ()
        "equeue.return"() : () -> ()
      }) : (!equeue.signal, i32, memref<1xf32>, memref<1xf32>, memref<1xf32>, memref<1xf32>, memref<3x3x3xf32>) -> !equeue.signal
      %374 = "equeue.control_and"(%373, %done_104) : (!equeue.signal, !equeue.signal) -> !equeue.signal
      %done_105 = "equeue.launch"(%363, %198, %201, %199, %200, %231, %123) ( {
      ^bb0(%arg5: memref<1xf32>, %arg6: memref<1xf32>, %arg7: memref<1xf32>, %arg8: memref<1xf32>, %arg9: memref<3x3x3xf32>):  // no predecessors
        %3127 = "equeue.read"(%arg5) {bank = 0 : i64} : (memref<1xf32>) -> f32
        "equeue.write"(%3127, %arg8) {bank = 0 : i64} : (f32, memref<1xf32>) -> ()
        %3128 = "equeue.read"(%arg6) {bank = 1 : i64} : (memref<1xf32>) -> f32
        %3129 = mulf %3127, %3128 : f32
        %3130 = "equeue.read"(%arg7) {bank = 2 : i64} : (memref<1xf32>) -> f32
        %3131 = addf %3129, %3130 : f32
        "equeue.write"(%3131, %arg7) {bank = 2 : i64} : (f32, memref<1xf32>) -> ()
        "equeue.return"() : () -> ()
      }) : (!equeue.signal, i32, memref<1xf32>, memref<1xf32>, memref<1xf32>, memref<1xf32>, memref<3x3x3xf32>) -> !equeue.signal
      %375 = "equeue.control_and"(%374, %done_105) : (!equeue.signal, !equeue.signal) -> !equeue.signal
      %done_106 = "equeue.launch"(%363, %228, %231, %229, %230, %261, %123) ( {
      ^bb0(%arg5: memref<1xf32>, %arg6: memref<1xf32>, %arg7: memref<1xf32>, %arg8: memref<1xf32>, %arg9: memref<3x3x3xf32>):  // no predecessors
        %3127 = "equeue.read"(%arg5) {bank = 0 : i64} : (memref<1xf32>) -> f32
        "equeue.write"(%3127, %arg8) {bank = 0 : i64} : (f32, memref<1xf32>) -> ()
        %3128 = "equeue.read"(%arg6) {bank = 1 : i64} : (memref<1xf32>) -> f32
        %3129 = mulf %3127, %3128 : f32
        %3130 = "equeue.read"(%arg7) {bank = 2 : i64} : (memref<1xf32>) -> f32
        %3131 = addf %3129, %3130 : f32
        "equeue.write"(%3131, %arg7) {bank = 2 : i64} : (f32, memref<1xf32>) -> ()
        "equeue.return"() : () -> ()
      }) : (!equeue.signal, i32, memref<1xf32>, memref<1xf32>, memref<1xf32>, memref<1xf32>, memref<3x3x3xf32>) -> !equeue.signal
      %376 = "equeue.control_and"(%375, %done_106) : (!equeue.signal, !equeue.signal) -> !equeue.signal
      %done_107 = "equeue.launch"(%363, %258, %261, %259, %260, %123) ( {
      ^bb0(%arg5: memref<1xf32>, %arg6: memref<1xf32>, %arg7: memref<1xf32>, %arg8: memref<3x3x3xf32>):  // no predecessors
        %3127 = "equeue.read"(%arg5) {bank = 0 : i64} : (memref<1xf32>) -> f32
        %3128 = "equeue.read"(%arg6) {bank = 1 : i64} : (memref<1xf32>) -> f32
        %3129 = mulf %3127, %3128 : f32
        %3130 = "equeue.read"(%arg7) {bank = 2 : i64} : (memref<1xf32>) -> f32
        %3131 = addf %3129, %3130 : f32
        "equeue.return"() : () -> ()
      }) : (!equeue.signal, i32, memref<1xf32>, memref<1xf32>, memref<1xf32>, memref<3x3x3xf32>) -> !equeue.signal
      %377 = "equeue.control_and"(%376, %done_107) : (!equeue.signal, !equeue.signal) -> !equeue.signal
      "equeue.await"(%377) : (!equeue.signal) -> ()
      %378 = "equeue.control_start"() : () -> !equeue.signal
      %379 = "equeue.memcpy"(%378, %121, %129, %102, %c0) {dest_bank = 0 : i64, src_bank = 0 : i64} : (!equeue.signal, memref<5x7x7xf32>, memref<1xf32>, i32, index) -> !equeue.signal
      "equeue.await"(%379) : (!equeue.signal) -> ()
      %380 = "equeue.control_start"() : () -> !equeue.signal
      %done_108 = "equeue.launch"(%380, %126, %129, %127, %128, %135, %159, %123) ( {
      ^bb0(%arg5: memref<1xf32>, %arg6: memref<1xf32>, %arg7: memref<1xf32>, %arg8: memref<1xf32>, %arg9: memref<1xf32>, %arg10: memref<3x3x3xf32>):  // no predecessors
        %3127 = "equeue.read"(%arg5) {bank = 0 : i64} : (memref<1xf32>) -> f32
        "equeue.write"(%3127, %arg8) {bank = 0 : i64} : (f32, memref<1xf32>) -> ()
        %3128 = "equeue.read"(%arg6) {bank = 1 : i64} : (memref<1xf32>) -> f32
        "equeue.write"(%3128, %arg9) {bank = 0 : i64} : (f32, memref<1xf32>) -> ()
        %3129 = mulf %3127, %3128 : f32
        %3130 = "equeue.read"(%arg7) {bank = 2 : i64} : (memref<1xf32>) -> f32
        %3131 = addf %3129, %3130 : f32
        "equeue.write"(%3131, %arg7) {bank = 2 : i64} : (f32, memref<1xf32>) -> ()
        "equeue.return"() : () -> ()
      }) : (!equeue.signal, i32, memref<1xf32>, memref<1xf32>, memref<1xf32>, memref<1xf32>, memref<1xf32>, memref<3x3x3xf32>) -> !equeue.signal
      %done_109 = "equeue.launch"(%380, %156, %159, %157, %158, %165, %189, %123) ( {
      ^bb0(%arg5: memref<1xf32>, %arg6: memref<1xf32>, %arg7: memref<1xf32>, %arg8: memref<1xf32>, %arg9: memref<1xf32>, %arg10: memref<3x3x3xf32>):  // no predecessors
        %3127 = "equeue.read"(%arg5) {bank = 0 : i64} : (memref<1xf32>) -> f32
        "equeue.write"(%3127, %arg8) {bank = 0 : i64} : (f32, memref<1xf32>) -> ()
        %3128 = "equeue.read"(%arg6) {bank = 1 : i64} : (memref<1xf32>) -> f32
        "equeue.write"(%3128, %arg9) {bank = 0 : i64} : (f32, memref<1xf32>) -> ()
        %3129 = mulf %3127, %3128 : f32
        %3130 = "equeue.read"(%arg7) {bank = 2 : i64} : (memref<1xf32>) -> f32
        %3131 = addf %3129, %3130 : f32
        "equeue.write"(%3131, %arg7) {bank = 2 : i64} : (f32, memref<1xf32>) -> ()
        "equeue.return"() : () -> ()
      }) : (!equeue.signal, i32, memref<1xf32>, memref<1xf32>, memref<1xf32>, memref<1xf32>, memref<1xf32>, memref<3x3x3xf32>) -> !equeue.signal
      %381 = "equeue.control_and"(%done_108, %done_109) : (!equeue.signal, !equeue.signal) -> !equeue.signal
      %done_110 = "equeue.launch"(%380, %186, %189, %187, %188, %195, %219, %123) ( {
      ^bb0(%arg5: memref<1xf32>, %arg6: memref<1xf32>, %arg7: memref<1xf32>, %arg8: memref<1xf32>, %arg9: memref<1xf32>, %arg10: memref<3x3x3xf32>):  // no predecessors
        %3127 = "equeue.read"(%arg5) {bank = 0 : i64} : (memref<1xf32>) -> f32
        "equeue.write"(%3127, %arg8) {bank = 0 : i64} : (f32, memref<1xf32>) -> ()
        %3128 = "equeue.read"(%arg6) {bank = 1 : i64} : (memref<1xf32>) -> f32
        "equeue.write"(%3128, %arg9) {bank = 0 : i64} : (f32, memref<1xf32>) -> ()
        %3129 = mulf %3127, %3128 : f32
        %3130 = "equeue.read"(%arg7) {bank = 2 : i64} : (memref<1xf32>) -> f32
        %3131 = addf %3129, %3130 : f32
        "equeue.write"(%3131, %arg7) {bank = 2 : i64} : (f32, memref<1xf32>) -> ()
        "equeue.return"() : () -> ()
      }) : (!equeue.signal, i32, memref<1xf32>, memref<1xf32>, memref<1xf32>, memref<1xf32>, memref<1xf32>, memref<3x3x3xf32>) -> !equeue.signal
      %382 = "equeue.control_and"(%381, %done_110) : (!equeue.signal, !equeue.signal) -> !equeue.signal
      %done_111 = "equeue.launch"(%380, %216, %219, %217, %218, %225, %249, %123) ( {
      ^bb0(%arg5: memref<1xf32>, %arg6: memref<1xf32>, %arg7: memref<1xf32>, %arg8: memref<1xf32>, %arg9: memref<1xf32>, %arg10: memref<3x3x3xf32>):  // no predecessors
        %3127 = "equeue.read"(%arg5) {bank = 0 : i64} : (memref<1xf32>) -> f32
        "equeue.write"(%3127, %arg8) {bank = 0 : i64} : (f32, memref<1xf32>) -> ()
        %3128 = "equeue.read"(%arg6) {bank = 1 : i64} : (memref<1xf32>) -> f32
        "equeue.write"(%3128, %arg9) {bank = 0 : i64} : (f32, memref<1xf32>) -> ()
        %3129 = mulf %3127, %3128 : f32
        %3130 = "equeue.read"(%arg7) {bank = 2 : i64} : (memref<1xf32>) -> f32
        %3131 = addf %3129, %3130 : f32
        "equeue.write"(%3131, %arg7) {bank = 2 : i64} : (f32, memref<1xf32>) -> ()
        "equeue.return"() : () -> ()
      }) : (!equeue.signal, i32, memref<1xf32>, memref<1xf32>, memref<1xf32>, memref<1xf32>, memref<1xf32>, memref<3x3x3xf32>) -> !equeue.signal
      %383 = "equeue.control_and"(%382, %done_111) : (!equeue.signal, !equeue.signal) -> !equeue.signal
      %done_112 = "equeue.launch"(%380, %246, %249, %247, %248, %255, %123) ( {
      ^bb0(%arg5: memref<1xf32>, %arg6: memref<1xf32>, %arg7: memref<1xf32>, %arg8: memref<1xf32>, %arg9: memref<3x3x3xf32>):  // no predecessors
        %3127 = "equeue.read"(%arg5) {bank = 0 : i64} : (memref<1xf32>) -> f32
        "equeue.write"(%3127, %arg8) {bank = 0 : i64} : (f32, memref<1xf32>) -> ()
        %3128 = "equeue.read"(%arg6) {bank = 1 : i64} : (memref<1xf32>) -> f32
        %3129 = mulf %3127, %3128 : f32
        %3130 = "equeue.read"(%arg7) {bank = 2 : i64} : (memref<1xf32>) -> f32
        %3131 = addf %3129, %3130 : f32
        "equeue.return"() : () -> ()
      }) : (!equeue.signal, i32, memref<1xf32>, memref<1xf32>, memref<1xf32>, memref<1xf32>, memref<3x3x3xf32>) -> !equeue.signal
      %384 = "equeue.control_and"(%383, %done_112) : (!equeue.signal, !equeue.signal) -> !equeue.signal
      %done_113 = "equeue.launch"(%380, %132, %135, %133, %134, %141, %165, %123) ( {
      ^bb0(%arg5: memref<1xf32>, %arg6: memref<1xf32>, %arg7: memref<1xf32>, %arg8: memref<1xf32>, %arg9: memref<1xf32>, %arg10: memref<3x3x3xf32>):  // no predecessors
        %3127 = "equeue.read"(%arg5) {bank = 0 : i64} : (memref<1xf32>) -> f32
        "equeue.write"(%3127, %arg8) {bank = 0 : i64} : (f32, memref<1xf32>) -> ()
        %3128 = "equeue.read"(%arg6) {bank = 1 : i64} : (memref<1xf32>) -> f32
        "equeue.write"(%3128, %arg9) {bank = 0 : i64} : (f32, memref<1xf32>) -> ()
        %3129 = mulf %3127, %3128 : f32
        %3130 = "equeue.read"(%arg7) {bank = 2 : i64} : (memref<1xf32>) -> f32
        %3131 = addf %3129, %3130 : f32
        "equeue.write"(%3131, %arg7) {bank = 2 : i64} : (f32, memref<1xf32>) -> ()
        "equeue.return"() : () -> ()
      }) : (!equeue.signal, i32, memref<1xf32>, memref<1xf32>, memref<1xf32>, memref<1xf32>, memref<1xf32>, memref<3x3x3xf32>) -> !equeue.signal
      %385 = "equeue.control_and"(%384, %done_113) : (!equeue.signal, !equeue.signal) -> !equeue.signal
      %done_114 = "equeue.launch"(%380, %162, %165, %163, %164, %171, %195, %123) ( {
      ^bb0(%arg5: memref<1xf32>, %arg6: memref<1xf32>, %arg7: memref<1xf32>, %arg8: memref<1xf32>, %arg9: memref<1xf32>, %arg10: memref<3x3x3xf32>):  // no predecessors
        %3127 = "equeue.read"(%arg5) {bank = 0 : i64} : (memref<1xf32>) -> f32
        "equeue.write"(%3127, %arg8) {bank = 0 : i64} : (f32, memref<1xf32>) -> ()
        %3128 = "equeue.read"(%arg6) {bank = 1 : i64} : (memref<1xf32>) -> f32
        "equeue.write"(%3128, %arg9) {bank = 0 : i64} : (f32, memref<1xf32>) -> ()
        %3129 = mulf %3127, %3128 : f32
        %3130 = "equeue.read"(%arg7) {bank = 2 : i64} : (memref<1xf32>) -> f32
        %3131 = addf %3129, %3130 : f32
        "equeue.write"(%3131, %arg7) {bank = 2 : i64} : (f32, memref<1xf32>) -> ()
        "equeue.return"() : () -> ()
      }) : (!equeue.signal, i32, memref<1xf32>, memref<1xf32>, memref<1xf32>, memref<1xf32>, memref<1xf32>, memref<3x3x3xf32>) -> !equeue.signal
      %386 = "equeue.control_and"(%385, %done_114) : (!equeue.signal, !equeue.signal) -> !equeue.signal
      %done_115 = "equeue.launch"(%380, %192, %195, %193, %194, %201, %225, %123) ( {
      ^bb0(%arg5: memref<1xf32>, %arg6: memref<1xf32>, %arg7: memref<1xf32>, %arg8: memref<1xf32>, %arg9: memref<1xf32>, %arg10: memref<3x3x3xf32>):  // no predecessors
        %3127 = "equeue.read"(%arg5) {bank = 0 : i64} : (memref<1xf32>) -> f32
        "equeue.write"(%3127, %arg8) {bank = 0 : i64} : (f32, memref<1xf32>) -> ()
        %3128 = "equeue.read"(%arg6) {bank = 1 : i64} : (memref<1xf32>) -> f32
        "equeue.write"(%3128, %arg9) {bank = 0 : i64} : (f32, memref<1xf32>) -> ()
        %3129 = mulf %3127, %3128 : f32
        %3130 = "equeue.read"(%arg7) {bank = 2 : i64} : (memref<1xf32>) -> f32
        %3131 = addf %3129, %3130 : f32
        "equeue.write"(%3131, %arg7) {bank = 2 : i64} : (f32, memref<1xf32>) -> ()
        "equeue.return"() : () -> ()
      }) : (!equeue.signal, i32, memref<1xf32>, memref<1xf32>, memref<1xf32>, memref<1xf32>, memref<1xf32>, memref<3x3x3xf32>) -> !equeue.signal
      %387 = "equeue.control_and"(%386, %done_115) : (!equeue.signal, !equeue.signal) -> !equeue.signal
      %done_116 = "equeue.launch"(%380, %222, %225, %223, %224, %231, %255, %123) ( {
      ^bb0(%arg5: memref<1xf32>, %arg6: memref<1xf32>, %arg7: memref<1xf32>, %arg8: memref<1xf32>, %arg9: memref<1xf32>, %arg10: memref<3x3x3xf32>):  // no predecessors
        %3127 = "equeue.read"(%arg5) {bank = 0 : i64} : (memref<1xf32>) -> f32
        "equeue.write"(%3127, %arg8) {bank = 0 : i64} : (f32, memref<1xf32>) -> ()
        %3128 = "equeue.read"(%arg6) {bank = 1 : i64} : (memref<1xf32>) -> f32
        "equeue.write"(%3128, %arg9) {bank = 0 : i64} : (f32, memref<1xf32>) -> ()
        %3129 = mulf %3127, %3128 : f32
        %3130 = "equeue.read"(%arg7) {bank = 2 : i64} : (memref<1xf32>) -> f32
        %3131 = addf %3129, %3130 : f32
        "equeue.write"(%3131, %arg7) {bank = 2 : i64} : (f32, memref<1xf32>) -> ()
        "equeue.return"() : () -> ()
      }) : (!equeue.signal, i32, memref<1xf32>, memref<1xf32>, memref<1xf32>, memref<1xf32>, memref<1xf32>, memref<3x3x3xf32>) -> !equeue.signal
      %388 = "equeue.control_and"(%387, %done_116) : (!equeue.signal, !equeue.signal) -> !equeue.signal
      %done_117 = "equeue.launch"(%380, %252, %255, %253, %254, %261, %123) ( {
      ^bb0(%arg5: memref<1xf32>, %arg6: memref<1xf32>, %arg7: memref<1xf32>, %arg8: memref<1xf32>, %arg9: memref<3x3x3xf32>):  // no predecessors
        %3127 = "equeue.read"(%arg5) {bank = 0 : i64} : (memref<1xf32>) -> f32
        "equeue.write"(%3127, %arg8) {bank = 0 : i64} : (f32, memref<1xf32>) -> ()
        %3128 = "equeue.read"(%arg6) {bank = 1 : i64} : (memref<1xf32>) -> f32
        %3129 = mulf %3127, %3128 : f32
        %3130 = "equeue.read"(%arg7) {bank = 2 : i64} : (memref<1xf32>) -> f32
        %3131 = addf %3129, %3130 : f32
        "equeue.return"() : () -> ()
      }) : (!equeue.signal, i32, memref<1xf32>, memref<1xf32>, memref<1xf32>, memref<1xf32>, memref<3x3x3xf32>) -> !equeue.signal
      %389 = "equeue.control_and"(%388, %done_117) : (!equeue.signal, !equeue.signal) -> !equeue.signal
      %done_118 = "equeue.launch"(%380, %138, %141, %139, %140, %171, %123) ( {
      ^bb0(%arg5: memref<1xf32>, %arg6: memref<1xf32>, %arg7: memref<1xf32>, %arg8: memref<1xf32>, %arg9: memref<3x3x3xf32>):  // no predecessors
        %3127 = "equeue.read"(%arg5) {bank = 0 : i64} : (memref<1xf32>) -> f32
        "equeue.write"(%3127, %arg8) {bank = 0 : i64} : (f32, memref<1xf32>) -> ()
        %3128 = "equeue.read"(%arg6) {bank = 1 : i64} : (memref<1xf32>) -> f32
        %3129 = mulf %3127, %3128 : f32
        %3130 = "equeue.read"(%arg7) {bank = 2 : i64} : (memref<1xf32>) -> f32
        %3131 = addf %3129, %3130 : f32
        "equeue.write"(%3131, %arg7) {bank = 2 : i64} : (f32, memref<1xf32>) -> ()
        "equeue.return"() : () -> ()
      }) : (!equeue.signal, i32, memref<1xf32>, memref<1xf32>, memref<1xf32>, memref<1xf32>, memref<3x3x3xf32>) -> !equeue.signal
      %390 = "equeue.control_and"(%389, %done_118) : (!equeue.signal, !equeue.signal) -> !equeue.signal
      %done_119 = "equeue.launch"(%380, %168, %171, %169, %170, %201, %123) ( {
      ^bb0(%arg5: memref<1xf32>, %arg6: memref<1xf32>, %arg7: memref<1xf32>, %arg8: memref<1xf32>, %arg9: memref<3x3x3xf32>):  // no predecessors
        %3127 = "equeue.read"(%arg5) {bank = 0 : i64} : (memref<1xf32>) -> f32
        "equeue.write"(%3127, %arg8) {bank = 0 : i64} : (f32, memref<1xf32>) -> ()
        %3128 = "equeue.read"(%arg6) {bank = 1 : i64} : (memref<1xf32>) -> f32
        %3129 = mulf %3127, %3128 : f32
        %3130 = "equeue.read"(%arg7) {bank = 2 : i64} : (memref<1xf32>) -> f32
        %3131 = addf %3129, %3130 : f32
        "equeue.write"(%3131, %arg7) {bank = 2 : i64} : (f32, memref<1xf32>) -> ()
        "equeue.return"() : () -> ()
      }) : (!equeue.signal, i32, memref<1xf32>, memref<1xf32>, memref<1xf32>, memref<1xf32>, memref<3x3x3xf32>) -> !equeue.signal
      %391 = "equeue.control_and"(%390, %done_119) : (!equeue.signal, !equeue.signal) -> !equeue.signal
      %done_120 = "equeue.launch"(%380, %198, %201, %199, %200, %231, %123) ( {
      ^bb0(%arg5: memref<1xf32>, %arg6: memref<1xf32>, %arg7: memref<1xf32>, %arg8: memref<1xf32>, %arg9: memref<3x3x3xf32>):  // no predecessors
        %3127 = "equeue.read"(%arg5) {bank = 0 : i64} : (memref<1xf32>) -> f32
        "equeue.write"(%3127, %arg8) {bank = 0 : i64} : (f32, memref<1xf32>) -> ()
        %3128 = "equeue.read"(%arg6) {bank = 1 : i64} : (memref<1xf32>) -> f32
        %3129 = mulf %3127, %3128 : f32
        %3130 = "equeue.read"(%arg7) {bank = 2 : i64} : (memref<1xf32>) -> f32
        %3131 = addf %3129, %3130 : f32
        "equeue.write"(%3131, %arg7) {bank = 2 : i64} : (f32, memref<1xf32>) -> ()
        "equeue.return"() : () -> ()
      }) : (!equeue.signal, i32, memref<1xf32>, memref<1xf32>, memref<1xf32>, memref<1xf32>, memref<3x3x3xf32>) -> !equeue.signal
      %392 = "equeue.control_and"(%391, %done_120) : (!equeue.signal, !equeue.signal) -> !equeue.signal
      %done_121 = "equeue.launch"(%380, %228, %231, %229, %230, %261, %123) ( {
      ^bb0(%arg5: memref<1xf32>, %arg6: memref<1xf32>, %arg7: memref<1xf32>, %arg8: memref<1xf32>, %arg9: memref<3x3x3xf32>):  // no predecessors
        %3127 = "equeue.read"(%arg5) {bank = 0 : i64} : (memref<1xf32>) -> f32
        "equeue.write"(%3127, %arg8) {bank = 0 : i64} : (f32, memref<1xf32>) -> ()
        %3128 = "equeue.read"(%arg6) {bank = 1 : i64} : (memref<1xf32>) -> f32
        %3129 = mulf %3127, %3128 : f32
        %3130 = "equeue.read"(%arg7) {bank = 2 : i64} : (memref<1xf32>) -> f32
        %3131 = addf %3129, %3130 : f32
        "equeue.write"(%3131, %arg7) {bank = 2 : i64} : (f32, memref<1xf32>) -> ()
        "equeue.return"() : () -> ()
      }) : (!equeue.signal, i32, memref<1xf32>, memref<1xf32>, memref<1xf32>, memref<1xf32>, memref<3x3x3xf32>) -> !equeue.signal
      %393 = "equeue.control_and"(%392, %done_121) : (!equeue.signal, !equeue.signal) -> !equeue.signal
      %done_122 = "equeue.launch"(%380, %258, %261, %259, %260, %123) ( {
      ^bb0(%arg5: memref<1xf32>, %arg6: memref<1xf32>, %arg7: memref<1xf32>, %arg8: memref<3x3x3xf32>):  // no predecessors
        %3127 = "equeue.read"(%arg5) {bank = 0 : i64} : (memref<1xf32>) -> f32
        %3128 = "equeue.read"(%arg6) {bank = 1 : i64} : (memref<1xf32>) -> f32
        %3129 = mulf %3127, %3128 : f32
        %3130 = "equeue.read"(%arg7) {bank = 2 : i64} : (memref<1xf32>) -> f32
        %3131 = addf %3129, %3130 : f32
        "equeue.return"() : () -> ()
      }) : (!equeue.signal, i32, memref<1xf32>, memref<1xf32>, memref<1xf32>, memref<3x3x3xf32>) -> !equeue.signal
      %394 = "equeue.control_and"(%393, %done_122) : (!equeue.signal, !equeue.signal) -> !equeue.signal
      "equeue.await"(%394) : (!equeue.signal) -> ()
      %395 = "equeue.control_start"() : () -> !equeue.signal
      %396 = "equeue.memcpy"(%395, %121, %129, %102, %c0) {dest_bank = 0 : i64, src_bank = 0 : i64} : (!equeue.signal, memref<5x7x7xf32>, memref<1xf32>, i32, index) -> !equeue.signal
      "equeue.await"(%396) : (!equeue.signal) -> ()
      %397 = "equeue.control_start"() : () -> !equeue.signal
      %done_123 = "equeue.launch"(%397, %126, %129, %127, %128, %135, %159, %123) ( {
      ^bb0(%arg5: memref<1xf32>, %arg6: memref<1xf32>, %arg7: memref<1xf32>, %arg8: memref<1xf32>, %arg9: memref<1xf32>, %arg10: memref<3x3x3xf32>):  // no predecessors
        %3127 = "equeue.read"(%arg5) {bank = 0 : i64} : (memref<1xf32>) -> f32
        "equeue.write"(%3127, %arg8) {bank = 0 : i64} : (f32, memref<1xf32>) -> ()
        %3128 = "equeue.read"(%arg6) {bank = 1 : i64} : (memref<1xf32>) -> f32
        "equeue.write"(%3128, %arg9) {bank = 0 : i64} : (f32, memref<1xf32>) -> ()
        %3129 = mulf %3127, %3128 : f32
        %3130 = "equeue.read"(%arg7) {bank = 2 : i64} : (memref<1xf32>) -> f32
        %3131 = addf %3129, %3130 : f32
        "equeue.write"(%3131, %arg7) {bank = 2 : i64} : (f32, memref<1xf32>) -> ()
        "equeue.return"() : () -> ()
      }) : (!equeue.signal, i32, memref<1xf32>, memref<1xf32>, memref<1xf32>, memref<1xf32>, memref<1xf32>, memref<3x3x3xf32>) -> !equeue.signal
      %done_124 = "equeue.launch"(%397, %156, %159, %157, %158, %165, %189, %123) ( {
      ^bb0(%arg5: memref<1xf32>, %arg6: memref<1xf32>, %arg7: memref<1xf32>, %arg8: memref<1xf32>, %arg9: memref<1xf32>, %arg10: memref<3x3x3xf32>):  // no predecessors
        %3127 = "equeue.read"(%arg5) {bank = 0 : i64} : (memref<1xf32>) -> f32
        "equeue.write"(%3127, %arg8) {bank = 0 : i64} : (f32, memref<1xf32>) -> ()
        %3128 = "equeue.read"(%arg6) {bank = 1 : i64} : (memref<1xf32>) -> f32
        "equeue.write"(%3128, %arg9) {bank = 0 : i64} : (f32, memref<1xf32>) -> ()
        %3129 = mulf %3127, %3128 : f32
        %3130 = "equeue.read"(%arg7) {bank = 2 : i64} : (memref<1xf32>) -> f32
        %3131 = addf %3129, %3130 : f32
        "equeue.write"(%3131, %arg7) {bank = 2 : i64} : (f32, memref<1xf32>) -> ()
        "equeue.return"() : () -> ()
      }) : (!equeue.signal, i32, memref<1xf32>, memref<1xf32>, memref<1xf32>, memref<1xf32>, memref<1xf32>, memref<3x3x3xf32>) -> !equeue.signal
      %398 = "equeue.control_and"(%done_123, %done_124) : (!equeue.signal, !equeue.signal) -> !equeue.signal
      %done_125 = "equeue.launch"(%397, %186, %189, %187, %188, %195, %219, %123) ( {
      ^bb0(%arg5: memref<1xf32>, %arg6: memref<1xf32>, %arg7: memref<1xf32>, %arg8: memref<1xf32>, %arg9: memref<1xf32>, %arg10: memref<3x3x3xf32>):  // no predecessors
        %3127 = "equeue.read"(%arg5) {bank = 0 : i64} : (memref<1xf32>) -> f32
        "equeue.write"(%3127, %arg8) {bank = 0 : i64} : (f32, memref<1xf32>) -> ()
        %3128 = "equeue.read"(%arg6) {bank = 1 : i64} : (memref<1xf32>) -> f32
        "equeue.write"(%3128, %arg9) {bank = 0 : i64} : (f32, memref<1xf32>) -> ()
        %3129 = mulf %3127, %3128 : f32
        %3130 = "equeue.read"(%arg7) {bank = 2 : i64} : (memref<1xf32>) -> f32
        %3131 = addf %3129, %3130 : f32
        "equeue.write"(%3131, %arg7) {bank = 2 : i64} : (f32, memref<1xf32>) -> ()
        "equeue.return"() : () -> ()
      }) : (!equeue.signal, i32, memref<1xf32>, memref<1xf32>, memref<1xf32>, memref<1xf32>, memref<1xf32>, memref<3x3x3xf32>) -> !equeue.signal
      %399 = "equeue.control_and"(%398, %done_125) : (!equeue.signal, !equeue.signal) -> !equeue.signal
      %done_126 = "equeue.launch"(%397, %216, %219, %217, %218, %225, %249, %123) ( {
      ^bb0(%arg5: memref<1xf32>, %arg6: memref<1xf32>, %arg7: memref<1xf32>, %arg8: memref<1xf32>, %arg9: memref<1xf32>, %arg10: memref<3x3x3xf32>):  // no predecessors
        %3127 = "equeue.read"(%arg5) {bank = 0 : i64} : (memref<1xf32>) -> f32
        "equeue.write"(%3127, %arg8) {bank = 0 : i64} : (f32, memref<1xf32>) -> ()
        %3128 = "equeue.read"(%arg6) {bank = 1 : i64} : (memref<1xf32>) -> f32
        "equeue.write"(%3128, %arg9) {bank = 0 : i64} : (f32, memref<1xf32>) -> ()
        %3129 = mulf %3127, %3128 : f32
        %3130 = "equeue.read"(%arg7) {bank = 2 : i64} : (memref<1xf32>) -> f32
        %3131 = addf %3129, %3130 : f32
        "equeue.write"(%3131, %arg7) {bank = 2 : i64} : (f32, memref<1xf32>) -> ()
        "equeue.return"() : () -> ()
      }) : (!equeue.signal, i32, memref<1xf32>, memref<1xf32>, memref<1xf32>, memref<1xf32>, memref<1xf32>, memref<3x3x3xf32>) -> !equeue.signal
      %400 = "equeue.control_and"(%399, %done_126) : (!equeue.signal, !equeue.signal) -> !equeue.signal
      %done_127 = "equeue.launch"(%397, %246, %249, %247, %248, %255, %123) ( {
      ^bb0(%arg5: memref<1xf32>, %arg6: memref<1xf32>, %arg7: memref<1xf32>, %arg8: memref<1xf32>, %arg9: memref<3x3x3xf32>):  // no predecessors
        %3127 = "equeue.read"(%arg5) {bank = 0 : i64} : (memref<1xf32>) -> f32
        "equeue.write"(%3127, %arg8) {bank = 0 : i64} : (f32, memref<1xf32>) -> ()
        %3128 = "equeue.read"(%arg6) {bank = 1 : i64} : (memref<1xf32>) -> f32
        %3129 = mulf %3127, %3128 : f32
        %3130 = "equeue.read"(%arg7) {bank = 2 : i64} : (memref<1xf32>) -> f32
        %3131 = addf %3129, %3130 : f32
        "equeue.return"() : () -> ()
      }) : (!equeue.signal, i32, memref<1xf32>, memref<1xf32>, memref<1xf32>, memref<1xf32>, memref<3x3x3xf32>) -> !equeue.signal
      %401 = "equeue.control_and"(%400, %done_127) : (!equeue.signal, !equeue.signal) -> !equeue.signal
      %done_128 = "equeue.launch"(%397, %132, %135, %133, %134, %141, %165, %123) ( {
      ^bb0(%arg5: memref<1xf32>, %arg6: memref<1xf32>, %arg7: memref<1xf32>, %arg8: memref<1xf32>, %arg9: memref<1xf32>, %arg10: memref<3x3x3xf32>):  // no predecessors
        %3127 = "equeue.read"(%arg5) {bank = 0 : i64} : (memref<1xf32>) -> f32
        "equeue.write"(%3127, %arg8) {bank = 0 : i64} : (f32, memref<1xf32>) -> ()
        %3128 = "equeue.read"(%arg6) {bank = 1 : i64} : (memref<1xf32>) -> f32
        "equeue.write"(%3128, %arg9) {bank = 0 : i64} : (f32, memref<1xf32>) -> ()
        %3129 = mulf %3127, %3128 : f32
        %3130 = "equeue.read"(%arg7) {bank = 2 : i64} : (memref<1xf32>) -> f32
        %3131 = addf %3129, %3130 : f32
        "equeue.write"(%3131, %arg7) {bank = 2 : i64} : (f32, memref<1xf32>) -> ()
        "equeue.return"() : () -> ()
      }) : (!equeue.signal, i32, memref<1xf32>, memref<1xf32>, memref<1xf32>, memref<1xf32>, memref<1xf32>, memref<3x3x3xf32>) -> !equeue.signal
      %402 = "equeue.control_and"(%401, %done_128) : (!equeue.signal, !equeue.signal) -> !equeue.signal
      %done_129 = "equeue.launch"(%397, %162, %165, %163, %164, %171, %195, %123) ( {
      ^bb0(%arg5: memref<1xf32>, %arg6: memref<1xf32>, %arg7: memref<1xf32>, %arg8: memref<1xf32>, %arg9: memref<1xf32>, %arg10: memref<3x3x3xf32>):  // no predecessors
        %3127 = "equeue.read"(%arg5) {bank = 0 : i64} : (memref<1xf32>) -> f32
        "equeue.write"(%3127, %arg8) {bank = 0 : i64} : (f32, memref<1xf32>) -> ()
        %3128 = "equeue.read"(%arg6) {bank = 1 : i64} : (memref<1xf32>) -> f32
        "equeue.write"(%3128, %arg9) {bank = 0 : i64} : (f32, memref<1xf32>) -> ()
        %3129 = mulf %3127, %3128 : f32
        %3130 = "equeue.read"(%arg7) {bank = 2 : i64} : (memref<1xf32>) -> f32
        %3131 = addf %3129, %3130 : f32
        "equeue.write"(%3131, %arg7) {bank = 2 : i64} : (f32, memref<1xf32>) -> ()
        "equeue.return"() : () -> ()
      }) : (!equeue.signal, i32, memref<1xf32>, memref<1xf32>, memref<1xf32>, memref<1xf32>, memref<1xf32>, memref<3x3x3xf32>) -> !equeue.signal
      %403 = "equeue.control_and"(%402, %done_129) : (!equeue.signal, !equeue.signal) -> !equeue.signal
      %done_130 = "equeue.launch"(%397, %192, %195, %193, %194, %201, %225, %123) ( {
      ^bb0(%arg5: memref<1xf32>, %arg6: memref<1xf32>, %arg7: memref<1xf32>, %arg8: memref<1xf32>, %arg9: memref<1xf32>, %arg10: memref<3x3x3xf32>):  // no predecessors
        %3127 = "equeue.read"(%arg5) {bank = 0 : i64} : (memref<1xf32>) -> f32
        "equeue.write"(%3127, %arg8) {bank = 0 : i64} : (f32, memref<1xf32>) -> ()
        %3128 = "equeue.read"(%arg6) {bank = 1 : i64} : (memref<1xf32>) -> f32
        "equeue.write"(%3128, %arg9) {bank = 0 : i64} : (f32, memref<1xf32>) -> ()
        %3129 = mulf %3127, %3128 : f32
        %3130 = "equeue.read"(%arg7) {bank = 2 : i64} : (memref<1xf32>) -> f32
        %3131 = addf %3129, %3130 : f32
        "equeue.write"(%3131, %arg7) {bank = 2 : i64} : (f32, memref<1xf32>) -> ()
        "equeue.return"() : () -> ()
      }) : (!equeue.signal, i32, memref<1xf32>, memref<1xf32>, memref<1xf32>, memref<1xf32>, memref<1xf32>, memref<3x3x3xf32>) -> !equeue.signal
      %404 = "equeue.control_and"(%403, %done_130) : (!equeue.signal, !equeue.signal) -> !equeue.signal
      %done_131 = "equeue.launch"(%397, %222, %225, %223, %224, %231, %255, %123) ( {
      ^bb0(%arg5: memref<1xf32>, %arg6: memref<1xf32>, %arg7: memref<1xf32>, %arg8: memref<1xf32>, %arg9: memref<1xf32>, %arg10: memref<3x3x3xf32>):  // no predecessors
        %3127 = "equeue.read"(%arg5) {bank = 0 : i64} : (memref<1xf32>) -> f32
        "equeue.write"(%3127, %arg8) {bank = 0 : i64} : (f32, memref<1xf32>) -> ()
        %3128 = "equeue.read"(%arg6) {bank = 1 : i64} : (memref<1xf32>) -> f32
        "equeue.write"(%3128, %arg9) {bank = 0 : i64} : (f32, memref<1xf32>) -> ()
        %3129 = mulf %3127, %3128 : f32
        %3130 = "equeue.read"(%arg7) {bank = 2 : i64} : (memref<1xf32>) -> f32
        %3131 = addf %3129, %3130 : f32
        "equeue.write"(%3131, %arg7) {bank = 2 : i64} : (f32, memref<1xf32>) -> ()
        "equeue.return"() : () -> ()
      }) : (!equeue.signal, i32, memref<1xf32>, memref<1xf32>, memref<1xf32>, memref<1xf32>, memref<1xf32>, memref<3x3x3xf32>) -> !equeue.signal
      %405 = "equeue.control_and"(%404, %done_131) : (!equeue.signal, !equeue.signal) -> !equeue.signal
      %done_132 = "equeue.launch"(%397, %252, %255, %253, %254, %261, %123) ( {
      ^bb0(%arg5: memref<1xf32>, %arg6: memref<1xf32>, %arg7: memref<1xf32>, %arg8: memref<1xf32>, %arg9: memref<3x3x3xf32>):  // no predecessors
        %3127 = "equeue.read"(%arg5) {bank = 0 : i64} : (memref<1xf32>) -> f32
        "equeue.write"(%3127, %arg8) {bank = 0 : i64} : (f32, memref<1xf32>) -> ()
        %3128 = "equeue.read"(%arg6) {bank = 1 : i64} : (memref<1xf32>) -> f32
        %3129 = mulf %3127, %3128 : f32
        %3130 = "equeue.read"(%arg7) {bank = 2 : i64} : (memref<1xf32>) -> f32
        %3131 = addf %3129, %3130 : f32
        "equeue.return"() : () -> ()
      }) : (!equeue.signal, i32, memref<1xf32>, memref<1xf32>, memref<1xf32>, memref<1xf32>, memref<3x3x3xf32>) -> !equeue.signal
      %406 = "equeue.control_and"(%405, %done_132) : (!equeue.signal, !equeue.signal) -> !equeue.signal
      %done_133 = "equeue.launch"(%397, %138, %141, %139, %140, %171, %123) ( {
      ^bb0(%arg5: memref<1xf32>, %arg6: memref<1xf32>, %arg7: memref<1xf32>, %arg8: memref<1xf32>, %arg9: memref<3x3x3xf32>):  // no predecessors
        %3127 = "equeue.read"(%arg5) {bank = 0 : i64} : (memref<1xf32>) -> f32
        "equeue.write"(%3127, %arg8) {bank = 0 : i64} : (f32, memref<1xf32>) -> ()
        %3128 = "equeue.read"(%arg6) {bank = 1 : i64} : (memref<1xf32>) -> f32
        %3129 = mulf %3127, %3128 : f32
        %3130 = "equeue.read"(%arg7) {bank = 2 : i64} : (memref<1xf32>) -> f32
        %3131 = addf %3129, %3130 : f32
        "equeue.write"(%3131, %arg7) {bank = 2 : i64} : (f32, memref<1xf32>) -> ()
        "equeue.return"() : () -> ()
      }) : (!equeue.signal, i32, memref<1xf32>, memref<1xf32>, memref<1xf32>, memref<1xf32>, memref<3x3x3xf32>) -> !equeue.signal
      %407 = "equeue.control_and"(%406, %done_133) : (!equeue.signal, !equeue.signal) -> !equeue.signal
      %done_134 = "equeue.launch"(%397, %168, %171, %169, %170, %201, %123) ( {
      ^bb0(%arg5: memref<1xf32>, %arg6: memref<1xf32>, %arg7: memref<1xf32>, %arg8: memref<1xf32>, %arg9: memref<3x3x3xf32>):  // no predecessors
        %3127 = "equeue.read"(%arg5) {bank = 0 : i64} : (memref<1xf32>) -> f32
        "equeue.write"(%3127, %arg8) {bank = 0 : i64} : (f32, memref<1xf32>) -> ()
        %3128 = "equeue.read"(%arg6) {bank = 1 : i64} : (memref<1xf32>) -> f32
        %3129 = mulf %3127, %3128 : f32
        %3130 = "equeue.read"(%arg7) {bank = 2 : i64} : (memref<1xf32>) -> f32
        %3131 = addf %3129, %3130 : f32
        "equeue.write"(%3131, %arg7) {bank = 2 : i64} : (f32, memref<1xf32>) -> ()
        "equeue.return"() : () -> ()
      }) : (!equeue.signal, i32, memref<1xf32>, memref<1xf32>, memref<1xf32>, memref<1xf32>, memref<3x3x3xf32>) -> !equeue.signal
      %408 = "equeue.control_and"(%407, %done_134) : (!equeue.signal, !equeue.signal) -> !equeue.signal
      %done_135 = "equeue.launch"(%397, %198, %201, %199, %200, %231, %123) ( {
      ^bb0(%arg5: memref<1xf32>, %arg6: memref<1xf32>, %arg7: memref<1xf32>, %arg8: memref<1xf32>, %arg9: memref<3x3x3xf32>):  // no predecessors
        %3127 = "equeue.read"(%arg5) {bank = 0 : i64} : (memref<1xf32>) -> f32
        "equeue.write"(%3127, %arg8) {bank = 0 : i64} : (f32, memref<1xf32>) -> ()
        %3128 = "equeue.read"(%arg6) {bank = 1 : i64} : (memref<1xf32>) -> f32
        %3129 = mulf %3127, %3128 : f32
        %3130 = "equeue.read"(%arg7) {bank = 2 : i64} : (memref<1xf32>) -> f32
        %3131 = addf %3129, %3130 : f32
        "equeue.write"(%3131, %arg7) {bank = 2 : i64} : (f32, memref<1xf32>) -> ()
        "equeue.return"() : () -> ()
      }) : (!equeue.signal, i32, memref<1xf32>, memref<1xf32>, memref<1xf32>, memref<1xf32>, memref<3x3x3xf32>) -> !equeue.signal
      %409 = "equeue.control_and"(%408, %done_135) : (!equeue.signal, !equeue.signal) -> !equeue.signal
      %done_136 = "equeue.launch"(%397, %228, %231, %229, %230, %261, %123) ( {
      ^bb0(%arg5: memref<1xf32>, %arg6: memref<1xf32>, %arg7: memref<1xf32>, %arg8: memref<1xf32>, %arg9: memref<3x3x3xf32>):  // no predecessors
        %3127 = "equeue.read"(%arg5) {bank = 0 : i64} : (memref<1xf32>) -> f32
        "equeue.write"(%3127, %arg8) {bank = 0 : i64} : (f32, memref<1xf32>) -> ()
        %3128 = "equeue.read"(%arg6) {bank = 1 : i64} : (memref<1xf32>) -> f32
        %3129 = mulf %3127, %3128 : f32
        %3130 = "equeue.read"(%arg7) {bank = 2 : i64} : (memref<1xf32>) -> f32
        %3131 = addf %3129, %3130 : f32
        "equeue.write"(%3131, %arg7) {bank = 2 : i64} : (f32, memref<1xf32>) -> ()
        "equeue.return"() : () -> ()
      }) : (!equeue.signal, i32, memref<1xf32>, memref<1xf32>, memref<1xf32>, memref<1xf32>, memref<3x3x3xf32>) -> !equeue.signal
      %410 = "equeue.control_and"(%409, %done_136) : (!equeue.signal, !equeue.signal) -> !equeue.signal
      %done_137 = "equeue.launch"(%397, %258, %261, %259, %260, %123) ( {
      ^bb0(%arg5: memref<1xf32>, %arg6: memref<1xf32>, %arg7: memref<1xf32>, %arg8: memref<3x3x3xf32>):  // no predecessors
        %3127 = "equeue.read"(%arg5) {bank = 0 : i64} : (memref<1xf32>) -> f32
        %3128 = "equeue.read"(%arg6) {bank = 1 : i64} : (memref<1xf32>) -> f32
        %3129 = mulf %3127, %3128 : f32
        %3130 = "equeue.read"(%arg7) {bank = 2 : i64} : (memref<1xf32>) -> f32
        %3131 = addf %3129, %3130 : f32
        "equeue.return"() : () -> ()
      }) : (!equeue.signal, i32, memref<1xf32>, memref<1xf32>, memref<1xf32>, memref<3x3x3xf32>) -> !equeue.signal
      %411 = "equeue.control_and"(%410, %done_137) : (!equeue.signal, !equeue.signal) -> !equeue.signal
      "equeue.await"(%411) : (!equeue.signal) -> ()
      %412 = "equeue.control_start"() : () -> !equeue.signal
      %413 = "equeue.memcpy"(%412, %121, %129, %102, %c0) {dest_bank = 0 : i64, src_bank = 0 : i64} : (!equeue.signal, memref<5x7x7xf32>, memref<1xf32>, i32, index) -> !equeue.signal
      "equeue.await"(%413) : (!equeue.signal) -> ()
      %414 = "equeue.control_start"() : () -> !equeue.signal
      %done_138 = "equeue.launch"(%414, %126, %129, %127, %128, %135, %159, %123) ( {
      ^bb0(%arg5: memref<1xf32>, %arg6: memref<1xf32>, %arg7: memref<1xf32>, %arg8: memref<1xf32>, %arg9: memref<1xf32>, %arg10: memref<3x3x3xf32>):  // no predecessors
        %3127 = "equeue.read"(%arg5) {bank = 0 : i64} : (memref<1xf32>) -> f32
        "equeue.write"(%3127, %arg8) {bank = 0 : i64} : (f32, memref<1xf32>) -> ()
        %3128 = "equeue.read"(%arg6) {bank = 1 : i64} : (memref<1xf32>) -> f32
        "equeue.write"(%3128, %arg9) {bank = 0 : i64} : (f32, memref<1xf32>) -> ()
        %3129 = mulf %3127, %3128 : f32
        %3130 = "equeue.read"(%arg7) {bank = 2 : i64} : (memref<1xf32>) -> f32
        %3131 = addf %3129, %3130 : f32
        "equeue.write"(%3131, %arg7) {bank = 2 : i64} : (f32, memref<1xf32>) -> ()
        "equeue.return"() : () -> ()
      }) : (!equeue.signal, i32, memref<1xf32>, memref<1xf32>, memref<1xf32>, memref<1xf32>, memref<1xf32>, memref<3x3x3xf32>) -> !equeue.signal
      %done_139 = "equeue.launch"(%414, %156, %159, %157, %158, %165, %189, %123) ( {
      ^bb0(%arg5: memref<1xf32>, %arg6: memref<1xf32>, %arg7: memref<1xf32>, %arg8: memref<1xf32>, %arg9: memref<1xf32>, %arg10: memref<3x3x3xf32>):  // no predecessors
        %3127 = "equeue.read"(%arg5) {bank = 0 : i64} : (memref<1xf32>) -> f32
        "equeue.write"(%3127, %arg8) {bank = 0 : i64} : (f32, memref<1xf32>) -> ()
        %3128 = "equeue.read"(%arg6) {bank = 1 : i64} : (memref<1xf32>) -> f32
        "equeue.write"(%3128, %arg9) {bank = 0 : i64} : (f32, memref<1xf32>) -> ()
        %3129 = mulf %3127, %3128 : f32
        %3130 = "equeue.read"(%arg7) {bank = 2 : i64} : (memref<1xf32>) -> f32
        %3131 = addf %3129, %3130 : f32
        "equeue.write"(%3131, %arg7) {bank = 2 : i64} : (f32, memref<1xf32>) -> ()
        "equeue.return"() : () -> ()
      }) : (!equeue.signal, i32, memref<1xf32>, memref<1xf32>, memref<1xf32>, memref<1xf32>, memref<1xf32>, memref<3x3x3xf32>) -> !equeue.signal
      %415 = "equeue.control_and"(%done_138, %done_139) : (!equeue.signal, !equeue.signal) -> !equeue.signal
      %done_140 = "equeue.launch"(%414, %186, %189, %187, %188, %195, %219, %123) ( {
      ^bb0(%arg5: memref<1xf32>, %arg6: memref<1xf32>, %arg7: memref<1xf32>, %arg8: memref<1xf32>, %arg9: memref<1xf32>, %arg10: memref<3x3x3xf32>):  // no predecessors
        %3127 = "equeue.read"(%arg5) {bank = 0 : i64} : (memref<1xf32>) -> f32
        "equeue.write"(%3127, %arg8) {bank = 0 : i64} : (f32, memref<1xf32>) -> ()
        %3128 = "equeue.read"(%arg6) {bank = 1 : i64} : (memref<1xf32>) -> f32
        "equeue.write"(%3128, %arg9) {bank = 0 : i64} : (f32, memref<1xf32>) -> ()
        %3129 = mulf %3127, %3128 : f32
        %3130 = "equeue.read"(%arg7) {bank = 2 : i64} : (memref<1xf32>) -> f32
        %3131 = addf %3129, %3130 : f32
        "equeue.write"(%3131, %arg7) {bank = 2 : i64} : (f32, memref<1xf32>) -> ()
        "equeue.return"() : () -> ()
      }) : (!equeue.signal, i32, memref<1xf32>, memref<1xf32>, memref<1xf32>, memref<1xf32>, memref<1xf32>, memref<3x3x3xf32>) -> !equeue.signal
      %416 = "equeue.control_and"(%415, %done_140) : (!equeue.signal, !equeue.signal) -> !equeue.signal
      %done_141 = "equeue.launch"(%414, %216, %219, %217, %218, %225, %249, %123) ( {
      ^bb0(%arg5: memref<1xf32>, %arg6: memref<1xf32>, %arg7: memref<1xf32>, %arg8: memref<1xf32>, %arg9: memref<1xf32>, %arg10: memref<3x3x3xf32>):  // no predecessors
        %3127 = "equeue.read"(%arg5) {bank = 0 : i64} : (memref<1xf32>) -> f32
        "equeue.write"(%3127, %arg8) {bank = 0 : i64} : (f32, memref<1xf32>) -> ()
        %3128 = "equeue.read"(%arg6) {bank = 1 : i64} : (memref<1xf32>) -> f32
        "equeue.write"(%3128, %arg9) {bank = 0 : i64} : (f32, memref<1xf32>) -> ()
        %3129 = mulf %3127, %3128 : f32
        %3130 = "equeue.read"(%arg7) {bank = 2 : i64} : (memref<1xf32>) -> f32
        %3131 = addf %3129, %3130 : f32
        "equeue.write"(%3131, %arg7) {bank = 2 : i64} : (f32, memref<1xf32>) -> ()
        "equeue.return"() : () -> ()
      }) : (!equeue.signal, i32, memref<1xf32>, memref<1xf32>, memref<1xf32>, memref<1xf32>, memref<1xf32>, memref<3x3x3xf32>) -> !equeue.signal
      %417 = "equeue.control_and"(%416, %done_141) : (!equeue.signal, !equeue.signal) -> !equeue.signal
      %done_142 = "equeue.launch"(%414, %246, %249, %247, %248, %255, %123) ( {
      ^bb0(%arg5: memref<1xf32>, %arg6: memref<1xf32>, %arg7: memref<1xf32>, %arg8: memref<1xf32>, %arg9: memref<3x3x3xf32>):  // no predecessors
        %3127 = "equeue.read"(%arg5) {bank = 0 : i64} : (memref<1xf32>) -> f32
        "equeue.write"(%3127, %arg8) {bank = 0 : i64} : (f32, memref<1xf32>) -> ()
        %3128 = "equeue.read"(%arg6) {bank = 1 : i64} : (memref<1xf32>) -> f32
        %3129 = mulf %3127, %3128 : f32
        %3130 = "equeue.read"(%arg7) {bank = 2 : i64} : (memref<1xf32>) -> f32
        %3131 = addf %3129, %3130 : f32
        "equeue.return"() : () -> ()
      }) : (!equeue.signal, i32, memref<1xf32>, memref<1xf32>, memref<1xf32>, memref<1xf32>, memref<3x3x3xf32>) -> !equeue.signal
      %418 = "equeue.control_and"(%417, %done_142) : (!equeue.signal, !equeue.signal) -> !equeue.signal
…
        %3130 = "equeue.read"(%arg7) {bank = 2 : i64} : (memref<1xf32>) -> f32
        %3131 = addf %3129, %3130 : f32
        "equeue.write"(%3131, %arg7) {bank = 2 : i64} : (f32, memref<1xf32>) -> ()
        "equeue.return"() : () -> ()
      }) : (!equeue.signal, i32, memref<1xf32>, memref<1xf32>, memref<1xf32>, memref<1xf32>, memref<3x3x3xf32>) -> !equeue.signal
      %3075 = "equeue.control_and"(%3074, %done_2686) : (!equeue.signal, !equeue.signal) -> !equeue.signal
      %done_2687 = "equeue.launch"(%3064, %198, %201, %199, %200, %231, %123) ( {
      ^bb0(%arg5: memref<1xf32>, %arg6: memref<1xf32>, %arg7: memref<1xf32>, %arg8: memref<1xf32>, %arg9: memref<3x3x3xf32>):  // no predecessors
        %3127 = "equeue.read"(%arg5) {bank = 0 : i64} : (memref<1xf32>) -> f32
        "equeue.write"(%3127, %arg8) {bank = 0 : i64} : (f32, memref<1xf32>) -> ()
        %3128 = "equeue.read"(%arg6) {bank = 1 : i64} : (memref<1xf32>) -> f32
        %3129 = mulf %3127, %3128 : f32
        %3130 = "equeue.read"(%arg7) {bank = 2 : i64} : (memref<1xf32>) -> f32
        %3131 = addf %3129, %3130 : f32
        "equeue.write"(%3131, %arg7) {bank = 2 : i64} : (f32, memref<1xf32>) -> ()
        "equeue.return"() : () -> ()
      }) : (!equeue.signal, i32, memref<1xf32>, memref<1xf32>, memref<1xf32>, memref<1xf32>, memref<3x3x3xf32>) -> !equeue.signal
      %3076 = "equeue.control_and"(%3075, %done_2687) : (!equeue.signal, !equeue.signal) -> !equeue.signal
      %done_2688 = "equeue.launch"(%3064, %228, %231, %229, %230, %261, %123) ( {
      ^bb0(%arg5: memref<1xf32>, %arg6: memref<1xf32>, %arg7: memref<1xf32>, %arg8: memref<1xf32>, %arg9: memref<3x3x3xf32>):  // no predecessors
        %3127 = "equeue.read"(%arg5) {bank = 0 : i64} : (memref<1xf32>) -> f32
        "equeue.write"(%3127, %arg8) {bank = 0 : i64} : (f32, memref<1xf32>) -> ()
        %3128 = "equeue.read"(%arg6) {bank = 1 : i64} : (memref<1xf32>) -> f32
        %3129 = mulf %3127, %3128 : f32
        %3130 = "equeue.read"(%arg7) {bank = 2 : i64} : (memref<1xf32>) -> f32
        %3131 = addf %3129, %3130 : f32
        "equeue.write"(%3131, %arg7) {bank = 2 : i64} : (f32, memref<1xf32>) -> ()
        "equeue.return"() : () -> ()
      }) : (!equeue.signal, i32, memref<1xf32>, memref<1xf32>, memref<1xf32>, memref<1xf32>, memref<3x3x3xf32>) -> !equeue.signal
      %3077 = "equeue.control_and"(%3076, %done_2688) : (!equeue.signal, !equeue.signal) -> !equeue.signal
      %done_2689 = "equeue.launch"(%3064, %258, %261, %259, %260, %123) ( {
      ^bb0(%arg5: memref<1xf32>, %arg6: memref<1xf32>, %arg7: memref<1xf32>, %arg8: memref<3x3x3xf32>):  // no predecessors
        %3127 = "equeue.read"(%arg5) {bank = 0 : i64} : (memref<1xf32>) -> f32
        %3128 = "equeue.read"(%arg6) {bank = 1 : i64} : (memref<1xf32>) -> f32
        %3129 = mulf %3127, %3128 : f32
        %3130 = "equeue.read"(%arg7) {bank = 2 : i64} : (memref<1xf32>) -> f32
        %3131 = addf %3129, %3130 : f32
        "equeue.return"() : () -> ()
      }) : (!equeue.signal, i32, memref<1xf32>, memref<1xf32>, memref<1xf32>, memref<3x3x3xf32>) -> !equeue.signal
      %3078 = "equeue.control_and"(%3077, %done_2689) : (!equeue.signal, !equeue.signal) -> !equeue.signal
      "equeue.await"(%3078) : (!equeue.signal) -> ()
      %3079 = "equeue.control_start"() : () -> !equeue.signal
      "equeue.await"(%3079) : (!equeue.signal) -> ()
      %3080 = "equeue.control_start"() : () -> !equeue.signal
      %done_2690 = "equeue.launch"(%3080, %126, %129, %127, %128, %135, %159, %123) ( {
      ^bb0(%arg5: memref<1xf32>, %arg6: memref<1xf32>, %arg7: memref<1xf32>, %arg8: memref<1xf32>, %arg9: memref<1xf32>, %arg10: memref<3x3x3xf32>):  // no predecessors
        %3127 = "equeue.read"(%arg5) {bank = 0 : i64} : (memref<1xf32>) -> f32
        "equeue.write"(%3127, %arg8) {bank = 0 : i64} : (f32, memref<1xf32>) -> ()
        %3128 = "equeue.read"(%arg6) {bank = 1 : i64} : (memref<1xf32>) -> f32
        "equeue.write"(%3128, %arg9) {bank = 0 : i64} : (f32, memref<1xf32>) -> ()
        %3129 = mulf %3127, %3128 : f32
        %3130 = "equeue.read"(%arg7) {bank = 2 : i64} : (memref<1xf32>) -> f32
        %3131 = addf %3129, %3130 : f32
        "equeue.write"(%3131, %arg7) {bank = 2 : i64} : (f32, memref<1xf32>) -> ()
        "equeue.return"() : () -> ()
      }) : (!equeue.signal, i32, memref<1xf32>, memref<1xf32>, memref<1xf32>, memref<1xf32>, memref<1xf32>, memref<3x3x3xf32>) -> !equeue.signal
      %done_2691 = "equeue.launch"(%3080, %156, %159, %157, %158, %165, %189, %123) ( {
      ^bb0(%arg5: memref<1xf32>, %arg6: memref<1xf32>, %arg7: memref<1xf32>, %arg8: memref<1xf32>, %arg9: memref<1xf32>, %arg10: memref<3x3x3xf32>):  // no predecessors
        %3127 = "equeue.read"(%arg5) {bank = 0 : i64} : (memref<1xf32>) -> f32
        "equeue.write"(%3127, %arg8) {bank = 0 : i64} : (f32, memref<1xf32>) -> ()
        %3128 = "equeue.read"(%arg6) {bank = 1 : i64} : (memref<1xf32>) -> f32
        "equeue.write"(%3128, %arg9) {bank = 0 : i64} : (f32, memref<1xf32>) -> ()
        %3129 = mulf %3127, %3128 : f32
        %3130 = "equeue.read"(%arg7) {bank = 2 : i64} : (memref<1xf32>) -> f32
        %3131 = addf %3129, %3130 : f32
        "equeue.write"(%3131, %arg7) {bank = 2 : i64} : (f32, memref<1xf32>) -> ()
        "equeue.return"() : () -> ()
      }) : (!equeue.signal, i32, memref<1xf32>, memref<1xf32>, memref<1xf32>, memref<1xf32>, memref<1xf32>, memref<3x3x3xf32>) -> !equeue.signal
      %3081 = "equeue.control_and"(%done_2690, %done_2691) : (!equeue.signal, !equeue.signal) -> !equeue.signal
      %done_2692 = "equeue.launch"(%3080, %186, %189, %187, %188, %195, %219, %123) ( {
      ^bb0(%arg5: memref<1xf32>, %arg6: memref<1xf32>, %arg7: memref<1xf32>, %arg8: memref<1xf32>, %arg9: memref<1xf32>, %arg10: memref<3x3x3xf32>):  // no predecessors
        %3127 = "equeue.read"(%arg5) {bank = 0 : i64} : (memref<1xf32>) -> f32
        "equeue.write"(%3127, %arg8) {bank = 0 : i64} : (f32, memref<1xf32>) -> ()
        %3128 = "equeue.read"(%arg6) {bank = 1 : i64} : (memref<1xf32>) -> f32
        "equeue.write"(%3128, %arg9) {bank = 0 : i64} : (f32, memref<1xf32>) -> ()
        %3129 = mulf %3127, %3128 : f32
        %3130 = "equeue.read"(%arg7) {bank = 2 : i64} : (memref<1xf32>) -> f32
        %3131 = addf %3129, %3130 : f32
        "equeue.write"(%3131, %arg7) {bank = 2 : i64} : (f32, memref<1xf32>) -> ()
        "equeue.return"() : () -> ()
      }) : (!equeue.signal, i32, memref<1xf32>, memref<1xf32>, memref<1xf32>, memref<1xf32>, memref<1xf32>, memref<3x3x3xf32>) -> !equeue.signal
      %3082 = "equeue.control_and"(%3081, %done_2692) : (!equeue.signal, !equeue.signal) -> !equeue.signal
      %done_2693 = "equeue.launch"(%3080, %216, %219, %217, %218, %225, %249, %123) ( {
      ^bb0(%arg5: memref<1xf32>, %arg6: memref<1xf32>, %arg7: memref<1xf32>, %arg8: memref<1xf32>, %arg9: memref<1xf32>, %arg10: memref<3x3x3xf32>):  // no predecessors
        %3127 = "equeue.read"(%arg5) {bank = 0 : i64} : (memref<1xf32>) -> f32
        "equeue.write"(%3127, %arg8) {bank = 0 : i64} : (f32, memref<1xf32>) -> ()
        %3128 = "equeue.read"(%arg6) {bank = 1 : i64} : (memref<1xf32>) -> f32
        "equeue.write"(%3128, %arg9) {bank = 0 : i64} : (f32, memref<1xf32>) -> ()
        %3129 = mulf %3127, %3128 : f32
        %3130 = "equeue.read"(%arg7) {bank = 2 : i64} : (memref<1xf32>) -> f32
        %3131 = addf %3129, %3130 : f32
        "equeue.write"(%3131, %arg7) {bank = 2 : i64} : (f32, memref<1xf32>) -> ()
        "equeue.return"() : () -> ()
      }) : (!equeue.signal, i32, memref<1xf32>, memref<1xf32>, memref<1xf32>, memref<1xf32>, memref<1xf32>, memref<3x3x3xf32>) -> !equeue.signal
      %3083 = "equeue.control_and"(%3082, %done_2693) : (!equeue.signal, !equeue.signal) -> !equeue.signal
      %done_2694 = "equeue.launch"(%3080, %246, %249, %247, %248, %255, %123) ( {
      ^bb0(%arg5: memref<1xf32>, %arg6: memref<1xf32>, %arg7: memref<1xf32>, %arg8: memref<1xf32>, %arg9: memref<3x3x3xf32>):  // no predecessors
        %3127 = "equeue.read"(%arg5) {bank = 0 : i64} : (memref<1xf32>) -> f32
        "equeue.write"(%3127, %arg8) {bank = 0 : i64} : (f32, memref<1xf32>) -> ()
        %3128 = "equeue.read"(%arg6) {bank = 1 : i64} : (memref<1xf32>) -> f32
        %3129 = mulf %3127, %3128 : f32
        %3130 = "equeue.read"(%arg7) {bank = 2 : i64} : (memref<1xf32>) -> f32
        %3131 = addf %3129, %3130 : f32
        "equeue.return"() : () -> ()
      }) : (!equeue.signal, i32, memref<1xf32>, memref<1xf32>, memref<1xf32>, memref<1xf32>, memref<3x3x3xf32>) -> !equeue.signal
      %3084 = "equeue.control_and"(%3083, %done_2694) : (!equeue.signal, !equeue.signal) -> !equeue.signal
      %done_2695 = "equeue.launch"(%3080, %132, %135, %133, %134, %141, %165, %123) ( {
      ^bb0(%arg5: memref<1xf32>, %arg6: memref<1xf32>, %arg7: memref<1xf32>, %arg8: memref<1xf32>, %arg9: memref<1xf32>, %arg10: memref<3x3x3xf32>):  // no predecessors
        %3127 = "equeue.read"(%arg5) {bank = 0 : i64} : (memref<1xf32>) -> f32
        "equeue.write"(%3127, %arg8) {bank = 0 : i64} : (f32, memref<1xf32>) -> ()
        %3128 = "equeue.read"(%arg6) {bank = 1 : i64} : (memref<1xf32>) -> f32
        "equeue.write"(%3128, %arg9) {bank = 0 : i64} : (f32, memref<1xf32>) -> ()
        %3129 = mulf %3127, %3128 : f32
        %3130 = "equeue.read"(%arg7) {bank = 2 : i64} : (memref<1xf32>) -> f32
        %3131 = addf %3129, %3130 : f32
        "equeue.write"(%3131, %arg7) {bank = 2 : i64} : (f32, memref<1xf32>) -> ()
        "equeue.return"() : () -> ()
      }) : (!equeue.signal, i32, memref<1xf32>, memref<1xf32>, memref<1xf32>, memref<1xf32>, memref<1xf32>, memref<3x3x3xf32>) -> !equeue.signal
      %3085 = "equeue.control_and"(%3084, %done_2695) : (!equeue.signal, !equeue.signal) -> !equeue.signal
      %done_2696 = "equeue.launch"(%3080, %162, %165, %163, %164, %171, %195, %123) ( {
      ^bb0(%arg5: memref<1xf32>, %arg6: memref<1xf32>, %arg7: memref<1xf32>, %arg8: memref<1xf32>, %arg9: memref<1xf32>, %arg10: memref<3x3x3xf32>):  // no predecessors
        %3127 = "equeue.read"(%arg5) {bank = 0 : i64} : (memref<1xf32>) -> f32
        "equeue.write"(%3127, %arg8) {bank = 0 : i64} : (f32, memref<1xf32>) -> ()
        %3128 = "equeue.read"(%arg6) {bank = 1 : i64} : (memref<1xf32>) -> f32
        "equeue.write"(%3128, %arg9) {bank = 0 : i64} : (f32, memref<1xf32>) -> ()
        %3129 = mulf %3127, %3128 : f32
        %3130 = "equeue.read"(%arg7) {bank = 2 : i64} : (memref<1xf32>) -> f32
        %3131 = addf %3129, %3130 : f32
        "equeue.write"(%3131, %arg7) {bank = 2 : i64} : (f32, memref<1xf32>) -> ()
        "equeue.return"() : () -> ()
      }) : (!equeue.signal, i32, memref<1xf32>, memref<1xf32>, memref<1xf32>, memref<1xf32>, memref<1xf32>, memref<3x3x3xf32>) -> !equeue.signal
      %3086 = "equeue.control_and"(%3085, %done_2696) : (!equeue.signal, !equeue.signal) -> !equeue.signal
      %done_2697 = "equeue.launch"(%3080, %192, %195, %193, %194, %201, %225, %123) ( {
      ^bb0(%arg5: memref<1xf32>, %arg6: memref<1xf32>, %arg7: memref<1xf32>, %arg8: memref<1xf32>, %arg9: memref<1xf32>, %arg10: memref<3x3x3xf32>):  // no predecessors
        %3127 = "equeue.read"(%arg5) {bank = 0 : i64} : (memref<1xf32>) -> f32
        "equeue.write"(%3127, %arg8) {bank = 0 : i64} : (f32, memref<1xf32>) -> ()
        %3128 = "equeue.read"(%arg6) {bank = 1 : i64} : (memref<1xf32>) -> f32
        "equeue.write"(%3128, %arg9) {bank = 0 : i64} : (f32, memref<1xf32>) -> ()
        %3129 = mulf %3127, %3128 : f32
        %3130 = "equeue.read"(%arg7) {bank = 2 : i64} : (memref<1xf32>) -> f32
        %3131 = addf %3129, %3130 : f32
        "equeue.write"(%3131, %arg7) {bank = 2 : i64} : (f32, memref<1xf32>) -> ()
        "equeue.return"() : () -> ()
      }) : (!equeue.signal, i32, memref<1xf32>, memref<1xf32>, memref<1xf32>, memref<1xf32>, memref<1xf32>, memref<3x3x3xf32>) -> !equeue.signal
      %3087 = "equeue.control_and"(%3086, %done_2697) : (!equeue.signal, !equeue.signal) -> !equeue.signal
      %done_2698 = "equeue.launch"(%3080, %222, %225, %223, %224, %231, %255, %123) ( {
      ^bb0(%arg5: memref<1xf32>, %arg6: memref<1xf32>, %arg7: memref<1xf32>, %arg8: memref<1xf32>, %arg9: memref<1xf32>, %arg10: memref<3x3x3xf32>):  // no predecessors
        %3127 = "equeue.read"(%arg5) {bank = 0 : i64} : (memref<1xf32>) -> f32
        "equeue.write"(%3127, %arg8) {bank = 0 : i64} : (f32, memref<1xf32>) -> ()
        %3128 = "equeue.read"(%arg6) {bank = 1 : i64} : (memref<1xf32>) -> f32
        "equeue.write"(%3128, %arg9) {bank = 0 : i64} : (f32, memref<1xf32>) -> ()
        %3129 = mulf %3127, %3128 : f32
        %3130 = "equeue.read"(%arg7) {bank = 2 : i64} : (memref<1xf32>) -> f32
        %3131 = addf %3129, %3130 : f32
        "equeue.write"(%3131, %arg7) {bank = 2 : i64} : (f32, memref<1xf32>) -> ()
        "equeue.return"() : () -> ()
      }) : (!equeue.signal, i32, memref<1xf32>, memref<1xf32>, memref<1xf32>, memref<1xf32>, memref<1xf32>, memref<3x3x3xf32>) -> !equeue.signal
      %3088 = "equeue.control_and"(%3087, %done_2698) : (!equeue.signal, !equeue.signal) -> !equeue.signal
      %done_2699 = "equeue.launch"(%3080, %252, %255, %253, %254, %261, %123) ( {
      ^bb0(%arg5: memref<1xf32>, %arg6: memref<1xf32>, %arg7: memref<1xf32>, %arg8: memref<1xf32>, %arg9: memref<3x3x3xf32>):  // no predecessors
        %3127 = "equeue.read"(%arg5) {bank = 0 : i64} : (memref<1xf32>) -> f32
        "equeue.write"(%3127, %arg8) {bank = 0 : i64} : (f32, memref<1xf32>) -> ()
        %3128 = "equeue.read"(%arg6) {bank = 1 : i64} : (memref<1xf32>) -> f32
        %3129 = mulf %3127, %3128 : f32
        %3130 = "equeue.read"(%arg7) {bank = 2 : i64} : (memref<1xf32>) -> f32
        %3131 = addf %3129, %3130 : f32
        "equeue.return"() : () -> ()
      }) : (!equeue.signal, i32, memref<1xf32>, memref<1xf32>, memref<1xf32>, memref<1xf32>, memref<3x3x3xf32>) -> !equeue.signal
      %3089 = "equeue.control_and"(%3088, %done_2699) : (!equeue.signal, !equeue.signal) -> !equeue.signal
      %done_2700 = "equeue.launch"(%3080, %138, %141, %139, %140, %171, %123) ( {
      ^bb0(%arg5: memref<1xf32>, %arg6: memref<1xf32>, %arg7: memref<1xf32>, %arg8: memref<1xf32>, %arg9: memref<3x3x3xf32>):  // no predecessors
        %3127 = "equeue.read"(%arg5) {bank = 0 : i64} : (memref<1xf32>) -> f32
        "equeue.write"(%3127, %arg8) {bank = 0 : i64} : (f32, memref<1xf32>) -> ()
        %3128 = "equeue.read"(%arg6) {bank = 1 : i64} : (memref<1xf32>) -> f32
        %3129 = mulf %3127, %3128 : f32
        %3130 = "equeue.read"(%arg7) {bank = 2 : i64} : (memref<1xf32>) -> f32
        %3131 = addf %3129, %3130 : f32
        "equeue.write"(%3131, %arg7) {bank = 2 : i64} : (f32, memref<1xf32>) -> ()
        "equeue.return"() : () -> ()
      }) : (!equeue.signal, i32, memref<1xf32>, memref<1xf32>, memref<1xf32>, memref<1xf32>, memref<3x3x3xf32>) -> !equeue.signal
      %3090 = "equeue.control_and"(%3089, %done_2700) : (!equeue.signal, !equeue.signal) -> !equeue.signal
      %done_2701 = "equeue.launch"(%3080, %168, %171, %169, %170, %201, %123) ( {
      ^bb0(%arg5: memref<1xf32>, %arg6: memref<1xf32>, %arg7: memref<1xf32>, %arg8: memref<1xf32>, %arg9: memref<3x3x3xf32>):  // no predecessors
        %3127 = "equeue.read"(%arg5) {bank = 0 : i64} : (memref<1xf32>) -> f32
        "equeue.write"(%3127, %arg8) {bank = 0 : i64} : (f32, memref<1xf32>) -> ()
        %3128 = "equeue.read"(%arg6) {bank = 1 : i64} : (memref<1xf32>) -> f32
        %3129 = mulf %3127, %3128 : f32
        %3130 = "equeue.read"(%arg7) {bank = 2 : i64} : (memref<1xf32>) -> f32
        %3131 = addf %3129, %3130 : f32
        "equeue.write"(%3131, %arg7) {bank = 2 : i64} : (f32, memref<1xf32>) -> ()
        "equeue.return"() : () -> ()
      }) : (!equeue.signal, i32, memref<1xf32>, memref<1xf32>, memref<1xf32>, memref<1xf32>, memref<3x3x3xf32>) -> !equeue.signal
      %3091 = "equeue.control_and"(%3090, %done_2701) : (!equeue.signal, !equeue.signal) -> !equeue.signal
      %done_2702 = "equeue.launch"(%3080, %198, %201, %199, %200, %231, %123) ( {
      ^bb0(%arg5: memref<1xf32>, %arg6: memref<1xf32>, %arg7: memref<1xf32>, %arg8: memref<1xf32>, %arg9: memref<3x3x3xf32>):  // no predecessors
        %3127 = "equeue.read"(%arg5) {bank = 0 : i64} : (memref<1xf32>) -> f32
        "equeue.write"(%3127, %arg8) {bank = 0 : i64} : (f32, memref<1xf32>) -> ()
        %3128 = "equeue.read"(%arg6) {bank = 1 : i64} : (memref<1xf32>) -> f32
        %3129 = mulf %3127, %3128 : f32
        %3130 = "equeue.read"(%arg7) {bank = 2 : i64} : (memref<1xf32>) -> f32
        %3131 = addf %3129, %3130 : f32
        "equeue.write"(%3131, %arg7) {bank = 2 : i64} : (f32, memref<1xf32>) -> ()
        "equeue.return"() : () -> ()
      }) : (!equeue.signal, i32, memref<1xf32>, memref<1xf32>, memref<1xf32>, memref<1xf32>, memref<3x3x3xf32>) -> !equeue.signal
      %3092 = "equeue.control_and"(%3091, %done_2702) : (!equeue.signal, !equeue.signal) -> !equeue.signal
      %done_2703 = "equeue.launch"(%3080, %228, %231, %229, %230, %261, %123) ( {
      ^bb0(%arg5: memref<1xf32>, %arg6: memref<1xf32>, %arg7: memref<1xf32>, %arg8: memref<1xf32>, %arg9: memref<3x3x3xf32>):  // no predecessors
        %3127 = "equeue.read"(%arg5) {bank = 0 : i64} : (memref<1xf32>) -> f32
        "equeue.write"(%3127, %arg8) {bank = 0 : i64} : (f32, memref<1xf32>) -> ()
        %3128 = "equeue.read"(%arg6) {bank = 1 : i64} : (memref<1xf32>) -> f32
        %3129 = mulf %3127, %3128 : f32
        %3130 = "equeue.read"(%arg7) {bank = 2 : i64} : (memref<1xf32>) -> f32
        %3131 = addf %3129, %3130 : f32
        "equeue.write"(%3131, %arg7) {bank = 2 : i64} : (f32, memref<1xf32>) -> ()
        "equeue.return"() : () -> ()
      }) : (!equeue.signal, i32, memref<1xf32>, memref<1xf32>, memref<1xf32>, memref<1xf32>, memref<3x3x3xf32>) -> !equeue.signal
      %3093 = "equeue.control_and"(%3092, %done_2703) : (!equeue.signal, !equeue.signal) -> !equeue.signal
      %done_2704 = "equeue.launch"(%3080, %258, %261, %259, %260, %123) ( {
      ^bb0(%arg5: memref<1xf32>, %arg6: memref<1xf32>, %arg7: memref<1xf32>, %arg8: memref<3x3x3xf32>):  // no predecessors
        %3127 = "equeue.read"(%arg5) {bank = 0 : i64} : (memref<1xf32>) -> f32
        %3128 = "equeue.read"(%arg6) {bank = 1 : i64} : (memref<1xf32>) -> f32
        %3129 = mulf %3127, %3128 : f32
        %3130 = "equeue.read"(%arg7) {bank = 2 : i64} : (memref<1xf32>) -> f32
        %3131 = addf %3129, %3130 : f32
        "equeue.return"() : () -> ()
      }) : (!equeue.signal, i32, memref<1xf32>, memref<1xf32>, memref<1xf32>, memref<3x3x3xf32>) -> !equeue.signal
      %3094 = "equeue.control_and"(%3093, %done_2704) : (!equeue.signal, !equeue.signal) -> !equeue.signal
      "equeue.await"(%3094) : (!equeue.signal) -> ()
      %3095 = "equeue.control_start"() : () -> !equeue.signal
      "equeue.await"(%3095) : (!equeue.signal) -> ()
      %3096 = "equeue.control_start"() : () -> !equeue.signal
      %done_2705 = "equeue.launch"(%3096, %126, %129, %127, %128, %135, %159, %123) ( {
      ^bb0(%arg5: memref<1xf32>, %arg6: memref<1xf32>, %arg7: memref<1xf32>, %arg8: memref<1xf32>, %arg9: memref<1xf32>, %arg10: memref<3x3x3xf32>):  // no predecessors
        %3127 = "equeue.read"(%arg5) {bank = 0 : i64} : (memref<1xf32>) -> f32
        "equeue.write"(%3127, %arg8) {bank = 0 : i64} : (f32, memref<1xf32>) -> ()
        %3128 = "equeue.read"(%arg6) {bank = 1 : i64} : (memref<1xf32>) -> f32
        "equeue.write"(%3128, %arg9) {bank = 0 : i64} : (f32, memref<1xf32>) -> ()
        %3129 = mulf %3127, %3128 : f32
        %3130 = "equeue.read"(%arg7) {bank = 2 : i64} : (memref<1xf32>) -> f32
        %3131 = addf %3129, %3130 : f32
        "equeue.write"(%3131, %arg7) {bank = 2 : i64} : (f32, memref<1xf32>) -> ()
        "equeue.return"() : () -> ()
      }) : (!equeue.signal, i32, memref<1xf32>, memref<1xf32>, memref<1xf32>, memref<1xf32>, memref<1xf32>, memref<3x3x3xf32>) -> !equeue.signal
      %done_2706 = "equeue.launch"(%3096, %156, %159, %157, %158, %165, %189, %123) ( {
      ^bb0(%arg5: memref<1xf32>, %arg6: memref<1xf32>, %arg7: memref<1xf32>, %arg8: memref<1xf32>, %arg9: memref<1xf32>, %arg10: memref<3x3x3xf32>):  // no predecessors
        %3127 = "equeue.read"(%arg5) {bank = 0 : i64} : (memref<1xf32>) -> f32
        "equeue.write"(%3127, %arg8) {bank = 0 : i64} : (f32, memref<1xf32>) -> ()
        %3128 = "equeue.read"(%arg6) {bank = 1 : i64} : (memref<1xf32>) -> f32
        "equeue.write"(%3128, %arg9) {bank = 0 : i64} : (f32, memref<1xf32>) -> ()
        %3129 = mulf %3127, %3128 : f32
        %3130 = "equeue.read"(%arg7) {bank = 2 : i64} : (memref<1xf32>) -> f32
        %3131 = addf %3129, %3130 : f32
        "equeue.write"(%3131, %arg7) {bank = 2 : i64} : (f32, memref<1xf32>) -> ()
        "equeue.return"() : () -> ()
      }) : (!equeue.signal, i32, memref<1xf32>, memref<1xf32>, memref<1xf32>, memref<1xf32>, memref<1xf32>, memref<3x3x3xf32>) -> !equeue.signal
      %3097 = "equeue.control_and"(%done_2705, %done_2706) : (!equeue.signal, !equeue.signal) -> !equeue.signal
      %done_2707 = "equeue.launch"(%3096, %186, %189, %187, %188, %195, %219, %123) ( {
      ^bb0(%arg5: memref<1xf32>, %arg6: memref<1xf32>, %arg7: memref<1xf32>, %arg8: memref<1xf32>, %arg9: memref<1xf32>, %arg10: memref<3x3x3xf32>):  // no predecessors
        %3127 = "equeue.read"(%arg5) {bank = 0 : i64} : (memref<1xf32>) -> f32
        "equeue.write"(%3127, %arg8) {bank = 0 : i64} : (f32, memref<1xf32>) -> ()
        %3128 = "equeue.read"(%arg6) {bank = 1 : i64} : (memref<1xf32>) -> f32
        "equeue.write"(%3128, %arg9) {bank = 0 : i64} : (f32, memref<1xf32>) -> ()
        %3129 = mulf %3127, %3128 : f32
        %3130 = "equeue.read"(%arg7) {bank = 2 : i64} : (memref<1xf32>) -> f32
        %3131 = addf %3129, %3130 : f32
        "equeue.write"(%3131, %arg7) {bank = 2 : i64} : (f32, memref<1xf32>) -> ()
        "equeue.return"() : () -> ()
      }) : (!equeue.signal, i32, memref<1xf32>, memref<1xf32>, memref<1xf32>, memref<1xf32>, memref<1xf32>, memref<3x3x3xf32>) -> !equeue.signal
      %3098 = "equeue.control_and"(%3097, %done_2707) : (!equeue.signal, !equeue.signal) -> !equeue.signal
      %done_2708 = "equeue.launch"(%3096, %216, %219, %217, %218, %225, %249, %123) ( {
      ^bb0(%arg5: memref<1xf32>, %arg6: memref<1xf32>, %arg7: memref<1xf32>, %arg8: memref<1xf32>, %arg9: memref<1xf32>, %arg10: memref<3x3x3xf32>):  // no predecessors
        %3127 = "equeue.read"(%arg5) {bank = 0 : i64} : (memref<1xf32>) -> f32
        "equeue.write"(%3127, %arg8) {bank = 0 : i64} : (f32, memref<1xf32>) -> ()
        %3128 = "equeue.read"(%arg6) {bank = 1 : i64} : (memref<1xf32>) -> f32
        "equeue.write"(%3128, %arg9) {bank = 0 : i64} : (f32, memref<1xf32>) -> ()
        %3129 = mulf %3127, %3128 : f32
        %3130 = "equeue.read"(%arg7) {bank = 2 : i64} : (memref<1xf32>) -> f32
        %3131 = addf %3129, %3130 : f32
        "equeue.write"(%3131, %arg7) {bank = 2 : i64} : (f32, memref<1xf32>) -> ()
        "equeue.return"() : () -> ()
      }) : (!equeue.signal, i32, memref<1xf32>, memref<1xf32>, memref<1xf32>, memref<1xf32>, memref<1xf32>, memref<3x3x3xf32>) -> !equeue.signal
      %3099 = "equeue.control_and"(%3098, %done_2708) : (!equeue.signal, !equeue.signal) -> !equeue.signal
      %done_2709 = "equeue.launch"(%3096, %246, %249, %247, %248, %255, %123) ( {
      ^bb0(%arg5: memref<1xf32>, %arg6: memref<1xf32>, %arg7: memref<1xf32>, %arg8: memref<1xf32>, %arg9: memref<3x3x3xf32>):  // no predecessors
        %3127 = "equeue.read"(%arg5) {bank = 0 : i64} : (memref<1xf32>) -> f32
        "equeue.write"(%3127, %arg8) {bank = 0 : i64} : (f32, memref<1xf32>) -> ()
        %3128 = "equeue.read"(%arg6) {bank = 1 : i64} : (memref<1xf32>) -> f32
        %3129 = mulf %3127, %3128 : f32
        %3130 = "equeue.read"(%arg7) {bank = 2 : i64} : (memref<1xf32>) -> f32
        %3131 = addf %3129, %3130 : f32
        "equeue.return"() : () -> ()
      }) : (!equeue.signal, i32, memref<1xf32>, memref<1xf32>, memref<1xf32>, memref<1xf32>, memref<3x3x3xf32>) -> !equeue.signal
      %3100 = "equeue.control_and"(%3099, %done_2709) : (!equeue.signal, !equeue.signal) -> !equeue.signal
      %done_2710 = "equeue.launch"(%3096, %132, %135, %133, %134, %141, %165, %123) ( {
      ^bb0(%arg5: memref<1xf32>, %arg6: memref<1xf32>, %arg7: memref<1xf32>, %arg8: memref<1xf32>, %arg9: memref<1xf32>, %arg10: memref<3x3x3xf32>):  // no predecessors
        %3127 = "equeue.read"(%arg5) {bank = 0 : i64} : (memref<1xf32>) -> f32
        "equeue.write"(%3127, %arg8) {bank = 0 : i64} : (f32, memref<1xf32>) -> ()
        %3128 = "equeue.read"(%arg6) {bank = 1 : i64} : (memref<1xf32>) -> f32
        "equeue.write"(%3128, %arg9) {bank = 0 : i64} : (f32, memref<1xf32>) -> ()
        %3129 = mulf %3127, %3128 : f32
        %3130 = "equeue.read"(%arg7) {bank = 2 : i64} : (memref<1xf32>) -> f32
        %3131 = addf %3129, %3130 : f32
        "equeue.write"(%3131, %arg7) {bank = 2 : i64} : (f32, memref<1xf32>) -> ()
        "equeue.return"() : () -> ()
      }) : (!equeue.signal, i32, memref<1xf32>, memref<1xf32>, memref<1xf32>, memref<1xf32>, memref<1xf32>, memref<3x3x3xf32>) -> !equeue.signal
      %3101 = "equeue.control_and"(%3100, %done_2710) : (!equeue.signal, !equeue.signal) -> !equeue.signal
      %done_2711 = "equeue.launch"(%3096, %162, %165, %163, %164, %171, %195, %123) ( {
      ^bb0(%arg5: memref<1xf32>, %arg6: memref<1xf32>, %arg7: memref<1xf32>, %arg8: memref<1xf32>, %arg9: memref<1xf32>, %arg10: memref<3x3x3xf32>):  // no predecessors
        %3127 = "equeue.read"(%arg5) {bank = 0 : i64} : (memref<1xf32>) -> f32
        "equeue.write"(%3127, %arg8) {bank = 0 : i64} : (f32, memref<1xf32>) -> ()
        %3128 = "equeue.read"(%arg6) {bank = 1 : i64} : (memref<1xf32>) -> f32
        "equeue.write"(%3128, %arg9) {bank = 0 : i64} : (f32, memref<1xf32>) -> ()
        %3129 = mulf %3127, %3128 : f32
        %3130 = "equeue.read"(%arg7) {bank = 2 : i64} : (memref<1xf32>) -> f32
        %3131 = addf %3129, %3130 : f32
        "equeue.write"(%3131, %arg7) {bank = 2 : i64} : (f32, memref<1xf32>) -> ()
        "equeue.return"() : () -> ()
      }) : (!equeue.signal, i32, memref<1xf32>, memref<1xf32>, memref<1xf32>, memref<1xf32>, memref<1xf32>, memref<3x3x3xf32>) -> !equeue.signal
      %3102 = "equeue.control_and"(%3101, %done_2711) : (!equeue.signal, !equeue.signal) -> !equeue.signal
      %done_2712 = "equeue.launch"(%3096, %192, %195, %193, %194, %201, %225, %123) ( {
      ^bb0(%arg5: memref<1xf32>, %arg6: memref<1xf32>, %arg7: memref<1xf32>, %arg8: memref<1xf32>, %arg9: memref<1xf32>, %arg10: memref<3x3x3xf32>):  // no predecessors
        %3127 = "equeue.read"(%arg5) {bank = 0 : i64} : (memref<1xf32>) -> f32
        "equeue.write"(%3127, %arg8) {bank = 0 : i64} : (f32, memref<1xf32>) -> ()
        %3128 = "equeue.read"(%arg6) {bank = 1 : i64} : (memref<1xf32>) -> f32
        "equeue.write"(%3128, %arg9) {bank = 0 : i64} : (f32, memref<1xf32>) -> ()
        %3129 = mulf %3127, %3128 : f32
        %3130 = "equeue.read"(%arg7) {bank = 2 : i64} : (memref<1xf32>) -> f32
        %3131 = addf %3129, %3130 : f32
        "equeue.write"(%3131, %arg7) {bank = 2 : i64} : (f32, memref<1xf32>) -> ()
        "equeue.return"() : () -> ()
      }) : (!equeue.signal, i32, memref<1xf32>, memref<1xf32>, memref<1xf32>, memref<1xf32>, memref<1xf32>, memref<3x3x3xf32>) -> !equeue.signal
      %3103 = "equeue.control_and"(%3102, %done_2712) : (!equeue.signal, !equeue.signal) -> !equeue.signal
      %done_2713 = "equeue.launch"(%3096, %222, %225, %223, %224, %231, %255, %123) ( {
      ^bb0(%arg5: memref<1xf32>, %arg6: memref<1xf32>, %arg7: memref<1xf32>, %arg8: memref<1xf32>, %arg9: memref<1xf32>, %arg10: memref<3x3x3xf32>):  // no predecessors
        %3127 = "equeue.read"(%arg5) {bank = 0 : i64} : (memref<1xf32>) -> f32
        "equeue.write"(%3127, %arg8) {bank = 0 : i64} : (f32, memref<1xf32>) -> ()
        %3128 = "equeue.read"(%arg6) {bank = 1 : i64} : (memref<1xf32>) -> f32
        "equeue.write"(%3128, %arg9) {bank = 0 : i64} : (f32, memref<1xf32>) -> ()
        %3129 = mulf %3127, %3128 : f32
        %3130 = "equeue.read"(%arg7) {bank = 2 : i64} : (memref<1xf32>) -> f32
        %3131 = addf %3129, %3130 : f32
        "equeue.write"(%3131, %arg7) {bank = 2 : i64} : (f32, memref<1xf32>) -> ()
        "equeue.return"() : () -> ()
      }) : (!equeue.signal, i32, memref<1xf32>, memref<1xf32>, memref<1xf32>, memref<1xf32>, memref<1xf32>, memref<3x3x3xf32>) -> !equeue.signal
      %3104 = "equeue.control_and"(%3103, %done_2713) : (!equeue.signal, !equeue.signal) -> !equeue.signal
      %done_2714 = "equeue.launch"(%3096, %252, %255, %253, %254, %261, %123) ( {
      ^bb0(%arg5: memref<1xf32>, %arg6: memref<1xf32>, %arg7: memref<1xf32>, %arg8: memref<1xf32>, %arg9: memref<3x3x3xf32>):  // no predecessors
        %3127 = "equeue.read"(%arg5) {bank = 0 : i64} : (memref<1xf32>) -> f32
        "equeue.write"(%3127, %arg8) {bank = 0 : i64} : (f32, memref<1xf32>) -> ()
        %3128 = "equeue.read"(%arg6) {bank = 1 : i64} : (memref<1xf32>) -> f32
        %3129 = mulf %3127, %3128 : f32
        %3130 = "equeue.read"(%arg7) {bank = 2 : i64} : (memref<1xf32>) -> f32
        %3131 = addf %3129, %3130 : f32
        "equeue.return"() : () -> ()
      }) : (!equeue.signal, i32, memref<1xf32>, memref<1xf32>, memref<1xf32>, memref<1xf32>, memref<3x3x3xf32>) -> !equeue.signal
      %3105 = "equeue.control_and"(%3104, %done_2714) : (!equeue.signal, !equeue.signal) -> !equeue.signal
      %done_2715 = "equeue.launch"(%3096, %138, %141, %139, %140, %171, %123) ( {
      ^bb0(%arg5: memref<1xf32>, %arg6: memref<1xf32>, %arg7: memref<1xf32>, %arg8: memref<1xf32>, %arg9: memref<3x3x3xf32>):  // no predecessors
        %3127 = "equeue.read"(%arg5) {bank = 0 : i64} : (memref<1xf32>) -> f32
        "equeue.write"(%3127, %arg8) {bank = 0 : i64} : (f32, memref<1xf32>) -> ()
        %3128 = "equeue.read"(%arg6) {bank = 1 : i64} : (memref<1xf32>) -> f32
        %3129 = mulf %3127, %3128 : f32
        %3130 = "equeue.read"(%arg7) {bank = 2 : i64} : (memref<1xf32>) -> f32
        %3131 = addf %3129, %3130 : f32
        "equeue.write"(%3131, %arg7) {bank = 2 : i64} : (f32, memref<1xf32>) -> ()
        "equeue.return"() : () -> ()
      }) : (!equeue.signal, i32, memref<1xf32>, memref<1xf32>, memref<1xf32>, memref<1xf32>, memref<3x3x3xf32>) -> !equeue.signal
      %3106 = "equeue.control_and"(%3105, %done_2715) : (!equeue.signal, !equeue.signal) -> !equeue.signal
      %done_2716 = "equeue.launch"(%3096, %168, %171, %169, %170, %201, %123) ( {
      ^bb0(%arg5: memref<1xf32>, %arg6: memref<1xf32>, %arg7: memref<1xf32>, %arg8: memref<1xf32>, %arg9: memref<3x3x3xf32>):  // no predecessors
        %3127 = "equeue.read"(%arg5) {bank = 0 : i64} : (memref<1xf32>) -> f32
        "equeue.write"(%3127, %arg8) {bank = 0 : i64} : (f32, memref<1xf32>) -> ()
        %3128 = "equeue.read"(%arg6) {bank = 1 : i64} : (memref<1xf32>) -> f32
        %3129 = mulf %3127, %3128 : f32
        %3130 = "equeue.read"(%arg7) {bank = 2 : i64} : (memref<1xf32>) -> f32
        %3131 = addf %3129, %3130 : f32
        "equeue.write"(%3131, %arg7) {bank = 2 : i64} : (f32, memref<1xf32>) -> ()
        "equeue.return"() : () -> ()
      }) : (!equeue.signal, i32, memref<1xf32>, memref<1xf32>, memref<1xf32>, memref<1xf32>, memref<3x3x3xf32>) -> !equeue.signal
      %3107 = "equeue.control_and"(%3106, %done_2716) : (!equeue.signal, !equeue.signal) -> !equeue.signal
      %done_2717 = "equeue.launch"(%3096, %198, %201, %199, %200, %231, %123) ( {
      ^bb0(%arg5: memref<1xf32>, %arg6: memref<1xf32>, %arg7: memref<1xf32>, %arg8: memref<1xf32>, %arg9: memref<3x3x3xf32>):  // no predecessors
        %3127 = "equeue.read"(%arg5) {bank = 0 : i64} : (memref<1xf32>) -> f32
        "equeue.write"(%3127, %arg8) {bank = 0 : i64} : (f32, memref<1xf32>) -> ()
        %3128 = "equeue.read"(%arg6) {bank = 1 : i64} : (memref<1xf32>) -> f32
        %3129 = mulf %3127, %3128 : f32
        %3130 = "equeue.read"(%arg7) {bank = 2 : i64} : (memref<1xf32>) -> f32
        %3131 = addf %3129, %3130 : f32
        "equeue.write"(%3131, %arg7) {bank = 2 : i64} : (f32, memref<1xf32>) -> ()
        "equeue.return"() : () -> ()
      }) : (!equeue.signal, i32, memref<1xf32>, memref<1xf32>, memref<1xf32>, memref<1xf32>, memref<3x3x3xf32>) -> !equeue.signal
      %3108 = "equeue.control_and"(%3107, %done_2717) : (!equeue.signal, !equeue.signal) -> !equeue.signal
      %done_2718 = "equeue.launch"(%3096, %228, %231, %229, %230, %261, %123) ( {
      ^bb0(%arg5: memref<1xf32>, %arg6: memref<1xf32>, %arg7: memref<1xf32>, %arg8: memref<1xf32>, %arg9: memref<3x3x3xf32>):  // no predecessors
        %3127 = "equeue.read"(%arg5) {bank = 0 : i64} : (memref<1xf32>) -> f32
        "equeue.write"(%3127, %arg8) {bank = 0 : i64} : (f32, memref<1xf32>) -> ()
        %3128 = "equeue.read"(%arg6) {bank = 1 : i64} : (memref<1xf32>) -> f32
        %3129 = mulf %3127, %3128 : f32
        %3130 = "equeue.read"(%arg7) {bank = 2 : i64} : (memref<1xf32>) -> f32
        %3131 = addf %3129, %3130 : f32
        "equeue.write"(%3131, %arg7) {bank = 2 : i64} : (f32, memref<1xf32>) -> ()
        "equeue.return"() : () -> ()
      }) : (!equeue.signal, i32, memref<1xf32>, memref<1xf32>, memref<1xf32>, memref<1xf32>, memref<3x3x3xf32>) -> !equeue.signal
      %3109 = "equeue.control_and"(%3108, %done_2718) : (!equeue.signal, !equeue.signal) -> !equeue.signal
      %done_2719 = "equeue.launch"(%3096, %258, %261, %259, %260, %123) ( {
      ^bb0(%arg5: memref<1xf32>, %arg6: memref<1xf32>, %arg7: memref<1xf32>, %arg8: memref<3x3x3xf32>):  // no predecessors
        %3127 = "equeue.read"(%arg5) {bank = 0 : i64} : (memref<1xf32>) -> f32
        %3128 = "equeue.read"(%arg6) {bank = 1 : i64} : (memref<1xf32>) -> f32
        %3129 = mulf %3127, %3128 : f32
        %3130 = "equeue.read"(%arg7) {bank = 2 : i64} : (memref<1xf32>) -> f32
        %3131 = addf %3129, %3130 : f32
        "equeue.return"() : () -> ()
      }) : (!equeue.signal, i32, memref<1xf32>, memref<1xf32>, memref<1xf32>, memref<3x3x3xf32>) -> !equeue.signal
      %3110 = "equeue.control_and"(%3109, %done_2719) : (!equeue.signal, !equeue.signal) -> !equeue.signal
      "equeue.await"(%3110) : (!equeue.signal) -> ()
      %3111 = "equeue.control_start"() : () -> !equeue.signal
      "equeue.await"(%3111) : (!equeue.signal) -> ()
      %3112 = "equeue.control_start"() : () -> !equeue.signal
      %done_2720 = "equeue.launch"(%3112, %126, %129, %127, %128, %135, %159, %123) ( {
      ^bb0(%arg5: memref<1xf32>, %arg6: memref<1xf32>, %arg7: memref<1xf32>, %arg8: memref<1xf32>, %arg9: memref<1xf32>, %arg10: memref<3x3x3xf32>):  // no predecessors
        %3127 = "equeue.read"(%arg5) {bank = 0 : i64} : (memref<1xf32>) -> f32
        "equeue.write"(%3127, %arg8) {bank = 0 : i64} : (f32, memref<1xf32>) -> ()
        %3128 = "equeue.read"(%arg6) {bank = 1 : i64} : (memref<1xf32>) -> f32
        "equeue.write"(%3128, %arg9) {bank = 0 : i64} : (f32, memref<1xf32>) -> ()
        %3129 = mulf %3127, %3128 : f32
        %3130 = "equeue.read"(%arg7) {bank = 2 : i64} : (memref<1xf32>) -> f32
        %3131 = addf %3129, %3130 : f32
        "equeue.write"(%3131, %arg7) {bank = 2 : i64} : (f32, memref<1xf32>) -> ()
        "equeue.return"() : () -> ()
      }) : (!equeue.signal, i32, memref<1xf32>, memref<1xf32>, memref<1xf32>, memref<1xf32>, memref<1xf32>, memref<3x3x3xf32>) -> !equeue.signal
      %done_2721 = "equeue.launch"(%3112, %156, %159, %157, %158, %165, %189, %123) ( {
      ^bb0(%arg5: memref<1xf32>, %arg6: memref<1xf32>, %arg7: memref<1xf32>, %arg8: memref<1xf32>, %arg9: memref<1xf32>, %arg10: memref<3x3x3xf32>):  // no predecessors
        %3127 = "equeue.read"(%arg5) {bank = 0 : i64} : (memref<1xf32>) -> f32
        "equeue.write"(%3127, %arg8) {bank = 0 : i64} : (f32, memref<1xf32>) -> ()
        %3128 = "equeue.read"(%arg6) {bank = 1 : i64} : (memref<1xf32>) -> f32
        "equeue.write"(%3128, %arg9) {bank = 0 : i64} : (f32, memref<1xf32>) -> ()
        %3129 = mulf %3127, %3128 : f32
        %3130 = "equeue.read"(%arg7) {bank = 2 : i64} : (memref<1xf32>) -> f32
        %3131 = addf %3129, %3130 : f32
        "equeue.write"(%3131, %arg7) {bank = 2 : i64} : (f32, memref<1xf32>) -> ()
        "equeue.return"() : () -> ()
      }) : (!equeue.signal, i32, memref<1xf32>, memref<1xf32>, memref<1xf32>, memref<1xf32>, memref<1xf32>, memref<3x3x3xf32>) -> !equeue.signal
      %3113 = "equeue.control_and"(%done_2720, %done_2721) : (!equeue.signal, !equeue.signal) -> !equeue.signal
      %done_2722 = "equeue.launch"(%3112, %186, %189, %187, %188, %195, %219, %123) ( {
      ^bb0(%arg5: memref<1xf32>, %arg6: memref<1xf32>, %arg7: memref<1xf32>, %arg8: memref<1xf32>, %arg9: memref<1xf32>, %arg10: memref<3x3x3xf32>):  // no predecessors
        %3127 = "equeue.read"(%arg5) {bank = 0 : i64} : (memref<1xf32>) -> f32
        "equeue.write"(%3127, %arg8) {bank = 0 : i64} : (f32, memref<1xf32>) -> ()
        %3128 = "equeue.read"(%arg6) {bank = 1 : i64} : (memref<1xf32>) -> f32
        "equeue.write"(%3128, %arg9) {bank = 0 : i64} : (f32, memref<1xf32>) -> ()
        %3129 = mulf %3127, %3128 : f32
        %3130 = "equeue.read"(%arg7) {bank = 2 : i64} : (memref<1xf32>) -> f32
        %3131 = addf %3129, %3130 : f32
        "equeue.write"(%3131, %arg7) {bank = 2 : i64} : (f32, memref<1xf32>) -> ()
        "equeue.return"() : () -> ()
      }) : (!equeue.signal, i32, memref<1xf32>, memref<1xf32>, memref<1xf32>, memref<1xf32>, memref<1xf32>, memref<3x3x3xf32>) -> !equeue.signal
      %3114 = "equeue.control_and"(%3113, %done_2722) : (!equeue.signal, !equeue.signal) -> !equeue.signal
      %done_2723 = "equeue.launch"(%3112, %216, %219, %217, %218, %225, %249, %123) ( {
      ^bb0(%arg5: memref<1xf32>, %arg6: memref<1xf32>, %arg7: memref<1xf32>, %arg8: memref<1xf32>, %arg9: memref<1xf32>, %arg10: memref<3x3x3xf32>):  // no predecessors
        %3127 = "equeue.read"(%arg5) {bank = 0 : i64} : (memref<1xf32>) -> f32
        "equeue.write"(%3127, %arg8) {bank = 0 : i64} : (f32, memref<1xf32>) -> ()
        %3128 = "equeue.read"(%arg6) {bank = 1 : i64} : (memref<1xf32>) -> f32
        "equeue.write"(%3128, %arg9) {bank = 0 : i64} : (f32, memref<1xf32>) -> ()
        %3129 = mulf %3127, %3128 : f32
        %3130 = "equeue.read"(%arg7) {bank = 2 : i64} : (memref<1xf32>) -> f32
        %3131 = addf %3129, %3130 : f32
        "equeue.write"(%3131, %arg7) {bank = 2 : i64} : (f32, memref<1xf32>) -> ()
        "equeue.return"() : () -> ()
      }) : (!equeue.signal, i32, memref<1xf32>, memref<1xf32>, memref<1xf32>, memref<1xf32>, memref<1xf32>, memref<3x3x3xf32>) -> !equeue.signal
      %3115 = "equeue.control_and"(%3114, %done_2723) : (!equeue.signal, !equeue.signal) -> !equeue.signal
      %done_2724 = "equeue.launch"(%3112, %246, %249, %247, %248, %255, %123) ( {
      ^bb0(%arg5: memref<1xf32>, %arg6: memref<1xf32>, %arg7: memref<1xf32>, %arg8: memref<1xf32>, %arg9: memref<3x3x3xf32>):  // no predecessors
        %3127 = "equeue.read"(%arg5) {bank = 0 : i64} : (memref<1xf32>) -> f32
        "equeue.write"(%3127, %arg8) {bank = 0 : i64} : (f32, memref<1xf32>) -> ()
        %3128 = "equeue.read"(%arg6) {bank = 1 : i64} : (memref<1xf32>) -> f32
        %3129 = mulf %3127, %3128 : f32
        %3130 = "equeue.read"(%arg7) {bank = 2 : i64} : (memref<1xf32>) -> f32
        %3131 = addf %3129, %3130 : f32
        "equeue.return"() : () -> ()
      }) : (!equeue.signal, i32, memref<1xf32>, memref<1xf32>, memref<1xf32>, memref<1xf32>, memref<3x3x3xf32>) -> !equeue.signal
      %3116 = "equeue.control_and"(%3115, %done_2724) : (!equeue.signal, !equeue.signal) -> !equeue.signal
      %done_2725 = "equeue.launch"(%3112, %132, %135, %133, %134, %141, %165, %123) ( {
      ^bb0(%arg5: memref<1xf32>, %arg6: memref<1xf32>, %arg7: memref<1xf32>, %arg8: memref<1xf32>, %arg9: memref<1xf32>, %arg10: memref<3x3x3xf32>):  // no predecessors
        %3127 = "equeue.read"(%arg5) {bank = 0 : i64} : (memref<1xf32>) -> f32
        "equeue.write"(%3127, %arg8) {bank = 0 : i64} : (f32, memref<1xf32>) -> ()
        %3128 = "equeue.read"(%arg6) {bank = 1 : i64} : (memref<1xf32>) -> f32
        "equeue.write"(%3128, %arg9) {bank = 0 : i64} : (f32, memref<1xf32>) -> ()
        %3129 = mulf %3127, %3128 : f32
        %3130 = "equeue.read"(%arg7) {bank = 2 : i64} : (memref<1xf32>) -> f32
        %3131 = addf %3129, %3130 : f32
        "equeue.write"(%3131, %arg7) {bank = 2 : i64} : (f32, memref<1xf32>) -> ()
        "equeue.return"() : () -> ()
      }) : (!equeue.signal, i32, memref<1xf32>, memref<1xf32>, memref<1xf32>, memref<1xf32>, memref<1xf32>, memref<3x3x3xf32>) -> !equeue.signal
      %3117 = "equeue.control_and"(%3116, %done_2725) : (!equeue.signal, !equeue.signal) -> !equeue.signal
      %done_2726 = "equeue.launch"(%3112, %162, %165, %163, %164, %171, %195, %123) ( {
      ^bb0(%arg5: memref<1xf32>, %arg6: memref<1xf32>, %arg7: memref<1xf32>, %arg8: memref<1xf32>, %arg9: memref<1xf32>, %arg10: memref<3x3x3xf32>):  // no predecessors
        %3127 = "equeue.read"(%arg5) {bank = 0 : i64} : (memref<1xf32>) -> f32
        "equeue.write"(%3127, %arg8) {bank = 0 : i64} : (f32, memref<1xf32>) -> ()
        %3128 = "equeue.read"(%arg6) {bank = 1 : i64} : (memref<1xf32>) -> f32
        "equeue.write"(%3128, %arg9) {bank = 0 : i64} : (f32, memref<1xf32>) -> ()
        %3129 = mulf %3127, %3128 : f32
        %3130 = "equeue.read"(%arg7) {bank = 2 : i64} : (memref<1xf32>) -> f32
        %3131 = addf %3129, %3130 : f32
        "equeue.write"(%3131, %arg7) {bank = 2 : i64} : (f32, memref<1xf32>) -> ()
        "equeue.return"() : () -> ()
      }) : (!equeue.signal, i32, memref<1xf32>, memref<1xf32>, memref<1xf32>, memref<1xf32>, memref<1xf32>, memref<3x3x3xf32>) -> !equeue.signal
      %3118 = "equeue.control_and"(%3117, %done_2726) : (!equeue.signal, !equeue.signal) -> !equeue.signal
      %done_2727 = "equeue.launch"(%3112, %192, %195, %193, %194, %201, %225, %123) ( {
      ^bb0(%arg5: memref<1xf32>, %arg6: memref<1xf32>, %arg7: memref<1xf32>, %arg8: memref<1xf32>, %arg9: memref<1xf32>, %arg10: memref<3x3x3xf32>):  // no predecessors
        %3127 = "equeue.read"(%arg5) {bank = 0 : i64} : (memref<1xf32>) -> f32
        "equeue.write"(%3127, %arg8) {bank = 0 : i64} : (f32, memref<1xf32>) -> ()
        %3128 = "equeue.read"(%arg6) {bank = 1 : i64} : (memref<1xf32>) -> f32
        "equeue.write"(%3128, %arg9) {bank = 0 : i64} : (f32, memref<1xf32>) -> ()
        %3129 = mulf %3127, %3128 : f32
        %3130 = "equeue.read"(%arg7) {bank = 2 : i64} : (memref<1xf32>) -> f32
        %3131 = addf %3129, %3130 : f32
        "equeue.write"(%3131, %arg7) {bank = 2 : i64} : (f32, memref<1xf32>) -> ()
        "equeue.return"() : () -> ()
      }) : (!equeue.signal, i32, memref<1xf32>, memref<1xf32>, memref<1xf32>, memref<1xf32>, memref<1xf32>, memref<3x3x3xf32>) -> !equeue.signal
      %3119 = "equeue.control_and"(%3118, %done_2727) : (!equeue.signal, !equeue.signal) -> !equeue.signal
      %done_2728 = "equeue.launch"(%3112, %222, %225, %223, %224, %231, %255, %123) ( {
      ^bb0(%arg5: memref<1xf32>, %arg6: memref<1xf32>, %arg7: memref<1xf32>, %arg8: memref<1xf32>, %arg9: memref<1xf32>, %arg10: memref<3x3x3xf32>):  // no predecessors
        %3127 = "equeue.read"(%arg5) {bank = 0 : i64} : (memref<1xf32>) -> f32
        "equeue.write"(%3127, %arg8) {bank = 0 : i64} : (f32, memref<1xf32>) -> ()
        %3128 = "equeue.read"(%arg6) {bank = 1 : i64} : (memref<1xf32>) -> f32
        "equeue.write"(%3128, %arg9) {bank = 0 : i64} : (f32, memref<1xf32>) -> ()
        %3129 = mulf %3127, %3128 : f32
        %3130 = "equeue.read"(%arg7) {bank = 2 : i64} : (memref<1xf32>) -> f32
        %3131 = addf %3129, %3130 : f32
        "equeue.write"(%3131, %arg7) {bank = 2 : i64} : (f32, memref<1xf32>) -> ()
        "equeue.return"() : () -> ()
      }) : (!equeue.signal, i32, memref<1xf32>, memref<1xf32>, memref<1xf32>, memref<1xf32>, memref<1xf32>, memref<3x3x3xf32>) -> !equeue.signal
      %3120 = "equeue.control_and"(%3119, %done_2728) : (!equeue.signal, !equeue.signal) -> !equeue.signal
      %done_2729 = "equeue.launch"(%3112, %252, %255, %253, %254, %261, %123) ( {
      ^bb0(%arg5: memref<1xf32>, %arg6: memref<1xf32>, %arg7: memref<1xf32>, %arg8: memref<1xf32>, %arg9: memref<3x3x3xf32>):  // no predecessors
        %3127 = "equeue.read"(%arg5) {bank = 0 : i64} : (memref<1xf32>) -> f32
        "equeue.write"(%3127, %arg8) {bank = 0 : i64} : (f32, memref<1xf32>) -> ()
        %3128 = "equeue.read"(%arg6) {bank = 1 : i64} : (memref<1xf32>) -> f32
        %3129 = mulf %3127, %3128 : f32
        %3130 = "equeue.read"(%arg7) {bank = 2 : i64} : (memref<1xf32>) -> f32
        %3131 = addf %3129, %3130 : f32
        "equeue.return"() : () -> ()
      }) : (!equeue.signal, i32, memref<1xf32>, memref<1xf32>, memref<1xf32>, memref<1xf32>, memref<3x3x3xf32>) -> !equeue.signal
      %3121 = "equeue.control_and"(%3120, %done_2729) : (!equeue.signal, !equeue.signal) -> !equeue.signal
      %done_2730 = "equeue.launch"(%3112, %138, %141, %139, %140, %171, %123) ( {
      ^bb0(%arg5: memref<1xf32>, %arg6: memref<1xf32>, %arg7: memref<1xf32>, %arg8: memref<1xf32>, %arg9: memref<3x3x3xf32>):  // no predecessors
        %3127 = "equeue.read"(%arg5) {bank = 0 : i64} : (memref<1xf32>) -> f32
        "equeue.write"(%3127, %arg8) {bank = 0 : i64} : (f32, memref<1xf32>) -> ()
        %3128 = "equeue.read"(%arg6) {bank = 1 : i64} : (memref<1xf32>) -> f32
        %3129 = mulf %3127, %3128 : f32
        %3130 = "equeue.read"(%arg7) {bank = 2 : i64} : (memref<1xf32>) -> f32
        %3131 = addf %3129, %3130 : f32
        "equeue.write"(%3131, %arg7) {bank = 2 : i64} : (f32, memref<1xf32>) -> ()
        "equeue.return"() : () -> ()
      }) : (!equeue.signal, i32, memref<1xf32>, memref<1xf32>, memref<1xf32>, memref<1xf32>, memref<3x3x3xf32>) -> !equeue.signal
      %3122 = "equeue.control_and"(%3121, %done_2730) : (!equeue.signal, !equeue.signal) -> !equeue.signal
      %done_2731 = "equeue.launch"(%3112, %168, %171, %169, %170, %201, %123) ( {
      ^bb0(%arg5: memref<1xf32>, %arg6: memref<1xf32>, %arg7: memref<1xf32>, %arg8: memref<1xf32>, %arg9: memref<3x3x3xf32>):  // no predecessors
        %3127 = "equeue.read"(%arg5) {bank = 0 : i64} : (memref<1xf32>) -> f32
        "equeue.write"(%3127, %arg8) {bank = 0 : i64} : (f32, memref<1xf32>) -> ()
        %3128 = "equeue.read"(%arg6) {bank = 1 : i64} : (memref<1xf32>) -> f32
        %3129 = mulf %3127, %3128 : f32
        %3130 = "equeue.read"(%arg7) {bank = 2 : i64} : (memref<1xf32>) -> f32
        %3131 = addf %3129, %3130 : f32
        "equeue.write"(%3131, %arg7) {bank = 2 : i64} : (f32, memref<1xf32>) -> ()
        "equeue.return"() : () -> ()
      }) : (!equeue.signal, i32, memref<1xf32>, memref<1xf32>, memref<1xf32>, memref<1xf32>, memref<3x3x3xf32>) -> !equeue.signal
      %3123 = "equeue.control_and"(%3122, %done_2731) : (!equeue.signal, !equeue.signal) -> !equeue.signal
      %done_2732 = "equeue.launch"(%3112, %198, %201, %199, %200, %231, %123) ( {
      ^bb0(%arg5: memref<1xf32>, %arg6: memref<1xf32>, %arg7: memref<1xf32>, %arg8: memref<1xf32>, %arg9: memref<3x3x3xf32>):  // no predecessors
        %3127 = "equeue.read"(%arg5) {bank = 0 : i64} : (memref<1xf32>) -> f32
        "equeue.write"(%3127, %arg8) {bank = 0 : i64} : (f32, memref<1xf32>) -> ()
        %3128 = "equeue.read"(%arg6) {bank = 1 : i64} : (memref<1xf32>) -> f32
        %3129 = mulf %3127, %3128 : f32
        %3130 = "equeue.read"(%arg7) {bank = 2 : i64} : (memref<1xf32>) -> f32
        %3131 = addf %3129, %3130 : f32
        "equeue.write"(%3131, %arg7) {bank = 2 : i64} : (f32, memref<1xf32>) -> ()
        "equeue.return"() : () -> ()
      }) : (!equeue.signal, i32, memref<1xf32>, memref<1xf32>, memref<1xf32>, memref<1xf32>, memref<3x3x3xf32>) -> !equeue.signal
      %3124 = "equeue.control_and"(%3123, %done_2732) : (!equeue.signal, !equeue.signal) -> !equeue.signal
      %done_2733 = "equeue.launch"(%3112, %228, %231, %229, %230, %261, %123) ( {
      ^bb0(%arg5: memref<1xf32>, %arg6: memref<1xf32>, %arg7: memref<1xf32>, %arg8: memref<1xf32>, %arg9: memref<3x3x3xf32>):  // no predecessors
        %3127 = "equeue.read"(%arg5) {bank = 0 : i64} : (memref<1xf32>) -> f32
        "equeue.write"(%3127, %arg8) {bank = 0 : i64} : (f32, memref<1xf32>) -> ()
        %3128 = "equeue.read"(%arg6) {bank = 1 : i64} : (memref<1xf32>) -> f32
        %3129 = mulf %3127, %3128 : f32
        %3130 = "equeue.read"(%arg7) {bank = 2 : i64} : (memref<1xf32>) -> f32
        %3131 = addf %3129, %3130 : f32
        "equeue.write"(%3131, %arg7) {bank = 2 : i64} : (f32, memref<1xf32>) -> ()
        "equeue.return"() : () -> ()
      }) : (!equeue.signal, i32, memref<1xf32>, memref<1xf32>, memref<1xf32>, memref<1xf32>, memref<3x3x3xf32>) -> !equeue.signal
      %3125 = "equeue.control_and"(%3124, %done_2733) : (!equeue.signal, !equeue.signal) -> !equeue.signal
      %done_2734 = "equeue.launch"(%3112, %258, %261, %259, %260, %123) ( {
      ^bb0(%arg5: memref<1xf32>, %arg6: memref<1xf32>, %arg7: memref<1xf32>, %arg8: memref<3x3x3xf32>):  // no predecessors
        %3127 = "equeue.read"(%arg5) {bank = 0 : i64} : (memref<1xf32>) -> f32
        %3128 = "equeue.read"(%arg6) {bank = 1 : i64} : (memref<1xf32>) -> f32
        %3129 = mulf %3127, %3128 : f32
        %3130 = "equeue.read"(%arg7) {bank = 2 : i64} : (memref<1xf32>) -> f32
        %3131 = addf %3129, %3130 : f32
        "equeue.return"() : () -> ()
      }) : (!equeue.signal, i32, memref<1xf32>, memref<1xf32>, memref<1xf32>, memref<3x3x3xf32>) -> !equeue.signal
      %3126 = "equeue.control_and"(%3125, %done_2734) : (!equeue.signal, !equeue.signal) -> !equeue.signal
      "equeue.await"(%3126) : (!equeue.signal) -> ()
      "equeue.return"() : () -> ()
    }) : (!equeue.signal, i32, i32, memref<5x7x7xf32>, memref<3x5x7x3xf32>) -> !equeue.signal
    return
  }
}
