

module {
  func @graph(%arg0: memref<5x7x7xf32>, %arg1: memref<3x5x7x3xf32>) {
    %0 = "equeue.create_proc"() {name = "proc0,0", type = "AIEngine"} : () -> i32
    %1 = "equeue.create_mem"() {banks = 3 : i64, data = "f32", name = "mem0,0", shape = dense<3> : tensor<1xi64>, type = "RegisterFile"} : () -> i32
    %2 = "equeue.create_comp"(%1, %0) {name = "pe_0,0"} : (i32, i32) -> i32
    %3 = "equeue.create_proc"() {name = "proc0,1", type = "AIEngine"} : () -> i32
    %4 = "equeue.create_mem"() {banks = 3 : i64, data = "f32", name = "mem0,1", shape = dense<3> : tensor<1xi64>, type = "RegisterFile"} : () -> i32
    %5 = "equeue.create_comp"(%4, %3, %2) {name = "pe_0,1"} : (i32, i32, i32) -> i32
    %6 = "equeue.create_proc"() {name = "proc0,2", type = "AIEngine"} : () -> i32
    %7 = "equeue.create_mem"() {banks = 3 : i64, data = "f32", name = "mem0,2", shape = dense<3> : tensor<1xi64>, type = "RegisterFile"} : () -> i32
    %8 = "equeue.create_comp"(%7, %6, %5) {name = "pe_0,2"} : (i32, i32, i32) -> i32
    %9 = "equeue.create_proc"() {name = "proc0,3", type = "AIEngine"} : () -> i32
    %10 = "equeue.create_mem"() {banks = 3 : i64, data = "f32", name = "mem0,3", shape = dense<3> : tensor<1xi64>, type = "RegisterFile"} : () -> i32
    %11 = "equeue.create_comp"(%10, %9, %8) {name = "pe_0,3"} : (i32, i32, i32) -> i32
    %12 = "equeue.create_proc"() {name = "proc0,4", type = "AIEngine"} : () -> i32
    %13 = "equeue.create_mem"() {banks = 3 : i64, data = "f32", name = "mem0,4", shape = dense<3> : tensor<1xi64>, type = "RegisterFile"} : () -> i32
    %14 = "equeue.create_comp"(%13, %12, %11) {name = "pe_0,4"} : (i32, i32, i32) -> i32
    %15 = "equeue.create_proc"() {name = "proc1,0", type = "AIEngine"} : () -> i32
    %16 = "equeue.create_mem"() {banks = 3 : i64, data = "f32", name = "mem1,0", shape = dense<3> : tensor<1xi64>, type = "RegisterFile"} : () -> i32
    %17 = "equeue.create_comp"(%16, %15, %14) {name = "pe_1,0"} : (i32, i32, i32) -> i32
    %18 = "equeue.create_proc"() {name = "proc1,1", type = "AIEngine"} : () -> i32
    %19 = "equeue.create_mem"() {banks = 3 : i64, data = "f32", name = "mem1,1", shape = dense<3> : tensor<1xi64>, type = "RegisterFile"} : () -> i32
    %20 = "equeue.create_comp"(%19, %18, %17) {name = "pe_1,1"} : (i32, i32, i32) -> i32
    %21 = "equeue.create_proc"() {name = "proc1,2", type = "AIEngine"} : () -> i32
    %22 = "equeue.create_mem"() {banks = 3 : i64, data = "f32", name = "mem1,2", shape = dense<3> : tensor<1xi64>, type = "RegisterFile"} : () -> i32
    %23 = "equeue.create_comp"(%22, %21, %20) {name = "pe_1,2"} : (i32, i32, i32) -> i32
    %24 = "equeue.create_proc"() {name = "proc1,3", type = "AIEngine"} : () -> i32
    %25 = "equeue.create_mem"() {banks = 3 : i64, data = "f32", name = "mem1,3", shape = dense<3> : tensor<1xi64>, type = "RegisterFile"} : () -> i32
    %26 = "equeue.create_comp"(%25, %24, %23) {name = "pe_1,3"} : (i32, i32, i32) -> i32
    %27 = "equeue.create_proc"() {name = "proc1,4", type = "AIEngine"} : () -> i32
    %28 = "equeue.create_mem"() {banks = 3 : i64, data = "f32", name = "mem1,4", shape = dense<3> : tensor<1xi64>, type = "RegisterFile"} : () -> i32
    %29 = "equeue.create_comp"(%28, %27, %26) {name = "pe_1,4"} : (i32, i32, i32) -> i32
    %30 = "equeue.create_proc"() {name = "proc2,0", type = "AIEngine"} : () -> i32
    %31 = "equeue.create_mem"() {banks = 3 : i64, data = "f32", name = "mem2,0", shape = dense<3> : tensor<1xi64>, type = "RegisterFile"} : () -> i32
    %32 = "equeue.create_comp"(%31, %30, %29) {name = "pe_2,0"} : (i32, i32, i32) -> i32
    %33 = "equeue.create_proc"() {name = "proc2,1", type = "AIEngine"} : () -> i32
    %34 = "equeue.create_mem"() {banks = 3 : i64, data = "f32", name = "mem2,1", shape = dense<3> : tensor<1xi64>, type = "RegisterFile"} : () -> i32
    %35 = "equeue.create_comp"(%34, %33, %32) {name = "pe_2,1"} : (i32, i32, i32) -> i32
    %36 = "equeue.create_proc"() {name = "proc2,2", type = "AIEngine"} : () -> i32
    %37 = "equeue.create_mem"() {banks = 3 : i64, data = "f32", name = "mem2,2", shape = dense<3> : tensor<1xi64>, type = "RegisterFile"} : () -> i32
    %38 = "equeue.create_comp"(%37, %36, %35) {name = "pe_2,2"} : (i32, i32, i32) -> i32
    %39 = "equeue.create_proc"() {name = "proc2,3", type = "AIEngine"} : () -> i32
    %40 = "equeue.create_mem"() {banks = 3 : i64, data = "f32", name = "mem2,3", shape = dense<3> : tensor<1xi64>, type = "RegisterFile"} : () -> i32
    %41 = "equeue.create_comp"(%40, %39, %38) {name = "pe_2,3"} : (i32, i32, i32) -> i32
    %42 = "equeue.create_proc"() {name = "proc2,4", type = "AIEngine"} : () -> i32
    %43 = "equeue.create_mem"() {banks = 3 : i64, data = "f32", name = "mem2,4", shape = dense<3> : tensor<1xi64>, type = "RegisterFile"} : () -> i32
    %44 = "equeue.create_comp"(%43, %42, %41) {name = "pe_2,4"} : (i32, i32, i32) -> i32
    %45 = "equeue.create_proc"() {name = "proc3,0", type = "AIEngine"} : () -> i32
    %46 = "equeue.create_mem"() {banks = 3 : i64, data = "f32", name = "mem3,0", shape = dense<3> : tensor<1xi64>, type = "RegisterFile"} : () -> i32
    %47 = "equeue.create_comp"(%46, %45, %44) {name = "pe_3,0"} : (i32, i32, i32) -> i32
    %48 = "equeue.create_proc"() {name = "proc3,1", type = "AIEngine"} : () -> i32
    %49 = "equeue.create_mem"() {banks = 3 : i64, data = "f32", name = "mem3,1", shape = dense<3> : tensor<1xi64>, type = "RegisterFile"} : () -> i32
    %50 = "equeue.create_comp"(%49, %48, %47) {name = "pe_3,1"} : (i32, i32, i32) -> i32
    %51 = "equeue.create_proc"() {name = "proc3,2", type = "AIEngine"} : () -> i32
    %52 = "equeue.create_mem"() {banks = 3 : i64, data = "f32", name = "mem3,2", shape = dense<3> : tensor<1xi64>, type = "RegisterFile"} : () -> i32
    %53 = "equeue.create_comp"(%52, %51, %50) {name = "pe_3,2"} : (i32, i32, i32) -> i32
    %54 = "equeue.create_proc"() {name = "proc3,3", type = "AIEngine"} : () -> i32
    %55 = "equeue.create_mem"() {banks = 3 : i64, data = "f32", name = "mem3,3", shape = dense<3> : tensor<1xi64>, type = "RegisterFile"} : () -> i32
    %56 = "equeue.create_comp"(%55, %54, %53) {name = "pe_3,3"} : (i32, i32, i32) -> i32
    %57 = "equeue.create_proc"() {name = "proc3,4", type = "AIEngine"} : () -> i32
    %58 = "equeue.create_mem"() {banks = 3 : i64, data = "f32", name = "mem3,4", shape = dense<3> : tensor<1xi64>, type = "RegisterFile"} : () -> i32
    %59 = "equeue.create_comp"(%58, %57, %56) {name = "pe_3,4"} : (i32, i32, i32) -> i32
    %60 = "equeue.create_proc"() {name = "proc4,0", type = "AIEngine"} : () -> i32
    %61 = "equeue.create_mem"() {banks = 3 : i64, data = "f32", name = "mem4,0", shape = dense<3> : tensor<1xi64>, type = "RegisterFile"} : () -> i32
    %62 = "equeue.create_comp"(%61, %60, %59) {name = "pe_4,0"} : (i32, i32, i32) -> i32
    %63 = "equeue.create_proc"() {name = "proc4,1", type = "AIEngine"} : () -> i32
    %64 = "equeue.create_mem"() {banks = 3 : i64, data = "f32", name = "mem4,1", shape = dense<3> : tensor<1xi64>, type = "RegisterFile"} : () -> i32
    %65 = "equeue.create_comp"(%64, %63, %62) {name = "pe_4,1"} : (i32, i32, i32) -> i32
    %66 = "equeue.create_proc"() {name = "proc4,2", type = "AIEngine"} : () -> i32
    %67 = "equeue.create_mem"() {banks = 3 : i64, data = "f32", name = "mem4,2", shape = dense<3> : tensor<1xi64>, type = "RegisterFile"} : () -> i32
    %68 = "equeue.create_comp"(%67, %66, %65) {name = "pe_4,2"} : (i32, i32, i32) -> i32
    %69 = "equeue.create_proc"() {name = "proc4,3", type = "AIEngine"} : () -> i32
    %70 = "equeue.create_mem"() {banks = 3 : i64, data = "f32", name = "mem4,3", shape = dense<3> : tensor<1xi64>, type = "RegisterFile"} : () -> i32
    %71 = "equeue.create_comp"(%70, %69, %68) {name = "pe_4,3"} : (i32, i32, i32) -> i32
    %72 = "equeue.create_proc"() {name = "proc4,4", type = "AIEngine"} : () -> i32
    %73 = "equeue.create_mem"() {banks = 3 : i64, data = "f32", name = "mem4,4", shape = dense<3> : tensor<1xi64>, type = "RegisterFile"} : () -> i32
    %74 = "equeue.create_comp"(%73, %72, %71) {name = "pe_4,4"} : (i32, i32, i32) -> i32
    %75 = "equeue.create_mem"() {banks = 10 : i64, data = "f32", name = "mem", shape = dense<110592> : tensor<1xi64>, type = "SRAM"} : () -> i32
    %76 = "equeue.create_dma"() {name = "dma0"} : () -> i32
    %77 = "equeue.create_comp"(%76) {name = "dma_col"} : (i32) -> i32
    %78 = "equeue.create_dma"() {name = "dma1"} : () -> i32
    %79 = "equeue.create_comp"(%78, %77) {name = "dma_col"} : (i32, i32) -> i32
    %80 = "equeue.create_dma"() {name = "dma2"} : () -> i32
    %81 = "equeue.create_comp"(%80, %79) {name = "dma_col"} : (i32, i32) -> i32
    %82 = "equeue.create_dma"() {name = "dma3"} : () -> i32
    %83 = "equeue.create_comp"(%82, %81) {name = "dma_col"} : (i32, i32) -> i32
    %84 = "equeue.create_dma"() {name = "dma4"} : () -> i32
    %85 = "equeue.create_comp"(%84, %83) {name = "dma_col"} : (i32, i32) -> i32
    %86 = "equeue.create_dma"() {name = "dma0"} : () -> i32
    %87 = "equeue.create_comp"(%86) {name = "dma_row"} : (i32) -> i32
    %88 = "equeue.create_dma"() {name = "dma1"} : () -> i32
    %89 = "equeue.create_comp"(%88, %87) {name = "dma_row"} : (i32, i32) -> i32
    %90 = "equeue.create_dma"() {name = "dma2"} : () -> i32
    %91 = "equeue.create_comp"(%90, %89) {name = "dma_row"} : (i32, i32) -> i32
    %92 = "equeue.create_dma"() {name = "dma3"} : () -> i32
    %93 = "equeue.create_comp"(%92, %91) {name = "dma_row"} : (i32, i32) -> i32
    %94 = "equeue.create_dma"() {name = "dma4"} : () -> i32
    %95 = "equeue.create_comp"(%94, %93) {name = "dma_row"} : (i32, i32) -> i32
    %96 = "equeue.create_proc"() {name = "proc", type = "MicroPlate"} : () -> i32
    %97 = "equeue.create_comp"(%74, %96, %75, %95, %85) {name = "accel"} : (i32, i32, i32, i32, i32) -> i32
    %98 = "equeue.control_start"() : () -> !equeue.signal
    %done = "equeue.launch"(%98, %96, %97, %arg0, %arg1) ( {
    ^bb0(%arg2: i32, %arg3: memref<5x7x7xf32>, %arg4: memref<3x5x7x3xf32>):  // no predecessors
      %99 = "equeue.get_comp"(%arg2) {name = "proc"} : (i32) -> i32
      %100 = "equeue.get_comp"(%arg2) {name = "dma_row"} : (i32) -> i32
      %101 = "equeue.get_comp"(%arg2) {name = "dma_col"} : (i32) -> i32
      %102 = "equeue.get_comp"(%100) {name = "dma4"} : (i32) -> i32
      %103 = "equeue.get_comp"(%100) {name = "dma_row"} : (i32) -> i32
      %104 = "equeue.get_comp"(%103) {name = "dma3"} : (i32) -> i32
      %105 = "equeue.get_comp"(%103) {name = "dma_row"} : (i32) -> i32
      %106 = "equeue.get_comp"(%105) {name = "dma2"} : (i32) -> i32
      %107 = "equeue.get_comp"(%105) {name = "dma_row"} : (i32) -> i32
      %108 = "equeue.get_comp"(%107) {name = "dma1"} : (i32) -> i32
      %109 = "equeue.get_comp"(%107) {name = "dma_row"} : (i32) -> i32
      %110 = "equeue.get_comp"(%109) {name = "dma0"} : (i32) -> i32
      %111 = "equeue.get_comp"(%101) {name = "dma4"} : (i32) -> i32
      %112 = "equeue.get_comp"(%101) {name = "dma_col"} : (i32) -> i32
      %113 = "equeue.get_comp"(%112) {name = "dma3"} : (i32) -> i32
      %114 = "equeue.get_comp"(%112) {name = "dma_col"} : (i32) -> i32
      %115 = "equeue.get_comp"(%114) {name = "dma2"} : (i32) -> i32
      %116 = "equeue.get_comp"(%114) {name = "dma_col"} : (i32) -> i32
      %117 = "equeue.get_comp"(%116) {name = "dma1"} : (i32) -> i32
      %118 = "equeue.get_comp"(%116) {name = "dma_col"} : (i32) -> i32
      %119 = "equeue.get_comp"(%118) {name = "dma0"} : (i32) -> i32
      %120 = "equeue.get_comp"(%arg2) {name = "mem"} : (i32) -> i32
      %121 = "equeue.alloc"(%120) {data = "f32", shape = dense<[5, 7, 7]> : tensor<3xi64>} : (i32) -> memref<5x7x7xf32>
      %122 = "equeue.alloc"(%120) {data = "f32", shape = dense<[3, 5, 7, 3]> : tensor<4xi64>} : (i32) -> memref<3x5x7x3xf32>
      %123 = "equeue.alloc"(%120) {data = "f32", shape = dense<3> : tensor<3xi64>} : (i32) -> memref<3x3x3xf32>
      %124 = "equeue.get_comp"(%arg2) {name = "pe_4,4"} : (i32) -> i32
      %125 = "equeue.get_comp"(%124) {name = "mem4,4"} : (i32) -> i32
      %126 = "equeue.get_comp"(%124) {name = "proc4,4"} : (i32) -> i32
      %127 = "equeue.alloc"(%125) {data = "f32", shape = dense<1> : tensor<1xi64>} : (i32) -> memref<1xf32>
      %128 = "equeue.alloc"(%125) {data = "f32", shape = dense<1> : tensor<1xi64>} : (i32) -> memref<1xf32>
      %129 = "equeue.alloc"(%125) {data = "f32", shape = dense<1> : tensor<1xi64>} : (i32) -> memref<1xf32>
      %130 = "equeue.get_comp"(%124) {name = "pe_4,3"} : (i32) -> i32
      %131 = "equeue.get_comp"(%130) {name = "mem4,3"} : (i32) -> i32
      %132 = "equeue.get_comp"(%130) {name = "proc4,3"} : (i32) -> i32
      %133 = "equeue.alloc"(%131) {data = "f32", shape = dense<1> : tensor<1xi64>} : (i32) -> memref<1xf32>
      %134 = "equeue.alloc"(%131) {data = "f32", shape = dense<1> : tensor<1xi64>} : (i32) -> memref<1xf32>
      %135 = "equeue.alloc"(%131) {data = "f32", shape = dense<1> : tensor<1xi64>} : (i32) -> memref<1xf32>
      %136 = "equeue.get_comp"(%130) {name = "pe_4,2"} : (i32) -> i32
      %137 = "equeue.get_comp"(%136) {name = "mem4,2"} : (i32) -> i32
      %138 = "equeue.get_comp"(%136) {name = "proc4,2"} : (i32) -> i32
      %139 = "equeue.alloc"(%137) {data = "f32", shape = dense<1> : tensor<1xi64>} : (i32) -> memref<1xf32>
      %140 = "equeue.alloc"(%137) {data = "f32", shape = dense<1> : tensor<1xi64>} : (i32) -> memref<1xf32>
      %141 = "equeue.alloc"(%137) {data = "f32", shape = dense<1> : tensor<1xi64>} : (i32) -> memref<1xf32>
      %142 = "equeue.get_comp"(%136) {name = "pe_4,1"} : (i32) -> i32
      %143 = "equeue.get_comp"(%142) {name = "mem4,1"} : (i32) -> i32
      %144 = "equeue.get_comp"(%142) {name = "proc4,1"} : (i32) -> i32
      %145 = "equeue.alloc"(%143) {data = "f32", shape = dense<1> : tensor<1xi64>} : (i32) -> memref<1xf32>
      %146 = "equeue.alloc"(%143) {data = "f32", shape = dense<1> : tensor<1xi64>} : (i32) -> memref<1xf32>
      %147 = "equeue.alloc"(%143) {data = "f32", shape = dense<1> : tensor<1xi64>} : (i32) -> memref<1xf32>
      %148 = "equeue.get_comp"(%142) {name = "pe_4,0"} : (i32) -> i32
      %149 = "equeue.get_comp"(%148) {name = "mem4,0"} : (i32) -> i32
      %150 = "equeue.get_comp"(%148) {name = "proc4,0"} : (i32) -> i32
      %151 = "equeue.alloc"(%149) {data = "f32", shape = dense<1> : tensor<1xi64>} : (i32) -> memref<1xf32>
      %152 = "equeue.alloc"(%149) {data = "f32", shape = dense<1> : tensor<1xi64>} : (i32) -> memref<1xf32>
      %153 = "equeue.alloc"(%149) {data = "f32", shape = dense<1> : tensor<1xi64>} : (i32) -> memref<1xf32>
      %154 = "equeue.get_comp"(%148) {name = "pe_3,4"} : (i32) -> i32
      %155 = "equeue.get_comp"(%154) {name = "mem3,4"} : (i32) -> i32
      %156 = "equeue.get_comp"(%154) {name = "proc3,4"} : (i32) -> i32
      %157 = "equeue.alloc"(%155) {data = "f32", shape = dense<1> : tensor<1xi64>} : (i32) -> memref<1xf32>
      %158 = "equeue.alloc"(%155) {data = "f32", shape = dense<1> : tensor<1xi64>} : (i32) -> memref<1xf32>
      %159 = "equeue.alloc"(%155) {data = "f32", shape = dense<1> : tensor<1xi64>} : (i32) -> memref<1xf32>
      %160 = "equeue.get_comp"(%154) {name = "pe_3,3"} : (i32) -> i32
      %161 = "equeue.get_comp"(%160) {name = "mem3,3"} : (i32) -> i32
      %162 = "equeue.get_comp"(%160) {name = "proc3,3"} : (i32) -> i32
      %163 = "equeue.alloc"(%161) {data = "f32", shape = dense<1> : tensor<1xi64>} : (i32) -> memref<1xf32>
      %164 = "equeue.alloc"(%161) {data = "f32", shape = dense<1> : tensor<1xi64>} : (i32) -> memref<1xf32>
      %165 = "equeue.alloc"(%161) {data = "f32", shape = dense<1> : tensor<1xi64>} : (i32) -> memref<1xf32>
      %166 = "equeue.get_comp"(%160) {name = "pe_3,2"} : (i32) -> i32
      %167 = "equeue.get_comp"(%166) {name = "mem3,2"} : (i32) -> i32
      %168 = "equeue.get_comp"(%166) {name = "proc3,2"} : (i32) -> i32
      %169 = "equeue.alloc"(%167) {data = "f32", shape = dense<1> : tensor<1xi64>} : (i32) -> memref<1xf32>
      %170 = "equeue.alloc"(%167) {data = "f32", shape = dense<1> : tensor<1xi64>} : (i32) -> memref<1xf32>
      %171 = "equeue.alloc"(%167) {data = "f32", shape = dense<1> : tensor<1xi64>} : (i32) -> memref<1xf32>
      %172 = "equeue.get_comp"(%166) {name = "pe_3,1"} : (i32) -> i32
      %173 = "equeue.get_comp"(%172) {name = "mem3,1"} : (i32) -> i32
      %174 = "equeue.get_comp"(%172) {name = "proc3,1"} : (i32) -> i32
      %175 = "equeue.alloc"(%173) {data = "f32", shape = dense<1> : tensor<1xi64>} : (i32) -> memref<1xf32>
      %176 = "equeue.alloc"(%173) {data = "f32", shape = dense<1> : tensor<1xi64>} : (i32) -> memref<1xf32>
      %177 = "equeue.alloc"(%173) {data = "f32", shape = dense<1> : tensor<1xi64>} : (i32) -> memref<1xf32>
      %178 = "equeue.get_comp"(%172) {name = "pe_3,0"} : (i32) -> i32
      %179 = "equeue.get_comp"(%178) {name = "mem3,0"} : (i32) -> i32
      %180 = "equeue.get_comp"(%178) {name = "proc3,0"} : (i32) -> i32
      %181 = "equeue.alloc"(%179) {data = "f32", shape = dense<1> : tensor<1xi64>} : (i32) -> memref<1xf32>
      %182 = "equeue.alloc"(%179) {data = "f32", shape = dense<1> : tensor<1xi64>} : (i32) -> memref<1xf32>
      %183 = "equeue.alloc"(%179) {data = "f32", shape = dense<1> : tensor<1xi64>} : (i32) -> memref<1xf32>
      %184 = "equeue.get_comp"(%178) {name = "pe_2,4"} : (i32) -> i32
      %185 = "equeue.get_comp"(%184) {name = "mem2,4"} : (i32) -> i32
      %186 = "equeue.get_comp"(%184) {name = "proc2,4"} : (i32) -> i32
      %187 = "equeue.alloc"(%185) {data = "f32", shape = dense<1> : tensor<1xi64>} : (i32) -> memref<1xf32>
      %188 = "equeue.alloc"(%185) {data = "f32", shape = dense<1> : tensor<1xi64>} : (i32) -> memref<1xf32>
      %189 = "equeue.alloc"(%185) {data = "f32", shape = dense<1> : tensor<1xi64>} : (i32) -> memref<1xf32>
      %190 = "equeue.get_comp"(%184) {name = "pe_2,3"} : (i32) -> i32
      %191 = "equeue.get_comp"(%190) {name = "mem2,3"} : (i32) -> i32
      %192 = "equeue.get_comp"(%190) {name = "proc2,3"} : (i32) -> i32
      %193 = "equeue.alloc"(%191) {data = "f32", shape = dense<1> : tensor<1xi64>} : (i32) -> memref<1xf32>
      %194 = "equeue.alloc"(%191) {data = "f32", shape = dense<1> : tensor<1xi64>} : (i32) -> memref<1xf32>
      %195 = "equeue.alloc"(%191) {data = "f32", shape = dense<1> : tensor<1xi64>} : (i32) -> memref<1xf32>
      %196 = "equeue.get_comp"(%190) {name = "pe_2,2"} : (i32) -> i32
      %197 = "equeue.get_comp"(%196) {name = "mem2,2"} : (i32) -> i32
      %198 = "equeue.get_comp"(%196) {name = "proc2,2"} : (i32) -> i32
      %199 = "equeue.alloc"(%197) {data = "f32", shape = dense<1> : tensor<1xi64>} : (i32) -> memref<1xf32>
      %200 = "equeue.alloc"(%197) {data = "f32", shape = dense<1> : tensor<1xi64>} : (i32) -> memref<1xf32>
      %201 = "equeue.alloc"(%197) {data = "f32", shape = dense<1> : tensor<1xi64>} : (i32) -> memref<1xf32>
      %202 = "equeue.get_comp"(%196) {name = "pe_2,1"} : (i32) -> i32
      %203 = "equeue.get_comp"(%202) {name = "mem2,1"} : (i32) -> i32
      %204 = "equeue.get_comp"(%202) {name = "proc2,1"} : (i32) -> i32
      %205 = "equeue.alloc"(%203) {data = "f32", shape = dense<1> : tensor<1xi64>} : (i32) -> memref<1xf32>
      %206 = "equeue.alloc"(%203) {data = "f32", shape = dense<1> : tensor<1xi64>} : (i32) -> memref<1xf32>
      %207 = "equeue.alloc"(%203) {data = "f32", shape = dense<1> : tensor<1xi64>} : (i32) -> memref<1xf32>
      %208 = "equeue.get_comp"(%202) {name = "pe_2,0"} : (i32) -> i32
      %209 = "equeue.get_comp"(%208) {name = "mem2,0"} : (i32) -> i32
      %210 = "equeue.get_comp"(%208) {name = "proc2,0"} : (i32) -> i32
      %211 = "equeue.alloc"(%209) {data = "f32", shape = dense<1> : tensor<1xi64>} : (i32) -> memref<1xf32>
      %212 = "equeue.alloc"(%209) {data = "f32", shape = dense<1> : tensor<1xi64>} : (i32) -> memref<1xf32>
      %213 = "equeue.alloc"(%209) {data = "f32", shape = dense<1> : tensor<1xi64>} : (i32) -> memref<1xf32>
      %214 = "equeue.get_comp"(%208) {name = "pe_1,4"} : (i32) -> i32
      %215 = "equeue.get_comp"(%214) {name = "mem1,4"} : (i32) -> i32
      %216 = "equeue.get_comp"(%214) {name = "proc1,4"} : (i32) -> i32
      %217 = "equeue.alloc"(%215) {data = "f32", shape = dense<1> : tensor<1xi64>} : (i32) -> memref<1xf32>
      %218 = "equeue.alloc"(%215) {data = "f32", shape = dense<1> : tensor<1xi64>} : (i32) -> memref<1xf32>
      %219 = "equeue.alloc"(%215) {data = "f32", shape = dense<1> : tensor<1xi64>} : (i32) -> memref<1xf32>
      %220 = "equeue.get_comp"(%214) {name = "pe_1,3"} : (i32) -> i32
      %221 = "equeue.get_comp"(%220) {name = "mem1,3"} : (i32) -> i32
      %222 = "equeue.get_comp"(%220) {name = "proc1,3"} : (i32) -> i32
      %223 = "equeue.alloc"(%221) {data = "f32", shape = dense<1> : tensor<1xi64>} : (i32) -> memref<1xf32>
      %224 = "equeue.alloc"(%221) {data = "f32", shape = dense<1> : tensor<1xi64>} : (i32) -> memref<1xf32>
      %225 = "equeue.alloc"(%221) {data = "f32", shape = dense<1> : tensor<1xi64>} : (i32) -> memref<1xf32>
      %226 = "equeue.get_comp"(%220) {name = "pe_1,2"} : (i32) -> i32
      %227 = "equeue.get_comp"(%226) {name = "mem1,2"} : (i32) -> i32
      %228 = "equeue.get_comp"(%226) {name = "proc1,2"} : (i32) -> i32
      %229 = "equeue.alloc"(%227) {data = "f32", shape = dense<1> : tensor<1xi64>} : (i32) -> memref<1xf32>
      %230 = "equeue.alloc"(%227) {data = "f32", shape = dense<1> : tensor<1xi64>} : (i32) -> memref<1xf32>
      %231 = "equeue.alloc"(%227) {data = "f32", shape = dense<1> : tensor<1xi64>} : (i32) -> memref<1xf32>
      %232 = "equeue.get_comp"(%226) {name = "pe_1,1"} : (i32) -> i32
      %233 = "equeue.get_comp"(%232) {name = "mem1,1"} : (i32) -> i32
      %234 = "equeue.get_comp"(%232) {name = "proc1,1"} : (i32) -> i32
      %235 = "equeue.alloc"(%233) {data = "f32", shape = dense<1> : tensor<1xi64>} : (i32) -> memref<1xf32>
      %236 = "equeue.alloc"(%233) {data = "f32", shape = dense<1> : tensor<1xi64>} : (i32) -> memref<1xf32>
      %237 = "equeue.alloc"(%233) {data = "f32", shape = dense<1> : tensor<1xi64>} : (i32) -> memref<1xf32>
      %238 = "equeue.get_comp"(%232) {name = "pe_1,0"} : (i32) -> i32
      %239 = "equeue.get_comp"(%238) {name = "mem1,0"} : (i32) -> i32
      %240 = "equeue.get_comp"(%238) {name = "proc1,0"} : (i32) -> i32
      %241 = "equeue.alloc"(%239) {data = "f32", shape = dense<1> : tensor<1xi64>} : (i32) -> memref<1xf32>
      %242 = "equeue.alloc"(%239) {data = "f32", shape = dense<1> : tensor<1xi64>} : (i32) -> memref<1xf32>
      %243 = "equeue.alloc"(%239) {data = "f32", shape = dense<1> : tensor<1xi64>} : (i32) -> memref<1xf32>
      %244 = "equeue.get_comp"(%238) {name = "pe_0,4"} : (i32) -> i32
      %245 = "equeue.get_comp"(%244) {name = "mem0,4"} : (i32) -> i32
      %246 = "equeue.get_comp"(%244) {name = "proc0,4"} : (i32) -> i32
      %247 = "equeue.alloc"(%245) {data = "f32", shape = dense<1> : tensor<1xi64>} : (i32) -> memref<1xf32>
      %248 = "equeue.alloc"(%245) {data = "f32", shape = dense<1> : tensor<1xi64>} : (i32) -> memref<1xf32>
      %249 = "equeue.alloc"(%245) {data = "f32", shape = dense<1> : tensor<1xi64>} : (i32) -> memref<1xf32>
      %250 = "equeue.get_comp"(%244) {name = "pe_0,3"} : (i32) -> i32
      %251 = "equeue.get_comp"(%250) {name = "mem0,3"} : (i32) -> i32
      %252 = "equeue.get_comp"(%250) {name = "proc0,3"} : (i32) -> i32
      %253 = "equeue.alloc"(%251) {data = "f32", shape = dense<1> : tensor<1xi64>} : (i32) -> memref<1xf32>
      %254 = "equeue.alloc"(%251) {data = "f32", shape = dense<1> : tensor<1xi64>} : (i32) -> memref<1xf32>
      %255 = "equeue.alloc"(%251) {data = "f32", shape = dense<1> : tensor<1xi64>} : (i32) -> memref<1xf32>
      %256 = "equeue.get_comp"(%250) {name = "pe_0,2"} : (i32) -> i32
      %257 = "equeue.get_comp"(%256) {name = "mem0,2"} : (i32) -> i32
      %258 = "equeue.get_comp"(%256) {name = "proc0,2"} : (i32) -> i32
      %259 = "equeue.alloc"(%257) {data = "f32", shape = dense<1> : tensor<1xi64>} : (i32) -> memref<1xf32>
      %260 = "equeue.alloc"(%257) {data = "f32", shape = dense<1> : tensor<1xi64>} : (i32) -> memref<1xf32>
      %261 = "equeue.alloc"(%257) {data = "f32", shape = dense<1> : tensor<1xi64>} : (i32) -> memref<1xf32>
      %262 = "equeue.get_comp"(%256) {name = "pe_0,1"} : (i32) -> i32
      %263 = "equeue.get_comp"(%262) {name = "mem0,1"} : (i32) -> i32
      %264 = "equeue.get_comp"(%262) {name = "proc0,1"} : (i32) -> i32
      %265 = "equeue.alloc"(%263) {data = "f32", shape = dense<1> : tensor<1xi64>} : (i32) -> memref<1xf32>
      %266 = "equeue.alloc"(%263) {data = "f32", shape = dense<1> : tensor<1xi64>} : (i32) -> memref<1xf32>
      %267 = "equeue.alloc"(%263) {data = "f32", shape = dense<1> : tensor<1xi64>} : (i32) -> memref<1xf32>
      %268 = "equeue.get_comp"(%262) {name = "pe_0,0"} : (i32) -> i32
      %269 = "equeue.get_comp"(%268) {name = "mem0,0"} : (i32) -> i32
      %270 = "equeue.get_comp"(%268) {name = "proc0,0"} : (i32) -> i32
      %271 = "equeue.alloc"(%269) {data = "f32", shape = dense<1> : tensor<1xi64>} : (i32) -> memref<1xf32>
      %272 = "equeue.alloc"(%269) {data = "f32", shape = dense<1> : tensor<1xi64>} : (i32) -> memref<1xf32>
      %273 = "equeue.alloc"(%269) {data = "f32", shape = dense<1> : tensor<1xi64>} : (i32) -> memref<1xf32>
      %274 = "equeue.control_start"() : () -> !equeue.signal
      %c0 = constant 0 : index
      %275 = "equeue.memcpy"(%274, %122, %127, %111, %c0) {dest_bank = 0 : i64, src_bank = 0 : i64} : (!equeue.signal, memref<3x5x7x3xf32>, memref<1xf32>, i32, index) -> !equeue.signal
      %276 = "equeue.memcpy"(%274, %121, %129, %102, %c0) {dest_bank = 1 : i64, src_bank = 5 : i64} : (!equeue.signal, memref<5x7x7xf32>, memref<1xf32>, i32, index) -> !equeue.signal
      "equeue.await"(%276, %275) : (!equeue.signal, !equeue.signal) -> ()
      %277 = "equeue.control_start"() : () -> !equeue.signal
      %done_0, %res:3 = "equeue.launch"(%277, %126, %129, %127, %128) ( {
      ^bb0(%arg5: memref<1xf32>, %arg6: memref<1xf32>, %arg7: memref<1xf32>):  // no predecessors
        %6869 = "equeue.read"(%arg6) {bank = 0 : i64} : (memref<1xf32>) -> f32
        %6870 = "equeue.read"(%arg5) {bank = 1 : i64} : (memref<1xf32>) -> f32
        %6871 = mulf %6870, %6869 : f32
        %6872 = "equeue.read"(%arg7) {bank = 2 : i64} : (memref<1xf32>) -> f32
        %6873 = addf %6871, %6872 : f32
        "equeue.return"(%6870, %6869, %6873) : (f32, f32, f32) -> ()
      }) : (!equeue.signal, i32, memref<1xf32>, memref<1xf32>, memref<1xf32>) -> (!equeue.signal, f32, f32, f32)
      %done_1, %res_2:3 = "equeue.launch"(%277, %132, %135, %133, %134) ( {
      ^bb0(%arg5: memref<1xf32>, %arg6: memref<1xf32>, %arg7: memref<1xf32>):  // no predecessors
        %6869 = "equeue.read"(%arg6) {bank = 0 : i64} : (memref<1xf32>) -> f32
        %6870 = "equeue.read"(%arg5) {bank = 1 : i64} : (memref<1xf32>) -> f32
        %6871 = mulf %6870, %6869 : f32
        %6872 = "equeue.read"(%arg7) {bank = 2 : i64} : (memref<1xf32>) -> f32
        %6873 = addf %6871, %6872 : f32
        "equeue.return"(%6870, %6869, %6873) : (f32, f32, f32) -> ()
      }) : (!equeue.signal, i32, memref<1xf32>, memref<1xf32>, memref<1xf32>) -> (!equeue.signal, f32, f32, f32)
      %278 = "equeue.control_and"(%done_0, %done_1) : (!equeue.signal, !equeue.signal) -> !equeue.signal
      %done_3, %res_4:3 = "equeue.launch"(%277, %138, %141, %139, %140) ( {
      ^bb0(%arg5: memref<1xf32>, %arg6: memref<1xf32>, %arg7: memref<1xf32>):  // no predecessors
        %6869 = "equeue.read"(%arg6) {bank = 0 : i64} : (memref<1xf32>) -> f32
        %6870 = "equeue.read"(%arg5) {bank = 1 : i64} : (memref<1xf32>) -> f32
        %6871 = mulf %6870, %6869 : f32
        %6872 = "equeue.read"(%arg7) {bank = 2 : i64} : (memref<1xf32>) -> f32
        %6873 = addf %6871, %6872 : f32
        "equeue.return"(%6870, %6869, %6873) : (f32, f32, f32) -> ()
      }) : (!equeue.signal, i32, memref<1xf32>, memref<1xf32>, memref<1xf32>) -> (!equeue.signal, f32, f32, f32)
      %279 = "equeue.control_and"(%278, %done_3) : (!equeue.signal, !equeue.signal) -> !equeue.signal
      %done_5, %res_6:3 = "equeue.launch"(%277, %144, %147, %145, %146) ( {
      ^bb0(%arg5: memref<1xf32>, %arg6: memref<1xf32>, %arg7: memref<1xf32>):  // no predecessors
        %6869 = "equeue.read"(%arg6) {bank = 0 : i64} : (memref<1xf32>) -> f32
        %6870 = "equeue.read"(%arg5) {bank = 1 : i64} : (memref<1xf32>) -> f32
        %6871 = mulf %6870, %6869 : f32
        %6872 = "equeue.read"(%arg7) {bank = 2 : i64} : (memref<1xf32>) -> f32
        %6873 = addf %6871, %6872 : f32
        "equeue.return"(%6870, %6869, %6873) : (f32, f32, f32) -> ()
      }) : (!equeue.signal, i32, memref<1xf32>, memref<1xf32>, memref<1xf32>) -> (!equeue.signal, f32, f32, f32)
      %280 = "equeue.control_and"(%279, %done_5) : (!equeue.signal, !equeue.signal) -> !equeue.signal
      %done_7, %res_8:3 = "equeue.launch"(%277, %150, %153, %151, %152) ( {
      ^bb0(%arg5: memref<1xf32>, %arg6: memref<1xf32>, %arg7: memref<1xf32>):  // no predecessors
        %6869 = "equeue.read"(%arg6) {bank = 0 : i64} : (memref<1xf32>) -> f32
        %6870 = "equeue.read"(%arg5) {bank = 1 : i64} : (memref<1xf32>) -> f32
        %6871 = mulf %6870, %6869 : f32
        %6872 = "equeue.read"(%arg7) {bank = 2 : i64} : (memref<1xf32>) -> f32
        %6873 = addf %6871, %6872 : f32
        "equeue.return"(%6870, %6869, %6873) : (f32, f32, f32) -> ()
      }) : (!equeue.signal, i32, memref<1xf32>, memref<1xf32>, memref<1xf32>) -> (!equeue.signal, f32, f32, f32)
      %281 = "equeue.control_and"(%280, %done_7) : (!equeue.signal, !equeue.signal) -> !equeue.signal
      %done_9, %res_10:3 = "equeue.launch"(%277, %156, %159, %157, %158) ( {
      ^bb0(%arg5: memref<1xf32>, %arg6: memref<1xf32>, %arg7: memref<1xf32>):  // no predecessors
        %6869 = "equeue.read"(%arg6) {bank = 0 : i64} : (memref<1xf32>) -> f32
        %6870 = "equeue.read"(%arg5) {bank = 1 : i64} : (memref<1xf32>) -> f32
        %6871 = mulf %6870, %6869 : f32
        %6872 = "equeue.read"(%arg7) {bank = 2 : i64} : (memref<1xf32>) -> f32
        %6873 = addf %6871, %6872 : f32
        "equeue.return"(%6870, %6869, %6873) : (f32, f32, f32) -> ()
      }) : (!equeue.signal, i32, memref<1xf32>, memref<1xf32>, memref<1xf32>) -> (!equeue.signal, f32, f32, f32)
      %282 = "equeue.control_and"(%281, %done_9) : (!equeue.signal, !equeue.signal) -> !equeue.signal
      %done_11, %res_12:3 = "equeue.launch"(%277, %162, %165, %163, %164) ( {
      ^bb0(%arg5: memref<1xf32>, %arg6: memref<1xf32>, %arg7: memref<1xf32>):  // no predecessors
        %6869 = "equeue.read"(%arg6) {bank = 0 : i64} : (memref<1xf32>) -> f32
        %6870 = "equeue.read"(%arg5) {bank = 1 : i64} : (memref<1xf32>) -> f32
        %6871 = mulf %6870, %6869 : f32
        %6872 = "equeue.read"(%arg7) {bank = 2 : i64} : (memref<1xf32>) -> f32
        %6873 = addf %6871, %6872 : f32
        "equeue.return"(%6870, %6869, %6873) : (f32, f32, f32) -> ()
      }) : (!equeue.signal, i32, memref<1xf32>, memref<1xf32>, memref<1xf32>) -> (!equeue.signal, f32, f32, f32)
      %283 = "equeue.control_and"(%282, %done_11) : (!equeue.signal, !equeue.signal) -> !equeue.signal
      %done_13, %res_14:3 = "equeue.launch"(%277, %168, %171, %169, %170) ( {
      ^bb0(%arg5: memref<1xf32>, %arg6: memref<1xf32>, %arg7: memref<1xf32>):  // no predecessors
        %6869 = "equeue.read"(%arg6) {bank = 0 : i64} : (memref<1xf32>) -> f32
        %6870 = "equeue.read"(%arg5) {bank = 1 : i64} : (memref<1xf32>) -> f32
        %6871 = mulf %6870, %6869 : f32
        %6872 = "equeue.read"(%arg7) {bank = 2 : i64} : (memref<1xf32>) -> f32
        %6873 = addf %6871, %6872 : f32
        "equeue.return"(%6870, %6869, %6873) : (f32, f32, f32) -> ()
      }) : (!equeue.signal, i32, memref<1xf32>, memref<1xf32>, memref<1xf32>) -> (!equeue.signal, f32, f32, f32)
      %284 = "equeue.control_and"(%283, %done_13) : (!equeue.signal, !equeue.signal) -> !equeue.signal
      %done_15, %res_16:3 = "equeue.launch"(%277, %174, %177, %175, %176) ( {
      ^bb0(%arg5: memref<1xf32>, %arg6: memref<1xf32>, %arg7: memref<1xf32>):  // no predecessors
        %6869 = "equeue.read"(%arg6) {bank = 0 : i64} : (memref<1xf32>) -> f32
        %6870 = "equeue.read"(%arg5) {bank = 1 : i64} : (memref<1xf32>) -> f32
        %6871 = mulf %6870, %6869 : f32
        %6872 = "equeue.read"(%arg7) {bank = 2 : i64} : (memref<1xf32>) -> f32
        %6873 = addf %6871, %6872 : f32
        "equeue.return"(%6870, %6869, %6873) : (f32, f32, f32) -> ()
      }) : (!equeue.signal, i32, memref<1xf32>, memref<1xf32>, memref<1xf32>) -> (!equeue.signal, f32, f32, f32)
      %285 = "equeue.control_and"(%284, %done_15) : (!equeue.signal, !equeue.signal) -> !equeue.signal
      %done_17, %res_18:3 = "equeue.launch"(%277, %180, %183, %181, %182) ( {
      ^bb0(%arg5: memref<1xf32>, %arg6: memref<1xf32>, %arg7: memref<1xf32>):  // no predecessors
        %6869 = "equeue.read"(%arg6) {bank = 0 : i64} : (memref<1xf32>) -> f32
        %6870 = "equeue.read"(%arg5) {bank = 1 : i64} : (memref<1xf32>) -> f32
        %6871 = mulf %6870, %6869 : f32
        %6872 = "equeue.read"(%arg7) {bank = 2 : i64} : (memref<1xf32>) -> f32
        %6873 = addf %6871, %6872 : f32
        "equeue.return"(%6870, %6869, %6873) : (f32, f32, f32) -> ()
      }) : (!equeue.signal, i32, memref<1xf32>, memref<1xf32>, memref<1xf32>) -> (!equeue.signal, f32, f32, f32)
      %286 = "equeue.control_and"(%285, %done_17) : (!equeue.signal, !equeue.signal) -> !equeue.signal
      %done_19, %res_20:3 = "equeue.launch"(%277, %186, %189, %187, %188) ( {
      ^bb0(%arg5: memref<1xf32>, %arg6: memref<1xf32>, %arg7: memref<1xf32>):  // no predecessors
        %6869 = "equeue.read"(%arg6) {bank = 0 : i64} : (memref<1xf32>) -> f32
        %6870 = "equeue.read"(%arg5) {bank = 1 : i64} : (memref<1xf32>) -> f32
        %6871 = mulf %6870, %6869 : f32
        %6872 = "equeue.read"(%arg7) {bank = 2 : i64} : (memref<1xf32>) -> f32
        %6873 = addf %6871, %6872 : f32
        "equeue.return"(%6870, %6869, %6873) : (f32, f32, f32) -> ()
      }) : (!equeue.signal, i32, memref<1xf32>, memref<1xf32>, memref<1xf32>) -> (!equeue.signal, f32, f32, f32)
      %287 = "equeue.control_and"(%286, %done_19) : (!equeue.signal, !equeue.signal) -> !equeue.signal
      %done_21, %res_22:3 = "equeue.launch"(%277, %192, %195, %193, %194) ( {
      ^bb0(%arg5: memref<1xf32>, %arg6: memref<1xf32>, %arg7: memref<1xf32>):  // no predecessors
        %6869 = "equeue.read"(%arg6) {bank = 0 : i64} : (memref<1xf32>) -> f32
        %6870 = "equeue.read"(%arg5) {bank = 1 : i64} : (memref<1xf32>) -> f32
        %6871 = mulf %6870, %6869 : f32
        %6872 = "equeue.read"(%arg7) {bank = 2 : i64} : (memref<1xf32>) -> f32
        %6873 = addf %6871, %6872 : f32
        "equeue.return"(%6870, %6869, %6873) : (f32, f32, f32) -> ()
      }) : (!equeue.signal, i32, memref<1xf32>, memref<1xf32>, memref<1xf32>) -> (!equeue.signal, f32, f32, f32)
      %288 = "equeue.control_and"(%287, %done_21) : (!equeue.signal, !equeue.signal) -> !equeue.signal
      %done_23, %res_24:3 = "equeue.launch"(%277, %198, %201, %199, %200) ( {
      ^bb0(%arg5: memref<1xf32>, %arg6: memref<1xf32>, %arg7: memref<1xf32>):  // no predecessors
        %6869 = "equeue.read"(%arg6) {bank = 0 : i64} : (memref<1xf32>) -> f32
        %6870 = "equeue.read"(%arg5) {bank = 1 : i64} : (memref<1xf32>) -> f32
        %6871 = mulf %6870, %6869 : f32
        %6872 = "equeue.read"(%arg7) {bank = 2 : i64} : (memref<1xf32>) -> f32
        %6873 = addf %6871, %6872 : f32
        "equeue.return"(%6870, %6869, %6873) : (f32, f32, f32) -> ()
      }) : (!equeue.signal, i32, memref<1xf32>, memref<1xf32>, memref<1xf32>) -> (!equeue.signal, f32, f32, f32)
      %289 = "equeue.control_and"(%288, %done_23) : (!equeue.signal, !equeue.signal) -> !equeue.signal
      %done_25, %res_26:3 = "equeue.launch"(%277, %204, %207, %205, %206) ( {
      ^bb0(%arg5: memref<1xf32>, %arg6: memref<1xf32>, %arg7: memref<1xf32>):  // no predecessors
        %6869 = "equeue.read"(%arg6) {bank = 0 : i64} : (memref<1xf32>) -> f32
        %6870 = "equeue.read"(%arg5) {bank = 1 : i64} : (memref<1xf32>) -> f32
        %6871 = mulf %6870, %6869 : f32
        %6872 = "equeue.read"(%arg7) {bank = 2 : i64} : (memref<1xf32>) -> f32
        %6873 = addf %6871, %6872 : f32
        "equeue.return"(%6870, %6869, %6873) : (f32, f32, f32) -> ()
      }) : (!equeue.signal, i32, memref<1xf32>, memref<1xf32>, memref<1xf32>) -> (!equeue.signal, f32, f32, f32)
      %290 = "equeue.control_and"(%289, %done_25) : (!equeue.signal, !equeue.signal) -> !equeue.signal
      %done_27, %res_28:3 = "equeue.launch"(%277, %210, %213, %211, %212) ( {
      ^bb0(%arg5: memref<1xf32>, %arg6: memref<1xf32>, %arg7: memref<1xf32>):  // no predecessors
        %6869 = "equeue.read"(%arg6) {bank = 0 : i64} : (memref<1xf32>) -> f32
        %6870 = "equeue.read"(%arg5) {bank = 1 : i64} : (memref<1xf32>) -> f32
        %6871 = mulf %6870, %6869 : f32
        %6872 = "equeue.read"(%arg7) {bank = 2 : i64} : (memref<1xf32>) -> f32
        %6873 = addf %6871, %6872 : f32
        "equeue.return"(%6870, %6869, %6873) : (f32, f32, f32) -> ()
      }) : (!equeue.signal, i32, memref<1xf32>, memref<1xf32>, memref<1xf32>) -> (!equeue.signal, f32, f32, f32)
      %291 = "equeue.control_and"(%290, %done_27) : (!equeue.signal, !equeue.signal) -> !equeue.signal
      %done_29, %res_30:3 = "equeue.launch"(%277, %216, %219, %217, %218) ( {
      ^bb0(%arg5: memref<1xf32>, %arg6: memref<1xf32>, %arg7: memref<1xf32>):  // no predecessors
        %6869 = "equeue.read"(%arg6) {bank = 0 : i64} : (memref<1xf32>) -> f32
        %6870 = "equeue.read"(%arg5) {bank = 1 : i64} : (memref<1xf32>) -> f32
        %6871 = mulf %6870, %6869 : f32
        %6872 = "equeue.read"(%arg7) {bank = 2 : i64} : (memref<1xf32>) -> f32
        %6873 = addf %6871, %6872 : f32
        "equeue.return"(%6870, %6869, %6873) : (f32, f32, f32) -> ()
      }) : (!equeue.signal, i32, memref<1xf32>, memref<1xf32>, memref<1xf32>) -> (!equeue.signal, f32, f32, f32)
      %292 = "equeue.control_and"(%291, %done_29) : (!equeue.signal, !equeue.signal) -> !equeue.signal
      %done_31, %res_32:3 = "equeue.launch"(%277, %222, %225, %223, %224) ( {
      ^bb0(%arg5: memref<1xf32>, %arg6: memref<1xf32>, %arg7: memref<1xf32>):  // no predecessors
        %6869 = "equeue.read"(%arg6) {bank = 0 : i64} : (memref<1xf32>) -> f32
        %6870 = "equeue.read"(%arg5) {bank = 1 : i64} : (memref<1xf32>) -> f32
        %6871 = mulf %6870, %6869 : f32
        %6872 = "equeue.read"(%arg7) {bank = 2 : i64} : (memref<1xf32>) -> f32
        %6873 = addf %6871, %6872 : f32
        "equeue.return"(%6870, %6869, %6873) : (f32, f32, f32) -> ()
      }) : (!equeue.signal, i32, memref<1xf32>, memref<1xf32>, memref<1xf32>) -> (!equeue.signal, f32, f32, f32)
      %293 = "equeue.control_and"(%292, %done_31) : (!equeue.signal, !equeue.signal) -> !equeue.signal
      %done_33, %res_34:3 = "equeue.launch"(%277, %228, %231, %229, %230) ( {
      ^bb0(%arg5: memref<1xf32>, %arg6: memref<1xf32>, %arg7: memref<1xf32>):  // no predecessors
        %6869 = "equeue.read"(%arg6) {bank = 0 : i64} : (memref<1xf32>) -> f32
        %6870 = "equeue.read"(%arg5) {bank = 1 : i64} : (memref<1xf32>) -> f32
        %6871 = mulf %6870, %6869 : f32
        %6872 = "equeue.read"(%arg7) {bank = 2 : i64} : (memref<1xf32>) -> f32
        %6873 = addf %6871, %6872 : f32
        "equeue.return"(%6870, %6869, %6873) : (f32, f32, f32) -> ()
      }) : (!equeue.signal, i32, memref<1xf32>, memref<1xf32>, memref<1xf32>) -> (!equeue.signal, f32, f32, f32)
      %294 = "equeue.control_and"(%293, %done_33) : (!equeue.signal, !equeue.signal) -> !equeue.signal
      %done_35, %res_36:3 = "equeue.launch"(%277, %234, %237, %235, %236) ( {
      ^bb0(%arg5: memref<1xf32>, %arg6: memref<1xf32>, %arg7: memref<1xf32>):  // no predecessors
        %6869 = "equeue.read"(%arg6) {bank = 0 : i64} : (memref<1xf32>) -> f32
        %6870 = "equeue.read"(%arg5) {bank = 1 : i64} : (memref<1xf32>) -> f32
        %6871 = mulf %6870, %6869 : f32
        %6872 = "equeue.read"(%arg7) {bank = 2 : i64} : (memref<1xf32>) -> f32
        %6873 = addf %6871, %6872 : f32
        "equeue.return"(%6870, %6869, %6873) : (f32, f32, f32) -> ()
      }) : (!equeue.signal, i32, memref<1xf32>, memref<1xf32>, memref<1xf32>) -> (!equeue.signal, f32, f32, f32)
      %295 = "equeue.control_and"(%294, %done_35) : (!equeue.signal, !equeue.signal) -> !equeue.signal
      %done_37, %res_38:3 = "equeue.launch"(%277, %240, %243, %241, %242) ( {
      ^bb0(%arg5: memref<1xf32>, %arg6: memref<1xf32>, %arg7: memref<1xf32>):  // no predecessors
        %6869 = "equeue.read"(%arg6) {bank = 0 : i64} : (memref<1xf32>) -> f32
        %6870 = "equeue.read"(%arg5) {bank = 1 : i64} : (memref<1xf32>) -> f32
        %6871 = mulf %6870, %6869 : f32
        %6872 = "equeue.read"(%arg7) {bank = 2 : i64} : (memref<1xf32>) -> f32
        %6873 = addf %6871, %6872 : f32
        "equeue.return"(%6870, %6869, %6873) : (f32, f32, f32) -> ()
      }) : (!equeue.signal, i32, memref<1xf32>, memref<1xf32>, memref<1xf32>) -> (!equeue.signal, f32, f32, f32)
      %296 = "equeue.control_and"(%295, %done_37) : (!equeue.signal, !equeue.signal) -> !equeue.signal
      %done_39, %res_40:3 = "equeue.launch"(%277, %246, %249, %247, %248) ( {
      ^bb0(%arg5: memref<1xf32>, %arg6: memref<1xf32>, %arg7: memref<1xf32>):  // no predecessors
        %6869 = "equeue.read"(%arg6) {bank = 0 : i64} : (memref<1xf32>) -> f32
        %6870 = "equeue.read"(%arg5) {bank = 1 : i64} : (memref<1xf32>) -> f32
        %6871 = mulf %6870, %6869 : f32
        %6872 = "equeue.read"(%arg7) {bank = 2 : i64} : (memref<1xf32>) -> f32
        %6873 = addf %6871, %6872 : f32
        "equeue.return"(%6870, %6869, %6873) : (f32, f32, f32) -> ()
      }) : (!equeue.signal, i32, memref<1xf32>, memref<1xf32>, memref<1xf32>) -> (!equeue.signal, f32, f32, f32)
      %297 = "equeue.control_and"(%296, %done_39) : (!equeue.signal, !equeue.signal) -> !equeue.signal
      %done_41, %res_42:3 = "equeue.launch"(%277, %252, %255, %253, %254) ( {
      ^bb0(%arg5: memref<1xf32>, %arg6: memref<1xf32>, %arg7: memref<1xf32>):  // no predecessors
        %6869 = "equeue.read"(%arg6) {bank = 0 : i64} : (memref<1xf32>) -> f32
        %6870 = "equeue.read"(%arg5) {bank = 1 : i64} : (memref<1xf32>) -> f32
        %6871 = mulf %6870, %6869 : f32
        %6872 = "equeue.read"(%arg7) {bank = 2 : i64} : (memref<1xf32>) -> f32
        %6873 = addf %6871, %6872 : f32
        "equeue.return"(%6870, %6869, %6873) : (f32, f32, f32) -> ()
      }) : (!equeue.signal, i32, memref<1xf32>, memref<1xf32>, memref<1xf32>) -> (!equeue.signal, f32, f32, f32)
      %298 = "equeue.control_and"(%297, %done_41) : (!equeue.signal, !equeue.signal) -> !equeue.signal
      %done_43, %res_44:3 = "equeue.launch"(%277, %258, %261, %259, %260) ( {
      ^bb0(%arg5: memref<1xf32>, %arg6: memref<1xf32>, %arg7: memref<1xf32>):  // no predecessors
        %6869 = "equeue.read"(%arg6) {bank = 0 : i64} : (memref<1xf32>) -> f32
        %6870 = "equeue.read"(%arg5) {bank = 1 : i64} : (memref<1xf32>) -> f32
        %6871 = mulf %6870, %6869 : f32
        %6872 = "equeue.read"(%arg7) {bank = 2 : i64} : (memref<1xf32>) -> f32
        %6873 = addf %6871, %6872 : f32
        "equeue.return"(%6870, %6869, %6873) : (f32, f32, f32) -> ()
      }) : (!equeue.signal, i32, memref<1xf32>, memref<1xf32>, memref<1xf32>) -> (!equeue.signal, f32, f32, f32)
      %299 = "equeue.control_and"(%298, %done_43) : (!equeue.signal, !equeue.signal) -> !equeue.signal
      %done_45, %res_46:3 = "equeue.launch"(%277, %264, %267, %265, %266) ( {
      ^bb0(%arg5: memref<1xf32>, %arg6: memref<1xf32>, %arg7: memref<1xf32>):  // no predecessors
        %6869 = "equeue.read"(%arg6) {bank = 0 : i64} : (memref<1xf32>) -> f32
        %6870 = "equeue.read"(%arg5) {bank = 1 : i64} : (memref<1xf32>) -> f32
        %6871 = mulf %6870, %6869 : f32
        %6872 = "equeue.read"(%arg7) {bank = 2 : i64} : (memref<1xf32>) -> f32
        %6873 = addf %6871, %6872 : f32
        "equeue.return"(%6870, %6869, %6873) : (f32, f32, f32) -> ()
      }) : (!equeue.signal, i32, memref<1xf32>, memref<1xf32>, memref<1xf32>) -> (!equeue.signal, f32, f32, f32)
      %300 = "equeue.control_and"(%299, %done_45) : (!equeue.signal, !equeue.signal) -> !equeue.signal
      %done_47, %res_48:3 = "equeue.launch"(%277, %270, %273, %271, %272) ( {
      ^bb0(%arg5: memref<1xf32>, %arg6: memref<1xf32>, %arg7: memref<1xf32>):  // no predecessors
        %6869 = "equeue.read"(%arg6) {bank = 0 : i64} : (memref<1xf32>) -> f32
        %6870 = "equeue.read"(%arg5) {bank = 1 : i64} : (memref<1xf32>) -> f32
        %6871 = mulf %6870, %6869 : f32
        %6872 = "equeue.read"(%arg7) {bank = 2 : i64} : (memref<1xf32>) -> f32
        %6873 = addf %6871, %6872 : f32
        "equeue.return"(%6870, %6869, %6873) : (f32, f32, f32) -> ()
      }) : (!equeue.signal, i32, memref<1xf32>, memref<1xf32>, memref<1xf32>) -> (!equeue.signal, f32, f32, f32)
      %301 = "equeue.control_and"(%300, %done_47) : (!equeue.signal, !equeue.signal) -> !equeue.signal
      "equeue.await"(%301) : (!equeue.signal) -> ()
      %302 = "equeue.control_start"() : () -> !equeue.signal
      %done_49 = "equeue.launch"(%302, %126, %res#0, %res#1, %res#2, %128, %128, %135, %157, %123) ( {
      ^bb0(%arg5: f32, %arg6: f32, %arg7: f32, %arg8: memref<1xf32>, %arg9: memref<1xf32>, %arg10: memref<1xf32>, %arg11: memref<1xf32>, %arg12: memref<3x3x3xf32>):  // no predecessors
        "equeue.write"(%arg5, %arg9) {bank = 1 : i64} : (f32, memref<1xf32>) -> ()
        "equeue.write"(%arg6, %arg10) {bank = 0 : i64} : (f32, memref<1xf32>) -> ()
        "equeue.write"(%arg7, %arg8) {bank = 2 : i64} : (f32, memref<1xf32>) -> ()
        "equeue.return"() : () -> ()
      }) : (!equeue.signal, i32, f32, f32, f32, memref<1xf32>, memref<1xf32>, memref<1xf32>, memref<1xf32>, memref<3x3x3xf32>) -> !equeue.signal
      %done_50 = "equeue.launch"(%302, %156, %res_10#0, %res_10#1, %res_10#2, %158, %158, %165, %187, %123) ( {
      ^bb0(%arg5: f32, %arg6: f32, %arg7: f32, %arg8: memref<1xf32>, %arg9: memref<1xf32>, %arg10: memref<1xf32>, %arg11: memref<1xf32>, %arg12: memref<3x3x3xf32>):  // no predecessors
        "equeue.write"(%arg5, %arg9) {bank = 1 : i64} : (f32, memref<1xf32>) -> ()
        "equeue.write"(%arg6, %arg10) {bank = 0 : i64} : (f32, memref<1xf32>) -> ()
        "equeue.write"(%arg7, %arg8) {bank = 2 : i64} : (f32, memref<1xf32>) -> ()
        "equeue.return"() : () -> ()
      }) : (!equeue.signal, i32, f32, f32, f32, memref<1xf32>, memref<1xf32>, memref<1xf32>, memref<1xf32>, memref<3x3x3xf32>) -> !equeue.signal
      %303 = "equeue.control_and"(%done_49, %done_50) : (!equeue.signal, !equeue.signal) -> !equeue.signal
      %done_51 = "equeue.launch"(%302, %186, %res_20#0, %res_20#1, %res_20#2, %188, %188, %195, %217, %123) ( {
      ^bb0(%arg5: f32, %arg6: f32, %arg7: f32, %arg8: memref<1xf32>, %arg9: memref<1xf32>, %arg10: memref<1xf32>, %arg11: memref<1xf32>, %arg12: memref<3x3x3xf32>):  // no predecessors
        "equeue.write"(%arg5, %arg9) {bank = 1 : i64} : (f32, memref<1xf32>) -> ()
        "equeue.write"(%arg6, %arg10) {bank = 0 : i64} : (f32, memref<1xf32>) -> ()
        "equeue.write"(%arg7, %arg8) {bank = 2 : i64} : (f32, memref<1xf32>) -> ()
        "equeue.return"() : () -> ()
      }) : (!equeue.signal, i32, f32, f32, f32, memref<1xf32>, memref<1xf32>, memref<1xf32>, memref<1xf32>, memref<3x3x3xf32>) -> !equeue.signal
      %304 = "equeue.control_and"(%303, %done_51) : (!equeue.signal, !equeue.signal) -> !equeue.signal
      %done_52 = "equeue.launch"(%302, %216, %res_30#0, %res_30#1, %res_30#2, %218, %218, %225, %247, %123) ( {
      ^bb0(%arg5: f32, %arg6: f32, %arg7: f32, %arg8: memref<1xf32>, %arg9: memref<1xf32>, %arg10: memref<1xf32>, %arg11: memref<1xf32>, %arg12: memref<3x3x3xf32>):  // no predecessors
        "equeue.write"(%arg5, %arg9) {bank = 1 : i64} : (f32, memref<1xf32>) -> ()
        "equeue.write"(%arg6, %arg10) {bank = 0 : i64} : (f32, memref<1xf32>) -> ()
        "equeue.write"(%arg7, %arg8) {bank = 2 : i64} : (f32, memref<1xf32>) -> ()
        "equeue.return"() : () -> ()
      }) : (!equeue.signal, i32, f32, f32, f32, memref<1xf32>, memref<1xf32>, memref<1xf32>, memref<1xf32>, memref<3x3x3xf32>) -> !equeue.signal
      %305 = "equeue.control_and"(%304, %done_52) : (!equeue.signal, !equeue.signal) -> !equeue.signal
      %done_53 = "equeue.launch"(%302, %246, %res_40#0, %res_40#2, %248, %255, %123) ( {
      ^bb0(%arg5: f32, %arg6: f32, %arg7: memref<1xf32>, %arg8: memref<1xf32>, %arg9: memref<3x3x3xf32>):  // no predecessors
        "equeue.write"(%arg5, %arg8) {bank = 1 : i64} : (f32, memref<1xf32>) -> ()
        "equeue.write"(%arg6, %arg7) {bank = 2 : i64} : (f32, memref<1xf32>) -> ()
        "equeue.return"() : () -> ()
      }) : (!equeue.signal, i32, f32, f32, memref<1xf32>, memref<1xf32>, memref<3x3x3xf32>) -> !equeue.signal
      %306 = "equeue.control_and"(%305, %done_53) : (!equeue.signal, !equeue.signal) -> !equeue.signal
      %done_54 = "equeue.launch"(%302, %132, %res_2#0, %res_2#1, %res_2#2, %134, %134, %141, %163, %123) ( {
      ^bb0(%arg5: f32, %arg6: f32, %arg7: f32, %arg8: memref<1xf32>, %arg9: memref<1xf32>, %arg10: memref<1xf32>, %arg11: memref<1xf32>, %arg12: memref<3x3x3xf32>):  // no predecessors
        "equeue.write"(%arg5, %arg9) {bank = 1 : i64} : (f32, memref<1xf32>) -> ()
        "equeue.write"(%arg6, %arg10) {bank = 0 : i64} : (f32, memref<1xf32>) -> ()
        "equeue.write"(%arg7, %arg8) {bank = 2 : i64} : (f32, memref<1xf32>) -> ()
        "equeue.return"() : () -> ()
      }) : (!equeue.signal, i32, f32, f32, f32, memref<1xf32>, memref<1xf32>, memref<1xf32>, memref<1xf32>, memref<3x3x3xf32>) -> !equeue.signal
      %307 = "equeue.control_and"(%306, %done_54) : (!equeue.signal, !equeue.signal) -> !equeue.signal
      %done_55 = "equeue.launch"(%302, %162, %res_12#0, %res_12#1, %res_12#2, %164, %164, %171, %193, %123) ( {
      ^bb0(%arg5: f32, %arg6: f32, %arg7: f32, %arg8: memref<1xf32>, %arg9: memref<1xf32>, %arg10: memref<1xf32>, %arg11: memref<1xf32>, %arg12: memref<3x3x3xf32>):  // no predecessors
        "equeue.write"(%arg5, %arg9) {bank = 1 : i64} : (f32, memref<1xf32>) -> ()
        "equeue.write"(%arg6, %arg10) {bank = 0 : i64} : (f32, memref<1xf32>) -> ()
        "equeue.write"(%arg7, %arg8) {bank = 2 : i64} : (f32, memref<1xf32>) -> ()
        "equeue.return"() : () -> ()
      }) : (!equeue.signal, i32, f32, f32, f32, memref<1xf32>, memref<1xf32>, memref<1xf32>, memref<1xf32>, memref<3x3x3xf32>) -> !equeue.signal
      %308 = "equeue.control_and"(%307, %done_55) : (!equeue.signal, !equeue.signal) -> !equeue.signal
      %done_56 = "equeue.launch"(%302, %192, %res_22#0, %res_22#1, %res_22#2, %194, %194, %201, %223, %123) ( {
      ^bb0(%arg5: f32, %arg6: f32, %arg7: f32, %arg8: memref<1xf32>, %arg9: memref<1xf32>, %arg10: memref<1xf32>, %arg11: memref<1xf32>, %arg12: memref<3x3x3xf32>):  // no predecessors
        "equeue.write"(%arg5, %arg9) {bank = 1 : i64} : (f32, memref<1xf32>) -> ()
        "equeue.write"(%arg6, %arg10) {bank = 0 : i64} : (f32, memref<1xf32>) -> ()
        "equeue.write"(%arg7, %arg8) {bank = 2 : i64} : (f32, memref<1xf32>) -> ()
        "equeue.return"() : () -> ()
      }) : (!equeue.signal, i32, f32, f32, f32, memref<1xf32>, memref<1xf32>, memref<1xf32>, memref<1xf32>, memref<3x3x3xf32>) -> !equeue.signal
      %309 = "equeue.control_and"(%308, %done_56) : (!equeue.signal, !equeue.signal) -> !equeue.signal
      %done_57 = "equeue.launch"(%302, %222, %res_32#0, %res_32#1, %res_32#2, %224, %224, %231, %253, %123) ( {
      ^bb0(%arg5: f32, %arg6: f32, %arg7: f32, %arg8: memref<1xf32>, %arg9: memref<1xf32>, %arg10: memref<1xf32>, %arg11: memref<1xf32>, %arg12: memref<3x3x3xf32>):  // no predecessors
        "equeue.write"(%arg5, %arg9) {bank = 1 : i64} : (f32, memref<1xf32>) -> ()
        "equeue.write"(%arg6, %arg10) {bank = 0 : i64} : (f32, memref<1xf32>) -> ()
        "equeue.write"(%arg7, %arg8) {bank = 2 : i64} : (f32, memref<1xf32>) -> ()
        "equeue.return"() : () -> ()
      }) : (!equeue.signal, i32, f32, f32, f32, memref<1xf32>, memref<1xf32>, memref<1xf32>, memref<1xf32>, memref<3x3x3xf32>) -> !equeue.signal
      %310 = "equeue.control_and"(%309, %done_57) : (!equeue.signal, !equeue.signal) -> !equeue.signal
      %done_58 = "equeue.launch"(%302, %252, %res_42#0, %res_42#2, %254, %261, %123) ( {
      ^bb0(%arg5: f32, %arg6: f32, %arg7: memref<1xf32>, %arg8: memref<1xf32>, %arg9: memref<3x3x3xf32>):  // no predecessors
        "equeue.write"(%arg5, %arg8) {bank = 1 : i64} : (f32, memref<1xf32>) -> ()
        "equeue.write"(%arg6, %arg7) {bank = 2 : i64} : (f32, memref<1xf32>) -> ()
        "equeue.return"() : () -> ()
      }) : (!equeue.signal, i32, f32, f32, memref<1xf32>, memref<1xf32>, memref<3x3x3xf32>) -> !equeue.signal
      %311 = "equeue.control_and"(%310, %done_58) : (!equeue.signal, !equeue.signal) -> !equeue.signal
      %done_59 = "equeue.launch"(%302, %138, %res_4#0, %res_4#1, %res_4#2, %140, %140, %147, %169, %123) ( {
      ^bb0(%arg5: f32, %arg6: f32, %arg7: f32, %arg8: memref<1xf32>, %arg9: memref<1xf32>, %arg10: memref<1xf32>, %arg11: memref<1xf32>, %arg12: memref<3x3x3xf32>):  // no predecessors
        "equeue.write"(%arg5, %arg9) {bank = 1 : i64} : (f32, memref<1xf32>) -> ()
        "equeue.write"(%arg6, %arg10) {bank = 0 : i64} : (f32, memref<1xf32>) -> ()
        "equeue.write"(%arg7, %arg8) {bank = 2 : i64} : (f32, memref<1xf32>) -> ()
        "equeue.return"() : () -> ()
      }) : (!equeue.signal, i32, f32, f32, f32, memref<1xf32>, memref<1xf32>, memref<1xf32>, memref<1xf32>, memref<3x3x3xf32>) -> !equeue.signal
      %312 = "equeue.control_and"(%311, %done_59) : (!equeue.signal, !equeue.signal) -> !equeue.signal
      %done_60 = "equeue.launch"(%302, %168, %res_14#0, %res_14#1, %res_14#2, %170, %170, %177, %199, %123) ( {
      ^bb0(%arg5: f32, %arg6: f32, %arg7: f32, %arg8: memref<1xf32>, %arg9: memref<1xf32>, %arg10: memref<1xf32>, %arg11: memref<1xf32>, %arg12: memref<3x3x3xf32>):  // no predecessors
        "equeue.write"(%arg5, %arg9) {bank = 1 : i64} : (f32, memref<1xf32>) -> ()
        "equeue.write"(%arg6, %arg10) {bank = 0 : i64} : (f32, memref<1xf32>) -> ()
        "equeue.write"(%arg7, %arg8) {bank = 2 : i64} : (f32, memref<1xf32>) -> ()
        "equeue.return"() : () -> ()
      }) : (!equeue.signal, i32, f32, f32, f32, memref<1xf32>, memref<1xf32>, memref<1xf32>, memref<1xf32>, memref<3x3x3xf32>) -> !equeue.signal
      %313 = "equeue.control_and"(%312, %done_60) : (!equeue.signal, !equeue.signal) -> !equeue.signal
      %done_61 = "equeue.launch"(%302, %198, %res_24#0, %res_24#1, %res_24#2, %200, %200, %207, %229, %123) ( {
      ^bb0(%arg5: f32, %arg6: f32, %arg7: f32, %arg8: memref<1xf32>, %arg9: memref<1xf32>, %arg10: memref<1xf32>, %arg11: memref<1xf32>, %arg12: memref<3x3x3xf32>):  // no predecessors
        "equeue.write"(%arg5, %arg9) {bank = 1 : i64} : (f32, memref<1xf32>) -> ()
        "equeue.write"(%arg6, %arg10) {bank = 0 : i64} : (f32, memref<1xf32>) -> ()
        "equeue.write"(%arg7, %arg8) {bank = 2 : i64} : (f32, memref<1xf32>) -> ()
        "equeue.return"() : () -> ()
      }) : (!equeue.signal, i32, f32, f32, f32, memref<1xf32>, memref<1xf32>, memref<1xf32>, memref<1xf32>, memref<3x3x3xf32>) -> !equeue.signal
      %314 = "equeue.control_and"(%313, %done_61) : (!equeue.signal, !equeue.signal) -> !equeue.signal
      %done_62 = "equeue.launch"(%302, %228, %res_34#0, %res_34#1, %res_34#2, %230, %230, %237, %259, %123) ( {
      ^bb0(%arg5: f32, %arg6: f32, %arg7: f32, %arg8: memref<1xf32>, %arg9: memref<1xf32>, %arg10: memref<1xf32>, %arg11: memref<1xf32>, %arg12: memref<3x3x3xf32>):  // no predecessors
        "equeue.write"(%arg5, %arg9) {bank = 1 : i64} : (f32, memref<1xf32>) -> ()
        "equeue.write"(%arg6, %arg10) {bank = 0 : i64} : (f32, memref<1xf32>) -> ()
        "equeue.write"(%arg7, %arg8) {bank = 2 : i64} : (f32, memref<1xf32>) -> ()
        "equeue.return"() : () -> ()
      }) : (!equeue.signal, i32, f32, f32, f32, memref<1xf32>, memref<1xf32>, memref<1xf32>, memref<1xf32>, memref<3x3x3xf32>) -> !equeue.signal
      %315 = "equeue.control_and"(%314, %done_62) : (!equeue.signal, !equeue.signal) -> !equeue.signal
      %done_63 = "equeue.launch"(%302, %258, %res_44#0, %res_44#2, %260, %267, %123) ( {
      ^bb0(%arg5: f32, %arg6: f32, %arg7: memref<1xf32>, %arg8: memref<1xf32>, %arg9: memref<3x3x3xf32>):  // no predecessors
        "equeue.write"(%arg5, %arg8) {bank = 1 : i64} : (f32, memref<1xf32>) -> ()
        "equeue.write"(%arg6, %arg7) {bank = 2 : i64} : (f32, memref<1xf32>) -> ()
        "equeue.return"() : () -> ()
      }) : (!equeue.signal, i32, f32, f32, memref<1xf32>, memref<1xf32>, memref<3x3x3xf32>) -> !equeue.signal
      %316 = "equeue.control_and"(%315, %done_63) : (!equeue.signal, !equeue.signal) -> !equeue.signal
      %done_64 = "equeue.launch"(%302, %144, %res_6#0, %res_6#1, %res_6#2, %146, %146, %153, %175, %123) ( {
      ^bb0(%arg5: f32, %arg6: f32, %arg7: f32, %arg8: memref<1xf32>, %arg9: memref<1xf32>, %arg10: memref<1xf32>, %arg11: memref<1xf32>, %arg12: memref<3x3x3xf32>):  // no predecessors
        "equeue.write"(%arg5, %arg9) {bank = 1 : i64} : (f32, memref<1xf32>) -> ()
        "equeue.write"(%arg6, %arg10) {bank = 0 : i64} : (f32, memref<1xf32>) -> ()
        "equeue.write"(%arg7, %arg8) {bank = 2 : i64} : (f32, memref<1xf32>) -> ()
        "equeue.return"() : () -> ()
      }) : (!equeue.signal, i32, f32, f32, f32, memref<1xf32>, memref<1xf32>, memref<1xf32>, memref<1xf32>, memref<3x3x3xf32>) -> !equeue.signal
      %317 = "equeue.control_and"(%316, %done_64) : (!equeue.signal, !equeue.signal) -> !equeue.signal
      %done_65 = "equeue.launch"(%302, %174, %res_16#0, %res_16#1, %res_16#2, %176, %176, %183, %205, %123) ( {
      ^bb0(%arg5: f32, %arg6: f32, %arg7: f32, %arg8: memref<1xf32>, %arg9: memref<1xf32>, %arg10: memref<1xf32>, %arg11: memref<1xf32>, %arg12: memref<3x3x3xf32>):  // no predecessors
        "equeue.write"(%arg5, %arg9) {bank = 1 : i64} : (f32, memref<1xf32>) -> ()
        "equeue.write"(%arg6, %arg10) {bank = 0 : i64} : (f32, memref<1xf32>) -> ()
        "equeue.write"(%arg7, %arg8) {bank = 2 : i64} : (f32, memref<1xf32>) -> ()
        "equeue.return"() : () -> ()
      }) : (!equeue.signal, i32, f32, f32, f32, memref<1xf32>, memref<1xf32>, memref<1xf32>, memref<1xf32>, memref<3x3x3xf32>) -> !equeue.signal
      %318 = "equeue.control_and"(%317, %done_65) : (!equeue.signal, !equeue.signal) -> !equeue.signal
      %done_66 = "equeue.launch"(%302, %204, %res_26#0, %res_26#1, %res_26#2, %206, %206, %213, %235, %123) ( {
      ^bb0(%arg5: f32, %arg6: f32, %arg7: f32, %arg8: memref<1xf32>, %arg9: memref<1xf32>, %arg10: memref<1xf32>, %arg11: memref<1xf32>, %arg12: memref<3x3x3xf32>):  // no predecessors
        "equeue.write"(%arg5, %arg9) {bank = 1 : i64} : (f32, memref<1xf32>) -> ()
        "equeue.write"(%arg6, %arg10) {bank = 0 : i64} : (f32, memref<1xf32>) -> ()
        "equeue.write"(%arg7, %arg8) {bank = 2 : i64} : (f32, memref<1xf32>) -> ()
        "equeue.return"() : () -> ()
      }) : (!equeue.signal, i32, f32, f32, f32, memref<1xf32>, memref<1xf32>, memref<1xf32>, memref<1xf32>, memref<3x3x3xf32>) -> !equeue.signal
      %319 = "equeue.control_and"(%318, %done_66) : (!equeue.signal, !equeue.signal) -> !equeue.signal
      %done_67 = "equeue.launch"(%302, %234, %res_36#0, %res_36#1, %res_36#2, %236, %236, %243, %265, %123) ( {
      ^bb0(%arg5: f32, %arg6: f32, %arg7: f32, %arg8: memref<1xf32>, %arg9: memref<1xf32>, %arg10: memref<1xf32>, %arg11: memref<1xf32>, %arg12: memref<3x3x3xf32>):  // no predecessors
        "equeue.write"(%arg5, %arg9) {bank = 1 : i64} : (f32, memref<1xf32>) -> ()
        "equeue.write"(%arg6, %arg10) {bank = 0 : i64} : (f32, memref<1xf32>) -> ()
        "equeue.write"(%arg7, %arg8) {bank = 2 : i64} : (f32, memref<1xf32>) -> ()
        "equeue.return"() : () -> ()
      }) : (!equeue.signal, i32, f32, f32, f32, memref<1xf32>, memref<1xf32>, memref<1xf32>, memref<1xf32>, memref<3x3x3xf32>) -> !equeue.signal
      %320 = "equeue.control_and"(%319, %done_67) : (!equeue.signal, !equeue.signal) -> !equeue.signal
      %done_68 = "equeue.launch"(%302, %264, %res_46#0, %res_46#2, %266, %273, %123) ( {
      ^bb0(%arg5: f32, %arg6: f32, %arg7: memref<1xf32>, %arg8: memref<1xf32>, %arg9: memref<3x3x3xf32>):  // no predecessors
        "equeue.write"(%arg5, %arg8) {bank = 1 : i64} : (f32, memref<1xf32>) -> ()
        "equeue.write"(%arg6, %arg7) {bank = 2 : i64} : (f32, memref<1xf32>) -> ()
        "equeue.return"() : () -> ()
      }) : (!equeue.signal, i32, f32, f32, memref<1xf32>, memref<1xf32>, memref<3x3x3xf32>) -> !equeue.signal
      %321 = "equeue.control_and"(%320, %done_68) : (!equeue.signal, !equeue.signal) -> !equeue.signal
      %done_69 = "equeue.launch"(%302, %150, %res_8#1, %res_8#2, %152, %181, %123) ( {
      ^bb0(%arg5: f32, %arg6: f32, %arg7: memref<1xf32>, %arg8: memref<1xf32>, %arg9: memref<3x3x3xf32>):  // no predecessors
        "equeue.write"(%arg5, %arg8) {bank = 0 : i64} : (f32, memref<1xf32>) -> ()
        "equeue.write"(%arg6, %arg7) {bank = 2 : i64} : (f32, memref<1xf32>) -> ()
        "equeue.return"() : () -> ()
      }) : (!equeue.signal, i32, f32, f32, memref<1xf32>, memref<1xf32>, memref<3x3x3xf32>) -> !equeue.signal
      %322 = "equeue.control_and"(%321, %done_69) : (!equeue.signal, !equeue.signal) -> !equeue.signal
      %done_70 = "equeue.launch"(%302, %180, %res_18#1, %res_18#2, %182, %211, %123) ( {
      ^bb0(%arg5: f32, %arg6: f32, %arg7: memref<1xf32>, %arg8: memref<1xf32>, %arg9: memref<3x3x3xf32>):  // no predecessors
        "equeue.write"(%arg5, %arg8) {bank = 0 : i64} : (f32, memref<1xf32>) -> ()
        "equeue.write"(%arg6, %arg7) {bank = 2 : i64} : (f32, memref<1xf32>) -> ()
        "equeue.return"() : () -> ()
      }) : (!equeue.signal, i32, f32, f32, memref<1xf32>, memref<1xf32>, memref<3x3x3xf32>) -> !equeue.signal
      %323 = "equeue.control_and"(%322, %done_70) : (!equeue.signal, !equeue.signal) -> !equeue.signal
      %done_71 = "equeue.launch"(%302, %210, %res_28#1, %res_28#2, %212, %241, %123) ( {
      ^bb0(%arg5: f32, %arg6: f32, %arg7: memref<1xf32>, %arg8: memref<1xf32>, %arg9: memref<3x3x3xf32>):  // no predecessors
        "equeue.write"(%arg5, %arg8) {bank = 0 : i64} : (f32, memref<1xf32>) -> ()
        "equeue.write"(%arg6, %arg7) {bank = 2 : i64} : (f32, memref<1xf32>) -> ()
        "equeue.return"() : () -> ()
      }) : (!equeue.signal, i32, f32, f32, memref<1xf32>, memref<1xf32>, memref<3x3x3xf32>) -> !equeue.signal
      %324 = "equeue.control_and"(%323, %done_71) : (!equeue.signal, !equeue.signal) -> !equeue.signal
      %done_72 = "equeue.launch"(%302, %240, %res_38#1, %res_38#2, %242, %271, %123) ( {
      ^bb0(%arg5: f32, %arg6: f32, %arg7: memref<1xf32>, %arg8: memref<1xf32>, %arg9: memref<3x3x3xf32>):  // no predecessors
        "equeue.write"(%arg5, %arg8) {bank = 0 : i64} : (f32, memref<1xf32>) -> ()
        "equeue.write"(%arg6, %arg7) {bank = 2 : i64} : (f32, memref<1xf32>) -> ()
        "equeue.return"() : () -> ()
      }) : (!equeue.signal, i32, f32, f32, memref<1xf32>, memref<1xf32>, memref<3x3x3xf32>) -> !equeue.signal
      %325 = "equeue.control_and"(%324, %done_72) : (!equeue.signal, !equeue.signal) -> !equeue.signal
      %done_73 = "equeue.launch"(%302, %270, %res_48#2, %272, %123) ( {
      ^bb0(%arg5: f32, %arg6: memref<1xf32>, %arg7: memref<3x3x3xf32>):  // no predecessors
        "equeue.write"(%arg5, %arg6) {bank = 2 : i64} : (f32, memref<1xf32>) -> ()
        "equeue.return"() : () -> ()
      }) : (!equeue.signal, i32, f32, memref<1xf32>, memref<3x3x3xf32>) -> !equeue.signal
      %326 = "equeue.control_and"(%325, %done_73) : (!equeue.signal, !equeue.signal) -> !equeue.signal
      "equeue.await"(%326) : (!equeue.signal) -> ()
      %327 = "equeue.control_start"() : () -> !equeue.signal
      %c0_74 = constant 0 : index
      %328 = "equeue.memcpy"(%327, %122, %127, %111, %c0_74) {dest_bank = 0 : i64, src_bank = 0 : i64} : (!equeue.signal, memref<3x5x7x3xf32>, memref<1xf32>, i32, index) -> !equeue.signal
      %329 = "equeue.memcpy"(%327, %122, %133, %113, %c0_74) {dest_bank = 0 : i64, src_bank = 1 : i64} : (!equeue.signal, memref<3x5x7x3xf32>, memref<1xf32>, i32, index) -> !equeue.signal
      %330 = "equeue.control_and"(%329, %328) : (!equeue.signal, !equeue.signal) -> !equeue.signal
      %331 = "equeue.memcpy"(%327, %121, %129, %102, %c0_74) {dest_bank = 1 : i64, src_bank = 5 : i64} : (!equeue.signal, memref<5x7x7xf32>, memref<1xf32>, i32, index) -> !equeue.signal
      %332 = "equeue.memcpy"(%327, %121, %159, %104, %c0_74) {dest_bank = 1 : i64, src_bank = 6 : i64} : (!equeue.signal, memref<5x7x7xf32>, memref<1xf32>, i32, index) -> !equeue.signal
      %333 = "equeue.control_and"(%332, %331) : (!equeue.signal, !equeue.signal) -> !equeue.signal
      "equeue.await"(%333, %330) : (!equeue.signal, !equeue.signal) -> ()
      %334 = "equeue.control_start"() : () -> !equeue.signal
      %done_75, %res_76:3 = "equeue.launch"(%334, %126, %129, %127, %128) ( {
      ^bb0(%arg5: memref<1xf32>, %arg6: memref<1xf32>, %arg7: memref<1xf32>):  // no predecessors
        %6869 = "equeue.read"(%arg6) {bank = 0 : i64} : (memref<1xf32>) -> f32
        %6870 = "equeue.read"(%arg5) {bank = 1 : i64} : (memref<1xf32>) -> f32
        %6871 = mulf %6870, %6869 : f32
        %6872 = "equeue.read"(%arg7) {bank = 2 : i64} : (memref<1xf32>) -> f32
        %6873 = addf %6871, %6872 : f32
        "equeue.return"(%6870, %6869, %6873) : (f32, f32, f32) -> ()
      }) : (!equeue.signal, i32, memref<1xf32>, memref<1xf32>, memref<1xf32>) -> (!equeue.signal, f32, f32, f32)
      %done_77, %res_78:3 = "equeue.launch"(%334, %132, %135, %133, %134) ( {
      ^bb0(%arg5: memref<1xf32>, %arg6: memref<1xf32>, %arg7: memref<1xf32>):  // no predecessors
        %6869 = "equeue.read"(%arg6) {bank = 0 : i64} : (memref<1xf32>) -> f32
        %6870 = "equeue.read"(%arg5) {bank = 1 : i64} : (memref<1xf32>) -> f32
        %6871 = mulf %6870, %6869 : f32
        %6872 = "equeue.read"(%arg7) {bank = 2 : i64} : (memref<1xf32>) -> f32
        %6873 = addf %6871, %6872 : f32
        "equeue.return"(%6870, %6869, %6873) : (f32, f32, f32) -> ()
      }) : (!equeue.signal, i32, memref<1xf32>, memref<1xf32>, memref<1xf32>) -> (!equeue.signal, f32, f32, f32)
      %335 = "equeue.control_and"(%done_75, %done_77) : (!equeue.signal, !equeue.signal) -> !equeue.signal
      %done_79, %res_80:3 = "equeue.launch"(%334, %138, %141, %139, %140) ( {
      ^bb0(%arg5: memref<1xf32>, %arg6: memref<1xf32>, %arg7: memref<1xf32>):  // no predecessors
        %6869 = "equeue.read"(%arg6) {bank = 0 : i64} : (memref<1xf32>) -> f32
        %6870 = "equeue.read"(%arg5) {bank = 1 : i64} : (memref<1xf32>) -> f32
        %6871 = mulf %6870, %6869 : f32
        %6872 = "equeue.read"(%arg7) {bank = 2 : i64} : (memref<1xf32>) -> f32
        %6873 = addf %6871, %6872 : f32
        "equeue.return"(%6870, %6869, %6873) : (f32, f32, f32) -> ()
      }) : (!equeue.signal, i32, memref<1xf32>, memref<1xf32>, memref<1xf32>) -> (!equeue.signal, f32, f32, f32)
      %336 = "equeue.control_and"(%335, %done_79) : (!equeue.signal, !equeue.signal) -> !equeue.signal
      %done_81, %res_82:3 = "equeue.launch"(%334, %144, %147, %145, %146) ( {
      ^bb0(%arg5: memref<1xf32>, %arg6: memref<1xf32>, %arg7: memref<1xf32>):  // no predecessors
        %6869 = "equeue.read"(%arg6) {bank = 0 : i64} : (memref<1xf32>) -> f32
        %6870 = "equeue.read"(%arg5) {bank = 1 : i64} : (memref<1xf32>) -> f32
        %6871 = mulf %6870, %6869 : f32
        %6872 = "equeue.read"(%arg7) {bank = 2 : i64} : (memref<1xf32>) -> f32
        %6873 = addf %6871, %6872 : f32
        "equeue.return"(%6870, %6869, %6873) : (f32, f32, f32) -> ()
      }) : (!equeue.signal, i32, memref<1xf32>, memref<1xf32>, memref<1xf32>) -> (!equeue.signal, f32, f32, f32)
      %337 = "equeue.control_and"(%336, %done_81) : (!equeue.signal, !equeue.signal) -> !equeue.signal
      %done_83, %res_84:3 = "equeue.launch"(%334, %150, %153, %151, %152) ( {
      ^bb0(%arg5: memref<1xf32>, %arg6: memref<1xf32>, %arg7: memref<1xf32>):  // no predecessors
        %6869 = "equeue.read"(%arg6) {bank = 0 : i64} : (memref<1xf32>) -> f32
        %6870 = "equeue.read"(%arg5) {bank = 1 : i64} : (memref<1xf32>) -> f32
        %6871 = mulf %6870, %6869 : f32
        %6872 = "equeue.read"(%arg7) {bank = 2 : i64} : (memref<1xf32>) -> f32
        %6873 = addf %6871, %6872 : f32
        "equeue.return"(%6870, %6869, %6873) : (f32, f32, f32) -> ()
      }) : (!equeue.signal, i32, memref<1xf32>, memref<1xf32>, memref<1xf32>) -> (!equeue.signal, f32, f32, f32)
      %338 = "equeue.control_and"(%337, %done_83) : (!equeue.signal, !equeue.signal) -> !equeue.signal
      %done_85, %res_86:3 = "equeue.launch"(%334, %156, %159, %157, %158) ( {
      ^bb0(%arg5: memref<1xf32>, %arg6: memref<1xf32>, %arg7: memref<1xf32>):  // no predecessors
        %6869 = "equeue.read"(%arg6) {bank = 0 : i64} : (memref<1xf32>) -> f32
        %6870 = "equeue.read"(%arg5) {bank = 1 : i64} : (memref<1xf32>) -> f32
        %6871 = mulf %6870, %6869 : f32
        %6872 = "equeue.read"(%arg7) {bank = 2 : i64} : (memref<1xf32>) -> f32
        %6873 = addf %6871, %6872 : f32
        "equeue.return"(%6870, %6869, %6873) : (f32, f32, f32) -> ()
      }) : (!equeue.signal, i32, memref<1xf32>, memref<1xf32>, memref<1xf32>) -> (!equeue.signal, f32, f32, f32)
      %339 = "equeue.control_and"(%338, %done_85) : (!equeue.signal, !equeue.signal) -> !equeue.signal
      %done_87, %res_88:3 = "equeue.launch"(%334, %162, %165, %163, %164) ( {
      ^bb0(%arg5: memref<1xf32>, %arg6: memref<1xf32>, %arg7: memref<1xf32>):  // no predecessors
        %6869 = "equeue.read"(%arg6) {bank = 0 : i64} : (memref<1xf32>) -> f32
        %6870 = "equeue.read"(%arg5) {bank = 1 : i64} : (memref<1xf32>) -> f32
        %6871 = mulf %6870, %6869 : f32
        %6872 = "equeue.read"(%arg7) {bank = 2 : i64} : (memref<1xf32>) -> f32
        %6873 = addf %6871, %6872 : f32
        "equeue.return"(%6870, %6869, %6873) : (f32, f32, f32) -> ()
      }) : (!equeue.signal, i32, memref<1xf32>, memref<1xf32>, memref<1xf32>) -> (!equeue.signal, f32, f32, f32)
      %340 = "equeue.control_and"(%339, %done_87) : (!equeue.signal, !equeue.signal) -> !equeue.signal
      %done_89, %res_90:3 = "equeue.launch"(%334, %168, %171, %169, %170) ( {
      ^bb0(%arg5: memref<1xf32>, %arg6: memref<1xf32>, %arg7: memref<1xf32>):  // no predecessors
        %6869 = "equeue.read"(%arg6) {bank = 0 : i64} : (memref<1xf32>) -> f32
        %6870 = "equeue.read"(%arg5) {bank = 1 : i64} : (memref<1xf32>) -> f32
        %6871 = mulf %6870, %6869 : f32
        %6872 = "equeue.read"(%arg7) {bank = 2 : i64} : (memref<1xf32>) -> f32
        %6873 = addf %6871, %6872 : f32
        "equeue.return"(%6870, %6869, %6873) : (f32, f32, f32) -> ()
      }) : (!equeue.signal, i32, memref<1xf32>, memref<1xf32>, memref<1xf32>) -> (!equeue.signal, f32, f32, f32)
      %341 = "equeue.control_and"(%340, %done_89) : (!equeue.signal, !equeue.signal) -> !equeue.signal
      %done_91, %res_92:3 = "equeue.launch"(%334, %174, %177, %175, %176) ( {
      ^bb0(%arg5: memref<1xf32>, %arg6: memref<1xf32>, %arg7: memref<1xf32>):  // no predecessors
        %6869 = "equeue.read"(%arg6) {bank = 0 : i64} : (memref<1xf32>) -> f32
        %6870 = "equeue.read"(%arg5) {bank = 1 : i64} : (memref<1xf32>) -> f32
        %6871 = mulf %6870, %6869 : f32
        %6872 = "equeue.read"(%arg7) {bank = 2 : i64} : (memref<1xf32>) -> f32
        %6873 = addf %6871, %6872 : f32
        "equeue.return"(%6870, %6869, %6873) : (f32, f32, f32) -> ()
      }) : (!equeue.signal, i32, memref<1xf32>, memref<1xf32>, memref<1xf32>) -> (!equeue.signal, f32, f32, f32)
      %342 = "equeue.control_and"(%341, %done_91) : (!equeue.signal, !equeue.signal) -> !equeue.signal
      %done_93, %res_94:3 = "equeue.launch"(%334, %180, %183, %181, %182) ( {
      ^bb0(%arg5: memref<1xf32>, %arg6: memref<1xf32>, %arg7: memref<1xf32>):  // no predecessors
        %6869 = "equeue.read"(%arg6) {bank = 0 : i64} : (memref<1xf32>) -> f32
        %6870 = "equeue.read"(%arg5) {bank = 1 : i64} : (memref<1xf32>) -> f32
        %6871 = mulf %6870, %6869 : f32
        %6872 = "equeue.read"(%arg7) {bank = 2 : i64} : (memref<1xf32>) -> f32
        %6873 = addf %6871, %6872 : f32
        "equeue.return"(%6870, %6869, %6873) : (f32, f32, f32) -> ()
      }) : (!equeue.signal, i32, memref<1xf32>, memref<1xf32>, memref<1xf32>) -> (!equeue.signal, f32, f32, f32)
      %343 = "equeue.control_and"(%342, %done_93) : (!equeue.signal, !equeue.signal) -> !equeue.signal
      %done_95, %res_96:3 = "equeue.launch"(%334, %186, %189, %187, %188) ( {
      ^bb0(%arg5: memref<1xf32>, %arg6: memref<1xf32>, %arg7: memref<1xf32>):  // no predecessors
        %6869 = "equeue.read"(%arg6) {bank = 0 : i64} : (memref<1xf32>) -> f32
        %6870 = "equeue.read"(%arg5) {bank = 1 : i64} : (memref<1xf32>) -> f32
        %6871 = mulf %6870, %6869 : f32
        %6872 = "equeue.read"(%arg7) {bank = 2 : i64} : (memref<1xf32>) -> f32
        %6873 = addf %6871, %6872 : f32
        "equeue.return"(%6870, %6869, %6873) : (f32, f32, f32) -> ()
      }) : (!equeue.signal, i32, memref<1xf32>, memref<1xf32>, memref<1xf32>) -> (!equeue.signal, f32, f32, f32)
      %344 = "equeue.control_and"(%343, %done_95) : (!equeue.signal, !equeue.signal) -> !equeue.signal
      %done_97, %res_98:3 = "equeue.launch"(%334, %192, %195, %193, %194) ( {
      ^bb0(%arg5: memref<1xf32>, %arg6: memref<1xf32>, %arg7: memref<1xf32>):  // no predecessors
        %6869 = "equeue.read"(%arg6) {bank = 0 : i64} : (memref<1xf32>) -> f32
        %6870 = "equeue.read"(%arg5) {bank = 1 : i64} : (memref<1xf32>) -> f32
        %6871 = mulf %6870, %6869 : f32
        %6872 = "equeue.read"(%arg7) {bank = 2 : i64} : (memref<1xf32>) -> f32
        %6873 = addf %6871, %6872 : f32
        "equeue.return"(%6870, %6869, %6873) : (f32, f32, f32) -> ()
      }) : (!equeue.signal, i32, memref<1xf32>, memref<1xf32>, memref<1xf32>) -> (!equeue.signal, f32, f32, f32)
      %345 = "equeue.control_and"(%344, %done_97) : (!equeue.signal, !equeue.signal) -> !equeue.signal
      %done_99, %res_100:3 = "equeue.launch"(%334, %198, %201, %199, %200) ( {
      ^bb0(%arg5: memref<1xf32>, %arg6: memref<1xf32>, %arg7: memref<1xf32>):  // no predecessors
        %6869 = "equeue.read"(%arg6) {bank = 0 : i64} : (memref<1xf32>) -> f32
        %6870 = "equeue.read"(%arg5) {bank = 1 : i64} : (memref<1xf32>) -> f32
        %6871 = mulf %6870, %6869 : f32
        %6872 = "equeue.read"(%arg7) {bank = 2 : i64} : (memref<1xf32>) -> f32
        %6873 = addf %6871, %6872 : f32
        "equeue.return"(%6870, %6869, %6873) : (f32, f32, f32) -> ()
      }) : (!equeue.signal, i32, memref<1xf32>, memref<1xf32>, memref<1xf32>) -> (!equeue.signal, f32, f32, f32)
      %346 = "equeue.control_and"(%345, %done_99) : (!equeue.signal, !equeue.signal) -> !equeue.signal
      %done_101, %res_102:3 = "equeue.launch"(%334, %204, %207, %205, %206) ( {
      ^bb0(%arg5: memref<1xf32>, %arg6: memref<1xf32>, %arg7: memref<1xf32>):  // no predecessors
        %6869 = "equeue.read"(%arg6) {bank = 0 : i64} : (memref<1xf32>) -> f32
        %6870 = "equeue.read"(%arg5) {bank = 1 : i64} : (memref<1xf32>) -> f32
        %6871 = mulf %6870, %6869 : f32
        %6872 = "equeue.read"(%arg7) {bank = 2 : i64} : (memref<1xf32>) -> f32
        %6873 = addf %6871, %6872 : f32
        "equeue.return"(%6870, %6869, %6873) : (f32, f32, f32) -> ()
      }) : (!equeue.signal, i32, memref<1xf32>, memref<1xf32>, memref<1xf32>) -> (!equeue.signal, f32, f32, f32)
      %347 = "equeue.control_and"(%346, %done_101) : (!equeue.signal, !equeue.signal) -> !equeue.signal
      %done_103, %res_104:3 = "equeue.launch"(%334, %210, %213, %211, %212) ( {
      ^bb0(%arg5: memref<1xf32>, %arg6: memref<1xf32>, %arg7: memref<1xf32>):  // no predecessors
        %6869 = "equeue.read"(%arg6) {bank = 0 : i64} : (memref<1xf32>) -> f32
        %6870 = "equeue.read"(%arg5) {bank = 1 : i64} : (memref<1xf32>) -> f32
        %6871 = mulf %6870, %6869 : f32
        %6872 = "equeue.read"(%arg7) {bank = 2 : i64} : (memref<1xf32>) -> f32
        %6873 = addf %6871, %6872 : f32
        "equeue.return"(%6870, %6869, %6873) : (f32, f32, f32) -> ()
      }) : (!equeue.signal, i32, memref<1xf32>, memref<1xf32>, memref<1xf32>) -> (!equeue.signal, f32, f32, f32)
      %348 = "equeue.control_and"(%347, %done_103) : (!equeue.signal, !equeue.signal) -> !equeue.signal
      %done_105, %res_106:3 = "equeue.launch"(%334, %216, %219, %217, %218) ( {
      ^bb0(%arg5: memref<1xf32>, %arg6: memref<1xf32>, %arg7: memref<1xf32>):  // no predecessors
        %6869 = "equeue.read"(%arg6) {bank = 0 : i64} : (memref<1xf32>) -> f32
        %6870 = "equeue.read"(%arg5) {bank = 1 : i64} : (memref<1xf32>) -> f32
        %6871 = mulf %6870, %6869 : f32
        %6872 = "equeue.read"(%arg7) {bank = 2 : i64} : (memref<1xf32>) -> f32
        %6873 = addf %6871, %6872 : f32
        "equeue.return"(%6870, %6869, %6873) : (f32, f32, f32) -> ()
      }) : (!equeue.signal, i32, memref<1xf32>, memref<1xf32>, memref<1xf32>) -> (!equeue.signal, f32, f32, f32)
      %349 = "equeue.control_and"(%348, %done_105) : (!equeue.signal, !equeue.signal) -> !equeue.signal
      %done_107, %res_108:3 = "equeue.launch"(%334, %222, %225, %223, %224) ( {
      ^bb0(%arg5: memref<1xf32>, %arg6: memref<1xf32>, %arg7: memref<1xf32>):  // no predecessors
        %6869 = "equeue.read"(%arg6) {bank = 0 : i64} : (memref<1xf32>) -> f32
        %6870 = "equeue.read"(%arg5) {bank = 1 : i64} : (memref<1xf32>) -> f32
        %6871 = mulf %6870, %6869 : f32
        %6872 = "equeue.read"(%arg7) {bank = 2 : i64} : (memref<1xf32>) -> f32
        %6873 = addf %6871, %6872 : f32
        "equeue.return"(%6870, %6869, %6873) : (f32, f32, f32) -> ()
      }) : (!equeue.signal, i32, memref<1xf32>, memref<1xf32>, memref<1xf32>) -> (!equeue.signal, f32, f32, f32)
      %350 = "equeue.control_and"(%349, %done_107) : (!equeue.signal, !equeue.signal) -> !equeue.signal
      %done_109, %res_110:3 = "equeue.launch"(%334, %228, %231, %229, %230) ( {
      ^bb0(%arg5: memref<1xf32>, %arg6: memref<1xf32>, %arg7: memref<1xf32>):  // no predecessors
        %6869 = "equeue.read"(%arg6) {bank = 0 : i64} : (memref<1xf32>) -> f32
        %6870 = "equeue.read"(%arg5) {bank = 1 : i64} : (memref<1xf32>) -> f32
        %6871 = mulf %6870, %6869 : f32
        %6872 = "equeue.read"(%arg7) {bank = 2 : i64} : (memref<1xf32>) -> f32
        %6873 = addf %6871, %6872 : f32
        "equeue.return"(%6870, %6869, %6873) : (f32, f32, f32) -> ()
      }) : (!equeue.signal, i32, memref<1xf32>, memref<1xf32>, memref<1xf32>) -> (!equeue.signal, f32, f32, f32)
      %351 = "equeue.control_and"(%350, %done_109) : (!equeue.signal, !equeue.signal) -> !equeue.signal
      %done_111, %res_112:3 = "equeue.launch"(%334, %234, %237, %235, %236) ( {
      ^bb0(%arg5: memref<1xf32>, %arg6: memref<1xf32>, %arg7: memref<1xf32>):  // no predecessors
        %6869 = "equeue.read"(%arg6) {bank = 0 : i64} : (memref<1xf32>) -> f32
        %6870 = "equeue.read"(%arg5) {bank = 1 : i64} : (memref<1xf32>) -> f32
        %6871 = mulf %6870, %6869 : f32
        %6872 = "equeue.read"(%arg7) {bank = 2 : i64} : (memref<1xf32>) -> f32
        %6873 = addf %6871, %6872 : f32
        "equeue.return"(%6870, %6869, %6873) : (f32, f32, f32) -> ()
      }) : (!equeue.signal, i32, memref<1xf32>, memref<1xf32>, memref<1xf32>) -> (!equeue.signal, f32, f32, f32)
      %352 = "equeue.control_and"(%351, %done_111) : (!equeue.signal, !equeue.signal) -> !equeue.signal
      %done_113, %res_114:3 = "equeue.launch"(%334, %240, %243, %241, %242) ( {
      ^bb0(%arg5: memref<1xf32>, %arg6: memref<1xf32>, %arg7: memref<1xf32>):  // no predecessors
        %6869 = "equeue.read"(%arg6) {bank = 0 : i64} : (memref<1xf32>) -> f32
        %6870 = "equeue.read"(%arg5) {bank = 1 : i64} : (memref<1xf32>) -> f32
        %6871 = mulf %6870, %6869 : f32
        %6872 = "equeue.read"(%arg7) {bank = 2 : i64} : (memref<1xf32>) -> f32
        %6873 = addf %6871, %6872 : f32
        "equeue.return"(%6870, %6869, %6873) : (f32, f32, f32) -> ()
      }) : (!equeue.signal, i32, memref<1xf32>, memref<1xf32>, memref<1xf32>) -> (!equeue.signal, f32, f32, f32)
      %353 = "equeue.control_and"(%352, %done_113) : (!equeue.signal, !equeue.signal) -> !equeue.signal
      %done_115, %res_116:3 = "equeue.launch"(%334, %246, %249, %247, %248) ( {
      ^bb0(%arg5: memref<1xf32>, %arg6: memref<1xf32>, %arg7: memref<1xf32>):  // no predecessors
        %6869 = "equeue.read"(%arg6) {bank = 0 : i64} : (memref<1xf32>) -> f32
        %6870 = "equeue.read"(%arg5) {bank = 1 : i64} : (memref<1xf32>) -> f32
        %6871 = mulf %6870, %6869 : f32
        %6872 = "equeue.read"(%arg7) {bank = 2 : i64} : (memref<1xf32>) -> f32
        %6873 = addf %6871, %6872 : f32
        "equeue.return"(%6870, %6869, %6873) : (f32, f32, f32) -> ()
      }) : (!equeue.signal, i32, memref<1xf32>, memref<1xf32>, memref<1xf32>) -> (!equeue.signal, f32, f32, f32)
      %354 = "equeue.control_and"(%353, %done_115) : (!equeue.signal, !equeue.signal) -> !equeue.signal
      %done_117, %res_118:3 = "equeue.launch"(%334, %252, %255, %253, %254) ( {
      ^bb0(%arg5: memref<1xf32>, %arg6: memref<1xf32>, %arg7: memref<1xf32>):  // no predecessors
        %6869 = "equeue.read"(%arg6) {bank = 0 : i64} : (memref<1xf32>) -> f32
        %6870 = "equeue.read"(%arg5) {bank = 1 : i64} : (memref<1xf32>) -> f32
        %6871 = mulf %6870, %6869 : f32
        %6872 = "equeue.read"(%arg7) {bank = 2 : i64} : (memref<1xf32>) -> f32
        %6873 = addf %6871, %6872 : f32
        "equeue.return"(%6870, %6869, %6873) : (f32, f32, f32) -> ()
      }) : (!equeue.signal, i32, memref<1xf32>, memref<1xf32>, memref<1xf32>) -> (!equeue.signal, f32, f32, f32)
      %355 = "equeue.control_and"(%354, %done_117) : (!equeue.signal, !equeue.signal) -> !equeue.signal
      %done_119, %res_120:3 = "equeue.launch"(%334, %258, %261, %259, %260) ( {
      ^bb0(%arg5: memref<1xf32>, %arg6: memref<1xf32>, %arg7: memref<1xf32>):  // no predecessors
        %6869 = "equeue.read"(%arg6) {bank = 0 : i64} : (memref<1xf32>) -> f32
        %6870 = "equeue.read"(%arg5) {bank = 1 : i64} : (memref<1xf32>) -> f32
        %6871 = mulf %6870, %6869 : f32
        %6872 = "equeue.read"(%arg7) {bank = 2 : i64} : (memref<1xf32>) -> f32
        %6873 = addf %6871, %6872 : f32
        "equeue.return"(%6870, %6869, %6873) : (f32, f32, f32) -> ()
      }) : (!equeue.signal, i32, memref<1xf32>, memref<1xf32>, memref<1xf32>) -> (!equeue.signal, f32, f32, f32)
      %356 = "equeue.control_and"(%355, %done_119) : (!equeue.signal, !equeue.signal) -> !equeue.signal
      %done_121, %res_122:3 = "equeue.launch"(%334, %264, %267, %265, %266) ( {
      ^bb0(%arg5: memref<1xf32>, %arg6: memref<1xf32>, %arg7: memref<1xf32>):  // no predecessors
        %6869 = "equeue.read"(%arg6) {bank = 0 : i64} : (memref<1xf32>) -> f32
        %6870 = "equeue.read"(%arg5) {bank = 1 : i64} : (memref<1xf32>) -> f32
        %6871 = mulf %6870, %6869 : f32
        %6872 = "equeue.read"(%arg7) {bank = 2 : i64} : (memref<1xf32>) -> f32
        %6873 = addf %6871, %6872 : f32
        "equeue.return"(%6870, %6869, %6873) : (f32, f32, f32) -> ()
      }) : (!equeue.signal, i32, memref<1xf32>, memref<1xf32>, memref<1xf32>) -> (!equeue.signal, f32, f32, f32)
      %357 = "equeue.control_and"(%356, %done_121) : (!equeue.signal, !equeue.signal) -> !equeue.signal
      %done_123, %res_124:3 = "equeue.launch"(%334, %270, %273, %271, %272) ( {
      ^bb0(%arg5: memref<1xf32>, %arg6: memref<1xf32>, %arg7: memref<1xf32>):  // no predecessors
        %6869 = "equeue.read"(%arg6) {bank = 0 : i64} : (memref<1xf32>) -> f32
        %6870 = "equeue.read"(%arg5) {bank = 1 : i64} : (memref<1xf32>) -> f32
        %6871 = mulf %6870, %6869 : f32
        %6872 = "equeue.read"(%arg7) {bank = 2 : i64} : (memref<1xf32>) -> f32
        %6873 = addf %6871, %6872 : f32
        "equeue.return"(%6870, %6869, %6873) : (f32, f32, f32) -> ()
      }) : (!equeue.signal, i32, memref<1xf32>, memref<1xf32>, memref<1xf32>) -> (!equeue.signal, f32, f32, f32)
      %358 = "equeue.control_and"(%357, %done_123) : (!equeue.signal, !equeue.signal) -> !equeue.signal
      "equeue.await"(%358) : (!equeue.signal) -> ()
      %359 = "equeue.control_start"() : () -> !equeue.signal
      %done_125 = "equeue.launch"(%359, %126, %res_76#0, %res_76#1, %res_76#2, %128, %128, %135, %157, %123) ( {
      ^bb0(%arg5: f32, %arg6: f32, %arg7: f32, %arg8: memref<1xf32>, %arg9: memref<1xf32>, %arg10: memref<1xf32>, %arg11: memref<1xf32>, %arg12: memref<3x3x3xf32>):  // no predecessors
        "equeue.write"(%arg5, %arg9) {bank = 1 : i64} : (f32, memref<1xf32>) -> ()
        "equeue.write"(%arg6, %arg10) {bank = 0 : i64} : (f32, memref<1xf32>) -> ()
        "equeue.write"(%arg7, %arg8) {bank = 2 : i64} : (f32, memref<1xf32>) -> ()
        "equeue.return"() : () -> ()
      }) : (!equeue.signal, i32, f32, f32, f32, memref<1xf32>, memref<1xf32>, memref<1xf32>, memref<1xf32>, memref<3x3x3xf32>) -> !equeue.signal
      %done_126 = "equeue.launch"(%359, %156, %res_86#0, %res_86#1, %res_86#2, %158, %158, %165, %187, %123) ( {
      ^bb0(%arg5: f32, %arg6: f32, %arg7: f32, %arg8: memref<1xf32>, %arg9: memref<1xf32>, %arg10: memref<1xf32>, %arg11: memref<1xf32>, %arg12: memref<3x3x3xf32>):  // no predecessors
        "equeue.write"(%arg5, %arg9) {bank = 1 : i64} : (f32, memref<1xf32>) -> ()
        "equeue.write"(%arg6, %arg10) {bank = 0 : i64} : (f32, memref<1xf32>) -> ()
        "equeue.write"(%arg7, %arg8) {bank = 2 : i64} : (f32, memref<1xf32>) -> ()
        "equeue.return"() : () -> ()
      }) : (!equeue.signal, i32, f32, f32, f32, memref<1xf32>, memref<1xf32>, memref<1xf32>, memref<1xf32>, memref<3x3x3xf32>) -> !equeue.signal
      %360 = "equeue.control_and"(%done_125, %done_126) : (!equeue.signal, !equeue.signal) -> !equeue.signal
      %done_127 = "equeue.launch"(%359, %186, %res_96#0, %res_96#1, %res_96#2, %188, %188, %195, %217, %123) ( {
      ^bb0(%arg5: f32, %arg6: f32, %arg7: f32, %arg8: memref<1xf32>, %arg9: memref<1xf32>, %arg10: memref<1xf32>, %arg11: memref<1xf32>, %arg12: memref<3x3x3xf32>):  // no predecessors
        "equeue.write"(%arg5, %arg9) {bank = 1 : i64} : (f32, memref<1xf32>) -> ()
        "equeue.write"(%arg6, %arg10) {bank = 0 : i64} : (f32, memref<1xf32>) -> ()
        "equeue.write"(%arg7, %arg8) {bank = 2 : i64} : (f32, memref<1xf32>) -> ()
        "equeue.return"() : () -> ()
      }) : (!equeue.signal, i32, f32, f32, f32, memref<1xf32>, memref<1xf32>, memref<1xf32>, memref<1xf32>, memref<3x3x3xf32>) -> !equeue.signal
      %361 = "equeue.control_and"(%360, %done_127) : (!equeue.signal, !equeue.signal) -> !equeue.signal
      %done_128 = "equeue.launch"(%359, %216, %res_106#0, %res_106#1, %res_106#2, %218, %218, %225, %247, %123) ( {
      ^bb0(%arg5: f32, %arg6: f32, %arg7: f32, %arg8: memref<1xf32>, %arg9: memref<1xf32>, %arg10: memref<1xf32>, %arg11: memref<1xf32>, %arg12: memref<3x3x3xf32>):  // no predecessors
        "equeue.write"(%arg5, %arg9) {bank = 1 : i64} : (f32, memref<1xf32>) -> ()
        "equeue.write"(%arg6, %arg10) {bank = 0 : i64} : (f32, memref<1xf32>) -> ()
        "equeue.write"(%arg7, %arg8) {bank = 2 : i64} : (f32, memref<1xf32>) -> ()
        "equeue.return"() : () -> ()
      }) : (!equeue.signal, i32, f32, f32, f32, memref<1xf32>, memref<1xf32>, memref<1xf32>, memref<1xf32>, memref<3x3x3xf32>) -> !equeue.signal
      %362 = "equeue.control_and"(%361, %done_128) : (!equeue.signal, !equeue.signal) -> !equeue.signal
      %done_129 = "equeue.launch"(%359, %246, %res_116#0, %res_116#2, %248, %255, %123) ( {
      ^bb0(%arg5: f32, %arg6: f32, %arg7: memref<1xf32>, %arg8: memref<1xf32>, %arg9: memref<3x3x3xf32>):  // no predecessors
        "equeue.write"(%arg5, %arg8) {bank = 1 : i64} : (f32, memref<1xf32>) -> ()
        "equeue.write"(%arg6, %arg7) {bank = 2 : i64} : (f32, memref<1xf32>) -> ()
        "equeue.return"() : () -> ()
      }) : (!equeue.signal, i32, f32, f32, memref<1xf32>, memref<1xf32>, memref<3x3x3xf32>) -> !equeue.signal
      %363 = "equeue.control_and"(%362, %done_129) : (!equeue.signal, !equeue.signal) -> !equeue.signal
      %done_130 = "equeue.launch"(%359, %132, %res_78#0, %res_78#1, %res_78#2, %134, %134, %141, %163, %123) ( {
      ^bb0(%arg5: f32, %arg6: f32, %arg7: f32, %arg8: memref<1xf32>, %arg9: memref<1xf32>, %arg10: memref<1xf32>, %arg11: memref<1xf32>, %arg12: memref<3x3x3xf32>):  // no predecessors
        "equeue.write"(%arg5, %arg9) {bank = 1 : i64} : (f32, memref<1xf32>) -> ()
        "equeue.write"(%arg6, %arg10) {bank = 0 : i64} : (f32, memref<1xf32>) -> ()
        "equeue.write"(%arg7, %arg8) {bank = 2 : i64} : (f32, memref<1xf32>) -> ()
        "equeue.return"() : () -> ()
      }) : (!equeue.signal, i32, f32, f32, f32, memref<1xf32>, memref<1xf32>, memref<1xf32>, memref<1xf32>, memref<3x3x3xf32>) -> !equeue.signal
      %364 = "equeue.control_and"(%363, %done_130) : (!equeue.signal, !equeue.signal) -> !equeue.signal
      %done_131 = "equeue.launch"(%359, %162, %res_88#0, %res_88#1, %res_88#2, %164, %164, %171, %193, %123) ( {
      ^bb0(%arg5: f32, %arg6: f32, %arg7: f32, %arg8: memref<1xf32>, %arg9: memref<1xf32>, %arg10: memref<1xf32>, %arg11: memref<1xf32>, %arg12: memref<3x3x3xf32>):  // no predecessors
        "equeue.write"(%arg5, %arg9) {bank = 1 : i64} : (f32, memref<1xf32>) -> ()
        "equeue.write"(%arg6, %arg10) {bank = 0 : i64} : (f32, memref<1xf32>) -> ()
        "equeue.write"(%arg7, %arg8) {bank = 2 : i64} : (f32, memref<1xf32>) -> ()
        "equeue.return"() : () -> ()
      }) : (!equeue.signal, i32, f32, f32, f32, memref<1xf32>, memref<1xf32>, memref<1xf32>, memref<1xf32>, memref<3x3x3xf32>) -> !equeue.signal
      %365 = "equeue.control_and"(%364, %done_131) : (!equeue.signal, !equeue.signal) -> !equeue.signal
      %done_132 = "equeue.launch"(%359, %192, %res_98#0, %res_98#1, %res_98#2, %194, %194, %201, %223, %123) ( {
      ^bb0(%arg5: f32, %arg6: f32, %arg7: f32, %arg8: memref<1xf32>, %arg9: memref<1xf32>, %arg10: memref<1xf32>, %arg11: memref<1xf32>, %arg12: memref<3x3x3xf32>):  // no predecessors
        "equeue.write"(%arg5, %arg9) {bank = 1 : i64} : (f32, memref<1xf32>) -> ()
        "equeue.write"(%arg6, %arg10) {bank = 0 : i64} : (f32, memref<1xf32>) -> ()
        "equeue.write"(%arg7, %arg8) {bank = 2 : i64} : (f32, memref<1xf32>) -> ()
        "equeue.return"() : () -> ()
      }) : (!equeue.signal, i32, f32, f32, f32, memref<1xf32>, memref<1xf32>, memref<1xf32>, memref<1xf32>, memref<3x3x3xf32>) -> !equeue.signal
      %366 = "equeue.control_and"(%365, %done_132) : (!equeue.signal, !equeue.signal) -> !equeue.signal
      %done_133 = "equeue.launch"(%359, %222, %res_108#0, %res_108#1, %res_108#2, %224, %224, %231, %253, %123) ( {
      ^bb0(%arg5: f32, %arg6: f32, %arg7: f32, %arg8: memref<1xf32>, %arg9: memref<1xf32>, %arg10: memref<1xf32>, %arg11: memref<1xf32>, %arg12: memref<3x3x3xf32>):  // no predecessors
        "equeue.write"(%arg5, %arg9) {bank = 1 : i64} : (f32, memref<1xf32>) -> ()
        "equeue.write"(%arg6, %arg10) {bank = 0 : i64} : (f32, memref<1xf32>) -> ()
        "equeue.write"(%arg7, %arg8) {bank = 2 : i64} : (f32, memref<1xf32>) -> ()
        "equeue.return"() : () -> ()
      }) : (!equeue.signal, i32, f32, f32, f32, memref<1xf32>, memref<1xf32>, memref<1xf32>, memref<1xf32>, memref<3x3x3xf32>) -> !equeue.signal
      %367 = "equeue.control_and"(%366, %done_133) : (!equeue.signal, !equeue.signal) -> !equeue.signal
      %done_134 = "equeue.launch"(%359, %252, %res_118#0, %res_118#2, %254, %261, %123) ( {
      ^bb0(%arg5: f32, %arg6: f32, %arg7: memref<1xf32>, %arg8: memref<1xf32>, %arg9: memref<3x3x3xf32>):  // no predecessors
        "equeue.write"(%arg5, %arg8) {bank = 1 : i64} : (f32, memref<1xf32>) -> ()
        "equeue.write"(%arg6, %arg7) {bank = 2 : i64} : (f32, memref<1xf32>) -> ()
        "equeue.return"() : () -> ()
      }) : (!equeue.signal, i32, f32, f32, memref<1xf32>, memref<1xf32>, memref<3x3x3xf32>) -> !equeue.signal
      %368 = "equeue.control_and"(%367, %done_134) : (!equeue.signal, !equeue.signal) -> !equeue.signal
      %done_135 = "equeue.launch"(%359, %138, %res_80#0, %res_80#1, %res_80#2, %140, %140, %147, %169, %123) ( {
      ^bb0(%arg5: f32, %arg6: f32, %arg7: f32, %arg8: memref<1xf32>, %arg9: memref<1xf32>, %arg10: memref<1xf32>, %arg11: memref<1xf32>, %arg12: memref<3x3x3xf32>):  // no predecessors
        "equeue.write"(%arg5, %arg9) {bank = 1 : i64} : (f32, memref<1xf32>) -> ()
        "equeue.write"(%arg6, %arg10) {bank = 0 : i64} : (f32, memref<1xf32>) -> ()
        "equeue.write"(%arg7, %arg8) {bank = 2 : i64} : (f32, memref<1xf32>) -> ()
        "equeue.return"() : () -> ()
      }) : (!equeue.signal, i32, f32, f32, f32, memref<1xf32>, memref<1xf32>, memref<1xf32>, memref<1xf32>, memref<3x3x3xf32>) -> !equeue.signal
      %369 = "equeue.control_and"(%368, %done_135) : (!equeue.signal, !equeue.signal) -> !equeue.signal
      %done_136 = "equeue.launch"(%359, %168, %res_90#0, %res_90#1, %res_90#2, %170, %170, %177, %199, %123) ( {
      ^bb0(%arg5: f32, %arg6: f32, %arg7: f32, %arg8: memref<1xf32>, %arg9: memref<1xf32>, %arg10: memref<1xf32>, %arg11: memref<1xf32>, %arg12: memref<3x3x3xf32>):  // no predecessors
        "equeue.write"(%arg5, %arg9) {bank = 1 : i64} : (f32, memref<1xf32>) -> ()
        "equeue.write"(%arg6, %arg10) {bank = 0 : i64} : (f32, memref<1xf32>) -> ()
        "equeue.write"(%arg7, %arg8) {bank = 2 : i64} : (f32, memref<1xf32>) -> ()
        "equeue.return"() : () -> ()
      }) : (!equeue.signal, i32, f32, f32, f32, memref<1xf32>, memref<1xf32>, memref<1xf32>, memref<1xf32>, memref<3x3x3xf32>) -> !equeue.signal
      %370 = "equeue.control_and"(%369, %done_136) : (!equeue.signal, !equeue.signal) -> !equeue.signal
      %done_137 = "equeue.launch"(%359, %198, %res_100#0, %res_100#1, %res_100#2, %200, %200, %207, %229, %123) ( {
      ^bb0(%arg5: f32, %arg6: f32, %arg7: f32, %arg8: memref<1xf32>, %arg9: memref<1xf32>, %arg10: memref<1xf32>, %arg11: memref<1xf32>, %arg12: memref<3x3x3xf32>):  // no predecessors
        "equeue.write"(%arg5, %arg9) {bank = 1 : i64} : (f32, memref<1xf32>) -> ()
        "equeue.write"(%arg6, %arg10) {bank = 0 : i64} : (f32, memref<1xf32>) -> ()
        "equeue.write"(%arg7, %arg8) {bank = 2 : i64} : (f32, memref<1xf32>) -> ()
        "equeue.return"() : () -> ()
      }) : (!equeue.signal, i32, f32, f32, f32, memref<1xf32>, memref<1xf32>, memref<1xf32>, memref<1xf32>, memref<3x3x3xf32>) -> !equeue.signal
      %371 = "equeue.control_and"(%370, %done_137) : (!equeue.signal, !equeue.signal) -> !equeue.signal
      %done_138 = "equeue.launch"(%359, %228, %res_110#0, %res_110#1, %res_110#2, %230, %230, %237, %259, %123) ( {
      ^bb0(%arg5: f32, %arg6: f32, %arg7: f32, %arg8: memref<1xf32>, %arg9: memref<1xf32>, %arg10: memref<1xf32>, %arg11: memref<1xf32>, %arg12: memref<3x3x3xf32>):  // no predecessors
        "equeue.write"(%arg5, %arg9) {bank = 1 : i64} : (f32, memref<1xf32>) -> ()
        "equeue.write"(%arg6, %arg10) {bank = 0 : i64} : (f32, memref<1xf32>) -> ()
        "equeue.write"(%arg7, %arg8) {bank = 2 : i64} : (f32, memref<1xf32>) -> ()
        "equeue.return"() : () -> ()
      }) : (!equeue.signal, i32, f32, f32, f32, memref<1xf32>, memref<1xf32>, memref<1xf32>, memref<1xf32>, memref<3x3x3xf32>) -> !equeue.signal
      %372 = "equeue.control_and"(%371, %done_138) : (!equeue.signal, !equeue.signal) -> !equeue.signal
      %done_139 = "equeue.launch"(%359, %258, %res_120#0, %res_120#2, %260, %267, %123) ( {
      ^bb0(%arg5: f32, %arg6: f32, %arg7: memref<1xf32>, %arg8: memref<1xf32>, %arg9: memref<3x3x3xf32>):  // no predecessors
        "equeue.write"(%arg5, %arg8) {bank = 1 : i64} : (f32, memref<1xf32>) -> ()
        "equeue.write"(%arg6, %arg7) {bank = 2 : i64} : (f32, memref<1xf32>) -> ()
        "equeue.return"() : () -> ()
      }) : (!equeue.signal, i32, f32, f32, memref<1xf32>, memref<1xf32>, memref<3x3x3xf32>) -> !equeue.signal
      %373 = "equeue.control_and"(%372, %done_139) : (!equeue.signal, !equeue.signal) -> !equeue.signal
      %done_140 = "equeue.launch"(%359, %144, %res_82#0, %res_82#1, %res_82#2, %146, %146, %153, %175, %123) ( {
      ^bb0(%arg5: f32, %arg6: f32, %arg7: f32, %arg8: memref<1xf32>, %arg9: memref<1xf32>, %arg10: memref<1xf32>, %arg11: memref<1xf32>, %arg12: memref<3x3x3xf32>):  // no predecessors
        "equeue.write"(%arg5, %arg9) {bank = 1 : i64} : (f32, memref<1xf32>) -> ()
        "equeue.write"(%arg6, %arg10) {bank = 0 : i64} : (f32, memref<1xf32>) -> ()
        "equeue.write"(%arg7, %arg8) {bank = 2 : i64} : (f32, memref<1xf32>) -> ()
        "equeue.return"() : () -> ()
      }) : (!equeue.signal, i32, f32, f32, f32, memref<1xf32>, memref<1xf32>, memref<1xf32>, memref<1xf32>, memref<3x3x3xf32>) -> !equeue.signal
      %374 = "equeue.control_and"(%373, %done_140) : (!equeue.signal, !equeue.signal) -> !equeue.signal
      %done_141 = "equeue.launch"(%359, %174, %res_92#0, %res_92#1, %res_92#2, %176, %176, %183, %205, %123) ( {
      ^bb0(%arg5: f32, %arg6: f32, %arg7: f32, %arg8: memref<1xf32>, %arg9: memref<1xf32>, %arg10: memref<1xf32>, %arg11: memref<1xf32>, %arg12: memref<3x3x3xf32>):  // no predecessors
        "equeue.write"(%arg5, %arg9) {bank = 1 : i64} : (f32, memref<1xf32>) -> ()
        "equeue.write"(%arg6, %arg10) {bank = 0 : i64} : (f32, memref<1xf32>) -> ()
        "equeue.write"(%arg7, %arg8) {bank = 2 : i64} : (f32, memref<1xf32>) -> ()
        "equeue.return"() : () -> ()
      }) : (!equeue.signal, i32, f32, f32, f32, memref<1xf32>, memref<1xf32>, memref<1xf32>, memref<1xf32>, memref<3x3x3xf32>) -> !equeue.signal
      %375 = "equeue.control_and"(%374, %done_141) : (!equeue.signal, !equeue.signal) -> !equeue.signal
      %done_142 = "equeue.launch"(%359, %204, %res_102#0, %res_102#1, %res_102#2, %206, %206, %213, %235, %123) ( {
      ^bb0(%arg5: f32, %arg6: f32, %arg7: f32, %arg8: memref<1xf32>, %arg9: memref<1xf32>, %arg10: memref<1xf32>, %arg11: memref<1xf32>, %arg12: memref<3x3x3xf32>):  // no predecessors
        "equeue.write"(%arg5, %arg9) {bank = 1 : i64} : (f32, memref<1xf32>) -> ()
        "equeue.write"(%arg6, %arg10) {bank = 0 : i64} : (f32, memref<1xf32>) -> ()
        "equeue.write"(%arg7, %arg8) {bank = 2 : i64} : (f32, memref<1xf32>) -> ()
        "equeue.return"() : () -> ()
      }) : (!equeue.signal, i32, f32, f32, f32, memref<1xf32>, memref<1xf32>, memref<1xf32>, memref<1xf32>, memref<3x3x3xf32>) -> !equeue.signal
      %376 = "equeue.control_and"(%375, %done_142) : (!equeue.signal, !equeue.signal) -> !equeue.signal
      %done_143 = "equeue.launch"(%359, %234, %res_112#0, %res_112#1, %res_112#2, %236, %236, %243, %265, %123) ( {
      ^bb0(%arg5: f32, %arg6: f32, %arg7: f32, %arg8: memref<1xf32>, %arg9: memref<1xf32>, %arg10: memref<1xf32>, %arg11: memref<1xf32>, %arg12: memref<3x3x3xf32>):  // no predecessors
        "equeue.write"(%arg5, %arg9) {bank = 1 : i64} : (f32, memref<1xf32>) -> ()
        "equeue.write"(%arg6, %arg10) {bank = 0 : i64} : (f32, memref<1xf32>) -> ()
        "equeue.write"(%arg7, %arg8) {bank = 2 : i64} : (f32, memref<1xf32>) -> ()
        "equeue.return"() : () -> ()
      }) : (!equeue.signal, i32, f32, f32, f32, memref<1xf32>, memref<1xf32>, memref<1xf32>, memref<1xf32>, memref<3x3x3xf32>) -> !equeue.signal
      %377 = "equeue.control_and"(%376, %done_143) : (!equeue.signal, !equeue.signal) -> !equeue.signal
      %done_144 = "equeue.launch"(%359, %264, %res_122#0, %res_122#2, %266, %273, %123) ( {
      ^bb0(%arg5: f32, %arg6: f32, %arg7: memref<1xf32>, %arg8: memref<1xf32>, %arg9: memref<3x3x3xf32>):  // no predecessors
        "equeue.write"(%arg5, %arg8) {bank = 1 : i64} : (f32, memref<1xf32>) -> ()
        "equeue.write"(%arg6, %arg7) {bank = 2 : i64} : (f32, memref<1xf32>) -> ()
        "equeue.return"() : () -> ()
      }) : (!equeue.signal, i32, f32, f32, memref<1xf32>, memref<1xf32>, memref<3x3x3xf32>) -> !equeue.signal
      %378 = "equeue.control_and"(%377, %done_144) : (!equeue.signal, !equeue.signal) -> !equeue.signal
      %done_145 = "equeue.launch"(%359, %150, %res_84#1, %res_84#2, %152, %181, %123) ( {
      ^bb0(%arg5: f32, %arg6: f32, %arg7: memref<1xf32>, %arg8: memref<1xf32>, %arg9: memref<3x3x3xf32>):  // no predecessors
        "equeue.write"(%arg5, %arg8) {bank = 0 : i64} : (f32, memref<1xf32>) -> ()
        "equeue.write"(%arg6, %arg7) {bank = 2 : i64} : (f32, memref<1xf32>) -> ()
        "equeue.return"() : () -> ()
      }) : (!equeue.signal, i32, f32, f32, memref<1xf32>, memref<1xf32>, memref<3x3x3xf32>) -> !equeue.signal
      %379 = "equeue.control_and"(%378, %done_145) : (!equeue.signal, !equeue.signal) -> !equeue.signal
      %done_146 = "equeue.launch"(%359, %180, %res_94#1, %res_94#2, %182, %211, %123) ( {
      ^bb0(%arg5: f32, %arg6: f32, %arg7: memref<1xf32>, %arg8: memref<1xf32>, %arg9: memref<3x3x3xf32>):  // no predecessors
        "equeue.write"(%arg5, %arg8) {bank = 0 : i64} : (f32, memref<1xf32>) -> ()
        "equeue.write"(%arg6, %arg7) {bank = 2 : i64} : (f32, memref<1xf32>) -> ()
        "equeue.return"() : () -> ()
      }) : (!equeue.signal, i32, f32, f32, memref<1xf32>, memref<1xf32>, memref<3x3x3xf32>) -> !equeue.signal
      %380 = "equeue.control_and"(%379, %done_146) : (!equeue.signal, !equeue.signal) -> !equeue.signal
      %done_147 = "equeue.launch"(%359, %210, %res_104#1, %res_104#2, %212, %241, %123) ( {
      ^bb0(%arg5: f32, %arg6: f32, %arg7: memref<1xf32>, %arg8: memref<1xf32>, %arg9: memref<3x3x3xf32>):  // no predecessors
        "equeue.write"(%arg5, %arg8) {bank = 0 : i64} : (f32, memref<1xf32>) -> ()
        "equeue.write"(%arg6, %arg7) {bank = 2 : i64} : (f32, memref<1xf32>) -> ()
        "equeue.return"() : () -> ()
      }) : (!equeue.signal, i32, f32, f32, memref<1xf32>, memref<1xf32>, memref<3x3x3xf32>) -> !equeue.signal
      %381 = "equeue.control_and"(%380, %done_147) : (!equeue.signal, !equeue.signal) -> !equeue.signal
      %done_148 = "equeue.launch"(%359, %240, %res_114#1, %res_114#2, %242, %271, %123) ( {
      ^bb0(%arg5: f32, %arg6: f32, %arg7: memref<1xf32>, %arg8: memref<1xf32>, %arg9: memref<3x3x3xf32>):  // no predecessors
        "equeue.write"(%arg5, %arg8) {bank = 0 : i64} : (f32, memref<1xf32>) -> ()
        "equeue.write"(%arg6, %arg7) {bank = 2 : i64} : (f32, memref<1xf32>) -> ()
        "equeue.return"() : () -> ()
      }) : (!equeue.signal, i32, f32, f32, memref<1xf32>, memref<1xf32>, memref<3x3x3xf32>) -> !equeue.signal
      %382 = "equeue.control_and"(%381, %done_148) : (!equeue.signal, !equeue.signal) -> !equeue.signal
      %done_149 = "equeue.launch"(%359, %270, %res_124#2, %272, %123) ( {
      ^bb0(%arg5: f32, %arg6: memref<1xf32>, %arg7: memref<3x3x3xf32>):  // no predecessors
        "equeue.write"(%arg5, %arg6) {bank = 2 : i64} : (f32, memref<1xf32>) -> ()
        "equeue.return"() : () -> ()
      }) : (!equeue.signal, i32, f32, memref<1xf32>, memref<3x3x3xf32>) -> !equeue.signal
      %383 = "equeue.control_and"(%382, %done_149) : (!equeue.signal, !equeue.signal) -> !equeue.signal
      "equeue.await"(%383) : (!equeue.signal) -> ()
      %384 = "equeue.control_start"() : () -> !equeue.signal
      %c0_150 = constant 0 : index
      %385 = "equeue.memcpy"(%384, %122, %127, %111, %c0_150) {dest_bank = 0 : i64, src_bank = 0 : i64} : (!equeue.signal, memref<3x5x7x3xf32>, memref<1xf32>, i32, index) -> !equeue.signal
      %386 = "equeue.memcpy"(%384, %122, %133, %113, %c0_150) {dest_bank = 0 : i64, src_bank = 1 : i64} : (!equeue.signal, memref<3x5x7x3xf32>, memref<1xf32>, i32, index) -> !equeue.signal
      %387 = "equeue.control_and"(%386, %385) : (!equeue.signal, !equeue.signal) -> !equeue.signal
      %388 = "equeue.memcpy"(%384, %122, %139, %115, %c0_150) {dest_bank = 0 : i64, src_bank = 2 : i64} : (!equeue.signal, memref<3x5x7x3xf32>, memref<1xf32>, i32, index) -> !equeue.signal
      %389 = "equeue.control_and"(%388, %387) : (!equeue.signal, !equeue.signal) -> !equeue.signal
      %390 = "equeue.memcpy"(%384, %121, %129, %102, %c0_150) {dest_bank = 1 : i64, src_bank = 5 : i64} : (!equeue.signal, memref<5x7x7xf32>, memref<1xf32>, i32, index) -> !equeue.signal
      %391 = "equeue.memcpy"(%384, %121, %159, %104, %c0_150) {dest_bank = 1 : i64, src_bank = 6 : i64} : (!equeue.signal, memref<5x7x7xf32>, memref<1xf32>, i32, index) -> !equeue.signal
      %392 = "equeue.control_and"(%391, %390) : (!equeue.signal, !equeue.signal) -> !equeue.signal
      %393 = "equeue.memcpy"(%384, %121, %189, %106, %c0_150) {dest_bank = 1 : i64, src_bank = 7 : i64} : (!equeue.signal, memref<5x7x7xf32>, memref<1xf32>, i32, index) -> !equeue.signal
      %394 = "equeue.control_and"(%393, %392) : (!equeue.signal, !equeue.signal) -> !equeue.signal
      "equeue.await"(%394, %389) : (!equeue.signal, !equeue.signal) -> ()
      %395 = "equeue.control_start"() : () -> !equeue.signal
      %done_151, %res_152:3 = "equeue.launch"(%395, %126, %129, %127, %128) ( {
      ^bb0(%arg5: memref<1xf32>, %arg6: memref<1xf32>, %arg7: memref<1xf32>):  // no predecessors
        %6869 = "equeue.read"(%arg6) {bank = 0 : i64} : (memref<1xf32>) -> f32
        %6870 = "equeue.read"(%arg5) {bank = 1 : i64} : (memref<1xf32>) -> f32
        %6871 = mulf %6870, %6869 : f32
        %6872 = "equeue.read"(%arg7) {bank = 2 : i64} : (memref<1xf32>) -> f32
        %6873 = addf %6871, %6872 : f32
        "equeue.return"(%6870, %6869, %6873) : (f32, f32, f32) -> ()
      }) : (!equeue.signal, i32, memref<1xf32>, memref<1xf32>, memref<1xf32>) -> (!equeue.signal, f32, f32, f32)
      %done_153, %res_154:3 = "equeue.launch"(%395, %132, %135, %133, %134) ( {
      ^bb0(%arg5: memref<1xf32>, %arg6: memref<1xf32>, %arg7: memref<1xf32>):  // no predecessors
        %6869 = "equeue.read"(%arg6) {bank = 0 : i64} : (memref<1xf32>) -> f32
        %6870 = "equeue.read"(%arg5) {bank = 1 : i64} : (memref<1xf32>) -> f32
        %6871 = mulf %6870, %6869 : f32
        %6872 = "equeue.read"(%arg7) {bank = 2 : i64} : (memref<1xf32>) -> f32
        %6873 = addf %6871, %6872 : f32
        "equeue.return"(%6870, %6869, %6873) : (f32, f32, f32) -> ()
      }) : (!equeue.signal, i32, memref<1xf32>, memref<1xf32>, memref<1xf32>) -> (!equeue.signal, f32, f32, f32)
      %396 = "equeue.control_and"(%done_151, %done_153) : (!equeue.signal, !equeue.signal) -> !equeue.signal
      %done_155, %res_156:3 = "equeue.launch"(%395, %138, %141, %139, %140) ( {
      ^bb0(%arg5: memref<1xf32>, %arg6: memref<1xf32>, %arg7: memref<1xf32>):  // no predecessors
        %6869 = "equeue.read"(%arg6) {bank = 0 : i64} : (memref<1xf32>) -> f32
        %6870 = "equeue.read"(%arg5) {bank = 1 : i64} : (memref<1xf32>) -> f32
        %6871 = mulf %6870, %6869 : f32
        %6872 = "equeue.read"(%arg7) {bank = 2 : i64} : (memref<1xf32>) -> f32
        %6873 = addf %6871, %6872 : f32
        "equeue.return"(%6870, %6869, %6873) : (f32, f32, f32) -> ()
      }) : (!equeue.signal, i32, memref<1xf32>, memref<1xf32>, memref<1xf32>) -> (!equeue.signal, f32, f32, f32)
      %397 = "equeue.control_and"(%396, %done_155) : (!equeue.signal, !equeue.signal) -> !equeue.signal
      %done_157, %res_158:3 = "equeue.launch"(%395, %144, %147, %145, %146) ( {
      ^bb0(%arg5: memref<1xf32>, %arg6: memref<1xf32>, %arg7: memref<1xf32>):  // no predecessors
        %6869 = "equeue.read"(%arg6) {bank = 0 : i64} : (memref<1xf32>) -> f32
        %6870 = "equeue.read"(%arg5) {bank = 1 : i64} : (memref<1xf32>) -> f32
        %6871 = mulf %6870, %6869 : f32
        %6872 = "equeue.read"(%arg7) {bank = 2 : i64} : (memref<1xf32>) -> f32
        %6873 = addf %6871, %6872 : f32
        "equeue.return"(%6870, %6869, %6873) : (f32, f32, f32) -> ()
      }) : (!equeue.signal, i32, memref<1xf32>, memref<1xf32>, memref<1xf32>) -> (!equeue.signal, f32, f32, f32)
      %398 = "equeue.control_and"(%397, %done_157) : (!equeue.signal, !equeue.signal) -> !equeue.signal
      %done_159, %res_160:3 = "equeue.launch"(%395, %150, %153, %151, %152) ( {
      ^bb0(%arg5: memref<1xf32>, %arg6: memref<1xf32>, %arg7: memref<1xf32>):  // no predecessors
        %6869 = "equeue.read"(%arg6) {bank = 0 : i64} : (memref<1xf32>) -> f32
        %6870 = "equeue.read"(%arg5) {bank = 1 : i64} : (memref<1xf32>) -> f32
        %6871 = mulf %6870, %6869 : f32
        %6872 = "equeue.read"(%arg7) {bank = 2 : i64} : (memref<1xf32>) -> f32
        %6873 = addf %6871, %6872 : f32
        "equeue.return"(%6870, %6869, %6873) : (f32, f32, f32) -> ()
      }) : (!equeue.signal, i32, memref<1xf32>, memref<1xf32>, memref<1xf32>) -> (!equeue.signal, f32, f32, f32)
      %399 = "equeue.control_and"(%398, %done_159) : (!equeue.signal, !equeue.signal) -> !equeue.signal
      %done_161, %res_162:3 = "equeue.launch"(%395, %156, %159, %157, %158) ( {
      ^bb0(%arg5: memref<1xf32>, %arg6: memref<1xf32>, %arg7: memref<1xf32>):  // no predecessors
        %6869 = "equeue.read"(%arg6) {bank = 0 : i64} : (memref<1xf32>) -> f32
        %6870 = "equeue.read"(%arg5) {bank = 1 : i64} : (memref<1xf32>) -> f32
        %6871 = mulf %6870, %6869 : f32
        %6872 = "equeue.read"(%arg7) {bank = 2 : i64} : (memref<1xf32>) -> f32
        %6873 = addf %6871, %6872 : f32
        "equeue.return"(%6870, %6869, %6873) : (f32, f32, f32) -> ()
      }) : (!equeue.signal, i32, memref<1xf32>, memref<1xf32>, memref<1xf32>) -> (!equeue.signal, f32, f32, f32)
      %400 = "equeue.control_and"(%399, %done_161) : (!equeue.signal, !equeue.signal) -> !equeue.signal
      %done_163, %res_164:3 = "equeue.launch"(%395, %162, %165, %163, %164) ( {
      ^bb0(%arg5: memref<1xf32>, %arg6: memref<1xf32>, %arg7: memref<1xf32>):  // no predecessors
        %6869 = "equeue.read"(%arg6) {bank = 0 : i64} : (memref<1xf32>) -> f32
        %6870 = "equeue.read"(%arg5) {bank = 1 : i64} : (memref<1xf32>) -> f32
        %6871 = mulf %6870, %6869 : f32
        %6872 = "equeue.read"(%arg7) {bank = 2 : i64} : (memref<1xf32>) -> f32
        %6873 = addf %6871, %6872 : f32
        "equeue.return"(%6870, %6869, %6873) : (f32, f32, f32) -> ()
      }) : (!equeue.signal, i32, memref<1xf32>, memref<1xf32>, memref<1xf32>) -> (!equeue.signal, f32, f32, f32)
      %401 = "equeue.control_and"(%400, %done_163) : (!equeue.signal, !equeue.signal) -> !equeue.signal
      %done_165, %res_166:3 = "equeue.launch"(%395, %168, %171, %169, %170) ( {
      ^bb0(%arg5: memref<1xf32>, %arg6: memref<1xf32>, %arg7: memref<1xf32>):  // no predecessors
        %6869 = "equeue.read"(%arg6) {bank = 0 : i64} : (memref<1xf32>) -> f32
        %6870 = "equeue.read"(%arg5) {bank = 1 : i64} : (memref<1xf32>) -> f32
        %6871 = mulf %6870, %6869 : f32
        %6872 = "equeue.read"(%arg7) {bank = 2 : i64} : (memref<1xf32>) -> f32
        %6873 = addf %6871, %6872 : f32
        "equeue.return"(%6870, %6869, %6873) : (f32, f32, f32) -> ()
      }) : (!equeue.signal, i32, memref<1xf32>, memref<1xf32>, memref<1xf32>) -> (!equeue.signal, f32, f32, f32)
      %402 = "equeue.control_and"(%401, %done_165) : (!equeue.signal, !equeue.signal) -> !equeue.signal
      %done_167, %res_168:3 = "equeue.launch"(%395, %174, %177, %175, %176) ( {
      ^bb0(%arg5: memref<1xf32>, %arg6: memref<1xf32>, %arg7: memref<1xf32>):  // no predecessors
        %6869 = "equeue.read"(%arg6) {bank = 0 : i64} : (memref<1xf32>) -> f32
        %6870 = "equeue.read"(%arg5) {bank = 1 : i64} : (memref<1xf32>) -> f32
        %6871 = mulf %6870, %6869 : f32
        %6872 = "equeue.read"(%arg7) {bank = 2 : i64} : (memref<1xf32>) -> f32
        %6873 = addf %6871, %6872 : f32
        "equeue.return"(%6870, %6869, %6873) : (f32, f32, f32) -> ()
      }) : (!equeue.signal, i32, memref<1xf32>, memref<1xf32>, memref<1xf32>) -> (!equeue.signal, f32, f32, f32)
      %403 = "equeue.control_and"(%402, %done_167) : (!equeue.signal, !equeue.signal) -> !equeue.signal
      %done_169, %res_170:3 = "equeue.launch"(%395, %180, %183, %181, %182) ( {
      ^bb0(%arg5: memref<1xf32>, %arg6: memref<1xf32>, %arg7: memref<1xf32>):  // no predecessors
        %6869 = "equeue.read"(%arg6) {bank = 0 : i64} : (memref<1xf32>) -> f32
        %6870 = "equeue.read"(%arg5) {bank = 1 : i64} : (memref<1xf32>) -> f32
        %6871 = mulf %6870, %6869 : f32
        %6872 = "equeue.read"(%arg7) {bank = 2 : i64} : (memref<1xf32>) -> f32
        %6873 = addf %6871, %6872 : f32
        "equeue.return"(%6870, %6869, %6873) : (f32, f32, f32) -> ()
      }) : (!equeue.signal, i32, memref<1xf32>, memref<1xf32>, memref<1xf32>) -> (!equeue.signal, f32, f32, f32)
      %404 = "equeue.control_and"(%403, %done_169) : (!equeue.signal, !equeue.signal) -> !equeue.signal
      %done_171, %res_172:3 = "equeue.launch"(%395, %186, %189, %187, %188) ( {
      ^bb0(%arg5: memref<1xf32>, %arg6: memref<1xf32>, %arg7: memref<1xf32>):  // no predecessors
        %6869 = "equeue.read"(%arg6) {bank = 0 : i64} : (memref<1xf32>) -> f32
        %6870 = "equeue.read"(%arg5) {bank = 1 : i64} : (memref<1xf32>) -> f32
        %6871 = mulf %6870, %6869 : f32
        %6872 = "equeue.read"(%arg7) {bank = 2 : i64} : (memref<1xf32>) -> f32
        %6873 = addf %6871, %6872 : f32
        "equeue.return"(%6870, %6869, %6873) : (f32, f32, f32) -> ()
      }) : (!equeue.signal, i32, memref<1xf32>, memref<1xf32>, memref<1xf32>) -> (!equeue.signal, f32, f32, f32)
      %405 = "equeue.control_and"(%404, %done_171) : (!equeue.signal, !equeue.signal) -> !equeue.signal
      %done_173, %res_174:3 = "equeue.launch"(%395, %192, %195, %193, %194) ( {
      ^bb0(%arg5: memref<1xf32>, %arg6: memref<1xf32>, %arg7: memref<1xf32>):  // no predecessors
        %6869 = "equeue.read"(%arg6) {bank = 0 : i64} : (memref<1xf32>) -> f32
        %6870 = "equeue.read"(%arg5) {bank = 1 : i64} : (memref<1xf32>) -> f32
        %6871 = mulf %6870, %6869 : f32
        %6872 = "equeue.read"(%arg7) {bank = 2 : i64} : (memref<1xf32>) -> f32
        %6873 = addf %6871, %6872 : f32
        "equeue.return"(%6870, %6869, %6873) : (f32, f32, f32) -> ()
      }) : (!equeue.signal, i32, memref<1xf32>, memref<1xf32>, memref<1xf32>) -> (!equeue.signal, f32, f32, f32)
      %406 = "equeue.control_and"(%405, %done_173) : (!equeue.signal, !equeue.signal) -> !equeue.signal
      %done_175, %res_176:3 = "equeue.launch"(%395, %198, %201, %199, %200) ( {
      ^bb0(%arg5: memref<1xf32>, %arg6: memref<1xf32>, %arg7: memref<1xf32>):  // no predecessors
        %6869 = "equeue.read"(%arg6) {bank = 0 : i64} : (memref<1xf32>) -> f32
        %6870 = "equeue.read"(%arg5) {bank = 1 : i64} : (memref<1xf32>) -> f32
        %6871 = mulf %6870, %6869 : f32
        %6872 = "equeue.read"(%arg7) {bank = 2 : i64} : (memref<1xf32>) -> f32
        %6873 = addf %6871, %6872 : f32
        "equeue.return"(%6870, %6869, %6873) : (f32, f32, f32) -> ()
      }) : (!equeue.signal, i32, memref<1xf32>, memref<1xf32>, memref<1xf32>) -> (!equeue.signal, f32, f32, f32)
      %407 = "equeue.control_and"(%406, %done_175) : (!equeue.signal, !equeue.signal) -> !equeue.signal
      %done_177, %res_178:3 = "equeue.launch"(%395, %204, %207, %205, %206) ( {
      ^bb0(%arg5: memref<1xf32>, %arg6: memref<1xf32>, %arg7: memref<1xf32>):  // no predecessors
        %6869 = "equeue.read"(%arg6) {bank = 0 : i64} : (memref<1xf32>) -> f32
        %6870 = "equeue.read"(%arg5) {bank = 1 : i64} : (memref<1xf32>) -> f32
        %6871 = mulf %6870, %6869 : f32
        %6872 = "equeue.read"(%arg7) {bank = 2 : i64} : (memref<1xf32>) -> f32
        %6873 = addf %6871, %6872 : f32
        "equeue.return"(%6870, %6869, %6873) : (f32, f32, f32) -> ()
      }) : (!equeue.signal, i32, memref<1xf32>, memref<1xf32>, memref<1xf32>) -> (!equeue.signal, f32, f32, f32)
      %408 = "equeue.control_and"(%407, %done_177) : (!equeue.signal, !equeue.signal) -> !equeue.signal
      %done_179, %res_180:3 = "equeue.launch"(%395, %210, %213, %211, %212) ( {
      ^bb0(%arg5: memref<1xf32>, %arg6: memref<1xf32>, %arg7: memref<1xf32>):  // no predecessors
        %6869 = "equeue.read"(%arg6) {bank = 0 : i64} : (memref<1xf32>) -> f32
        %6870 = "equeue.read"(%arg5) {bank = 1 : i64} : (memref<1xf32>) -> f32
        %6871 = mulf %6870, %6869 : f32
        %6872 = "equeue.read"(%arg7) {bank = 2 : i64} : (memref<1xf32>) -> f32
        %6873 = addf %6871, %6872 : f32
        "equeue.return"(%6870, %6869, %6873) : (f32, f32, f32) -> ()
      }) : (!equeue.signal, i32, memref<1xf32>, memref<1xf32>, memref<1xf32>) -> (!equeue.signal, f32, f32, f32)
      %409 = "equeue.control_and"(%408, %done_179) : (!equeue.signal, !equeue.signal) -> !equeue.signal
      %done_181, %res_182:3 = "equeue.launch"(%395, %216, %219, %217, %218) ( {
      ^bb0(%arg5: memref<1xf32>, %arg6: memref<1xf32>, %arg7: memref<1xf32>):  // no predecessors
        %6869 = "equeue.read"(%arg6) {bank = 0 : i64} : (memref<1xf32>) -> f32
        %6870 = "equeue.read"(%arg5) {bank = 1 : i64} : (memref<1xf32>) -> f32
        %6871 = mulf %6870, %6869 : f32
        %6872 = "equeue.read"(%arg7) {bank = 2 : i64} : (memref<1xf32>) -> f32
        %6873 = addf %6871, %6872 : f32
        "equeue.return"(%6870, %6869, %6873) : (f32, f32, f32) -> ()
      }) : (!equeue.signal, i32, memref<1xf32>, memref<1xf32>, memref<1xf32>) -> (!equeue.signal, f32, f32, f32)
      %410 = "equeue.control_and"(%409, %done_181) : (!equeue.signal, !equeue.signal) -> !equeue.signal
      %done_183, %res_184:3 = "equeue.launch"(%395, %222, %225, %223, %224) ( {
      ^bb0(%arg5: memref<1xf32>, %arg6: memref<1xf32>, %arg7: memref<1xf32>):  // no predecessors
        %6869 = "equeue.read"(%arg6) {bank = 0 : i64} : (memref<1xf32>) -> f32
        %6870 = "equeue.read"(%arg5) {bank = 1 : i64} : (memref<1xf32>) -> f32
        %6871 = mulf %6870, %6869 : f32
        %6872 = "equeue.read"(%arg7) {bank = 2 : i64} : (memref<1xf32>) -> f32
        %6873 = addf %6871, %6872 : f32
        "equeue.return"(%6870, %6869, %6873) : (f32, f32, f32) -> ()
      }) : (!equeue.signal, i32, memref<1xf32>, memref<1xf32>, memref<1xf32>) -> (!equeue.signal, f32, f32, f32)
      %411 = "equeue.control_and"(%410, %done_183) : (!equeue.signal, !equeue.signal) -> !equeue.signal
      %done_185, %res_186:3 = "equeue.launch"(%395, %228, %231, %229, %230) ( {
      ^bb0(%arg5: memref<1xf32>, %arg6: memref<1xf32>, %arg7: memref<1xf32>):  // no predecessors
        %6869 = "equeue.read"(%arg6) {bank = 0 : i64} : (memref<1xf32>) -> f32
        %6870 = "equeue.read"(%arg5) {bank = 1 : i64} : (memref<1xf32>) -> f32
        %6871 = mulf %6870, %6869 : f32
        %6872 = "equeue.read"(%arg7) {bank = 2 : i64} : (memref<1xf32>) -> f32
        %6873 = addf %6871, %6872 : f32
        "equeue.return"(%6870, %6869, %6873) : (f32, f32, f32) -> ()
      }) : (!equeue.signal, i32, memref<1xf32>, memref<1xf32>, memref<1xf32>) -> (!equeue.signal, f32, f32, f32)
      %412 = "equeue.control_and"(%411, %done_185) : (!equeue.signal, !equeue.signal) -> !equeue.signal
      %done_187, %res_188:3 = "equeue.launch"(%395, %234, %237, %235, %236) ( {
      ^bb0(%arg5: memref<1xf32>, %arg6: memref<1xf32>, %arg7: memref<1xf32>):  // no predecessors
        %6869 = "equeue.read"(%arg6) {bank = 0 : i64} : (memref<1xf32>) -> f32
        %6870 = "equeue.read"(%arg5) {bank = 1 : i64} : (memref<1xf32>) -> f32
        %6871 = mulf %6870, %6869 : f32
        %6872 = "equeue.read"(%arg7) {bank = 2 : i64} : (memref<1xf32>) -> f32
        %6873 = addf %6871, %6872 : f32
        "equeue.return"(%6870, %6869, %6873) : (f32, f32, f32) -> ()
      }) : (!equeue.signal, i32, memref<1xf32>, memref<1xf32>, memref<1xf32>) -> (!equeue.signal, f32, f32, f32)
      %413 = "equeue.control_and"(%412, %done_187) : (!equeue.signal, !equeue.signal) -> !equeue.signal
      %done_189, %res_190:3 = "equeue.launch"(%395, %240, %243, %241, %242) ( {
      ^bb0(%arg5: memref<1xf32>, %arg6: memref<1xf32>, %arg7: memref<1xf32>):  // no predecessors
        %6869 = "equeue.read"(%arg6) {bank = 0 : i64} : (memref<1xf32>) -> f32
        %6870 = "equeue.read"(%arg5) {bank = 1 : i64} : (memref<1xf32>) -> f32
        %6871 = mulf %6870, %6869 : f32
        %6872 = "equeue.read"(%arg7) {bank = 2 : i64} : (memref<1xf32>) -> f32
        %6873 = addf %6871, %6872 : f32
        "equeue.return"(%6870, %6869, %6873) : (f32, f32, f32) -> ()
      }) : (!equeue.signal, i32, memref<1xf32>, memref<1xf32>, memref<1xf32>) -> (!equeue.signal, f32, f32, f32)
      %414 = "equeue.control_and"(%413, %done_189) : (!equeue.signal, !equeue.signal) -> !equeue.signal
      %done_191, %res_192:3 = "equeue.launch"(%395, %246, %249, %247, %248) ( {
      ^bb0(%arg5: memref<1xf32>, %arg6: memref<1xf32>, %arg7: memref<1xf32>):  // no predecessors
        %6869 = "equeue.read"(%arg6) {bank = 0 : i64} : (memref<1xf32>) -> f32
        %6870 = "equeue.read"(%arg5) {bank = 1 : i64} : (memref<1xf32>) -> f32
        %6871 = mulf %6870, %6869 : f32
        %6872 = "equeue.read"(%arg7) {bank = 2 : i64} : (memref<1xf32>) -> f32
        %6873 = addf %6871, %6872 : f32
        "equeue.return"(%6870, %6869, %6873) : (f32, f32, f32) -> ()
      }) : (!equeue.signal, i32, memref<1xf32>, memref<1xf32>, memref<1xf32>) -> (!equeue.signal, f32, f32, f32)
      %415 = "equeue.control_and"(%414, %done_191) : (!equeue.signal, !equeue.signal) -> !equeue.signal
      %done_193, %res_194:3 = "equeue.launch"(%395, %252, %255, %253, %254) ( {
      ^bb0(%arg5: memref<1xf32>, %arg6: memref<1xf32>, %arg7: memref<1xf32>):  // no predecessors
        %6869 = "equeue.read"(%arg6) {bank = 0 : i64} : (memref<1xf32>) -> f32
        %6870 = "equeue.read"(%arg5) {bank = 1 : i64} : (memref<1xf32>) -> f32
        %6871 = mulf %6870, %6869 : f32
        %6872 = "equeue.read"(%arg7) {bank = 2 : i64} : (memref<1xf32>) -> f32
        %6873 = addf %6871, %6872 : f32
        "equeue.return"(%6870, %6869, %6873) : (f32, f32, f32) -> ()
      }) : (!equeue.signal, i32, memref<1xf32>, memref<1xf32>, memref<1xf32>) -> (!equeue.signal, f32, f32, f32)
      %416 = "equeue.control_and"(%415, %done_193) : (!equeue.signal, !equeue.signal) -> !equeue.signal
      %done_195, %res_196:3 = "equeue.launch"(%395, %258, %261, %259, %260) ( {
      ^bb0(%arg5: memref<1xf32>, %arg6: memref<1xf32>, %arg7: memref<1xf32>):  // no predecessors
        %6869 = "equeue.read"(%arg6) {bank = 0 : i64} : (memref<1xf32>) -> f32
        %6870 = "equeue.read"(%arg5) {bank = 1 : i64} : (memref<1xf32>) -> f32
        %6871 = mulf %6870, %6869 : f32
        %6872 = "equeue.read"(%arg7) {bank = 2 : i64} : (memref<1xf32>) -> f32
        %6873 = addf %6871, %6872 : f32
        "equeue.return"(%6870, %6869, %6873) : (f32, f32, f32) -> ()
      }) : (!equeue.signal, i32, memref<1xf32>, memref<1xf32>, memref<1xf32>) -> (!equeue.signal, f32, f32, f32)
      %417 = "equeue.control_and"(%416, %done_195) : (!equeue.signal, !equeue.signal) -> !equeue.signal
      %done_197, %res_198:3 = "equeue.launch"(%395, %264, %267, %265, %266) ( {
      ^bb0(%arg5: memref<1xf32>, %arg6: memref<1xf32>, %arg7: memref<1xf32>):  // no predecessors
        %6869 = "equeue.read"(%arg6) {bank = 0 : i64} : (memref<1xf32>) -> f32
        %6870 = "equeue.read"(%arg5) {bank = 1 : i64} : (memref<1xf32>) -> f32
        %6871 = mulf %6870, %6869 : f32
        %6872 = "equeue.read"(%arg7) {bank = 2 : i64} : (memref<1xf32>) -> f32
        %6873 = addf %6871, %6872 : f32
        "equeue.return"(%6870, %6869, %6873) : (f32, f32, f32) -> ()
      }) : (!equeue.signal, i32, memref<1xf32>, memref<1xf32>, memref<1xf32>) -> (!equeue.signal, f32, f32, f32)
      %418 = "equeue.control_and"(%417, %done_197) : (!equeue.signal, !equeue.signal) -> !equeue.signal
      %done_199, %res_200:3 = "equeue.launch"(%395, %270, %273, %271, %272) ( {
      ^bb0(%arg5: memref<1xf32>, %arg6: memref<1xf32>, %arg7: memref<1xf32>):  // no predecessors
        %6869 = "equeue.read"(%arg6) {bank = 0 : i64} : (memref<1xf32>) -> f32
        %6870 = "equeue.read"(%arg5) {bank = 1 : i64} : (memref<1xf32>) -> f32
        %6871 = mulf %6870, %6869 : f32
        %6872 = "equeue.read"(%arg7) {bank = 2 : i64} : (memref<1xf32>) -> f32
        %6873 = addf %6871, %6872 : f32
        "equeue.return"(%6870, %6869, %6873) : (f32, f32, f32) -> ()
      }) : (!equeue.signal, i32, memref<1xf32>, memref<1xf32>, memref<1xf32>) -> (!equeue.signal, f32, f32, f32)
      %419 = "equeue.control_and"(%418, %done_199) : (!equeue.signal, !equeue.signal) -> !equeue.signal
      "equeue.await"(%419) : (!equeue.signal) -> ()
      %420 = "equeue.control_start"() : () -> !equeue.signal
      %done_201 = "equeue.launch"(%420, %126, %res_152#0, %res_152#1, %res_152#2, %128, %128, %135, %157, %123) ( {
      ^bb0(%arg5: f32, %arg6: f32, %arg7: f32, %arg8: memref<1xf32>, %arg9: memref<1xf32>, %arg10: memref<1xf32>, %arg11: memref<1xf32>, %arg12: memref<3x3x3xf32>):  // no predecessors
        "equeue.write"(%arg5, %arg9) {bank = 1 : i64} : (f32, memref<1xf32>) -> ()
        "equeue.write"(%arg6, %arg10) {bank = 0 : i64} : (f32, memref<1xf32>) -> ()
        "equeue.write"(%arg7, %arg8) {bank = 2 : i64} : (f32, memref<1xf32>) -> ()
        "equeue.return"() : () -> ()
      }) : (!equeue.signal, i32, f32, f32, f32, memref<1xf32>, memref<1xf32>, memref<1xf32>, memref<1xf32>, memref<3x3x3xf32>) -> !equeue.signal
      %done_202 = "equeue.launch"(%420, %156, %res_162#0, %res_162#1, %res_162#2, %158, %158, %165, %187, %123) ( {
      ^bb0(%arg5: f32, %arg6: f32, %arg7: f32, %arg8: memref<1xf32>, %arg9: memref<1xf32>, %arg10: memref<1xf32>, %arg11: memref<1xf32>, %arg12: memref<3x3x3xf32>):  // no predecessors
        "equeue.write"(%arg5, %arg9) {bank = 1 : i64} : (f32, memref<1xf32>) -> ()
        "equeue.write"(%arg6, %arg10) {bank = 0 : i64} : (f32, memref<1xf32>) -> ()
        "equeue.write"(%arg7, %arg8) {bank = 2 : i64} : (f32, memref<1xf32>) -> ()
        "equeue.return"() : () -> ()
      }) : (!equeue.signal, i32, f32, f32, f32, memref<1xf32>, memref<1xf32>, memref<1xf32>, memref<1xf32>, memref<3x3x3xf32>) -> !equeue.signal
      %421 = "equeue.control_and"(%done_201, %done_202) : (!equeue.signal, !equeue.signal) -> !equeue.signal
      %done_203 = "equeue.launch"(%420, %186, %res_172#0, %res_172#1, %res_172#2, %188, %188, %195, %217, %123) ( {
      ^bb0(%arg5: f32, %arg6: f32, %arg7: f32, %arg8: memref<1xf32>, %arg9: memref<1xf32>, %arg10: memref<1xf32>, %arg11: memref<1xf32>, %arg12: memref<3x3x3xf32>):  // no predecessors
        "equeue.write"(%arg5, %arg9) {bank = 1 : i64} : (f32, memref<1xf32>) -> ()
        "equeue.write"(%arg6, %arg10) {bank = 0 : i64} : (f32, memref<1xf32>) -> ()
        "equeue.write"(%arg7, %arg8) {bank = 2 : i64} : (f32, memref<1xf32>) -> ()
        "equeue.return"() : () -> ()
      }) : (!equeue.signal, i32, f32, f32, f32, memref<1xf32>, memref<1xf32>, memref<1xf32>, memref<1xf32>, memref<3x3x3xf32>) -> !equeue.signal
      %422 = "equeue.control_and"(%421, %done_203) : (!equeue.signal, !equeue.signal) -> !equeue.signal
      %done_204 = "equeue.launch"(%420, %216, %res_182#0, %res_182#1, %res_182#2, %218, %218, %225, %247, %123) ( {
      ^bb0(%arg5: f32, %arg6: f32, %arg7: f32, %arg8: memref<1xf32>, %arg9: memref<1xf32>, %arg10: memref<1xf32>, %arg11: memref<1xf32>, %arg12: memref<3x3x3xf32>):  // no predecessors
        "equeue.write"(%arg5, %arg9) {bank = 1 : i64} : (f32, memref<1xf32>) -> ()
        "equeue.write"(%arg6, %arg10) {bank = 0 : i64} : (f32, memref<1xf32>) -> ()
        "equeue.write"(%arg7, %arg8) {bank = 2 : i64} : (f32, memref<1xf32>) -> ()
        "equeue.return"() : () -> ()
      }) : (!equeue.signal, i32, f32, f32, f32, memref<1xf32>, memref<1xf32>, memref<1xf32>, memref<1xf32>, memref<3x3x3xf32>) -> !equeue.signal
      %423 = "equeue.control_and"(%422, %done_204) : (!equeue.signal, !equeue.signal) -> !equeue.signal
      %done_205 = "equeue.launch"(%420, %246, %res_192#0, %res_192#2, %248, %255, %123) ( {
      ^bb0(%arg5: f32, %arg6: f32, %arg7: memref<1xf32>, %arg8: memref<1xf32>, %arg9: memref<3x3x3xf32>):  // no predecessors
        "equeue.write"(%arg5, %arg8) {bank = 1 : i64} : (f32, memref<1xf32>) -> ()
        "equeue.write"(%arg6, %arg7) {bank = 2 : i64} : (f32, memref<1xf32>) -> ()
        "equeue.return"() : () -> ()
      }) : (!equeue.signal, i32, f32, f32, memref<1xf32>, memref<1xf32>, memref<3x3x3xf32>) -> !equeue.signal
      %424 = "equeue.control_and"(%423, %done_205) : (!equeue.signal, !equeue.signal) -> !equeue.signal
      %done_206 = "equeue.launch"(%420, %132, %res_154#0, %res_154#1, %res_154#2, %134, %134, %141, %163, %123) ( {
      ^bb0(%arg5: f32, %arg6: f32, %arg7: f32, %arg8: memref<1xf32>, %arg9: memref<1xf32>, %arg10: memref<1xf32>, %arg11: memref<1xf32>, %arg12: memref<3x3x3xf32>):  // no predecessors
        "equeue.write"(%arg5, %arg9) {bank = 1 : i64} : (f32, memref<1xf32>) -> ()
        "equeue.write"(%arg6, %arg10) {bank = 0 : i64} : (f32, memref<1xf32>) -> ()
        "equeue.write"(%arg7, %arg8) {bank = 2 : i64} : (f32, memref<1xf32>) -> ()
        "equeue.return"() : () -> ()
      }) : (!equeue.signal, i32, f32, f32, f32, memref<1xf32>, memref<1xf32>, memref<1xf32>, memref<1xf32>, memref<3x3x3xf32>) -> !equeue.signal
      %425 = "equeue.control_and"(%424, %done_206) : (!equeue.signal, !equeue.signal) -> !equeue.signal
      %done_207 = "equeue.launch"(%420, %162, %res_164#0, %res_164#1, %res_164#2, %164, %164, %171, %193, %123) ( {
      ^bb0(%arg5: f32, %arg6: f32, %arg7: f32, %arg8: memref<1xf32>, %arg9: memref<1xf32>, %arg10: memref<1xf32>, %arg11: memref<1xf32>, %arg12: memref<3x3x3xf32>):  // no predecessors
        "equeue.write"(%arg5, %arg9) {bank = 1 : i64} : (f32, memref<1xf32>) -> ()
        "equeue.write"(%arg6, %arg10) {bank = 0 : i64} : (f32, memref<1xf32>) -> ()
        "equeue.write"(%arg7, %arg8) {bank = 2 : i64} : (f32, memref<1xf32>) -> ()
        "equeue.return"() : () -> ()
      }) : (!equeue.signal, i32, f32, f32, f32, memref<1xf32>, memref<1xf32>, memref<1xf32>, memref<1xf32>, memref<3x3x3xf32>) -> !equeue.signal
      %426 = "equeue.control_and"(%425, %done_207) : (!equeue.signal, !equeue.signal) -> !equeue.signal
      %done_208 = "equeue.launch"(%420, %192, %res_174#0, %res_174#1, %res_174#2, %194, %194, %201, %223, %123) ( {
      ^bb0(%arg5: f32, %arg6: f32, %arg7: f32, %arg8: memref<1xf32>, %arg9: memref<1xf32>, %arg10: memref<1xf32>, %arg11: memref<1xf32>, %arg12: memref<3x3x3xf32>):  // no predecessors
        "equeue.write"(%arg5, %arg9) {bank = 1 : i64} : (f32, memref<1xf32>) -> ()
        "equeue.write"(%arg6, %arg10) {bank = 0 : i64} : (f32, memref<1xf32>) -> ()
        "equeue.write"(%arg7, %arg8) {bank = 2 : i64} : (f32, memref<1xf32>) -> ()
        "equeue.return"() : () -> ()
      }) : (!equeue.signal, i32, f32, f32, f32, memref<1xf32>, memref<1xf32>, memref<1xf32>, memref<1xf32>, memref<3x3x3xf32>) -> !equeue.signal
      %427 = "equeue.control_and"(%426, %done_208) : (!equeue.signal, !equeue.signal) -> !equeue.signal
      %done_209 = "equeue.launch"(%420, %222, %res_184#0, %res_184#1, %res_184#2, %224, %224, %231, %253, %123) ( {
      ^bb0(%arg5: f32, %arg6: f32, %arg7: f32, %arg8: memref<1xf32>, %arg9: memref<1xf32>, %arg10: memref<1xf32>, %arg11: memref<1xf32>, %arg12: memref<3x3x3xf32>):  // no predecessors
        "equeue.write"(%arg5, %arg9) {bank = 1 : i64} : (f32, memref<1xf32>) -> ()
        "equeue.write"(%arg6, %arg10) {bank = 0 : i64} : (f32, memref<1xf32>) -> ()
        "equeue.write"(%arg7, %arg8) {bank = 2 : i64} : (f32, memref<1xf32>) -> ()
        "equeue.return"() : () -> ()
      }) : (!equeue.signal, i32, f32, f32, f32, memref<1xf32>, memref<1xf32>, memref<1xf32>, memref<1xf32>, memref<3x3x3xf32>) -> !equeue.signal
      %428 = "equeue.control_and"(%427, %done_209) : (!equeue.signal, !equeue.signal) -> !equeue.signal
      %done_210 = "equeue.launch"(%420, %252, %res_194#0, %res_194#2, %254, %261, %123) ( {
      ^bb0(%arg5: f32, %arg6: f32, %arg7: memref<1xf32>, %arg8: memref<1xf32>, %arg9: memref<3x3x3xf32>):  // no predecessors
        "equeue.write"(%arg5, %arg8) {bank = 1 : i64} : (f32, memref<1xf32>) -> ()
        "equeue.write"(%arg6, %arg7) {bank = 2 : i64} : (f32, memref<1xf32>) -> ()
        "equeue.return"() : () -> ()
      }) : (!equeue.signal, i32, f32, f32, memref<1xf32>, memref<1xf32>, memref<3x3x3xf32>) -> !equeue.signal
      %429 = "equeue.control_and"(%428, %done_210) : (!equeue.signal, !equeue.signal) -> !equeue.signal
      %done_211 = "equeue.launch"(%420, %138, %res_156#0, %res_156#1, %res_156#2, %140, %140, %147, %169, %123) ( {
      ^bb0(%arg5: f32, %arg6: f32, %arg7: f32, %arg8: memref<1xf32>, %arg9: memref<1xf32>, %arg10: memref<1xf32>, %arg11: memref<1xf32>, %arg12: memref<3x3x3xf32>):  // no predecessors
        "equeue.write"(%arg5, %arg9) {bank = 1 : i64} : (f32, memref<1xf32>) -> ()
        "equeue.write"(%arg6, %arg10) {bank = 0 : i64} : (f32, memref<1xf32>) -> ()
        "equeue.write"(%arg7, %arg8) {bank = 2 : i64} : (f32, memref<1xf32>) -> ()
        "equeue.return"() : () -> ()
      }) : (!equeue.signal, i32, f32, f32, f32, memref<1xf32>, memref<1xf32>, memref<1xf32>, memref<1xf32>, memref<3x3x3xf32>) -> !equeue.signal
      %430 = "equeue.control_and"(%429, %done_211) : (!equeue.signal, !equeue.signal) -> !equeue.signal
      %done_212 = "equeue.launch"(%420, %168, %res_166#0, %res_166#1, %res_166#2, %170, %170, %177, %199, %123) ( {
      ^bb0(%arg5: f32, %arg6: f32, %arg7: f32, %arg8: memref<1xf32>, %arg9: memref<1xf32>, %arg10: memref<1xf32>, %arg11: memref<1xf32>, %arg12: memref<3x3x3xf32>):  // no predecessors
        "equeue.write"(%arg5, %arg9) {bank = 1 : i64} : (f32, memref<1xf32>) -> ()
        "equeue.write"(%arg6, %arg10) {bank = 0 : i64} : (f32, memref<1xf32>) -> ()
        "equeue.write"(%arg7, %arg8) {bank = 2 : i64} : (f32, memref<1xf32>) -> ()
        "equeue.return"() : () -> ()
      }) : (!equeue.signal, i32, f32, f32, f32, memref<1xf32>, memref<1xf32>, memref<1xf32>, memref<1xf32>, memref<3x3x3xf32>) -> !equeue.signal
      %431 = "equeue.control_and"(%430, %done_212) : (!equeue.signal, !equeue.signal) -> !equeue.signal
      %done_213 = "equeue.launch"(%420, %198, %res_176#0, %res_176#1, %res_176#2, %200, %200, %207, %229, %123) ( {
      ^bb0(%arg5: f32, %arg6: f32, %arg7: f32, %arg8: memref<1xf32>, %arg9: memref<1xf32>, %arg10: memref<1xf32>, %arg11: memref<1xf32>, %arg12: memref<3x3x3xf32>):  // no predecessors
        "equeue.write"(%arg5, %arg9) {bank = 1 : i64} : (f32, memref<1xf32>) -> ()
        "equeue.write"(%arg6, %arg10) {bank = 0 : i64} : (f32, memref<1xf32>) -> ()
        "equeue.write"(%arg7, %arg8) {bank = 2 : i64} : (f32, memref<1xf32>) -> ()
        "equeue.return"() : () -> ()
      }) : (!equeue.signal, i32, f32, f32, f32, memref<1xf32>, memref<1xf32>, memref<1xf32>, memref<1xf32>, memref<3x3x3xf32>) -> !equeue.signal
      %432 = "equeue.control_and"(%431, %done_213) : (!equeue.signal, !equeue.signal) -> !equeue.signal
      %done_214 = "equeue.launch"(%420, %228, %res_186#0, %res_186#1, %res_186#2, %230, %230, %237, %259, %123) ( {
      ^bb0(%arg5: f32, %arg6: f32, %arg7: f32, %arg8: memref<1xf32>, %arg9: memref<1xf32>, %arg10: memref<1xf32>, %arg11: memref<1xf32>, %arg12: memref<3x3x3xf32>):  // no predecessors
        "equeue.write"(%arg5, %arg9) {bank = 1 : i64} : (f32, memref<1xf32>) -> ()
        "equeue.write"(%arg6, %arg10) {bank = 0 : i64} : (f32, memref<1xf32>) -> ()
        "equeue.write"(%arg7, %arg8) {bank = 2 : i64} : (f32, memref<1xf32>) -> ()
        "equeue.return"() : () -> ()
      }) : (!equeue.signal, i32, f32, f32, f32, memref<1xf32>, memref<1xf32>, memref<1xf32>, memref<1xf32>, memref<3x3x3xf32>) -> !equeue.signal
      %433 = "equeue.control_and"(%432, %done_214) : (!equeue.signal, !equeue.signal) -> !equeue.signal
      %done_215 = "equeue.launch"(%420, %258, %res_196#0, %res_196#2, %260, %267, %123) ( {
      ^bb0(%arg5: f32, %arg6: f32, %arg7: memref<1xf32>, %arg8: memref<1xf32>, %arg9: memref<3x3x3xf32>):  // no predecessors
        "equeue.write"(%arg5, %arg8) {bank = 1 : i64} : (f32, memref<1xf32>) -> ()
        "equeue.write"(%arg6, %arg7) {bank = 2 : i64} : (f32, memref<1xf32>) -> ()
        "equeue.return"() : () -> ()
      }) : (!equeue.signal, i32, f32, f32, memref<1xf32>, memref<1xf32>, memref<3x3x3xf32>) -> !equeue.signal
      %434 = "equeue.control_and"(%433, %done_215) : (!equeue.signal, !equeue.signal) -> !equeue.signal
      %done_216 = "equeue.launch"(%420, %144, %res_158#0, %res_158#1, %res_158#2, %146, %146, %153, %175, %123) ( {
      ^bb0(%arg5: f32, %arg6: f32, %arg7: f32, %arg8: memref<1xf32>, %arg9: memref<1xf32>, %arg10: memref<1xf32>, %arg11: memref<1xf32>, %arg12: memref<3x3x3xf32>):  // no predecessors
        "equeue.write"(%arg5, %arg9) {bank = 1 : i64} : (f32, memref<1xf32>) -> ()
        "equeue.write"(%arg6, %arg10) {bank = 0 : i64} : (f32, memref<1xf32>) -> ()
        "equeue.write"(%arg7, %arg8) {bank = 2 : i64} : (f32, memref<1xf32>) -> ()
        "equeue.return"() : () -> ()
      }) : (!equeue.signal, i32, f32, f32, f32, memref<1xf32>, memref<1xf32>, memref<1xf32>, memref<1xf32>, memref<3x3x3xf32>) -> !equeue.signal
      %435 = "equeue.control_and"(%434, %done_216) : (!equeue.signal, !equeue.signal) -> !equeue.signal
      %done_217 = "equeue.launch"(%420, %174, %res_168#0, %res_168#1, %res_168#2, %176, %176, %183, %205, %123) ( {
      ^bb0(%arg5: f32, %arg6: f32, %arg7: f32, %arg8: memref<1xf32>, %arg9: memref<1xf32>, %arg10: memref<1xf32>, %arg11: memref<1xf32>, %arg12: memref<3x3x3xf32>):  // no predecessors
        "equeue.write"(%arg5, %arg9) {bank = 1 : i64} : (f32, memref<1xf32>) -> ()
        "equeue.write"(%arg6, %arg10) {bank = 0 : i64} : (f32, memref<1xf32>) -> ()
        "equeue.write"(%arg7, %arg8) {bank = 2 : i64} : (f32, memref<1xf32>) -> ()
        "equeue.return"() : () -> ()
      }) : (!equeue.signal, i32, f32, f32, f32, memref<1xf32>, memref<1xf32>, memref<1xf32>, memref<1xf32>, memref<3x3x3xf32>) -> !equeue.signal
      %436 = "equeue.control_and"(%435, %done_217) : (!equeue.signal, !equeue.signal) -> !equeue.signal
      %done_218 = "equeue.launch"(%420, %204, %res_178#0, %res_178#1, %res_178#2, %206, %206, %213, %235, %123) ( {
      ^bb0(%arg5: f32, %arg6: f32, %arg7: f32, %arg8: memref<1xf32>, %arg9: memref<1xf32>, %arg10: memref<1xf32>, %arg11: memref<1xf32>, %arg12: memref<3x3x3xf32>):  // no predecessors
        "equeue.write"(%arg5, %arg9) {bank = 1 : i64} : (f32, memref<1xf32>) -> ()
        "equeue.write"(%arg6, %arg10) {bank = 0 : i64} : (f32, memref<1xf32>) -> ()
        "equeue.write"(%arg7, %arg8) {bank = 2 : i64} : (f32, memref<1xf32>) -> ()
        "equeue.return"() : () -> ()
      }) : (!equeue.signal, i32, f32, f32, f32, memref<1xf32>, memref<1xf32>, memref<1xf32>, memref<1xf32>, memref<3x3x3xf32>) -> !equeue.signal
      %437 = "equeue.control_and"(%436, %done_218) : (!equeue.signal, !equeue.signal) -> !equeue.signal
      %done_219 = "equeue.launch"(%420, %234, %res_188#0, %res_188#1, %res_188#2, %236, %236, %243, %265, %123) ( {
      ^bb0(%arg5: f32, %arg6: f32, %arg7: f32, %arg8: memref<1xf32>, %arg9: memref<1xf32>, %arg10: memref<1xf32>, %arg11: memref<1xf32>, %arg12: memref<3x3x3xf32>):  // no predecessors
        "equeue.write"(%arg5, %arg9) {bank = 1 : i64} : (f32, memref<1xf32>) -> ()
        "equeue.write"(%arg6, %arg10) {bank = 0 : i64} : (f32, memref<1xf32>) -> ()
        "equeue.write"(%arg7, %arg8) {bank = 2 : i64} : (f32, memref<1xf32>) -> ()
        "equeue.return"() : () -> ()
      }) : (!equeue.signal, i32, f32, f32, f32, memref<1xf32>, memref<1xf32>, memref<1xf32>, memref<1xf32>, memref<3x3x3xf32>) -> !equeue.signal
      %438 = "equeue.control_and"(%437, %done_219) : (!equeue.signal, !equeue.signal) -> !equeue.signal
      %done_220 = "equeue.launch"(%420, %264, %res_198#0, %res_198#2, %266, %273, %123) ( {
      ^bb0(%arg5: f32, %arg6: f32, %arg7: memref<1xf32>, %arg8: memref<1xf32>, %arg9: memref<3x3x3xf32>):  // no predecessors
        "equeue.write"(%arg5, %arg8) {bank = 1 : i64} : (f32, memref<1xf32>) -> ()
        "equeue.write"(%arg6, %arg7) {bank = 2 : i64} : (f32, memref<1xf32>) -> ()
        "equeue.return"() : () -> ()
      }) : (!equeue.signal, i32, f32, f32, memref<1xf32>, memref<1xf32>, memref<3x3x3xf32>) -> !equeue.signal
      %439 = "equeue.control_and"(%438, %done_220) : (!equeue.signal, !equeue.signal) -> !equeue.signal
      %done_221 = "equeue.launch"(%420, %150, %res_160#1, %res_160#2, %152, %181, %123) ( {
      ^bb0(%arg5: f32, %arg6: f32, %arg7: memref<1xf32>, %arg8: memref<1xf32>, %arg9: memref<3x3x3xf32>):  // no predecessors
        "equeue.write"(%arg5, %arg8) {bank = 0 : i64} : (f32, memref<1xf32>) -> ()
        "equeue.write"(%arg6, %arg7) {bank = 2 : i64} : (f32, memref<1xf32>) -> ()
        "equeue.return"() : () -> ()
      }) : (!equeue.signal, i32, f32, f32, memref<1xf32>, memref<1xf32>, memref<3x3x3xf32>) -> !equeue.signal
      %440 = "equeue.control_and"(%439, %done_221) : (!equeue.signal, !equeue.signal) -> !equeue.signal
      %done_222 = "equeue.launch"(%420, %180, %res_170#1, %res_170#2, %182, %211, %123) ( {
      ^bb0(%arg5: f32, %arg6: f32, %arg7: memref<1xf32>, %arg8: memref<1xf32>, %arg9: memref<3x3x3xf32>):  // no predecessors
        "equeue.write"(%arg5, %arg8) {bank = 0 : i64} : (f32, memref<1xf32>) -> ()
        "equeue.write"(%arg6, %arg7) {bank = 2 : i64} : (f32, memref<1xf32>) -> ()
        "equeue.return"() : () -> ()
      }) : (!equeue.signal, i32, f32, f32, memref<1xf32>, memref<1xf32>, memref<3x3x3xf32>) -> !equeue.signal
      %441 = "equeue.control_and"(%440, %done_222) : (!equeue.signal, !equeue.signal) -> !equeue.signal
      %done_223 = "equeue.launch"(%420, %210, %res_180#1, %res_180#2, %212, %241, %123) ( {
      ^bb0(%arg5: f32, %arg6: f32, %arg7: memref<1xf32>, %arg8: memref<1xf32>, %arg9: memref<3x3x3xf32>):  // no predecessors
        "equeue.write"(%arg5, %arg8) {bank = 0 : i64} : (f32, memref<1xf32>) -> ()
        "equeue.write"(%arg6, %arg7) {bank = 2 : i64} : (f32, memref<1xf32>) -> ()
        "equeue.return"() : () -> ()
      }) : (!equeue.signal, i32, f32, f32, memref<1xf32>, memref<1xf32>, memref<3x3x3xf32>) -> !equeue.signal
      %442 = "equeue.control_and"(%441, %done_223) : (!equeue.signal, !equeue.signal) -> !equeue.signal
      %done_224 = "equeue.launch"(%420, %240, %res_190#1, %res_190#2, %242, %271, %123) ( {
      ^bb0(%arg5: f32, %arg6: f32, %arg7: memref<1xf32>, %arg8: memref<1xf32>, %arg9: memref<3x3x3xf32>):  // no predecessors
        "equeue.write"(%arg5, %arg8) {bank = 0 : i64} : (f32, memref<1xf32>) -> ()
        "equeue.write"(%arg6, %arg7) {bank = 2 : i64} : (f32, memref<1xf32>) -> ()
        "equeue.return"() : () -> ()
      }) : (!equeue.signal, i32, f32, f32, memref<1xf32>, memref<1xf32>, memref<3x3x3xf32>) -> !equeue.signal
      %443 = "equeue.control_and"(%442, %done_224) : (!equeue.signal, !equeue.signal) -> !equeue.signal
      %done_225 = "equeue.launch"(%420, %270, %res_200#2, %272, %123) ( {
      ^bb0(%arg5: f32, %arg6: memref<1xf32>, %arg7: memref<3x3x3xf32>):  // no predecessors
        "equeue.write"(%arg5, %arg6) {bank = 2 : i64} : (f32, memref<1xf32>) -> ()
        "equeue.return"() : () -> ()
      }) : (!equeue.signal, i32, f32, memref<1xf32>, memref<3x3x3xf32>) -> !equeue.signal
      %444 = "equeue.control_and"(%443, %done_225) : (!equeue.signal, !equeue.signal) -> !equeue.signal
      "equeue.await"(%444) : (!equeue.signal) -> ()
      %445 = "equeue.control_start"() : () -> !equeue.signal
      %c0_226 = constant 0 : index
      %446 = "equeue.memcpy"(%445, %122, %127, %111, %c0_226) {dest_bank = 0 : i64, src_bank = 0 : i64} : (!equeue.signal, memref<3x5x7x3xf32>, memref<1xf32>, i32, index) -> !equeue.signal
      %447 = "equeue.memcpy"(%445, %122, %133, %113, %c0_226) {dest_bank = 0 : i64, src_bank = 1 : i64} : (!equeue.signal, memref<3x5x7x3xf32>, memref<1xf32>, i32, index) -> !equeue.signal
      %448 = "equeue.control_and"(%447, %446) : (!equeue.signal, !equeue.signal) -> !equeue.signal
      %449 = "equeue.memcpy"(%445, %122, %139, %115, %c0_226) {dest_bank = 0 : i64, src_bank = 2 : i64} : (!equeue.signal, memref<3x5x7x3xf32>, memref<1xf32>, i32, index) -> !equeue.signal
      %450 = "equeue.control_and"(%449, %448) : (!equeue.signal, !equeue.signal) -> !equeue.signal
      %451 = "equeue.memcpy"(%445, %122, %145, %117, %c0_226) {dest_bank = 0 : i64, src_bank = 3 : i64} : (!equeue.signal, memref<3x5x7x3xf32>, memref<1xf32>, i32, index) -> !equeue.signal
      %452 = "equeue.control_and"(%451, %450) : (!equeue.signal, !equeue.signal) -> !equeue.signal
      %453 = "equeue.memcpy"(%445, %121, %129, %102, %c0_226) {dest_bank = 1 : i64, src_bank = 5 : i64} : (!equeue.signal, memref<5x7x7xf32>, memref<1xf32>, i32, index) -> !equeue.signal
      %454 = "equeue.memcpy"(%445, %121, %159, %104, %c0_226) {dest_bank = 1 : i64, src_bank = 6 : i64} : (!equeue.signal, memref<5x7x7xf32>, memref<1xf32>, i32, index) -> !equeue.signal
      %455 = "equeue.control_and"(%454, %453) : (!equeue.signal, !equeue.signal) -> !equeue.signal
      %456 = "equeue.memcpy"(%445, %121, %189, %106, %c0_226) {dest_bank = 1 : i64, src_bank = 7 : i64} : (!equeue.signal, memref<5x7x7xf32>, memref<1xf32>, i32, index) -> !equeue.signal
      %457 = "equeue.control_and"(%456, %455) : (!equeue.signal, !equeue.signal) -> !equeue.signal
      %458 = "equeue.memcpy"(%445, %121, %219, %108, %c0_226) {dest_bank = 1 : i64, src_bank = 8 : i64} : (!equeue.signal, memref<5x7x7xf32>, memref<1xf32>, i32, index) -> !equeue.signal
      %459 = "equeue.control_and"(%458, %457) : (!equeue.signal, !equeue.signal) -> !equeue.signal
      "equeue.await"(%459, %452) : (!equeue.signal, !equeue.signal) -> ()
      %460 = "equeue.control_start"() : () -> !equeue.signal
      %done_227, %res_228:3 = "equeue.launch"(%460, %126, %129, %127, %128) ( {
      ^bb0(%arg5: memref<1xf32>, %arg6: memref<1xf32>, %arg7: memref<1xf32>):  // no predecessors
        %6869 = "equeue.read"(%arg6) {bank = 0 : i64} : (memref<1xf32>) -> f32
        %6870 = "equeue.read"(%arg5) {bank = 1 : i64} : (memref<1xf32>) -> f32
        %6871 = mulf %6870, %6869 : f32
        %6872 = "equeue.read"(%arg7) {bank = 2 : i64} : (memref<1xf32>) -> f32
        %6873 = addf %6871, %6872 : f32
        "equeue.return"(%6870, %6869, %6873) : (f32, f32, f32) -> ()
      }) : (!equeue.signal, i32, memref<1xf32>, memref<1xf32>, memref<1xf32>) -> (!equeue.signal, f32, f32, f32)
      %done_229, %res_230:3 = "equeue.launch"(%460, %132, %135, %133, %134) ( {
      ^bb0(%arg5: memref<1xf32>, %arg6: memref<1xf32>, %arg7: memref<1xf32>):  // no predecessors
        %6869 = "equeue.read"(%arg6) {bank = 0 : i64} : (memref<1xf32>) -> f32
        %6870 = "equeue.read"(%arg5) {bank = 1 : i64} : (memref<1xf32>) -> f32
        %6871 = mulf %6870, %6869 : f32
        %6872 = "equeue.read"(%arg7) {bank = 2 : i64} : (memref<1xf32>) -> f32
        %6873 = addf %6871, %6872 : f32
        "equeue.return"(%6870, %6869, %6873) : (f32, f32, f32) -> ()
      }) : (!equeue.signal, i32, memref<1xf32>, memref<1xf32>, memref<1xf32>) -> (!equeue.signal, f32, f32, f32)
      %461 = "equeue.control_and"(%done_227, %done_229) : (!equeue.signal, !equeue.signal) -> !equeue.signal
      %done_231, %res_232:3 = "equeue.launch"(%460, %138, %141, %139, %140) ( {
      ^bb0(%arg5: memref<1xf32>, %arg6: memref<1xf32>, %arg7: memref<1xf32>):  // no predecessors
        %6869 = "equeue.read"(%arg6) {bank = 0 : i64} : (memref<1xf32>) -> f32
        %6870 = "equeue.read"(%arg5) {bank = 1 : i64} : (memref<1xf32>) -> f32
        %6871 = mulf %6870, %6869 : f32
        %6872 = "equeue.read"(%arg7) {bank = 2 : i64} : (memref<1xf32>) -> f32
        %6873 = addf %6871, %6872 : f32
        "equeue.return"(%6870, %6869, %6873) : (f32, f32, f32) -> ()
      }) : (!equeue.signal, i32, memref<1xf32>, memref<1xf32>, memref<1xf32>) -> (!equeue.signal, f32, f32, f32)
      %462 = "equeue.control_and"(%461, %done_231) : (!equeue.signal, !equeue.signal) -> !equeue.signal
      %done_233, %res_234:3 = "equeue.launch"(%460, %144, %147, %145, %146) ( {
      ^bb0(%arg5: memref<1xf32>, %arg6: memref<1xf32>, %arg7: memref<1xf32>):  // no predecessors
        %6869 = "equeue.read"(%arg6) {bank = 0 : i64} : (memref<1xf32>) -> f32
        %6870 = "equeue.read"(%arg5) {bank = 1 : i64} : (memref<1xf32>) -> f32
        %6871 = mulf %6870, %6869 : f32
        %6872 = "equeue.read"(%arg7) {bank = 2 : i64} : (memref<1xf32>) -> f32
        %6873 = addf %6871, %6872 : f32
        "equeue.return"(%6870, %6869, %6873) : (f32, f32, f32) -> ()
      }) : (!equeue.signal, i32, memref<1xf32>, memref<1xf32>, memref<1xf32>) -> (!equeue.signal, f32, f32, f32)
      %463 = "equeue.control_and"(%462, %done_233) : (!equeue.signal, !equeue.signal) -> !equeue.signal
      %done_235, %res_236:3 = "equeue.launch"(%460, %150, %153, %151, %152) ( {
      ^bb0(%arg5: memref<1xf32>, %arg6: memref<1xf32>, %arg7: memref<1xf32>):  // no predecessors
        %6869 = "equeue.read"(%arg6) {bank = 0 : i64} : (memref<1xf32>) -> f32
        %6870 = "equeue.read"(%arg5) {bank = 1 : i64} : (memref<1xf32>) -> f32
        %6871 = mulf %6870, %6869 : f32
        %6872 = "equeue.read"(%arg7) {bank = 2 : i64} : (memref<1xf32>) -> f32
        %6873 = addf %6871, %6872 : f32
        "equeue.return"(%6870, %6869, %6873) : (f32, f32, f32) -> ()
      }) : (!equeue.signal, i32, memref<1xf32>, memref<1xf32>, memref<1xf32>) -> (!equeue.signal, f32, f32, f32)
      %464 = "equeue.control_and"(%463, %done_235) : (!equeue.signal, !equeue.signal) -> !equeue.signal
…
      ^bb0(%arg5: f32, %arg6: f32, %arg7: f32, %arg8: memref<1xf32>, %arg9: memref<1xf32>, %arg10: memref<1xf32>, %arg11: memref<1xf32>, %arg12: memref<3x3x3xf32>):  // no predecessors
        "equeue.write"(%arg5, %arg9) {bank = 1 : i64} : (f32, memref<1xf32>) -> ()
        "equeue.write"(%arg6, %arg10) {bank = 0 : i64} : (f32, memref<1xf32>) -> ()
        "equeue.write"(%arg7, %arg8) {bank = 2 : i64} : (f32, memref<1xf32>) -> ()
        "equeue.return"() : () -> ()
      }) : (!equeue.signal, i32, f32, f32, f32, memref<1xf32>, memref<1xf32>, memref<1xf32>, memref<1xf32>, memref<3x3x3xf32>) -> !equeue.signal
      %6803 = "equeue.control_and"(%6802, %done_7279) : (!equeue.signal, !equeue.signal) -> !equeue.signal
      %done_7280 = "equeue.launch"(%6793, %168, %res_7234#0, %res_7234#1, %res_7234#2, %170, %170, %177, %199, %123) ( {
      ^bb0(%arg5: f32, %arg6: f32, %arg7: f32, %arg8: memref<1xf32>, %arg9: memref<1xf32>, %arg10: memref<1xf32>, %arg11: memref<1xf32>, %arg12: memref<3x3x3xf32>):  // no predecessors
        "equeue.write"(%arg5, %arg9) {bank = 1 : i64} : (f32, memref<1xf32>) -> ()
        "equeue.write"(%arg6, %arg10) {bank = 0 : i64} : (f32, memref<1xf32>) -> ()
        "equeue.write"(%arg7, %arg8) {bank = 2 : i64} : (f32, memref<1xf32>) -> ()
        "equeue.return"() : () -> ()
      }) : (!equeue.signal, i32, f32, f32, f32, memref<1xf32>, memref<1xf32>, memref<1xf32>, memref<1xf32>, memref<3x3x3xf32>) -> !equeue.signal
      %6804 = "equeue.control_and"(%6803, %done_7280) : (!equeue.signal, !equeue.signal) -> !equeue.signal
      %done_7281 = "equeue.launch"(%6793, %198, %res_7244#0, %res_7244#1, %res_7244#2, %200, %200, %207, %229, %123) ( {
      ^bb0(%arg5: f32, %arg6: f32, %arg7: f32, %arg8: memref<1xf32>, %arg9: memref<1xf32>, %arg10: memref<1xf32>, %arg11: memref<1xf32>, %arg12: memref<3x3x3xf32>):  // no predecessors
        "equeue.write"(%arg5, %arg9) {bank = 1 : i64} : (f32, memref<1xf32>) -> ()
        "equeue.write"(%arg6, %arg10) {bank = 0 : i64} : (f32, memref<1xf32>) -> ()
        "equeue.write"(%arg7, %arg8) {bank = 2 : i64} : (f32, memref<1xf32>) -> ()
        "equeue.return"() : () -> ()
      }) : (!equeue.signal, i32, f32, f32, f32, memref<1xf32>, memref<1xf32>, memref<1xf32>, memref<1xf32>, memref<3x3x3xf32>) -> !equeue.signal
      %6805 = "equeue.control_and"(%6804, %done_7281) : (!equeue.signal, !equeue.signal) -> !equeue.signal
      %done_7282 = "equeue.launch"(%6793, %228, %res_7254#0, %res_7254#1, %res_7254#2, %230, %230, %237, %259, %123) ( {
      ^bb0(%arg5: f32, %arg6: f32, %arg7: f32, %arg8: memref<1xf32>, %arg9: memref<1xf32>, %arg10: memref<1xf32>, %arg11: memref<1xf32>, %arg12: memref<3x3x3xf32>):  // no predecessors
        "equeue.write"(%arg5, %arg9) {bank = 1 : i64} : (f32, memref<1xf32>) -> ()
        "equeue.write"(%arg6, %arg10) {bank = 0 : i64} : (f32, memref<1xf32>) -> ()
        "equeue.write"(%arg7, %arg8) {bank = 2 : i64} : (f32, memref<1xf32>) -> ()
        "equeue.return"() : () -> ()
      }) : (!equeue.signal, i32, f32, f32, f32, memref<1xf32>, memref<1xf32>, memref<1xf32>, memref<1xf32>, memref<3x3x3xf32>) -> !equeue.signal
      %6806 = "equeue.control_and"(%6805, %done_7282) : (!equeue.signal, !equeue.signal) -> !equeue.signal
      %done_7283 = "equeue.launch"(%6793, %258, %res_7264#0, %res_7264#2, %260, %267, %123) ( {
      ^bb0(%arg5: f32, %arg6: f32, %arg7: memref<1xf32>, %arg8: memref<1xf32>, %arg9: memref<3x3x3xf32>):  // no predecessors
        "equeue.write"(%arg5, %arg8) {bank = 1 : i64} : (f32, memref<1xf32>) -> ()
        "equeue.write"(%arg6, %arg7) {bank = 2 : i64} : (f32, memref<1xf32>) -> ()
        "equeue.return"() : () -> ()
      }) : (!equeue.signal, i32, f32, f32, memref<1xf32>, memref<1xf32>, memref<3x3x3xf32>) -> !equeue.signal
      %6807 = "equeue.control_and"(%6806, %done_7283) : (!equeue.signal, !equeue.signal) -> !equeue.signal
      %done_7284 = "equeue.launch"(%6793, %144, %res_7226#0, %res_7226#1, %res_7226#2, %146, %146, %153, %175, %123) ( {
      ^bb0(%arg5: f32, %arg6: f32, %arg7: f32, %arg8: memref<1xf32>, %arg9: memref<1xf32>, %arg10: memref<1xf32>, %arg11: memref<1xf32>, %arg12: memref<3x3x3xf32>):  // no predecessors
        "equeue.write"(%arg5, %arg9) {bank = 1 : i64} : (f32, memref<1xf32>) -> ()
        "equeue.write"(%arg6, %arg10) {bank = 0 : i64} : (f32, memref<1xf32>) -> ()
        "equeue.write"(%arg7, %arg8) {bank = 2 : i64} : (f32, memref<1xf32>) -> ()
        "equeue.return"() : () -> ()
      }) : (!equeue.signal, i32, f32, f32, f32, memref<1xf32>, memref<1xf32>, memref<1xf32>, memref<1xf32>, memref<3x3x3xf32>) -> !equeue.signal
      %6808 = "equeue.control_and"(%6807, %done_7284) : (!equeue.signal, !equeue.signal) -> !equeue.signal
      %done_7285 = "equeue.launch"(%6793, %174, %res_7236#0, %res_7236#1, %res_7236#2, %176, %176, %183, %205, %123) ( {
      ^bb0(%arg5: f32, %arg6: f32, %arg7: f32, %arg8: memref<1xf32>, %arg9: memref<1xf32>, %arg10: memref<1xf32>, %arg11: memref<1xf32>, %arg12: memref<3x3x3xf32>):  // no predecessors
        "equeue.write"(%arg5, %arg9) {bank = 1 : i64} : (f32, memref<1xf32>) -> ()
        "equeue.write"(%arg6, %arg10) {bank = 0 : i64} : (f32, memref<1xf32>) -> ()
        "equeue.write"(%arg7, %arg8) {bank = 2 : i64} : (f32, memref<1xf32>) -> ()
        "equeue.return"() : () -> ()
      }) : (!equeue.signal, i32, f32, f32, f32, memref<1xf32>, memref<1xf32>, memref<1xf32>, memref<1xf32>, memref<3x3x3xf32>) -> !equeue.signal
      %6809 = "equeue.control_and"(%6808, %done_7285) : (!equeue.signal, !equeue.signal) -> !equeue.signal
      %done_7286 = "equeue.launch"(%6793, %204, %res_7246#0, %res_7246#1, %res_7246#2, %206, %206, %213, %235, %123) ( {
      ^bb0(%arg5: f32, %arg6: f32, %arg7: f32, %arg8: memref<1xf32>, %arg9: memref<1xf32>, %arg10: memref<1xf32>, %arg11: memref<1xf32>, %arg12: memref<3x3x3xf32>):  // no predecessors
        "equeue.write"(%arg5, %arg9) {bank = 1 : i64} : (f32, memref<1xf32>) -> ()
        "equeue.write"(%arg6, %arg10) {bank = 0 : i64} : (f32, memref<1xf32>) -> ()
        "equeue.write"(%arg7, %arg8) {bank = 2 : i64} : (f32, memref<1xf32>) -> ()
        "equeue.return"() : () -> ()
      }) : (!equeue.signal, i32, f32, f32, f32, memref<1xf32>, memref<1xf32>, memref<1xf32>, memref<1xf32>, memref<3x3x3xf32>) -> !equeue.signal
      %6810 = "equeue.control_and"(%6809, %done_7286) : (!equeue.signal, !equeue.signal) -> !equeue.signal
      %done_7287 = "equeue.launch"(%6793, %234, %res_7256#0, %res_7256#1, %res_7256#2, %236, %236, %243, %265, %123) ( {
      ^bb0(%arg5: f32, %arg6: f32, %arg7: f32, %arg8: memref<1xf32>, %arg9: memref<1xf32>, %arg10: memref<1xf32>, %arg11: memref<1xf32>, %arg12: memref<3x3x3xf32>):  // no predecessors
        "equeue.write"(%arg5, %arg9) {bank = 1 : i64} : (f32, memref<1xf32>) -> ()
        "equeue.write"(%arg6, %arg10) {bank = 0 : i64} : (f32, memref<1xf32>) -> ()
        "equeue.write"(%arg7, %arg8) {bank = 2 : i64} : (f32, memref<1xf32>) -> ()
        "equeue.return"() : () -> ()
      }) : (!equeue.signal, i32, f32, f32, f32, memref<1xf32>, memref<1xf32>, memref<1xf32>, memref<1xf32>, memref<3x3x3xf32>) -> !equeue.signal
      %6811 = "equeue.control_and"(%6810, %done_7287) : (!equeue.signal, !equeue.signal) -> !equeue.signal
      %done_7288 = "equeue.launch"(%6793, %264, %res_7266#0, %res_7266#2, %266, %273, %123) ( {
      ^bb0(%arg5: f32, %arg6: f32, %arg7: memref<1xf32>, %arg8: memref<1xf32>, %arg9: memref<3x3x3xf32>):  // no predecessors
        "equeue.write"(%arg5, %arg8) {bank = 1 : i64} : (f32, memref<1xf32>) -> ()
        "equeue.write"(%arg6, %arg7) {bank = 2 : i64} : (f32, memref<1xf32>) -> ()
        "equeue.return"() : () -> ()
      }) : (!equeue.signal, i32, f32, f32, memref<1xf32>, memref<1xf32>, memref<3x3x3xf32>) -> !equeue.signal
      %6812 = "equeue.control_and"(%6811, %done_7288) : (!equeue.signal, !equeue.signal) -> !equeue.signal
      %done_7289 = "equeue.launch"(%6793, %150, %res_7228#1, %res_7228#2, %152, %181, %123) ( {
      ^bb0(%arg5: f32, %arg6: f32, %arg7: memref<1xf32>, %arg8: memref<1xf32>, %arg9: memref<3x3x3xf32>):  // no predecessors
        "equeue.write"(%arg5, %arg8) {bank = 0 : i64} : (f32, memref<1xf32>) -> ()
        "equeue.write"(%arg6, %arg7) {bank = 2 : i64} : (f32, memref<1xf32>) -> ()
        "equeue.return"() : () -> ()
      }) : (!equeue.signal, i32, f32, f32, memref<1xf32>, memref<1xf32>, memref<3x3x3xf32>) -> !equeue.signal
      %6813 = "equeue.control_and"(%6812, %done_7289) : (!equeue.signal, !equeue.signal) -> !equeue.signal
      %done_7290 = "equeue.launch"(%6793, %180, %res_7238#1, %res_7238#2, %182, %211, %123) ( {
      ^bb0(%arg5: f32, %arg6: f32, %arg7: memref<1xf32>, %arg8: memref<1xf32>, %arg9: memref<3x3x3xf32>):  // no predecessors
        "equeue.write"(%arg5, %arg8) {bank = 0 : i64} : (f32, memref<1xf32>) -> ()
        "equeue.write"(%arg6, %arg7) {bank = 2 : i64} : (f32, memref<1xf32>) -> ()
        "equeue.return"() : () -> ()
      }) : (!equeue.signal, i32, f32, f32, memref<1xf32>, memref<1xf32>, memref<3x3x3xf32>) -> !equeue.signal
      %6814 = "equeue.control_and"(%6813, %done_7290) : (!equeue.signal, !equeue.signal) -> !equeue.signal
      %done_7291 = "equeue.launch"(%6793, %210, %res_7248#1, %res_7248#2, %212, %241, %123) ( {
      ^bb0(%arg5: f32, %arg6: f32, %arg7: memref<1xf32>, %arg8: memref<1xf32>, %arg9: memref<3x3x3xf32>):  // no predecessors
        "equeue.write"(%arg5, %arg8) {bank = 0 : i64} : (f32, memref<1xf32>) -> ()
        "equeue.write"(%arg6, %arg7) {bank = 2 : i64} : (f32, memref<1xf32>) -> ()
        "equeue.return"() : () -> ()
      }) : (!equeue.signal, i32, f32, f32, memref<1xf32>, memref<1xf32>, memref<3x3x3xf32>) -> !equeue.signal
      %6815 = "equeue.control_and"(%6814, %done_7291) : (!equeue.signal, !equeue.signal) -> !equeue.signal
      %done_7292 = "equeue.launch"(%6793, %240, %res_7258#1, %res_7258#2, %242, %271, %123) ( {
      ^bb0(%arg5: f32, %arg6: f32, %arg7: memref<1xf32>, %arg8: memref<1xf32>, %arg9: memref<3x3x3xf32>):  // no predecessors
        "equeue.write"(%arg5, %arg8) {bank = 0 : i64} : (f32, memref<1xf32>) -> ()
        "equeue.write"(%arg6, %arg7) {bank = 2 : i64} : (f32, memref<1xf32>) -> ()
        "equeue.return"() : () -> ()
      }) : (!equeue.signal, i32, f32, f32, memref<1xf32>, memref<1xf32>, memref<3x3x3xf32>) -> !equeue.signal
      %6816 = "equeue.control_and"(%6815, %done_7292) : (!equeue.signal, !equeue.signal) -> !equeue.signal
      %done_7293 = "equeue.launch"(%6793, %270, %res_7268#2, %272, %123) ( {
      ^bb0(%arg5: f32, %arg6: memref<1xf32>, %arg7: memref<3x3x3xf32>):  // no predecessors
        "equeue.write"(%arg5, %arg6) {bank = 2 : i64} : (f32, memref<1xf32>) -> ()
        "equeue.return"() : () -> ()
      }) : (!equeue.signal, i32, f32, memref<1xf32>, memref<3x3x3xf32>) -> !equeue.signal
      %6817 = "equeue.control_and"(%6816, %done_7293) : (!equeue.signal, !equeue.signal) -> !equeue.signal
      "equeue.await"(%6817) : (!equeue.signal) -> ()
      %6818 = "equeue.control_start"() : () -> !equeue.signal
      %c0_7294 = constant 0 : index
      %6819 = "equeue.control_start"() : () -> !equeue.signal
      %done_7295, %res_7296:3 = "equeue.launch"(%6819, %126, %129, %127, %128) ( {
      ^bb0(%arg5: memref<1xf32>, %arg6: memref<1xf32>, %arg7: memref<1xf32>):  // no predecessors
        %6869 = "equeue.read"(%arg6) {bank = 0 : i64} : (memref<1xf32>) -> f32
        %6870 = "equeue.read"(%arg5) {bank = 1 : i64} : (memref<1xf32>) -> f32
        %6871 = mulf %6870, %6869 : f32
        %6872 = "equeue.read"(%arg7) {bank = 2 : i64} : (memref<1xf32>) -> f32
        %6873 = addf %6871, %6872 : f32
        "equeue.return"(%6870, %6869, %6873) : (f32, f32, f32) -> ()
      }) : (!equeue.signal, i32, memref<1xf32>, memref<1xf32>, memref<1xf32>) -> (!equeue.signal, f32, f32, f32)
      %done_7297, %res_7298:3 = "equeue.launch"(%6819, %132, %135, %133, %134) ( {
      ^bb0(%arg5: memref<1xf32>, %arg6: memref<1xf32>, %arg7: memref<1xf32>):  // no predecessors
        %6869 = "equeue.read"(%arg6) {bank = 0 : i64} : (memref<1xf32>) -> f32
        %6870 = "equeue.read"(%arg5) {bank = 1 : i64} : (memref<1xf32>) -> f32
        %6871 = mulf %6870, %6869 : f32
        %6872 = "equeue.read"(%arg7) {bank = 2 : i64} : (memref<1xf32>) -> f32
        %6873 = addf %6871, %6872 : f32
        "equeue.return"(%6870, %6869, %6873) : (f32, f32, f32) -> ()
      }) : (!equeue.signal, i32, memref<1xf32>, memref<1xf32>, memref<1xf32>) -> (!equeue.signal, f32, f32, f32)
      %6820 = "equeue.control_and"(%done_7295, %done_7297) : (!equeue.signal, !equeue.signal) -> !equeue.signal
      %done_7299, %res_7300:3 = "equeue.launch"(%6819, %138, %141, %139, %140) ( {
      ^bb0(%arg5: memref<1xf32>, %arg6: memref<1xf32>, %arg7: memref<1xf32>):  // no predecessors
        %6869 = "equeue.read"(%arg6) {bank = 0 : i64} : (memref<1xf32>) -> f32
        %6870 = "equeue.read"(%arg5) {bank = 1 : i64} : (memref<1xf32>) -> f32
        %6871 = mulf %6870, %6869 : f32
        %6872 = "equeue.read"(%arg7) {bank = 2 : i64} : (memref<1xf32>) -> f32
        %6873 = addf %6871, %6872 : f32
        "equeue.return"(%6870, %6869, %6873) : (f32, f32, f32) -> ()
      }) : (!equeue.signal, i32, memref<1xf32>, memref<1xf32>, memref<1xf32>) -> (!equeue.signal, f32, f32, f32)
      %6821 = "equeue.control_and"(%6820, %done_7299) : (!equeue.signal, !equeue.signal) -> !equeue.signal
      %done_7301, %res_7302:3 = "equeue.launch"(%6819, %144, %147, %145, %146) ( {
      ^bb0(%arg5: memref<1xf32>, %arg6: memref<1xf32>, %arg7: memref<1xf32>):  // no predecessors
        %6869 = "equeue.read"(%arg6) {bank = 0 : i64} : (memref<1xf32>) -> f32
        %6870 = "equeue.read"(%arg5) {bank = 1 : i64} : (memref<1xf32>) -> f32
        %6871 = mulf %6870, %6869 : f32
        %6872 = "equeue.read"(%arg7) {bank = 2 : i64} : (memref<1xf32>) -> f32
        %6873 = addf %6871, %6872 : f32
        "equeue.return"(%6870, %6869, %6873) : (f32, f32, f32) -> ()
      }) : (!equeue.signal, i32, memref<1xf32>, memref<1xf32>, memref<1xf32>) -> (!equeue.signal, f32, f32, f32)
      %6822 = "equeue.control_and"(%6821, %done_7301) : (!equeue.signal, !equeue.signal) -> !equeue.signal
      %done_7303, %res_7304:3 = "equeue.launch"(%6819, %150, %153, %151, %152) ( {
      ^bb0(%arg5: memref<1xf32>, %arg6: memref<1xf32>, %arg7: memref<1xf32>):  // no predecessors
        %6869 = "equeue.read"(%arg6) {bank = 0 : i64} : (memref<1xf32>) -> f32
        %6870 = "equeue.read"(%arg5) {bank = 1 : i64} : (memref<1xf32>) -> f32
        %6871 = mulf %6870, %6869 : f32
        %6872 = "equeue.read"(%arg7) {bank = 2 : i64} : (memref<1xf32>) -> f32
        %6873 = addf %6871, %6872 : f32
        "equeue.return"(%6870, %6869, %6873) : (f32, f32, f32) -> ()
      }) : (!equeue.signal, i32, memref<1xf32>, memref<1xf32>, memref<1xf32>) -> (!equeue.signal, f32, f32, f32)
      %6823 = "equeue.control_and"(%6822, %done_7303) : (!equeue.signal, !equeue.signal) -> !equeue.signal
      %done_7305, %res_7306:3 = "equeue.launch"(%6819, %156, %159, %157, %158) ( {
      ^bb0(%arg5: memref<1xf32>, %arg6: memref<1xf32>, %arg7: memref<1xf32>):  // no predecessors
        %6869 = "equeue.read"(%arg6) {bank = 0 : i64} : (memref<1xf32>) -> f32
        %6870 = "equeue.read"(%arg5) {bank = 1 : i64} : (memref<1xf32>) -> f32
        %6871 = mulf %6870, %6869 : f32
        %6872 = "equeue.read"(%arg7) {bank = 2 : i64} : (memref<1xf32>) -> f32
        %6873 = addf %6871, %6872 : f32
        "equeue.return"(%6870, %6869, %6873) : (f32, f32, f32) -> ()
      }) : (!equeue.signal, i32, memref<1xf32>, memref<1xf32>, memref<1xf32>) -> (!equeue.signal, f32, f32, f32)
      %6824 = "equeue.control_and"(%6823, %done_7305) : (!equeue.signal, !equeue.signal) -> !equeue.signal
      %done_7307, %res_7308:3 = "equeue.launch"(%6819, %162, %165, %163, %164) ( {
      ^bb0(%arg5: memref<1xf32>, %arg6: memref<1xf32>, %arg7: memref<1xf32>):  // no predecessors
        %6869 = "equeue.read"(%arg6) {bank = 0 : i64} : (memref<1xf32>) -> f32
        %6870 = "equeue.read"(%arg5) {bank = 1 : i64} : (memref<1xf32>) -> f32
        %6871 = mulf %6870, %6869 : f32
        %6872 = "equeue.read"(%arg7) {bank = 2 : i64} : (memref<1xf32>) -> f32
        %6873 = addf %6871, %6872 : f32
        "equeue.return"(%6870, %6869, %6873) : (f32, f32, f32) -> ()
      }) : (!equeue.signal, i32, memref<1xf32>, memref<1xf32>, memref<1xf32>) -> (!equeue.signal, f32, f32, f32)
      %6825 = "equeue.control_and"(%6824, %done_7307) : (!equeue.signal, !equeue.signal) -> !equeue.signal
      %done_7309, %res_7310:3 = "equeue.launch"(%6819, %168, %171, %169, %170) ( {
      ^bb0(%arg5: memref<1xf32>, %arg6: memref<1xf32>, %arg7: memref<1xf32>):  // no predecessors
        %6869 = "equeue.read"(%arg6) {bank = 0 : i64} : (memref<1xf32>) -> f32
        %6870 = "equeue.read"(%arg5) {bank = 1 : i64} : (memref<1xf32>) -> f32
        %6871 = mulf %6870, %6869 : f32
        %6872 = "equeue.read"(%arg7) {bank = 2 : i64} : (memref<1xf32>) -> f32
        %6873 = addf %6871, %6872 : f32
        "equeue.return"(%6870, %6869, %6873) : (f32, f32, f32) -> ()
      }) : (!equeue.signal, i32, memref<1xf32>, memref<1xf32>, memref<1xf32>) -> (!equeue.signal, f32, f32, f32)
      %6826 = "equeue.control_and"(%6825, %done_7309) : (!equeue.signal, !equeue.signal) -> !equeue.signal
      %done_7311, %res_7312:3 = "equeue.launch"(%6819, %174, %177, %175, %176) ( {
      ^bb0(%arg5: memref<1xf32>, %arg6: memref<1xf32>, %arg7: memref<1xf32>):  // no predecessors
        %6869 = "equeue.read"(%arg6) {bank = 0 : i64} : (memref<1xf32>) -> f32
        %6870 = "equeue.read"(%arg5) {bank = 1 : i64} : (memref<1xf32>) -> f32
        %6871 = mulf %6870, %6869 : f32
        %6872 = "equeue.read"(%arg7) {bank = 2 : i64} : (memref<1xf32>) -> f32
        %6873 = addf %6871, %6872 : f32
        "equeue.return"(%6870, %6869, %6873) : (f32, f32, f32) -> ()
      }) : (!equeue.signal, i32, memref<1xf32>, memref<1xf32>, memref<1xf32>) -> (!equeue.signal, f32, f32, f32)
      %6827 = "equeue.control_and"(%6826, %done_7311) : (!equeue.signal, !equeue.signal) -> !equeue.signal
      %done_7313, %res_7314:3 = "equeue.launch"(%6819, %180, %183, %181, %182) ( {
      ^bb0(%arg5: memref<1xf32>, %arg6: memref<1xf32>, %arg7: memref<1xf32>):  // no predecessors
        %6869 = "equeue.read"(%arg6) {bank = 0 : i64} : (memref<1xf32>) -> f32
        %6870 = "equeue.read"(%arg5) {bank = 1 : i64} : (memref<1xf32>) -> f32
        %6871 = mulf %6870, %6869 : f32
        %6872 = "equeue.read"(%arg7) {bank = 2 : i64} : (memref<1xf32>) -> f32
        %6873 = addf %6871, %6872 : f32
        "equeue.return"(%6870, %6869, %6873) : (f32, f32, f32) -> ()
      }) : (!equeue.signal, i32, memref<1xf32>, memref<1xf32>, memref<1xf32>) -> (!equeue.signal, f32, f32, f32)
      %6828 = "equeue.control_and"(%6827, %done_7313) : (!equeue.signal, !equeue.signal) -> !equeue.signal
      %done_7315, %res_7316:3 = "equeue.launch"(%6819, %186, %189, %187, %188) ( {
      ^bb0(%arg5: memref<1xf32>, %arg6: memref<1xf32>, %arg7: memref<1xf32>):  // no predecessors
        %6869 = "equeue.read"(%arg6) {bank = 0 : i64} : (memref<1xf32>) -> f32
        %6870 = "equeue.read"(%arg5) {bank = 1 : i64} : (memref<1xf32>) -> f32
        %6871 = mulf %6870, %6869 : f32
        %6872 = "equeue.read"(%arg7) {bank = 2 : i64} : (memref<1xf32>) -> f32
        %6873 = addf %6871, %6872 : f32
        "equeue.return"(%6870, %6869, %6873) : (f32, f32, f32) -> ()
      }) : (!equeue.signal, i32, memref<1xf32>, memref<1xf32>, memref<1xf32>) -> (!equeue.signal, f32, f32, f32)
      %6829 = "equeue.control_and"(%6828, %done_7315) : (!equeue.signal, !equeue.signal) -> !equeue.signal
      %done_7317, %res_7318:3 = "equeue.launch"(%6819, %192, %195, %193, %194) ( {
      ^bb0(%arg5: memref<1xf32>, %arg6: memref<1xf32>, %arg7: memref<1xf32>):  // no predecessors
        %6869 = "equeue.read"(%arg6) {bank = 0 : i64} : (memref<1xf32>) -> f32
        %6870 = "equeue.read"(%arg5) {bank = 1 : i64} : (memref<1xf32>) -> f32
        %6871 = mulf %6870, %6869 : f32
        %6872 = "equeue.read"(%arg7) {bank = 2 : i64} : (memref<1xf32>) -> f32
        %6873 = addf %6871, %6872 : f32
        "equeue.return"(%6870, %6869, %6873) : (f32, f32, f32) -> ()
      }) : (!equeue.signal, i32, memref<1xf32>, memref<1xf32>, memref<1xf32>) -> (!equeue.signal, f32, f32, f32)
      %6830 = "equeue.control_and"(%6829, %done_7317) : (!equeue.signal, !equeue.signal) -> !equeue.signal
      %done_7319, %res_7320:3 = "equeue.launch"(%6819, %198, %201, %199, %200) ( {
      ^bb0(%arg5: memref<1xf32>, %arg6: memref<1xf32>, %arg7: memref<1xf32>):  // no predecessors
        %6869 = "equeue.read"(%arg6) {bank = 0 : i64} : (memref<1xf32>) -> f32
        %6870 = "equeue.read"(%arg5) {bank = 1 : i64} : (memref<1xf32>) -> f32
        %6871 = mulf %6870, %6869 : f32
        %6872 = "equeue.read"(%arg7) {bank = 2 : i64} : (memref<1xf32>) -> f32
        %6873 = addf %6871, %6872 : f32
        "equeue.return"(%6870, %6869, %6873) : (f32, f32, f32) -> ()
      }) : (!equeue.signal, i32, memref<1xf32>, memref<1xf32>, memref<1xf32>) -> (!equeue.signal, f32, f32, f32)
      %6831 = "equeue.control_and"(%6830, %done_7319) : (!equeue.signal, !equeue.signal) -> !equeue.signal
      %done_7321, %res_7322:3 = "equeue.launch"(%6819, %204, %207, %205, %206) ( {
      ^bb0(%arg5: memref<1xf32>, %arg6: memref<1xf32>, %arg7: memref<1xf32>):  // no predecessors
        %6869 = "equeue.read"(%arg6) {bank = 0 : i64} : (memref<1xf32>) -> f32
        %6870 = "equeue.read"(%arg5) {bank = 1 : i64} : (memref<1xf32>) -> f32
        %6871 = mulf %6870, %6869 : f32
        %6872 = "equeue.read"(%arg7) {bank = 2 : i64} : (memref<1xf32>) -> f32
        %6873 = addf %6871, %6872 : f32
        "equeue.return"(%6870, %6869, %6873) : (f32, f32, f32) -> ()
      }) : (!equeue.signal, i32, memref<1xf32>, memref<1xf32>, memref<1xf32>) -> (!equeue.signal, f32, f32, f32)
      %6832 = "equeue.control_and"(%6831, %done_7321) : (!equeue.signal, !equeue.signal) -> !equeue.signal
      %done_7323, %res_7324:3 = "equeue.launch"(%6819, %210, %213, %211, %212) ( {
      ^bb0(%arg5: memref<1xf32>, %arg6: memref<1xf32>, %arg7: memref<1xf32>):  // no predecessors
        %6869 = "equeue.read"(%arg6) {bank = 0 : i64} : (memref<1xf32>) -> f32
        %6870 = "equeue.read"(%arg5) {bank = 1 : i64} : (memref<1xf32>) -> f32
        %6871 = mulf %6870, %6869 : f32
        %6872 = "equeue.read"(%arg7) {bank = 2 : i64} : (memref<1xf32>) -> f32
        %6873 = addf %6871, %6872 : f32
        "equeue.return"(%6870, %6869, %6873) : (f32, f32, f32) -> ()
      }) : (!equeue.signal, i32, memref<1xf32>, memref<1xf32>, memref<1xf32>) -> (!equeue.signal, f32, f32, f32)
      %6833 = "equeue.control_and"(%6832, %done_7323) : (!equeue.signal, !equeue.signal) -> !equeue.signal
      %done_7325, %res_7326:3 = "equeue.launch"(%6819, %216, %219, %217, %218) ( {
      ^bb0(%arg5: memref<1xf32>, %arg6: memref<1xf32>, %arg7: memref<1xf32>):  // no predecessors
        %6869 = "equeue.read"(%arg6) {bank = 0 : i64} : (memref<1xf32>) -> f32
        %6870 = "equeue.read"(%arg5) {bank = 1 : i64} : (memref<1xf32>) -> f32
        %6871 = mulf %6870, %6869 : f32
        %6872 = "equeue.read"(%arg7) {bank = 2 : i64} : (memref<1xf32>) -> f32
        %6873 = addf %6871, %6872 : f32
        "equeue.return"(%6870, %6869, %6873) : (f32, f32, f32) -> ()
      }) : (!equeue.signal, i32, memref<1xf32>, memref<1xf32>, memref<1xf32>) -> (!equeue.signal, f32, f32, f32)
      %6834 = "equeue.control_and"(%6833, %done_7325) : (!equeue.signal, !equeue.signal) -> !equeue.signal
      %done_7327, %res_7328:3 = "equeue.launch"(%6819, %222, %225, %223, %224) ( {
      ^bb0(%arg5: memref<1xf32>, %arg6: memref<1xf32>, %arg7: memref<1xf32>):  // no predecessors
        %6869 = "equeue.read"(%arg6) {bank = 0 : i64} : (memref<1xf32>) -> f32
        %6870 = "equeue.read"(%arg5) {bank = 1 : i64} : (memref<1xf32>) -> f32
        %6871 = mulf %6870, %6869 : f32
        %6872 = "equeue.read"(%arg7) {bank = 2 : i64} : (memref<1xf32>) -> f32
        %6873 = addf %6871, %6872 : f32
        "equeue.return"(%6870, %6869, %6873) : (f32, f32, f32) -> ()
      }) : (!equeue.signal, i32, memref<1xf32>, memref<1xf32>, memref<1xf32>) -> (!equeue.signal, f32, f32, f32)
      %6835 = "equeue.control_and"(%6834, %done_7327) : (!equeue.signal, !equeue.signal) -> !equeue.signal
      %done_7329, %res_7330:3 = "equeue.launch"(%6819, %228, %231, %229, %230) ( {
      ^bb0(%arg5: memref<1xf32>, %arg6: memref<1xf32>, %arg7: memref<1xf32>):  // no predecessors
        %6869 = "equeue.read"(%arg6) {bank = 0 : i64} : (memref<1xf32>) -> f32
        %6870 = "equeue.read"(%arg5) {bank = 1 : i64} : (memref<1xf32>) -> f32
        %6871 = mulf %6870, %6869 : f32
        %6872 = "equeue.read"(%arg7) {bank = 2 : i64} : (memref<1xf32>) -> f32
        %6873 = addf %6871, %6872 : f32
        "equeue.return"(%6870, %6869, %6873) : (f32, f32, f32) -> ()
      }) : (!equeue.signal, i32, memref<1xf32>, memref<1xf32>, memref<1xf32>) -> (!equeue.signal, f32, f32, f32)
      %6836 = "equeue.control_and"(%6835, %done_7329) : (!equeue.signal, !equeue.signal) -> !equeue.signal
      %done_7331, %res_7332:3 = "equeue.launch"(%6819, %234, %237, %235, %236) ( {
      ^bb0(%arg5: memref<1xf32>, %arg6: memref<1xf32>, %arg7: memref<1xf32>):  // no predecessors
        %6869 = "equeue.read"(%arg6) {bank = 0 : i64} : (memref<1xf32>) -> f32
        %6870 = "equeue.read"(%arg5) {bank = 1 : i64} : (memref<1xf32>) -> f32
        %6871 = mulf %6870, %6869 : f32
        %6872 = "equeue.read"(%arg7) {bank = 2 : i64} : (memref<1xf32>) -> f32
        %6873 = addf %6871, %6872 : f32
        "equeue.return"(%6870, %6869, %6873) : (f32, f32, f32) -> ()
      }) : (!equeue.signal, i32, memref<1xf32>, memref<1xf32>, memref<1xf32>) -> (!equeue.signal, f32, f32, f32)
      %6837 = "equeue.control_and"(%6836, %done_7331) : (!equeue.signal, !equeue.signal) -> !equeue.signal
      %done_7333, %res_7334:3 = "equeue.launch"(%6819, %240, %243, %241, %242) ( {
      ^bb0(%arg5: memref<1xf32>, %arg6: memref<1xf32>, %arg7: memref<1xf32>):  // no predecessors
        %6869 = "equeue.read"(%arg6) {bank = 0 : i64} : (memref<1xf32>) -> f32
        %6870 = "equeue.read"(%arg5) {bank = 1 : i64} : (memref<1xf32>) -> f32
        %6871 = mulf %6870, %6869 : f32
        %6872 = "equeue.read"(%arg7) {bank = 2 : i64} : (memref<1xf32>) -> f32
        %6873 = addf %6871, %6872 : f32
        "equeue.return"(%6870, %6869, %6873) : (f32, f32, f32) -> ()
      }) : (!equeue.signal, i32, memref<1xf32>, memref<1xf32>, memref<1xf32>) -> (!equeue.signal, f32, f32, f32)
      %6838 = "equeue.control_and"(%6837, %done_7333) : (!equeue.signal, !equeue.signal) -> !equeue.signal
      %done_7335, %res_7336:3 = "equeue.launch"(%6819, %246, %249, %247, %248) ( {
      ^bb0(%arg5: memref<1xf32>, %arg6: memref<1xf32>, %arg7: memref<1xf32>):  // no predecessors
        %6869 = "equeue.read"(%arg6) {bank = 0 : i64} : (memref<1xf32>) -> f32
        %6870 = "equeue.read"(%arg5) {bank = 1 : i64} : (memref<1xf32>) -> f32
        %6871 = mulf %6870, %6869 : f32
        %6872 = "equeue.read"(%arg7) {bank = 2 : i64} : (memref<1xf32>) -> f32
        %6873 = addf %6871, %6872 : f32
        "equeue.return"(%6870, %6869, %6873) : (f32, f32, f32) -> ()
      }) : (!equeue.signal, i32, memref<1xf32>, memref<1xf32>, memref<1xf32>) -> (!equeue.signal, f32, f32, f32)
      %6839 = "equeue.control_and"(%6838, %done_7335) : (!equeue.signal, !equeue.signal) -> !equeue.signal
      %done_7337, %res_7338:3 = "equeue.launch"(%6819, %252, %255, %253, %254) ( {
      ^bb0(%arg5: memref<1xf32>, %arg6: memref<1xf32>, %arg7: memref<1xf32>):  // no predecessors
        %6869 = "equeue.read"(%arg6) {bank = 0 : i64} : (memref<1xf32>) -> f32
        %6870 = "equeue.read"(%arg5) {bank = 1 : i64} : (memref<1xf32>) -> f32
        %6871 = mulf %6870, %6869 : f32
        %6872 = "equeue.read"(%arg7) {bank = 2 : i64} : (memref<1xf32>) -> f32
        %6873 = addf %6871, %6872 : f32
        "equeue.return"(%6870, %6869, %6873) : (f32, f32, f32) -> ()
      }) : (!equeue.signal, i32, memref<1xf32>, memref<1xf32>, memref<1xf32>) -> (!equeue.signal, f32, f32, f32)
      %6840 = "equeue.control_and"(%6839, %done_7337) : (!equeue.signal, !equeue.signal) -> !equeue.signal
      %done_7339, %res_7340:3 = "equeue.launch"(%6819, %258, %261, %259, %260) ( {
      ^bb0(%arg5: memref<1xf32>, %arg6: memref<1xf32>, %arg7: memref<1xf32>):  // no predecessors
        %6869 = "equeue.read"(%arg6) {bank = 0 : i64} : (memref<1xf32>) -> f32
        %6870 = "equeue.read"(%arg5) {bank = 1 : i64} : (memref<1xf32>) -> f32
        %6871 = mulf %6870, %6869 : f32
        %6872 = "equeue.read"(%arg7) {bank = 2 : i64} : (memref<1xf32>) -> f32
        %6873 = addf %6871, %6872 : f32
        "equeue.return"(%6870, %6869, %6873) : (f32, f32, f32) -> ()
      }) : (!equeue.signal, i32, memref<1xf32>, memref<1xf32>, memref<1xf32>) -> (!equeue.signal, f32, f32, f32)
      %6841 = "equeue.control_and"(%6840, %done_7339) : (!equeue.signal, !equeue.signal) -> !equeue.signal
      %done_7341, %res_7342:3 = "equeue.launch"(%6819, %264, %267, %265, %266) ( {
      ^bb0(%arg5: memref<1xf32>, %arg6: memref<1xf32>, %arg7: memref<1xf32>):  // no predecessors
        %6869 = "equeue.read"(%arg6) {bank = 0 : i64} : (memref<1xf32>) -> f32
        %6870 = "equeue.read"(%arg5) {bank = 1 : i64} : (memref<1xf32>) -> f32
        %6871 = mulf %6870, %6869 : f32
        %6872 = "equeue.read"(%arg7) {bank = 2 : i64} : (memref<1xf32>) -> f32
        %6873 = addf %6871, %6872 : f32
        "equeue.return"(%6870, %6869, %6873) : (f32, f32, f32) -> ()
      }) : (!equeue.signal, i32, memref<1xf32>, memref<1xf32>, memref<1xf32>) -> (!equeue.signal, f32, f32, f32)
      %6842 = "equeue.control_and"(%6841, %done_7341) : (!equeue.signal, !equeue.signal) -> !equeue.signal
      %done_7343, %res_7344:3 = "equeue.launch"(%6819, %270, %273, %271, %272) ( {
      ^bb0(%arg5: memref<1xf32>, %arg6: memref<1xf32>, %arg7: memref<1xf32>):  // no predecessors
        %6869 = "equeue.read"(%arg6) {bank = 0 : i64} : (memref<1xf32>) -> f32
        %6870 = "equeue.read"(%arg5) {bank = 1 : i64} : (memref<1xf32>) -> f32
        %6871 = mulf %6870, %6869 : f32
        %6872 = "equeue.read"(%arg7) {bank = 2 : i64} : (memref<1xf32>) -> f32
        %6873 = addf %6871, %6872 : f32
        "equeue.return"(%6870, %6869, %6873) : (f32, f32, f32) -> ()
      }) : (!equeue.signal, i32, memref<1xf32>, memref<1xf32>, memref<1xf32>) -> (!equeue.signal, f32, f32, f32)
      %6843 = "equeue.control_and"(%6842, %done_7343) : (!equeue.signal, !equeue.signal) -> !equeue.signal
      "equeue.await"(%6843) : (!equeue.signal) -> ()
      %6844 = "equeue.control_start"() : () -> !equeue.signal
      %done_7345 = "equeue.launch"(%6844, %126, %res_7296#0, %res_7296#1, %res_7296#2, %128, %128, %135, %157, %123) ( {
      ^bb0(%arg5: f32, %arg6: f32, %arg7: f32, %arg8: memref<1xf32>, %arg9: memref<1xf32>, %arg10: memref<1xf32>, %arg11: memref<1xf32>, %arg12: memref<3x3x3xf32>):  // no predecessors
        "equeue.write"(%arg5, %arg9) {bank = 1 : i64} : (f32, memref<1xf32>) -> ()
        "equeue.write"(%arg6, %arg10) {bank = 0 : i64} : (f32, memref<1xf32>) -> ()
        "equeue.write"(%arg7, %arg8) {bank = 2 : i64} : (f32, memref<1xf32>) -> ()
        "equeue.return"() : () -> ()
      }) : (!equeue.signal, i32, f32, f32, f32, memref<1xf32>, memref<1xf32>, memref<1xf32>, memref<1xf32>, memref<3x3x3xf32>) -> !equeue.signal
      %done_7346 = "equeue.launch"(%6844, %156, %res_7306#0, %res_7306#1, %res_7306#2, %158, %158, %165, %187, %123) ( {
      ^bb0(%arg5: f32, %arg6: f32, %arg7: f32, %arg8: memref<1xf32>, %arg9: memref<1xf32>, %arg10: memref<1xf32>, %arg11: memref<1xf32>, %arg12: memref<3x3x3xf32>):  // no predecessors
        "equeue.write"(%arg5, %arg9) {bank = 1 : i64} : (f32, memref<1xf32>) -> ()
        "equeue.write"(%arg6, %arg10) {bank = 0 : i64} : (f32, memref<1xf32>) -> ()
        "equeue.write"(%arg7, %arg8) {bank = 2 : i64} : (f32, memref<1xf32>) -> ()
        "equeue.return"() : () -> ()
      }) : (!equeue.signal, i32, f32, f32, f32, memref<1xf32>, memref<1xf32>, memref<1xf32>, memref<1xf32>, memref<3x3x3xf32>) -> !equeue.signal
      %6845 = "equeue.control_and"(%done_7345, %done_7346) : (!equeue.signal, !equeue.signal) -> !equeue.signal
      %done_7347 = "equeue.launch"(%6844, %186, %res_7316#0, %res_7316#1, %res_7316#2, %188, %188, %195, %217, %123) ( {
      ^bb0(%arg5: f32, %arg6: f32, %arg7: f32, %arg8: memref<1xf32>, %arg9: memref<1xf32>, %arg10: memref<1xf32>, %arg11: memref<1xf32>, %arg12: memref<3x3x3xf32>):  // no predecessors
        "equeue.write"(%arg5, %arg9) {bank = 1 : i64} : (f32, memref<1xf32>) -> ()
        "equeue.write"(%arg6, %arg10) {bank = 0 : i64} : (f32, memref<1xf32>) -> ()
        "equeue.write"(%arg7, %arg8) {bank = 2 : i64} : (f32, memref<1xf32>) -> ()
        "equeue.return"() : () -> ()
      }) : (!equeue.signal, i32, f32, f32, f32, memref<1xf32>, memref<1xf32>, memref<1xf32>, memref<1xf32>, memref<3x3x3xf32>) -> !equeue.signal
      %6846 = "equeue.control_and"(%6845, %done_7347) : (!equeue.signal, !equeue.signal) -> !equeue.signal
      %done_7348 = "equeue.launch"(%6844, %216, %res_7326#0, %res_7326#1, %res_7326#2, %218, %218, %225, %247, %123) ( {
      ^bb0(%arg5: f32, %arg6: f32, %arg7: f32, %arg8: memref<1xf32>, %arg9: memref<1xf32>, %arg10: memref<1xf32>, %arg11: memref<1xf32>, %arg12: memref<3x3x3xf32>):  // no predecessors
        "equeue.write"(%arg5, %arg9) {bank = 1 : i64} : (f32, memref<1xf32>) -> ()
        "equeue.write"(%arg6, %arg10) {bank = 0 : i64} : (f32, memref<1xf32>) -> ()
        "equeue.write"(%arg7, %arg8) {bank = 2 : i64} : (f32, memref<1xf32>) -> ()
        "equeue.return"() : () -> ()
      }) : (!equeue.signal, i32, f32, f32, f32, memref<1xf32>, memref<1xf32>, memref<1xf32>, memref<1xf32>, memref<3x3x3xf32>) -> !equeue.signal
      %6847 = "equeue.control_and"(%6846, %done_7348) : (!equeue.signal, !equeue.signal) -> !equeue.signal
      %done_7349 = "equeue.launch"(%6844, %246, %res_7336#0, %res_7336#2, %248, %255, %123) ( {
      ^bb0(%arg5: f32, %arg6: f32, %arg7: memref<1xf32>, %arg8: memref<1xf32>, %arg9: memref<3x3x3xf32>):  // no predecessors
        "equeue.write"(%arg5, %arg8) {bank = 1 : i64} : (f32, memref<1xf32>) -> ()
        "equeue.write"(%arg6, %arg7) {bank = 2 : i64} : (f32, memref<1xf32>) -> ()
        "equeue.return"() : () -> ()
      }) : (!equeue.signal, i32, f32, f32, memref<1xf32>, memref<1xf32>, memref<3x3x3xf32>) -> !equeue.signal
      %6848 = "equeue.control_and"(%6847, %done_7349) : (!equeue.signal, !equeue.signal) -> !equeue.signal
      %done_7350 = "equeue.launch"(%6844, %132, %res_7298#0, %res_7298#1, %res_7298#2, %134, %134, %141, %163, %123) ( {
      ^bb0(%arg5: f32, %arg6: f32, %arg7: f32, %arg8: memref<1xf32>, %arg9: memref<1xf32>, %arg10: memref<1xf32>, %arg11: memref<1xf32>, %arg12: memref<3x3x3xf32>):  // no predecessors
        "equeue.write"(%arg5, %arg9) {bank = 1 : i64} : (f32, memref<1xf32>) -> ()
        "equeue.write"(%arg6, %arg10) {bank = 0 : i64} : (f32, memref<1xf32>) -> ()
        "equeue.write"(%arg7, %arg8) {bank = 2 : i64} : (f32, memref<1xf32>) -> ()
        "equeue.return"() : () -> ()
      }) : (!equeue.signal, i32, f32, f32, f32, memref<1xf32>, memref<1xf32>, memref<1xf32>, memref<1xf32>, memref<3x3x3xf32>) -> !equeue.signal
      %6849 = "equeue.control_and"(%6848, %done_7350) : (!equeue.signal, !equeue.signal) -> !equeue.signal
      %done_7351 = "equeue.launch"(%6844, %162, %res_7308#0, %res_7308#1, %res_7308#2, %164, %164, %171, %193, %123) ( {
      ^bb0(%arg5: f32, %arg6: f32, %arg7: f32, %arg8: memref<1xf32>, %arg9: memref<1xf32>, %arg10: memref<1xf32>, %arg11: memref<1xf32>, %arg12: memref<3x3x3xf32>):  // no predecessors
        "equeue.write"(%arg5, %arg9) {bank = 1 : i64} : (f32, memref<1xf32>) -> ()
        "equeue.write"(%arg6, %arg10) {bank = 0 : i64} : (f32, memref<1xf32>) -> ()
        "equeue.write"(%arg7, %arg8) {bank = 2 : i64} : (f32, memref<1xf32>) -> ()
        "equeue.return"() : () -> ()
      }) : (!equeue.signal, i32, f32, f32, f32, memref<1xf32>, memref<1xf32>, memref<1xf32>, memref<1xf32>, memref<3x3x3xf32>) -> !equeue.signal
      %6850 = "equeue.control_and"(%6849, %done_7351) : (!equeue.signal, !equeue.signal) -> !equeue.signal
      %done_7352 = "equeue.launch"(%6844, %192, %res_7318#0, %res_7318#1, %res_7318#2, %194, %194, %201, %223, %123) ( {
      ^bb0(%arg5: f32, %arg6: f32, %arg7: f32, %arg8: memref<1xf32>, %arg9: memref<1xf32>, %arg10: memref<1xf32>, %arg11: memref<1xf32>, %arg12: memref<3x3x3xf32>):  // no predecessors
        "equeue.write"(%arg5, %arg9) {bank = 1 : i64} : (f32, memref<1xf32>) -> ()
        "equeue.write"(%arg6, %arg10) {bank = 0 : i64} : (f32, memref<1xf32>) -> ()
        "equeue.write"(%arg7, %arg8) {bank = 2 : i64} : (f32, memref<1xf32>) -> ()
        "equeue.return"() : () -> ()
      }) : (!equeue.signal, i32, f32, f32, f32, memref<1xf32>, memref<1xf32>, memref<1xf32>, memref<1xf32>, memref<3x3x3xf32>) -> !equeue.signal
      %6851 = "equeue.control_and"(%6850, %done_7352) : (!equeue.signal, !equeue.signal) -> !equeue.signal
      %done_7353 = "equeue.launch"(%6844, %222, %res_7328#0, %res_7328#1, %res_7328#2, %224, %224, %231, %253, %123) ( {
      ^bb0(%arg5: f32, %arg6: f32, %arg7: f32, %arg8: memref<1xf32>, %arg9: memref<1xf32>, %arg10: memref<1xf32>, %arg11: memref<1xf32>, %arg12: memref<3x3x3xf32>):  // no predecessors
        "equeue.write"(%arg5, %arg9) {bank = 1 : i64} : (f32, memref<1xf32>) -> ()
        "equeue.write"(%arg6, %arg10) {bank = 0 : i64} : (f32, memref<1xf32>) -> ()
        "equeue.write"(%arg7, %arg8) {bank = 2 : i64} : (f32, memref<1xf32>) -> ()
        "equeue.return"() : () -> ()
      }) : (!equeue.signal, i32, f32, f32, f32, memref<1xf32>, memref<1xf32>, memref<1xf32>, memref<1xf32>, memref<3x3x3xf32>) -> !equeue.signal
      %6852 = "equeue.control_and"(%6851, %done_7353) : (!equeue.signal, !equeue.signal) -> !equeue.signal
      %done_7354 = "equeue.launch"(%6844, %252, %res_7338#0, %res_7338#2, %254, %261, %123) ( {
      ^bb0(%arg5: f32, %arg6: f32, %arg7: memref<1xf32>, %arg8: memref<1xf32>, %arg9: memref<3x3x3xf32>):  // no predecessors
        "equeue.write"(%arg5, %arg8) {bank = 1 : i64} : (f32, memref<1xf32>) -> ()
        "equeue.write"(%arg6, %arg7) {bank = 2 : i64} : (f32, memref<1xf32>) -> ()
        "equeue.return"() : () -> ()
      }) : (!equeue.signal, i32, f32, f32, memref<1xf32>, memref<1xf32>, memref<3x3x3xf32>) -> !equeue.signal
      %6853 = "equeue.control_and"(%6852, %done_7354) : (!equeue.signal, !equeue.signal) -> !equeue.signal
      %done_7355 = "equeue.launch"(%6844, %138, %res_7300#0, %res_7300#1, %res_7300#2, %140, %140, %147, %169, %123) ( {
      ^bb0(%arg5: f32, %arg6: f32, %arg7: f32, %arg8: memref<1xf32>, %arg9: memref<1xf32>, %arg10: memref<1xf32>, %arg11: memref<1xf32>, %arg12: memref<3x3x3xf32>):  // no predecessors
        "equeue.write"(%arg5, %arg9) {bank = 1 : i64} : (f32, memref<1xf32>) -> ()
        "equeue.write"(%arg6, %arg10) {bank = 0 : i64} : (f32, memref<1xf32>) -> ()
        "equeue.write"(%arg7, %arg8) {bank = 2 : i64} : (f32, memref<1xf32>) -> ()
        "equeue.return"() : () -> ()
      }) : (!equeue.signal, i32, f32, f32, f32, memref<1xf32>, memref<1xf32>, memref<1xf32>, memref<1xf32>, memref<3x3x3xf32>) -> !equeue.signal
      %6854 = "equeue.control_and"(%6853, %done_7355) : (!equeue.signal, !equeue.signal) -> !equeue.signal
      %done_7356 = "equeue.launch"(%6844, %168, %res_7310#0, %res_7310#1, %res_7310#2, %170, %170, %177, %199, %123) ( {
      ^bb0(%arg5: f32, %arg6: f32, %arg7: f32, %arg8: memref<1xf32>, %arg9: memref<1xf32>, %arg10: memref<1xf32>, %arg11: memref<1xf32>, %arg12: memref<3x3x3xf32>):  // no predecessors
        "equeue.write"(%arg5, %arg9) {bank = 1 : i64} : (f32, memref<1xf32>) -> ()
        "equeue.write"(%arg6, %arg10) {bank = 0 : i64} : (f32, memref<1xf32>) -> ()
        "equeue.write"(%arg7, %arg8) {bank = 2 : i64} : (f32, memref<1xf32>) -> ()
        "equeue.return"() : () -> ()
      }) : (!equeue.signal, i32, f32, f32, f32, memref<1xf32>, memref<1xf32>, memref<1xf32>, memref<1xf32>, memref<3x3x3xf32>) -> !equeue.signal
      %6855 = "equeue.control_and"(%6854, %done_7356) : (!equeue.signal, !equeue.signal) -> !equeue.signal
      %done_7357 = "equeue.launch"(%6844, %198, %res_7320#0, %res_7320#1, %res_7320#2, %200, %200, %207, %229, %123) ( {
      ^bb0(%arg5: f32, %arg6: f32, %arg7: f32, %arg8: memref<1xf32>, %arg9: memref<1xf32>, %arg10: memref<1xf32>, %arg11: memref<1xf32>, %arg12: memref<3x3x3xf32>):  // no predecessors
        "equeue.write"(%arg5, %arg9) {bank = 1 : i64} : (f32, memref<1xf32>) -> ()
        "equeue.write"(%arg6, %arg10) {bank = 0 : i64} : (f32, memref<1xf32>) -> ()
        "equeue.write"(%arg7, %arg8) {bank = 2 : i64} : (f32, memref<1xf32>) -> ()
        "equeue.return"() : () -> ()
      }) : (!equeue.signal, i32, f32, f32, f32, memref<1xf32>, memref<1xf32>, memref<1xf32>, memref<1xf32>, memref<3x3x3xf32>) -> !equeue.signal
      %6856 = "equeue.control_and"(%6855, %done_7357) : (!equeue.signal, !equeue.signal) -> !equeue.signal
      %done_7358 = "equeue.launch"(%6844, %228, %res_7330#0, %res_7330#1, %res_7330#2, %230, %230, %237, %259, %123) ( {
      ^bb0(%arg5: f32, %arg6: f32, %arg7: f32, %arg8: memref<1xf32>, %arg9: memref<1xf32>, %arg10: memref<1xf32>, %arg11: memref<1xf32>, %arg12: memref<3x3x3xf32>):  // no predecessors
        "equeue.write"(%arg5, %arg9) {bank = 1 : i64} : (f32, memref<1xf32>) -> ()
        "equeue.write"(%arg6, %arg10) {bank = 0 : i64} : (f32, memref<1xf32>) -> ()
        "equeue.write"(%arg7, %arg8) {bank = 2 : i64} : (f32, memref<1xf32>) -> ()
        "equeue.return"() : () -> ()
      }) : (!equeue.signal, i32, f32, f32, f32, memref<1xf32>, memref<1xf32>, memref<1xf32>, memref<1xf32>, memref<3x3x3xf32>) -> !equeue.signal
      %6857 = "equeue.control_and"(%6856, %done_7358) : (!equeue.signal, !equeue.signal) -> !equeue.signal
      %done_7359 = "equeue.launch"(%6844, %258, %res_7340#0, %res_7340#2, %260, %267, %123) ( {
      ^bb0(%arg5: f32, %arg6: f32, %arg7: memref<1xf32>, %arg8: memref<1xf32>, %arg9: memref<3x3x3xf32>):  // no predecessors
        "equeue.write"(%arg5, %arg8) {bank = 1 : i64} : (f32, memref<1xf32>) -> ()
        "equeue.write"(%arg6, %arg7) {bank = 2 : i64} : (f32, memref<1xf32>) -> ()
        "equeue.return"() : () -> ()
      }) : (!equeue.signal, i32, f32, f32, memref<1xf32>, memref<1xf32>, memref<3x3x3xf32>) -> !equeue.signal
      %6858 = "equeue.control_and"(%6857, %done_7359) : (!equeue.signal, !equeue.signal) -> !equeue.signal
      %done_7360 = "equeue.launch"(%6844, %144, %res_7302#0, %res_7302#1, %res_7302#2, %146, %146, %153, %175, %123) ( {
      ^bb0(%arg5: f32, %arg6: f32, %arg7: f32, %arg8: memref<1xf32>, %arg9: memref<1xf32>, %arg10: memref<1xf32>, %arg11: memref<1xf32>, %arg12: memref<3x3x3xf32>):  // no predecessors
        "equeue.write"(%arg5, %arg9) {bank = 1 : i64} : (f32, memref<1xf32>) -> ()
        "equeue.write"(%arg6, %arg10) {bank = 0 : i64} : (f32, memref<1xf32>) -> ()
        "equeue.write"(%arg7, %arg8) {bank = 2 : i64} : (f32, memref<1xf32>) -> ()
        "equeue.return"() : () -> ()
      }) : (!equeue.signal, i32, f32, f32, f32, memref<1xf32>, memref<1xf32>, memref<1xf32>, memref<1xf32>, memref<3x3x3xf32>) -> !equeue.signal
      %6859 = "equeue.control_and"(%6858, %done_7360) : (!equeue.signal, !equeue.signal) -> !equeue.signal
      %done_7361 = "equeue.launch"(%6844, %174, %res_7312#0, %res_7312#1, %res_7312#2, %176, %176, %183, %205, %123) ( {
      ^bb0(%arg5: f32, %arg6: f32, %arg7: f32, %arg8: memref<1xf32>, %arg9: memref<1xf32>, %arg10: memref<1xf32>, %arg11: memref<1xf32>, %arg12: memref<3x3x3xf32>):  // no predecessors
        "equeue.write"(%arg5, %arg9) {bank = 1 : i64} : (f32, memref<1xf32>) -> ()
        "equeue.write"(%arg6, %arg10) {bank = 0 : i64} : (f32, memref<1xf32>) -> ()
        "equeue.write"(%arg7, %arg8) {bank = 2 : i64} : (f32, memref<1xf32>) -> ()
        "equeue.return"() : () -> ()
      }) : (!equeue.signal, i32, f32, f32, f32, memref<1xf32>, memref<1xf32>, memref<1xf32>, memref<1xf32>, memref<3x3x3xf32>) -> !equeue.signal
      %6860 = "equeue.control_and"(%6859, %done_7361) : (!equeue.signal, !equeue.signal) -> !equeue.signal
      %done_7362 = "equeue.launch"(%6844, %204, %res_7322#0, %res_7322#1, %res_7322#2, %206, %206, %213, %235, %123) ( {
      ^bb0(%arg5: f32, %arg6: f32, %arg7: f32, %arg8: memref<1xf32>, %arg9: memref<1xf32>, %arg10: memref<1xf32>, %arg11: memref<1xf32>, %arg12: memref<3x3x3xf32>):  // no predecessors
        "equeue.write"(%arg5, %arg9) {bank = 1 : i64} : (f32, memref<1xf32>) -> ()
        "equeue.write"(%arg6, %arg10) {bank = 0 : i64} : (f32, memref<1xf32>) -> ()
        "equeue.write"(%arg7, %arg8) {bank = 2 : i64} : (f32, memref<1xf32>) -> ()
        "equeue.return"() : () -> ()
      }) : (!equeue.signal, i32, f32, f32, f32, memref<1xf32>, memref<1xf32>, memref<1xf32>, memref<1xf32>, memref<3x3x3xf32>) -> !equeue.signal
      %6861 = "equeue.control_and"(%6860, %done_7362) : (!equeue.signal, !equeue.signal) -> !equeue.signal
      %done_7363 = "equeue.launch"(%6844, %234, %res_7332#0, %res_7332#1, %res_7332#2, %236, %236, %243, %265, %123) ( {
      ^bb0(%arg5: f32, %arg6: f32, %arg7: f32, %arg8: memref<1xf32>, %arg9: memref<1xf32>, %arg10: memref<1xf32>, %arg11: memref<1xf32>, %arg12: memref<3x3x3xf32>):  // no predecessors
        "equeue.write"(%arg5, %arg9) {bank = 1 : i64} : (f32, memref<1xf32>) -> ()
        "equeue.write"(%arg6, %arg10) {bank = 0 : i64} : (f32, memref<1xf32>) -> ()
        "equeue.write"(%arg7, %arg8) {bank = 2 : i64} : (f32, memref<1xf32>) -> ()
        "equeue.return"() : () -> ()
      }) : (!equeue.signal, i32, f32, f32, f32, memref<1xf32>, memref<1xf32>, memref<1xf32>, memref<1xf32>, memref<3x3x3xf32>) -> !equeue.signal
      %6862 = "equeue.control_and"(%6861, %done_7363) : (!equeue.signal, !equeue.signal) -> !equeue.signal
      %done_7364 = "equeue.launch"(%6844, %264, %res_7342#0, %res_7342#2, %266, %273, %123) ( {
      ^bb0(%arg5: f32, %arg6: f32, %arg7: memref<1xf32>, %arg8: memref<1xf32>, %arg9: memref<3x3x3xf32>):  // no predecessors
        "equeue.write"(%arg5, %arg8) {bank = 1 : i64} : (f32, memref<1xf32>) -> ()
        "equeue.write"(%arg6, %arg7) {bank = 2 : i64} : (f32, memref<1xf32>) -> ()
        "equeue.return"() : () -> ()
      }) : (!equeue.signal, i32, f32, f32, memref<1xf32>, memref<1xf32>, memref<3x3x3xf32>) -> !equeue.signal
      %6863 = "equeue.control_and"(%6862, %done_7364) : (!equeue.signal, !equeue.signal) -> !equeue.signal
      %done_7365 = "equeue.launch"(%6844, %150, %res_7304#1, %res_7304#2, %152, %181, %123) ( {
      ^bb0(%arg5: f32, %arg6: f32, %arg7: memref<1xf32>, %arg8: memref<1xf32>, %arg9: memref<3x3x3xf32>):  // no predecessors
        "equeue.write"(%arg5, %arg8) {bank = 0 : i64} : (f32, memref<1xf32>) -> ()
        "equeue.write"(%arg6, %arg7) {bank = 2 : i64} : (f32, memref<1xf32>) -> ()
        "equeue.return"() : () -> ()
      }) : (!equeue.signal, i32, f32, f32, memref<1xf32>, memref<1xf32>, memref<3x3x3xf32>) -> !equeue.signal
      %6864 = "equeue.control_and"(%6863, %done_7365) : (!equeue.signal, !equeue.signal) -> !equeue.signal
      %done_7366 = "equeue.launch"(%6844, %180, %res_7314#1, %res_7314#2, %182, %211, %123) ( {
      ^bb0(%arg5: f32, %arg6: f32, %arg7: memref<1xf32>, %arg8: memref<1xf32>, %arg9: memref<3x3x3xf32>):  // no predecessors
        "equeue.write"(%arg5, %arg8) {bank = 0 : i64} : (f32, memref<1xf32>) -> ()
        "equeue.write"(%arg6, %arg7) {bank = 2 : i64} : (f32, memref<1xf32>) -> ()
        "equeue.return"() : () -> ()
      }) : (!equeue.signal, i32, f32, f32, memref<1xf32>, memref<1xf32>, memref<3x3x3xf32>) -> !equeue.signal
      %6865 = "equeue.control_and"(%6864, %done_7366) : (!equeue.signal, !equeue.signal) -> !equeue.signal
      %done_7367 = "equeue.launch"(%6844, %210, %res_7324#1, %res_7324#2, %212, %241, %123) ( {
      ^bb0(%arg5: f32, %arg6: f32, %arg7: memref<1xf32>, %arg8: memref<1xf32>, %arg9: memref<3x3x3xf32>):  // no predecessors
        "equeue.write"(%arg5, %arg8) {bank = 0 : i64} : (f32, memref<1xf32>) -> ()
        "equeue.write"(%arg6, %arg7) {bank = 2 : i64} : (f32, memref<1xf32>) -> ()
        "equeue.return"() : () -> ()
      }) : (!equeue.signal, i32, f32, f32, memref<1xf32>, memref<1xf32>, memref<3x3x3xf32>) -> !equeue.signal
      %6866 = "equeue.control_and"(%6865, %done_7367) : (!equeue.signal, !equeue.signal) -> !equeue.signal
      %done_7368 = "equeue.launch"(%6844, %240, %res_7334#1, %res_7334#2, %242, %271, %123) ( {
      ^bb0(%arg5: f32, %arg6: f32, %arg7: memref<1xf32>, %arg8: memref<1xf32>, %arg9: memref<3x3x3xf32>):  // no predecessors
        "equeue.write"(%arg5, %arg8) {bank = 0 : i64} : (f32, memref<1xf32>) -> ()
        "equeue.write"(%arg6, %arg7) {bank = 2 : i64} : (f32, memref<1xf32>) -> ()
        "equeue.return"() : () -> ()
      }) : (!equeue.signal, i32, f32, f32, memref<1xf32>, memref<1xf32>, memref<3x3x3xf32>) -> !equeue.signal
      %6867 = "equeue.control_and"(%6866, %done_7368) : (!equeue.signal, !equeue.signal) -> !equeue.signal
      %done_7369 = "equeue.launch"(%6844, %270, %res_7344#2, %272, %123) ( {
      ^bb0(%arg5: f32, %arg6: memref<1xf32>, %arg7: memref<3x3x3xf32>):  // no predecessors
        "equeue.write"(%arg5, %arg6) {bank = 2 : i64} : (f32, memref<1xf32>) -> ()
        "equeue.return"() : () -> ()
      }) : (!equeue.signal, i32, f32, memref<1xf32>, memref<3x3x3xf32>) -> !equeue.signal
      %6868 = "equeue.control_and"(%6867, %done_7369) : (!equeue.signal, !equeue.signal) -> !equeue.signal
      "equeue.await"(%6868) : (!equeue.signal) -> ()
      "equeue.return"() : () -> ()
    }) : (!equeue.signal, i32, i32, memref<5x7x7xf32>, memref<3x5x7x3xf32>) -> !equeue.signal
    "equeue.await"(%done) : (!equeue.signal) -> ()
    return
  }
}
