

module {
  func @graph(%arg0: memref<5x7x7xf32>, %arg1: memref<3x5x7x3xf32>) {
    %0 = "equeue.create_proc"() {name = "proc0,0", type = "AIEngine"} : () -> i32
    %1 = "equeue.create_mem"() {banks = 3 : i64, data = "f32", name = "mem0,0", shape = dense<3> : tensor<1xi64>, type = "RegisterFile"} : () -> i32
    %2 = "equeue.create_comp"(%1, %0) {name = "pe_0,0"} : (i32, i32) -> i32
    %3 = "equeue.create_proc"() {name = "proc0,1", type = "AIEngine"} : () -> i32
    %4 = "equeue.create_mem"() {banks = 3 : i64, data = "f32", name = "mem0,1", shape = dense<3> : tensor<1xi64>, type = "RegisterFile"} : () -> i32
    %5 = "equeue.create_comp"(%4, %3, %2) {name = "pe_0,1"} : (i32, i32, i32) -> i32
    %6 = "equeue.create_proc"() {name = "proc0,2", type = "AIEngine"} : () -> i32
    %7 = "equeue.create_mem"() {banks = 3 : i64, data = "f32", name = "mem0,2", shape = dense<3> : tensor<1xi64>, type = "RegisterFile"} : () -> i32
    %8 = "equeue.create_comp"(%7, %6, %5) {name = "pe_0,2"} : (i32, i32, i32) -> i32
    %9 = "equeue.create_proc"() {name = "proc0,3", type = "AIEngine"} : () -> i32
    %10 = "equeue.create_mem"() {banks = 3 : i64, data = "f32", name = "mem0,3", shape = dense<3> : tensor<1xi64>, type = "RegisterFile"} : () -> i32
    %11 = "equeue.create_comp"(%10, %9, %8) {name = "pe_0,3"} : (i32, i32, i32) -> i32
    %12 = "equeue.create_proc"() {name = "proc0,4", type = "AIEngine"} : () -> i32
    %13 = "equeue.create_mem"() {banks = 3 : i64, data = "f32", name = "mem0,4", shape = dense<3> : tensor<1xi64>, type = "RegisterFile"} : () -> i32
    %14 = "equeue.create_comp"(%13, %12, %11) {name = "pe_0,4"} : (i32, i32, i32) -> i32
    %15 = "equeue.create_proc"() {name = "proc1,0", type = "AIEngine"} : () -> i32
    %16 = "equeue.create_mem"() {banks = 3 : i64, data = "f32", name = "mem1,0", shape = dense<3> : tensor<1xi64>, type = "RegisterFile"} : () -> i32
    %17 = "equeue.create_comp"(%16, %15, %14) {name = "pe_1,0"} : (i32, i32, i32) -> i32
    %18 = "equeue.create_proc"() {name = "proc1,1", type = "AIEngine"} : () -> i32
    %19 = "equeue.create_mem"() {banks = 3 : i64, data = "f32", name = "mem1,1", shape = dense<3> : tensor<1xi64>, type = "RegisterFile"} : () -> i32
    %20 = "equeue.create_comp"(%19, %18, %17) {name = "pe_1,1"} : (i32, i32, i32) -> i32
    %21 = "equeue.create_proc"() {name = "proc1,2", type = "AIEngine"} : () -> i32
    %22 = "equeue.create_mem"() {banks = 3 : i64, data = "f32", name = "mem1,2", shape = dense<3> : tensor<1xi64>, type = "RegisterFile"} : () -> i32
    %23 = "equeue.create_comp"(%22, %21, %20) {name = "pe_1,2"} : (i32, i32, i32) -> i32
    %24 = "equeue.create_proc"() {name = "proc1,3", type = "AIEngine"} : () -> i32
    %25 = "equeue.create_mem"() {banks = 3 : i64, data = "f32", name = "mem1,3", shape = dense<3> : tensor<1xi64>, type = "RegisterFile"} : () -> i32
    %26 = "equeue.create_comp"(%25, %24, %23) {name = "pe_1,3"} : (i32, i32, i32) -> i32
    %27 = "equeue.create_proc"() {name = "proc1,4", type = "AIEngine"} : () -> i32
    %28 = "equeue.create_mem"() {banks = 3 : i64, data = "f32", name = "mem1,4", shape = dense<3> : tensor<1xi64>, type = "RegisterFile"} : () -> i32
    %29 = "equeue.create_comp"(%28, %27, %26) {name = "pe_1,4"} : (i32, i32, i32) -> i32
    %30 = "equeue.create_proc"() {name = "proc2,0", type = "AIEngine"} : () -> i32
    %31 = "equeue.create_mem"() {banks = 3 : i64, data = "f32", name = "mem2,0", shape = dense<3> : tensor<1xi64>, type = "RegisterFile"} : () -> i32
    %32 = "equeue.create_comp"(%31, %30, %29) {name = "pe_2,0"} : (i32, i32, i32) -> i32
    %33 = "equeue.create_proc"() {name = "proc2,1", type = "AIEngine"} : () -> i32
    %34 = "equeue.create_mem"() {banks = 3 : i64, data = "f32", name = "mem2,1", shape = dense<3> : tensor<1xi64>, type = "RegisterFile"} : () -> i32
    %35 = "equeue.create_comp"(%34, %33, %32) {name = "pe_2,1"} : (i32, i32, i32) -> i32
    %36 = "equeue.create_proc"() {name = "proc2,2", type = "AIEngine"} : () -> i32
    %37 = "equeue.create_mem"() {banks = 3 : i64, data = "f32", name = "mem2,2", shape = dense<3> : tensor<1xi64>, type = "RegisterFile"} : () -> i32
    %38 = "equeue.create_comp"(%37, %36, %35) {name = "pe_2,2"} : (i32, i32, i32) -> i32
    %39 = "equeue.create_proc"() {name = "proc2,3", type = "AIEngine"} : () -> i32
    %40 = "equeue.create_mem"() {banks = 3 : i64, data = "f32", name = "mem2,3", shape = dense<3> : tensor<1xi64>, type = "RegisterFile"} : () -> i32
    %41 = "equeue.create_comp"(%40, %39, %38) {name = "pe_2,3"} : (i32, i32, i32) -> i32
    %42 = "equeue.create_proc"() {name = "proc2,4", type = "AIEngine"} : () -> i32
    %43 = "equeue.create_mem"() {banks = 3 : i64, data = "f32", name = "mem2,4", shape = dense<3> : tensor<1xi64>, type = "RegisterFile"} : () -> i32
    %44 = "equeue.create_comp"(%43, %42, %41) {name = "pe_2,4"} : (i32, i32, i32) -> i32
    %45 = "equeue.create_proc"() {name = "proc3,0", type = "AIEngine"} : () -> i32
    %46 = "equeue.create_mem"() {banks = 3 : i64, data = "f32", name = "mem3,0", shape = dense<3> : tensor<1xi64>, type = "RegisterFile"} : () -> i32
    %47 = "equeue.create_comp"(%46, %45, %44) {name = "pe_3,0"} : (i32, i32, i32) -> i32
    %48 = "equeue.create_proc"() {name = "proc3,1", type = "AIEngine"} : () -> i32
    %49 = "equeue.create_mem"() {banks = 3 : i64, data = "f32", name = "mem3,1", shape = dense<3> : tensor<1xi64>, type = "RegisterFile"} : () -> i32
    %50 = "equeue.create_comp"(%49, %48, %47) {name = "pe_3,1"} : (i32, i32, i32) -> i32
    %51 = "equeue.create_proc"() {name = "proc3,2", type = "AIEngine"} : () -> i32
    %52 = "equeue.create_mem"() {banks = 3 : i64, data = "f32", name = "mem3,2", shape = dense<3> : tensor<1xi64>, type = "RegisterFile"} : () -> i32
    %53 = "equeue.create_comp"(%52, %51, %50) {name = "pe_3,2"} : (i32, i32, i32) -> i32
    %54 = "equeue.create_proc"() {name = "proc3,3", type = "AIEngine"} : () -> i32
    %55 = "equeue.create_mem"() {banks = 3 : i64, data = "f32", name = "mem3,3", shape = dense<3> : tensor<1xi64>, type = "RegisterFile"} : () -> i32
    %56 = "equeue.create_comp"(%55, %54, %53) {name = "pe_3,3"} : (i32, i32, i32) -> i32
    %57 = "equeue.create_proc"() {name = "proc3,4", type = "AIEngine"} : () -> i32
    %58 = "equeue.create_mem"() {banks = 3 : i64, data = "f32", name = "mem3,4", shape = dense<3> : tensor<1xi64>, type = "RegisterFile"} : () -> i32
    %59 = "equeue.create_comp"(%58, %57, %56) {name = "pe_3,4"} : (i32, i32, i32) -> i32
    %60 = "equeue.create_proc"() {name = "proc4,0", type = "AIEngine"} : () -> i32
    %61 = "equeue.create_mem"() {banks = 3 : i64, data = "f32", name = "mem4,0", shape = dense<3> : tensor<1xi64>, type = "RegisterFile"} : () -> i32
    %62 = "equeue.create_comp"(%61, %60, %59) {name = "pe_4,0"} : (i32, i32, i32) -> i32
    %63 = "equeue.create_proc"() {name = "proc4,1", type = "AIEngine"} : () -> i32
    %64 = "equeue.create_mem"() {banks = 3 : i64, data = "f32", name = "mem4,1", shape = dense<3> : tensor<1xi64>, type = "RegisterFile"} : () -> i32
    %65 = "equeue.create_comp"(%64, %63, %62) {name = "pe_4,1"} : (i32, i32, i32) -> i32
    %66 = "equeue.create_proc"() {name = "proc4,2", type = "AIEngine"} : () -> i32
    %67 = "equeue.create_mem"() {banks = 3 : i64, data = "f32", name = "mem4,2", shape = dense<3> : tensor<1xi64>, type = "RegisterFile"} : () -> i32
    %68 = "equeue.create_comp"(%67, %66, %65) {name = "pe_4,2"} : (i32, i32, i32) -> i32
    %69 = "equeue.create_proc"() {name = "proc4,3", type = "AIEngine"} : () -> i32
    %70 = "equeue.create_mem"() {banks = 3 : i64, data = "f32", name = "mem4,3", shape = dense<3> : tensor<1xi64>, type = "RegisterFile"} : () -> i32
    %71 = "equeue.create_comp"(%70, %69, %68) {name = "pe_4,3"} : (i32, i32, i32) -> i32
    %72 = "equeue.create_proc"() {name = "proc4,4", type = "AIEngine"} : () -> i32
    %73 = "equeue.create_mem"() {banks = 3 : i64, data = "f32", name = "mem4,4", shape = dense<3> : tensor<1xi64>, type = "RegisterFile"} : () -> i32
    %74 = "equeue.create_comp"(%73, %72, %71) {name = "pe_4,4"} : (i32, i32, i32) -> i32
    %75 = "equeue.create_mem"() {banks = 10 : i64, data = "f32", name = "mem", shape = dense<110592> : tensor<1xi64>, type = "SRAM"} : () -> i32
    %76 = "equeue.create_dma"() {name = "dma0"} : () -> i32
    %77 = "equeue.create_comp"(%76) {name = "dma_col"} : (i32) -> i32
    %78 = "equeue.create_dma"() {name = "dma1"} : () -> i32
    %79 = "equeue.create_comp"(%78, %77) {name = "dma_col"} : (i32, i32) -> i32
    %80 = "equeue.create_dma"() {name = "dma2"} : () -> i32
    %81 = "equeue.create_comp"(%80, %79) {name = "dma_col"} : (i32, i32) -> i32
    %82 = "equeue.create_dma"() {name = "dma3"} : () -> i32
    %83 = "equeue.create_comp"(%82, %81) {name = "dma_col"} : (i32, i32) -> i32
    %84 = "equeue.create_dma"() {name = "dma4"} : () -> i32
    %85 = "equeue.create_comp"(%84, %83) {name = "dma_col"} : (i32, i32) -> i32
    %86 = "equeue.create_dma"() {name = "dma0"} : () -> i32
    %87 = "equeue.create_comp"(%86) {name = "dma_row"} : (i32) -> i32
    %88 = "equeue.create_dma"() {name = "dma1"} : () -> i32
    %89 = "equeue.create_comp"(%88, %87) {name = "dma_row"} : (i32, i32) -> i32
    %90 = "equeue.create_dma"() {name = "dma2"} : () -> i32
    %91 = "equeue.create_comp"(%90, %89) {name = "dma_row"} : (i32, i32) -> i32
    %92 = "equeue.create_dma"() {name = "dma3"} : () -> i32
    %93 = "equeue.create_comp"(%92, %91) {name = "dma_row"} : (i32, i32) -> i32
    %94 = "equeue.create_dma"() {name = "dma4"} : () -> i32
    %95 = "equeue.create_comp"(%94, %93) {name = "dma_row"} : (i32, i32) -> i32
    %96 = "equeue.create_proc"() {name = "proc", type = "MicroPlate"} : () -> i32
    %97 = "equeue.create_comp"(%74, %96, %75, %95, %85) {name = "accel"} : (i32, i32, i32, i32, i32) -> i32
    %98 = "equeue.control_start"() : () -> !equeue.signal
    %done = "equeue.launch"(%98, %96, %97, %arg0, %arg1) ( {
    ^bb0(%arg2: i32, %arg3: memref<5x7x7xf32>, %arg4: memref<3x5x7x3xf32>):  // no predecessors
      %99 = "equeue.get_comp"(%arg2) {name = "proc"} : (i32) -> i32
      %100 = "equeue.get_comp"(%arg2) {name = "dma_row"} : (i32) -> i32
      %101 = "equeue.get_comp"(%arg2) {name = "dma_col"} : (i32) -> i32
      %102 = "equeue.get_comp"(%100) {name = "dma4"} : (i32) -> i32
      %103 = "equeue.get_comp"(%100) {name = "dma_row"} : (i32) -> i32
      %104 = "equeue.get_comp"(%103) {name = "dma3"} : (i32) -> i32
      %105 = "equeue.get_comp"(%103) {name = "dma_row"} : (i32) -> i32
      %106 = "equeue.get_comp"(%105) {name = "dma2"} : (i32) -> i32
      %107 = "equeue.get_comp"(%105) {name = "dma_row"} : (i32) -> i32
      %108 = "equeue.get_comp"(%107) {name = "dma1"} : (i32) -> i32
      %109 = "equeue.get_comp"(%107) {name = "dma_row"} : (i32) -> i32
      %110 = "equeue.get_comp"(%109) {name = "dma0"} : (i32) -> i32
      %111 = "equeue.get_comp"(%101) {name = "dma4"} : (i32) -> i32
      %112 = "equeue.get_comp"(%101) {name = "dma_col"} : (i32) -> i32
      %113 = "equeue.get_comp"(%112) {name = "dma3"} : (i32) -> i32
      %114 = "equeue.get_comp"(%112) {name = "dma_col"} : (i32) -> i32
      %115 = "equeue.get_comp"(%114) {name = "dma2"} : (i32) -> i32
      %116 = "equeue.get_comp"(%114) {name = "dma_col"} : (i32) -> i32
      %117 = "equeue.get_comp"(%116) {name = "dma1"} : (i32) -> i32
      %118 = "equeue.get_comp"(%116) {name = "dma_col"} : (i32) -> i32
      %119 = "equeue.get_comp"(%118) {name = "dma0"} : (i32) -> i32
      %120 = "equeue.get_comp"(%arg2) {name = "mem"} : (i32) -> i32
      %121 = "equeue.alloc"(%120) {data = "f32", shape = dense<[5, 7, 7]> : tensor<3xi64>} : (i32) -> memref<5x7x7xf32>
      %122 = "equeue.alloc"(%120) {data = "f32", shape = dense<[3, 5, 7, 3]> : tensor<4xi64>} : (i32) -> memref<3x5x7x3xf32>
      %123 = "equeue.alloc"(%120) {data = "f32", shape = dense<3> : tensor<3xi64>} : (i32) -> memref<3x3x3xf32>
      %124 = "equeue.get_comp"(%arg2) {name = "pe_4,4"} : (i32) -> i32
      %125 = "equeue.get_comp"(%124) {name = "mem4,4"} : (i32) -> i32
      %126 = "equeue.get_comp"(%124) {name = "proc4,4"} : (i32) -> i32
      %127 = "equeue.alloc"(%125) {data = "f32", shape = dense<1> : tensor<1xi64>} : (i32) -> memref<1xf32>
      %128 = "equeue.alloc"(%125) {data = "f32", shape = dense<1> : tensor<1xi64>} : (i32) -> memref<1xf32>
      %129 = "equeue.alloc"(%125) {data = "f32", shape = dense<1> : tensor<1xi64>} : (i32) -> memref<1xf32>
      %130 = "equeue.get_comp"(%124) {name = "pe_4,3"} : (i32) -> i32
      %131 = "equeue.get_comp"(%130) {name = "mem4,3"} : (i32) -> i32
      %132 = "equeue.get_comp"(%130) {name = "proc4,3"} : (i32) -> i32
      %133 = "equeue.alloc"(%131) {data = "f32", shape = dense<1> : tensor<1xi64>} : (i32) -> memref<1xf32>
      %134 = "equeue.alloc"(%131) {data = "f32", shape = dense<1> : tensor<1xi64>} : (i32) -> memref<1xf32>
      %135 = "equeue.alloc"(%131) {data = "f32", shape = dense<1> : tensor<1xi64>} : (i32) -> memref<1xf32>
      %136 = "equeue.get_comp"(%130) {name = "pe_4,2"} : (i32) -> i32
      %137 = "equeue.get_comp"(%136) {name = "mem4,2"} : (i32) -> i32
      %138 = "equeue.get_comp"(%136) {name = "proc4,2"} : (i32) -> i32
      %139 = "equeue.alloc"(%137) {data = "f32", shape = dense<1> : tensor<1xi64>} : (i32) -> memref<1xf32>
      %140 = "equeue.alloc"(%137) {data = "f32", shape = dense<1> : tensor<1xi64>} : (i32) -> memref<1xf32>
      %141 = "equeue.alloc"(%137) {data = "f32", shape = dense<1> : tensor<1xi64>} : (i32) -> memref<1xf32>
      %142 = "equeue.get_comp"(%136) {name = "pe_4,1"} : (i32) -> i32
      %143 = "equeue.get_comp"(%142) {name = "mem4,1"} : (i32) -> i32
      %144 = "equeue.get_comp"(%142) {name = "proc4,1"} : (i32) -> i32
      %145 = "equeue.alloc"(%143) {data = "f32", shape = dense<1> : tensor<1xi64>} : (i32) -> memref<1xf32>
      %146 = "equeue.alloc"(%143) {data = "f32", shape = dense<1> : tensor<1xi64>} : (i32) -> memref<1xf32>
      %147 = "equeue.alloc"(%143) {data = "f32", shape = dense<1> : tensor<1xi64>} : (i32) -> memref<1xf32>
      %148 = "equeue.get_comp"(%142) {name = "pe_4,0"} : (i32) -> i32
      %149 = "equeue.get_comp"(%148) {name = "mem4,0"} : (i32) -> i32
      %150 = "equeue.get_comp"(%148) {name = "proc4,0"} : (i32) -> i32
      %151 = "equeue.alloc"(%149) {data = "f32", shape = dense<1> : tensor<1xi64>} : (i32) -> memref<1xf32>
      %152 = "equeue.alloc"(%149) {data = "f32", shape = dense<1> : tensor<1xi64>} : (i32) -> memref<1xf32>
      %153 = "equeue.alloc"(%149) {data = "f32", shape = dense<1> : tensor<1xi64>} : (i32) -> memref<1xf32>
      %154 = "equeue.get_comp"(%148) {name = "pe_3,4"} : (i32) -> i32
      %155 = "equeue.get_comp"(%154) {name = "mem3,4"} : (i32) -> i32
      %156 = "equeue.get_comp"(%154) {name = "proc3,4"} : (i32) -> i32
      %157 = "equeue.alloc"(%155) {data = "f32", shape = dense<1> : tensor<1xi64>} : (i32) -> memref<1xf32>
      %158 = "equeue.alloc"(%155) {data = "f32", shape = dense<1> : tensor<1xi64>} : (i32) -> memref<1xf32>
      %159 = "equeue.alloc"(%155) {data = "f32", shape = dense<1> : tensor<1xi64>} : (i32) -> memref<1xf32>
      %160 = "equeue.get_comp"(%154) {name = "pe_3,3"} : (i32) -> i32
      %161 = "equeue.get_comp"(%160) {name = "mem3,3"} : (i32) -> i32
      %162 = "equeue.get_comp"(%160) {name = "proc3,3"} : (i32) -> i32
      %163 = "equeue.alloc"(%161) {data = "f32", shape = dense<1> : tensor<1xi64>} : (i32) -> memref<1xf32>
      %164 = "equeue.alloc"(%161) {data = "f32", shape = dense<1> : tensor<1xi64>} : (i32) -> memref<1xf32>
      %165 = "equeue.alloc"(%161) {data = "f32", shape = dense<1> : tensor<1xi64>} : (i32) -> memref<1xf32>
      %166 = "equeue.get_comp"(%160) {name = "pe_3,2"} : (i32) -> i32
      %167 = "equeue.get_comp"(%166) {name = "mem3,2"} : (i32) -> i32
      %168 = "equeue.get_comp"(%166) {name = "proc3,2"} : (i32) -> i32
      %169 = "equeue.alloc"(%167) {data = "f32", shape = dense<1> : tensor<1xi64>} : (i32) -> memref<1xf32>
      %170 = "equeue.alloc"(%167) {data = "f32", shape = dense<1> : tensor<1xi64>} : (i32) -> memref<1xf32>
      %171 = "equeue.alloc"(%167) {data = "f32", shape = dense<1> : tensor<1xi64>} : (i32) -> memref<1xf32>
      %172 = "equeue.get_comp"(%166) {name = "pe_3,1"} : (i32) -> i32
      %173 = "equeue.get_comp"(%172) {name = "mem3,1"} : (i32) -> i32
      %174 = "equeue.get_comp"(%172) {name = "proc3,1"} : (i32) -> i32
      %175 = "equeue.alloc"(%173) {data = "f32", shape = dense<1> : tensor<1xi64>} : (i32) -> memref<1xf32>
      %176 = "equeue.alloc"(%173) {data = "f32", shape = dense<1> : tensor<1xi64>} : (i32) -> memref<1xf32>
      %177 = "equeue.alloc"(%173) {data = "f32", shape = dense<1> : tensor<1xi64>} : (i32) -> memref<1xf32>
      %178 = "equeue.get_comp"(%172) {name = "pe_3,0"} : (i32) -> i32
      %179 = "equeue.get_comp"(%178) {name = "mem3,0"} : (i32) -> i32
      %180 = "equeue.get_comp"(%178) {name = "proc3,0"} : (i32) -> i32
      %181 = "equeue.alloc"(%179) {data = "f32", shape = dense<1> : tensor<1xi64>} : (i32) -> memref<1xf32>
      %182 = "equeue.alloc"(%179) {data = "f32", shape = dense<1> : tensor<1xi64>} : (i32) -> memref<1xf32>
      %183 = "equeue.alloc"(%179) {data = "f32", shape = dense<1> : tensor<1xi64>} : (i32) -> memref<1xf32>
      %184 = "equeue.get_comp"(%178) {name = "pe_2,4"} : (i32) -> i32
      %185 = "equeue.get_comp"(%184) {name = "mem2,4"} : (i32) -> i32
      %186 = "equeue.get_comp"(%184) {name = "proc2,4"} : (i32) -> i32
      %187 = "equeue.alloc"(%185) {data = "f32", shape = dense<1> : tensor<1xi64>} : (i32) -> memref<1xf32>
      %188 = "equeue.alloc"(%185) {data = "f32", shape = dense<1> : tensor<1xi64>} : (i32) -> memref<1xf32>
      %189 = "equeue.alloc"(%185) {data = "f32", shape = dense<1> : tensor<1xi64>} : (i32) -> memref<1xf32>
      %190 = "equeue.get_comp"(%184) {name = "pe_2,3"} : (i32) -> i32
      %191 = "equeue.get_comp"(%190) {name = "mem2,3"} : (i32) -> i32
      %192 = "equeue.get_comp"(%190) {name = "proc2,3"} : (i32) -> i32
      %193 = "equeue.alloc"(%191) {data = "f32", shape = dense<1> : tensor<1xi64>} : (i32) -> memref<1xf32>
      %194 = "equeue.alloc"(%191) {data = "f32", shape = dense<1> : tensor<1xi64>} : (i32) -> memref<1xf32>
      %195 = "equeue.alloc"(%191) {data = "f32", shape = dense<1> : tensor<1xi64>} : (i32) -> memref<1xf32>
      %196 = "equeue.get_comp"(%190) {name = "pe_2,2"} : (i32) -> i32
      %197 = "equeue.get_comp"(%196) {name = "mem2,2"} : (i32) -> i32
      %198 = "equeue.get_comp"(%196) {name = "proc2,2"} : (i32) -> i32
      %199 = "equeue.alloc"(%197) {data = "f32", shape = dense<1> : tensor<1xi64>} : (i32) -> memref<1xf32>
      %200 = "equeue.alloc"(%197) {data = "f32", shape = dense<1> : tensor<1xi64>} : (i32) -> memref<1xf32>
      %201 = "equeue.alloc"(%197) {data = "f32", shape = dense<1> : tensor<1xi64>} : (i32) -> memref<1xf32>
      %202 = "equeue.get_comp"(%196) {name = "pe_2,1"} : (i32) -> i32
      %203 = "equeue.get_comp"(%202) {name = "mem2,1"} : (i32) -> i32
      %204 = "equeue.get_comp"(%202) {name = "proc2,1"} : (i32) -> i32
      %205 = "equeue.alloc"(%203) {data = "f32", shape = dense<1> : tensor<1xi64>} : (i32) -> memref<1xf32>
      %206 = "equeue.alloc"(%203) {data = "f32", shape = dense<1> : tensor<1xi64>} : (i32) -> memref<1xf32>
      %207 = "equeue.alloc"(%203) {data = "f32", shape = dense<1> : tensor<1xi64>} : (i32) -> memref<1xf32>
      %208 = "equeue.get_comp"(%202) {name = "pe_2,0"} : (i32) -> i32
      %209 = "equeue.get_comp"(%208) {name = "mem2,0"} : (i32) -> i32
      %210 = "equeue.get_comp"(%208) {name = "proc2,0"} : (i32) -> i32
      %211 = "equeue.alloc"(%209) {data = "f32", shape = dense<1> : tensor<1xi64>} : (i32) -> memref<1xf32>
      %212 = "equeue.alloc"(%209) {data = "f32", shape = dense<1> : tensor<1xi64>} : (i32) -> memref<1xf32>
      %213 = "equeue.alloc"(%209) {data = "f32", shape = dense<1> : tensor<1xi64>} : (i32) -> memref<1xf32>
      %214 = "equeue.get_comp"(%208) {name = "pe_1,4"} : (i32) -> i32
      %215 = "equeue.get_comp"(%214) {name = "mem1,4"} : (i32) -> i32
      %216 = "equeue.get_comp"(%214) {name = "proc1,4"} : (i32) -> i32
      %217 = "equeue.alloc"(%215) {data = "f32", shape = dense<1> : tensor<1xi64>} : (i32) -> memref<1xf32>
      %218 = "equeue.alloc"(%215) {data = "f32", shape = dense<1> : tensor<1xi64>} : (i32) -> memref<1xf32>
      %219 = "equeue.alloc"(%215) {data = "f32", shape = dense<1> : tensor<1xi64>} : (i32) -> memref<1xf32>
      %220 = "equeue.get_comp"(%214) {name = "pe_1,3"} : (i32) -> i32
      %221 = "equeue.get_comp"(%220) {name = "mem1,3"} : (i32) -> i32
      %222 = "equeue.get_comp"(%220) {name = "proc1,3"} : (i32) -> i32
      %223 = "equeue.alloc"(%221) {data = "f32", shape = dense<1> : tensor<1xi64>} : (i32) -> memref<1xf32>
      %224 = "equeue.alloc"(%221) {data = "f32", shape = dense<1> : tensor<1xi64>} : (i32) -> memref<1xf32>
      %225 = "equeue.alloc"(%221) {data = "f32", shape = dense<1> : tensor<1xi64>} : (i32) -> memref<1xf32>
      %226 = "equeue.get_comp"(%220) {name = "pe_1,2"} : (i32) -> i32
      %227 = "equeue.get_comp"(%226) {name = "mem1,2"} : (i32) -> i32
      %228 = "equeue.get_comp"(%226) {name = "proc1,2"} : (i32) -> i32
      %229 = "equeue.alloc"(%227) {data = "f32", shape = dense<1> : tensor<1xi64>} : (i32) -> memref<1xf32>
      %230 = "equeue.alloc"(%227) {data = "f32", shape = dense<1> : tensor<1xi64>} : (i32) -> memref<1xf32>
      %231 = "equeue.alloc"(%227) {data = "f32", shape = dense<1> : tensor<1xi64>} : (i32) -> memref<1xf32>
      %232 = "equeue.get_comp"(%226) {name = "pe_1,1"} : (i32) -> i32
      %233 = "equeue.get_comp"(%232) {name = "mem1,1"} : (i32) -> i32
      %234 = "equeue.get_comp"(%232) {name = "proc1,1"} : (i32) -> i32
      %235 = "equeue.alloc"(%233) {data = "f32", shape = dense<1> : tensor<1xi64>} : (i32) -> memref<1xf32>
      %236 = "equeue.alloc"(%233) {data = "f32", shape = dense<1> : tensor<1xi64>} : (i32) -> memref<1xf32>
      %237 = "equeue.alloc"(%233) {data = "f32", shape = dense<1> : tensor<1xi64>} : (i32) -> memref<1xf32>
      %238 = "equeue.get_comp"(%232) {name = "pe_1,0"} : (i32) -> i32
      %239 = "equeue.get_comp"(%238) {name = "mem1,0"} : (i32) -> i32
      %240 = "equeue.get_comp"(%238) {name = "proc1,0"} : (i32) -> i32
      %241 = "equeue.alloc"(%239) {data = "f32", shape = dense<1> : tensor<1xi64>} : (i32) -> memref<1xf32>
      %242 = "equeue.alloc"(%239) {data = "f32", shape = dense<1> : tensor<1xi64>} : (i32) -> memref<1xf32>
      %243 = "equeue.alloc"(%239) {data = "f32", shape = dense<1> : tensor<1xi64>} : (i32) -> memref<1xf32>
      %244 = "equeue.get_comp"(%238) {name = "pe_0,4"} : (i32) -> i32
      %245 = "equeue.get_comp"(%244) {name = "mem0,4"} : (i32) -> i32
      %246 = "equeue.get_comp"(%244) {name = "proc0,4"} : (i32) -> i32
      %247 = "equeue.alloc"(%245) {data = "f32", shape = dense<1> : tensor<1xi64>} : (i32) -> memref<1xf32>
      %248 = "equeue.alloc"(%245) {data = "f32", shape = dense<1> : tensor<1xi64>} : (i32) -> memref<1xf32>
      %249 = "equeue.alloc"(%245) {data = "f32", shape = dense<1> : tensor<1xi64>} : (i32) -> memref<1xf32>
      %250 = "equeue.get_comp"(%244) {name = "pe_0,3"} : (i32) -> i32
      %251 = "equeue.get_comp"(%250) {name = "mem0,3"} : (i32) -> i32
      %252 = "equeue.get_comp"(%250) {name = "proc0,3"} : (i32) -> i32
      %253 = "equeue.alloc"(%251) {data = "f32", shape = dense<1> : tensor<1xi64>} : (i32) -> memref<1xf32>
      %254 = "equeue.alloc"(%251) {data = "f32", shape = dense<1> : tensor<1xi64>} : (i32) -> memref<1xf32>
      %255 = "equeue.alloc"(%251) {data = "f32", shape = dense<1> : tensor<1xi64>} : (i32) -> memref<1xf32>
      %256 = "equeue.get_comp"(%250) {name = "pe_0,2"} : (i32) -> i32
      %257 = "equeue.get_comp"(%256) {name = "mem0,2"} : (i32) -> i32
      %258 = "equeue.get_comp"(%256) {name = "proc0,2"} : (i32) -> i32
      %259 = "equeue.alloc"(%257) {data = "f32", shape = dense<1> : tensor<1xi64>} : (i32) -> memref<1xf32>
      %260 = "equeue.alloc"(%257) {data = "f32", shape = dense<1> : tensor<1xi64>} : (i32) -> memref<1xf32>
      %261 = "equeue.alloc"(%257) {data = "f32", shape = dense<1> : tensor<1xi64>} : (i32) -> memref<1xf32>
      %262 = "equeue.get_comp"(%256) {name = "pe_0,1"} : (i32) -> i32
      %263 = "equeue.get_comp"(%262) {name = "mem0,1"} : (i32) -> i32
      %264 = "equeue.get_comp"(%262) {name = "proc0,1"} : (i32) -> i32
      %265 = "equeue.alloc"(%263) {data = "f32", shape = dense<1> : tensor<1xi64>} : (i32) -> memref<1xf32>
      %266 = "equeue.alloc"(%263) {data = "f32", shape = dense<1> : tensor<1xi64>} : (i32) -> memref<1xf32>
      %267 = "equeue.alloc"(%263) {data = "f32", shape = dense<1> : tensor<1xi64>} : (i32) -> memref<1xf32>
      %268 = "equeue.get_comp"(%262) {name = "pe_0,0"} : (i32) -> i32
      %269 = "equeue.get_comp"(%268) {name = "mem0,0"} : (i32) -> i32
      %270 = "equeue.get_comp"(%268) {name = "proc0,0"} : (i32) -> i32
      %271 = "equeue.alloc"(%269) {data = "f32", shape = dense<1> : tensor<1xi64>} : (i32) -> memref<1xf32>
      %272 = "equeue.alloc"(%269) {data = "f32", shape = dense<1> : tensor<1xi64>} : (i32) -> memref<1xf32>
      %273 = "equeue.alloc"(%269) {data = "f32", shape = dense<1> : tensor<1xi64>} : (i32) -> memref<1xf32>
      %c0 = constant 0 : index
      %274 = "equeue.control_start"() : () -> !equeue.signal
      %275 = "equeue.memcpy"(%274, %122, %127, %111, %c0) {dest_bank = 0 : i64, src_bank = 0 : i64} : (!equeue.signal, memref<3x5x7x3xf32>, memref<1xf32>, i32, index) -> !equeue.signal
      %276 = "equeue.control_and"(%275) : (!equeue.signal) -> !equeue.signal
      %277 = "equeue.memcpy"(%274, %122, %133, %113, %c0) {dest_bank = 0 : i64, src_bank = 1 : i64} : (!equeue.signal, memref<3x5x7x3xf32>, memref<1xf32>, i32, index) -> !equeue.signal
      %278 = "equeue.control_and"(%276, %277) : (!equeue.signal, !equeue.signal) -> !equeue.signal
      %279 = "equeue.memcpy"(%274, %122, %139, %115, %c0) {dest_bank = 0 : i64, src_bank = 2 : i64} : (!equeue.signal, memref<3x5x7x3xf32>, memref<1xf32>, i32, index) -> !equeue.signal
      %280 = "equeue.control_and"(%278, %279) : (!equeue.signal, !equeue.signal) -> !equeue.signal
      "equeue.await"(%280) : (!equeue.signal) -> ()
      %281 = "equeue.control_start"() : () -> !equeue.signal
      %done_0, %res = "equeue.launch"(%281, %126, %127) ( {
      ^bb0(%arg5: memref<1xf32>):  // no predecessors
        %6322 = "equeue.read"(%arg5) {bank = 0 : i64} : (memref<1xf32>) -> f32
        "equeue.return"(%6322) : (f32) -> ()
      }) : (!equeue.signal, i32, memref<1xf32>) -> (!equeue.signal, f32)
      %282 = "equeue.control_and"(%done_0) : (!equeue.signal) -> !equeue.signal
      %done_1, %res_2 = "equeue.launch"(%281, %132, %133) ( {
      ^bb0(%arg5: memref<1xf32>):  // no predecessors
        %6322 = "equeue.read"(%arg5) {bank = 0 : i64} : (memref<1xf32>) -> f32
        "equeue.return"(%6322) : (f32) -> ()
      }) : (!equeue.signal, i32, memref<1xf32>) -> (!equeue.signal, f32)
      %283 = "equeue.control_and"(%282, %done_1) : (!equeue.signal, !equeue.signal) -> !equeue.signal
      %done_3, %res_4 = "equeue.launch"(%281, %138, %139) ( {
      ^bb0(%arg5: memref<1xf32>):  // no predecessors
        %6322 = "equeue.read"(%arg5) {bank = 0 : i64} : (memref<1xf32>) -> f32
        "equeue.return"(%6322) : (f32) -> ()
      }) : (!equeue.signal, i32, memref<1xf32>) -> (!equeue.signal, f32)
      %284 = "equeue.control_and"(%283, %done_3) : (!equeue.signal, !equeue.signal) -> !equeue.signal
      %done_5, %res_6 = "equeue.launch"(%281, %156, %157) ( {
      ^bb0(%arg5: memref<1xf32>):  // no predecessors
        %6322 = "equeue.read"(%arg5) {bank = 0 : i64} : (memref<1xf32>) -> f32
        "equeue.return"(%6322) : (f32) -> ()
      }) : (!equeue.signal, i32, memref<1xf32>) -> (!equeue.signal, f32)
      %285 = "equeue.control_and"(%284, %done_5) : (!equeue.signal, !equeue.signal) -> !equeue.signal
      %done_7, %res_8 = "equeue.launch"(%281, %162, %163) ( {
      ^bb0(%arg5: memref<1xf32>):  // no predecessors
        %6322 = "equeue.read"(%arg5) {bank = 0 : i64} : (memref<1xf32>) -> f32
        "equeue.return"(%6322) : (f32) -> ()
      }) : (!equeue.signal, i32, memref<1xf32>) -> (!equeue.signal, f32)
      %286 = "equeue.control_and"(%285, %done_7) : (!equeue.signal, !equeue.signal) -> !equeue.signal
      %done_9, %res_10 = "equeue.launch"(%281, %168, %169) ( {
      ^bb0(%arg5: memref<1xf32>):  // no predecessors
        %6322 = "equeue.read"(%arg5) {bank = 0 : i64} : (memref<1xf32>) -> f32
        "equeue.return"(%6322) : (f32) -> ()
      }) : (!equeue.signal, i32, memref<1xf32>) -> (!equeue.signal, f32)
      %287 = "equeue.control_and"(%286, %done_9) : (!equeue.signal, !equeue.signal) -> !equeue.signal
      %done_11, %res_12 = "equeue.launch"(%281, %186, %187) ( {
      ^bb0(%arg5: memref<1xf32>):  // no predecessors
        %6322 = "equeue.read"(%arg5) {bank = 0 : i64} : (memref<1xf32>) -> f32
        "equeue.return"(%6322) : (f32) -> ()
      }) : (!equeue.signal, i32, memref<1xf32>) -> (!equeue.signal, f32)
      %288 = "equeue.control_and"(%287, %done_11) : (!equeue.signal, !equeue.signal) -> !equeue.signal
      %done_13, %res_14 = "equeue.launch"(%281, %192, %193) ( {
      ^bb0(%arg5: memref<1xf32>):  // no predecessors
        %6322 = "equeue.read"(%arg5) {bank = 0 : i64} : (memref<1xf32>) -> f32
        "equeue.return"(%6322) : (f32) -> ()
      }) : (!equeue.signal, i32, memref<1xf32>) -> (!equeue.signal, f32)
      %289 = "equeue.control_and"(%288, %done_13) : (!equeue.signal, !equeue.signal) -> !equeue.signal
      %done_15, %res_16 = "equeue.launch"(%281, %198, %199) ( {
      ^bb0(%arg5: memref<1xf32>):  // no predecessors
        %6322 = "equeue.read"(%arg5) {bank = 0 : i64} : (memref<1xf32>) -> f32
        "equeue.return"(%6322) : (f32) -> ()
      }) : (!equeue.signal, i32, memref<1xf32>) -> (!equeue.signal, f32)
      %290 = "equeue.control_and"(%289, %done_15) : (!equeue.signal, !equeue.signal) -> !equeue.signal
      %done_17, %res_18 = "equeue.launch"(%281, %216, %217) ( {
      ^bb0(%arg5: memref<1xf32>):  // no predecessors
        %6322 = "equeue.read"(%arg5) {bank = 0 : i64} : (memref<1xf32>) -> f32
        "equeue.return"(%6322) : (f32) -> ()
      }) : (!equeue.signal, i32, memref<1xf32>) -> (!equeue.signal, f32)
      %291 = "equeue.control_and"(%290, %done_17) : (!equeue.signal, !equeue.signal) -> !equeue.signal
      %done_19, %res_20 = "equeue.launch"(%281, %222, %223) ( {
      ^bb0(%arg5: memref<1xf32>):  // no predecessors
        %6322 = "equeue.read"(%arg5) {bank = 0 : i64} : (memref<1xf32>) -> f32
        "equeue.return"(%6322) : (f32) -> ()
      }) : (!equeue.signal, i32, memref<1xf32>) -> (!equeue.signal, f32)
      %292 = "equeue.control_and"(%291, %done_19) : (!equeue.signal, !equeue.signal) -> !equeue.signal
      %done_21, %res_22 = "equeue.launch"(%281, %228, %229) ( {
      ^bb0(%arg5: memref<1xf32>):  // no predecessors
        %6322 = "equeue.read"(%arg5) {bank = 0 : i64} : (memref<1xf32>) -> f32
        "equeue.return"(%6322) : (f32) -> ()
      }) : (!equeue.signal, i32, memref<1xf32>) -> (!equeue.signal, f32)
      %293 = "equeue.control_and"(%292, %done_21) : (!equeue.signal, !equeue.signal) -> !equeue.signal
      "equeue.await"(%293) : (!equeue.signal) -> ()
      %done_23 = "equeue.launch"(%281, %126, %res, %157) ( {
      ^bb0(%arg5: f32, %arg6: memref<1xf32>):  // no predecessors
        "equeue.write"(%arg5, %arg6) {bank = 0 : i64} : (f32, memref<1xf32>) -> ()
        "equeue.return"() : () -> ()
      }) : (!equeue.signal, i32, f32, memref<1xf32>) -> !equeue.signal
      %294 = "equeue.control_and"(%done_23) : (!equeue.signal) -> !equeue.signal
      %done_24 = "equeue.launch"(%281, %132, %res_2, %163) ( {
      ^bb0(%arg5: f32, %arg6: memref<1xf32>):  // no predecessors
        "equeue.write"(%arg5, %arg6) {bank = 0 : i64} : (f32, memref<1xf32>) -> ()
        "equeue.return"() : () -> ()
      }) : (!equeue.signal, i32, f32, memref<1xf32>) -> !equeue.signal
      %295 = "equeue.control_and"(%294, %done_24) : (!equeue.signal, !equeue.signal) -> !equeue.signal
      %done_25 = "equeue.launch"(%281, %138, %res_4, %169) ( {
      ^bb0(%arg5: f32, %arg6: memref<1xf32>):  // no predecessors
        "equeue.write"(%arg5, %arg6) {bank = 0 : i64} : (f32, memref<1xf32>) -> ()
        "equeue.return"() : () -> ()
      }) : (!equeue.signal, i32, f32, memref<1xf32>) -> !equeue.signal
      %296 = "equeue.control_and"(%295, %done_25) : (!equeue.signal, !equeue.signal) -> !equeue.signal
      %done_26 = "equeue.launch"(%281, %156, %res_6, %187) ( {
      ^bb0(%arg5: f32, %arg6: memref<1xf32>):  // no predecessors
        "equeue.write"(%arg5, %arg6) {bank = 0 : i64} : (f32, memref<1xf32>) -> ()
        "equeue.return"() : () -> ()
      }) : (!equeue.signal, i32, f32, memref<1xf32>) -> !equeue.signal
      %297 = "equeue.control_and"(%296, %done_26) : (!equeue.signal, !equeue.signal) -> !equeue.signal
      %done_27 = "equeue.launch"(%281, %162, %res_8, %193) ( {
      ^bb0(%arg5: f32, %arg6: memref<1xf32>):  // no predecessors
        "equeue.write"(%arg5, %arg6) {bank = 0 : i64} : (f32, memref<1xf32>) -> ()
        "equeue.return"() : () -> ()
      }) : (!equeue.signal, i32, f32, memref<1xf32>) -> !equeue.signal
      %298 = "equeue.control_and"(%297, %done_27) : (!equeue.signal, !equeue.signal) -> !equeue.signal
      %done_28 = "equeue.launch"(%281, %168, %res_10, %199) ( {
      ^bb0(%arg5: f32, %arg6: memref<1xf32>):  // no predecessors
        "equeue.write"(%arg5, %arg6) {bank = 0 : i64} : (f32, memref<1xf32>) -> ()
        "equeue.return"() : () -> ()
      }) : (!equeue.signal, i32, f32, memref<1xf32>) -> !equeue.signal
      %299 = "equeue.control_and"(%298, %done_28) : (!equeue.signal, !equeue.signal) -> !equeue.signal
      %done_29 = "equeue.launch"(%281, %186, %res_12, %217) ( {
      ^bb0(%arg5: f32, %arg6: memref<1xf32>):  // no predecessors
        "equeue.write"(%arg5, %arg6) {bank = 0 : i64} : (f32, memref<1xf32>) -> ()
        "equeue.return"() : () -> ()
      }) : (!equeue.signal, i32, f32, memref<1xf32>) -> !equeue.signal
      %300 = "equeue.control_and"(%299, %done_29) : (!equeue.signal, !equeue.signal) -> !equeue.signal
      %done_30 = "equeue.launch"(%281, %192, %res_14, %223) ( {
      ^bb0(%arg5: f32, %arg6: memref<1xf32>):  // no predecessors
        "equeue.write"(%arg5, %arg6) {bank = 0 : i64} : (f32, memref<1xf32>) -> ()
        "equeue.return"() : () -> ()
      }) : (!equeue.signal, i32, f32, memref<1xf32>) -> !equeue.signal
      %301 = "equeue.control_and"(%300, %done_30) : (!equeue.signal, !equeue.signal) -> !equeue.signal
      %done_31 = "equeue.launch"(%281, %198, %res_16, %229) ( {
      ^bb0(%arg5: f32, %arg6: memref<1xf32>):  // no predecessors
        "equeue.write"(%arg5, %arg6) {bank = 0 : i64} : (f32, memref<1xf32>) -> ()
        "equeue.return"() : () -> ()
      }) : (!equeue.signal, i32, f32, memref<1xf32>) -> !equeue.signal
      %302 = "equeue.control_and"(%301, %done_31) : (!equeue.signal, !equeue.signal) -> !equeue.signal
      %done_32 = "equeue.launch"(%281, %216, %res_18, %247) ( {
      ^bb0(%arg5: f32, %arg6: memref<1xf32>):  // no predecessors
        "equeue.write"(%arg5, %arg6) {bank = 0 : i64} : (f32, memref<1xf32>) -> ()
        "equeue.return"() : () -> ()
      }) : (!equeue.signal, i32, f32, memref<1xf32>) -> !equeue.signal
      %303 = "equeue.control_and"(%302, %done_32) : (!equeue.signal, !equeue.signal) -> !equeue.signal
      %done_33 = "equeue.launch"(%281, %222, %res_20, %253) ( {
      ^bb0(%arg5: f32, %arg6: memref<1xf32>):  // no predecessors
        "equeue.write"(%arg5, %arg6) {bank = 0 : i64} : (f32, memref<1xf32>) -> ()
        "equeue.return"() : () -> ()
      }) : (!equeue.signal, i32, f32, memref<1xf32>) -> !equeue.signal
      %304 = "equeue.control_and"(%303, %done_33) : (!equeue.signal, !equeue.signal) -> !equeue.signal
      %done_34 = "equeue.launch"(%281, %228, %res_22, %259) ( {
      ^bb0(%arg5: f32, %arg6: memref<1xf32>):  // no predecessors
        "equeue.write"(%arg5, %arg6) {bank = 0 : i64} : (f32, memref<1xf32>) -> ()
        "equeue.return"() : () -> ()
      }) : (!equeue.signal, i32, f32, memref<1xf32>) -> !equeue.signal
      %305 = "equeue.control_and"(%304, %done_34) : (!equeue.signal, !equeue.signal) -> !equeue.signal
      "equeue.await"(%305) : (!equeue.signal) -> ()
      %306 = "equeue.control_start"() : () -> !equeue.signal
      %307 = "equeue.memcpy"(%306, %122, %127, %111, %c0) {dest_bank = 0 : i64, src_bank = 0 : i64} : (!equeue.signal, memref<3x5x7x3xf32>, memref<1xf32>, i32, index) -> !equeue.signal
      %308 = "equeue.control_and"(%307) : (!equeue.signal) -> !equeue.signal
      %309 = "equeue.memcpy"(%306, %122, %133, %113, %c0) {dest_bank = 0 : i64, src_bank = 1 : i64} : (!equeue.signal, memref<3x5x7x3xf32>, memref<1xf32>, i32, index) -> !equeue.signal
      %310 = "equeue.control_and"(%308, %309) : (!equeue.signal, !equeue.signal) -> !equeue.signal
      %311 = "equeue.memcpy"(%306, %122, %139, %115, %c0) {dest_bank = 0 : i64, src_bank = 2 : i64} : (!equeue.signal, memref<3x5x7x3xf32>, memref<1xf32>, i32, index) -> !equeue.signal
      %312 = "equeue.control_and"(%310, %311) : (!equeue.signal, !equeue.signal) -> !equeue.signal
      "equeue.await"(%312) : (!equeue.signal) -> ()
      %313 = "equeue.control_start"() : () -> !equeue.signal
      %done_35, %res_36 = "equeue.launch"(%313, %126, %127) ( {
      ^bb0(%arg5: memref<1xf32>):  // no predecessors
        %6322 = "equeue.read"(%arg5) {bank = 0 : i64} : (memref<1xf32>) -> f32
        "equeue.return"(%6322) : (f32) -> ()
      }) : (!equeue.signal, i32, memref<1xf32>) -> (!equeue.signal, f32)
      %314 = "equeue.control_and"(%done_35) : (!equeue.signal) -> !equeue.signal
      %done_37, %res_38 = "equeue.launch"(%313, %132, %133) ( {
      ^bb0(%arg5: memref<1xf32>):  // no predecessors
        %6322 = "equeue.read"(%arg5) {bank = 0 : i64} : (memref<1xf32>) -> f32
        "equeue.return"(%6322) : (f32) -> ()
      }) : (!equeue.signal, i32, memref<1xf32>) -> (!equeue.signal, f32)
      %315 = "equeue.control_and"(%314, %done_37) : (!equeue.signal, !equeue.signal) -> !equeue.signal
      %done_39, %res_40 = "equeue.launch"(%313, %138, %139) ( {
      ^bb0(%arg5: memref<1xf32>):  // no predecessors
        %6322 = "equeue.read"(%arg5) {bank = 0 : i64} : (memref<1xf32>) -> f32
        "equeue.return"(%6322) : (f32) -> ()
      }) : (!equeue.signal, i32, memref<1xf32>) -> (!equeue.signal, f32)
      %316 = "equeue.control_and"(%315, %done_39) : (!equeue.signal, !equeue.signal) -> !equeue.signal
      %done_41, %res_42 = "equeue.launch"(%313, %156, %157) ( {
      ^bb0(%arg5: memref<1xf32>):  // no predecessors
        %6322 = "equeue.read"(%arg5) {bank = 0 : i64} : (memref<1xf32>) -> f32
        "equeue.return"(%6322) : (f32) -> ()
      }) : (!equeue.signal, i32, memref<1xf32>) -> (!equeue.signal, f32)
      %317 = "equeue.control_and"(%316, %done_41) : (!equeue.signal, !equeue.signal) -> !equeue.signal
      %done_43, %res_44 = "equeue.launch"(%313, %162, %163) ( {
      ^bb0(%arg5: memref<1xf32>):  // no predecessors
        %6322 = "equeue.read"(%arg5) {bank = 0 : i64} : (memref<1xf32>) -> f32
        "equeue.return"(%6322) : (f32) -> ()
      }) : (!equeue.signal, i32, memref<1xf32>) -> (!equeue.signal, f32)
      %318 = "equeue.control_and"(%317, %done_43) : (!equeue.signal, !equeue.signal) -> !equeue.signal
      %done_45, %res_46 = "equeue.launch"(%313, %168, %169) ( {
      ^bb0(%arg5: memref<1xf32>):  // no predecessors
        %6322 = "equeue.read"(%arg5) {bank = 0 : i64} : (memref<1xf32>) -> f32
        "equeue.return"(%6322) : (f32) -> ()
      }) : (!equeue.signal, i32, memref<1xf32>) -> (!equeue.signal, f32)
      %319 = "equeue.control_and"(%318, %done_45) : (!equeue.signal, !equeue.signal) -> !equeue.signal
      %done_47, %res_48 = "equeue.launch"(%313, %186, %187) ( {
      ^bb0(%arg5: memref<1xf32>):  // no predecessors
        %6322 = "equeue.read"(%arg5) {bank = 0 : i64} : (memref<1xf32>) -> f32
        "equeue.return"(%6322) : (f32) -> ()
      }) : (!equeue.signal, i32, memref<1xf32>) -> (!equeue.signal, f32)
      %320 = "equeue.control_and"(%319, %done_47) : (!equeue.signal, !equeue.signal) -> !equeue.signal
      %done_49, %res_50 = "equeue.launch"(%313, %192, %193) ( {
      ^bb0(%arg5: memref<1xf32>):  // no predecessors
        %6322 = "equeue.read"(%arg5) {bank = 0 : i64} : (memref<1xf32>) -> f32
        "equeue.return"(%6322) : (f32) -> ()
      }) : (!equeue.signal, i32, memref<1xf32>) -> (!equeue.signal, f32)
      %321 = "equeue.control_and"(%320, %done_49) : (!equeue.signal, !equeue.signal) -> !equeue.signal
      %done_51, %res_52 = "equeue.launch"(%313, %198, %199) ( {
      ^bb0(%arg5: memref<1xf32>):  // no predecessors
        %6322 = "equeue.read"(%arg5) {bank = 0 : i64} : (memref<1xf32>) -> f32
        "equeue.return"(%6322) : (f32) -> ()
      }) : (!equeue.signal, i32, memref<1xf32>) -> (!equeue.signal, f32)
      %322 = "equeue.control_and"(%321, %done_51) : (!equeue.signal, !equeue.signal) -> !equeue.signal
      %done_53, %res_54 = "equeue.launch"(%313, %216, %217) ( {
      ^bb0(%arg5: memref<1xf32>):  // no predecessors
        %6322 = "equeue.read"(%arg5) {bank = 0 : i64} : (memref<1xf32>) -> f32
        "equeue.return"(%6322) : (f32) -> ()
      }) : (!equeue.signal, i32, memref<1xf32>) -> (!equeue.signal, f32)
      %323 = "equeue.control_and"(%322, %done_53) : (!equeue.signal, !equeue.signal) -> !equeue.signal
      %done_55, %res_56 = "equeue.launch"(%313, %222, %223) ( {
      ^bb0(%arg5: memref<1xf32>):  // no predecessors
        %6322 = "equeue.read"(%arg5) {bank = 0 : i64} : (memref<1xf32>) -> f32
        "equeue.return"(%6322) : (f32) -> ()
      }) : (!equeue.signal, i32, memref<1xf32>) -> (!equeue.signal, f32)
      %324 = "equeue.control_and"(%323, %done_55) : (!equeue.signal, !equeue.signal) -> !equeue.signal
      %done_57, %res_58 = "equeue.launch"(%313, %228, %229) ( {
      ^bb0(%arg5: memref<1xf32>):  // no predecessors
        %6322 = "equeue.read"(%arg5) {bank = 0 : i64} : (memref<1xf32>) -> f32
        "equeue.return"(%6322) : (f32) -> ()
      }) : (!equeue.signal, i32, memref<1xf32>) -> (!equeue.signal, f32)
      %325 = "equeue.control_and"(%324, %done_57) : (!equeue.signal, !equeue.signal) -> !equeue.signal
      "equeue.await"(%325) : (!equeue.signal) -> ()
      %done_59 = "equeue.launch"(%313, %126, %res_36, %157) ( {
      ^bb0(%arg5: f32, %arg6: memref<1xf32>):  // no predecessors
        "equeue.write"(%arg5, %arg6) {bank = 0 : i64} : (f32, memref<1xf32>) -> ()
        "equeue.return"() : () -> ()
      }) : (!equeue.signal, i32, f32, memref<1xf32>) -> !equeue.signal
      %326 = "equeue.control_and"(%done_59) : (!equeue.signal) -> !equeue.signal
      %done_60 = "equeue.launch"(%313, %132, %res_38, %163) ( {
      ^bb0(%arg5: f32, %arg6: memref<1xf32>):  // no predecessors
        "equeue.write"(%arg5, %arg6) {bank = 0 : i64} : (f32, memref<1xf32>) -> ()
        "equeue.return"() : () -> ()
      }) : (!equeue.signal, i32, f32, memref<1xf32>) -> !equeue.signal
      %327 = "equeue.control_and"(%326, %done_60) : (!equeue.signal, !equeue.signal) -> !equeue.signal
      %done_61 = "equeue.launch"(%313, %138, %res_40, %169) ( {
      ^bb0(%arg5: f32, %arg6: memref<1xf32>):  // no predecessors
        "equeue.write"(%arg5, %arg6) {bank = 0 : i64} : (f32, memref<1xf32>) -> ()
        "equeue.return"() : () -> ()
      }) : (!equeue.signal, i32, f32, memref<1xf32>) -> !equeue.signal
      %328 = "equeue.control_and"(%327, %done_61) : (!equeue.signal, !equeue.signal) -> !equeue.signal
      %done_62 = "equeue.launch"(%313, %156, %res_42, %187) ( {
      ^bb0(%arg5: f32, %arg6: memref<1xf32>):  // no predecessors
        "equeue.write"(%arg5, %arg6) {bank = 0 : i64} : (f32, memref<1xf32>) -> ()
        "equeue.return"() : () -> ()
      }) : (!equeue.signal, i32, f32, memref<1xf32>) -> !equeue.signal
      %329 = "equeue.control_and"(%328, %done_62) : (!equeue.signal, !equeue.signal) -> !equeue.signal
      %done_63 = "equeue.launch"(%313, %162, %res_44, %193) ( {
      ^bb0(%arg5: f32, %arg6: memref<1xf32>):  // no predecessors
        "equeue.write"(%arg5, %arg6) {bank = 0 : i64} : (f32, memref<1xf32>) -> ()
        "equeue.return"() : () -> ()
      }) : (!equeue.signal, i32, f32, memref<1xf32>) -> !equeue.signal
      %330 = "equeue.control_and"(%329, %done_63) : (!equeue.signal, !equeue.signal) -> !equeue.signal
      %done_64 = "equeue.launch"(%313, %168, %res_46, %199) ( {
      ^bb0(%arg5: f32, %arg6: memref<1xf32>):  // no predecessors
        "equeue.write"(%arg5, %arg6) {bank = 0 : i64} : (f32, memref<1xf32>) -> ()
        "equeue.return"() : () -> ()
      }) : (!equeue.signal, i32, f32, memref<1xf32>) -> !equeue.signal
      %331 = "equeue.control_and"(%330, %done_64) : (!equeue.signal, !equeue.signal) -> !equeue.signal
      %done_65 = "equeue.launch"(%313, %186, %res_48, %217) ( {
      ^bb0(%arg5: f32, %arg6: memref<1xf32>):  // no predecessors
        "equeue.write"(%arg5, %arg6) {bank = 0 : i64} : (f32, memref<1xf32>) -> ()
        "equeue.return"() : () -> ()
      }) : (!equeue.signal, i32, f32, memref<1xf32>) -> !equeue.signal
      %332 = "equeue.control_and"(%331, %done_65) : (!equeue.signal, !equeue.signal) -> !equeue.signal
      %done_66 = "equeue.launch"(%313, %192, %res_50, %223) ( {
      ^bb0(%arg5: f32, %arg6: memref<1xf32>):  // no predecessors
        "equeue.write"(%arg5, %arg6) {bank = 0 : i64} : (f32, memref<1xf32>) -> ()
        "equeue.return"() : () -> ()
      }) : (!equeue.signal, i32, f32, memref<1xf32>) -> !equeue.signal
      %333 = "equeue.control_and"(%332, %done_66) : (!equeue.signal, !equeue.signal) -> !equeue.signal
      %done_67 = "equeue.launch"(%313, %198, %res_52, %229) ( {
      ^bb0(%arg5: f32, %arg6: memref<1xf32>):  // no predecessors
        "equeue.write"(%arg5, %arg6) {bank = 0 : i64} : (f32, memref<1xf32>) -> ()
        "equeue.return"() : () -> ()
      }) : (!equeue.signal, i32, f32, memref<1xf32>) -> !equeue.signal
      %334 = "equeue.control_and"(%333, %done_67) : (!equeue.signal, !equeue.signal) -> !equeue.signal
      %done_68 = "equeue.launch"(%313, %216, %res_54, %247) ( {
      ^bb0(%arg5: f32, %arg6: memref<1xf32>):  // no predecessors
        "equeue.write"(%arg5, %arg6) {bank = 0 : i64} : (f32, memref<1xf32>) -> ()
        "equeue.return"() : () -> ()
      }) : (!equeue.signal, i32, f32, memref<1xf32>) -> !equeue.signal
      %335 = "equeue.control_and"(%334, %done_68) : (!equeue.signal, !equeue.signal) -> !equeue.signal
      %done_69 = "equeue.launch"(%313, %222, %res_56, %253) ( {
      ^bb0(%arg5: f32, %arg6: memref<1xf32>):  // no predecessors
        "equeue.write"(%arg5, %arg6) {bank = 0 : i64} : (f32, memref<1xf32>) -> ()
        "equeue.return"() : () -> ()
      }) : (!equeue.signal, i32, f32, memref<1xf32>) -> !equeue.signal
      %336 = "equeue.control_and"(%335, %done_69) : (!equeue.signal, !equeue.signal) -> !equeue.signal
      %done_70 = "equeue.launch"(%313, %228, %res_58, %259) ( {
      ^bb0(%arg5: f32, %arg6: memref<1xf32>):  // no predecessors
        "equeue.write"(%arg5, %arg6) {bank = 0 : i64} : (f32, memref<1xf32>) -> ()
        "equeue.return"() : () -> ()
      }) : (!equeue.signal, i32, f32, memref<1xf32>) -> !equeue.signal
      %337 = "equeue.control_and"(%336, %done_70) : (!equeue.signal, !equeue.signal) -> !equeue.signal
      "equeue.await"(%337) : (!equeue.signal) -> ()
      %338 = "equeue.control_start"() : () -> !equeue.signal
      %339 = "equeue.memcpy"(%338, %122, %127, %111, %c0) {dest_bank = 0 : i64, src_bank = 0 : i64} : (!equeue.signal, memref<3x5x7x3xf32>, memref<1xf32>, i32, index) -> !equeue.signal
      %340 = "equeue.control_and"(%339) : (!equeue.signal) -> !equeue.signal
      %341 = "equeue.memcpy"(%338, %122, %133, %113, %c0) {dest_bank = 0 : i64, src_bank = 1 : i64} : (!equeue.signal, memref<3x5x7x3xf32>, memref<1xf32>, i32, index) -> !equeue.signal
      %342 = "equeue.control_and"(%340, %341) : (!equeue.signal, !equeue.signal) -> !equeue.signal
      %343 = "equeue.memcpy"(%338, %122, %139, %115, %c0) {dest_bank = 0 : i64, src_bank = 2 : i64} : (!equeue.signal, memref<3x5x7x3xf32>, memref<1xf32>, i32, index) -> !equeue.signal
      %344 = "equeue.control_and"(%342, %343) : (!equeue.signal, !equeue.signal) -> !equeue.signal
      "equeue.await"(%344) : (!equeue.signal) -> ()
      %345 = "equeue.control_start"() : () -> !equeue.signal
      %done_71, %res_72 = "equeue.launch"(%345, %126, %127) ( {
      ^bb0(%arg5: memref<1xf32>):  // no predecessors
        %6322 = "equeue.read"(%arg5) {bank = 0 : i64} : (memref<1xf32>) -> f32
        "equeue.return"(%6322) : (f32) -> ()
      }) : (!equeue.signal, i32, memref<1xf32>) -> (!equeue.signal, f32)
      %346 = "equeue.control_and"(%done_71) : (!equeue.signal) -> !equeue.signal
      %done_73, %res_74 = "equeue.launch"(%345, %132, %133) ( {
      ^bb0(%arg5: memref<1xf32>):  // no predecessors
        %6322 = "equeue.read"(%arg5) {bank = 0 : i64} : (memref<1xf32>) -> f32
        "equeue.return"(%6322) : (f32) -> ()
      }) : (!equeue.signal, i32, memref<1xf32>) -> (!equeue.signal, f32)
      %347 = "equeue.control_and"(%346, %done_73) : (!equeue.signal, !equeue.signal) -> !equeue.signal
      %done_75, %res_76 = "equeue.launch"(%345, %138, %139) ( {
      ^bb0(%arg5: memref<1xf32>):  // no predecessors
        %6322 = "equeue.read"(%arg5) {bank = 0 : i64} : (memref<1xf32>) -> f32
        "equeue.return"(%6322) : (f32) -> ()
      }) : (!equeue.signal, i32, memref<1xf32>) -> (!equeue.signal, f32)
      %348 = "equeue.control_and"(%347, %done_75) : (!equeue.signal, !equeue.signal) -> !equeue.signal
      %done_77, %res_78 = "equeue.launch"(%345, %156, %157) ( {
      ^bb0(%arg5: memref<1xf32>):  // no predecessors
        %6322 = "equeue.read"(%arg5) {bank = 0 : i64} : (memref<1xf32>) -> f32
        "equeue.return"(%6322) : (f32) -> ()
      }) : (!equeue.signal, i32, memref<1xf32>) -> (!equeue.signal, f32)
      %349 = "equeue.control_and"(%348, %done_77) : (!equeue.signal, !equeue.signal) -> !equeue.signal
      %done_79, %res_80 = "equeue.launch"(%345, %162, %163) ( {
      ^bb0(%arg5: memref<1xf32>):  // no predecessors
        %6322 = "equeue.read"(%arg5) {bank = 0 : i64} : (memref<1xf32>) -> f32
        "equeue.return"(%6322) : (f32) -> ()
      }) : (!equeue.signal, i32, memref<1xf32>) -> (!equeue.signal, f32)
      %350 = "equeue.control_and"(%349, %done_79) : (!equeue.signal, !equeue.signal) -> !equeue.signal
      %done_81, %res_82 = "equeue.launch"(%345, %168, %169) ( {
      ^bb0(%arg5: memref<1xf32>):  // no predecessors
        %6322 = "equeue.read"(%arg5) {bank = 0 : i64} : (memref<1xf32>) -> f32
        "equeue.return"(%6322) : (f32) -> ()
      }) : (!equeue.signal, i32, memref<1xf32>) -> (!equeue.signal, f32)
      %351 = "equeue.control_and"(%350, %done_81) : (!equeue.signal, !equeue.signal) -> !equeue.signal
      %done_83, %res_84 = "equeue.launch"(%345, %186, %187) ( {
      ^bb0(%arg5: memref<1xf32>):  // no predecessors
        %6322 = "equeue.read"(%arg5) {bank = 0 : i64} : (memref<1xf32>) -> f32
        "equeue.return"(%6322) : (f32) -> ()
      }) : (!equeue.signal, i32, memref<1xf32>) -> (!equeue.signal, f32)
      %352 = "equeue.control_and"(%351, %done_83) : (!equeue.signal, !equeue.signal) -> !equeue.signal
      %done_85, %res_86 = "equeue.launch"(%345, %192, %193) ( {
      ^bb0(%arg5: memref<1xf32>):  // no predecessors
        %6322 = "equeue.read"(%arg5) {bank = 0 : i64} : (memref<1xf32>) -> f32
        "equeue.return"(%6322) : (f32) -> ()
      }) : (!equeue.signal, i32, memref<1xf32>) -> (!equeue.signal, f32)
      %353 = "equeue.control_and"(%352, %done_85) : (!equeue.signal, !equeue.signal) -> !equeue.signal
      %done_87, %res_88 = "equeue.launch"(%345, %198, %199) ( {
      ^bb0(%arg5: memref<1xf32>):  // no predecessors
        %6322 = "equeue.read"(%arg5) {bank = 0 : i64} : (memref<1xf32>) -> f32
        "equeue.return"(%6322) : (f32) -> ()
      }) : (!equeue.signal, i32, memref<1xf32>) -> (!equeue.signal, f32)
      %354 = "equeue.control_and"(%353, %done_87) : (!equeue.signal, !equeue.signal) -> !equeue.signal
      %done_89, %res_90 = "equeue.launch"(%345, %216, %217) ( {
      ^bb0(%arg5: memref<1xf32>):  // no predecessors
        %6322 = "equeue.read"(%arg5) {bank = 0 : i64} : (memref<1xf32>) -> f32
        "equeue.return"(%6322) : (f32) -> ()
      }) : (!equeue.signal, i32, memref<1xf32>) -> (!equeue.signal, f32)
      %355 = "equeue.control_and"(%354, %done_89) : (!equeue.signal, !equeue.signal) -> !equeue.signal
      %done_91, %res_92 = "equeue.launch"(%345, %222, %223) ( {
      ^bb0(%arg5: memref<1xf32>):  // no predecessors
        %6322 = "equeue.read"(%arg5) {bank = 0 : i64} : (memref<1xf32>) -> f32
        "equeue.return"(%6322) : (f32) -> ()
      }) : (!equeue.signal, i32, memref<1xf32>) -> (!equeue.signal, f32)
      %356 = "equeue.control_and"(%355, %done_91) : (!equeue.signal, !equeue.signal) -> !equeue.signal
      %done_93, %res_94 = "equeue.launch"(%345, %228, %229) ( {
      ^bb0(%arg5: memref<1xf32>):  // no predecessors
        %6322 = "equeue.read"(%arg5) {bank = 0 : i64} : (memref<1xf32>) -> f32
        "equeue.return"(%6322) : (f32) -> ()
      }) : (!equeue.signal, i32, memref<1xf32>) -> (!equeue.signal, f32)
      %357 = "equeue.control_and"(%356, %done_93) : (!equeue.signal, !equeue.signal) -> !equeue.signal
      "equeue.await"(%357) : (!equeue.signal) -> ()
      %done_95 = "equeue.launch"(%345, %126, %res_72, %157) ( {
      ^bb0(%arg5: f32, %arg6: memref<1xf32>):  // no predecessors
        "equeue.write"(%arg5, %arg6) {bank = 0 : i64} : (f32, memref<1xf32>) -> ()
        "equeue.return"() : () -> ()
      }) : (!equeue.signal, i32, f32, memref<1xf32>) -> !equeue.signal
      %358 = "equeue.control_and"(%done_95) : (!equeue.signal) -> !equeue.signal
      %done_96 = "equeue.launch"(%345, %132, %res_74, %163) ( {
      ^bb0(%arg5: f32, %arg6: memref<1xf32>):  // no predecessors
        "equeue.write"(%arg5, %arg6) {bank = 0 : i64} : (f32, memref<1xf32>) -> ()
        "equeue.return"() : () -> ()
      }) : (!equeue.signal, i32, f32, memref<1xf32>) -> !equeue.signal
      %359 = "equeue.control_and"(%358, %done_96) : (!equeue.signal, !equeue.signal) -> !equeue.signal
      %done_97 = "equeue.launch"(%345, %138, %res_76, %169) ( {
      ^bb0(%arg5: f32, %arg6: memref<1xf32>):  // no predecessors
        "equeue.write"(%arg5, %arg6) {bank = 0 : i64} : (f32, memref<1xf32>) -> ()
        "equeue.return"() : () -> ()
      }) : (!equeue.signal, i32, f32, memref<1xf32>) -> !equeue.signal
      %360 = "equeue.control_and"(%359, %done_97) : (!equeue.signal, !equeue.signal) -> !equeue.signal
      %done_98 = "equeue.launch"(%345, %156, %res_78, %187) ( {
      ^bb0(%arg5: f32, %arg6: memref<1xf32>):  // no predecessors
        "equeue.write"(%arg5, %arg6) {bank = 0 : i64} : (f32, memref<1xf32>) -> ()
        "equeue.return"() : () -> ()
      }) : (!equeue.signal, i32, f32, memref<1xf32>) -> !equeue.signal
      %361 = "equeue.control_and"(%360, %done_98) : (!equeue.signal, !equeue.signal) -> !equeue.signal
      %done_99 = "equeue.launch"(%345, %162, %res_80, %193) ( {
      ^bb0(%arg5: f32, %arg6: memref<1xf32>):  // no predecessors
        "equeue.write"(%arg5, %arg6) {bank = 0 : i64} : (f32, memref<1xf32>) -> ()
        "equeue.return"() : () -> ()
      }) : (!equeue.signal, i32, f32, memref<1xf32>) -> !equeue.signal
      %362 = "equeue.control_and"(%361, %done_99) : (!equeue.signal, !equeue.signal) -> !equeue.signal
      %done_100 = "equeue.launch"(%345, %168, %res_82, %199) ( {
      ^bb0(%arg5: f32, %arg6: memref<1xf32>):  // no predecessors
        "equeue.write"(%arg5, %arg6) {bank = 0 : i64} : (f32, memref<1xf32>) -> ()
        "equeue.return"() : () -> ()
      }) : (!equeue.signal, i32, f32, memref<1xf32>) -> !equeue.signal
      %363 = "equeue.control_and"(%362, %done_100) : (!equeue.signal, !equeue.signal) -> !equeue.signal
      %done_101 = "equeue.launch"(%345, %186, %res_84, %217) ( {
      ^bb0(%arg5: f32, %arg6: memref<1xf32>):  // no predecessors
        "equeue.write"(%arg5, %arg6) {bank = 0 : i64} : (f32, memref<1xf32>) -> ()
        "equeue.return"() : () -> ()
      }) : (!equeue.signal, i32, f32, memref<1xf32>) -> !equeue.signal
      %364 = "equeue.control_and"(%363, %done_101) : (!equeue.signal, !equeue.signal) -> !equeue.signal
      %done_102 = "equeue.launch"(%345, %192, %res_86, %223) ( {
      ^bb0(%arg5: f32, %arg6: memref<1xf32>):  // no predecessors
        "equeue.write"(%arg5, %arg6) {bank = 0 : i64} : (f32, memref<1xf32>) -> ()
        "equeue.return"() : () -> ()
      }) : (!equeue.signal, i32, f32, memref<1xf32>) -> !equeue.signal
      %365 = "equeue.control_and"(%364, %done_102) : (!equeue.signal, !equeue.signal) -> !equeue.signal
      %done_103 = "equeue.launch"(%345, %198, %res_88, %229) ( {
      ^bb0(%arg5: f32, %arg6: memref<1xf32>):  // no predecessors
        "equeue.write"(%arg5, %arg6) {bank = 0 : i64} : (f32, memref<1xf32>) -> ()
        "equeue.return"() : () -> ()
      }) : (!equeue.signal, i32, f32, memref<1xf32>) -> !equeue.signal
      %366 = "equeue.control_and"(%365, %done_103) : (!equeue.signal, !equeue.signal) -> !equeue.signal
      %done_104 = "equeue.launch"(%345, %216, %res_90, %247) ( {
      ^bb0(%arg5: f32, %arg6: memref<1xf32>):  // no predecessors
        "equeue.write"(%arg5, %arg6) {bank = 0 : i64} : (f32, memref<1xf32>) -> ()
        "equeue.return"() : () -> ()
      }) : (!equeue.signal, i32, f32, memref<1xf32>) -> !equeue.signal
      %367 = "equeue.control_and"(%366, %done_104) : (!equeue.signal, !equeue.signal) -> !equeue.signal
      %done_105 = "equeue.launch"(%345, %222, %res_92, %253) ( {
      ^bb0(%arg5: f32, %arg6: memref<1xf32>):  // no predecessors
        "equeue.write"(%arg5, %arg6) {bank = 0 : i64} : (f32, memref<1xf32>) -> ()
        "equeue.return"() : () -> ()
      }) : (!equeue.signal, i32, f32, memref<1xf32>) -> !equeue.signal
      %368 = "equeue.control_and"(%367, %done_105) : (!equeue.signal, !equeue.signal) -> !equeue.signal
      %done_106 = "equeue.launch"(%345, %228, %res_94, %259) ( {
      ^bb0(%arg5: f32, %arg6: memref<1xf32>):  // no predecessors
        "equeue.write"(%arg5, %arg6) {bank = 0 : i64} : (f32, memref<1xf32>) -> ()
        "equeue.return"() : () -> ()
      }) : (!equeue.signal, i32, f32, memref<1xf32>) -> !equeue.signal
      %369 = "equeue.control_and"(%368, %done_106) : (!equeue.signal, !equeue.signal) -> !equeue.signal
      "equeue.await"(%369) : (!equeue.signal) -> ()
      %370 = "equeue.control_start"() : () -> !equeue.signal
      %371 = "equeue.memcpy"(%370, %122, %127, %111, %c0) {dest_bank = 0 : i64, src_bank = 0 : i64} : (!equeue.signal, memref<3x5x7x3xf32>, memref<1xf32>, i32, index) -> !equeue.signal
      %372 = "equeue.control_and"(%371) : (!equeue.signal) -> !equeue.signal
      %373 = "equeue.memcpy"(%370, %122, %133, %113, %c0) {dest_bank = 0 : i64, src_bank = 1 : i64} : (!equeue.signal, memref<3x5x7x3xf32>, memref<1xf32>, i32, index) -> !equeue.signal
      %374 = "equeue.control_and"(%372, %373) : (!equeue.signal, !equeue.signal) -> !equeue.signal
      %375 = "equeue.memcpy"(%370, %122, %139, %115, %c0) {dest_bank = 0 : i64, src_bank = 2 : i64} : (!equeue.signal, memref<3x5x7x3xf32>, memref<1xf32>, i32, index) -> !equeue.signal
      %376 = "equeue.control_and"(%374, %375) : (!equeue.signal, !equeue.signal) -> !equeue.signal
      "equeue.await"(%376) : (!equeue.signal) -> ()
      %377 = "equeue.control_start"() : () -> !equeue.signal
      %done_107, %res_108 = "equeue.launch"(%377, %126, %127) ( {
      ^bb0(%arg5: memref<1xf32>):  // no predecessors
        %6322 = "equeue.read"(%arg5) {bank = 0 : i64} : (memref<1xf32>) -> f32
        "equeue.return"(%6322) : (f32) -> ()
      }) : (!equeue.signal, i32, memref<1xf32>) -> (!equeue.signal, f32)
      %378 = "equeue.control_and"(%done_107) : (!equeue.signal) -> !equeue.signal
      %done_109, %res_110 = "equeue.launch"(%377, %132, %133) ( {
      ^bb0(%arg5: memref<1xf32>):  // no predecessors
        %6322 = "equeue.read"(%arg5) {bank = 0 : i64} : (memref<1xf32>) -> f32
        "equeue.return"(%6322) : (f32) -> ()
      }) : (!equeue.signal, i32, memref<1xf32>) -> (!equeue.signal, f32)
      %379 = "equeue.control_and"(%378, %done_109) : (!equeue.signal, !equeue.signal) -> !equeue.signal
      %done_111, %res_112 = "equeue.launch"(%377, %138, %139) ( {
      ^bb0(%arg5: memref<1xf32>):  // no predecessors
        %6322 = "equeue.read"(%arg5) {bank = 0 : i64} : (memref<1xf32>) -> f32
        "equeue.return"(%6322) : (f32) -> ()
      }) : (!equeue.signal, i32, memref<1xf32>) -> (!equeue.signal, f32)
      %380 = "equeue.control_and"(%379, %done_111) : (!equeue.signal, !equeue.signal) -> !equeue.signal
      %done_113, %res_114 = "equeue.launch"(%377, %156, %157) ( {
      ^bb0(%arg5: memref<1xf32>):  // no predecessors
        %6322 = "equeue.read"(%arg5) {bank = 0 : i64} : (memref<1xf32>) -> f32
        "equeue.return"(%6322) : (f32) -> ()
      }) : (!equeue.signal, i32, memref<1xf32>) -> (!equeue.signal, f32)
      %381 = "equeue.control_and"(%380, %done_113) : (!equeue.signal, !equeue.signal) -> !equeue.signal
      %done_115, %res_116 = "equeue.launch"(%377, %162, %163) ( {
      ^bb0(%arg5: memref<1xf32>):  // no predecessors
        %6322 = "equeue.read"(%arg5) {bank = 0 : i64} : (memref<1xf32>) -> f32
        "equeue.return"(%6322) : (f32) -> ()
      }) : (!equeue.signal, i32, memref<1xf32>) -> (!equeue.signal, f32)
      %382 = "equeue.control_and"(%381, %done_115) : (!equeue.signal, !equeue.signal) -> !equeue.signal
      %done_117, %res_118 = "equeue.launch"(%377, %168, %169) ( {
      ^bb0(%arg5: memref<1xf32>):  // no predecessors
        %6322 = "equeue.read"(%arg5) {bank = 0 : i64} : (memref<1xf32>) -> f32
        "equeue.return"(%6322) : (f32) -> ()
      }) : (!equeue.signal, i32, memref<1xf32>) -> (!equeue.signal, f32)
      %383 = "equeue.control_and"(%382, %done_117) : (!equeue.signal, !equeue.signal) -> !equeue.signal
      %done_119, %res_120 = "equeue.launch"(%377, %186, %187) ( {
      ^bb0(%arg5: memref<1xf32>):  // no predecessors
        %6322 = "equeue.read"(%arg5) {bank = 0 : i64} : (memref<1xf32>) -> f32
        "equeue.return"(%6322) : (f32) -> ()
      }) : (!equeue.signal, i32, memref<1xf32>) -> (!equeue.signal, f32)
      %384 = "equeue.control_and"(%383, %done_119) : (!equeue.signal, !equeue.signal) -> !equeue.signal
      %done_121, %res_122 = "equeue.launch"(%377, %192, %193) ( {
      ^bb0(%arg5: memref<1xf32>):  // no predecessors
        %6322 = "equeue.read"(%arg5) {bank = 0 : i64} : (memref<1xf32>) -> f32
        "equeue.return"(%6322) : (f32) -> ()
      }) : (!equeue.signal, i32, memref<1xf32>) -> (!equeue.signal, f32)
      %385 = "equeue.control_and"(%384, %done_121) : (!equeue.signal, !equeue.signal) -> !equeue.signal
      %done_123, %res_124 = "equeue.launch"(%377, %198, %199) ( {
      ^bb0(%arg5: memref<1xf32>):  // no predecessors
        %6322 = "equeue.read"(%arg5) {bank = 0 : i64} : (memref<1xf32>) -> f32
        "equeue.return"(%6322) : (f32) -> ()
      }) : (!equeue.signal, i32, memref<1xf32>) -> (!equeue.signal, f32)
      %386 = "equeue.control_and"(%385, %done_123) : (!equeue.signal, !equeue.signal) -> !equeue.signal
      %done_125, %res_126 = "equeue.launch"(%377, %216, %217) ( {
      ^bb0(%arg5: memref<1xf32>):  // no predecessors
        %6322 = "equeue.read"(%arg5) {bank = 0 : i64} : (memref<1xf32>) -> f32
        "equeue.return"(%6322) : (f32) -> ()
      }) : (!equeue.signal, i32, memref<1xf32>) -> (!equeue.signal, f32)
      %387 = "equeue.control_and"(%386, %done_125) : (!equeue.signal, !equeue.signal) -> !equeue.signal
      %done_127, %res_128 = "equeue.launch"(%377, %222, %223) ( {
      ^bb0(%arg5: memref<1xf32>):  // no predecessors
        %6322 = "equeue.read"(%arg5) {bank = 0 : i64} : (memref<1xf32>) -> f32
        "equeue.return"(%6322) : (f32) -> ()
      }) : (!equeue.signal, i32, memref<1xf32>) -> (!equeue.signal, f32)
      %388 = "equeue.control_and"(%387, %done_127) : (!equeue.signal, !equeue.signal) -> !equeue.signal
      %done_129, %res_130 = "equeue.launch"(%377, %228, %229) ( {
      ^bb0(%arg5: memref<1xf32>):  // no predecessors
        %6322 = "equeue.read"(%arg5) {bank = 0 : i64} : (memref<1xf32>) -> f32
        "equeue.return"(%6322) : (f32) -> ()
      }) : (!equeue.signal, i32, memref<1xf32>) -> (!equeue.signal, f32)
      %389 = "equeue.control_and"(%388, %done_129) : (!equeue.signal, !equeue.signal) -> !equeue.signal
      "equeue.await"(%389) : (!equeue.signal) -> ()
      %done_131 = "equeue.launch"(%377, %126, %res_108, %157) ( {
      ^bb0(%arg5: f32, %arg6: memref<1xf32>):  // no predecessors
        "equeue.write"(%arg5, %arg6) {bank = 0 : i64} : (f32, memref<1xf32>) -> ()
        "equeue.return"() : () -> ()
      }) : (!equeue.signal, i32, f32, memref<1xf32>) -> !equeue.signal
      %390 = "equeue.control_and"(%done_131) : (!equeue.signal) -> !equeue.signal
      %done_132 = "equeue.launch"(%377, %132, %res_110, %163) ( {
      ^bb0(%arg5: f32, %arg6: memref<1xf32>):  // no predecessors
        "equeue.write"(%arg5, %arg6) {bank = 0 : i64} : (f32, memref<1xf32>) -> ()
        "equeue.return"() : () -> ()
      }) : (!equeue.signal, i32, f32, memref<1xf32>) -> !equeue.signal
      %391 = "equeue.control_and"(%390, %done_132) : (!equeue.signal, !equeue.signal) -> !equeue.signal
      %done_133 = "equeue.launch"(%377, %138, %res_112, %169) ( {
      ^bb0(%arg5: f32, %arg6: memref<1xf32>):  // no predecessors
        "equeue.write"(%arg5, %arg6) {bank = 0 : i64} : (f32, memref<1xf32>) -> ()
        "equeue.return"() : () -> ()
      }) : (!equeue.signal, i32, f32, memref<1xf32>) -> !equeue.signal
      %392 = "equeue.control_and"(%391, %done_133) : (!equeue.signal, !equeue.signal) -> !equeue.signal
      %done_134 = "equeue.launch"(%377, %156, %res_114, %187) ( {
      ^bb0(%arg5: f32, %arg6: memref<1xf32>):  // no predecessors
        "equeue.write"(%arg5, %arg6) {bank = 0 : i64} : (f32, memref<1xf32>) -> ()
        "equeue.return"() : () -> ()
      }) : (!equeue.signal, i32, f32, memref<1xf32>) -> !equeue.signal
      %393 = "equeue.control_and"(%392, %done_134) : (!equeue.signal, !equeue.signal) -> !equeue.signal
      %done_135 = "equeue.launch"(%377, %162, %res_116, %193) ( {
      ^bb0(%arg5: f32, %arg6: memref<1xf32>):  // no predecessors
        "equeue.write"(%arg5, %arg6) {bank = 0 : i64} : (f32, memref<1xf32>) -> ()
        "equeue.return"() : () -> ()
      }) : (!equeue.signal, i32, f32, memref<1xf32>) -> !equeue.signal
      %394 = "equeue.control_and"(%393, %done_135) : (!equeue.signal, !equeue.signal) -> !equeue.signal
      %done_136 = "equeue.launch"(%377, %168, %res_118, %199) ( {
      ^bb0(%arg5: f32, %arg6: memref<1xf32>):  // no predecessors
        "equeue.write"(%arg5, %arg6) {bank = 0 : i64} : (f32, memref<1xf32>) -> ()
        "equeue.return"() : () -> ()
      }) : (!equeue.signal, i32, f32, memref<1xf32>) -> !equeue.signal
      %395 = "equeue.control_and"(%394, %done_136) : (!equeue.signal, !equeue.signal) -> !equeue.signal
      %done_137 = "equeue.launch"(%377, %186, %res_120, %217) ( {
      ^bb0(%arg5: f32, %arg6: memref<1xf32>):  // no predecessors
        "equeue.write"(%arg5, %arg6) {bank = 0 : i64} : (f32, memref<1xf32>) -> ()
        "equeue.return"() : () -> ()
      }) : (!equeue.signal, i32, f32, memref<1xf32>) -> !equeue.signal
      %396 = "equeue.control_and"(%395, %done_137) : (!equeue.signal, !equeue.signal) -> !equeue.signal
      %done_138 = "equeue.launch"(%377, %192, %res_122, %223) ( {
      ^bb0(%arg5: f32, %arg6: memref<1xf32>):  // no predecessors
        "equeue.write"(%arg5, %arg6) {bank = 0 : i64} : (f32, memref<1xf32>) -> ()
        "equeue.return"() : () -> ()
      }) : (!equeue.signal, i32, f32, memref<1xf32>) -> !equeue.signal
      %397 = "equeue.control_and"(%396, %done_138) : (!equeue.signal, !equeue.signal) -> !equeue.signal
      %done_139 = "equeue.launch"(%377, %198, %res_124, %229) ( {
      ^bb0(%arg5: f32, %arg6: memref<1xf32>):  // no predecessors
        "equeue.write"(%arg5, %arg6) {bank = 0 : i64} : (f32, memref<1xf32>) -> ()
        "equeue.return"() : () -> ()
      }) : (!equeue.signal, i32, f32, memref<1xf32>) -> !equeue.signal
      %398 = "equeue.control_and"(%397, %done_139) : (!equeue.signal, !equeue.signal) -> !equeue.signal
      %done_140 = "equeue.launch"(%377, %216, %res_126, %247) ( {
      ^bb0(%arg5: f32, %arg6: memref<1xf32>):  // no predecessors
        "equeue.write"(%arg5, %arg6) {bank = 0 : i64} : (f32, memref<1xf32>) -> ()
        "equeue.return"() : () -> ()
      }) : (!equeue.signal, i32, f32, memref<1xf32>) -> !equeue.signal
      %399 = "equeue.control_and"(%398, %done_140) : (!equeue.signal, !equeue.signal) -> !equeue.signal
      %done_141 = "equeue.launch"(%377, %222, %res_128, %253) ( {
      ^bb0(%arg5: f32, %arg6: memref<1xf32>):  // no predecessors
        "equeue.write"(%arg5, %arg6) {bank = 0 : i64} : (f32, memref<1xf32>) -> ()
        "equeue.return"() : () -> ()
      }) : (!equeue.signal, i32, f32, memref<1xf32>) -> !equeue.signal
      %400 = "equeue.control_and"(%399, %done_141) : (!equeue.signal, !equeue.signal) -> !equeue.signal
      %done_142 = "equeue.launch"(%377, %228, %res_130, %259) ( {
      ^bb0(%arg5: f32, %arg6: memref<1xf32>):  // no predecessors
        "equeue.write"(%arg5, %arg6) {bank = 0 : i64} : (f32, memref<1xf32>) -> ()
        "equeue.return"() : () -> ()
      }) : (!equeue.signal, i32, f32, memref<1xf32>) -> !equeue.signal
      %401 = "equeue.control_and"(%400, %done_142) : (!equeue.signal, !equeue.signal) -> !equeue.signal
      "equeue.await"(%401) : (!equeue.signal) -> ()
      %402 = "equeue.control_start"() : () -> !equeue.signal
      %403 = "equeue.memcpy"(%402, %121, %129, %102) {dest_bank = 0 : i64, src_bank = 0 : i64} : (!equeue.signal, memref<5x7x7xf32>, memref<1xf32>, i32) -> !equeue.signal
      %404 = "equeue.memcpy"(%402, %121, %159, %104) {dest_bank = 0 : i64, src_bank = 1 : i64} : (!equeue.signal, memref<5x7x7xf32>, memref<1xf32>, i32) -> !equeue.signal
      %405 = "equeue.control_and"(%403, %404) : (!equeue.signal, !equeue.signal) -> !equeue.signal
      %406 = "equeue.memcpy"(%402, %121, %189, %106) {dest_bank = 0 : i64, src_bank = 2 : i64} : (!equeue.signal, memref<5x7x7xf32>, memref<1xf32>, i32) -> !equeue.signal
      %407 = "equeue.control_and"(%405, %406) : (!equeue.signal, !equeue.signal) -> !equeue.signal
      %408 = "equeue.memcpy"(%402, %121, %219, %108) {dest_bank = 0 : i64, src_bank = 3 : i64} : (!equeue.signal, memref<5x7x7xf32>, memref<1xf32>, i32) -> !equeue.signal
      %409 = "equeue.control_and"(%407, %408) : (!equeue.signal, !equeue.signal) -> !equeue.signal
      %410 = "equeue.memcpy"(%402, %121, %249, %110) {dest_bank = 0 : i64, src_bank = 4 : i64} : (!equeue.signal, memref<5x7x7xf32>, memref<1xf32>, i32) -> !equeue.signal
      %411 = "equeue.control_and"(%409, %410) : (!equeue.signal, !equeue.signal) -> !equeue.signal
      "equeue.await"(%411) : (!equeue.signal) -> ()
      %412 = "equeue.control_start"() : () -> !equeue.signal
      %done_143, %res_144:2 = "equeue.launch"(%412, %126, %129, %127, %128) ( {
      ^bb0(%arg5: memref<1xf32>, %arg6: memref<1xf32>, %arg7: memref<1xf32>):  // no predecessors
        %6322 = "equeue.read"(%arg5) {bank = 0 : i64} : (memref<1xf32>) -> f32
        %6323 = "equeue.read"(%arg6) {bank = 1 : i64} : (memref<1xf32>) -> f32
        %6324 = mulf %6322, %6323 : f32
        %6325 = "equeue.read"(%arg7) {bank = 2 : i64} : (memref<1xf32>) -> f32
        %6326 = addf %6324, %6325 : f32
        "equeue.return"(%6322, %6326) : (f32, f32) -> ()
      }) : (!equeue.signal, i32, memref<1xf32>, memref<1xf32>, memref<1xf32>) -> (!equeue.signal, f32, f32)
      %done_145, %res_146:2 = "equeue.launch"(%412, %132, %135, %133, %134) ( {
      ^bb0(%arg5: memref<1xf32>, %arg6: memref<1xf32>, %arg7: memref<1xf32>):  // no predecessors
        %6322 = "equeue.read"(%arg5) {bank = 0 : i64} : (memref<1xf32>) -> f32
        %6323 = "equeue.read"(%arg6) {bank = 1 : i64} : (memref<1xf32>) -> f32
        %6324 = mulf %6322, %6323 : f32
        %6325 = "equeue.read"(%arg7) {bank = 2 : i64} : (memref<1xf32>) -> f32
        %6326 = addf %6324, %6325 : f32
        "equeue.return"(%6322, %6326) : (f32, f32) -> ()
      }) : (!equeue.signal, i32, memref<1xf32>, memref<1xf32>, memref<1xf32>) -> (!equeue.signal, f32, f32)
      %413 = "equeue.control_and"(%done_143, %done_145) : (!equeue.signal, !equeue.signal) -> !equeue.signal
      %done_147, %res_148:2 = "equeue.launch"(%412, %138, %141, %139, %140) ( {
      ^bb0(%arg5: memref<1xf32>, %arg6: memref<1xf32>, %arg7: memref<1xf32>):  // no predecessors
        %6322 = "equeue.read"(%arg5) {bank = 0 : i64} : (memref<1xf32>) -> f32
        %6323 = "equeue.read"(%arg6) {bank = 1 : i64} : (memref<1xf32>) -> f32
        %6324 = mulf %6322, %6323 : f32
        %6325 = "equeue.read"(%arg7) {bank = 2 : i64} : (memref<1xf32>) -> f32
        %6326 = addf %6324, %6325 : f32
        "equeue.return"(%6322, %6326) : (f32, f32) -> ()
      }) : (!equeue.signal, i32, memref<1xf32>, memref<1xf32>, memref<1xf32>) -> (!equeue.signal, f32, f32)
      %414 = "equeue.control_and"(%413, %done_147) : (!equeue.signal, !equeue.signal) -> !equeue.signal
      %done_149, %res_150:2 = "equeue.launch"(%412, %156, %159, %157, %158) ( {
      ^bb0(%arg5: memref<1xf32>, %arg6: memref<1xf32>, %arg7: memref<1xf32>):  // no predecessors
        %6322 = "equeue.read"(%arg5) {bank = 0 : i64} : (memref<1xf32>) -> f32
        %6323 = "equeue.read"(%arg6) {bank = 1 : i64} : (memref<1xf32>) -> f32
        %6324 = mulf %6322, %6323 : f32
        %6325 = "equeue.read"(%arg7) {bank = 2 : i64} : (memref<1xf32>) -> f32
        %6326 = addf %6324, %6325 : f32
        "equeue.return"(%6322, %6326) : (f32, f32) -> ()
      }) : (!equeue.signal, i32, memref<1xf32>, memref<1xf32>, memref<1xf32>) -> (!equeue.signal, f32, f32)
      %415 = "equeue.control_and"(%414, %done_149) : (!equeue.signal, !equeue.signal) -> !equeue.signal
      %done_151, %res_152:2 = "equeue.launch"(%412, %162, %165, %163, %164) ( {
      ^bb0(%arg5: memref<1xf32>, %arg6: memref<1xf32>, %arg7: memref<1xf32>):  // no predecessors
        %6322 = "equeue.read"(%arg5) {bank = 0 : i64} : (memref<1xf32>) -> f32
        %6323 = "equeue.read"(%arg6) {bank = 1 : i64} : (memref<1xf32>) -> f32
        %6324 = mulf %6322, %6323 : f32
        %6325 = "equeue.read"(%arg7) {bank = 2 : i64} : (memref<1xf32>) -> f32
        %6326 = addf %6324, %6325 : f32
        "equeue.return"(%6322, %6326) : (f32, f32) -> ()
      }) : (!equeue.signal, i32, memref<1xf32>, memref<1xf32>, memref<1xf32>) -> (!equeue.signal, f32, f32)
      %416 = "equeue.control_and"(%415, %done_151) : (!equeue.signal, !equeue.signal) -> !equeue.signal
      %done_153, %res_154:2 = "equeue.launch"(%412, %168, %171, %169, %170) ( {
      ^bb0(%arg5: memref<1xf32>, %arg6: memref<1xf32>, %arg7: memref<1xf32>):  // no predecessors
        %6322 = "equeue.read"(%arg5) {bank = 0 : i64} : (memref<1xf32>) -> f32
        %6323 = "equeue.read"(%arg6) {bank = 1 : i64} : (memref<1xf32>) -> f32
        %6324 = mulf %6322, %6323 : f32
        %6325 = "equeue.read"(%arg7) {bank = 2 : i64} : (memref<1xf32>) -> f32
        %6326 = addf %6324, %6325 : f32
        "equeue.return"(%6322, %6326) : (f32, f32) -> ()
      }) : (!equeue.signal, i32, memref<1xf32>, memref<1xf32>, memref<1xf32>) -> (!equeue.signal, f32, f32)
      %417 = "equeue.control_and"(%416, %done_153) : (!equeue.signal, !equeue.signal) -> !equeue.signal
      %done_155, %res_156:2 = "equeue.launch"(%412, %186, %189, %187, %188) ( {
      ^bb0(%arg5: memref<1xf32>, %arg6: memref<1xf32>, %arg7: memref<1xf32>):  // no predecessors
        %6322 = "equeue.read"(%arg5) {bank = 0 : i64} : (memref<1xf32>) -> f32
        %6323 = "equeue.read"(%arg6) {bank = 1 : i64} : (memref<1xf32>) -> f32
        %6324 = mulf %6322, %6323 : f32
        %6325 = "equeue.read"(%arg7) {bank = 2 : i64} : (memref<1xf32>) -> f32
        %6326 = addf %6324, %6325 : f32
        "equeue.return"(%6322, %6326) : (f32, f32) -> ()
      }) : (!equeue.signal, i32, memref<1xf32>, memref<1xf32>, memref<1xf32>) -> (!equeue.signal, f32, f32)
      %418 = "equeue.control_and"(%417, %done_155) : (!equeue.signal, !equeue.signal) -> !equeue.signal
      %done_157, %res_158:2 = "equeue.launch"(%412, %192, %195, %193, %194) ( {
      ^bb0(%arg5: memref<1xf32>, %arg6: memref<1xf32>, %arg7: memref<1xf32>):  // no predecessors
        %6322 = "equeue.read"(%arg5) {bank = 0 : i64} : (memref<1xf32>) -> f32
        %6323 = "equeue.read"(%arg6) {bank = 1 : i64} : (memref<1xf32>) -> f32
        %6324 = mulf %6322, %6323 : f32
        %6325 = "equeue.read"(%arg7) {bank = 2 : i64} : (memref<1xf32>) -> f32
        %6326 = addf %6324, %6325 : f32
        "equeue.return"(%6322, %6326) : (f32, f32) -> ()
      }) : (!equeue.signal, i32, memref<1xf32>, memref<1xf32>, memref<1xf32>) -> (!equeue.signal, f32, f32)
      %419 = "equeue.control_and"(%418, %done_157) : (!equeue.signal, !equeue.signal) -> !equeue.signal
      %done_159, %res_160:2 = "equeue.launch"(%412, %198, %201, %199, %200) ( {
      ^bb0(%arg5: memref<1xf32>, %arg6: memref<1xf32>, %arg7: memref<1xf32>):  // no predecessors
        %6322 = "equeue.read"(%arg5) {bank = 0 : i64} : (memref<1xf32>) -> f32
        %6323 = "equeue.read"(%arg6) {bank = 1 : i64} : (memref<1xf32>) -> f32
        %6324 = mulf %6322, %6323 : f32
        %6325 = "equeue.read"(%arg7) {bank = 2 : i64} : (memref<1xf32>) -> f32
        %6326 = addf %6324, %6325 : f32
        "equeue.return"(%6322, %6326) : (f32, f32) -> ()
      }) : (!equeue.signal, i32, memref<1xf32>, memref<1xf32>, memref<1xf32>) -> (!equeue.signal, f32, f32)
      %420 = "equeue.control_and"(%419, %done_159) : (!equeue.signal, !equeue.signal) -> !equeue.signal
      %done_161, %res_162:2 = "equeue.launch"(%412, %216, %219, %217, %218) ( {
      ^bb0(%arg5: memref<1xf32>, %arg6: memref<1xf32>, %arg7: memref<1xf32>):  // no predecessors
        %6322 = "equeue.read"(%arg5) {bank = 0 : i64} : (memref<1xf32>) -> f32
        %6323 = "equeue.read"(%arg6) {bank = 1 : i64} : (memref<1xf32>) -> f32
        %6324 = mulf %6322, %6323 : f32
        %6325 = "equeue.read"(%arg7) {bank = 2 : i64} : (memref<1xf32>) -> f32
        %6326 = addf %6324, %6325 : f32
        "equeue.return"(%6322, %6326) : (f32, f32) -> ()
      }) : (!equeue.signal, i32, memref<1xf32>, memref<1xf32>, memref<1xf32>) -> (!equeue.signal, f32, f32)
      %421 = "equeue.control_and"(%420, %done_161) : (!equeue.signal, !equeue.signal) -> !equeue.signal
      %done_163, %res_164:2 = "equeue.launch"(%412, %222, %225, %223, %224) ( {
      ^bb0(%arg5: memref<1xf32>, %arg6: memref<1xf32>, %arg7: memref<1xf32>):  // no predecessors
        %6322 = "equeue.read"(%arg5) {bank = 0 : i64} : (memref<1xf32>) -> f32
        %6323 = "equeue.read"(%arg6) {bank = 1 : i64} : (memref<1xf32>) -> f32
        %6324 = mulf %6322, %6323 : f32
        %6325 = "equeue.read"(%arg7) {bank = 2 : i64} : (memref<1xf32>) -> f32
        %6326 = addf %6324, %6325 : f32
        "equeue.return"(%6322, %6326) : (f32, f32) -> ()
      }) : (!equeue.signal, i32, memref<1xf32>, memref<1xf32>, memref<1xf32>) -> (!equeue.signal, f32, f32)
      %422 = "equeue.control_and"(%421, %done_163) : (!equeue.signal, !equeue.signal) -> !equeue.signal
      %done_165, %res_166:2 = "equeue.launch"(%412, %228, %231, %229, %230) ( {
      ^bb0(%arg5: memref<1xf32>, %arg6: memref<1xf32>, %arg7: memref<1xf32>):  // no predecessors
        %6322 = "equeue.read"(%arg5) {bank = 0 : i64} : (memref<1xf32>) -> f32
        %6323 = "equeue.read"(%arg6) {bank = 1 : i64} : (memref<1xf32>) -> f32
        %6324 = mulf %6322, %6323 : f32
        %6325 = "equeue.read"(%arg7) {bank = 2 : i64} : (memref<1xf32>) -> f32
        %6326 = addf %6324, %6325 : f32
        "equeue.return"(%6322, %6326) : (f32, f32) -> ()
      }) : (!equeue.signal, i32, memref<1xf32>, memref<1xf32>, memref<1xf32>) -> (!equeue.signal, f32, f32)
      %423 = "equeue.control_and"(%422, %done_165) : (!equeue.signal, !equeue.signal) -> !equeue.signal
      %done_167, %res_168:2 = "equeue.launch"(%412, %246, %249, %247, %248) ( {
      ^bb0(%arg5: memref<1xf32>, %arg6: memref<1xf32>, %arg7: memref<1xf32>):  // no predecessors
        %6322 = "equeue.read"(%arg5) {bank = 0 : i64} : (memref<1xf32>) -> f32
        %6323 = "equeue.read"(%arg6) {bank = 1 : i64} : (memref<1xf32>) -> f32
        %6324 = mulf %6322, %6323 : f32
        %6325 = "equeue.read"(%arg7) {bank = 2 : i64} : (memref<1xf32>) -> f32
        %6326 = addf %6324, %6325 : f32
        "equeue.return"(%6322, %6326) : (f32, f32) -> ()
      }) : (!equeue.signal, i32, memref<1xf32>, memref<1xf32>, memref<1xf32>) -> (!equeue.signal, f32, f32)
      %424 = "equeue.control_and"(%423, %done_167) : (!equeue.signal, !equeue.signal) -> !equeue.signal
      %done_169, %res_170:2 = "equeue.launch"(%412, %252, %255, %253, %254) ( {
      ^bb0(%arg5: memref<1xf32>, %arg6: memref<1xf32>, %arg7: memref<1xf32>):  // no predecessors
        %6322 = "equeue.read"(%arg5) {bank = 0 : i64} : (memref<1xf32>) -> f32
        %6323 = "equeue.read"(%arg6) {bank = 1 : i64} : (memref<1xf32>) -> f32
        %6324 = mulf %6322, %6323 : f32
        %6325 = "equeue.read"(%arg7) {bank = 2 : i64} : (memref<1xf32>) -> f32
        %6326 = addf %6324, %6325 : f32
        "equeue.return"(%6322, %6326) : (f32, f32) -> ()
      }) : (!equeue.signal, i32, memref<1xf32>, memref<1xf32>, memref<1xf32>) -> (!equeue.signal, f32, f32)
      %425 = "equeue.control_and"(%424, %done_169) : (!equeue.signal, !equeue.signal) -> !equeue.signal
      %done_171, %res_172:2 = "equeue.launch"(%412, %258, %261, %259, %260) ( {
      ^bb0(%arg5: memref<1xf32>, %arg6: memref<1xf32>, %arg7: memref<1xf32>):  // no predecessors
        %6322 = "equeue.read"(%arg5) {bank = 0 : i64} : (memref<1xf32>) -> f32
        %6323 = "equeue.read"(%arg6) {bank = 1 : i64} : (memref<1xf32>) -> f32
        %6324 = mulf %6322, %6323 : f32
        %6325 = "equeue.read"(%arg7) {bank = 2 : i64} : (memref<1xf32>) -> f32
        %6326 = addf %6324, %6325 : f32
        "equeue.return"(%6322, %6326) : (f32, f32) -> ()
      }) : (!equeue.signal, i32, memref<1xf32>, memref<1xf32>, memref<1xf32>) -> (!equeue.signal, f32, f32)
      %426 = "equeue.control_and"(%425, %done_171) : (!equeue.signal, !equeue.signal) -> !equeue.signal
      "equeue.await"(%426) : (!equeue.signal) -> ()
      %427 = "equeue.control_start"() : () -> !equeue.signal
      %done_173 = "equeue.launch"(%427, %126, %res_144#0, %res_144#1, %135, %158, %123) ( {
      ^bb0(%arg5: f32, %arg6: f32, %arg7: memref<1xf32>, %arg8: memref<1xf32>, %arg9: memref<3x3x3xf32>):  // no predecessors
        "equeue.write"(%arg5, %arg7) {bank = 0 : i64} : (f32, memref<1xf32>) -> ()
        "equeue.write"(%arg6, %arg9) {bank = 0 : i64} : (f32, memref<3x3x3xf32>) -> ()
        "equeue.return"() : () -> ()
      }) : (!equeue.signal, i32, f32, f32, memref<1xf32>, memref<1xf32>, memref<3x3x3xf32>) -> !equeue.signal
      %done_174 = "equeue.launch"(%427, %132, %res_146#0, %res_146#1, %141, %164, %123) ( {
      ^bb0(%arg5: f32, %arg6: f32, %arg7: memref<1xf32>, %arg8: memref<1xf32>, %arg9: memref<3x3x3xf32>):  // no predecessors
        "equeue.write"(%arg5, %arg7) {bank = 0 : i64} : (f32, memref<1xf32>) -> ()
        "equeue.write"(%arg6, %arg8) {bank = 2 : i64} : (f32, memref<1xf32>) -> ()
        "equeue.return"() : () -> ()
      }) : (!equeue.signal, i32, f32, f32, memref<1xf32>, memref<1xf32>, memref<3x3x3xf32>) -> !equeue.signal
      %428 = "equeue.control_and"(%done_173, %done_174) : (!equeue.signal, !equeue.signal) -> !equeue.signal
      %done_175 = "equeue.launch"(%427, %138, %res_148#1, %170, %123) ( {
      ^bb0(%arg5: f32, %arg6: memref<1xf32>, %arg7: memref<3x3x3xf32>):  // no predecessors
        "equeue.write"(%arg5, %arg6) {bank = 2 : i64} : (f32, memref<1xf32>) -> ()
        "equeue.return"() : () -> ()
      }) : (!equeue.signal, i32, f32, memref<1xf32>, memref<3x3x3xf32>) -> !equeue.signal
      %429 = "equeue.control_and"(%428, %done_175) : (!equeue.signal, !equeue.signal) -> !equeue.signal
      %done_176 = "equeue.launch"(%427, %156, %res_150#0, %res_150#1, %165, %188, %123) ( {
      ^bb0(%arg5: f32, %arg6: f32, %arg7: memref<1xf32>, %arg8: memref<1xf32>, %arg9: memref<3x3x3xf32>):  // no predecessors
        "equeue.write"(%arg5, %arg7) {bank = 0 : i64} : (f32, memref<1xf32>) -> ()
        "equeue.write"(%arg6, %arg8) {bank = 2 : i64} : (f32, memref<1xf32>) -> ()
        "equeue.return"() : () -> ()
      }) : (!equeue.signal, i32, f32, f32, memref<1xf32>, memref<1xf32>, memref<3x3x3xf32>) -> !equeue.signal
      %430 = "equeue.control_and"(%429, %done_176) : (!equeue.signal, !equeue.signal) -> !equeue.signal
      %done_177 = "equeue.launch"(%427, %162, %res_152#0, %res_152#1, %171, %194, %123) ( {
      ^bb0(%arg5: f32, %arg6: f32, %arg7: memref<1xf32>, %arg8: memref<1xf32>, %arg9: memref<3x3x3xf32>):  // no predecessors
        "equeue.write"(%arg5, %arg7) {bank = 0 : i64} : (f32, memref<1xf32>) -> ()
        "equeue.write"(%arg6, %arg8) {bank = 2 : i64} : (f32, memref<1xf32>) -> ()
        "equeue.return"() : () -> ()
      }) : (!equeue.signal, i32, f32, f32, memref<1xf32>, memref<1xf32>, memref<3x3x3xf32>) -> !equeue.signal
      %431 = "equeue.control_and"(%430, %done_177) : (!equeue.signal, !equeue.signal) -> !equeue.signal
      %done_178 = "equeue.launch"(%427, %168, %res_154#1, %200, %123) ( {
      ^bb0(%arg5: f32, %arg6: memref<1xf32>, %arg7: memref<3x3x3xf32>):  // no predecessors
        "equeue.write"(%arg5, %arg6) {bank = 2 : i64} : (f32, memref<1xf32>) -> ()
        "equeue.return"() : () -> ()
      }) : (!equeue.signal, i32, f32, memref<1xf32>, memref<3x3x3xf32>) -> !equeue.signal
      %432 = "equeue.control_and"(%431, %done_178) : (!equeue.signal, !equeue.signal) -> !equeue.signal
      %done_179 = "equeue.launch"(%427, %186, %res_156#0, %res_156#1, %195, %218, %123) ( {
      ^bb0(%arg5: f32, %arg6: f32, %arg7: memref<1xf32>, %arg8: memref<1xf32>, %arg9: memref<3x3x3xf32>):  // no predecessors
        "equeue.write"(%arg5, %arg7) {bank = 0 : i64} : (f32, memref<1xf32>) -> ()
        "equeue.write"(%arg6, %arg8) {bank = 2 : i64} : (f32, memref<1xf32>) -> ()
        "equeue.return"() : () -> ()
      }) : (!equeue.signal, i32, f32, f32, memref<1xf32>, memref<1xf32>, memref<3x3x3xf32>) -> !equeue.signal
      %433 = "equeue.control_and"(%432, %done_179) : (!equeue.signal, !equeue.signal) -> !equeue.signal
      %done_180 = "equeue.launch"(%427, %192, %res_158#0, %res_158#1, %201, %224, %123) ( {
      ^bb0(%arg5: f32, %arg6: f32, %arg7: memref<1xf32>, %arg8: memref<1xf32>, %arg9: memref<3x3x3xf32>):  // no predecessors
        "equeue.write"(%arg5, %arg7) {bank = 0 : i64} : (f32, memref<1xf32>) -> ()
        "equeue.write"(%arg6, %arg8) {bank = 2 : i64} : (f32, memref<1xf32>) -> ()
        "equeue.return"() : () -> ()
      }) : (!equeue.signal, i32, f32, f32, memref<1xf32>, memref<1xf32>, memref<3x3x3xf32>) -> !equeue.signal
      %434 = "equeue.control_and"(%433, %done_180) : (!equeue.signal, !equeue.signal) -> !equeue.signal
      %done_181 = "equeue.launch"(%427, %198, %res_160#1, %230, %123) ( {
      ^bb0(%arg5: f32, %arg6: memref<1xf32>, %arg7: memref<3x3x3xf32>):  // no predecessors
        "equeue.write"(%arg5, %arg6) {bank = 2 : i64} : (f32, memref<1xf32>) -> ()
        "equeue.return"() : () -> ()
      }) : (!equeue.signal, i32, f32, memref<1xf32>, memref<3x3x3xf32>) -> !equeue.signal
      %435 = "equeue.control_and"(%434, %done_181) : (!equeue.signal, !equeue.signal) -> !equeue.signal
      %done_182 = "equeue.launch"(%427, %216, %res_162#0, %res_162#1, %225, %248, %123) ( {
      ^bb0(%arg5: f32, %arg6: f32, %arg7: memref<1xf32>, %arg8: memref<1xf32>, %arg9: memref<3x3x3xf32>):  // no predecessors
        "equeue.write"(%arg5, %arg7) {bank = 0 : i64} : (f32, memref<1xf32>) -> ()
        "equeue.write"(%arg6, %arg8) {bank = 2 : i64} : (f32, memref<1xf32>) -> ()
        "equeue.return"() : () -> ()
      }) : (!equeue.signal, i32, f32, f32, memref<1xf32>, memref<1xf32>, memref<3x3x3xf32>) -> !equeue.signal
      %436 = "equeue.control_and"(%435, %done_182) : (!equeue.signal, !equeue.signal) -> !equeue.signal
      %done_183 = "equeue.launch"(%427, %222, %res_164#0, %res_164#1, %231, %254, %123) ( {
      ^bb0(%arg5: f32, %arg6: f32, %arg7: memref<1xf32>, %arg8: memref<1xf32>, %arg9: memref<3x3x3xf32>):  // no predecessors
        "equeue.write"(%arg5, %arg7) {bank = 0 : i64} : (f32, memref<1xf32>) -> ()
        "equeue.write"(%arg6, %arg8) {bank = 2 : i64} : (f32, memref<1xf32>) -> ()
        "equeue.return"() : () -> ()
      }) : (!equeue.signal, i32, f32, f32, memref<1xf32>, memref<1xf32>, memref<3x3x3xf32>) -> !equeue.signal
      %437 = "equeue.control_and"(%436, %done_183) : (!equeue.signal, !equeue.signal) -> !equeue.signal
      %done_184 = "equeue.launch"(%427, %228, %res_166#1, %260, %123) ( {
      ^bb0(%arg5: f32, %arg6: memref<1xf32>, %arg7: memref<3x3x3xf32>):  // no predecessors
        "equeue.write"(%arg5, %arg6) {bank = 2 : i64} : (f32, memref<1xf32>) -> ()
        "equeue.return"() : () -> ()
      }) : (!equeue.signal, i32, f32, memref<1xf32>, memref<3x3x3xf32>) -> !equeue.signal
      %438 = "equeue.control_and"(%437, %done_184) : (!equeue.signal, !equeue.signal) -> !equeue.signal
      %done_185 = "equeue.launch"(%427, %246, %res_168#0, %res_168#1, %255, %123) ( {
      ^bb0(%arg5: f32, %arg6: f32, %arg7: memref<1xf32>, %arg8: memref<3x3x3xf32>):  // no predecessors
        "equeue.write"(%arg5, %arg7) {bank = 0 : i64} : (f32, memref<1xf32>) -> ()
        "equeue.return"() : () -> ()
      }) : (!equeue.signal, i32, f32, f32, memref<1xf32>, memref<3x3x3xf32>) -> !equeue.signal
      %439 = "equeue.control_and"(%438, %done_185) : (!equeue.signal, !equeue.signal) -> !equeue.signal
      %done_186 = "equeue.launch"(%427, %252, %res_170#0, %res_170#1, %261, %123) ( {
      ^bb0(%arg5: f32, %arg6: f32, %arg7: memref<1xf32>, %arg8: memref<3x3x3xf32>):  // no predecessors
        "equeue.write"(%arg5, %arg7) {bank = 0 : i64} : (f32, memref<1xf32>) -> ()
        "equeue.return"() : () -> ()
      }) : (!equeue.signal, i32, f32, f32, memref<1xf32>, memref<3x3x3xf32>) -> !equeue.signal
      %440 = "equeue.control_and"(%439, %done_186) : (!equeue.signal, !equeue.signal) -> !equeue.signal
      %done_187 = "equeue.launch"(%427, %258, %res_172#1, %123) ( {
      ^bb0(%arg5: f32, %arg6: memref<3x3x3xf32>):  // no predecessors
        "equeue.return"() : () -> ()
      }) : (!equeue.signal, i32, f32, memref<3x3x3xf32>) -> !equeue.signal
      %441 = "equeue.control_and"(%440, %done_187) : (!equeue.signal, !equeue.signal) -> !equeue.signal
      "equeue.await"(%441) : (!equeue.signal) -> ()
      %442 = "equeue.control_start"() : () -> !equeue.signal
      %443 = "equeue.memcpy"(%442, %121, %129, %102, %c0) {dest_bank = 0 : i64, src_bank = 0 : i64} : (!equeue.signal, memref<5x7x7xf32>, memref<1xf32>, i32, index) -> !equeue.signal
      "equeue.await"(%443) : (!equeue.signal) -> ()
      %444 = "equeue.control_start"() : () -> !equeue.signal
      %done_188, %res_189:2 = "equeue.launch"(%444, %126, %129, %127, %128) ( {
      ^bb0(%arg5: memref<1xf32>, %arg6: memref<1xf32>, %arg7: memref<1xf32>):  // no predecessors
        %6322 = "equeue.read"(%arg5) {bank = 0 : i64} : (memref<1xf32>) -> f32
        %6323 = "equeue.read"(%arg6) {bank = 1 : i64} : (memref<1xf32>) -> f32
        %6324 = mulf %6322, %6323 : f32
        %6325 = "equeue.read"(%arg7) {bank = 2 : i64} : (memref<1xf32>) -> f32
        %6326 = addf %6324, %6325 : f32
        "equeue.return"(%6322, %6326) : (f32, f32) -> ()
      }) : (!equeue.signal, i32, memref<1xf32>, memref<1xf32>, memref<1xf32>) -> (!equeue.signal, f32, f32)
      %done_190, %res_191:2 = "equeue.launch"(%444, %132, %135, %133, %134) ( {
      ^bb0(%arg5: memref<1xf32>, %arg6: memref<1xf32>, %arg7: memref<1xf32>):  // no predecessors
        %6322 = "equeue.read"(%arg5) {bank = 0 : i64} : (memref<1xf32>) -> f32
        %6323 = "equeue.read"(%arg6) {bank = 1 : i64} : (memref<1xf32>) -> f32
        %6324 = mulf %6322, %6323 : f32
        %6325 = "equeue.read"(%arg7) {bank = 2 : i64} : (memref<1xf32>) -> f32
        %6326 = addf %6324, %6325 : f32
        "equeue.return"(%6322, %6326) : (f32, f32) -> ()
      }) : (!equeue.signal, i32, memref<1xf32>, memref<1xf32>, memref<1xf32>) -> (!equeue.signal, f32, f32)
      %445 = "equeue.control_and"(%done_188, %done_190) : (!equeue.signal, !equeue.signal) -> !equeue.signal
      %done_192, %res_193:2 = "equeue.launch"(%444, %138, %141, %139, %140) ( {
      ^bb0(%arg5: memref<1xf32>, %arg6: memref<1xf32>, %arg7: memref<1xf32>):  // no predecessors
        %6322 = "equeue.read"(%arg5) {bank = 0 : i64} : (memref<1xf32>) -> f32
        %6323 = "equeue.read"(%arg6) {bank = 1 : i64} : (memref<1xf32>) -> f32
        %6324 = mulf %6322, %6323 : f32
        %6325 = "equeue.read"(%arg7) {bank = 2 : i64} : (memref<1xf32>) -> f32
        %6326 = addf %6324, %6325 : f32
        "equeue.return"(%6322, %6326) : (f32, f32) -> ()
      }) : (!equeue.signal, i32, memref<1xf32>, memref<1xf32>, memref<1xf32>) -> (!equeue.signal, f32, f32)
      %446 = "equeue.control_and"(%445, %done_192) : (!equeue.signal, !equeue.signal) -> !equeue.signal
      %done_194, %res_195:2 = "equeue.launch"(%444, %156, %159, %157, %158) ( {
      ^bb0(%arg5: memref<1xf32>, %arg6: memref<1xf32>, %arg7: memref<1xf32>):  // no predecessors
        %6322 = "equeue.read"(%arg5) {bank = 0 : i64} : (memref<1xf32>) -> f32
        %6323 = "equeue.read"(%arg6) {bank = 1 : i64} : (memref<1xf32>) -> f32
        %6324 = mulf %6322, %6323 : f32
        %6325 = "equeue.read"(%arg7) {bank = 2 : i64} : (memref<1xf32>) -> f32
        %6326 = addf %6324, %6325 : f32
        "equeue.return"(%6322, %6326) : (f32, f32) -> ()
      }) : (!equeue.signal, i32, memref<1xf32>, memref<1xf32>, memref<1xf32>) -> (!equeue.signal, f32, f32)
      %447 = "equeue.control_and"(%446, %done_194) : (!equeue.signal, !equeue.signal) -> !equeue.signal
      %done_196, %res_197:2 = "equeue.launch"(%444, %162, %165, %163, %164) ( {
      ^bb0(%arg5: memref<1xf32>, %arg6: memref<1xf32>, %arg7: memref<1xf32>):  // no predecessors
        %6322 = "equeue.read"(%arg5) {bank = 0 : i64} : (memref<1xf32>) -> f32
        %6323 = "equeue.read"(%arg6) {bank = 1 : i64} : (memref<1xf32>) -> f32
        %6324 = mulf %6322, %6323 : f32
        %6325 = "equeue.read"(%arg7) {bank = 2 : i64} : (memref<1xf32>) -> f32
        %6326 = addf %6324, %6325 : f32
        "equeue.return"(%6322, %6326) : (f32, f32) -> ()
      }) : (!equeue.signal, i32, memref<1xf32>, memref<1xf32>, memref<1xf32>) -> (!equeue.signal, f32, f32)
      %448 = "equeue.control_and"(%447, %done_196) : (!equeue.signal, !equeue.signal) -> !equeue.signal
      %done_198, %res_199:2 = "equeue.launch"(%444, %168, %171, %169, %170) ( {
      ^bb0(%arg5: memref<1xf32>, %arg6: memref<1xf32>, %arg7: memref<1xf32>):  // no predecessors
        %6322 = "equeue.read"(%arg5) {bank = 0 : i64} : (memref<1xf32>) -> f32
        %6323 = "equeue.read"(%arg6) {bank = 1 : i64} : (memref<1xf32>) -> f32
        %6324 = mulf %6322, %6323 : f32
        %6325 = "equeue.read"(%arg7) {bank = 2 : i64} : (memref<1xf32>) -> f32
        %6326 = addf %6324, %6325 : f32
        "equeue.return"(%6322, %6326) : (f32, f32) -> ()
      }) : (!equeue.signal, i32, memref<1xf32>, memref<1xf32>, memref<1xf32>) -> (!equeue.signal, f32, f32)
      %449 = "equeue.control_and"(%448, %done_198) : (!equeue.signal, !equeue.signal) -> !equeue.signal
      %done_200, %res_201:2 = "equeue.launch"(%444, %186, %189, %187, %188) ( {
      ^bb0(%arg5: memref<1xf32>, %arg6: memref<1xf32>, %arg7: memref<1xf32>):  // no predecessors
        %6322 = "equeue.read"(%arg5) {bank = 0 : i64} : (memref<1xf32>) -> f32
        %6323 = "equeue.read"(%arg6) {bank = 1 : i64} : (memref<1xf32>) -> f32
        %6324 = mulf %6322, %6323 : f32
        %6325 = "equeue.read"(%arg7) {bank = 2 : i64} : (memref<1xf32>) -> f32
        %6326 = addf %6324, %6325 : f32
        "equeue.return"(%6322, %6326) : (f32, f32) -> ()
      }) : (!equeue.signal, i32, memref<1xf32>, memref<1xf32>, memref<1xf32>) -> (!equeue.signal, f32, f32)
      %450 = "equeue.control_and"(%449, %done_200) : (!equeue.signal, !equeue.signal) -> !equeue.signal
      %done_202, %res_203:2 = "equeue.launch"(%444, %192, %195, %193, %194) ( {
      ^bb0(%arg5: memref<1xf32>, %arg6: memref<1xf32>, %arg7: memref<1xf32>):  // no predecessors
        %6322 = "equeue.read"(%arg5) {bank = 0 : i64} : (memref<1xf32>) -> f32
        %6323 = "equeue.read"(%arg6) {bank = 1 : i64} : (memref<1xf32>) -> f32
        %6324 = mulf %6322, %6323 : f32
        %6325 = "equeue.read"(%arg7) {bank = 2 : i64} : (memref<1xf32>) -> f32
        %6326 = addf %6324, %6325 : f32
        "equeue.return"(%6322, %6326) : (f32, f32) -> ()
      }) : (!equeue.signal, i32, memref<1xf32>, memref<1xf32>, memref<1xf32>) -> (!equeue.signal, f32, f32)
      %451 = "equeue.control_and"(%450, %done_202) : (!equeue.signal, !equeue.signal) -> !equeue.signal
      %done_204, %res_205:2 = "equeue.launch"(%444, %198, %201, %199, %200) ( {
      ^bb0(%arg5: memref<1xf32>, %arg6: memref<1xf32>, %arg7: memref<1xf32>):  // no predecessors
        %6322 = "equeue.read"(%arg5) {bank = 0 : i64} : (memref<1xf32>) -> f32
        %6323 = "equeue.read"(%arg6) {bank = 1 : i64} : (memref<1xf32>) -> f32
        %6324 = mulf %6322, %6323 : f32
        %6325 = "equeue.read"(%arg7) {bank = 2 : i64} : (memref<1xf32>) -> f32
        %6326 = addf %6324, %6325 : f32
        "equeue.return"(%6322, %6326) : (f32, f32) -> ()
      }) : (!equeue.signal, i32, memref<1xf32>, memref<1xf32>, memref<1xf32>) -> (!equeue.signal, f32, f32)
      %452 = "equeue.control_and"(%451, %done_204) : (!equeue.signal, !equeue.signal) -> !equeue.signal
      %done_206, %res_207:2 = "equeue.launch"(%444, %216, %219, %217, %218) ( {
      ^bb0(%arg5: memref<1xf32>, %arg6: memref<1xf32>, %arg7: memref<1xf32>):  // no predecessors
        %6322 = "equeue.read"(%arg5) {bank = 0 : i64} : (memref<1xf32>) -> f32
        %6323 = "equeue.read"(%arg6) {bank = 1 : i64} : (memref<1xf32>) -> f32
        %6324 = mulf %6322, %6323 : f32
        %6325 = "equeue.read"(%arg7) {bank = 2 : i64} : (memref<1xf32>) -> f32
        %6326 = addf %6324, %6325 : f32
        "equeue.return"(%6322, %6326) : (f32, f32) -> ()
      }) : (!equeue.signal, i32, memref<1xf32>, memref<1xf32>, memref<1xf32>) -> (!equeue.signal, f32, f32)
      %453 = "equeue.control_and"(%452, %done_206) : (!equeue.signal, !equeue.signal) -> !equeue.signal
      %done_208, %res_209:2 = "equeue.launch"(%444, %222, %225, %223, %224) ( {
      ^bb0(%arg5: memref<1xf32>, %arg6: memref<1xf32>, %arg7: memref<1xf32>):  // no predecessors
        %6322 = "equeue.read"(%arg5) {bank = 0 : i64} : (memref<1xf32>) -> f32
        %6323 = "equeue.read"(%arg6) {bank = 1 : i64} : (memref<1xf32>) -> f32
        %6324 = mulf %6322, %6323 : f32
        %6325 = "equeue.read"(%arg7) {bank = 2 : i64} : (memref<1xf32>) -> f32
        %6326 = addf %6324, %6325 : f32
        "equeue.return"(%6322, %6326) : (f32, f32) -> ()
      }) : (!equeue.signal, i32, memref<1xf32>, memref<1xf32>, memref<1xf32>) -> (!equeue.signal, f32, f32)
      %454 = "equeue.control_and"(%453, %done_208) : (!equeue.signal, !equeue.signal) -> !equeue.signal
      %done_210, %res_211:2 = "equeue.launch"(%444, %228, %231, %229, %230) ( {
      ^bb0(%arg5: memref<1xf32>, %arg6: memref<1xf32>, %arg7: memref<1xf32>):  // no predecessors
        %6322 = "equeue.read"(%arg5) {bank = 0 : i64} : (memref<1xf32>) -> f32
        %6323 = "equeue.read"(%arg6) {bank = 1 : i64} : (memref<1xf32>) -> f32
        %6324 = mulf %6322, %6323 : f32
        %6325 = "equeue.read"(%arg7) {bank = 2 : i64} : (memref<1xf32>) -> f32
        %6326 = addf %6324, %6325 : f32
        "equeue.return"(%6322, %6326) : (f32, f32) -> ()
      }) : (!equeue.signal, i32, memref<1xf32>, memref<1xf32>, memref<1xf32>) -> (!equeue.signal, f32, f32)
      %455 = "equeue.control_and"(%454, %done_210) : (!equeue.signal, !equeue.signal) -> !equeue.signal
      %done_212, %res_213:2 = "equeue.launch"(%444, %246, %249, %247, %248) ( {
      ^bb0(%arg5: memref<1xf32>, %arg6: memref<1xf32>, %arg7: memref<1xf32>):  // no predecessors
        %6322 = "equeue.read"(%arg5) {bank = 0 : i64} : (memref<1xf32>) -> f32
        %6323 = "equeue.read"(%arg6) {bank = 1 : i64} : (memref<1xf32>) -> f32
        %6324 = mulf %6322, %6323 : f32
        %6325 = "equeue.read"(%arg7) {bank = 2 : i64} : (memref<1xf32>) -> f32
        %6326 = addf %6324, %6325 : f32
        "equeue.return"(%6322, %6326) : (f32, f32) -> ()
      }) : (!equeue.signal, i32, memref<1xf32>, memref<1xf32>, memref<1xf32>) -> (!equeue.signal, f32, f32)
      %456 = "equeue.control_and"(%455, %done_212) : (!equeue.signal, !equeue.signal) -> !equeue.signal
      %done_214, %res_215:2 = "equeue.launch"(%444, %252, %255, %253, %254) ( {
      ^bb0(%arg5: memref<1xf32>, %arg6: memref<1xf32>, %arg7: memref<1xf32>):  // no predecessors
        %6322 = "equeue.read"(%arg5) {bank = 0 : i64} : (memref<1xf32>) -> f32
        %6323 = "equeue.read"(%arg6) {bank = 1 : i64} : (memref<1xf32>) -> f32
        %6324 = mulf %6322, %6323 : f32
        %6325 = "equeue.read"(%arg7) {bank = 2 : i64} : (memref<1xf32>) -> f32
        %6326 = addf %6324, %6325 : f32
        "equeue.return"(%6322, %6326) : (f32, f32) -> ()
      }) : (!equeue.signal, i32, memref<1xf32>, memref<1xf32>, memref<1xf32>) -> (!equeue.signal, f32, f32)
      %457 = "equeue.control_and"(%456, %done_214) : (!equeue.signal, !equeue.signal) -> !equeue.signal
      %done_216, %res_217:2 = "equeue.launch"(%444, %258, %261, %259, %260) ( {
      ^bb0(%arg5: memref<1xf32>, %arg6: memref<1xf32>, %arg7: memref<1xf32>):  // no predecessors
        %6322 = "equeue.read"(%arg5) {bank = 0 : i64} : (memref<1xf32>) -> f32
        %6323 = "equeue.read"(%arg6) {bank = 1 : i64} : (memref<1xf32>) -> f32
        %6324 = mulf %6322, %6323 : f32
        %6325 = "equeue.read"(%arg7) {bank = 2 : i64} : (memref<1xf32>) -> f32
        %6326 = addf %6324, %6325 : f32
        "equeue.return"(%6322, %6326) : (f32, f32) -> ()
      }) : (!equeue.signal, i32, memref<1xf32>, memref<1xf32>, memref<1xf32>) -> (!equeue.signal, f32, f32)
      %458 = "equeue.control_and"(%457, %done_216) : (!equeue.signal, !equeue.signal) -> !equeue.signal
      "equeue.await"(%458) : (!equeue.signal) -> ()
      %459 = "equeue.control_start"() : () -> !equeue.signal
      %done_218 = "equeue.launch"(%459, %126, %res_189#0, %res_189#1, %135, %158, %123) ( {
      ^bb0(%arg5: f32, %arg6: f32, %arg7: memref<1xf32>, %arg8: memref<1xf32>, %arg9: memref<3x3x3xf32>):  // no predecessors
        "equeue.write"(%arg5, %arg7) {bank = 0 : i64} : (f32, memref<1xf32>) -> ()
        "equeue.write"(%arg6, %arg8) {bank = 2 : i64} : (f32, memref<1xf32>) -> ()
        "equeue.return"() : () -> ()
      }) : (!equeue.signal, i32, f32, f32, memref<1xf32>, memref<1xf32>, memref<3x3x3xf32>) -> !equeue.signal
      %done_219 = "equeue.launch"(%459, %132, %res_191#0, %res_191#1, %141, %164, %123) ( {
      ^bb0(%arg5: f32, %arg6: f32, %arg7: memref<1xf32>, %arg8: memref<1xf32>, %arg9: memref<3x3x3xf32>):  // no predecessors
        "equeue.write"(%arg5, %arg7) {bank = 0 : i64} : (f32, memref<1xf32>) -> ()
        "equeue.write"(%arg6, %arg8) {bank = 2 : i64} : (f32, memref<1xf32>) -> ()
        "equeue.return"() : () -> ()
      }) : (!equeue.signal, i32, f32, f32, memref<1xf32>, memref<1xf32>, memref<3x3x3xf32>) -> !equeue.signal
      %460 = "equeue.control_and"(%done_218, %done_219) : (!equeue.signal, !equeue.signal) -> !equeue.signal
      %done_220 = "equeue.launch"(%459, %138, %res_193#1, %170, %123) ( {
      ^bb0(%arg5: f32, %arg6: memref<1xf32>, %arg7: memref<3x3x3xf32>):  // no predecessors
        "equeue.write"(%arg5, %arg6) {bank = 2 : i64} : (f32, memref<1xf32>) -> ()
        "equeue.return"() : () -> ()
      }) : (!equeue.signal, i32, f32, memref<1xf32>, memref<3x3x3xf32>) -> !equeue.signal
      %461 = "equeue.control_and"(%460, %done_220) : (!equeue.signal, !equeue.signal) -> !equeue.signal
      %done_221 = "equeue.launch"(%459, %156, %res_195#0, %res_195#1, %165, %188, %123) ( {
      ^bb0(%arg5: f32, %arg6: f32, %arg7: memref<1xf32>, %arg8: memref<1xf32>, %arg9: memref<3x3x3xf32>):  // no predecessors
        "equeue.write"(%arg5, %arg7) {bank = 0 : i64} : (f32, memref<1xf32>) -> ()
        "equeue.write"(%arg6, %arg8) {bank = 2 : i64} : (f32, memref<1xf32>) -> ()
        "equeue.return"() : () -> ()
      }) : (!equeue.signal, i32, f32, f32, memref<1xf32>, memref<1xf32>, memref<3x3x3xf32>) -> !equeue.signal
      %462 = "equeue.control_and"(%461, %done_221) : (!equeue.signal, !equeue.signal) -> !equeue.signal
      %done_222 = "equeue.launch"(%459, %162, %res_197#0, %res_197#1, %171, %194, %123) ( {
      ^bb0(%arg5: f32, %arg6: f32, %arg7: memref<1xf32>, %arg8: memref<1xf32>, %arg9: memref<3x3x3xf32>):  // no predecessors
        "equeue.write"(%arg5, %arg7) {bank = 0 : i64} : (f32, memref<1xf32>) -> ()
        "equeue.write"(%arg6, %arg8) {bank = 2 : i64} : (f32, memref<1xf32>) -> ()
        "equeue.return"() : () -> ()
      }) : (!equeue.signal, i32, f32, f32, memref<1xf32>, memref<1xf32>, memref<3x3x3xf32>) -> !equeue.signal
      %463 = "equeue.control_and"(%462, %done_222) : (!equeue.signal, !equeue.signal) -> !equeue.signal
      %done_223 = "equeue.launch"(%459, %168, %res_199#1, %200, %123) ( {
      ^bb0(%arg5: f32, %arg6: memref<1xf32>, %arg7: memref<3x3x3xf32>):  // no predecessors
        "equeue.write"(%arg5, %arg6) {bank = 2 : i64} : (f32, memref<1xf32>) -> ()
        "equeue.return"() : () -> ()
      }) : (!equeue.signal, i32, f32, memref<1xf32>, memref<3x3x3xf32>) -> !equeue.signal
      %464 = "equeue.control_and"(%463, %done_223) : (!equeue.signal, !equeue.signal) -> !equeue.signal
      %done_224 = "equeue.launch"(%459, %186, %res_201#0, %res_201#1, %195, %218, %123) ( {
      ^bb0(%arg5: f32, %arg6: f32, %arg7: memref<1xf32>, %arg8: memref<1xf32>, %arg9: memref<3x3x3xf32>):  // no predecessors
        "equeue.write"(%arg5, %arg7) {bank = 0 : i64} : (f32, memref<1xf32>) -> ()
        "equeue.write"(%arg6, %arg8) {bank = 2 : i64} : (f32, memref<1xf32>) -> ()
        "equeue.return"() : () -> ()
      }) : (!equeue.signal, i32, f32, f32, memref<1xf32>, memref<1xf32>, memref<3x3x3xf32>) -> !equeue.signal
      %465 = "equeue.control_and"(%464, %done_224) : (!equeue.signal, !equeue.signal) -> !equeue.signal
      %done_225 = "equeue.launch"(%459, %192, %res_203#0, %res_203#1, %201, %224, %123) ( {
      ^bb0(%arg5: f32, %arg6: f32, %arg7: memref<1xf32>, %arg8: memref<1xf32>, %arg9: memref<3x3x3xf32>):  // no predecessors
        "equeue.write"(%arg5, %arg7) {bank = 0 : i64} : (f32, memref<1xf32>) -> ()
        "equeue.write"(%arg6, %arg8) {bank = 2 : i64} : (f32, memref<1xf32>) -> ()
        "equeue.return"() : () -> ()
      }) : (!equeue.signal, i32, f32, f32, memref<1xf32>, memref<1xf32>, memref<3x3x3xf32>) -> !equeue.signal
      %466 = "equeue.control_and"(%465, %done_225) : (!equeue.signal, !equeue.signal) -> !equeue.signal
      %done_226 = "equeue.launch"(%459, %198, %res_205#1, %230, %123) ( {
      ^bb0(%arg5: f32, %arg6: memref<1xf32>, %arg7: memref<3x3x3xf32>):  // no predecessors
        "equeue.write"(%arg5, %arg6) {bank = 2 : i64} : (f32, memref<1xf32>) -> ()
        "equeue.return"() : () -> ()
      }) : (!equeue.signal, i32, f32, memref<1xf32>, memref<3x3x3xf32>) -> !equeue.signal
      %467 = "equeue.control_and"(%466, %done_226) : (!equeue.signal, !equeue.signal) -> !equeue.signal
      %done_227 = "equeue.launch"(%459, %216, %res_207#0, %res_207#1, %225, %248, %123) ( {
      ^bb0(%arg5: f32, %arg6: f32, %arg7: memref<1xf32>, %arg8: memref<1xf32>, %arg9: memref<3x3x3xf32>):  // no predecessors
        "equeue.write"(%arg5, %arg7) {bank = 0 : i64} : (f32, memref<1xf32>) -> ()
        "equeue.write"(%arg6, %arg8) {bank = 2 : i64} : (f32, memref<1xf32>) -> ()
        "equeue.return"() : () -> ()
      }) : (!equeue.signal, i32, f32, f32, memref<1xf32>, memref<1xf32>, memref<3x3x3xf32>) -> !equeue.signal
      %468 = "equeue.control_and"(%467, %done_227) : (!equeue.signal, !equeue.signal) -> !equeue.signal
      %done_228 = "equeue.launch"(%459, %222, %res_209#0, %res_209#1, %231, %254, %123) ( {
      ^bb0(%arg5: f32, %arg6: f32, %arg7: memref<1xf32>, %arg8: memref<1xf32>, %arg9: memref<3x3x3xf32>):  // no predecessors
        "equeue.write"(%arg5, %arg7) {bank = 0 : i64} : (f32, memref<1xf32>) -> ()
        "equeue.write"(%arg6, %arg8) {bank = 2 : i64} : (f32, memref<1xf32>) -> ()
        "equeue.return"() : () -> ()
      }) : (!equeue.signal, i32, f32, f32, memref<1xf32>, memref<1xf32>, memref<3x3x3xf32>) -> !equeue.signal
      %469 = "equeue.control_and"(%468, %done_228) : (!equeue.signal, !equeue.signal) -> !equeue.signal
      %done_229 = "equeue.launch"(%459, %228, %res_211#1, %260, %123) ( {
      ^bb0(%arg5: f32, %arg6: memref<1xf32>, %arg7: memref<3x3x3xf32>):  // no predecessors
        "equeue.write"(%arg5, %arg6) {bank = 2 : i64} : (f32, memref<1xf32>) -> ()
        "equeue.return"() : () -> ()
      }) : (!equeue.signal, i32, f32, memref<1xf32>, memref<3x3x3xf32>) -> !equeue.signal
      %470 = "equeue.control_and"(%469, %done_229) : (!equeue.signal, !equeue.signal) -> !equeue.signal
      %done_230 = "equeue.launch"(%459, %246, %res_213#0, %res_213#1, %255, %123) ( {
      ^bb0(%arg5: f32, %arg6: f32, %arg7: memref<1xf32>, %arg8: memref<3x3x3xf32>):  // no predecessors
        "equeue.write"(%arg5, %arg7) {bank = 0 : i64} : (f32, memref<1xf32>) -> ()
        "equeue.return"() : () -> ()
      }) : (!equeue.signal, i32, f32, f32, memref<1xf32>, memref<3x3x3xf32>) -> !equeue.signal
      %471 = "equeue.control_and"(%470, %done_230) : (!equeue.signal, !equeue.signal) -> !equeue.signal
      %done_231 = "equeue.launch"(%459, %252, %res_215#0, %res_215#1, %261, %123) ( {
      ^bb0(%arg5: f32, %arg6: f32, %arg7: memref<1xf32>, %arg8: memref<3x3x3xf32>):  // no predecessors
        "equeue.write"(%arg5, %arg7) {bank = 0 : i64} : (f32, memref<1xf32>) -> ()
        "equeue.return"() : () -> ()
      }) : (!equeue.signal, i32, f32, f32, memref<1xf32>, memref<3x3x3xf32>) -> !equeue.signal
      %472 = "equeue.control_and"(%471, %done_231) : (!equeue.signal, !equeue.signal) -> !equeue.signal
      %done_232 = "equeue.launch"(%459, %258, %res_217#1, %123) ( {
      ^bb0(%arg5: f32, %arg6: memref<3x3x3xf32>):  // no predecessors
        "equeue.return"() : () -> ()
      }) : (!equeue.signal, i32, f32, memref<3x3x3xf32>) -> !equeue.signal
      %473 = "equeue.control_and"(%472, %done_232) : (!equeue.signal, !equeue.signal) -> !equeue.signal
      "equeue.await"(%473) : (!equeue.signal) -> ()
      %474 = "equeue.control_start"() : () -> !equeue.signal
      %475 = "equeue.memcpy"(%474, %121, %129, %102, %c0) {dest_bank = 0 : i64, src_bank = 0 : i64} : (!equeue.signal, memref<5x7x7xf32>, memref<1xf32>, i32, index) -> !equeue.signal
      "equeue.await"(%475) : (!equeue.signal) -> ()
      %476 = "equeue.control_start"() : () -> !equeue.signal
      %done_233, %res_234:2 = "equeue.launch"(%476, %126, %129, %127, %128) ( {
      ^bb0(%arg5: memref<1xf32>, %arg6: memref<1xf32>, %arg7: memref<1xf32>):  // no predecessors
        %6322 = "equeue.read"(%arg5) {bank = 0 : i64} : (memref<1xf32>) -> f32
        %6323 = "equeue.read"(%arg6) {bank = 1 : i64} : (memref<1xf32>) -> f32
        %6324 = mulf %6322, %6323 : f32
        %6325 = "equeue.read"(%arg7) {bank = 2 : i64} : (memref<1xf32>) -> f32
        %6326 = addf %6324, %6325 : f32
        "equeue.return"(%6322, %6326) : (f32, f32) -> ()
      }) : (!equeue.signal, i32, memref<1xf32>, memref<1xf32>, memref<1xf32>) -> (!equeue.signal, f32, f32)
      %done_235, %res_236:2 = "equeue.launch"(%476, %132, %135, %133, %134) ( {
      ^bb0(%arg5: memref<1xf32>, %arg6: memref<1xf32>, %arg7: memref<1xf32>):  // no predecessors
        %6322 = "equeue.read"(%arg5) {bank = 0 : i64} : (memref<1xf32>) -> f32
        %6323 = "equeue.read"(%arg6) {bank = 1 : i64} : (memref<1xf32>) -> f32
        %6324 = mulf %6322, %6323 : f32
        %6325 = "equeue.read"(%arg7) {bank = 2 : i64} : (memref<1xf32>) -> f32
        %6326 = addf %6324, %6325 : f32
        "equeue.return"(%6322, %6326) : (f32, f32) -> ()
      }) : (!equeue.signal, i32, memref<1xf32>, memref<1xf32>, memref<1xf32>) -> (!equeue.signal, f32, f32)
      %477 = "equeue.control_and"(%done_233, %done_235) : (!equeue.signal, !equeue.signal) -> !equeue.signal
      %done_237, %res_238:2 = "equeue.launch"(%476, %138, %141, %139, %140) ( {
      ^bb0(%arg5: memref<1xf32>, %arg6: memref<1xf32>, %arg7: memref<1xf32>):  // no predecessors
        %6322 = "equeue.read"(%arg5) {bank = 0 : i64} : (memref<1xf32>) -> f32
        %6323 = "equeue.read"(%arg6) {bank = 1 : i64} : (memref<1xf32>) -> f32
        %6324 = mulf %6322, %6323 : f32
        %6325 = "equeue.read"(%arg7) {bank = 2 : i64} : (memref<1xf32>) -> f32
        %6326 = addf %6324, %6325 : f32
        "equeue.return"(%6322, %6326) : (f32, f32) -> ()
      }) : (!equeue.signal, i32, memref<1xf32>, memref<1xf32>, memref<1xf32>) -> (!equeue.signal, f32, f32)
      %478 = "equeue.control_and"(%477, %done_237) : (!equeue.signal, !equeue.signal) -> !equeue.signal
      %done_239, %res_240:2 = "equeue.launch"(%476, %156, %159, %157, %158) ( {
      ^bb0(%arg5: memref<1xf32>, %arg6: memref<1xf32>, %arg7: memref<1xf32>):  // no predecessors
        %6322 = "equeue.read"(%arg5) {bank = 0 : i64} : (memref<1xf32>) -> f32
        %6323 = "equeue.read"(%arg6) {bank = 1 : i64} : (memref<1xf32>) -> f32
        %6324 = mulf %6322, %6323 : f32
        %6325 = "equeue.read"(%arg7) {bank = 2 : i64} : (memref<1xf32>) -> f32
        %6326 = addf %6324, %6325 : f32
        "equeue.return"(%6322, %6326) : (f32, f32) -> ()
      }) : (!equeue.signal, i32, memref<1xf32>, memref<1xf32>, memref<1xf32>) -> (!equeue.signal, f32, f32)
      %479 = "equeue.control_and"(%478, %done_239) : (!equeue.signal, !equeue.signal) -> !equeue.signal
      %done_241, %res_242:2 = "equeue.launch"(%476, %162, %165, %163, %164) ( {
      ^bb0(%arg5: memref<1xf32>, %arg6: memref<1xf32>, %arg7: memref<1xf32>):  // no predecessors
        %6322 = "equeue.read"(%arg5) {bank = 0 : i64} : (memref<1xf32>) -> f32
        %6323 = "equeue.read"(%arg6) {bank = 1 : i64} : (memref<1xf32>) -> f32
        %6324 = mulf %6322, %6323 : f32
        %6325 = "equeue.read"(%arg7) {bank = 2 : i64} : (memref<1xf32>) -> f32
        %6326 = addf %6324, %6325 : f32
        "equeue.return"(%6322, %6326) : (f32, f32) -> ()
      }) : (!equeue.signal, i32, memref<1xf32>, memref<1xf32>, memref<1xf32>) -> (!equeue.signal, f32, f32)
      %480 = "equeue.control_and"(%479, %done_241) : (!equeue.signal, !equeue.signal) -> !equeue.signal
      %done_243, %res_244:2 = "equeue.launch"(%476, %168, %171, %169, %170) ( {
      ^bb0(%arg5: memref<1xf32>, %arg6: memref<1xf32>, %arg7: memref<1xf32>):  // no predecessors
        %6322 = "equeue.read"(%arg5) {bank = 0 : i64} : (memref<1xf32>) -> f32
        %6323 = "equeue.read"(%arg6) {bank = 1 : i64} : (memref<1xf32>) -> f32
        %6324 = mulf %6322, %6323 : f32
        %6325 = "equeue.read"(%arg7) {bank = 2 : i64} : (memref<1xf32>) -> f32
        %6326 = addf %6324, %6325 : f32
        "equeue.return"(%6322, %6326) : (f32, f32) -> ()
      }) : (!equeue.signal, i32, memref<1xf32>, memref<1xf32>, memref<1xf32>) -> (!equeue.signal, f32, f32)
      %481 = "equeue.control_and"(%480, %done_243) : (!equeue.signal, !equeue.signal) -> !equeue.signal
      %done_245, %res_246:2 = "equeue.launch"(%476, %186, %189, %187, %188) ( {
      ^bb0(%arg5: memref<1xf32>, %arg6: memref<1xf32>, %arg7: memref<1xf32>):  // no predecessors
        %6322 = "equeue.read"(%arg5) {bank = 0 : i64} : (memref<1xf32>) -> f32
        %6323 = "equeue.read"(%arg6) {bank = 1 : i64} : (memref<1xf32>) -> f32
        %6324 = mulf %6322, %6323 : f32
        %6325 = "equeue.read"(%arg7) {bank = 2 : i64} : (memref<1xf32>) -> f32
        %6326 = addf %6324, %6325 : f32
        "equeue.return"(%6322, %6326) : (f32, f32) -> ()
      }) : (!equeue.signal, i32, memref<1xf32>, memref<1xf32>, memref<1xf32>) -> (!equeue.signal, f32, f32)
      %482 = "equeue.control_and"(%481, %done_245) : (!equeue.signal, !equeue.signal) -> !equeue.signal
      %done_247, %res_248:2 = "equeue.launch"(%476, %192, %195, %193, %194) ( {
      ^bb0(%arg5: memref<1xf32>, %arg6: memref<1xf32>, %arg7: memref<1xf32>):  // no predecessors
        %6322 = "equeue.read"(%arg5) {bank = 0 : i64} : (memref<1xf32>) -> f32
        %6323 = "equeue.read"(%arg6) {bank = 1 : i64} : (memref<1xf32>) -> f32
        %6324 = mulf %6322, %6323 : f32
        %6325 = "equeue.read"(%arg7) {bank = 2 : i64} : (memref<1xf32>) -> f32
        %6326 = addf %6324, %6325 : f32
        "equeue.return"(%6322, %6326) : (f32, f32) -> ()
      }) : (!equeue.signal, i32, memref<1xf32>, memref<1xf32>, memref<1xf32>) -> (!equeue.signal, f32, f32)
      %483 = "equeue.control_and"(%482, %done_247) : (!equeue.signal, !equeue.signal) -> !equeue.signal
      %done_249, %res_250:2 = "equeue.launch"(%476, %198, %201, %199, %200) ( {
      ^bb0(%arg5: memref<1xf32>, %arg6: memref<1xf32>, %arg7: memref<1xf32>):  // no predecessors
        %6322 = "equeue.read"(%arg5) {bank = 0 : i64} : (memref<1xf32>) -> f32
        %6323 = "equeue.read"(%arg6) {bank = 1 : i64} : (memref<1xf32>) -> f32
        %6324 = mulf %6322, %6323 : f32
        %6325 = "equeue.read"(%arg7) {bank = 2 : i64} : (memref<1xf32>) -> f32
        %6326 = addf %6324, %6325 : f32
        "equeue.return"(%6322, %6326) : (f32, f32) -> ()
      }) : (!equeue.signal, i32, memref<1xf32>, memref<1xf32>, memref<1xf32>) -> (!equeue.signal, f32, f32)
      %484 = "equeue.control_and"(%483, %done_249) : (!equeue.signal, !equeue.signal) -> !equeue.signal
      %done_251, %res_252:2 = "equeue.launch"(%476, %216, %219, %217, %218) ( {
      ^bb0(%arg5: memref<1xf32>, %arg6: memref<1xf32>, %arg7: memref<1xf32>):  // no predecessors
        %6322 = "equeue.read"(%arg5) {bank = 0 : i64} : (memref<1xf32>) -> f32
        %6323 = "equeue.read"(%arg6) {bank = 1 : i64} : (memref<1xf32>) -> f32
        %6324 = mulf %6322, %6323 : f32
        %6325 = "equeue.read"(%arg7) {bank = 2 : i64} : (memref<1xf32>) -> f32
        %6326 = addf %6324, %6325 : f32
        "equeue.return"(%6322, %6326) : (f32, f32) -> ()
      }) : (!equeue.signal, i32, memref<1xf32>, memref<1xf32>, memref<1xf32>) -> (!equeue.signal, f32, f32)
      %485 = "equeue.control_and"(%484, %done_251) : (!equeue.signal, !equeue.signal) -> !equeue.signal
      %done_253, %res_254:2 = "equeue.launch"(%476, %222, %225, %223, %224) ( {
      ^bb0(%arg5: memref<1xf32>, %arg6: memref<1xf32>, %arg7: memref<1xf32>):  // no predecessors
        %6322 = "equeue.read"(%arg5) {bank = 0 : i64} : (memref<1xf32>) -> f32
        %6323 = "equeue.read"(%arg6) {bank = 1 : i64} : (memref<1xf32>) -> f32
        %6324 = mulf %6322, %6323 : f32
        %6325 = "equeue.read"(%arg7) {bank = 2 : i64} : (memref<1xf32>) -> f32
        %6326 = addf %6324, %6325 : f32
        "equeue.return"(%6322, %6326) : (f32, f32) -> ()
      }) : (!equeue.signal, i32, memref<1xf32>, memref<1xf32>, memref<1xf32>) -> (!equeue.signal, f32, f32)
      %486 = "equeue.control_and"(%485, %done_253) : (!equeue.signal, !equeue.signal) -> !equeue.signal
      %done_255, %res_256:2 = "equeue.launch"(%476, %228, %231, %229, %230) ( {
      ^bb0(%arg5: memref<1xf32>, %arg6: memref<1xf32>, %arg7: memref<1xf32>):  // no predecessors
        %6322 = "equeue.read"(%arg5) {bank = 0 : i64} : (memref<1xf32>) -> f32
        %6323 = "equeue.read"(%arg6) {bank = 1 : i64} : (memref<1xf32>) -> f32
        %6324 = mulf %6322, %6323 : f32
        %6325 = "equeue.read"(%arg7) {bank = 2 : i64} : (memref<1xf32>) -> f32
        %6326 = addf %6324, %6325 : f32
        "equeue.return"(%6322, %6326) : (f32, f32) -> ()
      }) : (!equeue.signal, i32, memref<1xf32>, memref<1xf32>, memref<1xf32>) -> (!equeue.signal, f32, f32)
      %487 = "equeue.control_and"(%486, %done_255) : (!equeue.signal, !equeue.signal) -> !equeue.signal
      %done_257, %res_258:2 = "equeue.launch"(%476, %246, %249, %247, %248) ( {
      ^bb0(%arg5: memref<1xf32>, %arg6: memref<1xf32>, %arg7: memref<1xf32>):  // no predecessors
        %6322 = "equeue.read"(%arg5) {bank = 0 : i64} : (memref<1xf32>) -> f32
        %6323 = "equeue.read"(%arg6) {bank = 1 : i64} : (memref<1xf32>) -> f32
        %6324 = mulf %6322, %6323 : f32
        %6325 = "equeue.read"(%arg7) {bank = 2 : i64} : (memref<1xf32>) -> f32
        %6326 = addf %6324, %6325 : f32
        "equeue.return"(%6322, %6326) : (f32, f32) -> ()
      }) : (!equeue.signal, i32, memref<1xf32>, memref<1xf32>, memref<1xf32>) -> (!equeue.signal, f32, f32)
      %488 = "equeue.control_and"(%487, %done_257) : (!equeue.signal, !equeue.signal) -> !equeue.signal
      %done_259, %res_260:2 = "equeue.launch"(%476, %252, %255, %253, %254) ( {
      ^bb0(%arg5: memref<1xf32>, %arg6: memref<1xf32>, %arg7: memref<1xf32>):  // no predecessors
        %6322 = "equeue.read"(%arg5) {bank = 0 : i64} : (memref<1xf32>) -> f32
        %6323 = "equeue.read"(%arg6) {bank = 1 : i64} : (memref<1xf32>) -> f32
        %6324 = mulf %6322, %6323 : f32
        %6325 = "equeue.read"(%arg7) {bank = 2 : i64} : (memref<1xf32>) -> f32
        %6326 = addf %6324, %6325 : f32
        "equeue.return"(%6322, %6326) : (f32, f32) -> ()
      }) : (!equeue.signal, i32, memref<1xf32>, memref<1xf32>, memref<1xf32>) -> (!equeue.signal, f32, f32)
      %489 = "equeue.control_and"(%488, %done_259) : (!equeue.signal, !equeue.signal) -> !equeue.signal
      %done_261, %res_262:2 = "equeue.launch"(%476, %258, %261, %259, %260) ( {
      ^bb0(%arg5: memref<1xf32>, %arg6: memref<1xf32>, %arg7: memref<1xf32>):  // no predecessors
        %6322 = "equeue.read"(%arg5) {bank = 0 : i64} : (memref<1xf32>) -> f32
        %6323 = "equeue.read"(%arg6) {bank = 1 : i64} : (memref<1xf32>) -> f32
        %6324 = mulf %6322, %6323 : f32
        %6325 = "equeue.read"(%arg7) {bank = 2 : i64} : (memref<1xf32>) -> f32
        %6326 = addf %6324, %6325 : f32
        "equeue.return"(%6322, %6326) : (f32, f32) -> ()
      }) : (!equeue.signal, i32, memref<1xf32>, memref<1xf32>, memref<1xf32>) -> (!equeue.signal, f32, f32)
      %490 = "equeue.control_and"(%489, %done_261) : (!equeue.signal, !equeue.signal) -> !equeue.signal
      "equeue.await"(%490) : (!equeue.signal) -> ()
      %491 = "equeue.control_start"() : () -> !equeue.signal
      %done_263 = "equeue.launch"(%491, %126, %res_234#0, %res_234#1, %135, %158, %123) ( {
      ^bb0(%arg5: f32, %arg6: f32, %arg7: memref<1xf32>, %arg8: memref<1xf32>, %arg9: memref<3x3x3xf32>):  // no predecessors
        "equeue.write"(%arg5, %arg7) {bank = 0 : i64} : (f32, memref<1xf32>) -> ()
        "equeue.write"(%arg6, %arg8) {bank = 2 : i64} : (f32, memref<1xf32>) -> ()
        "equeue.return"() : () -> ()
      }) : (!equeue.signal, i32, f32, f32, memref<1xf32>, memref<1xf32>, memref<3x3x3xf32>) -> !equeue.signal
      %done_264 = "equeue.launch"(%491, %132, %res_236#0, %res_236#1, %141, %164, %123) ( {
      ^bb0(%arg5: f32, %arg6: f32, %arg7: memref<1xf32>, %arg8: memref<1xf32>, %arg9: memref<3x3x3xf32>):  // no predecessors
        "equeue.write"(%arg5, %arg7) {bank = 0 : i64} : (f32, memref<1xf32>) -> ()
        "equeue.write"(%arg6, %arg8) {bank = 2 : i64} : (f32, memref<1xf32>) -> ()
        "equeue.return"() : () -> ()
      }) : (!equeue.signal, i32, f32, f32, memref<1xf32>, memref<1xf32>, memref<3x3x3xf32>) -> !equeue.signal
      %492 = "equeue.control_and"(%done_263, %done_264) : (!equeue.signal, !equeue.signal) -> !equeue.signal
      %done_265 = "equeue.launch"(%491, %138, %res_238#1, %170, %123) ( {
      ^bb0(%arg5: f32, %arg6: memref<1xf32>, %arg7: memref<3x3x3xf32>):  // no predecessors
        "equeue.write"(%arg5, %arg6) {bank = 2 : i64} : (f32, memref<1xf32>) -> ()
        "equeue.return"() : () -> ()
      }) : (!equeue.signal, i32, f32, memref<1xf32>, memref<3x3x3xf32>) -> !equeue.signal
      %493 = "equeue.control_and"(%492, %done_265) : (!equeue.signal, !equeue.signal) -> !equeue.signal
      %done_266 = "equeue.launch"(%491, %156, %res_240#0, %res_240#1, %165, %188, %123) ( {
      ^bb0(%arg5: f32, %arg6: f32, %arg7: memref<1xf32>, %arg8: memref<1xf32>, %arg9: memref<3x3x3xf32>):  // no predecessors
        "equeue.write"(%arg5, %arg7) {bank = 0 : i64} : (f32, memref<1xf32>) -> ()
        "equeue.write"(%arg6, %arg8) {bank = 2 : i64} : (f32, memref<1xf32>) -> ()
        "equeue.return"() : () -> ()
      }) : (!equeue.signal, i32, f32, f32, memref<1xf32>, memref<1xf32>, memref<3x3x3xf32>) -> !equeue.signal
      %494 = "equeue.control_and"(%493, %done_266) : (!equeue.signal, !equeue.signal) -> !equeue.signal
      %done_267 = "equeue.launch"(%491, %162, %res_242#0, %res_242#1, %171, %194, %123) ( {
      ^bb0(%arg5: f32, %arg6: f32, %arg7: memref<1xf32>, %arg8: memref<1xf32>, %arg9: memref<3x3x3xf32>):  // no predecessors
        "equeue.write"(%arg5, %arg7) {bank = 0 : i64} : (f32, memref<1xf32>) -> ()
        "equeue.write"(%arg6, %arg8) {bank = 2 : i64} : (f32, memref<1xf32>) -> ()
        "equeue.return"() : () -> ()
      }) : (!equeue.signal, i32, f32, f32, memref<1xf32>, memref<1xf32>, memref<3x3x3xf32>) -> !equeue.signal
      %495 = "equeue.control_and"(%494, %done_267) : (!equeue.signal, !equeue.signal) -> !equeue.signal
      %done_268 = "equeue.launch"(%491, %168, %res_244#1, %200, %123) ( {
      ^bb0(%arg5: f32, %arg6: memref<1xf32>, %arg7: memref<3x3x3xf32>):  // no predecessors
        "equeue.write"(%arg5, %arg6) {bank = 2 : i64} : (f32, memref<1xf32>) -> ()
        "equeue.return"() : () -> ()
      }) : (!equeue.signal, i32, f32, memref<1xf32>, memref<3x3x3xf32>) -> !equeue.signal
      %496 = "equeue.control_and"(%495, %done_268) : (!equeue.signal, !equeue.signal) -> !equeue.signal
      %done_269 = "equeue.launch"(%491, %186, %res_246#0, %res_246#1, %195, %218, %123) ( {
      ^bb0(%arg5: f32, %arg6: f32, %arg7: memref<1xf32>, %arg8: memref<1xf32>, %arg9: memref<3x3x3xf32>):  // no predecessors
        "equeue.write"(%arg5, %arg7) {bank = 0 : i64} : (f32, memref<1xf32>) -> ()
        "equeue.write"(%arg6, %arg8) {bank = 2 : i64} : (f32, memref<1xf32>) -> ()
        "equeue.return"() : () -> ()
      }) : (!equeue.signal, i32, f32, f32, memref<1xf32>, memref<1xf32>, memref<3x3x3xf32>) -> !equeue.signal
      %497 = "equeue.control_and"(%496, %done_269) : (!equeue.signal, !equeue.signal) -> !equeue.signal
      %done_270 = "equeue.launch"(%491, %192, %res_248#0, %res_248#1, %201, %224, %123) ( {
      ^bb0(%arg5: f32, %arg6: f32, %arg7: memref<1xf32>, %arg8: memref<1xf32>, %arg9: memref<3x3x3xf32>):  // no predecessors
        "equeue.write"(%arg5, %arg7) {bank = 0 : i64} : (f32, memref<1xf32>) -> ()
        "equeue.write"(%arg6, %arg8) {bank = 2 : i64} : (f32, memref<1xf32>) -> ()
        "equeue.return"() : () -> ()
      }) : (!equeue.signal, i32, f32, f32, memref<1xf32>, memref<1xf32>, memref<3x3x3xf32>) -> !equeue.signal
      %498 = "equeue.control_and"(%497, %done_270) : (!equeue.signal, !equeue.signal) -> !equeue.signal
      %done_271 = "equeue.launch"(%491, %198, %res_250#1, %230, %123) ( {
      ^bb0(%arg5: f32, %arg6: memref<1xf32>, %arg7: memref<3x3x3xf32>):  // no predecessors
        "equeue.write"(%arg5, %arg6) {bank = 2 : i64} : (f32, memref<1xf32>) -> ()
        "equeue.return"() : () -> ()
      }) : (!equeue.signal, i32, f32, memref<1xf32>, memref<3x3x3xf32>) -> !equeue.signal
      %499 = "equeue.control_and"(%498, %done_271) : (!equeue.signal, !equeue.signal) -> !equeue.signal
      %done_272 = "equeue.launch"(%491, %216, %res_252#0, %res_252#1, %225, %248, %123) ( {
      ^bb0(%arg5: f32, %arg6: f32, %arg7: memref<1xf32>, %arg8: memref<1xf32>, %arg9: memref<3x3x3xf32>):  // no predecessors
        "equeue.write"(%arg5, %arg7) {bank = 0 : i64} : (f32, memref<1xf32>) -> ()
        "equeue.write"(%arg6, %arg8) {bank = 2 : i64} : (f32, memref<1xf32>) -> ()
        "equeue.return"() : () -> ()
      }) : (!equeue.signal, i32, f32, f32, memref<1xf32>, memref<1xf32>, memref<3x3x3xf32>) -> !equeue.signal
      %500 = "equeue.control_and"(%499, %done_272) : (!equeue.signal, !equeue.signal) -> !equeue.signal
      %done_273 = "equeue.launch"(%491, %222, %res_254#0, %res_254#1, %231, %254, %123) ( {
      ^bb0(%arg5: f32, %arg6: f32, %arg7: memref<1xf32>, %arg8: memref<1xf32>, %arg9: memref<3x3x3xf32>):  // no predecessors
        "equeue.write"(%arg5, %arg7) {bank = 0 : i64} : (f32, memref<1xf32>) -> ()
        "equeue.write"(%arg6, %arg8) {bank = 2 : i64} : (f32, memref<1xf32>) -> ()
        "equeue.return"() : () -> ()
      }) : (!equeue.signal, i32, f32, f32, memref<1xf32>, memref<1xf32>, memref<3x3x3xf32>) -> !equeue.signal
      %501 = "equeue.control_and"(%500, %done_273) : (!equeue.signal, !equeue.signal) -> !equeue.signal
      %done_274 = "equeue.launch"(%491, %228, %res_256#1, %260, %123) ( {
      ^bb0(%arg5: f32, %arg6: memref<1xf32>, %arg7: memref<3x3x3xf32>):  // no predecessors
        "equeue.write"(%arg5, %arg6) {bank = 2 : i64} : (f32, memref<1xf32>) -> ()
        "equeue.return"() : () -> ()
      }) : (!equeue.signal, i32, f32, memref<1xf32>, memref<3x3x3xf32>) -> !equeue.signal
      %502 = "equeue.control_and"(%501, %done_274) : (!equeue.signal, !equeue.signal) -> !equeue.signal
      %done_275 = "equeue.launch"(%491, %246, %res_258#0, %res_258#1, %255, %123) ( {
      ^bb0(%arg5: f32, %arg6: f32, %arg7: memref<1xf32>, %arg8: memref<3x3x3xf32>):  // no predecessors
        "equeue.write"(%arg5, %arg7) {bank = 0 : i64} : (f32, memref<1xf32>) -> ()
        "equeue.return"() : () -> ()
      }) : (!equeue.signal, i32, f32, f32, memref<1xf32>, memref<3x3x3xf32>) -> !equeue.signal
      %503 = "equeue.control_and"(%502, %done_275) : (!equeue.signal, !equeue.signal) -> !equeue.signal
      %done_276 = "equeue.launch"(%491, %252, %res_260#0, %res_260#1, %261, %123) ( {
      ^bb0(%arg5: f32, %arg6: f32, %arg7: memref<1xf32>, %arg8: memref<3x3x3xf32>):  // no predecessors
        "equeue.write"(%arg5, %arg7) {bank = 0 : i64} : (f32, memref<1xf32>) -> ()
        "equeue.return"() : () -> ()
      }) : (!equeue.signal, i32, f32, f32, memref<1xf32>, memref<3x3x3xf32>) -> !equeue.signal
      %504 = "equeue.control_and"(%503, %done_276) : (!equeue.signal, !equeue.signal) -> !equeue.signal
      %done_277 = "equeue.launch"(%491, %258, %res_262#1, %123) ( {
      ^bb0(%arg5: f32, %arg6: memref<3x3x3xf32>):  // no predecessors
        "equeue.return"() : () -> ()
      }) : (!equeue.signal, i32, f32, memref<3x3x3xf32>) -> !equeue.signal
      %505 = "equeue.control_and"(%504, %done_277) : (!equeue.signal, !equeue.signal) -> !equeue.signal
      "equeue.await"(%505) : (!equeue.signal) -> ()
      %506 = "equeue.control_start"() : () -> !equeue.signal
      %507 = "equeue.memcpy"(%506, %121, %129, %102, %c0) {dest_bank = 0 : i64, src_bank = 0 : i64} : (!equeue.signal, memref<5x7x7xf32>, memref<1xf32>, i32, index) -> !equeue.signal
      "equeue.await"(%507) : (!equeue.signal) -> ()
      %508 = "equeue.control_start"() : () -> !equeue.signal
      %done_278, %res_279:2 = "equeue.launch"(%508, %126, %129, %127, %128) ( {
      ^bb0(%arg5: memref<1xf32>, %arg6: memref<1xf32>, %arg7: memref<1xf32>):  // no predecessors
        %6322 = "equeue.read"(%arg5) {bank = 0 : i64} : (memref<1xf32>) -> f32
        %6323 = "equeue.read"(%arg6) {bank = 1 : i64} : (memref<1xf32>) -> f32
        %6324 = mulf %6322, %6323 : f32
        %6325 = "equeue.read"(%arg7) {bank = 2 : i64} : (memref<1xf32>) -> f32
        %6326 = addf %6324, %6325 : f32
        "equeue.return"(%6322, %6326) : (f32, f32) -> ()
      }) : (!equeue.signal, i32, memref<1xf32>, memref<1xf32>, memref<1xf32>) -> (!equeue.signal, f32, f32)
      %done_280, %res_281:2 = "equeue.launch"(%508, %132, %135, %133, %134) ( {
      ^bb0(%arg5: memref<1xf32>, %arg6: memref<1xf32>, %arg7: memref<1xf32>):  // no predecessors
        %6322 = "equeue.read"(%arg5) {bank = 0 : i64} : (memref<1xf32>) -> f32
        %6323 = "equeue.read"(%arg6) {bank = 1 : i64} : (memref<1xf32>) -> f32
        %6324 = mulf %6322, %6323 : f32
        %6325 = "equeue.read"(%arg7) {bank = 2 : i64} : (memref<1xf32>) -> f32
        %6326 = addf %6324, %6325 : f32
        "equeue.return"(%6322, %6326) : (f32, f32) -> ()
      }) : (!equeue.signal, i32, memref<1xf32>, memref<1xf32>, memref<1xf32>) -> (!equeue.signal, f32, f32)
      %509 = "equeue.control_and"(%done_278, %done_280) : (!equeue.signal, !equeue.signal) -> !equeue.signal
      %done_282, %res_283:2 = "equeue.launch"(%508, %138, %141, %139, %140) ( {
      ^bb0(%arg5: memref<1xf32>, %arg6: memref<1xf32>, %arg7: memref<1xf32>):  // no predecessors
        %6322 = "equeue.read"(%arg5) {bank = 0 : i64} : (memref<1xf32>) -> f32
        %6323 = "equeue.read"(%arg6) {bank = 1 : i64} : (memref<1xf32>) -> f32
        %6324 = mulf %6322, %6323 : f32
        %6325 = "equeue.read"(%arg7) {bank = 2 : i64} : (memref<1xf32>) -> f32
        %6326 = addf %6324, %6325 : f32
        "equeue.return"(%6322, %6326) : (f32, f32) -> ()
      }) : (!equeue.signal, i32, memref<1xf32>, memref<1xf32>, memref<1xf32>) -> (!equeue.signal, f32, f32)
      %510 = "equeue.control_and"(%509, %done_282) : (!equeue.signal, !equeue.signal) -> !equeue.signal
      %done_284, %res_285:2 = "equeue.launch"(%508, %156, %159, %157, %158) ( {
      ^bb0(%arg5: memref<1xf32>, %arg6: memref<1xf32>, %arg7: memref<1xf32>):  // no predecessors
        %6322 = "equeue.read"(%arg5) {bank = 0 : i64} : (memref<1xf32>) -> f32
        %6323 = "equeue.read"(%arg6) {bank = 1 : i64} : (memref<1xf32>) -> f32
        %6324 = mulf %6322, %6323 : f32
        %6325 = "equeue.read"(%arg7) {bank = 2 : i64} : (memref<1xf32>) -> f32
        %6326 = addf %6324, %6325 : f32
        "equeue.return"(%6322, %6326) : (f32, f32) -> ()
      }) : (!equeue.signal, i32, memref<1xf32>, memref<1xf32>, memref<1xf32>) -> (!equeue.signal, f32, f32)
      %511 = "equeue.control_and"(%510, %done_284) : (!equeue.signal, !equeue.signal) -> !equeue.signal
      %done_286, %res_287:2 = "equeue.launch"(%508, %162, %165, %163, %164) ( {
      ^bb0(%arg5: memref<1xf32>, %arg6: memref<1xf32>, %arg7: memref<1xf32>):  // no predecessors
        %6322 = "equeue.read"(%arg5) {bank = 0 : i64} : (memref<1xf32>) -> f32
        %6323 = "equeue.read"(%arg6) {bank = 1 : i64} : (memref<1xf32>) -> f32
        %6324 = mulf %6322, %6323 : f32
        %6325 = "equeue.read"(%arg7) {bank = 2 : i64} : (memref<1xf32>) -> f32
        %6326 = addf %6324, %6325 : f32
        "equeue.return"(%6322, %6326) : (f32, f32) -> ()
      }) : (!equeue.signal, i32, memref<1xf32>, memref<1xf32>, memref<1xf32>) -> (!equeue.signal, f32, f32)
      %512 = "equeue.control_and"(%511, %done_286) : (!equeue.signal, !equeue.signal) -> !equeue.signal
      %done_288, %res_289:2 = "equeue.launch"(%508, %168, %171, %169, %170) ( {
      ^bb0(%arg5: memref<1xf32>, %arg6: memref<1xf32>, %arg7: memref<1xf32>):  // no predecessors
        %6322 = "equeue.read"(%arg5) {bank = 0 : i64} : (memref<1xf32>) -> f32
        %6323 = "equeue.read"(%arg6) {bank = 1 : i64} : (memref<1xf32>) -> f32
        %6324 = mulf %6322, %6323 : f32
        %6325 = "equeue.read"(%arg7) {bank = 2 : i64} : (memref<1xf32>) -> f32
        %6326 = addf %6324, %6325 : f32
        "equeue.return"(%6322, %6326) : (f32, f32) -> ()
      }) : (!equeue.signal, i32, memref<1xf32>, memref<1xf32>, memref<1xf32>) -> (!equeue.signal, f32, f32)
      %513 = "equeue.control_and"(%512, %done_288) : (!equeue.signal, !equeue.signal) -> !equeue.signal
      %done_290, %res_291:2 = "equeue.launch"(%508, %186, %189, %187, %188) ( {
      ^bb0(%arg5: memref<1xf32>, %arg6: memref<1xf32>, %arg7: memref<1xf32>):  // no predecessors
        %6322 = "equeue.read"(%arg5) {bank = 0 : i64} : (memref<1xf32>) -> f32
        %6323 = "equeue.read"(%arg6) {bank = 1 : i64} : (memref<1xf32>) -> f32
        %6324 = mulf %6322, %6323 : f32
        %6325 = "equeue.read"(%arg7) {bank = 2 : i64} : (memref<1xf32>) -> f32
        %6326 = addf %6324, %6325 : f32
        "equeue.return"(%6322, %6326) : (f32, f32) -> ()
      }) : (!equeue.signal, i32, memref<1xf32>, memref<1xf32>, memref<1xf32>) -> (!equeue.signal, f32, f32)
      %514 = "equeue.control_and"(%513, %done_290) : (!equeue.signal, !equeue.signal) -> !equeue.signal
      %done_292, %res_293:2 = "equeue.launch"(%508, %192, %195, %193, %194) ( {
      ^bb0(%arg5: memref<1xf32>, %arg6: memref<1xf32>, %arg7: memref<1xf32>):  // no predecessors
        %6322 = "equeue.read"(%arg5) {bank = 0 : i64} : (memref<1xf32>) -> f32
        %6323 = "equeue.read"(%arg6) {bank = 1 : i64} : (memref<1xf32>) -> f32
        %6324 = mulf %6322, %6323 : f32
        %6325 = "equeue.read"(%arg7) {bank = 2 : i64} : (memref<1xf32>) -> f32
        %6326 = addf %6324, %6325 : f32
        "equeue.return"(%6322, %6326) : (f32, f32) -> ()
      }) : (!equeue.signal, i32, memref<1xf32>, memref<1xf32>, memref<1xf32>) -> (!equeue.signal, f32, f32)
      %515 = "equeue.control_and"(%514, %done_292) : (!equeue.signal, !equeue.signal) -> !equeue.signal
      %done_294, %res_295:2 = "equeue.launch"(%508, %198, %201, %199, %200) ( {
      ^bb0(%arg5: memref<1xf32>, %arg6: memref<1xf32>, %arg7: memref<1xf32>):  // no predecessors
        %6322 = "equeue.read"(%arg5) {bank = 0 : i64} : (memref<1xf32>) -> f32
        %6323 = "equeue.read"(%arg6) {bank = 1 : i64} : (memref<1xf32>) -> f32
        %6324 = mulf %6322, %6323 : f32
        %6325 = "equeue.read"(%arg7) {bank = 2 : i64} : (memref<1xf32>) -> f32
        %6326 = addf %6324, %6325 : f32
        "equeue.return"(%6322, %6326) : (f32, f32) -> ()
      }) : (!equeue.signal, i32, memref<1xf32>, memref<1xf32>, memref<1xf32>) -> (!equeue.signal, f32, f32)
      %516 = "equeue.control_and"(%515, %done_294) : (!equeue.signal, !equeue.signal) -> !equeue.signal
      %done_296, %res_297:2 = "equeue.launch"(%508, %216, %219, %217, %218) ( {
      ^bb0(%arg5: memref<1xf32>, %arg6: memref<1xf32>, %arg7: memref<1xf32>):  // no predecessors
        %6322 = "equeue.read"(%arg5) {bank = 0 : i64} : (memref<1xf32>) -> f32
        %6323 = "equeue.read"(%arg6) {bank = 1 : i64} : (memref<1xf32>) -> f32
        %6324 = mulf %6322, %6323 : f32
        %6325 = "equeue.read"(%arg7) {bank = 2 : i64} : (memref<1xf32>) -> f32
        %6326 = addf %6324, %6325 : f32
        "equeue.return"(%6322, %6326) : (f32, f32) -> ()
      }) : (!equeue.signal, i32, memref<1xf32>, memref<1xf32>, memref<1xf32>) -> (!equeue.signal, f32, f32)
      %517 = "equeue.control_and"(%516, %done_296) : (!equeue.signal, !equeue.signal) -> !equeue.signal
      %done_298, %res_299:2 = "equeue.launch"(%508, %222, %225, %223, %224) ( {
      ^bb0(%arg5: memref<1xf32>, %arg6: memref<1xf32>, %arg7: memref<1xf32>):  // no predecessors
        %6322 = "equeue.read"(%arg5) {bank = 0 : i64} : (memref<1xf32>) -> f32
        %6323 = "equeue.read"(%arg6) {bank = 1 : i64} : (memref<1xf32>) -> f32
        %6324 = mulf %6322, %6323 : f32
        %6325 = "equeue.read"(%arg7) {bank = 2 : i64} : (memref<1xf32>) -> f32
        %6326 = addf %6324, %6325 : f32
        "equeue.return"(%6322, %6326) : (f32, f32) -> ()
      }) : (!equeue.signal, i32, memref<1xf32>, memref<1xf32>, memref<1xf32>) -> (!equeue.signal, f32, f32)
      %518 = "equeue.control_and"(%517, %done_298) : (!equeue.signal, !equeue.signal) -> !equeue.signal
      %done_300, %res_301:2 = "equeue.launch"(%508, %228, %231, %229, %230) ( {
      ^bb0(%arg5: memref<1xf32>, %arg6: memref<1xf32>, %arg7: memref<1xf32>):  // no predecessors
        %6322 = "equeue.read"(%arg5) {bank = 0 : i64} : (memref<1xf32>) -> f32
        %6323 = "equeue.read"(%arg6) {bank = 1 : i64} : (memref<1xf32>) -> f32
        %6324 = mulf %6322, %6323 : f32
        %6325 = "equeue.read"(%arg7) {bank = 2 : i64} : (memref<1xf32>) -> f32
        %6326 = addf %6324, %6325 : f32
        "equeue.return"(%6322, %6326) : (f32, f32) -> ()
      }) : (!equeue.signal, i32, memref<1xf32>, memref<1xf32>, memref<1xf32>) -> (!equeue.signal, f32, f32)
      %519 = "equeue.control_and"(%518, %done_300) : (!equeue.signal, !equeue.signal) -> !equeue.signal
      %done_302, %res_303:2 = "equeue.launch"(%508, %246, %249, %247, %248) ( {
      ^bb0(%arg5: memref<1xf32>, %arg6: memref<1xf32>, %arg7: memref<1xf32>):  // no predecessors
        %6322 = "equeue.read"(%arg5) {bank = 0 : i64} : (memref<1xf32>) -> f32
        %6323 = "equeue.read"(%arg6) {bank = 1 : i64} : (memref<1xf32>) -> f32
        %6324 = mulf %6322, %6323 : f32
        %6325 = "equeue.read"(%arg7) {bank = 2 : i64} : (memref<1xf32>) -> f32
        %6326 = addf %6324, %6325 : f32
        "equeue.return"(%6322, %6326) : (f32, f32) -> ()
      }) : (!equeue.signal, i32, memref<1xf32>, memref<1xf32>, memref<1xf32>) -> (!equeue.signal, f32, f32)
      %520 = "equeue.control_and"(%519, %done_302) : (!equeue.signal, !equeue.signal) -> !equeue.signal
      %done_304, %res_305:2 = "equeue.launch"(%508, %252, %255, %253, %254) ( {
      ^bb0(%arg5: memref<1xf32>, %arg6: memref<1xf32>, %arg7: memref<1xf32>):  // no predecessors
        %6322 = "equeue.read"(%arg5) {bank = 0 : i64} : (memref<1xf32>) -> f32
        %6323 = "equeue.read"(%arg6) {bank = 1 : i64} : (memref<1xf32>) -> f32
        %6324 = mulf %6322, %6323 : f32
        %6325 = "equeue.read"(%arg7) {bank = 2 : i64} : (memref<1xf32>) -> f32
        %6326 = addf %6324, %6325 : f32
        "equeue.return"(%6322, %6326) : (f32, f32) -> ()
      }) : (!equeue.signal, i32, memref<1xf32>, memref<1xf32>, memref<1xf32>) -> (!equeue.signal, f32, f32)
      %521 = "equeue.control_and"(%520, %done_304) : (!equeue.signal, !equeue.signal) -> !equeue.signal
      %done_306, %res_307:2 = "equeue.launch"(%508, %258, %261, %259, %260) ( {
      ^bb0(%arg5: memref<1xf32>, %arg6: memref<1xf32>, %arg7: memref<1xf32>):  // no predecessors
        %6322 = "equeue.read"(%arg5) {bank = 0 : i64} : (memref<1xf32>) -> f32
        %6323 = "equeue.read"(%arg6) {bank = 1 : i64} : (memref<1xf32>) -> f32
        %6324 = mulf %6322, %6323 : f32
        %6325 = "equeue.read"(%arg7) {bank = 2 : i64} : (memref<1xf32>) -> f32
        %6326 = addf %6324, %6325 : f32
        "equeue.return"(%6322, %6326) : (f32, f32) -> ()
      }) : (!equeue.signal, i32, memref<1xf32>, memref<1xf32>, memref<1xf32>) -> (!equeue.signal, f32, f32)
      %522 = "equeue.control_and"(%521, %done_306) : (!equeue.signal, !equeue.signal) -> !equeue.signal
      "equeue.await"(%522) : (!equeue.signal) -> ()
      %523 = "equeue.control_start"() : () -> !equeue.signal
      %done_308 = "equeue.launch"(%523, %126, %res_279#0, %res_279#1, %135, %158, %123) ( {
      ^bb0(%arg5: f32, %arg6: f32, %arg7: memref<1xf32>, %arg8: memref<1xf32>, %arg9: memref<3x3x3xf32>):  // no predecessors
        "equeue.write"(%arg5, %arg7) {bank = 0 : i64} : (f32, memref<1xf32>) -> ()
        "equeue.write"(%arg6, %arg8) {bank = 2 : i64} : (f32, memref<1xf32>) -> ()
        "equeue.return"() : () -> ()
      }) : (!equeue.signal, i32, f32, f32, memref<1xf32>, memref<1xf32>, memref<3x3x3xf32>) -> !equeue.signal
      %done_309 = "equeue.launch"(%523, %132, %res_281#0, %res_281#1, %141, %164, %123) ( {
      ^bb0(%arg5: f32, %arg6: f32, %arg7: memref<1xf32>, %arg8: memref<1xf32>, %arg9: memref<3x3x3xf32>):  // no predecessors
        "equeue.write"(%arg5, %arg7) {bank = 0 : i64} : (f32, memref<1xf32>) -> ()
        "equeue.write"(%arg6, %arg8) {bank = 2 : i64} : (f32, memref<1xf32>) -> ()
        "equeue.return"() : () -> ()
      }) : (!equeue.signal, i32, f32, f32, memref<1xf32>, memref<1xf32>, memref<3x3x3xf32>) -> !equeue.signal
      %524 = "equeue.control_and"(%done_308, %done_309) : (!equeue.signal, !equeue.signal) -> !equeue.signal
      %done_310 = "equeue.launch"(%523, %138, %res_283#1, %170, %123) ( {
      ^bb0(%arg5: f32, %arg6: memref<1xf32>, %arg7: memref<3x3x3xf32>):  // no predecessors
        "equeue.write"(%arg5, %arg6) {bank = 2 : i64} : (f32, memref<1xf32>) -> ()
        "equeue.return"() : () -> ()
      }) : (!equeue.signal, i32, f32, memref<1xf32>, memref<3x3x3xf32>) -> !equeue.signal
      %525 = "equeue.control_and"(%524, %done_310) : (!equeue.signal, !equeue.signal) -> !equeue.signal
      %done_311 = "equeue.launch"(%523, %156, %res_285#0, %res_285#1, %165, %188, %123) ( {
      ^bb0(%arg5: f32, %arg6: f32, %arg7: memref<1xf32>, %arg8: memref<1xf32>, %arg9: memref<3x3x3xf32>):  // no predecessors
        "equeue.write"(%arg5, %arg7) {bank = 0 : i64} : (f32, memref<1xf32>) -> ()
        "equeue.write"(%arg6, %arg8) {bank = 2 : i64} : (f32, memref<1xf32>) -> ()
        "equeue.return"() : () -> ()
      }) : (!equeue.signal, i32, f32, f32, memref<1xf32>, memref<1xf32>, memref<3x3x3xf32>) -> !equeue.signal
      %526 = "equeue.control_and"(%525, %done_311) : (!equeue.signal, !equeue.signal) -> !equeue.signal
      %done_312 = "equeue.launch"(%523, %162, %res_287#0, %res_287#1, %171, %194, %123) ( {
      ^bb0(%arg5: f32, %arg6: f32, %arg7: memref<1xf32>, %arg8: memref<1xf32>, %arg9: memref<3x3x3xf32>):  // no predecessors
        "equeue.write"(%arg5, %arg7) {bank = 0 : i64} : (f32, memref<1xf32>) -> ()
        "equeue.write"(%arg6, %arg8) {bank = 2 : i64} : (f32, memref<1xf32>) -> ()
        "equeue.return"() : () -> ()
      }) : (!equeue.signal, i32, f32, f32, memref<1xf32>, memref<1xf32>, memref<3x3x3xf32>) -> !equeue.signal
      %527 = "equeue.control_and"(%526, %done_312) : (!equeue.signal, !equeue.signal) -> !equeue.signal
      %done_313 = "equeue.launch"(%523, %168, %res_289#1, %200, %123) ( {
      ^bb0(%arg5: f32, %arg6: memref<1xf32>, %arg7: memref<3x3x3xf32>):  // no predecessors
        "equeue.write"(%arg5, %arg6) {bank = 2 : i64} : (f32, memref<1xf32>) -> ()
        "equeue.return"() : () -> ()
      }) : (!equeue.signal, i32, f32, memref<1xf32>, memref<3x3x3xf32>) -> !equeue.signal
      %528 = "equeue.control_and"(%527, %done_313) : (!equeue.signal, !equeue.signal) -> !equeue.signal
      %done_314 = "equeue.launch"(%523, %186, %res_291#0, %res_291#1, %195, %218, %123) ( {
      ^bb0(%arg5: f32, %arg6: f32, %arg7: memref<1xf32>, %arg8: memref<1xf32>, %arg9: memref<3x3x3xf32>):  // no predecessors
        "equeue.write"(%arg5, %arg7) {bank = 0 : i64} : (f32, memref<1xf32>) -> ()
        "equeue.write"(%arg6, %arg8) {bank = 2 : i64} : (f32, memref<1xf32>) -> ()
        "equeue.return"() : () -> ()
      }) : (!equeue.signal, i32, f32, f32, memref<1xf32>, memref<1xf32>, memref<3x3x3xf32>) -> !equeue.signal
      %529 = "equeue.control_and"(%528, %done_314) : (!equeue.signal, !equeue.signal) -> !equeue.signal
      %done_315 = "equeue.launch"(%523, %192, %res_293#0, %res_293#1, %201, %224, %123) ( {
      ^bb0(%arg5: f32, %arg6: f32, %arg7: memref<1xf32>, %arg8: memref<1xf32>, %arg9: memref<3x3x3xf32>):  // no predecessors
        "equeue.write"(%arg5, %arg7) {bank = 0 : i64} : (f32, memref<1xf32>) -> ()
        "equeue.write"(%arg6, %arg8) {bank = 2 : i64} : (f32, memref<1xf32>) -> ()
        "equeue.return"() : () -> ()
      }) : (!equeue.signal, i32, f32, f32, memref<1xf32>, memref<1xf32>, memref<3x3x3xf32>) -> !equeue.signal
      %530 = "equeue.control_and"(%529, %done_315) : (!equeue.signal, !equeue.signal) -> !equeue.signal
      %done_316 = "equeue.launch"(%523, %198, %res_295#1, %230, %123) ( {
      ^bb0(%arg5: f32, %arg6: memref<1xf32>, %arg7: memref<3x3x3xf32>):  // no predecessors
        "equeue.write"(%arg5, %arg6) {bank = 2 : i64} : (f32, memref<1xf32>) -> ()
        "equeue.return"() : () -> ()
      }) : (!equeue.signal, i32, f32, memref<1xf32>, memref<3x3x3xf32>) -> !equeue.signal
      %531 = "equeue.control_and"(%530, %done_316) : (!equeue.signal, !equeue.signal) -> !equeue.signal
      %done_317 = "equeue.launch"(%523, %216, %res_297#0, %res_297#1, %225, %248, %123) ( {
      ^bb0(%arg5: f32, %arg6: f32, %arg7: memref<1xf32>, %arg8: memref<1xf32>, %arg9: memref<3x3x3xf32>):  // no predecessors
        "equeue.write"(%arg5, %arg7) {bank = 0 : i64} : (f32, memref<1xf32>) -> ()
        "equeue.write"(%arg6, %arg8) {bank = 2 : i64} : (f32, memref<1xf32>) -> ()
        "equeue.return"() : () -> ()
      }) : (!equeue.signal, i32, f32, f32, memref<1xf32>, memref<1xf32>, memref<3x3x3xf32>) -> !equeue.signal
      %532 = "equeue.control_and"(%531, %done_317) : (!equeue.signal, !equeue.signal) -> !equeue.signal
      %done_318 = "equeue.launch"(%523, %222, %res_299#0, %res_299#1, %231, %254, %123) ( {
      ^bb0(%arg5: f32, %arg6: f32, %arg7: memref<1xf32>, %arg8: memref<1xf32>, %arg9: memref<3x3x3xf32>):  // no predecessors
        "equeue.write"(%arg5, %arg7) {bank = 0 : i64} : (f32, memref<1xf32>) -> ()
        "equeue.write"(%arg6, %arg8) {bank = 2 : i64} : (f32, memref<1xf32>) -> ()
        "equeue.return"() : () -> ()
      }) : (!equeue.signal, i32, f32, f32, memref<1xf32>, memref<1xf32>, memref<3x3x3xf32>) -> !equeue.signal
      %533 = "equeue.control_and"(%532, %done_318) : (!equeue.signal, !equeue.signal) -> !equeue.signal
      %done_319 = "equeue.launch"(%523, %228, %res_301#1, %260, %123) ( {
…
        "equeue.return"(%6322, %6326) : (f32, f32) -> ()
      }) : (!equeue.signal, i32, memref<1xf32>, memref<1xf32>, memref<1xf32>) -> (!equeue.signal, f32, f32)
      %6243 = "equeue.control_and"(%6242, %done_8079) : (!equeue.signal, !equeue.signal) -> !equeue.signal
      %done_8081, %res_8082:2 = "equeue.launch"(%6230, %258, %261, %259, %260) ( {
      ^bb0(%arg5: memref<1xf32>, %arg6: memref<1xf32>, %arg7: memref<1xf32>):  // no predecessors
        %6322 = "equeue.read"(%arg5) {bank = 0 : i64} : (memref<1xf32>) -> f32
        %6323 = "equeue.read"(%arg6) {bank = 1 : i64} : (memref<1xf32>) -> f32
        %6324 = mulf %6322, %6323 : f32
        %6325 = "equeue.read"(%arg7) {bank = 2 : i64} : (memref<1xf32>) -> f32
        %6326 = addf %6324, %6325 : f32
        "equeue.return"(%6322, %6326) : (f32, f32) -> ()
      }) : (!equeue.signal, i32, memref<1xf32>, memref<1xf32>, memref<1xf32>) -> (!equeue.signal, f32, f32)
      %6244 = "equeue.control_and"(%6243, %done_8081) : (!equeue.signal, !equeue.signal) -> !equeue.signal
      "equeue.await"(%6244) : (!equeue.signal) -> ()
      %6245 = "equeue.control_start"() : () -> !equeue.signal
      %done_8083 = "equeue.launch"(%6245, %126, %res_8054#0, %res_8054#1, %135, %158, %123) ( {
      ^bb0(%arg5: f32, %arg6: f32, %arg7: memref<1xf32>, %arg8: memref<1xf32>, %arg9: memref<3x3x3xf32>):  // no predecessors
        "equeue.write"(%arg5, %arg7) {bank = 0 : i64} : (f32, memref<1xf32>) -> ()
        "equeue.write"(%arg6, %arg8) {bank = 2 : i64} : (f32, memref<1xf32>) -> ()
        "equeue.return"() : () -> ()
      }) : (!equeue.signal, i32, f32, f32, memref<1xf32>, memref<1xf32>, memref<3x3x3xf32>) -> !equeue.signal
      %done_8084 = "equeue.launch"(%6245, %132, %res_8056#0, %res_8056#1, %141, %164, %123) ( {
      ^bb0(%arg5: f32, %arg6: f32, %arg7: memref<1xf32>, %arg8: memref<1xf32>, %arg9: memref<3x3x3xf32>):  // no predecessors
        "equeue.write"(%arg5, %arg7) {bank = 0 : i64} : (f32, memref<1xf32>) -> ()
        "equeue.write"(%arg6, %arg8) {bank = 2 : i64} : (f32, memref<1xf32>) -> ()
        "equeue.return"() : () -> ()
      }) : (!equeue.signal, i32, f32, f32, memref<1xf32>, memref<1xf32>, memref<3x3x3xf32>) -> !equeue.signal
      %6246 = "equeue.control_and"(%done_8083, %done_8084) : (!equeue.signal, !equeue.signal) -> !equeue.signal
      %done_8085 = "equeue.launch"(%6245, %138, %res_8058#1, %170, %123) ( {
      ^bb0(%arg5: f32, %arg6: memref<1xf32>, %arg7: memref<3x3x3xf32>):  // no predecessors
        "equeue.write"(%arg5, %arg6) {bank = 2 : i64} : (f32, memref<1xf32>) -> ()
        "equeue.return"() : () -> ()
      }) : (!equeue.signal, i32, f32, memref<1xf32>, memref<3x3x3xf32>) -> !equeue.signal
      %6247 = "equeue.control_and"(%6246, %done_8085) : (!equeue.signal, !equeue.signal) -> !equeue.signal
      %done_8086 = "equeue.launch"(%6245, %156, %res_8060#0, %res_8060#1, %165, %188, %123) ( {
      ^bb0(%arg5: f32, %arg6: f32, %arg7: memref<1xf32>, %arg8: memref<1xf32>, %arg9: memref<3x3x3xf32>):  // no predecessors
        "equeue.write"(%arg5, %arg7) {bank = 0 : i64} : (f32, memref<1xf32>) -> ()
        "equeue.write"(%arg6, %arg8) {bank = 2 : i64} : (f32, memref<1xf32>) -> ()
        "equeue.return"() : () -> ()
      }) : (!equeue.signal, i32, f32, f32, memref<1xf32>, memref<1xf32>, memref<3x3x3xf32>) -> !equeue.signal
      %6248 = "equeue.control_and"(%6247, %done_8086) : (!equeue.signal, !equeue.signal) -> !equeue.signal
      %done_8087 = "equeue.launch"(%6245, %162, %res_8062#0, %res_8062#1, %171, %194, %123) ( {
      ^bb0(%arg5: f32, %arg6: f32, %arg7: memref<1xf32>, %arg8: memref<1xf32>, %arg9: memref<3x3x3xf32>):  // no predecessors
        "equeue.write"(%arg5, %arg7) {bank = 0 : i64} : (f32, memref<1xf32>) -> ()
        "equeue.write"(%arg6, %arg8) {bank = 2 : i64} : (f32, memref<1xf32>) -> ()
        "equeue.return"() : () -> ()
      }) : (!equeue.signal, i32, f32, f32, memref<1xf32>, memref<1xf32>, memref<3x3x3xf32>) -> !equeue.signal
      %6249 = "equeue.control_and"(%6248, %done_8087) : (!equeue.signal, !equeue.signal) -> !equeue.signal
      %done_8088 = "equeue.launch"(%6245, %168, %res_8064#1, %200, %123) ( {
      ^bb0(%arg5: f32, %arg6: memref<1xf32>, %arg7: memref<3x3x3xf32>):  // no predecessors
        "equeue.write"(%arg5, %arg6) {bank = 2 : i64} : (f32, memref<1xf32>) -> ()
        "equeue.return"() : () -> ()
      }) : (!equeue.signal, i32, f32, memref<1xf32>, memref<3x3x3xf32>) -> !equeue.signal
      %6250 = "equeue.control_and"(%6249, %done_8088) : (!equeue.signal, !equeue.signal) -> !equeue.signal
      %done_8089 = "equeue.launch"(%6245, %186, %res_8066#0, %res_8066#1, %195, %218, %123) ( {
      ^bb0(%arg5: f32, %arg6: f32, %arg7: memref<1xf32>, %arg8: memref<1xf32>, %arg9: memref<3x3x3xf32>):  // no predecessors
        "equeue.write"(%arg5, %arg7) {bank = 0 : i64} : (f32, memref<1xf32>) -> ()
        "equeue.write"(%arg6, %arg8) {bank = 2 : i64} : (f32, memref<1xf32>) -> ()
        "equeue.return"() : () -> ()
      }) : (!equeue.signal, i32, f32, f32, memref<1xf32>, memref<1xf32>, memref<3x3x3xf32>) -> !equeue.signal
      %6251 = "equeue.control_and"(%6250, %done_8089) : (!equeue.signal, !equeue.signal) -> !equeue.signal
      %done_8090 = "equeue.launch"(%6245, %192, %res_8068#0, %res_8068#1, %201, %224, %123) ( {
      ^bb0(%arg5: f32, %arg6: f32, %arg7: memref<1xf32>, %arg8: memref<1xf32>, %arg9: memref<3x3x3xf32>):  // no predecessors
        "equeue.write"(%arg5, %arg7) {bank = 0 : i64} : (f32, memref<1xf32>) -> ()
        "equeue.write"(%arg6, %arg8) {bank = 2 : i64} : (f32, memref<1xf32>) -> ()
        "equeue.return"() : () -> ()
      }) : (!equeue.signal, i32, f32, f32, memref<1xf32>, memref<1xf32>, memref<3x3x3xf32>) -> !equeue.signal
      %6252 = "equeue.control_and"(%6251, %done_8090) : (!equeue.signal, !equeue.signal) -> !equeue.signal
      %done_8091 = "equeue.launch"(%6245, %198, %res_8070#1, %230, %123) ( {
      ^bb0(%arg5: f32, %arg6: memref<1xf32>, %arg7: memref<3x3x3xf32>):  // no predecessors
        "equeue.write"(%arg5, %arg6) {bank = 2 : i64} : (f32, memref<1xf32>) -> ()
        "equeue.return"() : () -> ()
      }) : (!equeue.signal, i32, f32, memref<1xf32>, memref<3x3x3xf32>) -> !equeue.signal
      %6253 = "equeue.control_and"(%6252, %done_8091) : (!equeue.signal, !equeue.signal) -> !equeue.signal
      %done_8092 = "equeue.launch"(%6245, %216, %res_8072#0, %res_8072#1, %225, %248, %123) ( {
      ^bb0(%arg5: f32, %arg6: f32, %arg7: memref<1xf32>, %arg8: memref<1xf32>, %arg9: memref<3x3x3xf32>):  // no predecessors
        "equeue.write"(%arg5, %arg7) {bank = 0 : i64} : (f32, memref<1xf32>) -> ()
        "equeue.write"(%arg6, %arg8) {bank = 2 : i64} : (f32, memref<1xf32>) -> ()
        "equeue.return"() : () -> ()
      }) : (!equeue.signal, i32, f32, f32, memref<1xf32>, memref<1xf32>, memref<3x3x3xf32>) -> !equeue.signal
      %6254 = "equeue.control_and"(%6253, %done_8092) : (!equeue.signal, !equeue.signal) -> !equeue.signal
      %done_8093 = "equeue.launch"(%6245, %222, %res_8074#0, %res_8074#1, %231, %254, %123) ( {
      ^bb0(%arg5: f32, %arg6: f32, %arg7: memref<1xf32>, %arg8: memref<1xf32>, %arg9: memref<3x3x3xf32>):  // no predecessors
        "equeue.write"(%arg5, %arg7) {bank = 0 : i64} : (f32, memref<1xf32>) -> ()
        "equeue.write"(%arg6, %arg8) {bank = 2 : i64} : (f32, memref<1xf32>) -> ()
        "equeue.return"() : () -> ()
      }) : (!equeue.signal, i32, f32, f32, memref<1xf32>, memref<1xf32>, memref<3x3x3xf32>) -> !equeue.signal
      %6255 = "equeue.control_and"(%6254, %done_8093) : (!equeue.signal, !equeue.signal) -> !equeue.signal
      %done_8094 = "equeue.launch"(%6245, %228, %res_8076#1, %260, %123) ( {
      ^bb0(%arg5: f32, %arg6: memref<1xf32>, %arg7: memref<3x3x3xf32>):  // no predecessors
        "equeue.write"(%arg5, %arg6) {bank = 2 : i64} : (f32, memref<1xf32>) -> ()
        "equeue.return"() : () -> ()
      }) : (!equeue.signal, i32, f32, memref<1xf32>, memref<3x3x3xf32>) -> !equeue.signal
      %6256 = "equeue.control_and"(%6255, %done_8094) : (!equeue.signal, !equeue.signal) -> !equeue.signal
      %done_8095 = "equeue.launch"(%6245, %246, %res_8078#0, %res_8078#1, %255, %123) ( {
      ^bb0(%arg5: f32, %arg6: f32, %arg7: memref<1xf32>, %arg8: memref<3x3x3xf32>):  // no predecessors
        "equeue.write"(%arg5, %arg7) {bank = 0 : i64} : (f32, memref<1xf32>) -> ()
        "equeue.return"() : () -> ()
      }) : (!equeue.signal, i32, f32, f32, memref<1xf32>, memref<3x3x3xf32>) -> !equeue.signal
      %6257 = "equeue.control_and"(%6256, %done_8095) : (!equeue.signal, !equeue.signal) -> !equeue.signal
      %done_8096 = "equeue.launch"(%6245, %252, %res_8080#0, %res_8080#1, %261, %123) ( {
      ^bb0(%arg5: f32, %arg6: f32, %arg7: memref<1xf32>, %arg8: memref<3x3x3xf32>):  // no predecessors
        "equeue.write"(%arg5, %arg7) {bank = 0 : i64} : (f32, memref<1xf32>) -> ()
        "equeue.return"() : () -> ()
      }) : (!equeue.signal, i32, f32, f32, memref<1xf32>, memref<3x3x3xf32>) -> !equeue.signal
      %6258 = "equeue.control_and"(%6257, %done_8096) : (!equeue.signal, !equeue.signal) -> !equeue.signal
      %done_8097 = "equeue.launch"(%6245, %258, %res_8082#1, %123) ( {
      ^bb0(%arg5: f32, %arg6: memref<3x3x3xf32>):  // no predecessors
        "equeue.return"() : () -> ()
      }) : (!equeue.signal, i32, f32, memref<3x3x3xf32>) -> !equeue.signal
      %6259 = "equeue.control_and"(%6258, %done_8097) : (!equeue.signal, !equeue.signal) -> !equeue.signal
      "equeue.await"(%6259) : (!equeue.signal) -> ()
      %6260 = "equeue.control_start"() : () -> !equeue.signal
      "equeue.await"(%6260) : (!equeue.signal) -> ()
      %6261 = "equeue.control_start"() : () -> !equeue.signal
      %done_8098, %res_8099:2 = "equeue.launch"(%6261, %126, %129, %127, %128) ( {
      ^bb0(%arg5: memref<1xf32>, %arg6: memref<1xf32>, %arg7: memref<1xf32>):  // no predecessors
        %6322 = "equeue.read"(%arg5) {bank = 0 : i64} : (memref<1xf32>) -> f32
        %6323 = "equeue.read"(%arg6) {bank = 1 : i64} : (memref<1xf32>) -> f32
        %6324 = mulf %6322, %6323 : f32
        %6325 = "equeue.read"(%arg7) {bank = 2 : i64} : (memref<1xf32>) -> f32
        %6326 = addf %6324, %6325 : f32
        "equeue.return"(%6322, %6326) : (f32, f32) -> ()
      }) : (!equeue.signal, i32, memref<1xf32>, memref<1xf32>, memref<1xf32>) -> (!equeue.signal, f32, f32)
      %done_8100, %res_8101:2 = "equeue.launch"(%6261, %132, %135, %133, %134) ( {
      ^bb0(%arg5: memref<1xf32>, %arg6: memref<1xf32>, %arg7: memref<1xf32>):  // no predecessors
        %6322 = "equeue.read"(%arg5) {bank = 0 : i64} : (memref<1xf32>) -> f32
        %6323 = "equeue.read"(%arg6) {bank = 1 : i64} : (memref<1xf32>) -> f32
        %6324 = mulf %6322, %6323 : f32
        %6325 = "equeue.read"(%arg7) {bank = 2 : i64} : (memref<1xf32>) -> f32
        %6326 = addf %6324, %6325 : f32
        "equeue.return"(%6322, %6326) : (f32, f32) -> ()
      }) : (!equeue.signal, i32, memref<1xf32>, memref<1xf32>, memref<1xf32>) -> (!equeue.signal, f32, f32)
      %6262 = "equeue.control_and"(%done_8098, %done_8100) : (!equeue.signal, !equeue.signal) -> !equeue.signal
      %done_8102, %res_8103:2 = "equeue.launch"(%6261, %138, %141, %139, %140) ( {
      ^bb0(%arg5: memref<1xf32>, %arg6: memref<1xf32>, %arg7: memref<1xf32>):  // no predecessors
        %6322 = "equeue.read"(%arg5) {bank = 0 : i64} : (memref<1xf32>) -> f32
        %6323 = "equeue.read"(%arg6) {bank = 1 : i64} : (memref<1xf32>) -> f32
        %6324 = mulf %6322, %6323 : f32
        %6325 = "equeue.read"(%arg7) {bank = 2 : i64} : (memref<1xf32>) -> f32
        %6326 = addf %6324, %6325 : f32
        "equeue.return"(%6322, %6326) : (f32, f32) -> ()
      }) : (!equeue.signal, i32, memref<1xf32>, memref<1xf32>, memref<1xf32>) -> (!equeue.signal, f32, f32)
      %6263 = "equeue.control_and"(%6262, %done_8102) : (!equeue.signal, !equeue.signal) -> !equeue.signal
      %done_8104, %res_8105:2 = "equeue.launch"(%6261, %156, %159, %157, %158) ( {
      ^bb0(%arg5: memref<1xf32>, %arg6: memref<1xf32>, %arg7: memref<1xf32>):  // no predecessors
        %6322 = "equeue.read"(%arg5) {bank = 0 : i64} : (memref<1xf32>) -> f32
        %6323 = "equeue.read"(%arg6) {bank = 1 : i64} : (memref<1xf32>) -> f32
        %6324 = mulf %6322, %6323 : f32
        %6325 = "equeue.read"(%arg7) {bank = 2 : i64} : (memref<1xf32>) -> f32
        %6326 = addf %6324, %6325 : f32
        "equeue.return"(%6322, %6326) : (f32, f32) -> ()
      }) : (!equeue.signal, i32, memref<1xf32>, memref<1xf32>, memref<1xf32>) -> (!equeue.signal, f32, f32)
      %6264 = "equeue.control_and"(%6263, %done_8104) : (!equeue.signal, !equeue.signal) -> !equeue.signal
      %done_8106, %res_8107:2 = "equeue.launch"(%6261, %162, %165, %163, %164) ( {
      ^bb0(%arg5: memref<1xf32>, %arg6: memref<1xf32>, %arg7: memref<1xf32>):  // no predecessors
        %6322 = "equeue.read"(%arg5) {bank = 0 : i64} : (memref<1xf32>) -> f32
        %6323 = "equeue.read"(%arg6) {bank = 1 : i64} : (memref<1xf32>) -> f32
        %6324 = mulf %6322, %6323 : f32
        %6325 = "equeue.read"(%arg7) {bank = 2 : i64} : (memref<1xf32>) -> f32
        %6326 = addf %6324, %6325 : f32
        "equeue.return"(%6322, %6326) : (f32, f32) -> ()
      }) : (!equeue.signal, i32, memref<1xf32>, memref<1xf32>, memref<1xf32>) -> (!equeue.signal, f32, f32)
      %6265 = "equeue.control_and"(%6264, %done_8106) : (!equeue.signal, !equeue.signal) -> !equeue.signal
      %done_8108, %res_8109:2 = "equeue.launch"(%6261, %168, %171, %169, %170) ( {
      ^bb0(%arg5: memref<1xf32>, %arg6: memref<1xf32>, %arg7: memref<1xf32>):  // no predecessors
        %6322 = "equeue.read"(%arg5) {bank = 0 : i64} : (memref<1xf32>) -> f32
        %6323 = "equeue.read"(%arg6) {bank = 1 : i64} : (memref<1xf32>) -> f32
        %6324 = mulf %6322, %6323 : f32
        %6325 = "equeue.read"(%arg7) {bank = 2 : i64} : (memref<1xf32>) -> f32
        %6326 = addf %6324, %6325 : f32
        "equeue.return"(%6322, %6326) : (f32, f32) -> ()
      }) : (!equeue.signal, i32, memref<1xf32>, memref<1xf32>, memref<1xf32>) -> (!equeue.signal, f32, f32)
      %6266 = "equeue.control_and"(%6265, %done_8108) : (!equeue.signal, !equeue.signal) -> !equeue.signal
      %done_8110, %res_8111:2 = "equeue.launch"(%6261, %186, %189, %187, %188) ( {
      ^bb0(%arg5: memref<1xf32>, %arg6: memref<1xf32>, %arg7: memref<1xf32>):  // no predecessors
        %6322 = "equeue.read"(%arg5) {bank = 0 : i64} : (memref<1xf32>) -> f32
        %6323 = "equeue.read"(%arg6) {bank = 1 : i64} : (memref<1xf32>) -> f32
        %6324 = mulf %6322, %6323 : f32
        %6325 = "equeue.read"(%arg7) {bank = 2 : i64} : (memref<1xf32>) -> f32
        %6326 = addf %6324, %6325 : f32
        "equeue.return"(%6322, %6326) : (f32, f32) -> ()
      }) : (!equeue.signal, i32, memref<1xf32>, memref<1xf32>, memref<1xf32>) -> (!equeue.signal, f32, f32)
      %6267 = "equeue.control_and"(%6266, %done_8110) : (!equeue.signal, !equeue.signal) -> !equeue.signal
      %done_8112, %res_8113:2 = "equeue.launch"(%6261, %192, %195, %193, %194) ( {
      ^bb0(%arg5: memref<1xf32>, %arg6: memref<1xf32>, %arg7: memref<1xf32>):  // no predecessors
        %6322 = "equeue.read"(%arg5) {bank = 0 : i64} : (memref<1xf32>) -> f32
        %6323 = "equeue.read"(%arg6) {bank = 1 : i64} : (memref<1xf32>) -> f32
        %6324 = mulf %6322, %6323 : f32
        %6325 = "equeue.read"(%arg7) {bank = 2 : i64} : (memref<1xf32>) -> f32
        %6326 = addf %6324, %6325 : f32
        "equeue.return"(%6322, %6326) : (f32, f32) -> ()
      }) : (!equeue.signal, i32, memref<1xf32>, memref<1xf32>, memref<1xf32>) -> (!equeue.signal, f32, f32)
      %6268 = "equeue.control_and"(%6267, %done_8112) : (!equeue.signal, !equeue.signal) -> !equeue.signal
      %done_8114, %res_8115:2 = "equeue.launch"(%6261, %198, %201, %199, %200) ( {
      ^bb0(%arg5: memref<1xf32>, %arg6: memref<1xf32>, %arg7: memref<1xf32>):  // no predecessors
        %6322 = "equeue.read"(%arg5) {bank = 0 : i64} : (memref<1xf32>) -> f32
        %6323 = "equeue.read"(%arg6) {bank = 1 : i64} : (memref<1xf32>) -> f32
        %6324 = mulf %6322, %6323 : f32
        %6325 = "equeue.read"(%arg7) {bank = 2 : i64} : (memref<1xf32>) -> f32
        %6326 = addf %6324, %6325 : f32
        "equeue.return"(%6322, %6326) : (f32, f32) -> ()
      }) : (!equeue.signal, i32, memref<1xf32>, memref<1xf32>, memref<1xf32>) -> (!equeue.signal, f32, f32)
      %6269 = "equeue.control_and"(%6268, %done_8114) : (!equeue.signal, !equeue.signal) -> !equeue.signal
      %done_8116, %res_8117:2 = "equeue.launch"(%6261, %216, %219, %217, %218) ( {
      ^bb0(%arg5: memref<1xf32>, %arg6: memref<1xf32>, %arg7: memref<1xf32>):  // no predecessors
        %6322 = "equeue.read"(%arg5) {bank = 0 : i64} : (memref<1xf32>) -> f32
        %6323 = "equeue.read"(%arg6) {bank = 1 : i64} : (memref<1xf32>) -> f32
        %6324 = mulf %6322, %6323 : f32
        %6325 = "equeue.read"(%arg7) {bank = 2 : i64} : (memref<1xf32>) -> f32
        %6326 = addf %6324, %6325 : f32
        "equeue.return"(%6322, %6326) : (f32, f32) -> ()
      }) : (!equeue.signal, i32, memref<1xf32>, memref<1xf32>, memref<1xf32>) -> (!equeue.signal, f32, f32)
      %6270 = "equeue.control_and"(%6269, %done_8116) : (!equeue.signal, !equeue.signal) -> !equeue.signal
      %done_8118, %res_8119:2 = "equeue.launch"(%6261, %222, %225, %223, %224) ( {
      ^bb0(%arg5: memref<1xf32>, %arg6: memref<1xf32>, %arg7: memref<1xf32>):  // no predecessors
        %6322 = "equeue.read"(%arg5) {bank = 0 : i64} : (memref<1xf32>) -> f32
        %6323 = "equeue.read"(%arg6) {bank = 1 : i64} : (memref<1xf32>) -> f32
        %6324 = mulf %6322, %6323 : f32
        %6325 = "equeue.read"(%arg7) {bank = 2 : i64} : (memref<1xf32>) -> f32
        %6326 = addf %6324, %6325 : f32
        "equeue.return"(%6322, %6326) : (f32, f32) -> ()
      }) : (!equeue.signal, i32, memref<1xf32>, memref<1xf32>, memref<1xf32>) -> (!equeue.signal, f32, f32)
      %6271 = "equeue.control_and"(%6270, %done_8118) : (!equeue.signal, !equeue.signal) -> !equeue.signal
      %done_8120, %res_8121:2 = "equeue.launch"(%6261, %228, %231, %229, %230) ( {
      ^bb0(%arg5: memref<1xf32>, %arg6: memref<1xf32>, %arg7: memref<1xf32>):  // no predecessors
        %6322 = "equeue.read"(%arg5) {bank = 0 : i64} : (memref<1xf32>) -> f32
        %6323 = "equeue.read"(%arg6) {bank = 1 : i64} : (memref<1xf32>) -> f32
        %6324 = mulf %6322, %6323 : f32
        %6325 = "equeue.read"(%arg7) {bank = 2 : i64} : (memref<1xf32>) -> f32
        %6326 = addf %6324, %6325 : f32
        "equeue.return"(%6322, %6326) : (f32, f32) -> ()
      }) : (!equeue.signal, i32, memref<1xf32>, memref<1xf32>, memref<1xf32>) -> (!equeue.signal, f32, f32)
      %6272 = "equeue.control_and"(%6271, %done_8120) : (!equeue.signal, !equeue.signal) -> !equeue.signal
      %done_8122, %res_8123:2 = "equeue.launch"(%6261, %246, %249, %247, %248) ( {
      ^bb0(%arg5: memref<1xf32>, %arg6: memref<1xf32>, %arg7: memref<1xf32>):  // no predecessors
        %6322 = "equeue.read"(%arg5) {bank = 0 : i64} : (memref<1xf32>) -> f32
        %6323 = "equeue.read"(%arg6) {bank = 1 : i64} : (memref<1xf32>) -> f32
        %6324 = mulf %6322, %6323 : f32
        %6325 = "equeue.read"(%arg7) {bank = 2 : i64} : (memref<1xf32>) -> f32
        %6326 = addf %6324, %6325 : f32
        "equeue.return"(%6322, %6326) : (f32, f32) -> ()
      }) : (!equeue.signal, i32, memref<1xf32>, memref<1xf32>, memref<1xf32>) -> (!equeue.signal, f32, f32)
      %6273 = "equeue.control_and"(%6272, %done_8122) : (!equeue.signal, !equeue.signal) -> !equeue.signal
      %done_8124, %res_8125:2 = "equeue.launch"(%6261, %252, %255, %253, %254) ( {
      ^bb0(%arg5: memref<1xf32>, %arg6: memref<1xf32>, %arg7: memref<1xf32>):  // no predecessors
        %6322 = "equeue.read"(%arg5) {bank = 0 : i64} : (memref<1xf32>) -> f32
        %6323 = "equeue.read"(%arg6) {bank = 1 : i64} : (memref<1xf32>) -> f32
        %6324 = mulf %6322, %6323 : f32
        %6325 = "equeue.read"(%arg7) {bank = 2 : i64} : (memref<1xf32>) -> f32
        %6326 = addf %6324, %6325 : f32
        "equeue.return"(%6322, %6326) : (f32, f32) -> ()
      }) : (!equeue.signal, i32, memref<1xf32>, memref<1xf32>, memref<1xf32>) -> (!equeue.signal, f32, f32)
      %6274 = "equeue.control_and"(%6273, %done_8124) : (!equeue.signal, !equeue.signal) -> !equeue.signal
      %done_8126, %res_8127:2 = "equeue.launch"(%6261, %258, %261, %259, %260) ( {
      ^bb0(%arg5: memref<1xf32>, %arg6: memref<1xf32>, %arg7: memref<1xf32>):  // no predecessors
        %6322 = "equeue.read"(%arg5) {bank = 0 : i64} : (memref<1xf32>) -> f32
        %6323 = "equeue.read"(%arg6) {bank = 1 : i64} : (memref<1xf32>) -> f32
        %6324 = mulf %6322, %6323 : f32
        %6325 = "equeue.read"(%arg7) {bank = 2 : i64} : (memref<1xf32>) -> f32
        %6326 = addf %6324, %6325 : f32
        "equeue.return"(%6322, %6326) : (f32, f32) -> ()
      }) : (!equeue.signal, i32, memref<1xf32>, memref<1xf32>, memref<1xf32>) -> (!equeue.signal, f32, f32)
      %6275 = "equeue.control_and"(%6274, %done_8126) : (!equeue.signal, !equeue.signal) -> !equeue.signal
      "equeue.await"(%6275) : (!equeue.signal) -> ()
      %6276 = "equeue.control_start"() : () -> !equeue.signal
      %done_8128 = "equeue.launch"(%6276, %126, %res_8099#0, %res_8099#1, %135, %158, %123) ( {
      ^bb0(%arg5: f32, %arg6: f32, %arg7: memref<1xf32>, %arg8: memref<1xf32>, %arg9: memref<3x3x3xf32>):  // no predecessors
        "equeue.write"(%arg5, %arg7) {bank = 0 : i64} : (f32, memref<1xf32>) -> ()
        "equeue.write"(%arg6, %arg8) {bank = 2 : i64} : (f32, memref<1xf32>) -> ()
        "equeue.return"() : () -> ()
      }) : (!equeue.signal, i32, f32, f32, memref<1xf32>, memref<1xf32>, memref<3x3x3xf32>) -> !equeue.signal
      %done_8129 = "equeue.launch"(%6276, %132, %res_8101#0, %res_8101#1, %141, %164, %123) ( {
      ^bb0(%arg5: f32, %arg6: f32, %arg7: memref<1xf32>, %arg8: memref<1xf32>, %arg9: memref<3x3x3xf32>):  // no predecessors
        "equeue.write"(%arg5, %arg7) {bank = 0 : i64} : (f32, memref<1xf32>) -> ()
        "equeue.write"(%arg6, %arg8) {bank = 2 : i64} : (f32, memref<1xf32>) -> ()
        "equeue.return"() : () -> ()
      }) : (!equeue.signal, i32, f32, f32, memref<1xf32>, memref<1xf32>, memref<3x3x3xf32>) -> !equeue.signal
      %6277 = "equeue.control_and"(%done_8128, %done_8129) : (!equeue.signal, !equeue.signal) -> !equeue.signal
      %done_8130 = "equeue.launch"(%6276, %138, %res_8103#1, %170, %123) ( {
      ^bb0(%arg5: f32, %arg6: memref<1xf32>, %arg7: memref<3x3x3xf32>):  // no predecessors
        "equeue.write"(%arg5, %arg6) {bank = 2 : i64} : (f32, memref<1xf32>) -> ()
        "equeue.return"() : () -> ()
      }) : (!equeue.signal, i32, f32, memref<1xf32>, memref<3x3x3xf32>) -> !equeue.signal
      %6278 = "equeue.control_and"(%6277, %done_8130) : (!equeue.signal, !equeue.signal) -> !equeue.signal
      %done_8131 = "equeue.launch"(%6276, %156, %res_8105#0, %res_8105#1, %165, %188, %123) ( {
      ^bb0(%arg5: f32, %arg6: f32, %arg7: memref<1xf32>, %arg8: memref<1xf32>, %arg9: memref<3x3x3xf32>):  // no predecessors
        "equeue.write"(%arg5, %arg7) {bank = 0 : i64} : (f32, memref<1xf32>) -> ()
        "equeue.write"(%arg6, %arg8) {bank = 2 : i64} : (f32, memref<1xf32>) -> ()
        "equeue.return"() : () -> ()
      }) : (!equeue.signal, i32, f32, f32, memref<1xf32>, memref<1xf32>, memref<3x3x3xf32>) -> !equeue.signal
      %6279 = "equeue.control_and"(%6278, %done_8131) : (!equeue.signal, !equeue.signal) -> !equeue.signal
      %done_8132 = "equeue.launch"(%6276, %162, %res_8107#0, %res_8107#1, %171, %194, %123) ( {
      ^bb0(%arg5: f32, %arg6: f32, %arg7: memref<1xf32>, %arg8: memref<1xf32>, %arg9: memref<3x3x3xf32>):  // no predecessors
        "equeue.write"(%arg5, %arg7) {bank = 0 : i64} : (f32, memref<1xf32>) -> ()
        "equeue.write"(%arg6, %arg8) {bank = 2 : i64} : (f32, memref<1xf32>) -> ()
        "equeue.return"() : () -> ()
      }) : (!equeue.signal, i32, f32, f32, memref<1xf32>, memref<1xf32>, memref<3x3x3xf32>) -> !equeue.signal
      %6280 = "equeue.control_and"(%6279, %done_8132) : (!equeue.signal, !equeue.signal) -> !equeue.signal
      %done_8133 = "equeue.launch"(%6276, %168, %res_8109#1, %200, %123) ( {
      ^bb0(%arg5: f32, %arg6: memref<1xf32>, %arg7: memref<3x3x3xf32>):  // no predecessors
        "equeue.write"(%arg5, %arg6) {bank = 2 : i64} : (f32, memref<1xf32>) -> ()
        "equeue.return"() : () -> ()
      }) : (!equeue.signal, i32, f32, memref<1xf32>, memref<3x3x3xf32>) -> !equeue.signal
      %6281 = "equeue.control_and"(%6280, %done_8133) : (!equeue.signal, !equeue.signal) -> !equeue.signal
      %done_8134 = "equeue.launch"(%6276, %186, %res_8111#0, %res_8111#1, %195, %218, %123) ( {
      ^bb0(%arg5: f32, %arg6: f32, %arg7: memref<1xf32>, %arg8: memref<1xf32>, %arg9: memref<3x3x3xf32>):  // no predecessors
        "equeue.write"(%arg5, %arg7) {bank = 0 : i64} : (f32, memref<1xf32>) -> ()
        "equeue.write"(%arg6, %arg8) {bank = 2 : i64} : (f32, memref<1xf32>) -> ()
        "equeue.return"() : () -> ()
      }) : (!equeue.signal, i32, f32, f32, memref<1xf32>, memref<1xf32>, memref<3x3x3xf32>) -> !equeue.signal
      %6282 = "equeue.control_and"(%6281, %done_8134) : (!equeue.signal, !equeue.signal) -> !equeue.signal
      %done_8135 = "equeue.launch"(%6276, %192, %res_8113#0, %res_8113#1, %201, %224, %123) ( {
      ^bb0(%arg5: f32, %arg6: f32, %arg7: memref<1xf32>, %arg8: memref<1xf32>, %arg9: memref<3x3x3xf32>):  // no predecessors
        "equeue.write"(%arg5, %arg7) {bank = 0 : i64} : (f32, memref<1xf32>) -> ()
        "equeue.write"(%arg6, %arg8) {bank = 2 : i64} : (f32, memref<1xf32>) -> ()
        "equeue.return"() : () -> ()
      }) : (!equeue.signal, i32, f32, f32, memref<1xf32>, memref<1xf32>, memref<3x3x3xf32>) -> !equeue.signal
      %6283 = "equeue.control_and"(%6282, %done_8135) : (!equeue.signal, !equeue.signal) -> !equeue.signal
      %done_8136 = "equeue.launch"(%6276, %198, %res_8115#1, %230, %123) ( {
      ^bb0(%arg5: f32, %arg6: memref<1xf32>, %arg7: memref<3x3x3xf32>):  // no predecessors
        "equeue.write"(%arg5, %arg6) {bank = 2 : i64} : (f32, memref<1xf32>) -> ()
        "equeue.return"() : () -> ()
      }) : (!equeue.signal, i32, f32, memref<1xf32>, memref<3x3x3xf32>) -> !equeue.signal
      %6284 = "equeue.control_and"(%6283, %done_8136) : (!equeue.signal, !equeue.signal) -> !equeue.signal
      %done_8137 = "equeue.launch"(%6276, %216, %res_8117#0, %res_8117#1, %225, %248, %123) ( {
      ^bb0(%arg5: f32, %arg6: f32, %arg7: memref<1xf32>, %arg8: memref<1xf32>, %arg9: memref<3x3x3xf32>):  // no predecessors
        "equeue.write"(%arg5, %arg7) {bank = 0 : i64} : (f32, memref<1xf32>) -> ()
        "equeue.write"(%arg6, %arg8) {bank = 2 : i64} : (f32, memref<1xf32>) -> ()
        "equeue.return"() : () -> ()
      }) : (!equeue.signal, i32, f32, f32, memref<1xf32>, memref<1xf32>, memref<3x3x3xf32>) -> !equeue.signal
      %6285 = "equeue.control_and"(%6284, %done_8137) : (!equeue.signal, !equeue.signal) -> !equeue.signal
      %done_8138 = "equeue.launch"(%6276, %222, %res_8119#0, %res_8119#1, %231, %254, %123) ( {
      ^bb0(%arg5: f32, %arg6: f32, %arg7: memref<1xf32>, %arg8: memref<1xf32>, %arg9: memref<3x3x3xf32>):  // no predecessors
        "equeue.write"(%arg5, %arg7) {bank = 0 : i64} : (f32, memref<1xf32>) -> ()
        "equeue.write"(%arg6, %arg8) {bank = 2 : i64} : (f32, memref<1xf32>) -> ()
        "equeue.return"() : () -> ()
      }) : (!equeue.signal, i32, f32, f32, memref<1xf32>, memref<1xf32>, memref<3x3x3xf32>) -> !equeue.signal
      %6286 = "equeue.control_and"(%6285, %done_8138) : (!equeue.signal, !equeue.signal) -> !equeue.signal
      %done_8139 = "equeue.launch"(%6276, %228, %res_8121#1, %260, %123) ( {
      ^bb0(%arg5: f32, %arg6: memref<1xf32>, %arg7: memref<3x3x3xf32>):  // no predecessors
        "equeue.write"(%arg5, %arg6) {bank = 2 : i64} : (f32, memref<1xf32>) -> ()
        "equeue.return"() : () -> ()
      }) : (!equeue.signal, i32, f32, memref<1xf32>, memref<3x3x3xf32>) -> !equeue.signal
      %6287 = "equeue.control_and"(%6286, %done_8139) : (!equeue.signal, !equeue.signal) -> !equeue.signal
      %done_8140 = "equeue.launch"(%6276, %246, %res_8123#0, %res_8123#1, %255, %123) ( {
      ^bb0(%arg5: f32, %arg6: f32, %arg7: memref<1xf32>, %arg8: memref<3x3x3xf32>):  // no predecessors
        "equeue.write"(%arg5, %arg7) {bank = 0 : i64} : (f32, memref<1xf32>) -> ()
        "equeue.return"() : () -> ()
      }) : (!equeue.signal, i32, f32, f32, memref<1xf32>, memref<3x3x3xf32>) -> !equeue.signal
      %6288 = "equeue.control_and"(%6287, %done_8140) : (!equeue.signal, !equeue.signal) -> !equeue.signal
      %done_8141 = "equeue.launch"(%6276, %252, %res_8125#0, %res_8125#1, %261, %123) ( {
      ^bb0(%arg5: f32, %arg6: f32, %arg7: memref<1xf32>, %arg8: memref<3x3x3xf32>):  // no predecessors
        "equeue.write"(%arg5, %arg7) {bank = 0 : i64} : (f32, memref<1xf32>) -> ()
        "equeue.return"() : () -> ()
      }) : (!equeue.signal, i32, f32, f32, memref<1xf32>, memref<3x3x3xf32>) -> !equeue.signal
      %6289 = "equeue.control_and"(%6288, %done_8141) : (!equeue.signal, !equeue.signal) -> !equeue.signal
      %done_8142 = "equeue.launch"(%6276, %258, %res_8127#1, %123) ( {
      ^bb0(%arg5: f32, %arg6: memref<3x3x3xf32>):  // no predecessors
        "equeue.return"() : () -> ()
      }) : (!equeue.signal, i32, f32, memref<3x3x3xf32>) -> !equeue.signal
      %6290 = "equeue.control_and"(%6289, %done_8142) : (!equeue.signal, !equeue.signal) -> !equeue.signal
      "equeue.await"(%6290) : (!equeue.signal) -> ()
      %6291 = "equeue.control_start"() : () -> !equeue.signal
      "equeue.await"(%6291) : (!equeue.signal) -> ()
      %6292 = "equeue.control_start"() : () -> !equeue.signal
      %done_8143, %res_8144:2 = "equeue.launch"(%6292, %126, %129, %127, %128) ( {
      ^bb0(%arg5: memref<1xf32>, %arg6: memref<1xf32>, %arg7: memref<1xf32>):  // no predecessors
        %6322 = "equeue.read"(%arg5) {bank = 0 : i64} : (memref<1xf32>) -> f32
        %6323 = "equeue.read"(%arg6) {bank = 1 : i64} : (memref<1xf32>) -> f32
        %6324 = mulf %6322, %6323 : f32
        %6325 = "equeue.read"(%arg7) {bank = 2 : i64} : (memref<1xf32>) -> f32
        %6326 = addf %6324, %6325 : f32
        "equeue.return"(%6322, %6326) : (f32, f32) -> ()
      }) : (!equeue.signal, i32, memref<1xf32>, memref<1xf32>, memref<1xf32>) -> (!equeue.signal, f32, f32)
      %done_8145, %res_8146:2 = "equeue.launch"(%6292, %132, %135, %133, %134) ( {
      ^bb0(%arg5: memref<1xf32>, %arg6: memref<1xf32>, %arg7: memref<1xf32>):  // no predecessors
        %6322 = "equeue.read"(%arg5) {bank = 0 : i64} : (memref<1xf32>) -> f32
        %6323 = "equeue.read"(%arg6) {bank = 1 : i64} : (memref<1xf32>) -> f32
        %6324 = mulf %6322, %6323 : f32
        %6325 = "equeue.read"(%arg7) {bank = 2 : i64} : (memref<1xf32>) -> f32
        %6326 = addf %6324, %6325 : f32
        "equeue.return"(%6322, %6326) : (f32, f32) -> ()
      }) : (!equeue.signal, i32, memref<1xf32>, memref<1xf32>, memref<1xf32>) -> (!equeue.signal, f32, f32)
      %6293 = "equeue.control_and"(%done_8143, %done_8145) : (!equeue.signal, !equeue.signal) -> !equeue.signal
      %done_8147, %res_8148:2 = "equeue.launch"(%6292, %138, %141, %139, %140) ( {
      ^bb0(%arg5: memref<1xf32>, %arg6: memref<1xf32>, %arg7: memref<1xf32>):  // no predecessors
        %6322 = "equeue.read"(%arg5) {bank = 0 : i64} : (memref<1xf32>) -> f32
        %6323 = "equeue.read"(%arg6) {bank = 1 : i64} : (memref<1xf32>) -> f32
        %6324 = mulf %6322, %6323 : f32
        %6325 = "equeue.read"(%arg7) {bank = 2 : i64} : (memref<1xf32>) -> f32
        %6326 = addf %6324, %6325 : f32
        "equeue.return"(%6322, %6326) : (f32, f32) -> ()
      }) : (!equeue.signal, i32, memref<1xf32>, memref<1xf32>, memref<1xf32>) -> (!equeue.signal, f32, f32)
      %6294 = "equeue.control_and"(%6293, %done_8147) : (!equeue.signal, !equeue.signal) -> !equeue.signal
      %done_8149, %res_8150:2 = "equeue.launch"(%6292, %156, %159, %157, %158) ( {
      ^bb0(%arg5: memref<1xf32>, %arg6: memref<1xf32>, %arg7: memref<1xf32>):  // no predecessors
        %6322 = "equeue.read"(%arg5) {bank = 0 : i64} : (memref<1xf32>) -> f32
        %6323 = "equeue.read"(%arg6) {bank = 1 : i64} : (memref<1xf32>) -> f32
        %6324 = mulf %6322, %6323 : f32
        %6325 = "equeue.read"(%arg7) {bank = 2 : i64} : (memref<1xf32>) -> f32
        %6326 = addf %6324, %6325 : f32
        "equeue.return"(%6322, %6326) : (f32, f32) -> ()
      }) : (!equeue.signal, i32, memref<1xf32>, memref<1xf32>, memref<1xf32>) -> (!equeue.signal, f32, f32)
      %6295 = "equeue.control_and"(%6294, %done_8149) : (!equeue.signal, !equeue.signal) -> !equeue.signal
      %done_8151, %res_8152:2 = "equeue.launch"(%6292, %162, %165, %163, %164) ( {
      ^bb0(%arg5: memref<1xf32>, %arg6: memref<1xf32>, %arg7: memref<1xf32>):  // no predecessors
        %6322 = "equeue.read"(%arg5) {bank = 0 : i64} : (memref<1xf32>) -> f32
        %6323 = "equeue.read"(%arg6) {bank = 1 : i64} : (memref<1xf32>) -> f32
        %6324 = mulf %6322, %6323 : f32
        %6325 = "equeue.read"(%arg7) {bank = 2 : i64} : (memref<1xf32>) -> f32
        %6326 = addf %6324, %6325 : f32
        "equeue.return"(%6322, %6326) : (f32, f32) -> ()
      }) : (!equeue.signal, i32, memref<1xf32>, memref<1xf32>, memref<1xf32>) -> (!equeue.signal, f32, f32)
      %6296 = "equeue.control_and"(%6295, %done_8151) : (!equeue.signal, !equeue.signal) -> !equeue.signal
      %done_8153, %res_8154:2 = "equeue.launch"(%6292, %168, %171, %169, %170) ( {
      ^bb0(%arg5: memref<1xf32>, %arg6: memref<1xf32>, %arg7: memref<1xf32>):  // no predecessors
        %6322 = "equeue.read"(%arg5) {bank = 0 : i64} : (memref<1xf32>) -> f32
        %6323 = "equeue.read"(%arg6) {bank = 1 : i64} : (memref<1xf32>) -> f32
        %6324 = mulf %6322, %6323 : f32
        %6325 = "equeue.read"(%arg7) {bank = 2 : i64} : (memref<1xf32>) -> f32
        %6326 = addf %6324, %6325 : f32
        "equeue.return"(%6322, %6326) : (f32, f32) -> ()
      }) : (!equeue.signal, i32, memref<1xf32>, memref<1xf32>, memref<1xf32>) -> (!equeue.signal, f32, f32)
      %6297 = "equeue.control_and"(%6296, %done_8153) : (!equeue.signal, !equeue.signal) -> !equeue.signal
      %done_8155, %res_8156:2 = "equeue.launch"(%6292, %186, %189, %187, %188) ( {
      ^bb0(%arg5: memref<1xf32>, %arg6: memref<1xf32>, %arg7: memref<1xf32>):  // no predecessors
        %6322 = "equeue.read"(%arg5) {bank = 0 : i64} : (memref<1xf32>) -> f32
        %6323 = "equeue.read"(%arg6) {bank = 1 : i64} : (memref<1xf32>) -> f32
        %6324 = mulf %6322, %6323 : f32
        %6325 = "equeue.read"(%arg7) {bank = 2 : i64} : (memref<1xf32>) -> f32
        %6326 = addf %6324, %6325 : f32
        "equeue.return"(%6322, %6326) : (f32, f32) -> ()
      }) : (!equeue.signal, i32, memref<1xf32>, memref<1xf32>, memref<1xf32>) -> (!equeue.signal, f32, f32)
      %6298 = "equeue.control_and"(%6297, %done_8155) : (!equeue.signal, !equeue.signal) -> !equeue.signal
      %done_8157, %res_8158:2 = "equeue.launch"(%6292, %192, %195, %193, %194) ( {
      ^bb0(%arg5: memref<1xf32>, %arg6: memref<1xf32>, %arg7: memref<1xf32>):  // no predecessors
        %6322 = "equeue.read"(%arg5) {bank = 0 : i64} : (memref<1xf32>) -> f32
        %6323 = "equeue.read"(%arg6) {bank = 1 : i64} : (memref<1xf32>) -> f32
        %6324 = mulf %6322, %6323 : f32
        %6325 = "equeue.read"(%arg7) {bank = 2 : i64} : (memref<1xf32>) -> f32
        %6326 = addf %6324, %6325 : f32
        "equeue.return"(%6322, %6326) : (f32, f32) -> ()
      }) : (!equeue.signal, i32, memref<1xf32>, memref<1xf32>, memref<1xf32>) -> (!equeue.signal, f32, f32)
      %6299 = "equeue.control_and"(%6298, %done_8157) : (!equeue.signal, !equeue.signal) -> !equeue.signal
      %done_8159, %res_8160:2 = "equeue.launch"(%6292, %198, %201, %199, %200) ( {
      ^bb0(%arg5: memref<1xf32>, %arg6: memref<1xf32>, %arg7: memref<1xf32>):  // no predecessors
        %6322 = "equeue.read"(%arg5) {bank = 0 : i64} : (memref<1xf32>) -> f32
        %6323 = "equeue.read"(%arg6) {bank = 1 : i64} : (memref<1xf32>) -> f32
        %6324 = mulf %6322, %6323 : f32
        %6325 = "equeue.read"(%arg7) {bank = 2 : i64} : (memref<1xf32>) -> f32
        %6326 = addf %6324, %6325 : f32
        "equeue.return"(%6322, %6326) : (f32, f32) -> ()
      }) : (!equeue.signal, i32, memref<1xf32>, memref<1xf32>, memref<1xf32>) -> (!equeue.signal, f32, f32)
      %6300 = "equeue.control_and"(%6299, %done_8159) : (!equeue.signal, !equeue.signal) -> !equeue.signal
      %done_8161, %res_8162:2 = "equeue.launch"(%6292, %216, %219, %217, %218) ( {
      ^bb0(%arg5: memref<1xf32>, %arg6: memref<1xf32>, %arg7: memref<1xf32>):  // no predecessors
        %6322 = "equeue.read"(%arg5) {bank = 0 : i64} : (memref<1xf32>) -> f32
        %6323 = "equeue.read"(%arg6) {bank = 1 : i64} : (memref<1xf32>) -> f32
        %6324 = mulf %6322, %6323 : f32
        %6325 = "equeue.read"(%arg7) {bank = 2 : i64} : (memref<1xf32>) -> f32
        %6326 = addf %6324, %6325 : f32
        "equeue.return"(%6322, %6326) : (f32, f32) -> ()
      }) : (!equeue.signal, i32, memref<1xf32>, memref<1xf32>, memref<1xf32>) -> (!equeue.signal, f32, f32)
      %6301 = "equeue.control_and"(%6300, %done_8161) : (!equeue.signal, !equeue.signal) -> !equeue.signal
      %done_8163, %res_8164:2 = "equeue.launch"(%6292, %222, %225, %223, %224) ( {
      ^bb0(%arg5: memref<1xf32>, %arg6: memref<1xf32>, %arg7: memref<1xf32>):  // no predecessors
        %6322 = "equeue.read"(%arg5) {bank = 0 : i64} : (memref<1xf32>) -> f32
        %6323 = "equeue.read"(%arg6) {bank = 1 : i64} : (memref<1xf32>) -> f32
        %6324 = mulf %6322, %6323 : f32
        %6325 = "equeue.read"(%arg7) {bank = 2 : i64} : (memref<1xf32>) -> f32
        %6326 = addf %6324, %6325 : f32
        "equeue.return"(%6322, %6326) : (f32, f32) -> ()
      }) : (!equeue.signal, i32, memref<1xf32>, memref<1xf32>, memref<1xf32>) -> (!equeue.signal, f32, f32)
      %6302 = "equeue.control_and"(%6301, %done_8163) : (!equeue.signal, !equeue.signal) -> !equeue.signal
      %done_8165, %res_8166:2 = "equeue.launch"(%6292, %228, %231, %229, %230) ( {
      ^bb0(%arg5: memref<1xf32>, %arg6: memref<1xf32>, %arg7: memref<1xf32>):  // no predecessors
        %6322 = "equeue.read"(%arg5) {bank = 0 : i64} : (memref<1xf32>) -> f32
        %6323 = "equeue.read"(%arg6) {bank = 1 : i64} : (memref<1xf32>) -> f32
        %6324 = mulf %6322, %6323 : f32
        %6325 = "equeue.read"(%arg7) {bank = 2 : i64} : (memref<1xf32>) -> f32
        %6326 = addf %6324, %6325 : f32
        "equeue.return"(%6322, %6326) : (f32, f32) -> ()
      }) : (!equeue.signal, i32, memref<1xf32>, memref<1xf32>, memref<1xf32>) -> (!equeue.signal, f32, f32)
      %6303 = "equeue.control_and"(%6302, %done_8165) : (!equeue.signal, !equeue.signal) -> !equeue.signal
      %done_8167, %res_8168:2 = "equeue.launch"(%6292, %246, %249, %247, %248) ( {
      ^bb0(%arg5: memref<1xf32>, %arg6: memref<1xf32>, %arg7: memref<1xf32>):  // no predecessors
        %6322 = "equeue.read"(%arg5) {bank = 0 : i64} : (memref<1xf32>) -> f32
        %6323 = "equeue.read"(%arg6) {bank = 1 : i64} : (memref<1xf32>) -> f32
        %6324 = mulf %6322, %6323 : f32
        %6325 = "equeue.read"(%arg7) {bank = 2 : i64} : (memref<1xf32>) -> f32
        %6326 = addf %6324, %6325 : f32
        "equeue.return"(%6322, %6326) : (f32, f32) -> ()
      }) : (!equeue.signal, i32, memref<1xf32>, memref<1xf32>, memref<1xf32>) -> (!equeue.signal, f32, f32)
      %6304 = "equeue.control_and"(%6303, %done_8167) : (!equeue.signal, !equeue.signal) -> !equeue.signal
      %done_8169, %res_8170:2 = "equeue.launch"(%6292, %252, %255, %253, %254) ( {
      ^bb0(%arg5: memref<1xf32>, %arg6: memref<1xf32>, %arg7: memref<1xf32>):  // no predecessors
        %6322 = "equeue.read"(%arg5) {bank = 0 : i64} : (memref<1xf32>) -> f32
        %6323 = "equeue.read"(%arg6) {bank = 1 : i64} : (memref<1xf32>) -> f32
        %6324 = mulf %6322, %6323 : f32
        %6325 = "equeue.read"(%arg7) {bank = 2 : i64} : (memref<1xf32>) -> f32
        %6326 = addf %6324, %6325 : f32
        "equeue.return"(%6322, %6326) : (f32, f32) -> ()
      }) : (!equeue.signal, i32, memref<1xf32>, memref<1xf32>, memref<1xf32>) -> (!equeue.signal, f32, f32)
      %6305 = "equeue.control_and"(%6304, %done_8169) : (!equeue.signal, !equeue.signal) -> !equeue.signal
      %done_8171, %res_8172:2 = "equeue.launch"(%6292, %258, %261, %259, %260) ( {
      ^bb0(%arg5: memref<1xf32>, %arg6: memref<1xf32>, %arg7: memref<1xf32>):  // no predecessors
        %6322 = "equeue.read"(%arg5) {bank = 0 : i64} : (memref<1xf32>) -> f32
        %6323 = "equeue.read"(%arg6) {bank = 1 : i64} : (memref<1xf32>) -> f32
        %6324 = mulf %6322, %6323 : f32
        %6325 = "equeue.read"(%arg7) {bank = 2 : i64} : (memref<1xf32>) -> f32
        %6326 = addf %6324, %6325 : f32
        "equeue.return"(%6322, %6326) : (f32, f32) -> ()
      }) : (!equeue.signal, i32, memref<1xf32>, memref<1xf32>, memref<1xf32>) -> (!equeue.signal, f32, f32)
      %6306 = "equeue.control_and"(%6305, %done_8171) : (!equeue.signal, !equeue.signal) -> !equeue.signal
      "equeue.await"(%6306) : (!equeue.signal) -> ()
      %6307 = "equeue.control_start"() : () -> !equeue.signal
      %done_8173 = "equeue.launch"(%6307, %126, %res_8144#0, %res_8144#1, %135, %158, %123) ( {
      ^bb0(%arg5: f32, %arg6: f32, %arg7: memref<1xf32>, %arg8: memref<1xf32>, %arg9: memref<3x3x3xf32>):  // no predecessors
        "equeue.write"(%arg5, %arg7) {bank = 0 : i64} : (f32, memref<1xf32>) -> ()
        "equeue.write"(%arg6, %arg8) {bank = 2 : i64} : (f32, memref<1xf32>) -> ()
        "equeue.return"() : () -> ()
      }) : (!equeue.signal, i32, f32, f32, memref<1xf32>, memref<1xf32>, memref<3x3x3xf32>) -> !equeue.signal
      %done_8174 = "equeue.launch"(%6307, %132, %res_8146#0, %res_8146#1, %141, %164, %123) ( {
      ^bb0(%arg5: f32, %arg6: f32, %arg7: memref<1xf32>, %arg8: memref<1xf32>, %arg9: memref<3x3x3xf32>):  // no predecessors
        "equeue.write"(%arg5, %arg7) {bank = 0 : i64} : (f32, memref<1xf32>) -> ()
        "equeue.write"(%arg6, %arg8) {bank = 2 : i64} : (f32, memref<1xf32>) -> ()
        "equeue.return"() : () -> ()
      }) : (!equeue.signal, i32, f32, f32, memref<1xf32>, memref<1xf32>, memref<3x3x3xf32>) -> !equeue.signal
      %6308 = "equeue.control_and"(%done_8173, %done_8174) : (!equeue.signal, !equeue.signal) -> !equeue.signal
      %done_8175 = "equeue.launch"(%6307, %138, %res_8148#1, %170, %123) ( {
      ^bb0(%arg5: f32, %arg6: memref<1xf32>, %arg7: memref<3x3x3xf32>):  // no predecessors
        "equeue.write"(%arg5, %arg6) {bank = 2 : i64} : (f32, memref<1xf32>) -> ()
        "equeue.return"() : () -> ()
      }) : (!equeue.signal, i32, f32, memref<1xf32>, memref<3x3x3xf32>) -> !equeue.signal
      %6309 = "equeue.control_and"(%6308, %done_8175) : (!equeue.signal, !equeue.signal) -> !equeue.signal
      %done_8176 = "equeue.launch"(%6307, %156, %res_8150#0, %res_8150#1, %165, %188, %123) ( {
      ^bb0(%arg5: f32, %arg6: f32, %arg7: memref<1xf32>, %arg8: memref<1xf32>, %arg9: memref<3x3x3xf32>):  // no predecessors
        "equeue.write"(%arg5, %arg7) {bank = 0 : i64} : (f32, memref<1xf32>) -> ()
        "equeue.write"(%arg6, %arg8) {bank = 2 : i64} : (f32, memref<1xf32>) -> ()
        "equeue.return"() : () -> ()
      }) : (!equeue.signal, i32, f32, f32, memref<1xf32>, memref<1xf32>, memref<3x3x3xf32>) -> !equeue.signal
      %6310 = "equeue.control_and"(%6309, %done_8176) : (!equeue.signal, !equeue.signal) -> !equeue.signal
      %done_8177 = "equeue.launch"(%6307, %162, %res_8152#0, %res_8152#1, %171, %194, %123) ( {
      ^bb0(%arg5: f32, %arg6: f32, %arg7: memref<1xf32>, %arg8: memref<1xf32>, %arg9: memref<3x3x3xf32>):  // no predecessors
        "equeue.write"(%arg5, %arg7) {bank = 0 : i64} : (f32, memref<1xf32>) -> ()
        "equeue.write"(%arg6, %arg8) {bank = 2 : i64} : (f32, memref<1xf32>) -> ()
        "equeue.return"() : () -> ()
      }) : (!equeue.signal, i32, f32, f32, memref<1xf32>, memref<1xf32>, memref<3x3x3xf32>) -> !equeue.signal
      %6311 = "equeue.control_and"(%6310, %done_8177) : (!equeue.signal, !equeue.signal) -> !equeue.signal
      %done_8178 = "equeue.launch"(%6307, %168, %res_8154#1, %200, %123) ( {
      ^bb0(%arg5: f32, %arg6: memref<1xf32>, %arg7: memref<3x3x3xf32>):  // no predecessors
        "equeue.write"(%arg5, %arg6) {bank = 2 : i64} : (f32, memref<1xf32>) -> ()
        "equeue.return"() : () -> ()
      }) : (!equeue.signal, i32, f32, memref<1xf32>, memref<3x3x3xf32>) -> !equeue.signal
      %6312 = "equeue.control_and"(%6311, %done_8178) : (!equeue.signal, !equeue.signal) -> !equeue.signal
      %done_8179 = "equeue.launch"(%6307, %186, %res_8156#0, %res_8156#1, %195, %218, %123) ( {
      ^bb0(%arg5: f32, %arg6: f32, %arg7: memref<1xf32>, %arg8: memref<1xf32>, %arg9: memref<3x3x3xf32>):  // no predecessors
        "equeue.write"(%arg5, %arg7) {bank = 0 : i64} : (f32, memref<1xf32>) -> ()
        "equeue.write"(%arg6, %arg8) {bank = 2 : i64} : (f32, memref<1xf32>) -> ()
        "equeue.return"() : () -> ()
      }) : (!equeue.signal, i32, f32, f32, memref<1xf32>, memref<1xf32>, memref<3x3x3xf32>) -> !equeue.signal
      %6313 = "equeue.control_and"(%6312, %done_8179) : (!equeue.signal, !equeue.signal) -> !equeue.signal
      %done_8180 = "equeue.launch"(%6307, %192, %res_8158#0, %res_8158#1, %201, %224, %123) ( {
      ^bb0(%arg5: f32, %arg6: f32, %arg7: memref<1xf32>, %arg8: memref<1xf32>, %arg9: memref<3x3x3xf32>):  // no predecessors
        "equeue.write"(%arg5, %arg7) {bank = 0 : i64} : (f32, memref<1xf32>) -> ()
        "equeue.write"(%arg6, %arg8) {bank = 2 : i64} : (f32, memref<1xf32>) -> ()
        "equeue.return"() : () -> ()
      }) : (!equeue.signal, i32, f32, f32, memref<1xf32>, memref<1xf32>, memref<3x3x3xf32>) -> !equeue.signal
      %6314 = "equeue.control_and"(%6313, %done_8180) : (!equeue.signal, !equeue.signal) -> !equeue.signal
      %done_8181 = "equeue.launch"(%6307, %198, %res_8160#1, %230, %123) ( {
      ^bb0(%arg5: f32, %arg6: memref<1xf32>, %arg7: memref<3x3x3xf32>):  // no predecessors
        "equeue.write"(%arg5, %arg6) {bank = 2 : i64} : (f32, memref<1xf32>) -> ()
        "equeue.return"() : () -> ()
      }) : (!equeue.signal, i32, f32, memref<1xf32>, memref<3x3x3xf32>) -> !equeue.signal
      %6315 = "equeue.control_and"(%6314, %done_8181) : (!equeue.signal, !equeue.signal) -> !equeue.signal
      %done_8182 = "equeue.launch"(%6307, %216, %res_8162#0, %res_8162#1, %225, %248, %123) ( {
      ^bb0(%arg5: f32, %arg6: f32, %arg7: memref<1xf32>, %arg8: memref<1xf32>, %arg9: memref<3x3x3xf32>):  // no predecessors
        "equeue.write"(%arg5, %arg7) {bank = 0 : i64} : (f32, memref<1xf32>) -> ()
        "equeue.write"(%arg6, %arg8) {bank = 2 : i64} : (f32, memref<1xf32>) -> ()
        "equeue.return"() : () -> ()
      }) : (!equeue.signal, i32, f32, f32, memref<1xf32>, memref<1xf32>, memref<3x3x3xf32>) -> !equeue.signal
      %6316 = "equeue.control_and"(%6315, %done_8182) : (!equeue.signal, !equeue.signal) -> !equeue.signal
      %done_8183 = "equeue.launch"(%6307, %222, %res_8164#0, %res_8164#1, %231, %254, %123) ( {
      ^bb0(%arg5: f32, %arg6: f32, %arg7: memref<1xf32>, %arg8: memref<1xf32>, %arg9: memref<3x3x3xf32>):  // no predecessors
        "equeue.write"(%arg5, %arg7) {bank = 0 : i64} : (f32, memref<1xf32>) -> ()
        "equeue.write"(%arg6, %arg8) {bank = 2 : i64} : (f32, memref<1xf32>) -> ()
        "equeue.return"() : () -> ()
      }) : (!equeue.signal, i32, f32, f32, memref<1xf32>, memref<1xf32>, memref<3x3x3xf32>) -> !equeue.signal
      %6317 = "equeue.control_and"(%6316, %done_8183) : (!equeue.signal, !equeue.signal) -> !equeue.signal
      %done_8184 = "equeue.launch"(%6307, %228, %res_8166#1, %260, %123) ( {
      ^bb0(%arg5: f32, %arg6: memref<1xf32>, %arg7: memref<3x3x3xf32>):  // no predecessors
        "equeue.write"(%arg5, %arg6) {bank = 2 : i64} : (f32, memref<1xf32>) -> ()
        "equeue.return"() : () -> ()
      }) : (!equeue.signal, i32, f32, memref<1xf32>, memref<3x3x3xf32>) -> !equeue.signal
      %6318 = "equeue.control_and"(%6317, %done_8184) : (!equeue.signal, !equeue.signal) -> !equeue.signal
      %done_8185 = "equeue.launch"(%6307, %246, %res_8168#0, %res_8168#1, %255, %123) ( {
      ^bb0(%arg5: f32, %arg6: f32, %arg7: memref<1xf32>, %arg8: memref<3x3x3xf32>):  // no predecessors
        "equeue.write"(%arg5, %arg7) {bank = 0 : i64} : (f32, memref<1xf32>) -> ()
        "equeue.return"() : () -> ()
      }) : (!equeue.signal, i32, f32, f32, memref<1xf32>, memref<3x3x3xf32>) -> !equeue.signal
      %6319 = "equeue.control_and"(%6318, %done_8185) : (!equeue.signal, !equeue.signal) -> !equeue.signal
      %done_8186 = "equeue.launch"(%6307, %252, %res_8170#0, %res_8170#1, %261, %123) ( {
      ^bb0(%arg5: f32, %arg6: f32, %arg7: memref<1xf32>, %arg8: memref<3x3x3xf32>):  // no predecessors
        "equeue.write"(%arg5, %arg7) {bank = 0 : i64} : (f32, memref<1xf32>) -> ()
        "equeue.return"() : () -> ()
      }) : (!equeue.signal, i32, f32, f32, memref<1xf32>, memref<3x3x3xf32>) -> !equeue.signal
      %6320 = "equeue.control_and"(%6319, %done_8186) : (!equeue.signal, !equeue.signal) -> !equeue.signal
      %done_8187 = "equeue.launch"(%6307, %258, %res_8172#1, %123) ( {
      ^bb0(%arg5: f32, %arg6: memref<3x3x3xf32>):  // no predecessors
        "equeue.return"() : () -> ()
      }) : (!equeue.signal, i32, f32, memref<3x3x3xf32>) -> !equeue.signal
      %6321 = "equeue.control_and"(%6320, %done_8187) : (!equeue.signal, !equeue.signal) -> !equeue.signal
      "equeue.await"(%6321) : (!equeue.signal) -> ()
      "equeue.return"() : () -> ()
    }) : (!equeue.signal, i32, i32, memref<5x7x7xf32>, memref<3x5x7x3xf32>) -> !equeue.signal
    return
  }
}
