

module {
  func @graph(%arg0: tensor<512xi32>) {
    %0 = "equeue.create_mem"() {banks = 1 : i64, data_bit = 32 : i64, shape = dense<512> : tensor<1xi64>, type = "SINK"} : () -> i32
    %1 = "equeue.alloc"(%0) {data_bit = 32 : i64, shape = dense<512> : tensor<1xi64>} : (i32) -> memref<512xf32>
    %2 = "equeue.create_mem"() {banks = 1 : i64, data_bit = 32 : i64, shape = dense<481> : tensor<1xi64>, type = "SINK"} : () -> i32
    %3 = "equeue.alloc"(%2) {data_bit = 32 : i64, shape = dense<481> : tensor<1xi64>} : (i32) -> memref<481xf32>
    %4 = "equeue.connection"() {bandwidth = 32 : i64, type = "Streaming"} : () -> i32
    %5 = "equeue.create_comp_field"(%4) {names = "stream0 "} : (i32) -> i32
    %6 = "equeue.connection"() {bandwidth = 32 : i64, type = "Streaming"} : () -> i32
    "equeue.add_comp_field"(%5, %6) {names = "stream1 "} : (i32, i32) -> ()
    %7 = "equeue.connection"() {bandwidth = 32 : i64, type = "Streaming"} : () -> i32
    "equeue.add_comp_field"(%5, %7) {names = "stream2 "} : (i32, i32) -> ()
    %8 = "equeue.connection"() {bandwidth = 32 : i64, type = "Streaming"} : () -> i32
    "equeue.add_comp_field"(%5, %8) {names = "stream3 "} : (i32, i32) -> ()
    %9 = "equeue.connection"() {bandwidth = 32 : i64, type = "Streaming"} : () -> i32
    "equeue.add_comp_field"(%5, %9) {names = "stream4 "} : (i32, i32) -> ()
    %10 = "equeue.connection"() {bandwidth = 32 : i64, type = "Streaming"} : () -> i32
    "equeue.add_comp_field"(%5, %10) {names = "stream5 "} : (i32, i32) -> ()
    %11 = "equeue.connection"() {bandwidth = 32 : i64, type = "Streaming"} : () -> i32
    "equeue.add_comp_field"(%5, %11) {names = "stream6 "} : (i32, i32) -> ()
    %12 = "equeue.connection"() {bandwidth = 32 : i64, type = "Streaming"} : () -> i32
    "equeue.add_comp_field"(%5, %12) {names = "stream7 "} : (i32, i32) -> ()
    %13 = "equeue.connection"() {bandwidth = 32 : i64, type = "Streaming"} : () -> i32
    "equeue.add_comp_field"(%5, %13) {names = "stream8 "} : (i32, i32) -> ()
    %14 = "equeue.connection"() {bandwidth = 32 : i64, type = "Streaming"} : () -> i32
    "equeue.add_comp_field"(%5, %14) {names = "stream9 "} : (i32, i32) -> ()
    %15 = "equeue.connection"() {bandwidth = 32 : i64, type = "Streaming"} : () -> i32
    "equeue.add_comp_field"(%5, %15) {names = "stream10 "} : (i32, i32) -> ()
    %16 = "equeue.connection"() {bandwidth = 32 : i64, type = "Streaming"} : () -> i32
    "equeue.add_comp_field"(%5, %16) {names = "stream11 "} : (i32, i32) -> ()
    %17 = "equeue.connection"() {bandwidth = 32 : i64, type = "Streaming"} : () -> i32
    "equeue.add_comp_field"(%5, %17) {names = "stream12 "} : (i32, i32) -> ()
    %18 = "equeue.connection"() {bandwidth = 32 : i64, type = "Streaming"} : () -> i32
    "equeue.add_comp_field"(%5, %18) {names = "stream13 "} : (i32, i32) -> ()
    %19 = "equeue.connection"() {bandwidth = 32 : i64, type = "Streaming"} : () -> i32
    "equeue.add_comp_field"(%5, %19) {names = "stream14 "} : (i32, i32) -> ()
    %20 = "equeue.connection"() {bandwidth = 32 : i64, type = "Streaming"} : () -> i32
    "equeue.add_comp_field"(%5, %20) {names = "stream15 "} : (i32, i32) -> ()
    %21 = "equeue.connection"() {bandwidth = 32 : i64, type = "Streaming"} : () -> i32
    "equeue.add_comp_field"(%5, %21) {names = "stream16 "} : (i32, i32) -> ()
    %22 = "equeue.connection"() {bandwidth = 32 : i64, type = "Streaming"} : () -> i32
    "equeue.add_comp_field"(%5, %22) {names = "stream17 "} : (i32, i32) -> ()
    %23 = "equeue.connection"() {bandwidth = 32 : i64, type = "Streaming"} : () -> i32
    "equeue.add_comp_field"(%5, %23) {names = "stream18 "} : (i32, i32) -> ()
    %24 = "equeue.connection"() {bandwidth = 32 : i64, type = "Streaming"} : () -> i32
    "equeue.add_comp_field"(%5, %24) {names = "stream19 "} : (i32, i32) -> ()
    %25 = "equeue.connection"() {bandwidth = 32 : i64, type = "Streaming"} : () -> i32
    "equeue.add_comp_field"(%5, %25) {names = "stream20 "} : (i32, i32) -> ()
    %26 = "equeue.connection"() {bandwidth = 32 : i64, type = "Streaming"} : () -> i32
    "equeue.add_comp_field"(%5, %26) {names = "stream21 "} : (i32, i32) -> ()
    %27 = "equeue.connection"() {bandwidth = 32 : i64, type = "Streaming"} : () -> i32
    "equeue.add_comp_field"(%5, %27) {names = "stream22 "} : (i32, i32) -> ()
    %28 = "equeue.connection"() {bandwidth = 32 : i64, type = "Streaming"} : () -> i32
    "equeue.add_comp_field"(%5, %28) {names = "stream23 "} : (i32, i32) -> ()
    %29 = "equeue.connection"() {bandwidth = 32 : i64, type = "Streaming"} : () -> i32
    "equeue.add_comp_field"(%5, %29) {names = "stream24 "} : (i32, i32) -> ()
    %30 = "equeue.connection"() {bandwidth = 32 : i64, type = "Streaming"} : () -> i32
    "equeue.add_comp_field"(%5, %30) {names = "stream25 "} : (i32, i32) -> ()
    %31 = "equeue.connection"() {bandwidth = 32 : i64, type = "Streaming"} : () -> i32
    "equeue.add_comp_field"(%5, %31) {names = "stream26 "} : (i32, i32) -> ()
    %32 = "equeue.connection"() {bandwidth = 32 : i64, type = "Streaming"} : () -> i32
    "equeue.add_comp_field"(%5, %32) {names = "stream27 "} : (i32, i32) -> ()
    %33 = "equeue.connection"() {bandwidth = 32 : i64, type = "Streaming"} : () -> i32
    "equeue.add_comp_field"(%5, %33) {names = "stream28 "} : (i32, i32) -> ()
    %34 = "equeue.connection"() {bandwidth = 32 : i64, type = "Streaming"} : () -> i32
    "equeue.add_comp_field"(%5, %34) {names = "stream29 "} : (i32, i32) -> ()
    %35 = "equeue.connection"() {bandwidth = 32 : i64, type = "Streaming"} : () -> i32
    "equeue.add_comp_field"(%5, %35) {names = "stream30 "} : (i32, i32) -> ()
    %36 = "equeue.connection"() {bandwidth = 32 : i64, type = "Streaming"} : () -> i32
    "equeue.add_comp_field"(%5, %36) {names = "stream31 "} : (i32, i32) -> ()
    %37 = "equeue.get_comp_field"(%5) {name = "stream0"} : (i32) -> i32
    "equeue.write"(%arg0, %1, %37) {bank = 0 : i64, size = dense<512> : tensor<1xi64>} : (tensor<512xi32>, memref<512xf32>, i32) -> ()
    %38 = "equeue.get_comp_field"(%5) {name = "stream1"} : (i32) -> i32
    "equeue.write"(%arg0, %1, %38) {bank = 0 : i64, size = dense<512> : tensor<1xi64>} : (tensor<512xi32>, memref<512xf32>, i32) -> ()
    %39 = "equeue.get_comp_field"(%5) {name = "stream2"} : (i32) -> i32
    "equeue.write"(%arg0, %1, %39) {bank = 0 : i64, size = dense<512> : tensor<1xi64>} : (tensor<512xi32>, memref<512xf32>, i32) -> ()
    %40 = "equeue.get_comp_field"(%5) {name = "stream3"} : (i32) -> i32
    "equeue.write"(%arg0, %1, %40) {bank = 0 : i64, size = dense<512> : tensor<1xi64>} : (tensor<512xi32>, memref<512xf32>, i32) -> ()
    %41 = "equeue.get_comp_field"(%5) {name = "stream4"} : (i32) -> i32
    "equeue.write"(%arg0, %1, %41) {bank = 0 : i64, size = dense<512> : tensor<1xi64>} : (tensor<512xi32>, memref<512xf32>, i32) -> ()
    %42 = "equeue.get_comp_field"(%5) {name = "stream5"} : (i32) -> i32
    "equeue.write"(%arg0, %1, %42) {bank = 0 : i64, size = dense<512> : tensor<1xi64>} : (tensor<512xi32>, memref<512xf32>, i32) -> ()
    %43 = "equeue.get_comp_field"(%5) {name = "stream6"} : (i32) -> i32
    "equeue.write"(%arg0, %1, %43) {bank = 0 : i64, size = dense<512> : tensor<1xi64>} : (tensor<512xi32>, memref<512xf32>, i32) -> ()
    %44 = "equeue.get_comp_field"(%5) {name = "stream7"} : (i32) -> i32
    "equeue.write"(%arg0, %1, %44) {bank = 0 : i64, size = dense<512> : tensor<1xi64>} : (tensor<512xi32>, memref<512xf32>, i32) -> ()
    %45 = "equeue.get_comp_field"(%5) {name = "stream8"} : (i32) -> i32
    "equeue.write"(%arg0, %1, %45) {bank = 0 : i64, size = dense<512> : tensor<1xi64>} : (tensor<512xi32>, memref<512xf32>, i32) -> ()
    %46 = "equeue.get_comp_field"(%5) {name = "stream9"} : (i32) -> i32
    "equeue.write"(%arg0, %1, %46) {bank = 0 : i64, size = dense<512> : tensor<1xi64>} : (tensor<512xi32>, memref<512xf32>, i32) -> ()
    %47 = "equeue.get_comp_field"(%5) {name = "stream10"} : (i32) -> i32
    "equeue.write"(%arg0, %1, %47) {bank = 0 : i64, size = dense<512> : tensor<1xi64>} : (tensor<512xi32>, memref<512xf32>, i32) -> ()
    %48 = "equeue.get_comp_field"(%5) {name = "stream11"} : (i32) -> i32
    "equeue.write"(%arg0, %1, %48) {bank = 0 : i64, size = dense<512> : tensor<1xi64>} : (tensor<512xi32>, memref<512xf32>, i32) -> ()
    %49 = "equeue.get_comp_field"(%5) {name = "stream12"} : (i32) -> i32
    "equeue.write"(%arg0, %1, %49) {bank = 0 : i64, size = dense<512> : tensor<1xi64>} : (tensor<512xi32>, memref<512xf32>, i32) -> ()
    %50 = "equeue.get_comp_field"(%5) {name = "stream13"} : (i32) -> i32
    "equeue.write"(%arg0, %1, %50) {bank = 0 : i64, size = dense<512> : tensor<1xi64>} : (tensor<512xi32>, memref<512xf32>, i32) -> ()
    %51 = "equeue.get_comp_field"(%5) {name = "stream14"} : (i32) -> i32
    "equeue.write"(%arg0, %1, %51) {bank = 0 : i64, size = dense<512> : tensor<1xi64>} : (tensor<512xi32>, memref<512xf32>, i32) -> ()
    %52 = "equeue.get_comp_field"(%5) {name = "stream15"} : (i32) -> i32
    "equeue.write"(%arg0, %1, %52) {bank = 0 : i64, size = dense<512> : tensor<1xi64>} : (tensor<512xi32>, memref<512xf32>, i32) -> ()
    %53 = "equeue.create_proc"() {type = "AIEngine"} : () -> i32
    %54 = "equeue.create_dma"() : () -> i32
    %55 = "equeue.create_dma"() : () -> i32
    %56 = "equeue.create_mem"() {banks = 1 : i64, data_bit = 32 : i64, shape = dense<16> : tensor<1xi64>, type = "RegisterFile"} : () -> i32
    %57 = "equeue.create_mem"() {banks = 1 : i64, data_bit = 32 : i64, shape = dense<8> : tensor<1xi64>, type = "RegisterFile"} : () -> i32
    %58 = "equeue.create_mem"() {banks = 1 : i64, data_bit = 32 : i64, shape = dense<4> : tensor<1xi64>, type = "RegisterFile"} : () -> i32
    %59 = "equeue.create_comp_field"(%53, %56, %57, %58, %54, %55) {names = "proc data taps acc dma0 dma1 "} : (i32, i32, i32, i32, i32, i32) -> i32
    %60 = "equeue.create_proc"() {type = "AIEngine"} : () -> i32
    %61 = "equeue.create_dma"() : () -> i32
    %62 = "equeue.create_dma"() : () -> i32
    %63 = "equeue.create_mem"() {banks = 1 : i64, data_bit = 32 : i64, shape = dense<16> : tensor<1xi64>, type = "RegisterFile"} : () -> i32
    %64 = "equeue.create_mem"() {banks = 1 : i64, data_bit = 32 : i64, shape = dense<8> : tensor<1xi64>, type = "RegisterFile"} : () -> i32
    %65 = "equeue.create_mem"() {banks = 1 : i64, data_bit = 32 : i64, shape = dense<4> : tensor<1xi64>, type = "RegisterFile"} : () -> i32
    %66 = "equeue.create_comp_field"(%60, %63, %64, %65, %61, %62) {names = "proc data taps acc dma0 dma1 "} : (i32, i32, i32, i32, i32, i32) -> i32
    %67 = "equeue.create_proc"() {type = "AIEngine"} : () -> i32
    %68 = "equeue.create_dma"() : () -> i32
    %69 = "equeue.create_dma"() : () -> i32
    %70 = "equeue.create_mem"() {banks = 1 : i64, data_bit = 32 : i64, shape = dense<16> : tensor<1xi64>, type = "RegisterFile"} : () -> i32
    %71 = "equeue.create_mem"() {banks = 1 : i64, data_bit = 32 : i64, shape = dense<8> : tensor<1xi64>, type = "RegisterFile"} : () -> i32
    %72 = "equeue.create_mem"() {banks = 1 : i64, data_bit = 32 : i64, shape = dense<4> : tensor<1xi64>, type = "RegisterFile"} : () -> i32
    %73 = "equeue.create_comp_field"(%67, %70, %71, %72, %68, %69) {names = "proc data taps acc dma0 dma1 "} : (i32, i32, i32, i32, i32, i32) -> i32
    %74 = "equeue.create_proc"() {type = "AIEngine"} : () -> i32
    %75 = "equeue.create_dma"() : () -> i32
    %76 = "equeue.create_dma"() : () -> i32
    %77 = "equeue.create_mem"() {banks = 1 : i64, data_bit = 32 : i64, shape = dense<16> : tensor<1xi64>, type = "RegisterFile"} : () -> i32
    %78 = "equeue.create_mem"() {banks = 1 : i64, data_bit = 32 : i64, shape = dense<8> : tensor<1xi64>, type = "RegisterFile"} : () -> i32
    %79 = "equeue.create_mem"() {banks = 1 : i64, data_bit = 32 : i64, shape = dense<4> : tensor<1xi64>, type = "RegisterFile"} : () -> i32
    %80 = "equeue.create_comp_field"(%74, %77, %78, %79, %75, %76) {names = "proc data taps acc dma0 dma1 "} : (i32, i32, i32, i32, i32, i32) -> i32
    %81 = "equeue.create_proc"() {type = "AIEngine"} : () -> i32
    %82 = "equeue.create_dma"() : () -> i32
    %83 = "equeue.create_dma"() : () -> i32
    %84 = "equeue.create_mem"() {banks = 1 : i64, data_bit = 32 : i64, shape = dense<16> : tensor<1xi64>, type = "RegisterFile"} : () -> i32
    %85 = "equeue.create_mem"() {banks = 1 : i64, data_bit = 32 : i64, shape = dense<8> : tensor<1xi64>, type = "RegisterFile"} : () -> i32
    %86 = "equeue.create_mem"() {banks = 1 : i64, data_bit = 32 : i64, shape = dense<4> : tensor<1xi64>, type = "RegisterFile"} : () -> i32
    %87 = "equeue.create_comp_field"(%81, %84, %85, %86, %82, %83) {names = "proc data taps acc dma0 dma1 "} : (i32, i32, i32, i32, i32, i32) -> i32
    %88 = "equeue.create_proc"() {type = "AIEngine"} : () -> i32
    %89 = "equeue.create_dma"() : () -> i32
    %90 = "equeue.create_dma"() : () -> i32
    %91 = "equeue.create_mem"() {banks = 1 : i64, data_bit = 32 : i64, shape = dense<16> : tensor<1xi64>, type = "RegisterFile"} : () -> i32
    %92 = "equeue.create_mem"() {banks = 1 : i64, data_bit = 32 : i64, shape = dense<8> : tensor<1xi64>, type = "RegisterFile"} : () -> i32
    %93 = "equeue.create_mem"() {banks = 1 : i64, data_bit = 32 : i64, shape = dense<4> : tensor<1xi64>, type = "RegisterFile"} : () -> i32
    %94 = "equeue.create_comp_field"(%88, %91, %92, %93, %89, %90) {names = "proc data taps acc dma0 dma1 "} : (i32, i32, i32, i32, i32, i32) -> i32
    %95 = "equeue.create_proc"() {type = "AIEngine"} : () -> i32
    %96 = "equeue.create_dma"() : () -> i32
    %97 = "equeue.create_dma"() : () -> i32
    %98 = "equeue.create_mem"() {banks = 1 : i64, data_bit = 32 : i64, shape = dense<16> : tensor<1xi64>, type = "RegisterFile"} : () -> i32
    %99 = "equeue.create_mem"() {banks = 1 : i64, data_bit = 32 : i64, shape = dense<8> : tensor<1xi64>, type = "RegisterFile"} : () -> i32
    %100 = "equeue.create_mem"() {banks = 1 : i64, data_bit = 32 : i64, shape = dense<4> : tensor<1xi64>, type = "RegisterFile"} : () -> i32
    %101 = "equeue.create_comp_field"(%95, %98, %99, %100, %96, %97) {names = "proc data taps acc dma0 dma1 "} : (i32, i32, i32, i32, i32, i32) -> i32
    %102 = "equeue.create_proc"() {type = "AIEngine"} : () -> i32
    %103 = "equeue.create_dma"() : () -> i32
    %104 = "equeue.create_dma"() : () -> i32
    %105 = "equeue.create_mem"() {banks = 1 : i64, data_bit = 32 : i64, shape = dense<16> : tensor<1xi64>, type = "RegisterFile"} : () -> i32
    %106 = "equeue.create_mem"() {banks = 1 : i64, data_bit = 32 : i64, shape = dense<8> : tensor<1xi64>, type = "RegisterFile"} : () -> i32
    %107 = "equeue.create_mem"() {banks = 1 : i64, data_bit = 32 : i64, shape = dense<4> : tensor<1xi64>, type = "RegisterFile"} : () -> i32
    %108 = "equeue.create_comp_field"(%102, %105, %106, %107, %103, %104) {names = "proc data taps acc dma0 dma1 "} : (i32, i32, i32, i32, i32, i32) -> i32
    %109 = "equeue.create_proc"() {type = "AIEngine"} : () -> i32
    %110 = "equeue.create_dma"() : () -> i32
    %111 = "equeue.create_dma"() : () -> i32
    %112 = "equeue.create_mem"() {banks = 1 : i64, data_bit = 32 : i64, shape = dense<16> : tensor<1xi64>, type = "RegisterFile"} : () -> i32
    %113 = "equeue.create_mem"() {banks = 1 : i64, data_bit = 32 : i64, shape = dense<8> : tensor<1xi64>, type = "RegisterFile"} : () -> i32
    %114 = "equeue.create_mem"() {banks = 1 : i64, data_bit = 32 : i64, shape = dense<4> : tensor<1xi64>, type = "RegisterFile"} : () -> i32
    %115 = "equeue.create_comp_field"(%109, %112, %113, %114, %110, %111) {names = "proc data taps acc dma0 dma1 "} : (i32, i32, i32, i32, i32, i32) -> i32
    %116 = "equeue.create_proc"() {type = "AIEngine"} : () -> i32
    %117 = "equeue.create_dma"() : () -> i32
    %118 = "equeue.create_dma"() : () -> i32
    %119 = "equeue.create_mem"() {banks = 1 : i64, data_bit = 32 : i64, shape = dense<16> : tensor<1xi64>, type = "RegisterFile"} : () -> i32
    %120 = "equeue.create_mem"() {banks = 1 : i64, data_bit = 32 : i64, shape = dense<8> : tensor<1xi64>, type = "RegisterFile"} : () -> i32
    %121 = "equeue.create_mem"() {banks = 1 : i64, data_bit = 32 : i64, shape = dense<4> : tensor<1xi64>, type = "RegisterFile"} : () -> i32
    %122 = "equeue.create_comp_field"(%116, %119, %120, %121, %117, %118) {names = "proc data taps acc dma0 dma1 "} : (i32, i32, i32, i32, i32, i32) -> i32
    %123 = "equeue.create_proc"() {type = "AIEngine"} : () -> i32
    %124 = "equeue.create_dma"() : () -> i32
    %125 = "equeue.create_dma"() : () -> i32
    %126 = "equeue.create_mem"() {banks = 1 : i64, data_bit = 32 : i64, shape = dense<16> : tensor<1xi64>, type = "RegisterFile"} : () -> i32
    %127 = "equeue.create_mem"() {banks = 1 : i64, data_bit = 32 : i64, shape = dense<8> : tensor<1xi64>, type = "RegisterFile"} : () -> i32
    %128 = "equeue.create_mem"() {banks = 1 : i64, data_bit = 32 : i64, shape = dense<4> : tensor<1xi64>, type = "RegisterFile"} : () -> i32
    %129 = "equeue.create_comp_field"(%123, %126, %127, %128, %124, %125) {names = "proc data taps acc dma0 dma1 "} : (i32, i32, i32, i32, i32, i32) -> i32
    %130 = "equeue.create_proc"() {type = "AIEngine"} : () -> i32
    %131 = "equeue.create_dma"() : () -> i32
    %132 = "equeue.create_dma"() : () -> i32
    %133 = "equeue.create_mem"() {banks = 1 : i64, data_bit = 32 : i64, shape = dense<16> : tensor<1xi64>, type = "RegisterFile"} : () -> i32
    %134 = "equeue.create_mem"() {banks = 1 : i64, data_bit = 32 : i64, shape = dense<8> : tensor<1xi64>, type = "RegisterFile"} : () -> i32
    %135 = "equeue.create_mem"() {banks = 1 : i64, data_bit = 32 : i64, shape = dense<4> : tensor<1xi64>, type = "RegisterFile"} : () -> i32
    %136 = "equeue.create_comp_field"(%130, %133, %134, %135, %131, %132) {names = "proc data taps acc dma0 dma1 "} : (i32, i32, i32, i32, i32, i32) -> i32
    %137 = "equeue.create_proc"() {type = "AIEngine"} : () -> i32
    %138 = "equeue.create_dma"() : () -> i32
    %139 = "equeue.create_dma"() : () -> i32
    %140 = "equeue.create_mem"() {banks = 1 : i64, data_bit = 32 : i64, shape = dense<16> : tensor<1xi64>, type = "RegisterFile"} : () -> i32
    %141 = "equeue.create_mem"() {banks = 1 : i64, data_bit = 32 : i64, shape = dense<8> : tensor<1xi64>, type = "RegisterFile"} : () -> i32
    %142 = "equeue.create_mem"() {banks = 1 : i64, data_bit = 32 : i64, shape = dense<4> : tensor<1xi64>, type = "RegisterFile"} : () -> i32
    %143 = "equeue.create_comp_field"(%137, %140, %141, %142, %138, %139) {names = "proc data taps acc dma0 dma1 "} : (i32, i32, i32, i32, i32, i32) -> i32
    %144 = "equeue.create_proc"() {type = "AIEngine"} : () -> i32
    %145 = "equeue.create_dma"() : () -> i32
    %146 = "equeue.create_dma"() : () -> i32
    %147 = "equeue.create_mem"() {banks = 1 : i64, data_bit = 32 : i64, shape = dense<16> : tensor<1xi64>, type = "RegisterFile"} : () -> i32
    %148 = "equeue.create_mem"() {banks = 1 : i64, data_bit = 32 : i64, shape = dense<8> : tensor<1xi64>, type = "RegisterFile"} : () -> i32
    %149 = "equeue.create_mem"() {banks = 1 : i64, data_bit = 32 : i64, shape = dense<4> : tensor<1xi64>, type = "RegisterFile"} : () -> i32
    %150 = "equeue.create_comp_field"(%144, %147, %148, %149, %145, %146) {names = "proc data taps acc dma0 dma1 "} : (i32, i32, i32, i32, i32, i32) -> i32
    %151 = "equeue.create_proc"() {type = "AIEngine"} : () -> i32
    %152 = "equeue.create_dma"() : () -> i32
    %153 = "equeue.create_dma"() : () -> i32
    %154 = "equeue.create_mem"() {banks = 1 : i64, data_bit = 32 : i64, shape = dense<16> : tensor<1xi64>, type = "RegisterFile"} : () -> i32
    %155 = "equeue.create_mem"() {banks = 1 : i64, data_bit = 32 : i64, shape = dense<8> : tensor<1xi64>, type = "RegisterFile"} : () -> i32
    %156 = "equeue.create_mem"() {banks = 1 : i64, data_bit = 32 : i64, shape = dense<4> : tensor<1xi64>, type = "RegisterFile"} : () -> i32
    %157 = "equeue.create_comp_field"(%151, %154, %155, %156, %152, %153) {names = "proc data taps acc dma0 dma1 "} : (i32, i32, i32, i32, i32, i32) -> i32
    %158 = "equeue.create_proc"() {type = "AIEngine"} : () -> i32
    %159 = "equeue.create_dma"() : () -> i32
    %160 = "equeue.create_dma"() : () -> i32
    %161 = "equeue.create_mem"() {banks = 1 : i64, data_bit = 32 : i64, shape = dense<16> : tensor<1xi64>, type = "RegisterFile"} : () -> i32
    %162 = "equeue.create_mem"() {banks = 1 : i64, data_bit = 32 : i64, shape = dense<8> : tensor<1xi64>, type = "RegisterFile"} : () -> i32
    %163 = "equeue.create_mem"() {banks = 1 : i64, data_bit = 32 : i64, shape = dense<4> : tensor<1xi64>, type = "RegisterFile"} : () -> i32
    %164 = "equeue.create_comp_field"(%158, %161, %162, %163, %159, %160) {names = "proc data taps acc dma0 dma1 "} : (i32, i32, i32, i32, i32, i32) -> i32
    %165 = "equeue.control_start"() : () -> !equeue.signal
    %166 = "equeue.get_comp_field"(%59) {name = "proc"} : (i32) -> i32
    %done = "equeue.launch"(%165, %166, %59) ( {
    ^bb0(%arg1: i32):  // no predecessors
      %4278 = "equeue.get_comp_field"(%arg1) {name = "data"} : (i32) -> i32
      %4279 = "equeue.alloc"(%4278) {data_bit = 32 : i64, shape = dense<16> : tensor<1xi64>} : (i32) -> memref<16xf32>
      %4280 = "equeue.get_comp_field"(%arg1) {name = "taps"} : (i32) -> i32
      %4281 = "equeue.alloc"(%4280) {data_bit = 32 : i64, shape = dense<8> : tensor<1xi64>} : (i32) -> memref<8xf32>
      %4282 = "equeue.get_comp_field"(%arg1) {name = "acc"} : (i32) -> i32
      %4283 = "equeue.alloc"(%4282) {data_bit = 32 : i64, shape = dense<4> : tensor<1xi64>} : (i32) -> memref<4xf32>
      "equeue.add_comp_field"(%arg1, %4279, %4281, %4283) {names = "ifmap filter ofmap "} : (i32, memref<16xf32>, memref<8xf32>, memref<4xf32>) -> ()
      "equeue.return"() : () -> ()
    }) : (!equeue.signal, i32, i32) -> !equeue.signal
    "equeue.await"(%done) : (!equeue.signal) -> ()
    %167 = "equeue.get_comp_field"(%66) {name = "proc"} : (i32) -> i32
    %done_0 = "equeue.launch"(%165, %167, %66) ( {
    ^bb0(%arg1: i32):  // no predecessors
      %4278 = "equeue.get_comp_field"(%arg1) {name = "data"} : (i32) -> i32
      %4279 = "equeue.alloc"(%4278) {data_bit = 32 : i64, shape = dense<16> : tensor<1xi64>} : (i32) -> memref<16xf32>
      %4280 = "equeue.get_comp_field"(%arg1) {name = "taps"} : (i32) -> i32
      %4281 = "equeue.alloc"(%4280) {data_bit = 32 : i64, shape = dense<8> : tensor<1xi64>} : (i32) -> memref<8xf32>
      %4282 = "equeue.get_comp_field"(%arg1) {name = "acc"} : (i32) -> i32
      %4283 = "equeue.alloc"(%4282) {data_bit = 32 : i64, shape = dense<4> : tensor<1xi64>} : (i32) -> memref<4xf32>
      "equeue.add_comp_field"(%arg1, %4279, %4281, %4283) {names = "ifmap filter ofmap "} : (i32, memref<16xf32>, memref<8xf32>, memref<4xf32>) -> ()
      "equeue.return"() : () -> ()
    }) : (!equeue.signal, i32, i32) -> !equeue.signal
    "equeue.await"(%done_0) : (!equeue.signal) -> ()
    %168 = "equeue.get_comp_field"(%73) {name = "proc"} : (i32) -> i32
    %done_1 = "equeue.launch"(%165, %168, %73) ( {
    ^bb0(%arg1: i32):  // no predecessors
      %4278 = "equeue.get_comp_field"(%arg1) {name = "data"} : (i32) -> i32
      %4279 = "equeue.alloc"(%4278) {data_bit = 32 : i64, shape = dense<16> : tensor<1xi64>} : (i32) -> memref<16xf32>
      %4280 = "equeue.get_comp_field"(%arg1) {name = "taps"} : (i32) -> i32
      %4281 = "equeue.alloc"(%4280) {data_bit = 32 : i64, shape = dense<8> : tensor<1xi64>} : (i32) -> memref<8xf32>
      %4282 = "equeue.get_comp_field"(%arg1) {name = "acc"} : (i32) -> i32
      %4283 = "equeue.alloc"(%4282) {data_bit = 32 : i64, shape = dense<4> : tensor<1xi64>} : (i32) -> memref<4xf32>
      "equeue.add_comp_field"(%arg1, %4279, %4281, %4283) {names = "ifmap filter ofmap "} : (i32, memref<16xf32>, memref<8xf32>, memref<4xf32>) -> ()
      "equeue.return"() : () -> ()
    }) : (!equeue.signal, i32, i32) -> !equeue.signal
    "equeue.await"(%done_1) : (!equeue.signal) -> ()
    %169 = "equeue.get_comp_field"(%80) {name = "proc"} : (i32) -> i32
    %done_2 = "equeue.launch"(%165, %169, %80) ( {
    ^bb0(%arg1: i32):  // no predecessors
      %4278 = "equeue.get_comp_field"(%arg1) {name = "data"} : (i32) -> i32
      %4279 = "equeue.alloc"(%4278) {data_bit = 32 : i64, shape = dense<16> : tensor<1xi64>} : (i32) -> memref<16xf32>
      %4280 = "equeue.get_comp_field"(%arg1) {name = "taps"} : (i32) -> i32
      %4281 = "equeue.alloc"(%4280) {data_bit = 32 : i64, shape = dense<8> : tensor<1xi64>} : (i32) -> memref<8xf32>
      %4282 = "equeue.get_comp_field"(%arg1) {name = "acc"} : (i32) -> i32
      %4283 = "equeue.alloc"(%4282) {data_bit = 32 : i64, shape = dense<4> : tensor<1xi64>} : (i32) -> memref<4xf32>
      "equeue.add_comp_field"(%arg1, %4279, %4281, %4283) {names = "ifmap filter ofmap "} : (i32, memref<16xf32>, memref<8xf32>, memref<4xf32>) -> ()
      "equeue.return"() : () -> ()
    }) : (!equeue.signal, i32, i32) -> !equeue.signal
    "equeue.await"(%done_2) : (!equeue.signal) -> ()
    %170 = "equeue.get_comp_field"(%87) {name = "proc"} : (i32) -> i32
    %done_3 = "equeue.launch"(%165, %170, %87) ( {
    ^bb0(%arg1: i32):  // no predecessors
      %4278 = "equeue.get_comp_field"(%arg1) {name = "data"} : (i32) -> i32
      %4279 = "equeue.alloc"(%4278) {data_bit = 32 : i64, shape = dense<16> : tensor<1xi64>} : (i32) -> memref<16xf32>
      %4280 = "equeue.get_comp_field"(%arg1) {name = "taps"} : (i32) -> i32
      %4281 = "equeue.alloc"(%4280) {data_bit = 32 : i64, shape = dense<8> : tensor<1xi64>} : (i32) -> memref<8xf32>
      %4282 = "equeue.get_comp_field"(%arg1) {name = "acc"} : (i32) -> i32
      %4283 = "equeue.alloc"(%4282) {data_bit = 32 : i64, shape = dense<4> : tensor<1xi64>} : (i32) -> memref<4xf32>
      "equeue.add_comp_field"(%arg1, %4279, %4281, %4283) {names = "ifmap filter ofmap "} : (i32, memref<16xf32>, memref<8xf32>, memref<4xf32>) -> ()
      "equeue.return"() : () -> ()
    }) : (!equeue.signal, i32, i32) -> !equeue.signal
    "equeue.await"(%done_3) : (!equeue.signal) -> ()
    %171 = "equeue.get_comp_field"(%94) {name = "proc"} : (i32) -> i32
    %done_4 = "equeue.launch"(%165, %171, %94) ( {
    ^bb0(%arg1: i32):  // no predecessors
      %4278 = "equeue.get_comp_field"(%arg1) {name = "data"} : (i32) -> i32
      %4279 = "equeue.alloc"(%4278) {data_bit = 32 : i64, shape = dense<16> : tensor<1xi64>} : (i32) -> memref<16xf32>
      %4280 = "equeue.get_comp_field"(%arg1) {name = "taps"} : (i32) -> i32
      %4281 = "equeue.alloc"(%4280) {data_bit = 32 : i64, shape = dense<8> : tensor<1xi64>} : (i32) -> memref<8xf32>
      %4282 = "equeue.get_comp_field"(%arg1) {name = "acc"} : (i32) -> i32
      %4283 = "equeue.alloc"(%4282) {data_bit = 32 : i64, shape = dense<4> : tensor<1xi64>} : (i32) -> memref<4xf32>
      "equeue.add_comp_field"(%arg1, %4279, %4281, %4283) {names = "ifmap filter ofmap "} : (i32, memref<16xf32>, memref<8xf32>, memref<4xf32>) -> ()
      "equeue.return"() : () -> ()
    }) : (!equeue.signal, i32, i32) -> !equeue.signal
    "equeue.await"(%done_4) : (!equeue.signal) -> ()
    %172 = "equeue.get_comp_field"(%101) {name = "proc"} : (i32) -> i32
    %done_5 = "equeue.launch"(%165, %172, %101) ( {
    ^bb0(%arg1: i32):  // no predecessors
      %4278 = "equeue.get_comp_field"(%arg1) {name = "data"} : (i32) -> i32
      %4279 = "equeue.alloc"(%4278) {data_bit = 32 : i64, shape = dense<16> : tensor<1xi64>} : (i32) -> memref<16xf32>
      %4280 = "equeue.get_comp_field"(%arg1) {name = "taps"} : (i32) -> i32
      %4281 = "equeue.alloc"(%4280) {data_bit = 32 : i64, shape = dense<8> : tensor<1xi64>} : (i32) -> memref<8xf32>
      %4282 = "equeue.get_comp_field"(%arg1) {name = "acc"} : (i32) -> i32
      %4283 = "equeue.alloc"(%4282) {data_bit = 32 : i64, shape = dense<4> : tensor<1xi64>} : (i32) -> memref<4xf32>
      "equeue.add_comp_field"(%arg1, %4279, %4281, %4283) {names = "ifmap filter ofmap "} : (i32, memref<16xf32>, memref<8xf32>, memref<4xf32>) -> ()
      "equeue.return"() : () -> ()
    }) : (!equeue.signal, i32, i32) -> !equeue.signal
    "equeue.await"(%done_5) : (!equeue.signal) -> ()
    %173 = "equeue.get_comp_field"(%108) {name = "proc"} : (i32) -> i32
    %done_6 = "equeue.launch"(%165, %173, %108) ( {
    ^bb0(%arg1: i32):  // no predecessors
      %4278 = "equeue.get_comp_field"(%arg1) {name = "data"} : (i32) -> i32
      %4279 = "equeue.alloc"(%4278) {data_bit = 32 : i64, shape = dense<16> : tensor<1xi64>} : (i32) -> memref<16xf32>
      %4280 = "equeue.get_comp_field"(%arg1) {name = "taps"} : (i32) -> i32
      %4281 = "equeue.alloc"(%4280) {data_bit = 32 : i64, shape = dense<8> : tensor<1xi64>} : (i32) -> memref<8xf32>
      %4282 = "equeue.get_comp_field"(%arg1) {name = "acc"} : (i32) -> i32
      %4283 = "equeue.alloc"(%4282) {data_bit = 32 : i64, shape = dense<4> : tensor<1xi64>} : (i32) -> memref<4xf32>
      "equeue.add_comp_field"(%arg1, %4279, %4281, %4283) {names = "ifmap filter ofmap "} : (i32, memref<16xf32>, memref<8xf32>, memref<4xf32>) -> ()
      "equeue.return"() : () -> ()
    }) : (!equeue.signal, i32, i32) -> !equeue.signal
    "equeue.await"(%done_6) : (!equeue.signal) -> ()
    %174 = "equeue.get_comp_field"(%115) {name = "proc"} : (i32) -> i32
    %done_7 = "equeue.launch"(%165, %174, %115) ( {
    ^bb0(%arg1: i32):  // no predecessors
      %4278 = "equeue.get_comp_field"(%arg1) {name = "data"} : (i32) -> i32
      %4279 = "equeue.alloc"(%4278) {data_bit = 32 : i64, shape = dense<16> : tensor<1xi64>} : (i32) -> memref<16xf32>
      %4280 = "equeue.get_comp_field"(%arg1) {name = "taps"} : (i32) -> i32
      %4281 = "equeue.alloc"(%4280) {data_bit = 32 : i64, shape = dense<8> : tensor<1xi64>} : (i32) -> memref<8xf32>
      %4282 = "equeue.get_comp_field"(%arg1) {name = "acc"} : (i32) -> i32
      %4283 = "equeue.alloc"(%4282) {data_bit = 32 : i64, shape = dense<4> : tensor<1xi64>} : (i32) -> memref<4xf32>
      "equeue.add_comp_field"(%arg1, %4279, %4281, %4283) {names = "ifmap filter ofmap "} : (i32, memref<16xf32>, memref<8xf32>, memref<4xf32>) -> ()
      "equeue.return"() : () -> ()
    }) : (!equeue.signal, i32, i32) -> !equeue.signal
    "equeue.await"(%done_7) : (!equeue.signal) -> ()
    %175 = "equeue.get_comp_field"(%122) {name = "proc"} : (i32) -> i32
    %done_8 = "equeue.launch"(%165, %175, %122) ( {
    ^bb0(%arg1: i32):  // no predecessors
      %4278 = "equeue.get_comp_field"(%arg1) {name = "data"} : (i32) -> i32
      %4279 = "equeue.alloc"(%4278) {data_bit = 32 : i64, shape = dense<16> : tensor<1xi64>} : (i32) -> memref<16xf32>
      %4280 = "equeue.get_comp_field"(%arg1) {name = "taps"} : (i32) -> i32
      %4281 = "equeue.alloc"(%4280) {data_bit = 32 : i64, shape = dense<8> : tensor<1xi64>} : (i32) -> memref<8xf32>
      %4282 = "equeue.get_comp_field"(%arg1) {name = "acc"} : (i32) -> i32
      %4283 = "equeue.alloc"(%4282) {data_bit = 32 : i64, shape = dense<4> : tensor<1xi64>} : (i32) -> memref<4xf32>
      "equeue.add_comp_field"(%arg1, %4279, %4281, %4283) {names = "ifmap filter ofmap "} : (i32, memref<16xf32>, memref<8xf32>, memref<4xf32>) -> ()
      "equeue.return"() : () -> ()
    }) : (!equeue.signal, i32, i32) -> !equeue.signal
    "equeue.await"(%done_8) : (!equeue.signal) -> ()
    %176 = "equeue.get_comp_field"(%129) {name = "proc"} : (i32) -> i32
    %done_9 = "equeue.launch"(%165, %176, %129) ( {
    ^bb0(%arg1: i32):  // no predecessors
      %4278 = "equeue.get_comp_field"(%arg1) {name = "data"} : (i32) -> i32
      %4279 = "equeue.alloc"(%4278) {data_bit = 32 : i64, shape = dense<16> : tensor<1xi64>} : (i32) -> memref<16xf32>
      %4280 = "equeue.get_comp_field"(%arg1) {name = "taps"} : (i32) -> i32
      %4281 = "equeue.alloc"(%4280) {data_bit = 32 : i64, shape = dense<8> : tensor<1xi64>} : (i32) -> memref<8xf32>
      %4282 = "equeue.get_comp_field"(%arg1) {name = "acc"} : (i32) -> i32
      %4283 = "equeue.alloc"(%4282) {data_bit = 32 : i64, shape = dense<4> : tensor<1xi64>} : (i32) -> memref<4xf32>
      "equeue.add_comp_field"(%arg1, %4279, %4281, %4283) {names = "ifmap filter ofmap "} : (i32, memref<16xf32>, memref<8xf32>, memref<4xf32>) -> ()
      "equeue.return"() : () -> ()
    }) : (!equeue.signal, i32, i32) -> !equeue.signal
    "equeue.await"(%done_9) : (!equeue.signal) -> ()
    %177 = "equeue.get_comp_field"(%136) {name = "proc"} : (i32) -> i32
    %done_10 = "equeue.launch"(%165, %177, %136) ( {
    ^bb0(%arg1: i32):  // no predecessors
      %4278 = "equeue.get_comp_field"(%arg1) {name = "data"} : (i32) -> i32
      %4279 = "equeue.alloc"(%4278) {data_bit = 32 : i64, shape = dense<16> : tensor<1xi64>} : (i32) -> memref<16xf32>
      %4280 = "equeue.get_comp_field"(%arg1) {name = "taps"} : (i32) -> i32
      %4281 = "equeue.alloc"(%4280) {data_bit = 32 : i64, shape = dense<8> : tensor<1xi64>} : (i32) -> memref<8xf32>
      %4282 = "equeue.get_comp_field"(%arg1) {name = "acc"} : (i32) -> i32
      %4283 = "equeue.alloc"(%4282) {data_bit = 32 : i64, shape = dense<4> : tensor<1xi64>} : (i32) -> memref<4xf32>
      "equeue.add_comp_field"(%arg1, %4279, %4281, %4283) {names = "ifmap filter ofmap "} : (i32, memref<16xf32>, memref<8xf32>, memref<4xf32>) -> ()
      "equeue.return"() : () -> ()
    }) : (!equeue.signal, i32, i32) -> !equeue.signal
    "equeue.await"(%done_10) : (!equeue.signal) -> ()
    %178 = "equeue.get_comp_field"(%143) {name = "proc"} : (i32) -> i32
    %done_11 = "equeue.launch"(%165, %178, %143) ( {
    ^bb0(%arg1: i32):  // no predecessors
      %4278 = "equeue.get_comp_field"(%arg1) {name = "data"} : (i32) -> i32
      %4279 = "equeue.alloc"(%4278) {data_bit = 32 : i64, shape = dense<16> : tensor<1xi64>} : (i32) -> memref<16xf32>
      %4280 = "equeue.get_comp_field"(%arg1) {name = "taps"} : (i32) -> i32
      %4281 = "equeue.alloc"(%4280) {data_bit = 32 : i64, shape = dense<8> : tensor<1xi64>} : (i32) -> memref<8xf32>
      %4282 = "equeue.get_comp_field"(%arg1) {name = "acc"} : (i32) -> i32
      %4283 = "equeue.alloc"(%4282) {data_bit = 32 : i64, shape = dense<4> : tensor<1xi64>} : (i32) -> memref<4xf32>
      "equeue.add_comp_field"(%arg1, %4279, %4281, %4283) {names = "ifmap filter ofmap "} : (i32, memref<16xf32>, memref<8xf32>, memref<4xf32>) -> ()
      "equeue.return"() : () -> ()
    }) : (!equeue.signal, i32, i32) -> !equeue.signal
    "equeue.await"(%done_11) : (!equeue.signal) -> ()
    %179 = "equeue.get_comp_field"(%150) {name = "proc"} : (i32) -> i32
    %done_12 = "equeue.launch"(%165, %179, %150) ( {
    ^bb0(%arg1: i32):  // no predecessors
      %4278 = "equeue.get_comp_field"(%arg1) {name = "data"} : (i32) -> i32
      %4279 = "equeue.alloc"(%4278) {data_bit = 32 : i64, shape = dense<16> : tensor<1xi64>} : (i32) -> memref<16xf32>
      %4280 = "equeue.get_comp_field"(%arg1) {name = "taps"} : (i32) -> i32
      %4281 = "equeue.alloc"(%4280) {data_bit = 32 : i64, shape = dense<8> : tensor<1xi64>} : (i32) -> memref<8xf32>
      %4282 = "equeue.get_comp_field"(%arg1) {name = "acc"} : (i32) -> i32
      %4283 = "equeue.alloc"(%4282) {data_bit = 32 : i64, shape = dense<4> : tensor<1xi64>} : (i32) -> memref<4xf32>
      "equeue.add_comp_field"(%arg1, %4279, %4281, %4283) {names = "ifmap filter ofmap "} : (i32, memref<16xf32>, memref<8xf32>, memref<4xf32>) -> ()
      "equeue.return"() : () -> ()
    }) : (!equeue.signal, i32, i32) -> !equeue.signal
    "equeue.await"(%done_12) : (!equeue.signal) -> ()
    %180 = "equeue.get_comp_field"(%157) {name = "proc"} : (i32) -> i32
    %done_13 = "equeue.launch"(%165, %180, %157) ( {
    ^bb0(%arg1: i32):  // no predecessors
      %4278 = "equeue.get_comp_field"(%arg1) {name = "data"} : (i32) -> i32
      %4279 = "equeue.alloc"(%4278) {data_bit = 32 : i64, shape = dense<16> : tensor<1xi64>} : (i32) -> memref<16xf32>
      %4280 = "equeue.get_comp_field"(%arg1) {name = "taps"} : (i32) -> i32
      %4281 = "equeue.alloc"(%4280) {data_bit = 32 : i64, shape = dense<8> : tensor<1xi64>} : (i32) -> memref<8xf32>
      %4282 = "equeue.get_comp_field"(%arg1) {name = "acc"} : (i32) -> i32
      %4283 = "equeue.alloc"(%4282) {data_bit = 32 : i64, shape = dense<4> : tensor<1xi64>} : (i32) -> memref<4xf32>
      "equeue.add_comp_field"(%arg1, %4279, %4281, %4283) {names = "ifmap filter ofmap "} : (i32, memref<16xf32>, memref<8xf32>, memref<4xf32>) -> ()
      "equeue.return"() : () -> ()
    }) : (!equeue.signal, i32, i32) -> !equeue.signal
    "equeue.await"(%done_13) : (!equeue.signal) -> ()
    %181 = "equeue.get_comp_field"(%164) {name = "proc"} : (i32) -> i32
    %done_14 = "equeue.launch"(%165, %181, %164) ( {
    ^bb0(%arg1: i32):  // no predecessors
      %4278 = "equeue.get_comp_field"(%arg1) {name = "data"} : (i32) -> i32
      %4279 = "equeue.alloc"(%4278) {data_bit = 32 : i64, shape = dense<16> : tensor<1xi64>} : (i32) -> memref<16xf32>
      %4280 = "equeue.get_comp_field"(%arg1) {name = "taps"} : (i32) -> i32
      %4281 = "equeue.alloc"(%4280) {data_bit = 32 : i64, shape = dense<8> : tensor<1xi64>} : (i32) -> memref<8xf32>
      %4282 = "equeue.get_comp_field"(%arg1) {name = "acc"} : (i32) -> i32
      %4283 = "equeue.alloc"(%4282) {data_bit = 32 : i64, shape = dense<4> : tensor<1xi64>} : (i32) -> memref<4xf32>
      "equeue.add_comp_field"(%arg1, %4279, %4281, %4283) {names = "ifmap filter ofmap "} : (i32, memref<16xf32>, memref<8xf32>, memref<4xf32>) -> ()
      "equeue.return"() : () -> ()
    }) : (!equeue.signal, i32, i32) -> !equeue.signal
    "equeue.await"(%done_14) : (!equeue.signal) -> ()
    %182 = "equeue.control_start"() : () -> !equeue.signal
    %183 = "equeue.get_comp_field"(%59) {name = "proc"} : (i32) -> i32
    %184 = "equeue.get_comp_field"(%59) {name = "ofmap"} : (i32) -> memref<4xi32>
    %done_15 = "equeue.launch"(%182, %183, %5, %59, %1, %184) ( {
    ^bb0(%arg1: i32, %arg2: i32, %arg3: memref<512xf32>, %arg4: memref<4xi32>):  // no predecessors
      %4278 = "equeue.get_comp_field"(%5) {name = "stream0"} : (i32) -> i32
      %4279 = "equeue.get_comp_field"(%5) {name = "stream16"} : (i32) -> i32
      %4280 = "equeue.get_comp_field"(%arg2) {name = "ifmap"} : (i32) -> memref<16xi32>
      %4281 = "equeue.get_comp_field"(%arg2) {name = "filter"} : (i32) -> memref<8xi32>
      %4282 = "equeue.get_comp_field"(%arg2) {name = "ofmap"} : (i32) -> memref<4xi32>
      %4283 = "equeue.read"(%arg3, %4278) {bank = 0 : i64, size = dense<4> : tensor<1xi64>} : (memref<512xf32>, i32) -> tensor<512xf32>
      "equeue.write"(%4283, %4280) {bank = 0 : i64} : (tensor<512xf32>, memref<16xi32>) -> ()
      %4284 = "equeue.unkOp"(%4282, %4280, %4281) {op_name = "mul4"} : (memref<4xi32>, memref<16xi32>, memref<8xi32>) -> memref<4xi32>
      %4285 = "equeue.read"(%4282) {bank = 0 : i64} : (memref<4xi32>) -> tensor<i32>
      "equeue.write"(%4285, %arg4, %4279) {bank = 0 : i64, size = dense<4> : tensor<1xi64>} : (tensor<i32>, memref<4xi32>, i32) -> ()
      "equeue.return"() : () -> ()
    }) : (!equeue.signal, i32, i32, i32, memref<512xf32>, memref<4xi32>) -> !equeue.signal
    %185 = "equeue.get_comp_field"(%66) {name = "proc"} : (i32) -> i32
    %186 = "equeue.get_comp_field"(%66) {name = "ofmap"} : (i32) -> memref<4xi32>
    %done_16 = "equeue.launch"(%182, %185, %5, %66, %59, %1, %186) ( {
    ^bb0(%arg1: i32, %arg2: i32, %arg3: i32, %arg4: memref<512xf32>, %arg5: memref<4xi32>):  // no predecessors
      %4278 = "equeue.get_comp_field"(%5) {name = "stream1"} : (i32) -> i32
      %4279 = "equeue.get_comp_field"(%5) {name = "stream16"} : (i32) -> i32
      %4280 = "equeue.get_comp_field"(%5) {name = "stream17"} : (i32) -> i32
      %4281 = "equeue.get_comp_field"(%arg2) {name = "ifmap"} : (i32) -> memref<16xi32>
      %4282 = "equeue.get_comp_field"(%arg2) {name = "filter"} : (i32) -> memref<8xi32>
      %4283 = "equeue.get_comp_field"(%arg2) {name = "ofmap"} : (i32) -> memref<4xi32>
      %4284 = "equeue.get_comp_field"(%arg3) {name = "ofmap"} : (i32) -> memref<4xi32>
      %4285 = "equeue.read"(%4284, %4279) {bank = 0 : i64, size = dense<4> : tensor<1xi64>} : (memref<4xi32>, i32) -> tensor<4xi32>
      "equeue.write"(%4285, %4283) {bank = 0 : i64} : (tensor<4xi32>, memref<4xi32>) -> ()
      %4286 = "equeue.read"(%arg4, %4278) {bank = 0 : i64, size = dense<4> : tensor<1xi64>} : (memref<512xf32>, i32) -> tensor<512xf32>
      "equeue.write"(%4286, %4281) {bank = 0 : i64} : (tensor<512xf32>, memref<16xi32>) -> ()
      %4287 = "equeue.unkOp"(%4283, %4281, %4282) {op_name = "mac4"} : (memref<4xi32>, memref<16xi32>, memref<8xi32>) -> memref<4xi32>
      %4288 = "equeue.read"(%4283) {bank = 0 : i64} : (memref<4xi32>) -> tensor<i32>
      "equeue.write"(%4288, %arg5, %4280) {bank = 0 : i64, size = dense<4> : tensor<1xi64>} : (tensor<i32>, memref<4xi32>, i32) -> ()
      "equeue.return"() : () -> ()
    }) : (!equeue.signal, i32, i32, i32, i32, memref<512xf32>, memref<4xi32>) -> !equeue.signal
    %187 = "equeue.get_comp_field"(%73) {name = "proc"} : (i32) -> i32
    %188 = "equeue.get_comp_field"(%73) {name = "ofmap"} : (i32) -> memref<4xi32>
    %done_17 = "equeue.launch"(%182, %187, %5, %73, %66, %1, %188) ( {
    ^bb0(%arg1: i32, %arg2: i32, %arg3: i32, %arg4: memref<512xf32>, %arg5: memref<4xi32>):  // no predecessors
      %4278 = "equeue.get_comp_field"(%5) {name = "stream2"} : (i32) -> i32
      %4279 = "equeue.get_comp_field"(%5) {name = "stream17"} : (i32) -> i32
      %4280 = "equeue.get_comp_field"(%5) {name = "stream18"} : (i32) -> i32
      %4281 = "equeue.get_comp_field"(%arg2) {name = "ifmap"} : (i32) -> memref<16xi32>
      %4282 = "equeue.get_comp_field"(%arg2) {name = "filter"} : (i32) -> memref<8xi32>
      %4283 = "equeue.get_comp_field"(%arg2) {name = "ofmap"} : (i32) -> memref<4xi32>
      %4284 = "equeue.get_comp_field"(%arg3) {name = "ofmap"} : (i32) -> memref<4xi32>
      %4285 = "equeue.read"(%4284, %4279) {bank = 0 : i64, size = dense<4> : tensor<1xi64>} : (memref<4xi32>, i32) -> tensor<4xi32>
      "equeue.write"(%4285, %4283) {bank = 0 : i64} : (tensor<4xi32>, memref<4xi32>) -> ()
      %4286 = "equeue.read"(%arg4, %4278) {bank = 0 : i64, size = dense<4> : tensor<1xi64>} : (memref<512xf32>, i32) -> tensor<512xf32>
      "equeue.write"(%4286, %4281) {bank = 0 : i64} : (tensor<512xf32>, memref<16xi32>) -> ()
      %4287 = "equeue.unkOp"(%4283, %4281, %4282) {op_name = "mac4"} : (memref<4xi32>, memref<16xi32>, memref<8xi32>) -> memref<4xi32>
      %4288 = "equeue.read"(%4283) {bank = 0 : i64} : (memref<4xi32>) -> tensor<i32>
      "equeue.write"(%4288, %arg5, %4280) {bank = 0 : i64, size = dense<4> : tensor<1xi64>} : (tensor<i32>, memref<4xi32>, i32) -> ()
      "equeue.return"() : () -> ()
    }) : (!equeue.signal, i32, i32, i32, i32, memref<512xf32>, memref<4xi32>) -> !equeue.signal
    %189 = "equeue.get_comp_field"(%80) {name = "proc"} : (i32) -> i32
    %190 = "equeue.get_comp_field"(%80) {name = "ofmap"} : (i32) -> memref<4xi32>
    %done_18 = "equeue.launch"(%182, %189, %5, %80, %73, %1, %190) ( {
    ^bb0(%arg1: i32, %arg2: i32, %arg3: i32, %arg4: memref<512xf32>, %arg5: memref<4xi32>):  // no predecessors
      %4278 = "equeue.get_comp_field"(%5) {name = "stream3"} : (i32) -> i32
      %4279 = "equeue.get_comp_field"(%5) {name = "stream18"} : (i32) -> i32
      %4280 = "equeue.get_comp_field"(%5) {name = "stream19"} : (i32) -> i32
      %4281 = "equeue.get_comp_field"(%arg2) {name = "ifmap"} : (i32) -> memref<16xi32>
      %4282 = "equeue.get_comp_field"(%arg2) {name = "filter"} : (i32) -> memref<8xi32>
      %4283 = "equeue.get_comp_field"(%arg2) {name = "ofmap"} : (i32) -> memref<4xi32>
      %4284 = "equeue.get_comp_field"(%arg3) {name = "ofmap"} : (i32) -> memref<4xi32>
      %4285 = "equeue.read"(%4284, %4279) {bank = 0 : i64, size = dense<4> : tensor<1xi64>} : (memref<4xi32>, i32) -> tensor<4xi32>
      "equeue.write"(%4285, %4283) {bank = 0 : i64} : (tensor<4xi32>, memref<4xi32>) -> ()
      %4286 = "equeue.read"(%arg4, %4278) {bank = 0 : i64, size = dense<4> : tensor<1xi64>} : (memref<512xf32>, i32) -> tensor<512xf32>
      "equeue.write"(%4286, %4281) {bank = 0 : i64} : (tensor<512xf32>, memref<16xi32>) -> ()
      %4287 = "equeue.unkOp"(%4283, %4281, %4282) {op_name = "mac4"} : (memref<4xi32>, memref<16xi32>, memref<8xi32>) -> memref<4xi32>
      %4288 = "equeue.read"(%4283) {bank = 0 : i64} : (memref<4xi32>) -> tensor<i32>
      "equeue.write"(%4288, %arg5, %4280) {bank = 0 : i64, size = dense<4> : tensor<1xi64>} : (tensor<i32>, memref<4xi32>, i32) -> ()
      "equeue.return"() : () -> ()
    }) : (!equeue.signal, i32, i32, i32, i32, memref<512xf32>, memref<4xi32>) -> !equeue.signal
    %191 = "equeue.get_comp_field"(%87) {name = "proc"} : (i32) -> i32
    %192 = "equeue.get_comp_field"(%87) {name = "ofmap"} : (i32) -> memref<4xi32>
    %done_19 = "equeue.launch"(%182, %191, %5, %87, %80, %1, %192) ( {
    ^bb0(%arg1: i32, %arg2: i32, %arg3: i32, %arg4: memref<512xf32>, %arg5: memref<4xi32>):  // no predecessors
      %4278 = "equeue.get_comp_field"(%5) {name = "stream4"} : (i32) -> i32
      %4279 = "equeue.get_comp_field"(%5) {name = "stream19"} : (i32) -> i32
      %4280 = "equeue.get_comp_field"(%5) {name = "stream20"} : (i32) -> i32
      %4281 = "equeue.get_comp_field"(%arg2) {name = "ifmap"} : (i32) -> memref<16xi32>
      %4282 = "equeue.get_comp_field"(%arg2) {name = "filter"} : (i32) -> memref<8xi32>
      %4283 = "equeue.get_comp_field"(%arg2) {name = "ofmap"} : (i32) -> memref<4xi32>
      %4284 = "equeue.get_comp_field"(%arg3) {name = "ofmap"} : (i32) -> memref<4xi32>
      %4285 = "equeue.read"(%4284, %4279) {bank = 0 : i64, size = dense<4> : tensor<1xi64>} : (memref<4xi32>, i32) -> tensor<4xi32>
      "equeue.write"(%4285, %4283) {bank = 0 : i64} : (tensor<4xi32>, memref<4xi32>) -> ()
      %4286 = "equeue.read"(%arg4, %4278) {bank = 0 : i64, size = dense<4> : tensor<1xi64>} : (memref<512xf32>, i32) -> tensor<512xf32>
      "equeue.write"(%4286, %4281) {bank = 0 : i64} : (tensor<512xf32>, memref<16xi32>) -> ()
      %4287 = "equeue.unkOp"(%4283, %4281, %4282) {op_name = "mac4"} : (memref<4xi32>, memref<16xi32>, memref<8xi32>) -> memref<4xi32>
      %4288 = "equeue.read"(%4283) {bank = 0 : i64} : (memref<4xi32>) -> tensor<i32>
      "equeue.write"(%4288, %arg5, %4280) {bank = 0 : i64, size = dense<4> : tensor<1xi64>} : (tensor<i32>, memref<4xi32>, i32) -> ()
      "equeue.return"() : () -> ()
    }) : (!equeue.signal, i32, i32, i32, i32, memref<512xf32>, memref<4xi32>) -> !equeue.signal
    %193 = "equeue.get_comp_field"(%94) {name = "proc"} : (i32) -> i32
    %194 = "equeue.get_comp_field"(%94) {name = "ofmap"} : (i32) -> memref<4xi32>
    %done_20 = "equeue.launch"(%182, %193, %5, %94, %87, %1, %194) ( {
    ^bb0(%arg1: i32, %arg2: i32, %arg3: i32, %arg4: memref<512xf32>, %arg5: memref<4xi32>):  // no predecessors
      %4278 = "equeue.get_comp_field"(%5) {name = "stream5"} : (i32) -> i32
      %4279 = "equeue.get_comp_field"(%5) {name = "stream20"} : (i32) -> i32
      %4280 = "equeue.get_comp_field"(%5) {name = "stream21"} : (i32) -> i32
      %4281 = "equeue.get_comp_field"(%arg2) {name = "ifmap"} : (i32) -> memref<16xi32>
      %4282 = "equeue.get_comp_field"(%arg2) {name = "filter"} : (i32) -> memref<8xi32>
      %4283 = "equeue.get_comp_field"(%arg2) {name = "ofmap"} : (i32) -> memref<4xi32>
      %4284 = "equeue.get_comp_field"(%arg3) {name = "ofmap"} : (i32) -> memref<4xi32>
      %4285 = "equeue.read"(%4284, %4279) {bank = 0 : i64, size = dense<4> : tensor<1xi64>} : (memref<4xi32>, i32) -> tensor<4xi32>
      "equeue.write"(%4285, %4283) {bank = 0 : i64} : (tensor<4xi32>, memref<4xi32>) -> ()
      %4286 = "equeue.read"(%arg4, %4278) {bank = 0 : i64, size = dense<4> : tensor<1xi64>} : (memref<512xf32>, i32) -> tensor<512xf32>
      "equeue.write"(%4286, %4281) {bank = 0 : i64} : (tensor<512xf32>, memref<16xi32>) -> ()
      %4287 = "equeue.unkOp"(%4283, %4281, %4282) {op_name = "mac4"} : (memref<4xi32>, memref<16xi32>, memref<8xi32>) -> memref<4xi32>
      %4288 = "equeue.read"(%4283) {bank = 0 : i64} : (memref<4xi32>) -> tensor<i32>
      "equeue.write"(%4288, %arg5, %4280) {bank = 0 : i64, size = dense<4> : tensor<1xi64>} : (tensor<i32>, memref<4xi32>, i32) -> ()
      "equeue.return"() : () -> ()
    }) : (!equeue.signal, i32, i32, i32, i32, memref<512xf32>, memref<4xi32>) -> !equeue.signal
    %195 = "equeue.get_comp_field"(%101) {name = "proc"} : (i32) -> i32
    %196 = "equeue.get_comp_field"(%101) {name = "ofmap"} : (i32) -> memref<4xi32>
    %done_21 = "equeue.launch"(%182, %195, %5, %101, %94, %1, %196) ( {
    ^bb0(%arg1: i32, %arg2: i32, %arg3: i32, %arg4: memref<512xf32>, %arg5: memref<4xi32>):  // no predecessors
      %4278 = "equeue.get_comp_field"(%5) {name = "stream6"} : (i32) -> i32
      %4279 = "equeue.get_comp_field"(%5) {name = "stream21"} : (i32) -> i32
      %4280 = "equeue.get_comp_field"(%5) {name = "stream22"} : (i32) -> i32
      %4281 = "equeue.get_comp_field"(%arg2) {name = "ifmap"} : (i32) -> memref<16xi32>
      %4282 = "equeue.get_comp_field"(%arg2) {name = "filter"} : (i32) -> memref<8xi32>
      %4283 = "equeue.get_comp_field"(%arg2) {name = "ofmap"} : (i32) -> memref<4xi32>
      %4284 = "equeue.get_comp_field"(%arg3) {name = "ofmap"} : (i32) -> memref<4xi32>
      %4285 = "equeue.read"(%4284, %4279) {bank = 0 : i64, size = dense<4> : tensor<1xi64>} : (memref<4xi32>, i32) -> tensor<4xi32>
      "equeue.write"(%4285, %4283) {bank = 0 : i64} : (tensor<4xi32>, memref<4xi32>) -> ()
      %4286 = "equeue.read"(%arg4, %4278) {bank = 0 : i64, size = dense<4> : tensor<1xi64>} : (memref<512xf32>, i32) -> tensor<512xf32>
      "equeue.write"(%4286, %4281) {bank = 0 : i64} : (tensor<512xf32>, memref<16xi32>) -> ()
      %4287 = "equeue.unkOp"(%4283, %4281, %4282) {op_name = "mac4"} : (memref<4xi32>, memref<16xi32>, memref<8xi32>) -> memref<4xi32>
      %4288 = "equeue.read"(%4283) {bank = 0 : i64} : (memref<4xi32>) -> tensor<i32>
      "equeue.write"(%4288, %arg5, %4280) {bank = 0 : i64, size = dense<4> : tensor<1xi64>} : (tensor<i32>, memref<4xi32>, i32) -> ()
      "equeue.return"() : () -> ()
    }) : (!equeue.signal, i32, i32, i32, i32, memref<512xf32>, memref<4xi32>) -> !equeue.signal
    %197 = "equeue.get_comp_field"(%108) {name = "proc"} : (i32) -> i32
    %198 = "equeue.get_comp_field"(%108) {name = "ofmap"} : (i32) -> memref<4xi32>
    %done_22 = "equeue.launch"(%182, %197, %5, %108, %101, %1, %198) ( {
    ^bb0(%arg1: i32, %arg2: i32, %arg3: i32, %arg4: memref<512xf32>, %arg5: memref<4xi32>):  // no predecessors
      %4278 = "equeue.get_comp_field"(%5) {name = "stream7"} : (i32) -> i32
      %4279 = "equeue.get_comp_field"(%5) {name = "stream22"} : (i32) -> i32
      %4280 = "equeue.get_comp_field"(%5) {name = "stream23"} : (i32) -> i32
      %4281 = "equeue.get_comp_field"(%arg2) {name = "ifmap"} : (i32) -> memref<16xi32>
      %4282 = "equeue.get_comp_field"(%arg2) {name = "filter"} : (i32) -> memref<8xi32>
      %4283 = "equeue.get_comp_field"(%arg2) {name = "ofmap"} : (i32) -> memref<4xi32>
      %4284 = "equeue.get_comp_field"(%arg3) {name = "ofmap"} : (i32) -> memref<4xi32>
      %4285 = "equeue.read"(%4284, %4279) {bank = 0 : i64, size = dense<4> : tensor<1xi64>} : (memref<4xi32>, i32) -> tensor<4xi32>
      "equeue.write"(%4285, %4283) {bank = 0 : i64} : (tensor<4xi32>, memref<4xi32>) -> ()
      %4286 = "equeue.read"(%arg4, %4278) {bank = 0 : i64, size = dense<4> : tensor<1xi64>} : (memref<512xf32>, i32) -> tensor<512xf32>
      "equeue.write"(%4286, %4281) {bank = 0 : i64} : (tensor<512xf32>, memref<16xi32>) -> ()
      %4287 = "equeue.unkOp"(%4283, %4281, %4282) {op_name = "mac4"} : (memref<4xi32>, memref<16xi32>, memref<8xi32>) -> memref<4xi32>
      %4288 = "equeue.read"(%4283) {bank = 0 : i64} : (memref<4xi32>) -> tensor<i32>
      "equeue.write"(%4288, %arg5, %4280) {bank = 0 : i64, size = dense<4> : tensor<1xi64>} : (tensor<i32>, memref<4xi32>, i32) -> ()
      "equeue.return"() : () -> ()
    }) : (!equeue.signal, i32, i32, i32, i32, memref<512xf32>, memref<4xi32>) -> !equeue.signal
    %199 = "equeue.get_comp_field"(%115) {name = "proc"} : (i32) -> i32
    %200 = "equeue.get_comp_field"(%115) {name = "ofmap"} : (i32) -> memref<4xi32>
    %done_23 = "equeue.launch"(%182, %199, %5, %115, %108, %1, %200) ( {
    ^bb0(%arg1: i32, %arg2: i32, %arg3: i32, %arg4: memref<512xf32>, %arg5: memref<4xi32>):  // no predecessors
      %4278 = "equeue.get_comp_field"(%5) {name = "stream8"} : (i32) -> i32
      %4279 = "equeue.get_comp_field"(%5) {name = "stream23"} : (i32) -> i32
      %4280 = "equeue.get_comp_field"(%5) {name = "stream24"} : (i32) -> i32
      %4281 = "equeue.get_comp_field"(%arg2) {name = "ifmap"} : (i32) -> memref<16xi32>
      %4282 = "equeue.get_comp_field"(%arg2) {name = "filter"} : (i32) -> memref<8xi32>
      %4283 = "equeue.get_comp_field"(%arg2) {name = "ofmap"} : (i32) -> memref<4xi32>
      %4284 = "equeue.get_comp_field"(%arg3) {name = "ofmap"} : (i32) -> memref<4xi32>
      %4285 = "equeue.read"(%4284, %4279) {bank = 0 : i64, size = dense<4> : tensor<1xi64>} : (memref<4xi32>, i32) -> tensor<4xi32>
      "equeue.write"(%4285, %4283) {bank = 0 : i64} : (tensor<4xi32>, memref<4xi32>) -> ()
      %4286 = "equeue.read"(%arg4, %4278) {bank = 0 : i64, size = dense<4> : tensor<1xi64>} : (memref<512xf32>, i32) -> tensor<512xf32>
      "equeue.write"(%4286, %4281) {bank = 0 : i64} : (tensor<512xf32>, memref<16xi32>) -> ()
      %4287 = "equeue.unkOp"(%4283, %4281, %4282) {op_name = "mac4"} : (memref<4xi32>, memref<16xi32>, memref<8xi32>) -> memref<4xi32>
      %4288 = "equeue.read"(%4283) {bank = 0 : i64} : (memref<4xi32>) -> tensor<i32>
      "equeue.write"(%4288, %arg5, %4280) {bank = 0 : i64, size = dense<4> : tensor<1xi64>} : (tensor<i32>, memref<4xi32>, i32) -> ()
      "equeue.return"() : () -> ()
    }) : (!equeue.signal, i32, i32, i32, i32, memref<512xf32>, memref<4xi32>) -> !equeue.signal
    %201 = "equeue.get_comp_field"(%122) {name = "proc"} : (i32) -> i32
    %202 = "equeue.get_comp_field"(%122) {name = "ofmap"} : (i32) -> memref<4xi32>
    %done_24 = "equeue.launch"(%182, %201, %5, %122, %115, %1, %202) ( {
    ^bb0(%arg1: i32, %arg2: i32, %arg3: i32, %arg4: memref<512xf32>, %arg5: memref<4xi32>):  // no predecessors
      %4278 = "equeue.get_comp_field"(%5) {name = "stream9"} : (i32) -> i32
      %4279 = "equeue.get_comp_field"(%5) {name = "stream24"} : (i32) -> i32
      %4280 = "equeue.get_comp_field"(%5) {name = "stream25"} : (i32) -> i32
      %4281 = "equeue.get_comp_field"(%arg2) {name = "ifmap"} : (i32) -> memref<16xi32>
      %4282 = "equeue.get_comp_field"(%arg2) {name = "filter"} : (i32) -> memref<8xi32>
      %4283 = "equeue.get_comp_field"(%arg2) {name = "ofmap"} : (i32) -> memref<4xi32>
      %4284 = "equeue.get_comp_field"(%arg3) {name = "ofmap"} : (i32) -> memref<4xi32>
      %4285 = "equeue.read"(%4284, %4279) {bank = 0 : i64, size = dense<4> : tensor<1xi64>} : (memref<4xi32>, i32) -> tensor<4xi32>
      "equeue.write"(%4285, %4283) {bank = 0 : i64} : (tensor<4xi32>, memref<4xi32>) -> ()
      %4286 = "equeue.read"(%arg4, %4278) {bank = 0 : i64, size = dense<4> : tensor<1xi64>} : (memref<512xf32>, i32) -> tensor<512xf32>
      "equeue.write"(%4286, %4281) {bank = 0 : i64} : (tensor<512xf32>, memref<16xi32>) -> ()
      %4287 = "equeue.unkOp"(%4283, %4281, %4282) {op_name = "mac4"} : (memref<4xi32>, memref<16xi32>, memref<8xi32>) -> memref<4xi32>
      %4288 = "equeue.read"(%4283) {bank = 0 : i64} : (memref<4xi32>) -> tensor<i32>
      "equeue.write"(%4288, %arg5, %4280) {bank = 0 : i64, size = dense<4> : tensor<1xi64>} : (tensor<i32>, memref<4xi32>, i32) -> ()
      "equeue.return"() : () -> ()
    }) : (!equeue.signal, i32, i32, i32, i32, memref<512xf32>, memref<4xi32>) -> !equeue.signal
    %203 = "equeue.get_comp_field"(%129) {name = "proc"} : (i32) -> i32
    %204 = "equeue.get_comp_field"(%129) {name = "ofmap"} : (i32) -> memref<4xi32>
    %done_25 = "equeue.launch"(%182, %203, %5, %129, %122, %1, %204) ( {
    ^bb0(%arg1: i32, %arg2: i32, %arg3: i32, %arg4: memref<512xf32>, %arg5: memref<4xi32>):  // no predecessors
      %4278 = "equeue.get_comp_field"(%5) {name = "stream10"} : (i32) -> i32
      %4279 = "equeue.get_comp_field"(%5) {name = "stream25"} : (i32) -> i32
      %4280 = "equeue.get_comp_field"(%5) {name = "stream26"} : (i32) -> i32
      %4281 = "equeue.get_comp_field"(%arg2) {name = "ifmap"} : (i32) -> memref<16xi32>
      %4282 = "equeue.get_comp_field"(%arg2) {name = "filter"} : (i32) -> memref<8xi32>
      %4283 = "equeue.get_comp_field"(%arg2) {name = "ofmap"} : (i32) -> memref<4xi32>
      %4284 = "equeue.get_comp_field"(%arg3) {name = "ofmap"} : (i32) -> memref<4xi32>
      %4285 = "equeue.read"(%4284, %4279) {bank = 0 : i64, size = dense<4> : tensor<1xi64>} : (memref<4xi32>, i32) -> tensor<4xi32>
      "equeue.write"(%4285, %4283) {bank = 0 : i64} : (tensor<4xi32>, memref<4xi32>) -> ()
      %4286 = "equeue.read"(%arg4, %4278) {bank = 0 : i64, size = dense<4> : tensor<1xi64>} : (memref<512xf32>, i32) -> tensor<512xf32>
      "equeue.write"(%4286, %4281) {bank = 0 : i64} : (tensor<512xf32>, memref<16xi32>) -> ()
      %4287 = "equeue.unkOp"(%4283, %4281, %4282) {op_name = "mac4"} : (memref<4xi32>, memref<16xi32>, memref<8xi32>) -> memref<4xi32>
      %4288 = "equeue.read"(%4283) {bank = 0 : i64} : (memref<4xi32>) -> tensor<i32>
      "equeue.write"(%4288, %arg5, %4280) {bank = 0 : i64, size = dense<4> : tensor<1xi64>} : (tensor<i32>, memref<4xi32>, i32) -> ()
      "equeue.return"() : () -> ()
    }) : (!equeue.signal, i32, i32, i32, i32, memref<512xf32>, memref<4xi32>) -> !equeue.signal
    %205 = "equeue.get_comp_field"(%136) {name = "proc"} : (i32) -> i32
    %206 = "equeue.get_comp_field"(%136) {name = "ofmap"} : (i32) -> memref<4xi32>
    %done_26 = "equeue.launch"(%182, %205, %5, %136, %129, %1, %206) ( {
    ^bb0(%arg1: i32, %arg2: i32, %arg3: i32, %arg4: memref<512xf32>, %arg5: memref<4xi32>):  // no predecessors
      %4278 = "equeue.get_comp_field"(%5) {name = "stream11"} : (i32) -> i32
      %4279 = "equeue.get_comp_field"(%5) {name = "stream26"} : (i32) -> i32
      %4280 = "equeue.get_comp_field"(%5) {name = "stream27"} : (i32) -> i32
      %4281 = "equeue.get_comp_field"(%arg2) {name = "ifmap"} : (i32) -> memref<16xi32>
      %4282 = "equeue.get_comp_field"(%arg2) {name = "filter"} : (i32) -> memref<8xi32>
      %4283 = "equeue.get_comp_field"(%arg2) {name = "ofmap"} : (i32) -> memref<4xi32>
      %4284 = "equeue.get_comp_field"(%arg3) {name = "ofmap"} : (i32) -> memref<4xi32>
      %4285 = "equeue.read"(%4284, %4279) {bank = 0 : i64, size = dense<4> : tensor<1xi64>} : (memref<4xi32>, i32) -> tensor<4xi32>
      "equeue.write"(%4285, %4283) {bank = 0 : i64} : (tensor<4xi32>, memref<4xi32>) -> ()
      %4286 = "equeue.read"(%arg4, %4278) {bank = 0 : i64, size = dense<4> : tensor<1xi64>} : (memref<512xf32>, i32) -> tensor<512xf32>
      "equeue.write"(%4286, %4281) {bank = 0 : i64} : (tensor<512xf32>, memref<16xi32>) -> ()
      %4287 = "equeue.unkOp"(%4283, %4281, %4282) {op_name = "mac4"} : (memref<4xi32>, memref<16xi32>, memref<8xi32>) -> memref<4xi32>
      %4288 = "equeue.read"(%4283) {bank = 0 : i64} : (memref<4xi32>) -> tensor<i32>
      "equeue.write"(%4288, %arg5, %4280) {bank = 0 : i64, size = dense<4> : tensor<1xi64>} : (tensor<i32>, memref<4xi32>, i32) -> ()
      "equeue.return"() : () -> ()
    }) : (!equeue.signal, i32, i32, i32, i32, memref<512xf32>, memref<4xi32>) -> !equeue.signal
    %207 = "equeue.get_comp_field"(%143) {name = "proc"} : (i32) -> i32
    %208 = "equeue.get_comp_field"(%143) {name = "ofmap"} : (i32) -> memref<4xi32>
    %done_27 = "equeue.launch"(%182, %207, %5, %143, %136, %1, %208) ( {
    ^bb0(%arg1: i32, %arg2: i32, %arg3: i32, %arg4: memref<512xf32>, %arg5: memref<4xi32>):  // no predecessors
      %4278 = "equeue.get_comp_field"(%5) {name = "stream12"} : (i32) -> i32
      %4279 = "equeue.get_comp_field"(%5) {name = "stream27"} : (i32) -> i32
      %4280 = "equeue.get_comp_field"(%5) {name = "stream28"} : (i32) -> i32
      %4281 = "equeue.get_comp_field"(%arg2) {name = "ifmap"} : (i32) -> memref<16xi32>
      %4282 = "equeue.get_comp_field"(%arg2) {name = "filter"} : (i32) -> memref<8xi32>
      %4283 = "equeue.get_comp_field"(%arg2) {name = "ofmap"} : (i32) -> memref<4xi32>
      %4284 = "equeue.get_comp_field"(%arg3) {name = "ofmap"} : (i32) -> memref<4xi32>
      %4285 = "equeue.read"(%4284, %4279) {bank = 0 : i64, size = dense<4> : tensor<1xi64>} : (memref<4xi32>, i32) -> tensor<4xi32>
      "equeue.write"(%4285, %4283) {bank = 0 : i64} : (tensor<4xi32>, memref<4xi32>) -> ()
      %4286 = "equeue.read"(%arg4, %4278) {bank = 0 : i64, size = dense<4> : tensor<1xi64>} : (memref<512xf32>, i32) -> tensor<512xf32>
      "equeue.write"(%4286, %4281) {bank = 0 : i64} : (tensor<512xf32>, memref<16xi32>) -> ()
      %4287 = "equeue.unkOp"(%4283, %4281, %4282) {op_name = "mac4"} : (memref<4xi32>, memref<16xi32>, memref<8xi32>) -> memref<4xi32>
      %4288 = "equeue.read"(%4283) {bank = 0 : i64} : (memref<4xi32>) -> tensor<i32>
      "equeue.write"(%4288, %arg5, %4280) {bank = 0 : i64, size = dense<4> : tensor<1xi64>} : (tensor<i32>, memref<4xi32>, i32) -> ()
      "equeue.return"() : () -> ()
    }) : (!equeue.signal, i32, i32, i32, i32, memref<512xf32>, memref<4xi32>) -> !equeue.signal
    %209 = "equeue.get_comp_field"(%150) {name = "proc"} : (i32) -> i32
    %210 = "equeue.get_comp_field"(%150) {name = "ofmap"} : (i32) -> memref<4xi32>
    %done_28 = "equeue.launch"(%182, %209, %5, %150, %143, %1, %210) ( {
    ^bb0(%arg1: i32, %arg2: i32, %arg3: i32, %arg4: memref<512xf32>, %arg5: memref<4xi32>):  // no predecessors
      %4278 = "equeue.get_comp_field"(%5) {name = "stream13"} : (i32) -> i32
      %4279 = "equeue.get_comp_field"(%5) {name = "stream28"} : (i32) -> i32
      %4280 = "equeue.get_comp_field"(%5) {name = "stream29"} : (i32) -> i32
      %4281 = "equeue.get_comp_field"(%arg2) {name = "ifmap"} : (i32) -> memref<16xi32>
      %4282 = "equeue.get_comp_field"(%arg2) {name = "filter"} : (i32) -> memref<8xi32>
      %4283 = "equeue.get_comp_field"(%arg2) {name = "ofmap"} : (i32) -> memref<4xi32>
      %4284 = "equeue.get_comp_field"(%arg3) {name = "ofmap"} : (i32) -> memref<4xi32>
      %4285 = "equeue.read"(%4284, %4279) {bank = 0 : i64, size = dense<4> : tensor<1xi64>} : (memref<4xi32>, i32) -> tensor<4xi32>
      "equeue.write"(%4285, %4283) {bank = 0 : i64} : (tensor<4xi32>, memref<4xi32>) -> ()
      %4286 = "equeue.read"(%arg4, %4278) {bank = 0 : i64, size = dense<4> : tensor<1xi64>} : (memref<512xf32>, i32) -> tensor<512xf32>
      "equeue.write"(%4286, %4281) {bank = 0 : i64} : (tensor<512xf32>, memref<16xi32>) -> ()
      %4287 = "equeue.unkOp"(%4283, %4281, %4282) {op_name = "mac4"} : (memref<4xi32>, memref<16xi32>, memref<8xi32>) -> memref<4xi32>
      %4288 = "equeue.read"(%4283) {bank = 0 : i64} : (memref<4xi32>) -> tensor<i32>
      "equeue.write"(%4288, %arg5, %4280) {bank = 0 : i64, size = dense<4> : tensor<1xi64>} : (tensor<i32>, memref<4xi32>, i32) -> ()
      "equeue.return"() : () -> ()
    }) : (!equeue.signal, i32, i32, i32, i32, memref<512xf32>, memref<4xi32>) -> !equeue.signal
    %211 = "equeue.get_comp_field"(%157) {name = "proc"} : (i32) -> i32
    %212 = "equeue.get_comp_field"(%157) {name = "ofmap"} : (i32) -> memref<4xi32>
    %done_29 = "equeue.launch"(%182, %211, %5, %157, %150, %1, %212) ( {
    ^bb0(%arg1: i32, %arg2: i32, %arg3: i32, %arg4: memref<512xf32>, %arg5: memref<4xi32>):  // no predecessors
      %4278 = "equeue.get_comp_field"(%5) {name = "stream14"} : (i32) -> i32
      %4279 = "equeue.get_comp_field"(%5) {name = "stream29"} : (i32) -> i32
      %4280 = "equeue.get_comp_field"(%5) {name = "stream30"} : (i32) -> i32
      %4281 = "equeue.get_comp_field"(%arg2) {name = "ifmap"} : (i32) -> memref<16xi32>
      %4282 = "equeue.get_comp_field"(%arg2) {name = "filter"} : (i32) -> memref<8xi32>
      %4283 = "equeue.get_comp_field"(%arg2) {name = "ofmap"} : (i32) -> memref<4xi32>
      %4284 = "equeue.get_comp_field"(%arg3) {name = "ofmap"} : (i32) -> memref<4xi32>
      %4285 = "equeue.read"(%4284, %4279) {bank = 0 : i64, size = dense<4> : tensor<1xi64>} : (memref<4xi32>, i32) -> tensor<4xi32>
      "equeue.write"(%4285, %4283) {bank = 0 : i64} : (tensor<4xi32>, memref<4xi32>) -> ()
      %4286 = "equeue.read"(%arg4, %4278) {bank = 0 : i64, size = dense<4> : tensor<1xi64>} : (memref<512xf32>, i32) -> tensor<512xf32>
      "equeue.write"(%4286, %4281) {bank = 0 : i64} : (tensor<512xf32>, memref<16xi32>) -> ()
      %4287 = "equeue.unkOp"(%4283, %4281, %4282) {op_name = "mac4"} : (memref<4xi32>, memref<16xi32>, memref<8xi32>) -> memref<4xi32>
      %4288 = "equeue.read"(%4283) {bank = 0 : i64} : (memref<4xi32>) -> tensor<i32>
      "equeue.write"(%4288, %arg5, %4280) {bank = 0 : i64, size = dense<4> : tensor<1xi64>} : (tensor<i32>, memref<4xi32>, i32) -> ()
      "equeue.return"() : () -> ()
    }) : (!equeue.signal, i32, i32, i32, i32, memref<512xf32>, memref<4xi32>) -> !equeue.signal
    %213 = "equeue.get_comp_field"(%164) {name = "proc"} : (i32) -> i32
    %done_30 = "equeue.launch"(%182, %213, %5, %164, %157, %1, %3) ( {
    ^bb0(%arg1: i32, %arg2: i32, %arg3: i32, %arg4: memref<512xf32>, %arg5: memref<481xf32>):  // no predecessors
      %4278 = "equeue.get_comp_field"(%5) {name = "stream15"} : (i32) -> i32
      %4279 = "equeue.get_comp_field"(%5) {name = "stream30"} : (i32) -> i32
      %4280 = "equeue.get_comp_field"(%5) {name = "stream31"} : (i32) -> i32
      %4281 = "equeue.get_comp_field"(%arg2) {name = "ifmap"} : (i32) -> memref<16xi32>
      %4282 = "equeue.get_comp_field"(%arg2) {name = "filter"} : (i32) -> memref<8xi32>
      %4283 = "equeue.get_comp_field"(%arg2) {name = "ofmap"} : (i32) -> memref<4xi32>
      %4284 = "equeue.get_comp_field"(%arg3) {name = "ofmap"} : (i32) -> memref<4xi32>
      %4285 = "equeue.read"(%4284, %4279) {bank = 0 : i64, size = dense<4> : tensor<1xi64>} : (memref<4xi32>, i32) -> tensor<4xi32>
      "equeue.write"(%4285, %4283) {bank = 0 : i64} : (tensor<4xi32>, memref<4xi32>) -> ()
      %4286 = "equeue.read"(%arg4, %4278) {bank = 0 : i64, size = dense<4> : tensor<1xi64>} : (memref<512xf32>, i32) -> tensor<512xf32>
      "equeue.write"(%4286, %4281) {bank = 0 : i64} : (tensor<512xf32>, memref<16xi32>) -> ()
      %4287 = "equeue.unkOp"(%4283, %4281, %4282) {op_name = "mac4"} : (memref<4xi32>, memref<16xi32>, memref<8xi32>) -> memref<4xi32>
      %4288 = "equeue.read"(%4283) {bank = 0 : i64} : (memref<4xi32>) -> tensor<i32>
      "equeue.write"(%4288, %arg5, %4280) {bank = 0 : i64, size = dense<4> : tensor<1xi64>} : (tensor<i32>, memref<481xf32>, i32) -> ()
      "equeue.return"() : () -> ()
    }) : (!equeue.signal, i32, i32, i32, i32, memref<512xf32>, memref<481xf32>) -> !equeue.signal
    %214 = "equeue.control_start"() : () -> !equeue.signal
    %215 = "equeue.get_comp_field"(%59) {name = "proc"} : (i32) -> i32
    %216 = "equeue.get_comp_field"(%59) {name = "ofmap"} : (i32) -> memref<4xi32>
    %done_31 = "equeue.launch"(%214, %215, %5, %59, %1, %216) ( {
    ^bb0(%arg1: i32, %arg2: i32, %arg3: memref<512xf32>, %arg4: memref<4xi32>):  // no predecessors
      %4278 = "equeue.get_comp_field"(%5) {name = "stream0"} : (i32) -> i32
      %4279 = "equeue.get_comp_field"(%5) {name = "stream16"} : (i32) -> i32
      %4280 = "equeue.get_comp_field"(%arg2) {name = "ifmap"} : (i32) -> memref<16xi32>
      %4281 = "equeue.get_comp_field"(%arg2) {name = "filter"} : (i32) -> memref<8xi32>
      %4282 = "equeue.get_comp_field"(%arg2) {name = "ofmap"} : (i32) -> memref<4xi32>
      %4283 = "equeue.read"(%arg3, %4278) {bank = 0 : i64, size = dense<4> : tensor<1xi64>} : (memref<512xf32>, i32) -> tensor<512xf32>
      "equeue.write"(%4283, %4280) {bank = 0 : i64} : (tensor<512xf32>, memref<16xi32>) -> ()
      %4284 = "equeue.unkOp"(%4282, %4280, %4281) {op_name = "mul4"} : (memref<4xi32>, memref<16xi32>, memref<8xi32>) -> memref<4xi32>
      %4285 = "equeue.read"(%4282) {bank = 0 : i64} : (memref<4xi32>) -> tensor<i32>
      "equeue.write"(%4285, %arg4, %4279) {bank = 0 : i64, size = dense<4> : tensor<1xi64>} : (tensor<i32>, memref<4xi32>, i32) -> ()
      "equeue.return"() : () -> ()
    }) : (!equeue.signal, i32, i32, i32, memref<512xf32>, memref<4xi32>) -> !equeue.signal
    %217 = "equeue.get_comp_field"(%66) {name = "proc"} : (i32) -> i32
    %218 = "equeue.get_comp_field"(%66) {name = "ofmap"} : (i32) -> memref<4xi32>
    %done_32 = "equeue.launch"(%214, %217, %5, %66, %59, %1, %218) ( {
    ^bb0(%arg1: i32, %arg2: i32, %arg3: i32, %arg4: memref<512xf32>, %arg5: memref<4xi32>):  // no predecessors
      %4278 = "equeue.get_comp_field"(%5) {name = "stream1"} : (i32) -> i32
      %4279 = "equeue.get_comp_field"(%5) {name = "stream16"} : (i32) -> i32
      %4280 = "equeue.get_comp_field"(%5) {name = "stream17"} : (i32) -> i32
      %4281 = "equeue.get_comp_field"(%arg2) {name = "ifmap"} : (i32) -> memref<16xi32>
      %4282 = "equeue.get_comp_field"(%arg2) {name = "filter"} : (i32) -> memref<8xi32>
      %4283 = "equeue.get_comp_field"(%arg2) {name = "ofmap"} : (i32) -> memref<4xi32>
      %4284 = "equeue.get_comp_field"(%arg3) {name = "ofmap"} : (i32) -> memref<4xi32>
      %4285 = "equeue.read"(%4284, %4279) {bank = 0 : i64, size = dense<4> : tensor<1xi64>} : (memref<4xi32>, i32) -> tensor<4xi32>
      "equeue.write"(%4285, %4283) {bank = 0 : i64} : (tensor<4xi32>, memref<4xi32>) -> ()
      %4286 = "equeue.read"(%arg4, %4278) {bank = 0 : i64, size = dense<4> : tensor<1xi64>} : (memref<512xf32>, i32) -> tensor<512xf32>
      "equeue.write"(%4286, %4281) {bank = 0 : i64} : (tensor<512xf32>, memref<16xi32>) -> ()
      %4287 = "equeue.unkOp"(%4283, %4281, %4282) {op_name = "mac4"} : (memref<4xi32>, memref<16xi32>, memref<8xi32>) -> memref<4xi32>
      %4288 = "equeue.read"(%4283) {bank = 0 : i64} : (memref<4xi32>) -> tensor<i32>
      "equeue.write"(%4288, %arg5, %4280) {bank = 0 : i64, size = dense<4> : tensor<1xi64>} : (tensor<i32>, memref<4xi32>, i32) -> ()
      "equeue.return"() : () -> ()
    }) : (!equeue.signal, i32, i32, i32, i32, memref<512xf32>, memref<4xi32>) -> !equeue.signal
    %219 = "equeue.get_comp_field"(%73) {name = "proc"} : (i32) -> i32
    %220 = "equeue.get_comp_field"(%73) {name = "ofmap"} : (i32) -> memref<4xi32>
    %done_33 = "equeue.launch"(%214, %219, %5, %73, %66, %1, %220) ( {
    ^bb0(%arg1: i32, %arg2: i32, %arg3: i32, %arg4: memref<512xf32>, %arg5: memref<4xi32>):  // no predecessors
      %4278 = "equeue.get_comp_field"(%5) {name = "stream2"} : (i32) -> i32
      %4279 = "equeue.get_comp_field"(%5) {name = "stream17"} : (i32) -> i32
      %4280 = "equeue.get_comp_field"(%5) {name = "stream18"} : (i32) -> i32
      %4281 = "equeue.get_comp_field"(%arg2) {name = "ifmap"} : (i32) -> memref<16xi32>
      %4282 = "equeue.get_comp_field"(%arg2) {name = "filter"} : (i32) -> memref<8xi32>
      %4283 = "equeue.get_comp_field"(%arg2) {name = "ofmap"} : (i32) -> memref<4xi32>
      %4284 = "equeue.get_comp_field"(%arg3) {name = "ofmap"} : (i32) -> memref<4xi32>
      %4285 = "equeue.read"(%4284, %4279) {bank = 0 : i64, size = dense<4> : tensor<1xi64>} : (memref<4xi32>, i32) -> tensor<4xi32>
      "equeue.write"(%4285, %4283) {bank = 0 : i64} : (tensor<4xi32>, memref<4xi32>) -> ()
      %4286 = "equeue.read"(%arg4, %4278) {bank = 0 : i64, size = dense<4> : tensor<1xi64>} : (memref<512xf32>, i32) -> tensor<512xf32>
      "equeue.write"(%4286, %4281) {bank = 0 : i64} : (tensor<512xf32>, memref<16xi32>) -> ()
      %4287 = "equeue.unkOp"(%4283, %4281, %4282) {op_name = "mac4"} : (memref<4xi32>, memref<16xi32>, memref<8xi32>) -> memref<4xi32>
      %4288 = "equeue.read"(%4283) {bank = 0 : i64} : (memref<4xi32>) -> tensor<i32>
      "equeue.write"(%4288, %arg5, %4280) {bank = 0 : i64, size = dense<4> : tensor<1xi64>} : (tensor<i32>, memref<4xi32>, i32) -> ()
      "equeue.return"() : () -> ()
    }) : (!equeue.signal, i32, i32, i32, i32, memref<512xf32>, memref<4xi32>) -> !equeue.signal
    %221 = "equeue.get_comp_field"(%80) {name = "proc"} : (i32) -> i32
    %222 = "equeue.get_comp_field"(%80) {name = "ofmap"} : (i32) -> memref<4xi32>
    %done_34 = "equeue.launch"(%214, %221, %5, %80, %73, %1, %222) ( {
    ^bb0(%arg1: i32, %arg2: i32, %arg3: i32, %arg4: memref<512xf32>, %arg5: memref<4xi32>):  // no predecessors
      %4278 = "equeue.get_comp_field"(%5) {name = "stream3"} : (i32) -> i32
      %4279 = "equeue.get_comp_field"(%5) {name = "stream18"} : (i32) -> i32
      %4280 = "equeue.get_comp_field"(%5) {name = "stream19"} : (i32) -> i32
      %4281 = "equeue.get_comp_field"(%arg2) {name = "ifmap"} : (i32) -> memref<16xi32>
      %4282 = "equeue.get_comp_field"(%arg2) {name = "filter"} : (i32) -> memref<8xi32>
      %4283 = "equeue.get_comp_field"(%arg2) {name = "ofmap"} : (i32) -> memref<4xi32>
      %4284 = "equeue.get_comp_field"(%arg3) {name = "ofmap"} : (i32) -> memref<4xi32>
      %4285 = "equeue.read"(%4284, %4279) {bank = 0 : i64, size = dense<4> : tensor<1xi64>} : (memref<4xi32>, i32) -> tensor<4xi32>
      "equeue.write"(%4285, %4283) {bank = 0 : i64} : (tensor<4xi32>, memref<4xi32>) -> ()
      %4286 = "equeue.read"(%arg4, %4278) {bank = 0 : i64, size = dense<4> : tensor<1xi64>} : (memref<512xf32>, i32) -> tensor<512xf32>
      "equeue.write"(%4286, %4281) {bank = 0 : i64} : (tensor<512xf32>, memref<16xi32>) -> ()
      %4287 = "equeue.unkOp"(%4283, %4281, %4282) {op_name = "mac4"} : (memref<4xi32>, memref<16xi32>, memref<8xi32>) -> memref<4xi32>
      %4288 = "equeue.read"(%4283) {bank = 0 : i64} : (memref<4xi32>) -> tensor<i32>
      "equeue.write"(%4288, %arg5, %4280) {bank = 0 : i64, size = dense<4> : tensor<1xi64>} : (tensor<i32>, memref<4xi32>, i32) -> ()
      "equeue.return"() : () -> ()
    }) : (!equeue.signal, i32, i32, i32, i32, memref<512xf32>, memref<4xi32>) -> !equeue.signal
    %223 = "equeue.get_comp_field"(%87) {name = "proc"} : (i32) -> i32
    %224 = "equeue.get_comp_field"(%87) {name = "ofmap"} : (i32) -> memref<4xi32>
    %done_35 = "equeue.launch"(%214, %223, %5, %87, %80, %1, %224) ( {
    ^bb0(%arg1: i32, %arg2: i32, %arg3: i32, %arg4: memref<512xf32>, %arg5: memref<4xi32>):  // no predecessors
      %4278 = "equeue.get_comp_field"(%5) {name = "stream4"} : (i32) -> i32
      %4279 = "equeue.get_comp_field"(%5) {name = "stream19"} : (i32) -> i32
      %4280 = "equeue.get_comp_field"(%5) {name = "stream20"} : (i32) -> i32
      %4281 = "equeue.get_comp_field"(%arg2) {name = "ifmap"} : (i32) -> memref<16xi32>
      %4282 = "equeue.get_comp_field"(%arg2) {name = "filter"} : (i32) -> memref<8xi32>
      %4283 = "equeue.get_comp_field"(%arg2) {name = "ofmap"} : (i32) -> memref<4xi32>
      %4284 = "equeue.get_comp_field"(%arg3) {name = "ofmap"} : (i32) -> memref<4xi32>
      %4285 = "equeue.read"(%4284, %4279) {bank = 0 : i64, size = dense<4> : tensor<1xi64>} : (memref<4xi32>, i32) -> tensor<4xi32>
      "equeue.write"(%4285, %4283) {bank = 0 : i64} : (tensor<4xi32>, memref<4xi32>) -> ()
      %4286 = "equeue.read"(%arg4, %4278) {bank = 0 : i64, size = dense<4> : tensor<1xi64>} : (memref<512xf32>, i32) -> tensor<512xf32>
      "equeue.write"(%4286, %4281) {bank = 0 : i64} : (tensor<512xf32>, memref<16xi32>) -> ()
      %4287 = "equeue.unkOp"(%4283, %4281, %4282) {op_name = "mac4"} : (memref<4xi32>, memref<16xi32>, memref<8xi32>) -> memref<4xi32>
      %4288 = "equeue.read"(%4283) {bank = 0 : i64} : (memref<4xi32>) -> tensor<i32>
      "equeue.write"(%4288, %arg5, %4280) {bank = 0 : i64, size = dense<4> : tensor<1xi64>} : (tensor<i32>, memref<4xi32>, i32) -> ()
      "equeue.return"() : () -> ()
    }) : (!equeue.signal, i32, i32, i32, i32, memref<512xf32>, memref<4xi32>) -> !equeue.signal
    %225 = "equeue.get_comp_field"(%94) {name = "proc"} : (i32) -> i32
    %226 = "equeue.get_comp_field"(%94) {name = "ofmap"} : (i32) -> memref<4xi32>
    %done_36 = "equeue.launch"(%214, %225, %5, %94, %87, %1, %226) ( {
    ^bb0(%arg1: i32, %arg2: i32, %arg3: i32, %arg4: memref<512xf32>, %arg5: memref<4xi32>):  // no predecessors
      %4278 = "equeue.get_comp_field"(%5) {name = "stream5"} : (i32) -> i32
      %4279 = "equeue.get_comp_field"(%5) {name = "stream20"} : (i32) -> i32
      %4280 = "equeue.get_comp_field"(%5) {name = "stream21"} : (i32) -> i32
      %4281 = "equeue.get_comp_field"(%arg2) {name = "ifmap"} : (i32) -> memref<16xi32>
      %4282 = "equeue.get_comp_field"(%arg2) {name = "filter"} : (i32) -> memref<8xi32>
      %4283 = "equeue.get_comp_field"(%arg2) {name = "ofmap"} : (i32) -> memref<4xi32>
      %4284 = "equeue.get_comp_field"(%arg3) {name = "ofmap"} : (i32) -> memref<4xi32>
      %4285 = "equeue.read"(%4284, %4279) {bank = 0 : i64, size = dense<4> : tensor<1xi64>} : (memref<4xi32>, i32) -> tensor<4xi32>
      "equeue.write"(%4285, %4283) {bank = 0 : i64} : (tensor<4xi32>, memref<4xi32>) -> ()
      %4286 = "equeue.read"(%arg4, %4278) {bank = 0 : i64, size = dense<4> : tensor<1xi64>} : (memref<512xf32>, i32) -> tensor<512xf32>
      "equeue.write"(%4286, %4281) {bank = 0 : i64} : (tensor<512xf32>, memref<16xi32>) -> ()
      %4287 = "equeue.unkOp"(%4283, %4281, %4282) {op_name = "mac4"} : (memref<4xi32>, memref<16xi32>, memref<8xi32>) -> memref<4xi32>
      %4288 = "equeue.read"(%4283) {bank = 0 : i64} : (memref<4xi32>) -> tensor<i32>
      "equeue.write"(%4288, %arg5, %4280) {bank = 0 : i64, size = dense<4> : tensor<1xi64>} : (tensor<i32>, memref<4xi32>, i32) -> ()
      "equeue.return"() : () -> ()
    }) : (!equeue.signal, i32, i32, i32, i32, memref<512xf32>, memref<4xi32>) -> !equeue.signal
    %227 = "equeue.get_comp_field"(%101) {name = "proc"} : (i32) -> i32
    %228 = "equeue.get_comp_field"(%101) {name = "ofmap"} : (i32) -> memref<4xi32>
    %done_37 = "equeue.launch"(%214, %227, %5, %101, %94, %1, %228) ( {
    ^bb0(%arg1: i32, %arg2: i32, %arg3: i32, %arg4: memref<512xf32>, %arg5: memref<4xi32>):  // no predecessors
      %4278 = "equeue.get_comp_field"(%5) {name = "stream6"} : (i32) -> i32
      %4279 = "equeue.get_comp_field"(%5) {name = "stream21"} : (i32) -> i32
      %4280 = "equeue.get_comp_field"(%5) {name = "stream22"} : (i32) -> i32
      %4281 = "equeue.get_comp_field"(%arg2) {name = "ifmap"} : (i32) -> memref<16xi32>
      %4282 = "equeue.get_comp_field"(%arg2) {name = "filter"} : (i32) -> memref<8xi32>
      %4283 = "equeue.get_comp_field"(%arg2) {name = "ofmap"} : (i32) -> memref<4xi32>
      %4284 = "equeue.get_comp_field"(%arg3) {name = "ofmap"} : (i32) -> memref<4xi32>
      %4285 = "equeue.read"(%4284, %4279) {bank = 0 : i64, size = dense<4> : tensor<1xi64>} : (memref<4xi32>, i32) -> tensor<4xi32>
      "equeue.write"(%4285, %4283) {bank = 0 : i64} : (tensor<4xi32>, memref<4xi32>) -> ()
      %4286 = "equeue.read"(%arg4, %4278) {bank = 0 : i64, size = dense<4> : tensor<1xi64>} : (memref<512xf32>, i32) -> tensor<512xf32>
      "equeue.write"(%4286, %4281) {bank = 0 : i64} : (tensor<512xf32>, memref<16xi32>) -> ()
      %4287 = "equeue.unkOp"(%4283, %4281, %4282) {op_name = "mac4"} : (memref<4xi32>, memref<16xi32>, memref<8xi32>) -> memref<4xi32>
      %4288 = "equeue.read"(%4283) {bank = 0 : i64} : (memref<4xi32>) -> tensor<i32>
      "equeue.write"(%4288, %arg5, %4280) {bank = 0 : i64, size = dense<4> : tensor<1xi64>} : (tensor<i32>, memref<4xi32>, i32) -> ()
      "equeue.return"() : () -> ()
    }) : (!equeue.signal, i32, i32, i32, i32, memref<512xf32>, memref<4xi32>) -> !equeue.signal
    %229 = "equeue.get_comp_field"(%108) {name = "proc"} : (i32) -> i32
    %230 = "equeue.get_comp_field"(%108) {name = "ofmap"} : (i32) -> memref<4xi32>
    %done_38 = "equeue.launch"(%214, %229, %5, %108, %101, %1, %230) ( {
    ^bb0(%arg1: i32, %arg2: i32, %arg3: i32, %arg4: memref<512xf32>, %arg5: memref<4xi32>):  // no predecessors
      %4278 = "equeue.get_comp_field"(%5) {name = "stream7"} : (i32) -> i32
      %4279 = "equeue.get_comp_field"(%5) {name = "stream22"} : (i32) -> i32
      %4280 = "equeue.get_comp_field"(%5) {name = "stream23"} : (i32) -> i32
      %4281 = "equeue.get_comp_field"(%arg2) {name = "ifmap"} : (i32) -> memref<16xi32>
      %4282 = "equeue.get_comp_field"(%arg2) {name = "filter"} : (i32) -> memref<8xi32>
      %4283 = "equeue.get_comp_field"(%arg2) {name = "ofmap"} : (i32) -> memref<4xi32>
      %4284 = "equeue.get_comp_field"(%arg3) {name = "ofmap"} : (i32) -> memref<4xi32>
      %4285 = "equeue.read"(%4284, %4279) {bank = 0 : i64, size = dense<4> : tensor<1xi64>} : (memref<4xi32>, i32) -> tensor<4xi32>
      "equeue.write"(%4285, %4283) {bank = 0 : i64} : (tensor<4xi32>, memref<4xi32>) -> ()
      %4286 = "equeue.read"(%arg4, %4278) {bank = 0 : i64, size = dense<4> : tensor<1xi64>} : (memref<512xf32>, i32) -> tensor<512xf32>
      "equeue.write"(%4286, %4281) {bank = 0 : i64} : (tensor<512xf32>, memref<16xi32>) -> ()
      %4287 = "equeue.unkOp"(%4283, %4281, %4282) {op_name = "mac4"} : (memref<4xi32>, memref<16xi32>, memref<8xi32>) -> memref<4xi32>
      %4288 = "equeue.read"(%4283) {bank = 0 : i64} : (memref<4xi32>) -> tensor<i32>
      "equeue.write"(%4288, %arg5, %4280) {bank = 0 : i64, size = dense<4> : tensor<1xi64>} : (tensor<i32>, memref<4xi32>, i32) -> ()
      "equeue.return"() : () -> ()
    }) : (!equeue.signal, i32, i32, i32, i32, memref<512xf32>, memref<4xi32>) -> !equeue.signal
    %231 = "equeue.get_comp_field"(%115) {name = "proc"} : (i32) -> i32
    %232 = "equeue.get_comp_field"(%115) {name = "ofmap"} : (i32) -> memref<4xi32>
    %done_39 = "equeue.launch"(%214, %231, %5, %115, %108, %1, %232) ( {
    ^bb0(%arg1: i32, %arg2: i32, %arg3: i32, %arg4: memref<512xf32>, %arg5: memref<4xi32>):  // no predecessors
      %4278 = "equeue.get_comp_field"(%5) {name = "stream8"} : (i32) -> i32
      %4279 = "equeue.get_comp_field"(%5) {name = "stream23"} : (i32) -> i32
      %4280 = "equeue.get_comp_field"(%5) {name = "stream24"} : (i32) -> i32
      %4281 = "equeue.get_comp_field"(%arg2) {name = "ifmap"} : (i32) -> memref<16xi32>
      %4282 = "equeue.get_comp_field"(%arg2) {name = "filter"} : (i32) -> memref<8xi32>
      %4283 = "equeue.get_comp_field"(%arg2) {name = "ofmap"} : (i32) -> memref<4xi32>
      %4284 = "equeue.get_comp_field"(%arg3) {name = "ofmap"} : (i32) -> memref<4xi32>
      %4285 = "equeue.read"(%4284, %4279) {bank = 0 : i64, size = dense<4> : tensor<1xi64>} : (memref<4xi32>, i32) -> tensor<4xi32>
      "equeue.write"(%4285, %4283) {bank = 0 : i64} : (tensor<4xi32>, memref<4xi32>) -> ()
      %4286 = "equeue.read"(%arg4, %4278) {bank = 0 : i64, size = dense<4> : tensor<1xi64>} : (memref<512xf32>, i32) -> tensor<512xf32>
      "equeue.write"(%4286, %4281) {bank = 0 : i64} : (tensor<512xf32>, memref<16xi32>) -> ()
      %4287 = "equeue.unkOp"(%4283, %4281, %4282) {op_name = "mac4"} : (memref<4xi32>, memref<16xi32>, memref<8xi32>) -> memref<4xi32>
      %4288 = "equeue.read"(%4283) {bank = 0 : i64} : (memref<4xi32>) -> tensor<i32>
      "equeue.write"(%4288, %arg5, %4280) {bank = 0 : i64, size = dense<4> : tensor<1xi64>} : (tensor<i32>, memref<4xi32>, i32) -> ()
      "equeue.return"() : () -> ()
    }) : (!equeue.signal, i32, i32, i32, i32, memref<512xf32>, memref<4xi32>) -> !equeue.signal
    %233 = "equeue.get_comp_field"(%122) {name = "proc"} : (i32) -> i32
    %234 = "equeue.get_comp_field"(%122) {name = "ofmap"} : (i32) -> memref<4xi32>
    %done_40 = "equeue.launch"(%214, %233, %5, %122, %115, %1, %234) ( {
    ^bb0(%arg1: i32, %arg2: i32, %arg3: i32, %arg4: memref<512xf32>, %arg5: memref<4xi32>):  // no predecessors
      %4278 = "equeue.get_comp_field"(%5) {name = "stream9"} : (i32) -> i32
      %4279 = "equeue.get_comp_field"(%5) {name = "stream24"} : (i32) -> i32
      %4280 = "equeue.get_comp_field"(%5) {name = "stream25"} : (i32) -> i32
      %4281 = "equeue.get_comp_field"(%arg2) {name = "ifmap"} : (i32) -> memref<16xi32>
      %4282 = "equeue.get_comp_field"(%arg2) {name = "filter"} : (i32) -> memref<8xi32>
      %4283 = "equeue.get_comp_field"(%arg2) {name = "ofmap"} : (i32) -> memref<4xi32>
      %4284 = "equeue.get_comp_field"(%arg3) {name = "ofmap"} : (i32) -> memref<4xi32>
      %4285 = "equeue.read"(%4284, %4279) {bank = 0 : i64, size = dense<4> : tensor<1xi64>} : (memref<4xi32>, i32) -> tensor<4xi32>
      "equeue.write"(%4285, %4283) {bank = 0 : i64} : (tensor<4xi32>, memref<4xi32>) -> ()
      %4286 = "equeue.read"(%arg4, %4278) {bank = 0 : i64, size = dense<4> : tensor<1xi64>} : (memref<512xf32>, i32) -> tensor<512xf32>
      "equeue.write"(%4286, %4281) {bank = 0 : i64} : (tensor<512xf32>, memref<16xi32>) -> ()
      %4287 = "equeue.unkOp"(%4283, %4281, %4282) {op_name = "mac4"} : (memref<4xi32>, memref<16xi32>, memref<8xi32>) -> memref<4xi32>
      %4288 = "equeue.read"(%4283) {bank = 0 : i64} : (memref<4xi32>) -> tensor<i32>
      "equeue.write"(%4288, %arg5, %4280) {bank = 0 : i64, size = dense<4> : tensor<1xi64>} : (tensor<i32>, memref<4xi32>, i32) -> ()
      "equeue.return"() : () -> ()
    }) : (!equeue.signal, i32, i32, i32, i32, memref<512xf32>, memref<4xi32>) -> !equeue.signal
    %235 = "equeue.get_comp_field"(%129) {name = "proc"} : (i32) -> i32
    %236 = "equeue.get_comp_field"(%129) {name = "ofmap"} : (i32) -> memref<4xi32>
    %done_41 = "equeue.launch"(%214, %235, %5, %129, %122, %1, %236) ( {
    ^bb0(%arg1: i32, %arg2: i32, %arg3: i32, %arg4: memref<512xf32>, %arg5: memref<4xi32>):  // no predecessors
      %4278 = "equeue.get_comp_field"(%5) {name = "stream10"} : (i32) -> i32
      %4279 = "equeue.get_comp_field"(%5) {name = "stream25"} : (i32) -> i32
      %4280 = "equeue.get_comp_field"(%5) {name = "stream26"} : (i32) -> i32
      %4281 = "equeue.get_comp_field"(%arg2) {name = "ifmap"} : (i32) -> memref<16xi32>
      %4282 = "equeue.get_comp_field"(%arg2) {name = "filter"} : (i32) -> memref<8xi32>
      %4283 = "equeue.get_comp_field"(%arg2) {name = "ofmap"} : (i32) -> memref<4xi32>
      %4284 = "equeue.get_comp_field"(%arg3) {name = "ofmap"} : (i32) -> memref<4xi32>
      %4285 = "equeue.read"(%4284, %4279) {bank = 0 : i64, size = dense<4> : tensor<1xi64>} : (memref<4xi32>, i32) -> tensor<4xi32>
      "equeue.write"(%4285, %4283) {bank = 0 : i64} : (tensor<4xi32>, memref<4xi32>) -> ()
      %4286 = "equeue.read"(%arg4, %4278) {bank = 0 : i64, size = dense<4> : tensor<1xi64>} : (memref<512xf32>, i32) -> tensor<512xf32>
      "equeue.write"(%4286, %4281) {bank = 0 : i64} : (tensor<512xf32>, memref<16xi32>) -> ()
      %4287 = "equeue.unkOp"(%4283, %4281, %4282) {op_name = "mac4"} : (memref<4xi32>, memref<16xi32>, memref<8xi32>) -> memref<4xi32>
      %4288 = "equeue.read"(%4283) {bank = 0 : i64} : (memref<4xi32>) -> tensor<i32>
      "equeue.write"(%4288, %arg5, %4280) {bank = 0 : i64, size = dense<4> : tensor<1xi64>} : (tensor<i32>, memref<4xi32>, i32) -> ()
      "equeue.return"() : () -> ()
    }) : (!equeue.signal, i32, i32, i32, i32, memref<512xf32>, memref<4xi32>) -> !equeue.signal
    %237 = "equeue.get_comp_field"(%136) {name = "proc"} : (i32) -> i32
    %238 = "equeue.get_comp_field"(%136) {name = "ofmap"} : (i32) -> memref<4xi32>
    %done_42 = "equeue.launch"(%214, %237, %5, %136, %129, %1, %238) ( {
    ^bb0(%arg1: i32, %arg2: i32, %arg3: i32, %arg4: memref<512xf32>, %arg5: memref<4xi32>):  // no predecessors
      %4278 = "equeue.get_comp_field"(%5) {name = "stream11"} : (i32) -> i32
      %4279 = "equeue.get_comp_field"(%5) {name = "stream26"} : (i32) -> i32
      %4280 = "equeue.get_comp_field"(%5) {name = "stream27"} : (i32) -> i32
      %4281 = "equeue.get_comp_field"(%arg2) {name = "ifmap"} : (i32) -> memref<16xi32>
      %4282 = "equeue.get_comp_field"(%arg2) {name = "filter"} : (i32) -> memref<8xi32>
      %4283 = "equeue.get_comp_field"(%arg2) {name = "ofmap"} : (i32) -> memref<4xi32>
      %4284 = "equeue.get_comp_field"(%arg3) {name = "ofmap"} : (i32) -> memref<4xi32>
      %4285 = "equeue.read"(%4284, %4279) {bank = 0 : i64, size = dense<4> : tensor<1xi64>} : (memref<4xi32>, i32) -> tensor<4xi32>
      "equeue.write"(%4285, %4283) {bank = 0 : i64} : (tensor<4xi32>, memref<4xi32>) -> ()
      %4286 = "equeue.read"(%arg4, %4278) {bank = 0 : i64, size = dense<4> : tensor<1xi64>} : (memref<512xf32>, i32) -> tensor<512xf32>
      "equeue.write"(%4286, %4281) {bank = 0 : i64} : (tensor<512xf32>, memref<16xi32>) -> ()
      %4287 = "equeue.unkOp"(%4283, %4281, %4282) {op_name = "mac4"} : (memref<4xi32>, memref<16xi32>, memref<8xi32>) -> memref<4xi32>
      %4288 = "equeue.read"(%4283) {bank = 0 : i64} : (memref<4xi32>) -> tensor<i32>
      "equeue.write"(%4288, %arg5, %4280) {bank = 0 : i64, size = dense<4> : tensor<1xi64>} : (tensor<i32>, memref<4xi32>, i32) -> ()
      "equeue.return"() : () -> ()
    }) : (!equeue.signal, i32, i32, i32, i32, memref<512xf32>, memref<4xi32>) -> !equeue.signal
    %239 = "equeue.get_comp_field"(%143) {name = "proc"} : (i32) -> i32
    %240 = "equeue.get_comp_field"(%143) {name = "ofmap"} : (i32) -> memref<4xi32>
    %done_43 = "equeue.launch"(%214, %239, %5, %143, %136, %1, %240) ( {
    ^bb0(%arg1: i32, %arg2: i32, %arg3: i32, %arg4: memref<512xf32>, %arg5: memref<4xi32>):  // no predecessors
      %4278 = "equeue.get_comp_field"(%5) {name = "stream12"} : (i32) -> i32
      %4279 = "equeue.get_comp_field"(%5) {name = "stream27"} : (i32) -> i32
      %4280 = "equeue.get_comp_field"(%5) {name = "stream28"} : (i32) -> i32
      %4281 = "equeue.get_comp_field"(%arg2) {name = "ifmap"} : (i32) -> memref<16xi32>
      %4282 = "equeue.get_comp_field"(%arg2) {name = "filter"} : (i32) -> memref<8xi32>
      %4283 = "equeue.get_comp_field"(%arg2) {name = "ofmap"} : (i32) -> memref<4xi32>
      %4284 = "equeue.get_comp_field"(%arg3) {name = "ofmap"} : (i32) -> memref<4xi32>
      %4285 = "equeue.read"(%4284, %4279) {bank = 0 : i64, size = dense<4> : tensor<1xi64>} : (memref<4xi32>, i32) -> tensor<4xi32>
      "equeue.write"(%4285, %4283) {bank = 0 : i64} : (tensor<4xi32>, memref<4xi32>) -> ()
      %4286 = "equeue.read"(%arg4, %4278) {bank = 0 : i64, size = dense<4> : tensor<1xi64>} : (memref<512xf32>, i32) -> tensor<512xf32>
      "equeue.write"(%4286, %4281) {bank = 0 : i64} : (tensor<512xf32>, memref<16xi32>) -> ()
      %4287 = "equeue.unkOp"(%4283, %4281, %4282) {op_name = "mac4"} : (memref<4xi32>, memref<16xi32>, memref<8xi32>) -> memref<4xi32>
      %4288 = "equeue.read"(%4283) {bank = 0 : i64} : (memref<4xi32>) -> tensor<i32>
      "equeue.write"(%4288, %arg5, %4280) {bank = 0 : i64, size = dense<4> : tensor<1xi64>} : (tensor<i32>, memref<4xi32>, i32) -> ()
      "equeue.return"() : () -> ()
    }) : (!equeue.signal, i32, i32, i32, i32, memref<512xf32>, memref<4xi32>) -> !equeue.signal
    %241 = "equeue.get_comp_field"(%150) {name = "proc"} : (i32) -> i32
    %242 = "equeue.get_comp_field"(%150) {name = "ofmap"} : (i32) -> memref<4xi32>
    %done_44 = "equeue.launch"(%214, %241, %5, %150, %143, %1, %242) ( {
    ^bb0(%arg1: i32, %arg2: i32, %arg3: i32, %arg4: memref<512xf32>, %arg5: memref<4xi32>):  // no predecessors
      %4278 = "equeue.get_comp_field"(%5) {name = "stream13"} : (i32) -> i32
      %4279 = "equeue.get_comp_field"(%5) {name = "stream28"} : (i32) -> i32
      %4280 = "equeue.get_comp_field"(%5) {name = "stream29"} : (i32) -> i32
      %4281 = "equeue.get_comp_field"(%arg2) {name = "ifmap"} : (i32) -> memref<16xi32>
      %4282 = "equeue.get_comp_field"(%arg2) {name = "filter"} : (i32) -> memref<8xi32>
      %4283 = "equeue.get_comp_field"(%arg2) {name = "ofmap"} : (i32) -> memref<4xi32>
      %4284 = "equeue.get_comp_field"(%arg3) {name = "ofmap"} : (i32) -> memref<4xi32>
      %4285 = "equeue.read"(%4284, %4279) {bank = 0 : i64, size = dense<4> : tensor<1xi64>} : (memref<4xi32>, i32) -> tensor<4xi32>
      "equeue.write"(%4285, %4283) {bank = 0 : i64} : (tensor<4xi32>, memref<4xi32>) -> ()
      %4286 = "equeue.read"(%arg4, %4278) {bank = 0 : i64, size = dense<4> : tensor<1xi64>} : (memref<512xf32>, i32) -> tensor<512xf32>
      "equeue.write"(%4286, %4281) {bank = 0 : i64} : (tensor<512xf32>, memref<16xi32>) -> ()
      %4287 = "equeue.unkOp"(%4283, %4281, %4282) {op_name = "mac4"} : (memref<4xi32>, memref<16xi32>, memref<8xi32>) -> memref<4xi32>
      %4288 = "equeue.read"(%4283) {bank = 0 : i64} : (memref<4xi32>) -> tensor<i32>
      "equeue.write"(%4288, %arg5, %4280) {bank = 0 : i64, size = dense<4> : tensor<1xi64>} : (tensor<i32>, memref<4xi32>, i32) -> ()
      "equeue.return"() : () -> ()
    }) : (!equeue.signal, i32, i32, i32, i32, memref<512xf32>, memref<4xi32>) -> !equeue.signal
    %243 = "equeue.get_comp_field"(%157) {name = "proc"} : (i32) -> i32
    %244 = "equeue.get_comp_field"(%157) {name = "ofmap"} : (i32) -> memref<4xi32>
    %done_45 = "equeue.launch"(%214, %243, %5, %157, %150, %1, %244) ( {
    ^bb0(%arg1: i32, %arg2: i32, %arg3: i32, %arg4: memref<512xf32>, %arg5: memref<4xi32>):  // no predecessors
      %4278 = "equeue.get_comp_field"(%5) {name = "stream14"} : (i32) -> i32
      %4279 = "equeue.get_comp_field"(%5) {name = "stream29"} : (i32) -> i32
      %4280 = "equeue.get_comp_field"(%5) {name = "stream30"} : (i32) -> i32
      %4281 = "equeue.get_comp_field"(%arg2) {name = "ifmap"} : (i32) -> memref<16xi32>
      %4282 = "equeue.get_comp_field"(%arg2) {name = "filter"} : (i32) -> memref<8xi32>
      %4283 = "equeue.get_comp_field"(%arg2) {name = "ofmap"} : (i32) -> memref<4xi32>
      %4284 = "equeue.get_comp_field"(%arg3) {name = "ofmap"} : (i32) -> memref<4xi32>
      %4285 = "equeue.read"(%4284, %4279) {bank = 0 : i64, size = dense<4> : tensor<1xi64>} : (memref<4xi32>, i32) -> tensor<4xi32>
      "equeue.write"(%4285, %4283) {bank = 0 : i64} : (tensor<4xi32>, memref<4xi32>) -> ()
      %4286 = "equeue.read"(%arg4, %4278) {bank = 0 : i64, size = dense<4> : tensor<1xi64>} : (memref<512xf32>, i32) -> tensor<512xf32>
      "equeue.write"(%4286, %4281) {bank = 0 : i64} : (tensor<512xf32>, memref<16xi32>) -> ()
      %4287 = "equeue.unkOp"(%4283, %4281, %4282) {op_name = "mac4"} : (memref<4xi32>, memref<16xi32>, memref<8xi32>) -> memref<4xi32>
      %4288 = "equeue.read"(%4283) {bank = 0 : i64} : (memref<4xi32>) -> tensor<i32>
      "equeue.write"(%4288, %arg5, %4280) {bank = 0 : i64, size = dense<4> : tensor<1xi64>} : (tensor<i32>, memref<4xi32>, i32) -> ()
      "equeue.return"() : () -> ()
    }) : (!equeue.signal, i32, i32, i32, i32, memref<512xf32>, memref<4xi32>) -> !equeue.signal
    %245 = "equeue.get_comp_field"(%164) {name = "proc"} : (i32) -> i32
    %done_46 = "equeue.launch"(%214, %245, %5, %164, %157, %1, %3) ( {
    ^bb0(%arg1: i32, %arg2: i32, %arg3: i32, %arg4: memref<512xf32>, %arg5: memref<481xf32>):  // no predecessors
      %4278 = "equeue.get_comp_field"(%5) {name = "stream15"} : (i32) -> i32
      %4279 = "equeue.get_comp_field"(%5) {name = "stream30"} : (i32) -> i32
      %4280 = "equeue.get_comp_field"(%5) {name = "stream31"} : (i32) -> i32
      %4281 = "equeue.get_comp_field"(%arg2) {name = "ifmap"} : (i32) -> memref<16xi32>
      %4282 = "equeue.get_comp_field"(%arg2) {name = "filter"} : (i32) -> memref<8xi32>
      %4283 = "equeue.get_comp_field"(%arg2) {name = "ofmap"} : (i32) -> memref<4xi32>
      %4284 = "equeue.get_comp_field"(%arg3) {name = "ofmap"} : (i32) -> memref<4xi32>
      %4285 = "equeue.read"(%4284, %4279) {bank = 0 : i64, size = dense<4> : tensor<1xi64>} : (memref<4xi32>, i32) -> tensor<4xi32>
      "equeue.write"(%4285, %4283) {bank = 0 : i64} : (tensor<4xi32>, memref<4xi32>) -> ()
      %4286 = "equeue.read"(%arg4, %4278) {bank = 0 : i64, size = dense<4> : tensor<1xi64>} : (memref<512xf32>, i32) -> tensor<512xf32>
      "equeue.write"(%4286, %4281) {bank = 0 : i64} : (tensor<512xf32>, memref<16xi32>) -> ()
      %4287 = "equeue.unkOp"(%4283, %4281, %4282) {op_name = "mac4"} : (memref<4xi32>, memref<16xi32>, memref<8xi32>) -> memref<4xi32>
      %4288 = "equeue.read"(%4283) {bank = 0 : i64} : (memref<4xi32>) -> tensor<i32>
      "equeue.write"(%4288, %arg5, %4280) {bank = 0 : i64, size = dense<4> : tensor<1xi64>} : (tensor<i32>, memref<481xf32>, i32) -> ()
      "equeue.return"() : () -> ()
    }) : (!equeue.signal, i32, i32, i32, i32, memref<512xf32>, memref<481xf32>) -> !equeue.signal
    %246 = "equeue.control_start"() : () -> !equeue.signal
    %247 = "equeue.get_comp_field"(%59) {name = "proc"} : (i32) -> i32
    %248 = "equeue.get_comp_field"(%59) {name = "ofmap"} : (i32) -> memref<4xi32>
    %done_47 = "equeue.launch"(%246, %247, %5, %59, %1, %248) ( {
    ^bb0(%arg1: i32, %arg2: i32, %arg3: memref<512xf32>, %arg4: memref<4xi32>):  // no predecessors
      %4278 = "equeue.get_comp_field"(%5) {name = "stream0"} : (i32) -> i32
      %4279 = "equeue.get_comp_field"(%5) {name = "stream16"} : (i32) -> i32
      %4280 = "equeue.get_comp_field"(%arg2) {name = "ifmap"} : (i32) -> memref<16xi32>
      %4281 = "equeue.get_comp_field"(%arg2) {name = "filter"} : (i32) -> memref<8xi32>
      %4282 = "equeue.get_comp_field"(%arg2) {name = "ofmap"} : (i32) -> memref<4xi32>
      %4283 = "equeue.read"(%arg3, %4278) {bank = 0 : i64, size = dense<4> : tensor<1xi64>} : (memref<512xf32>, i32) -> tensor<512xf32>
      "equeue.write"(%4283, %4280) {bank = 0 : i64} : (tensor<512xf32>, memref<16xi32>) -> ()
      %4284 = "equeue.unkOp"(%4282, %4280, %4281) {op_name = "mul4"} : (memref<4xi32>, memref<16xi32>, memref<8xi32>) -> memref<4xi32>
      %4285 = "equeue.read"(%4282) {bank = 0 : i64} : (memref<4xi32>) -> tensor<i32>
      "equeue.write"(%4285, %arg4, %4279) {bank = 0 : i64, size = dense<4> : tensor<1xi64>} : (tensor<i32>, memref<4xi32>, i32) -> ()
      "equeue.return"() : () -> ()
    }) : (!equeue.signal, i32, i32, i32, memref<512xf32>, memref<4xi32>) -> !equeue.signal
    %249 = "equeue.get_comp_field"(%66) {name = "proc"} : (i32) -> i32
    %250 = "equeue.get_comp_field"(%66) {name = "ofmap"} : (i32) -> memref<4xi32>
    %done_48 = "equeue.launch"(%246, %249, %5, %66, %59, %1, %250) ( {
    ^bb0(%arg1: i32, %arg2: i32, %arg3: i32, %arg4: memref<512xf32>, %arg5: memref<4xi32>):  // no predecessors
      %4278 = "equeue.get_comp_field"(%5) {name = "stream1"} : (i32) -> i32
      %4279 = "equeue.get_comp_field"(%5) {name = "stream16"} : (i32) -> i32
      %4280 = "equeue.get_comp_field"(%5) {name = "stream17"} : (i32) -> i32
      %4281 = "equeue.get_comp_field"(%arg2) {name = "ifmap"} : (i32) -> memref<16xi32>
      %4282 = "equeue.get_comp_field"(%arg2) {name = "filter"} : (i32) -> memref<8xi32>
      %4283 = "equeue.get_comp_field"(%arg2) {name = "ofmap"} : (i32) -> memref<4xi32>
      %4284 = "equeue.get_comp_field"(%arg3) {name = "ofmap"} : (i32) -> memref<4xi32>
      %4285 = "equeue.read"(%4284, %4279) {bank = 0 : i64, size = dense<4> : tensor<1xi64>} : (memref<4xi32>, i32) -> tensor<4xi32>
      "equeue.write"(%4285, %4283) {bank = 0 : i64} : (tensor<4xi32>, memref<4xi32>) -> ()
      %4286 = "equeue.read"(%arg4, %4278) {bank = 0 : i64, size = dense<4> : tensor<1xi64>} : (memref<512xf32>, i32) -> tensor<512xf32>
      "equeue.write"(%4286, %4281) {bank = 0 : i64} : (tensor<512xf32>, memref<16xi32>) -> ()
      %4287 = "equeue.unkOp"(%4283, %4281, %4282) {op_name = "mac4"} : (memref<4xi32>, memref<16xi32>, memref<8xi32>) -> memref<4xi32>
      %4288 = "equeue.read"(%4283) {bank = 0 : i64} : (memref<4xi32>) -> tensor<i32>
      "equeue.write"(%4288, %arg5, %4280) {bank = 0 : i64, size = dense<4> : tensor<1xi64>} : (tensor<i32>, memref<4xi32>, i32) -> ()
      "equeue.return"() : () -> ()
    }) : (!equeue.signal, i32, i32, i32, i32, memref<512xf32>, memref<4xi32>) -> !equeue.signal
    %251 = "equeue.get_comp_field"(%73) {name = "proc"} : (i32) -> i32
    %252 = "equeue.get_comp_field"(%73) {name = "ofmap"} : (i32) -> memref<4xi32>
    %done_49 = "equeue.launch"(%246, %251, %5, %73, %66, %1, %252) ( {
    ^bb0(%arg1: i32, %arg2: i32, %arg3: i32, %arg4: memref<512xf32>, %arg5: memref<4xi32>):  // no predecessors
      %4278 = "equeue.get_comp_field"(%5) {name = "stream2"} : (i32) -> i32
      %4279 = "equeue.get_comp_field"(%5) {name = "stream17"} : (i32) -> i32
      %4280 = "equeue.get_comp_field"(%5) {name = "stream18"} : (i32) -> i32
      %4281 = "equeue.get_comp_field"(%arg2) {name = "ifmap"} : (i32) -> memref<16xi32>
      %4282 = "equeue.get_comp_field"(%arg2) {name = "filter"} : (i32) -> memref<8xi32>
      %4283 = "equeue.get_comp_field"(%arg2) {name = "ofmap"} : (i32) -> memref<4xi32>
      %4284 = "equeue.get_comp_field"(%arg3) {name = "ofmap"} : (i32) -> memref<4xi32>
      %4285 = "equeue.read"(%4284, %4279) {bank = 0 : i64, size = dense<4> : tensor<1xi64>} : (memref<4xi32>, i32) -> tensor<4xi32>
      "equeue.write"(%4285, %4283) {bank = 0 : i64} : (tensor<4xi32>, memref<4xi32>) -> ()
      %4286 = "equeue.read"(%arg4, %4278) {bank = 0 : i64, size = dense<4> : tensor<1xi64>} : (memref<512xf32>, i32) -> tensor<512xf32>
      "equeue.write"(%4286, %4281) {bank = 0 : i64} : (tensor<512xf32>, memref<16xi32>) -> ()
      %4287 = "equeue.unkOp"(%4283, %4281, %4282) {op_name = "mac4"} : (memref<4xi32>, memref<16xi32>, memref<8xi32>) -> memref<4xi32>
      %4288 = "equeue.read"(%4283) {bank = 0 : i64} : (memref<4xi32>) -> tensor<i32>
      "equeue.write"(%4288, %arg5, %4280) {bank = 0 : i64, size = dense<4> : tensor<1xi64>} : (tensor<i32>, memref<4xi32>, i32) -> ()
      "equeue.return"() : () -> ()
    }) : (!equeue.signal, i32, i32, i32, i32, memref<512xf32>, memref<4xi32>) -> !equeue.signal
    %253 = "equeue.get_comp_field"(%80) {name = "proc"} : (i32) -> i32
    %254 = "equeue.get_comp_field"(%80) {name = "ofmap"} : (i32) -> memref<4xi32>
    %done_50 = "equeue.launch"(%246, %253, %5, %80, %73, %1, %254) ( {
    ^bb0(%arg1: i32, %arg2: i32, %arg3: i32, %arg4: memref<512xf32>, %arg5: memref<4xi32>):  // no predecessors
      %4278 = "equeue.get_comp_field"(%5) {name = "stream3"} : (i32) -> i32
      %4279 = "equeue.get_comp_field"(%5) {name = "stream18"} : (i32) -> i32
      %4280 = "equeue.get_comp_field"(%5) {name = "stream19"} : (i32) -> i32
      %4281 = "equeue.get_comp_field"(%arg2) {name = "ifmap"} : (i32) -> memref<16xi32>
      %4282 = "equeue.get_comp_field"(%arg2) {name = "filter"} : (i32) -> memref<8xi32>
      %4283 = "equeue.get_comp_field"(%arg2) {name = "ofmap"} : (i32) -> memref<4xi32>
      %4284 = "equeue.get_comp_field"(%arg3) {name = "ofmap"} : (i32) -> memref<4xi32>
      %4285 = "equeue.read"(%4284, %4279) {bank = 0 : i64, size = dense<4> : tensor<1xi64>} : (memref<4xi32>, i32) -> tensor<4xi32>
      "equeue.write"(%4285, %4283) {bank = 0 : i64} : (tensor<4xi32>, memref<4xi32>) -> ()
      %4286 = "equeue.read"(%arg4, %4278) {bank = 0 : i64, size = dense<4> : tensor<1xi64>} : (memref<512xf32>, i32) -> tensor<512xf32>
      "equeue.write"(%4286, %4281) {bank = 0 : i64} : (tensor<512xf32>, memref<16xi32>) -> ()
      %4287 = "equeue.unkOp"(%4283, %4281, %4282) {op_name = "mac4"} : (memref<4xi32>, memref<16xi32>, memref<8xi32>) -> memref<4xi32>
      %4288 = "equeue.read"(%4283) {bank = 0 : i64} : (memref<4xi32>) -> tensor<i32>
      "equeue.write"(%4288, %arg5, %4280) {bank = 0 : i64, size = dense<4> : tensor<1xi64>} : (tensor<i32>, memref<4xi32>, i32) -> ()
      "equeue.return"() : () -> ()
    }) : (!equeue.signal, i32, i32, i32, i32, memref<512xf32>, memref<4xi32>) -> !equeue.signal
    %255 = "equeue.get_comp_field"(%87) {name = "proc"} : (i32) -> i32
    %256 = "equeue.get_comp_field"(%87) {name = "ofmap"} : (i32) -> memref<4xi32>
    %done_51 = "equeue.launch"(%246, %255, %5, %87, %80, %1, %256) ( {
    ^bb0(%arg1: i32, %arg2: i32, %arg3: i32, %arg4: memref<512xf32>, %arg5: memref<4xi32>):  // no predecessors
      %4278 = "equeue.get_comp_field"(%5) {name = "stream4"} : (i32) -> i32
      %4279 = "equeue.get_comp_field"(%5) {name = "stream19"} : (i32) -> i32
      %4280 = "equeue.get_comp_field"(%5) {name = "stream20"} : (i32) -> i32
      %4281 = "equeue.get_comp_field"(%arg2) {name = "ifmap"} : (i32) -> memref<16xi32>
      %4282 = "equeue.get_comp_field"(%arg2) {name = "filter"} : (i32) -> memref<8xi32>
      %4283 = "equeue.get_comp_field"(%arg2) {name = "ofmap"} : (i32) -> memref<4xi32>
      %4284 = "equeue.get_comp_field"(%arg3) {name = "ofmap"} : (i32) -> memref<4xi32>
      %4285 = "equeue.read"(%4284, %4279) {bank = 0 : i64, size = dense<4> : tensor<1xi64>} : (memref<4xi32>, i32) -> tensor<4xi32>
      "equeue.write"(%4285, %4283) {bank = 0 : i64} : (tensor<4xi32>, memref<4xi32>) -> ()
      %4286 = "equeue.read"(%arg4, %4278) {bank = 0 : i64, size = dense<4> : tensor<1xi64>} : (memref<512xf32>, i32) -> tensor<512xf32>
      "equeue.write"(%4286, %4281) {bank = 0 : i64} : (tensor<512xf32>, memref<16xi32>) -> ()
      %4287 = "equeue.unkOp"(%4283, %4281, %4282) {op_name = "mac4"} : (memref<4xi32>, memref<16xi32>, memref<8xi32>) -> memref<4xi32>
      %4288 = "equeue.read"(%4283) {bank = 0 : i64} : (memref<4xi32>) -> tensor<i32>
      "equeue.write"(%4288, %arg5, %4280) {bank = 0 : i64, size = dense<4> : tensor<1xi64>} : (tensor<i32>, memref<4xi32>, i32) -> ()
      "equeue.return"() : () -> ()
    }) : (!equeue.signal, i32, i32, i32, i32, memref<512xf32>, memref<4xi32>) -> !equeue.signal
    %257 = "equeue.get_comp_field"(%94) {name = "proc"} : (i32) -> i32
    %258 = "equeue.get_comp_field"(%94) {name = "ofmap"} : (i32) -> memref<4xi32>
    %done_52 = "equeue.launch"(%246, %257, %5, %94, %87, %1, %258) ( {
    ^bb0(%arg1: i32, %arg2: i32, %arg3: i32, %arg4: memref<512xf32>, %arg5: memref<4xi32>):  // no predecessors
      %4278 = "equeue.get_comp_field"(%5) {name = "stream5"} : (i32) -> i32
      %4279 = "equeue.get_comp_field"(%5) {name = "stream20"} : (i32) -> i32
      %4280 = "equeue.get_comp_field"(%5) {name = "stream21"} : (i32) -> i32
      %4281 = "equeue.get_comp_field"(%arg2) {name = "ifmap"} : (i32) -> memref<16xi32>
      %4282 = "equeue.get_comp_field"(%arg2) {name = "filter"} : (i32) -> memref<8xi32>
      %4283 = "equeue.get_comp_field"(%arg2) {name = "ofmap"} : (i32) -> memref<4xi32>
      %4284 = "equeue.get_comp_field"(%arg3) {name = "ofmap"} : (i32) -> memref<4xi32>
      %4285 = "equeue.read"(%4284, %4279) {bank = 0 : i64, size = dense<4> : tensor<1xi64>} : (memref<4xi32>, i32) -> tensor<4xi32>
      "equeue.write"(%4285, %4283) {bank = 0 : i64} : (tensor<4xi32>, memref<4xi32>) -> ()
      %4286 = "equeue.read"(%arg4, %4278) {bank = 0 : i64, size = dense<4> : tensor<1xi64>} : (memref<512xf32>, i32) -> tensor<512xf32>
      "equeue.write"(%4286, %4281) {bank = 0 : i64} : (tensor<512xf32>, memref<16xi32>) -> ()
      %4287 = "equeue.unkOp"(%4283, %4281, %4282) {op_name = "mac4"} : (memref<4xi32>, memref<16xi32>, memref<8xi32>) -> memref<4xi32>
      %4288 = "equeue.read"(%4283) {bank = 0 : i64} : (memref<4xi32>) -> tensor<i32>
      "equeue.write"(%4288, %arg5, %4280) {bank = 0 : i64, size = dense<4> : tensor<1xi64>} : (tensor<i32>, memref<4xi32>, i32) -> ()
      "equeue.return"() : () -> ()
    }) : (!equeue.signal, i32, i32, i32, i32, memref<512xf32>, memref<4xi32>) -> !equeue.signal
    %259 = "equeue.get_comp_field"(%101) {name = "proc"} : (i32) -> i32
    %260 = "equeue.get_comp_field"(%101) {name = "ofmap"} : (i32) -> memref<4xi32>
    %done_53 = "equeue.launch"(%246, %259, %5, %101, %94, %1, %260) ( {
    ^bb0(%arg1: i32, %arg2: i32, %arg3: i32, %arg4: memref<512xf32>, %arg5: memref<4xi32>):  // no predecessors
      %4278 = "equeue.get_comp_field"(%5) {name = "stream6"} : (i32) -> i32
      %4279 = "equeue.get_comp_field"(%5) {name = "stream21"} : (i32) -> i32
      %4280 = "equeue.get_comp_field"(%5) {name = "stream22"} : (i32) -> i32
      %4281 = "equeue.get_comp_field"(%arg2) {name = "ifmap"} : (i32) -> memref<16xi32>
      %4282 = "equeue.get_comp_field"(%arg2) {name = "filter"} : (i32) -> memref<8xi32>
      %4283 = "equeue.get_comp_field"(%arg2) {name = "ofmap"} : (i32) -> memref<4xi32>
      %4284 = "equeue.get_comp_field"(%arg3) {name = "ofmap"} : (i32) -> memref<4xi32>
      %4285 = "equeue.read"(%4284, %4279) {bank = 0 : i64, size = dense<4> : tensor<1xi64>} : (memref<4xi32>, i32) -> tensor<4xi32>
      "equeue.write"(%4285, %4283) {bank = 0 : i64} : (tensor<4xi32>, memref<4xi32>) -> ()
      %4286 = "equeue.read"(%arg4, %4278) {bank = 0 : i64, size = dense<4> : tensor<1xi64>} : (memref<512xf32>, i32) -> tensor<512xf32>
      "equeue.write"(%4286, %4281) {bank = 0 : i64} : (tensor<512xf32>, memref<16xi32>) -> ()
      %4287 = "equeue.unkOp"(%4283, %4281, %4282) {op_name = "mac4"} : (memref<4xi32>, memref<16xi32>, memref<8xi32>) -> memref<4xi32>
      %4288 = "equeue.read"(%4283) {bank = 0 : i64} : (memref<4xi32>) -> tensor<i32>
      "equeue.write"(%4288, %arg5, %4280) {bank = 0 : i64, size = dense<4> : tensor<1xi64>} : (tensor<i32>, memref<4xi32>, i32) -> ()
      "equeue.return"() : () -> ()
    }) : (!equeue.signal, i32, i32, i32, i32, memref<512xf32>, memref<4xi32>) -> !equeue.signal
    %261 = "equeue.get_comp_field"(%108) {name = "proc"} : (i32) -> i32
    %262 = "equeue.get_comp_field"(%108) {name = "ofmap"} : (i32) -> memref<4xi32>
    %done_54 = "equeue.launch"(%246, %261, %5, %108, %101, %1, %262) ( {
    ^bb0(%arg1: i32, %arg2: i32, %arg3: i32, %arg4: memref<512xf32>, %arg5: memref<4xi32>):  // no predecessors
      %4278 = "equeue.get_comp_field"(%5) {name = "stream7"} : (i32) -> i32
      %4279 = "equeue.get_comp_field"(%5) {name = "stream22"} : (i32) -> i32
      %4280 = "equeue.get_comp_field"(%5) {name = "stream23"} : (i32) -> i32
      %4281 = "equeue.get_comp_field"(%arg2) {name = "ifmap"} : (i32) -> memref<16xi32>
      %4282 = "equeue.get_comp_field"(%arg2) {name = "filter"} : (i32) -> memref<8xi32>
      %4283 = "equeue.get_comp_field"(%arg2) {name = "ofmap"} : (i32) -> memref<4xi32>
      %4284 = "equeue.get_comp_field"(%arg3) {name = "ofmap"} : (i32) -> memref<4xi32>
      %4285 = "equeue.read"(%4284, %4279) {bank = 0 : i64, size = dense<4> : tensor<1xi64>} : (memref<4xi32>, i32) -> tensor<4xi32>
      "equeue.write"(%4285, %4283) {bank = 0 : i64} : (tensor<4xi32>, memref<4xi32>) -> ()
      %4286 = "equeue.read"(%arg4, %4278) {bank = 0 : i64, size = dense<4> : tensor<1xi64>} : (memref<512xf32>, i32) -> tensor<512xf32>
      "equeue.write"(%4286, %4281) {bank = 0 : i64} : (tensor<512xf32>, memref<16xi32>) -> ()
      %4287 = "equeue.unkOp"(%4283, %4281, %4282) {op_name = "mac4"} : (memref<4xi32>, memref<16xi32>, memref<8xi32>) -> memref<4xi32>
      %4288 = "equeue.read"(%4283) {bank = 0 : i64} : (memref<4xi32>) -> tensor<i32>
      "equeue.write"(%4288, %arg5, %4280) {bank = 0 : i64, size = dense<4> : tensor<1xi64>} : (tensor<i32>, memref<4xi32>, i32) -> ()
      "equeue.return"() : () -> ()
    }) : (!equeue.signal, i32, i32, i32, i32, memref<512xf32>, memref<4xi32>) -> !equeue.signal
    %263 = "equeue.get_comp_field"(%115) {name = "proc"} : (i32) -> i32
    %264 = "equeue.get_comp_field"(%115) {name = "ofmap"} : (i32) -> memref<4xi32>
    %done_55 = "equeue.launch"(%246, %263, %5, %115, %108, %1, %264) ( {
    ^bb0(%arg1: i32, %arg2: i32, %arg3: i32, %arg4: memref<512xf32>, %arg5: memref<4xi32>):  // no predecessors
      %4278 = "equeue.get_comp_field"(%5) {name = "stream8"} : (i32) -> i32
      %4279 = "equeue.get_comp_field"(%5) {name = "stream23"} : (i32) -> i32
      %4280 = "equeue.get_comp_field"(%5) {name = "stream24"} : (i32) -> i32
      %4281 = "equeue.get_comp_field"(%arg2) {name = "ifmap"} : (i32) -> memref<16xi32>
      %4282 = "equeue.get_comp_field"(%arg2) {name = "filter"} : (i32) -> memref<8xi32>
      %4283 = "equeue.get_comp_field"(%arg2) {name = "ofmap"} : (i32) -> memref<4xi32>
      %4284 = "equeue.get_comp_field"(%arg3) {name = "ofmap"} : (i32) -> memref<4xi32>
      %4285 = "equeue.read"(%4284, %4279) {bank = 0 : i64, size = dense<4> : tensor<1xi64>} : (memref<4xi32>, i32) -> tensor<4xi32>
      "equeue.write"(%4285, %4283) {bank = 0 : i64} : (tensor<4xi32>, memref<4xi32>) -> ()
      %4286 = "equeue.read"(%arg4, %4278) {bank = 0 : i64, size = dense<4> : tensor<1xi64>} : (memref<512xf32>, i32) -> tensor<512xf32>
      "equeue.write"(%4286, %4281) {bank = 0 : i64} : (tensor<512xf32>, memref<16xi32>) -> ()
      %4287 = "equeue.unkOp"(%4283, %4281, %4282) {op_name = "mac4"} : (memref<4xi32>, memref<16xi32>, memref<8xi32>) -> memref<4xi32>
      %4288 = "equeue.read"(%4283) {bank = 0 : i64} : (memref<4xi32>) -> tensor<i32>
      "equeue.write"(%4288, %arg5, %4280) {bank = 0 : i64, size = dense<4> : tensor<1xi64>} : (tensor<i32>, memref<4xi32>, i32) -> ()
      "equeue.return"() : () -> ()
    }) : (!equeue.signal, i32, i32, i32, i32, memref<512xf32>, memref<4xi32>) -> !equeue.signal
    %265 = "equeue.get_comp_field"(%122) {name = "proc"} : (i32) -> i32
    %266 = "equeue.get_comp_field"(%122) {name = "ofmap"} : (i32) -> memref<4xi32>
    %done_56 = "equeue.launch"(%246, %265, %5, %122, %115, %1, %266) ( {
    ^bb0(%arg1: i32, %arg2: i32, %arg3: i32, %arg4: memref<512xf32>, %arg5: memref<4xi32>):  // no predecessors
      %4278 = "equeue.get_comp_field"(%5) {name = "stream9"} : (i32) -> i32
      %4279 = "equeue.get_comp_field"(%5) {name = "stream24"} : (i32) -> i32
      %4280 = "equeue.get_comp_field"(%5) {name = "stream25"} : (i32) -> i32
      %4281 = "equeue.get_comp_field"(%arg2) {name = "ifmap"} : (i32) -> memref<16xi32>
      %4282 = "equeue.get_comp_field"(%arg2) {name = "filter"} : (i32) -> memref<8xi32>
      %4283 = "equeue.get_comp_field"(%arg2) {name = "ofmap"} : (i32) -> memref<4xi32>
      %4284 = "equeue.get_comp_field"(%arg3) {name = "ofmap"} : (i32) -> memref<4xi32>
      %4285 = "equeue.read"(%4284, %4279) {bank = 0 : i64, size = dense<4> : tensor<1xi64>} : (memref<4xi32>, i32) -> tensor<4xi32>
      "equeue.write"(%4285, %4283) {bank = 0 : i64} : (tensor<4xi32>, memref<4xi32>) -> ()
      %4286 = "equeue.read"(%arg4, %4278) {bank = 0 : i64, size = dense<4> : tensor<1xi64>} : (memref<512xf32>, i32) -> tensor<512xf32>
      "equeue.write"(%4286, %4281) {bank = 0 : i64} : (tensor<512xf32>, memref<16xi32>) -> ()
      %4287 = "equeue.unkOp"(%4283, %4281, %4282) {op_name = "mac4"} : (memref<4xi32>, memref<16xi32>, memref<8xi32>) -> memref<4xi32>
      %4288 = "equeue.read"(%4283) {bank = 0 : i64} : (memref<4xi32>) -> tensor<i32>
      "equeue.write"(%4288, %arg5, %4280) {bank = 0 : i64, size = dense<4> : tensor<1xi64>} : (tensor<i32>, memref<4xi32>, i32) -> ()
      "equeue.return"() : () -> ()
    }) : (!equeue.signal, i32, i32, i32, i32, memref<512xf32>, memref<4xi32>) -> !equeue.signal
    %267 = "equeue.get_comp_field"(%129) {name = "proc"} : (i32) -> i32
    %268 = "equeue.get_comp_field"(%129) {name = "ofmap"} : (i32) -> memref<4xi32>
    %done_57 = "equeue.launch"(%246, %267, %5, %129, %122, %1, %268) ( {
    ^bb0(%arg1: i32, %arg2: i32, %arg3: i32, %arg4: memref<512xf32>, %arg5: memref<4xi32>):  // no predecessors
      %4278 = "equeue.get_comp_field"(%5) {name = "stream10"} : (i32) -> i32
      %4279 = "equeue.get_comp_field"(%5) {name = "stream25"} : (i32) -> i32
      %4280 = "equeue.get_comp_field"(%5) {name = "stream26"} : (i32) -> i32
      %4281 = "equeue.get_comp_field"(%arg2) {name = "ifmap"} : (i32) -> memref<16xi32>
      %4282 = "equeue.get_comp_field"(%arg2) {name = "filter"} : (i32) -> memref<8xi32>
      %4283 = "equeue.get_comp_field"(%arg2) {name = "ofmap"} : (i32) -> memref<4xi32>
      %4284 = "equeue.get_comp_field"(%arg3) {name = "ofmap"} : (i32) -> memref<4xi32>
      %4285 = "equeue.read"(%4284, %4279) {bank = 0 : i64, size = dense<4> : tensor<1xi64>} : (memref<4xi32>, i32) -> tensor<4xi32>
      "equeue.write"(%4285, %4283) {bank = 0 : i64} : (tensor<4xi32>, memref<4xi32>) -> ()
      %4286 = "equeue.read"(%arg4, %4278) {bank = 0 : i64, size = dense<4> : tensor<1xi64>} : (memref<512xf32>, i32) -> tensor<512xf32>
      "equeue.write"(%4286, %4281) {bank = 0 : i64} : (tensor<512xf32>, memref<16xi32>) -> ()
      %4287 = "equeue.unkOp"(%4283, %4281, %4282) {op_name = "mac4"} : (memref<4xi32>, memref<16xi32>, memref<8xi32>) -> memref<4xi32>
      %4288 = "equeue.read"(%4283) {bank = 0 : i64} : (memref<4xi32>) -> tensor<i32>
      "equeue.write"(%4288, %arg5, %4280) {bank = 0 : i64, size = dense<4> : tensor<1xi64>} : (tensor<i32>, memref<4xi32>, i32) -> ()
      "equeue.return"() : () -> ()
    }) : (!equeue.signal, i32, i32, i32, i32, memref<512xf32>, memref<4xi32>) -> !equeue.signal
    %269 = "equeue.get_comp_field"(%136) {name = "proc"} : (i32) -> i32
    %270 = "equeue.get_comp_field"(%136) {name = "ofmap"} : (i32) -> memref<4xi32>
    %done_58 = "equeue.launch"(%246, %269, %5, %136, %129, %1, %270) ( {
    ^bb0(%arg1: i32, %arg2: i32, %arg3: i32, %arg4: memref<512xf32>, %arg5: memref<4xi32>):  // no predecessors
      %4278 = "equeue.get_comp_field"(%5) {name = "stream11"} : (i32) -> i32
      %4279 = "equeue.get_comp_field"(%5) {name = "stream26"} : (i32) -> i32
      %4280 = "equeue.get_comp_field"(%5) {name = "stream27"} : (i32) -> i32
      %4281 = "equeue.get_comp_field"(%arg2) {name = "ifmap"} : (i32) -> memref<16xi32>
      %4282 = "equeue.get_comp_field"(%arg2) {name = "filter"} : (i32) -> memref<8xi32>
      %4283 = "equeue.get_comp_field"(%arg2) {name = "ofmap"} : (i32) -> memref<4xi32>
      %4284 = "equeue.get_comp_field"(%arg3) {name = "ofmap"} : (i32) -> memref<4xi32>
      %4285 = "equeue.read"(%4284, %4279) {bank = 0 : i64, size = dense<4> : tensor<1xi64>} : (memref<4xi32>, i32) -> tensor<4xi32>
      "equeue.write"(%4285, %4283) {bank = 0 : i64} : (tensor<4xi32>, memref<4xi32>) -> ()
      %4286 = "equeue.read"(%arg4, %4278) {bank = 0 : i64, size = dense<4> : tensor<1xi64>} : (memref<512xf32>, i32) -> tensor<512xf32>
      "equeue.write"(%4286, %4281) {bank = 0 : i64} : (tensor<512xf32>, memref<16xi32>) -> ()
      %4287 = "equeue.unkOp"(%4283, %4281, %4282) {op_name = "mac4"} : (memref<4xi32>, memref<16xi32>, memref<8xi32>) -> memref<4xi32>
      %4288 = "equeue.read"(%4283) {bank = 0 : i64} : (memref<4xi32>) -> tensor<i32>
      "equeue.write"(%4288, %arg5, %4280) {bank = 0 : i64, size = dense<4> : tensor<1xi64>} : (tensor<i32>, memref<4xi32>, i32) -> ()
      "equeue.return"() : () -> ()
    }) : (!equeue.signal, i32, i32, i32, i32, memref<512xf32>, memref<4xi32>) -> !equeue.signal
    %271 = "equeue.get_comp_field"(%143) {name = "proc"} : (i32) -> i32
    %272 = "equeue.get_comp_field"(%143) {name = "ofmap"} : (i32) -> memref<4xi32>
    %done_59 = "equeue.launch"(%246, %271, %5, %143, %136, %1, %272) ( {
    ^bb0(%arg1: i32, %arg2: i32, %arg3: i32, %arg4: memref<512xf32>, %arg5: memref<4xi32>):  // no predecessors
      %4278 = "equeue.get_comp_field"(%5) {name = "stream12"} : (i32) -> i32
      %4279 = "equeue.get_comp_field"(%5) {name = "stream27"} : (i32) -> i32
      %4280 = "equeue.get_comp_field"(%5) {name = "stream28"} : (i32) -> i32
      %4281 = "equeue.get_comp_field"(%arg2) {name = "ifmap"} : (i32) -> memref<16xi32>
      %4282 = "equeue.get_comp_field"(%arg2) {name = "filter"} : (i32) -> memref<8xi32>
      %4283 = "equeue.get_comp_field"(%arg2) {name = "ofmap"} : (i32) -> memref<4xi32>
      %4284 = "equeue.get_comp_field"(%arg3) {name = "ofmap"} : (i32) -> memref<4xi32>
      %4285 = "equeue.read"(%4284, %4279) {bank = 0 : i64, size = dense<4> : tensor<1xi64>} : (memref<4xi32>, i32) -> tensor<4xi32>
      "equeue.write"(%4285, %4283) {bank = 0 : i64} : (tensor<4xi32>, memref<4xi32>) -> ()
      %4286 = "equeue.read"(%arg4, %4278) {bank = 0 : i64, size = dense<4> : tensor<1xi64>} : (memref<512xf32>, i32) -> tensor<512xf32>
      "equeue.write"(%4286, %4281) {bank = 0 : i64} : (tensor<512xf32>, memref<16xi32>) -> ()
      %4287 = "equeue.unkOp"(%4283, %4281, %4282) {op_name = "mac4"} : (memref<4xi32>, memref<16xi32>, memref<8xi32>) -> memref<4xi32>
      %4288 = "equeue.read"(%4283) {bank = 0 : i64} : (memref<4xi32>) -> tensor<i32>
      "equeue.write"(%4288, %arg5, %4280) {bank = 0 : i64, size = dense<4> : tensor<1xi64>} : (tensor<i32>, memref<4xi32>, i32) -> ()
      "equeue.return"() : () -> ()
    }) : (!equeue.signal, i32, i32, i32, i32, memref<512xf32>, memref<4xi32>) -> !equeue.signal
    %273 = "equeue.get_comp_field"(%150) {name = "proc"} : (i32) -> i32
    %274 = "equeue.get_comp_field"(%150) {name = "ofmap"} : (i32) -> memref<4xi32>
    %done_60 = "equeue.launch"(%246, %273, %5, %150, %143, %1, %274) ( {
    ^bb0(%arg1: i32, %arg2: i32, %arg3: i32, %arg4: memref<512xf32>, %arg5: memref<4xi32>):  // no predecessors
      %4278 = "equeue.get_comp_field"(%5) {name = "stream13"} : (i32) -> i32
      %4279 = "equeue.get_comp_field"(%5) {name = "stream28"} : (i32) -> i32
      %4280 = "equeue.get_comp_field"(%5) {name = "stream29"} : (i32) -> i32
      %4281 = "equeue.get_comp_field"(%arg2) {name = "ifmap"} : (i32) -> memref<16xi32>
      %4282 = "equeue.get_comp_field"(%arg2) {name = "filter"} : (i32) -> memref<8xi32>
      %4283 = "equeue.get_comp_field"(%arg2) {name = "ofmap"} : (i32) -> memref<4xi32>
      %4284 = "equeue.get_comp_field"(%arg3) {name = "ofmap"} : (i32) -> memref<4xi32>
      %4285 = "equeue.read"(%4284, %4279) {bank = 0 : i64, size = dense<4> : tensor<1xi64>} : (memref<4xi32>, i32) -> tensor<4xi32>
      "equeue.write"(%4285, %4283) {bank = 0 : i64} : (tensor<4xi32>, memref<4xi32>) -> ()
      %4286 = "equeue.read"(%arg4, %4278) {bank = 0 : i64, size = dense<4> : tensor<1xi64>} : (memref<512xf32>, i32) -> tensor<512xf32>
      "equeue.write"(%4286, %4281) {bank = 0 : i64} : (tensor<512xf32>, memref<16xi32>) -> ()
      %4287 = "equeue.unkOp"(%4283, %4281, %4282) {op_name = "mac4"} : (memref<4xi32>, memref<16xi32>, memref<8xi32>) -> memref<4xi32>
      %4288 = "equeue.read"(%4283) {bank = 0 : i64} : (memref<4xi32>) -> tensor<i32>
      "equeue.write"(%4288, %arg5, %4280) {bank = 0 : i64, size = dense<4> : tensor<1xi64>} : (tensor<i32>, memref<4xi32>, i32) -> ()
      "equeue.return"() : () -> ()
    }) : (!equeue.signal, i32, i32, i32, i32, memref<512xf32>, memref<4xi32>) -> !equeue.signal
    %275 = "equeue.get_comp_field"(%157) {name = "proc"} : (i32) -> i32
    %276 = "equeue.get_comp_field"(%157) {name = "ofmap"} : (i32) -> memref<4xi32>
    %done_61 = "equeue.launch"(%246, %275, %5, %157, %150, %1, %276) ( {
    ^bb0(%arg1: i32, %arg2: i32, %arg3: i32, %arg4: memref<512xf32>, %arg5: memref<4xi32>):  // no predecessors
      %4278 = "equeue.get_comp_field"(%5) {name = "stream14"} : (i32) -> i32
      %4279 = "equeue.get_comp_field"(%5) {name = "stream29"} : (i32) -> i32
      %4280 = "equeue.get_comp_field"(%5) {name = "stream30"} : (i32) -> i32
      %4281 = "equeue.get_comp_field"(%arg2) {name = "ifmap"} : (i32) -> memref<16xi32>
      %4282 = "equeue.get_comp_field"(%arg2) {name = "filter"} : (i32) -> memref<8xi32>
      %4283 = "equeue.get_comp_field"(%arg2) {name = "ofmap"} : (i32) -> memref<4xi32>
      %4284 = "equeue.get_comp_field"(%arg3) {name = "ofmap"} : (i32) -> memref<4xi32>
      %4285 = "equeue.read"(%4284, %4279) {bank = 0 : i64, size = dense<4> : tensor<1xi64>} : (memref<4xi32>, i32) -> tensor<4xi32>
      "equeue.write"(%4285, %4283) {bank = 0 : i64} : (tensor<4xi32>, memref<4xi32>) -> ()
      %4286 = "equeue.read"(%arg4, %4278) {bank = 0 : i64, size = dense<4> : tensor<1xi64>} : (memref<512xf32>, i32) -> tensor<512xf32>
      "equeue.write"(%4286, %4281) {bank = 0 : i64} : (tensor<512xf32>, memref<16xi32>) -> ()
      %4287 = "equeue.unkOp"(%4283, %4281, %4282) {op_name = "mac4"} : (memref<4xi32>, memref<16xi32>, memref<8xi32>) -> memref<4xi32>
      %4288 = "equeue.read"(%4283) {bank = 0 : i64} : (memref<4xi32>) -> tensor<i32>
      "equeue.write"(%4288, %arg5, %4280) {bank = 0 : i64, size = dense<4> : tensor<1xi64>} : (tensor<i32>, memref<4xi32>, i32) -> ()
      "equeue.return"() : () -> ()
    }) : (!equeue.signal, i32, i32, i32, i32, memref<512xf32>, memref<4xi32>) -> !equeue.signal
    %277 = "equeue.get_comp_field"(%164) {name = "proc"} : (i32) -> i32
    %done_62 = "equeue.launch"(%246, %277, %5, %164, %157, %1, %3) ( {
    ^bb0(%arg1: i32, %arg2: i32, %arg3: i32, %arg4: memref<512xf32>, %arg5: memref<481xf32>):  // no predecessors
      %4278 = "equeue.get_comp_field"(%5) {name = "stream15"} : (i32) -> i32
      %4279 = "equeue.get_comp_field"(%5) {name = "stream30"} : (i32) -> i32
      %4280 = "equeue.get_comp_field"(%5) {name = "stream31"} : (i32) -> i32
      %4281 = "equeue.get_comp_field"(%arg2) {name = "ifmap"} : (i32) -> memref<16xi32>
      %4282 = "equeue.get_comp_field"(%arg2) {name = "filter"} : (i32) -> memref<8xi32>
      %4283 = "equeue.get_comp_field"(%arg2) {name = "ofmap"} : (i32) -> memref<4xi32>
      %4284 = "equeue.get_comp_field"(%arg3) {name = "ofmap"} : (i32) -> memref<4xi32>
      %4285 = "equeue.read"(%4284, %4279) {bank = 0 : i64, size = dense<4> : tensor<1xi64>} : (memref<4xi32>, i32) -> tensor<4xi32>
      "equeue.write"(%4285, %4283) {bank = 0 : i64} : (tensor<4xi32>, memref<4xi32>) -> ()
      %4286 = "equeue.read"(%arg4, %4278) {bank = 0 : i64, size = dense<4> : tensor<1xi64>} : (memref<512xf32>, i32) -> tensor<512xf32>
      "equeue.write"(%4286, %4281) {bank = 0 : i64} : (tensor<512xf32>, memref<16xi32>) -> ()
      %4287 = "equeue.unkOp"(%4283, %4281, %4282) {op_name = "mac4"} : (memref<4xi32>, memref<16xi32>, memref<8xi32>) -> memref<4xi32>
      %4288 = "equeue.read"(%4283) {bank = 0 : i64} : (memref<4xi32>) -> tensor<i32>
      "equeue.write"(%4288, %arg5, %4280) {bank = 0 : i64, size = dense<4> : tensor<1xi64>} : (tensor<i32>, memref<481xf32>, i32) -> ()
      "equeue.return"() : () -> ()
    }) : (!equeue.signal, i32, i32, i32, i32, memref<512xf32>, memref<481xf32>) -> !equeue.signal
    %278 = "equeue.control_start"() : () -> !equeue.signal
    %279 = "equeue.get_comp_field"(%59) {name = "proc"} : (i32) -> i32
    %280 = "equeue.get_comp_field"(%59) {name = "ofmap"} : (i32) -> memref<4xi32>
    %done_63 = "equeue.launch"(%278, %279, %5, %59, %1, %280) ( {
    ^bb0(%arg1: i32, %arg2: i32, %arg3: memref<512xf32>, %arg4: memref<4xi32>):  // no predecessors
      %4278 = "equeue.get_comp_field"(%5) {name = "stream0"} : (i32) -> i32
      %4279 = "equeue.get_comp_field"(%5) {name = "stream16"} : (i32) -> i32
      %4280 = "equeue.get_comp_field"(%arg2) {name = "ifmap"} : (i32) -> memref<16xi32>
      %4281 = "equeue.get_comp_field"(%arg2) {name = "filter"} : (i32) -> memref<8xi32>
      %4282 = "equeue.get_comp_field"(%arg2) {name = "ofmap"} : (i32) -> memref<4xi32>
      %4283 = "equeue.read"(%arg3, %4278) {bank = 0 : i64, size = dense<4> : tensor<1xi64>} : (memref<512xf32>, i32) -> tensor<512xf32>
      "equeue.write"(%4283, %4280) {bank = 0 : i64} : (tensor<512xf32>, memref<16xi32>) -> ()
      %4284 = "equeue.unkOp"(%4282, %4280, %4281) {op_name = "mul4"} : (memref<4xi32>, memref<16xi32>, memref<8xi32>) -> memref<4xi32>
      %4285 = "equeue.read"(%4282) {bank = 0 : i64} : (memref<4xi32>) -> tensor<i32>
      "equeue.write"(%4285, %arg4, %4279) {bank = 0 : i64, size = dense<4> : tensor<1xi64>} : (tensor<i32>, memref<4xi32>, i32) -> ()
      "equeue.return"() : () -> ()
    }) : (!equeue.signal, i32, i32, i32, memref<512xf32>, memref<4xi32>) -> !equeue.signal
    %281 = "equeue.get_comp_field"(%66) {name = "proc"} : (i32) -> i32
    %282 = "equeue.get_comp_field"(%66) {name = "ofmap"} : (i32) -> memref<4xi32>
    %done_64 = "equeue.launch"(%278, %281, %5, %66, %59, %1, %282) ( {
    ^bb0(%arg1: i32, %arg2: i32, %arg3: i32, %arg4: memref<512xf32>, %arg5: memref<4xi32>):  // no predecessors
      %4278 = "equeue.get_comp_field"(%5) {name = "stream1"} : (i32) -> i32
      %4279 = "equeue.get_comp_field"(%5) {name = "stream16"} : (i32) -> i32
      %4280 = "equeue.get_comp_field"(%5) {name = "stream17"} : (i32) -> i32
      %4281 = "equeue.get_comp_field"(%arg2) {name = "ifmap"} : (i32) -> memref<16xi32>
      %4282 = "equeue.get_comp_field"(%arg2) {name = "filter"} : (i32) -> memref<8xi32>
      %4283 = "equeue.get_comp_field"(%arg2) {name = "ofmap"} : (i32) -> memref<4xi32>
      %4284 = "equeue.get_comp_field"(%arg3) {name = "ofmap"} : (i32) -> memref<4xi32>
      %4285 = "equeue.read"(%4284, %4279) {bank = 0 : i64, size = dense<4> : tensor<1xi64>} : (memref<4xi32>, i32) -> tensor<4xi32>
      "equeue.write"(%4285, %4283) {bank = 0 : i64} : (tensor<4xi32>, memref<4xi32>) -> ()
      %4286 = "equeue.read"(%arg4, %4278) {bank = 0 : i64, size = dense<4> : tensor<1xi64>} : (memref<512xf32>, i32) -> tensor<512xf32>
      "equeue.write"(%4286, %4281) {bank = 0 : i64} : (tensor<512xf32>, memref<16xi32>) -> ()
      %4287 = "equeue.unkOp"(%4283, %4281, %4282) {op_name = "mac4"} : (memref<4xi32>, memref<16xi32>, memref<8xi32>) -> memref<4xi32>
      %4288 = "equeue.read"(%4283) {bank = 0 : i64} : (memref<4xi32>) -> tensor<i32>
      "equeue.write"(%4288, %arg5, %4280) {bank = 0 : i64, size = dense<4> : tensor<1xi64>} : (tensor<i32>, memref<4xi32>, i32) -> ()
      "equeue.return"() : () -> ()
    }) : (!equeue.signal, i32, i32, i32, i32, memref<512xf32>, memref<4xi32>) -> !equeue.signal
    %283 = "equeue.get_comp_field"(%73) {name = "proc"} : (i32) -> i32
    %284 = "equeue.get_comp_field"(%73) {name = "ofmap"} : (i32) -> memref<4xi32>
    %done_65 = "equeue.launch"(%278, %283, %5, %73, %66, %1, %284) ( {
    ^bb0(%arg1: i32, %arg2: i32, %arg3: i32, %arg4: memref<512xf32>, %arg5: memref<4xi32>):  // no predecessors
      %4278 = "equeue.get_comp_field"(%5) {name = "stream2"} : (i32) -> i32
      %4279 = "equeue.get_comp_field"(%5) {name = "stream17"} : (i32) -> i32
      %4280 = "equeue.get_comp_field"(%5) {name = "stream18"} : (i32) -> i32
      %4281 = "equeue.get_comp_field"(%arg2) {name = "ifmap"} : (i32) -> memref<16xi32>
      %4282 = "equeue.get_comp_field"(%arg2) {name = "filter"} : (i32) -> memref<8xi32>
      %4283 = "equeue.get_comp_field"(%arg2) {name = "ofmap"} : (i32) -> memref<4xi32>
      %4284 = "equeue.get_comp_field"(%arg3) {name = "ofmap"} : (i32) -> memref<4xi32>
      %4285 = "equeue.read"(%4284, %4279) {bank = 0 : i64, size = dense<4> : tensor<1xi64>} : (memref<4xi32>, i32) -> tensor<4xi32>
      "equeue.write"(%4285, %4283) {bank = 0 : i64} : (tensor<4xi32>, memref<4xi32>) -> ()
      %4286 = "equeue.read"(%arg4, %4278) {bank = 0 : i64, size = dense<4> : tensor<1xi64>} : (memref<512xf32>, i32) -> tensor<512xf32>
      "equeue.write"(%4286, %4281) {bank = 0 : i64} : (tensor<512xf32>, memref<16xi32>) -> ()
      %4287 = "equeue.unkOp"(%4283, %4281, %4282) {op_name = "mac4"} : (memref<4xi32>, memref<16xi32>, memref<8xi32>) -> memref<4xi32>
      %4288 = "equeue.read"(%4283) {bank = 0 : i64} : (memref<4xi32>) -> tensor<i32>
      "equeue.write"(%4288, %arg5, %4280) {bank = 0 : i64, size = dense<4> : tensor<1xi64>} : (tensor<i32>, memref<4xi32>, i32) -> ()
      "equeue.return"() : () -> ()
    }) : (!equeue.signal, i32, i32, i32, i32, memref<512xf32>, memref<4xi32>) -> !equeue.signal
    %285 = "equeue.get_comp_field"(%80) {name = "proc"} : (i32) -> i32
    %286 = "equeue.get_comp_field"(%80) {name = "ofmap"} : (i32) -> memref<4xi32>
    %done_66 = "equeue.launch"(%278, %285, %5, %80, %73, %1, %286) ( {
    ^bb0(%arg1: i32, %arg2: i32, %arg3: i32, %arg4: memref<512xf32>, %arg5: memref<4xi32>):  // no predecessors
      %4278 = "equeue.get_comp_field"(%5) {name = "stream3"} : (i32) -> i32
      %4279 = "equeue.get_comp_field"(%5) {name = "stream18"} : (i32) -> i32
      %4280 = "equeue.get_comp_field"(%5) {name = "stream19"} : (i32) -> i32
      %4281 = "equeue.get_comp_field"(%arg2) {name = "ifmap"} : (i32) -> memref<16xi32>
      %4282 = "equeue.get_comp_field"(%arg2) {name = "filter"} : (i32) -> memref<8xi32>
      %4283 = "equeue.get_comp_field"(%arg2) {name = "ofmap"} : (i32) -> memref<4xi32>
      %4284 = "equeue.get_comp_field"(%arg3) {name = "ofmap"} : (i32) -> memref<4xi32>
      %4285 = "equeue.read"(%4284, %4279) {bank = 0 : i64, size = dense<4> : tensor<1xi64>} : (memref<4xi32>, i32) -> tensor<4xi32>
      "equeue.write"(%4285, %4283) {bank = 0 : i64} : (tensor<4xi32>, memref<4xi32>) -> ()
      %4286 = "equeue.read"(%arg4, %4278) {bank = 0 : i64, size = dense<4> : tensor<1xi64>} : (memref<512xf32>, i32) -> tensor<512xf32>
      "equeue.write"(%4286, %4281) {bank = 0 : i64} : (tensor<512xf32>, memref<16xi32>) -> ()
      %4287 = "equeue.unkOp"(%4283, %4281, %4282) {op_name = "mac4"} : (memref<4xi32>, memref<16xi32>, memref<8xi32>) -> memref<4xi32>
      %4288 = "equeue.read"(%4283) {bank = 0 : i64} : (memref<4xi32>) -> tensor<i32>
      "equeue.write"(%4288, %arg5, %4280) {bank = 0 : i64, size = dense<4> : tensor<1xi64>} : (tensor<i32>, memref<4xi32>, i32) -> ()
      "equeue.return"() : () -> ()
    }) : (!equeue.signal, i32, i32, i32, i32, memref<512xf32>, memref<4xi32>) -> !equeue.signal
    %287 = "equeue.get_comp_field"(%87) {name = "proc"} : (i32) -> i32
    %288 = "equeue.get_comp_field"(%87) {name = "ofmap"} : (i32) -> memref<4xi32>
    %done_67 = "equeue.launch"(%278, %287, %5, %87, %80, %1, %288) ( {
    ^bb0(%arg1: i32, %arg2: i32, %arg3: i32, %arg4: memref<512xf32>, %arg5: memref<4xi32>):  // no predecessors
      %4278 = "equeue.get_comp_field"(%5) {name = "stream4"} : (i32) -> i32
      %4279 = "equeue.get_comp_field"(%5) {name = "stream19"} : (i32) -> i32
      %4280 = "equeue.get_comp_field"(%5) {name = "stream20"} : (i32) -> i32
      %4281 = "equeue.get_comp_field"(%arg2) {name = "ifmap"} : (i32) -> memref<16xi32>
      %4282 = "equeue.get_comp_field"(%arg2) {name = "filter"} : (i32) -> memref<8xi32>
      %4283 = "equeue.get_comp_field"(%arg2) {name = "ofmap"} : (i32) -> memref<4xi32>
      %4284 = "equeue.get_comp_field"(%arg3) {name = "ofmap"} : (i32) -> memref<4xi32>
      %4285 = "equeue.read"(%4284, %4279) {bank = 0 : i64, size = dense<4> : tensor<1xi64>} : (memref<4xi32>, i32) -> tensor<4xi32>
      "equeue.write"(%4285, %4283) {bank = 0 : i64} : (tensor<4xi32>, memref<4xi32>) -> ()
      %4286 = "equeue.read"(%arg4, %4278) {bank = 0 : i64, size = dense<4> : tensor<1xi64>} : (memref<512xf32>, i32) -> tensor<512xf32>
      "equeue.write"(%4286, %4281) {bank = 0 : i64} : (tensor<512xf32>, memref<16xi32>) -> ()
      %4287 = "equeue.unkOp"(%4283, %4281, %4282) {op_name = "mac4"} : (memref<4xi32>, memref<16xi32>, memref<8xi32>) -> memref<4xi32>
      %4288 = "equeue.read"(%4283) {bank = 0 : i64} : (memref<4xi32>) -> tensor<i32>
      "equeue.write"(%4288, %arg5, %4280) {bank = 0 : i64, size = dense<4> : tensor<1xi64>} : (tensor<i32>, memref<4xi32>, i32) -> ()
      "equeue.return"() : () -> ()
    }) : (!equeue.signal, i32, i32, i32, i32, memref<512xf32>, memref<4xi32>) -> !equeue.signal
    %289 = "equeue.get_comp_field"(%94) {name = "proc"} : (i32) -> i32
    %290 = "equeue.get_comp_field"(%94) {name = "ofmap"} : (i32) -> memref<4xi32>
    %done_68 = "equeue.launch"(%278, %289, %5, %94, %87, %1, %290) ( {
    ^bb0(%arg1: i32, %arg2: i32, %arg3: i32, %arg4: memref<512xf32>, %arg5: memref<4xi32>):  // no predecessors
      %4278 = "equeue.get_comp_field"(%5) {name = "stream5"} : (i32) -> i32
      %4279 = "equeue.get_comp_field"(%5) {name = "stream20"} : (i32) -> i32
      %4280 = "equeue.get_comp_field"(%5) {name = "stream21"} : (i32) -> i32
      %4281 = "equeue.get_comp_field"(%arg2) {name = "ifmap"} : (i32) -> memref<16xi32>
      %4282 = "equeue.get_comp_field"(%arg2) {name = "filter"} : (i32) -> memref<8xi32>
      %4283 = "equeue.get_comp_field"(%arg2) {name = "ofmap"} : (i32) -> memref<4xi32>
      %4284 = "equeue.get_comp_field"(%arg3) {name = "ofmap"} : (i32) -> memref<4xi32>
      %4285 = "equeue.read"(%4284, %4279) {bank = 0 : i64, size = dense<4> : tensor<1xi64>} : (memref<4xi32>, i32) -> tensor<4xi32>
      "equeue.write"(%4285, %4283) {bank = 0 : i64} : (tensor<4xi32>, memref<4xi32>) -> ()
      %4286 = "equeue.read"(%arg4, %4278) {bank = 0 : i64, size = dense<4> : tensor<1xi64>} : (memref<512xf32>, i32) -> tensor<512xf32>
      "equeue.write"(%4286, %4281) {bank = 0 : i64} : (tensor<512xf32>, memref<16xi32>) -> ()
      %4287 = "equeue.unkOp"(%4283, %4281, %4282) {op_name = "mac4"} : (memref<4xi32>, memref<16xi32>, memref<8xi32>) -> memref<4xi32>
      %4288 = "equeue.read"(%4283) {bank = 0 : i64} : (memref<4xi32>) -> tensor<i32>
      "equeue.write"(%4288, %arg5, %4280) {bank = 0 : i64, size = dense<4> : tensor<1xi64>} : (tensor<i32>, memref<4xi32>, i32) -> ()
      "equeue.return"() : () -> ()
    }) : (!equeue.signal, i32, i32, i32, i32, memref<512xf32>, memref<4xi32>) -> !equeue.signal
    %291 = "equeue.get_comp_field"(%101) {name = "proc"} : (i32) -> i32
    %292 = "equeue.get_comp_field"(%101) {name = "ofmap"} : (i32) -> memref<4xi32>
    %done_69 = "equeue.launch"(%278, %291, %5, %101, %94, %1, %292) ( {
    ^bb0(%arg1: i32, %arg2: i32, %arg3: i32, %arg4: memref<512xf32>, %arg5: memref<4xi32>):  // no predecessors
      %4278 = "equeue.get_comp_field"(%5) {name = "stream6"} : (i32) -> i32
      %4279 = "equeue.get_comp_field"(%5) {name = "stream21"} : (i32) -> i32
      %4280 = "equeue.get_comp_field"(%5) {name = "stream22"} : (i32) -> i32
      %4281 = "equeue.get_comp_field"(%arg2) {name = "ifmap"} : (i32) -> memref<16xi32>
      %4282 = "equeue.get_comp_field"(%arg2) {name = "filter"} : (i32) -> memref<8xi32>
      %4283 = "equeue.get_comp_field"(%arg2) {name = "ofmap"} : (i32) -> memref<4xi32>
      %4284 = "equeue.get_comp_field"(%arg3) {name = "ofmap"} : (i32) -> memref<4xi32>
      %4285 = "equeue.read"(%4284, %4279) {bank = 0 : i64, size = dense<4> : tensor<1xi64>} : (memref<4xi32>, i32) -> tensor<4xi32>
      "equeue.write"(%4285, %4283) {bank = 0 : i64} : (tensor<4xi32>, memref<4xi32>) -> ()
      %4286 = "equeue.read"(%arg4, %4278) {bank = 0 : i64, size = dense<4> : tensor<1xi64>} : (memref<512xf32>, i32) -> tensor<512xf32>
      "equeue.write"(%4286, %4281) {bank = 0 : i64} : (tensor<512xf32>, memref<16xi32>) -> ()
      %4287 = "equeue.unkOp"(%4283, %4281, %4282) {op_name = "mac4"} : (memref<4xi32>, memref<16xi32>, memref<8xi32>) -> memref<4xi32>
      %4288 = "equeue.read"(%4283) {bank = 0 : i64} : (memref<4xi32>) -> tensor<i32>
      "equeue.write"(%4288, %arg5, %4280) {bank = 0 : i64, size = dense<4> : tensor<1xi64>} : (tensor<i32>, memref<4xi32>, i32) -> ()
      "equeue.return"() : () -> ()
    }) : (!equeue.signal, i32, i32, i32, i32, memref<512xf32>, memref<4xi32>) -> !equeue.signal
    %293 = "equeue.get_comp_field"(%108) {name = "proc"} : (i32) -> i32
    %294 = "equeue.get_comp_field"(%108) {name = "ofmap"} : (i32) -> memref<4xi32>
    %done_70 = "equeue.launch"(%278, %293, %5, %108, %101, %1, %294) ( {
    ^bb0(%arg1: i32, %arg2: i32, %arg3: i32, %arg4: memref<512xf32>, %arg5: memref<4xi32>):  // no predecessors
      %4278 = "equeue.get_comp_field"(%5) {name = "stream7"} : (i32) -> i32
      %4279 = "equeue.get_comp_field"(%5) {name = "stream22"} : (i32) -> i32
      %4280 = "equeue.get_comp_field"(%5) {name = "stream23"} : (i32) -> i32
      %4281 = "equeue.get_comp_field"(%arg2) {name = "ifmap"} : (i32) -> memref<16xi32>
      %4282 = "equeue.get_comp_field"(%arg2) {name = "filter"} : (i32) -> memref<8xi32>
      %4283 = "equeue.get_comp_field"(%arg2) {name = "ofmap"} : (i32) -> memref<4xi32>
      %4284 = "equeue.get_comp_field"(%arg3) {name = "ofmap"} : (i32) -> memref<4xi32>
      %4285 = "equeue.read"(%4284, %4279) {bank = 0 : i64, size = dense<4> : tensor<1xi64>} : (memref<4xi32>, i32) -> tensor<4xi32>
      "equeue.write"(%4285, %4283) {bank = 0 : i64} : (tensor<4xi32>, memref<4xi32>) -> ()
      %4286 = "equeue.read"(%arg4, %4278) {bank = 0 : i64, size = dense<4> : tensor<1xi64>} : (memref<512xf32>, i32) -> tensor<512xf32>
      "equeue.write"(%4286, %4281) {bank = 0 : i64} : (tensor<512xf32>, memref<16xi32>) -> ()
      %4287 = "equeue.unkOp"(%4283, %4281, %4282) {op_name = "mac4"} : (memref<4xi32>, memref<16xi32>, memref<8xi32>) -> memref<4xi32>
      %4288 = "equeue.read"(%4283) {bank = 0 : i64} : (memref<4xi32>) -> tensor<i32>
      "equeue.write"(%4288, %arg5, %4280) {bank = 0 : i64, size = dense<4> : tensor<1xi64>} : (tensor<i32>, memref<4xi32>, i32) -> ()
      "equeue.return"() : () -> ()
    }) : (!equeue.signal, i32, i32, i32, i32, memref<512xf32>, memref<4xi32>) -> !equeue.signal
    %295 = "equeue.get_comp_field"(%115) {name = "proc"} : (i32) -> i32
    %296 = "equeue.get_comp_field"(%115) {name = "ofmap"} : (i32) -> memref<4xi32>
    %done_71 = "equeue.launch"(%278, %295, %5, %115, %108, %1, %296) ( {
    ^bb0(%arg1: i32, %arg2: i32, %arg3: i32, %arg4: memref<512xf32>, %arg5: memref<4xi32>):  // no predecessors
      %4278 = "equeue.get_comp_field"(%5) {name = "stream8"} : (i32) -> i32
      %4279 = "equeue.get_comp_field"(%5) {name = "stream23"} : (i32) -> i32
      %4280 = "equeue.get_comp_field"(%5) {name = "stream24"} : (i32) -> i32
      %4281 = "equeue.get_comp_field"(%arg2) {name = "ifmap"} : (i32) -> memref<16xi32>
      %4282 = "equeue.get_comp_field"(%arg2) {name = "filter"} : (i32) -> memref<8xi32>
      %4283 = "equeue.get_comp_field"(%arg2) {name = "ofmap"} : (i32) -> memref<4xi32>
      %4284 = "equeue.get_comp_field"(%arg3) {name = "ofmap"} : (i32) -> memref<4xi32>
      %4285 = "equeue.read"(%4284, %4279) {bank = 0 : i64, size = dense<4> : tensor<1xi64>} : (memref<4xi32>, i32) -> tensor<4xi32>
      "equeue.write"(%4285, %4283) {bank = 0 : i64} : (tensor<4xi32>, memref<4xi32>) -> ()
      %4286 = "equeue.read"(%arg4, %4278) {bank = 0 : i64, size = dense<4> : tensor<1xi64>} : (memref<512xf32>, i32) -> tensor<512xf32>
      "equeue.write"(%4286, %4281) {bank = 0 : i64} : (tensor<512xf32>, memref<16xi32>) -> ()
      %4287 = "equeue.unkOp"(%4283, %4281, %4282) {op_name = "mac4"} : (memref<4xi32>, memref<16xi32>, memref<8xi32>) -> memref<4xi32>
      %4288 = "equeue.read"(%4283) {bank = 0 : i64} : (memref<4xi32>) -> tensor<i32>
      "equeue.write"(%4288, %arg5, %4280) {bank = 0 : i64, size = dense<4> : tensor<1xi64>} : (tensor<i32>, memref<4xi32>, i32) -> ()
      "equeue.return"() : () -> ()
    }) : (!equeue.signal, i32, i32, i32, i32, memref<512xf32>, memref<4xi32>) -> !equeue.signal
    %297 = "equeue.get_comp_field"(%122) {name = "proc"} : (i32) -> i32
    %298 = "equeue.get_comp_field"(%122) {name = "ofmap"} : (i32) -> memref<4xi32>
    %done_72 = "equeue.launch"(%278, %297, %5, %122, %115, %1, %298) ( {
    ^bb0(%arg1: i32, %arg2: i32, %arg3: i32, %arg4: memref<512xf32>, %arg5: memref<4xi32>):  // no predecessors
      %4278 = "equeue.get_comp_field"(%5) {name = "stream9"} : (i32) -> i32
      %4279 = "equeue.get_comp_field"(%5) {name = "stream24"} : (i32) -> i32
      %4280 = "equeue.get_comp_field"(%5) {name = "stream25"} : (i32) -> i32
      %4281 = "equeue.get_comp_field"(%arg2) {name = "ifmap"} : (i32) -> memref<16xi32>
      %4282 = "equeue.get_comp_field"(%arg2) {name = "filter"} : (i32) -> memref<8xi32>
      %4283 = "equeue.get_comp_field"(%arg2) {name = "ofmap"} : (i32) -> memref<4xi32>
      %4284 = "equeue.get_comp_field"(%arg3) {name = "ofmap"} : (i32) -> memref<4xi32>
      %4285 = "equeue.read"(%4284, %4279) {bank = 0 : i64, size = dense<4> : tensor<1xi64>} : (memref<4xi32>, i32) -> tensor<4xi32>
      "equeue.write"(%4285, %4283) {bank = 0 : i64} : (tensor<4xi32>, memref<4xi32>) -> ()
      %4286 = "equeue.read"(%arg4, %4278) {bank = 0 : i64, size = dense<4> : tensor<1xi64>} : (memref<512xf32>, i32) -> tensor<512xf32>
      "equeue.write"(%4286, %4281) {bank = 0 : i64} : (tensor<512xf32>, memref<16xi32>) -> ()
      %4287 = "equeue.unkOp"(%4283, %4281, %4282) {op_name = "mac4"} : (memref<4xi32>, memref<16xi32>, memref<8xi32>) -> memref<4xi32>
      %4288 = "equeue.read"(%4283) {bank = 0 : i64} : (memref<4xi32>) -> tensor<i32>
      "equeue.write"(%4288, %arg5, %4280) {bank = 0 : i64, size = dense<4> : tensor<1xi64>} : (tensor<i32>, memref<4xi32>, i32) -> ()
      "equeue.return"() : () -> ()
    }) : (!equeue.signal, i32, i32, i32, i32, memref<512xf32>, memref<4xi32>) -> !equeue.signal
    %299 = "equeue.get_comp_field"(%129) {name = "proc"} : (i32) -> i32
    %300 = "equeue.get_comp_field"(%129) {name = "ofmap"} : (i32) -> memref<4xi32>
    %done_73 = "equeue.launch"(%278, %299, %5, %129, %122, %1, %300) ( {
    ^bb0(%arg1: i32, %arg2: i32, %arg3: i32, %arg4: memref<512xf32>, %arg5: memref<4xi32>):  // no predecessors
      %4278 = "equeue.get_comp_field"(%5) {name = "stream10"} : (i32) -> i32
      %4279 = "equeue.get_comp_field"(%5) {name = "stream25"} : (i32) -> i32
      %4280 = "equeue.get_comp_field"(%5) {name = "stream26"} : (i32) -> i32
      %4281 = "equeue.get_comp_field"(%arg2) {name = "ifmap"} : (i32) -> memref<16xi32>
      %4282 = "equeue.get_comp_field"(%arg2) {name = "filter"} : (i32) -> memref<8xi32>
      %4283 = "equeue.get_comp_field"(%arg2) {name = "ofmap"} : (i32) -> memref<4xi32>
      %4284 = "equeue.get_comp_field"(%arg3) {name = "ofmap"} : (i32) -> memref<4xi32>
      %4285 = "equeue.read"(%4284, %4279) {bank = 0 : i64, size = dense<4> : tensor<1xi64>} : (memref<4xi32>, i32) -> tensor<4xi32>
      "equeue.write"(%4285, %4283) {bank = 0 : i64} : (tensor<4xi32>, memref<4xi32>) -> ()
      %4286 = "equeue.read"(%arg4, %4278) {bank = 0 : i64, size = dense<4> : tensor<1xi64>} : (memref<512xf32>, i32) -> tensor<512xf32>
      "equeue.write"(%4286, %4281) {bank = 0 : i64} : (tensor<512xf32>, memref<16xi32>) -> ()
      %4287 = "equeue.unkOp"(%4283, %4281, %4282) {op_name = "mac4"} : (memref<4xi32>, memref<16xi32>, memref<8xi32>) -> memref<4xi32>
      %4288 = "equeue.read"(%4283) {bank = 0 : i64} : (memref<4xi32>) -> tensor<i32>
      "equeue.write"(%4288, %arg5, %4280) {bank = 0 : i64, size = dense<4> : tensor<1xi64>} : (tensor<i32>, memref<4xi32>, i32) -> ()
      "equeue.return"() : () -> ()
    }) : (!equeue.signal, i32, i32, i32, i32, memref<512xf32>, memref<4xi32>) -> !equeue.signal
    %301 = "equeue.get_comp_field"(%136) {name = "proc"} : (i32) -> i32
    %302 = "equeue.get_comp_field"(%136) {name = "ofmap"} : (i32) -> memref<4xi32>
    %done_74 = "equeue.launch"(%278, %301, %5, %136, %129, %1, %302) ( {
    ^bb0(%arg1: i32, %arg2: i32, %arg3: i32, %arg4: memref<512xf32>, %arg5: memref<4xi32>):  // no predecessors
      %4278 = "equeue.get_comp_field"(%5) {name = "stream11"} : (i32) -> i32
      %4279 = "equeue.get_comp_field"(%5) {name = "stream26"} : (i32) -> i32
      %4280 = "equeue.get_comp_field"(%5) {name = "stream27"} : (i32) -> i32
      %4281 = "equeue.get_comp_field"(%arg2) {name = "ifmap"} : (i32) -> memref<16xi32>
      %4282 = "equeue.get_comp_field"(%arg2) {name = "filter"} : (i32) -> memref<8xi32>
      %4283 = "equeue.get_comp_field"(%arg2) {name = "ofmap"} : (i32) -> memref<4xi32>
      %4284 = "equeue.get_comp_field"(%arg3) {name = "ofmap"} : (i32) -> memref<4xi32>
      %4285 = "equeue.read"(%4284, %4279) {bank = 0 : i64, size = dense<4> : tensor<1xi64>} : (memref<4xi32>, i32) -> tensor<4xi32>
      "equeue.write"(%4285, %4283) {bank = 0 : i64} : (tensor<4xi32>, memref<4xi32>) -> ()
      %4286 = "equeue.read"(%arg4, %4278) {bank = 0 : i64, size = dense<4> : tensor<1xi64>} : (memref<512xf32>, i32) -> tensor<512xf32>
      "equeue.write"(%4286, %4281) {bank = 0 : i64} : (tensor<512xf32>, memref<16xi32>) -> ()
      %4287 = "equeue.unkOp"(%4283, %4281, %4282) {op_name = "mac4"} : (memref<4xi32>, memref<16xi32>, memref<8xi32>) -> memref<4xi32>
      %4288 = "equeue.read"(%4283) {bank = 0 : i64} : (memref<4xi32>) -> tensor<i32>
      "equeue.write"(%4288, %arg5, %4280) {bank = 0 : i64, size = dense<4> : tensor<1xi64>} : (tensor<i32>, memref<4xi32>, i32) -> ()
      "equeue.return"() : () -> ()
    }) : (!equeue.signal, i32, i32, i32, i32, memref<512xf32>, memref<4xi32>) -> !equeue.signal
    %303 = "equeue.get_comp_field"(%143) {name = "proc"} : (i32) -> i32
    %304 = "equeue.get_comp_field"(%143) {name = "ofmap"} : (i32) -> memref<4xi32>
    %done_75 = "equeue.launch"(%278, %303, %5, %143, %136, %1, %304) ( {
    ^bb0(%arg1: i32, %arg2: i32, %arg3: i32, %arg4: memref<512xf32>, %arg5: memref<4xi32>):  // no predecessors
      %4278 = "equeue.get_comp_field"(%5) {name = "stream12"} : (i32) -> i32
      %4279 = "equeue.get_comp_field"(%5) {name = "stream27"} : (i32) -> i32
      %4280 = "equeue.get_comp_field"(%5) {name = "stream28"} : (i32) -> i32
      %4281 = "equeue.get_comp_field"(%arg2) {name = "ifmap"} : (i32) -> memref<16xi32>
      %4282 = "equeue.get_comp_field"(%arg2) {name = "filter"} : (i32) -> memref<8xi32>
      %4283 = "equeue.get_comp_field"(%arg2) {name = "ofmap"} : (i32) -> memref<4xi32>
      %4284 = "equeue.get_comp_field"(%arg3) {name = "ofmap"} : (i32) -> memref<4xi32>
      %4285 = "equeue.read"(%4284, %4279) {bank = 0 : i64, size = dense<4> : tensor<1xi64>} : (memref<4xi32>, i32) -> tensor<4xi32>
      "equeue.write"(%4285, %4283) {bank = 0 : i64} : (tensor<4xi32>, memref<4xi32>) -> ()
      %4286 = "equeue.read"(%arg4, %4278) {bank = 0 : i64, size = dense<4> : tensor<1xi64>} : (memref<512xf32>, i32) -> tensor<512xf32>
      "equeue.write"(%4286, %4281) {bank = 0 : i64} : (tensor<512xf32>, memref<16xi32>) -> ()
      %4287 = "equeue.unkOp"(%4283, %4281, %4282) {op_name = "mac4"} : (memref<4xi32>, memref<16xi32>, memref<8xi32>) -> memref<4xi32>
      %4288 = "equeue.read"(%4283) {bank = 0 : i64} : (memref<4xi32>) -> tensor<i32>
      "equeue.write"(%4288, %arg5, %4280) {bank = 0 : i64, size = dense<4> : tensor<1xi64>} : (tensor<i32>, memref<4xi32>, i32) -> ()
      "equeue.return"() : () -> ()
    }) : (!equeue.signal, i32, i32, i32, i32, memref<512xf32>, memref<4xi32>) -> !equeue.signal
    %305 = "equeue.get_comp_field"(%150) {name = "proc"} : (i32) -> i32
    %306 = "equeue.get_comp_field"(%150) {name = "ofmap"} : (i32) -> memref<4xi32>
    %done_76 = "equeue.launch"(%278, %305, %5, %150, %143, %1, %306) ( {
    ^bb0(%arg1: i32, %arg2: i32, %arg3: i32, %arg4: memref<512xf32>, %arg5: memref<4xi32>):  // no predecessors
      %4278 = "equeue.get_comp_field"(%5) {name = "stream13"} : (i32) -> i32
      %4279 = "equeue.get_comp_field"(%5) {name = "stream28"} : (i32) -> i32
      %4280 = "equeue.get_comp_field"(%5) {name = "stream29"} : (i32) -> i32
      %4281 = "equeue.get_comp_field"(%arg2) {name = "ifmap"} : (i32) -> memref<16xi32>
      %4282 = "equeue.get_comp_field"(%arg2) {name = "filter"} : (i32) -> memref<8xi32>
      %4283 = "equeue.get_comp_field"(%arg2) {name = "ofmap"} : (i32) -> memref<4xi32>
…
      "equeue.return"() : () -> ()
    }) : (!equeue.signal, i32, i32, i32, i32, memref<512xf32>, memref<4xi32>) -> !equeue.signal
    %4225 = "equeue.get_comp_field"(%94) {name = "proc"} : (i32) -> i32
    %4226 = "equeue.get_comp_field"(%94) {name = "ofmap"} : (i32) -> memref<4xi32>
    %done_2036 = "equeue.launch"(%4214, %4225, %5, %94, %87, %1, %4226) ( {
    ^bb0(%arg1: i32, %arg2: i32, %arg3: i32, %arg4: memref<512xf32>, %arg5: memref<4xi32>):  // no predecessors
      %4278 = "equeue.get_comp_field"(%5) {name = "stream5"} : (i32) -> i32
      %4279 = "equeue.get_comp_field"(%5) {name = "stream20"} : (i32) -> i32
      %4280 = "equeue.get_comp_field"(%5) {name = "stream21"} : (i32) -> i32
      %4281 = "equeue.get_comp_field"(%arg2) {name = "ifmap"} : (i32) -> memref<16xi32>
      %4282 = "equeue.get_comp_field"(%arg2) {name = "filter"} : (i32) -> memref<8xi32>
      %4283 = "equeue.get_comp_field"(%arg2) {name = "ofmap"} : (i32) -> memref<4xi32>
      %4284 = "equeue.get_comp_field"(%arg3) {name = "ofmap"} : (i32) -> memref<4xi32>
      %4285 = "equeue.read"(%4284, %4279) {bank = 0 : i64, size = dense<4> : tensor<1xi64>} : (memref<4xi32>, i32) -> tensor<4xi32>
      "equeue.write"(%4285, %4283) {bank = 0 : i64} : (tensor<4xi32>, memref<4xi32>) -> ()
      %4286 = "equeue.read"(%arg4, %4278) {bank = 0 : i64, size = dense<4> : tensor<1xi64>} : (memref<512xf32>, i32) -> tensor<512xf32>
      "equeue.write"(%4286, %4281) {bank = 0 : i64} : (tensor<512xf32>, memref<16xi32>) -> ()
      %4287 = "equeue.unkOp"(%4283, %4281, %4282) {op_name = "mac4"} : (memref<4xi32>, memref<16xi32>, memref<8xi32>) -> memref<4xi32>
      %4288 = "equeue.read"(%4283) {bank = 0 : i64} : (memref<4xi32>) -> tensor<i32>
      "equeue.write"(%4288, %arg5, %4280) {bank = 0 : i64, size = dense<4> : tensor<1xi64>} : (tensor<i32>, memref<4xi32>, i32) -> ()
      "equeue.return"() : () -> ()
    }) : (!equeue.signal, i32, i32, i32, i32, memref<512xf32>, memref<4xi32>) -> !equeue.signal
    %4227 = "equeue.get_comp_field"(%101) {name = "proc"} : (i32) -> i32
    %4228 = "equeue.get_comp_field"(%101) {name = "ofmap"} : (i32) -> memref<4xi32>
    %done_2037 = "equeue.launch"(%4214, %4227, %5, %101, %94, %1, %4228) ( {
    ^bb0(%arg1: i32, %arg2: i32, %arg3: i32, %arg4: memref<512xf32>, %arg5: memref<4xi32>):  // no predecessors
      %4278 = "equeue.get_comp_field"(%5) {name = "stream6"} : (i32) -> i32
      %4279 = "equeue.get_comp_field"(%5) {name = "stream21"} : (i32) -> i32
      %4280 = "equeue.get_comp_field"(%5) {name = "stream22"} : (i32) -> i32
      %4281 = "equeue.get_comp_field"(%arg2) {name = "ifmap"} : (i32) -> memref<16xi32>
      %4282 = "equeue.get_comp_field"(%arg2) {name = "filter"} : (i32) -> memref<8xi32>
      %4283 = "equeue.get_comp_field"(%arg2) {name = "ofmap"} : (i32) -> memref<4xi32>
      %4284 = "equeue.get_comp_field"(%arg3) {name = "ofmap"} : (i32) -> memref<4xi32>
      %4285 = "equeue.read"(%4284, %4279) {bank = 0 : i64, size = dense<4> : tensor<1xi64>} : (memref<4xi32>, i32) -> tensor<4xi32>
      "equeue.write"(%4285, %4283) {bank = 0 : i64} : (tensor<4xi32>, memref<4xi32>) -> ()
      %4286 = "equeue.read"(%arg4, %4278) {bank = 0 : i64, size = dense<4> : tensor<1xi64>} : (memref<512xf32>, i32) -> tensor<512xf32>
      "equeue.write"(%4286, %4281) {bank = 0 : i64} : (tensor<512xf32>, memref<16xi32>) -> ()
      %4287 = "equeue.unkOp"(%4283, %4281, %4282) {op_name = "mac4"} : (memref<4xi32>, memref<16xi32>, memref<8xi32>) -> memref<4xi32>
      %4288 = "equeue.read"(%4283) {bank = 0 : i64} : (memref<4xi32>) -> tensor<i32>
      "equeue.write"(%4288, %arg5, %4280) {bank = 0 : i64, size = dense<4> : tensor<1xi64>} : (tensor<i32>, memref<4xi32>, i32) -> ()
      "equeue.return"() : () -> ()
    }) : (!equeue.signal, i32, i32, i32, i32, memref<512xf32>, memref<4xi32>) -> !equeue.signal
    %4229 = "equeue.get_comp_field"(%108) {name = "proc"} : (i32) -> i32
    %4230 = "equeue.get_comp_field"(%108) {name = "ofmap"} : (i32) -> memref<4xi32>
    %done_2038 = "equeue.launch"(%4214, %4229, %5, %108, %101, %1, %4230) ( {
    ^bb0(%arg1: i32, %arg2: i32, %arg3: i32, %arg4: memref<512xf32>, %arg5: memref<4xi32>):  // no predecessors
      %4278 = "equeue.get_comp_field"(%5) {name = "stream7"} : (i32) -> i32
      %4279 = "equeue.get_comp_field"(%5) {name = "stream22"} : (i32) -> i32
      %4280 = "equeue.get_comp_field"(%5) {name = "stream23"} : (i32) -> i32
      %4281 = "equeue.get_comp_field"(%arg2) {name = "ifmap"} : (i32) -> memref<16xi32>
      %4282 = "equeue.get_comp_field"(%arg2) {name = "filter"} : (i32) -> memref<8xi32>
      %4283 = "equeue.get_comp_field"(%arg2) {name = "ofmap"} : (i32) -> memref<4xi32>
      %4284 = "equeue.get_comp_field"(%arg3) {name = "ofmap"} : (i32) -> memref<4xi32>
      %4285 = "equeue.read"(%4284, %4279) {bank = 0 : i64, size = dense<4> : tensor<1xi64>} : (memref<4xi32>, i32) -> tensor<4xi32>
      "equeue.write"(%4285, %4283) {bank = 0 : i64} : (tensor<4xi32>, memref<4xi32>) -> ()
      %4286 = "equeue.read"(%arg4, %4278) {bank = 0 : i64, size = dense<4> : tensor<1xi64>} : (memref<512xf32>, i32) -> tensor<512xf32>
      "equeue.write"(%4286, %4281) {bank = 0 : i64} : (tensor<512xf32>, memref<16xi32>) -> ()
      %4287 = "equeue.unkOp"(%4283, %4281, %4282) {op_name = "mac4"} : (memref<4xi32>, memref<16xi32>, memref<8xi32>) -> memref<4xi32>
      %4288 = "equeue.read"(%4283) {bank = 0 : i64} : (memref<4xi32>) -> tensor<i32>
      "equeue.write"(%4288, %arg5, %4280) {bank = 0 : i64, size = dense<4> : tensor<1xi64>} : (tensor<i32>, memref<4xi32>, i32) -> ()
      "equeue.return"() : () -> ()
    }) : (!equeue.signal, i32, i32, i32, i32, memref<512xf32>, memref<4xi32>) -> !equeue.signal
    %4231 = "equeue.get_comp_field"(%115) {name = "proc"} : (i32) -> i32
    %4232 = "equeue.get_comp_field"(%115) {name = "ofmap"} : (i32) -> memref<4xi32>
    %done_2039 = "equeue.launch"(%4214, %4231, %5, %115, %108, %1, %4232) ( {
    ^bb0(%arg1: i32, %arg2: i32, %arg3: i32, %arg4: memref<512xf32>, %arg5: memref<4xi32>):  // no predecessors
      %4278 = "equeue.get_comp_field"(%5) {name = "stream8"} : (i32) -> i32
      %4279 = "equeue.get_comp_field"(%5) {name = "stream23"} : (i32) -> i32
      %4280 = "equeue.get_comp_field"(%5) {name = "stream24"} : (i32) -> i32
      %4281 = "equeue.get_comp_field"(%arg2) {name = "ifmap"} : (i32) -> memref<16xi32>
      %4282 = "equeue.get_comp_field"(%arg2) {name = "filter"} : (i32) -> memref<8xi32>
      %4283 = "equeue.get_comp_field"(%arg2) {name = "ofmap"} : (i32) -> memref<4xi32>
      %4284 = "equeue.get_comp_field"(%arg3) {name = "ofmap"} : (i32) -> memref<4xi32>
      %4285 = "equeue.read"(%4284, %4279) {bank = 0 : i64, size = dense<4> : tensor<1xi64>} : (memref<4xi32>, i32) -> tensor<4xi32>
      "equeue.write"(%4285, %4283) {bank = 0 : i64} : (tensor<4xi32>, memref<4xi32>) -> ()
      %4286 = "equeue.read"(%arg4, %4278) {bank = 0 : i64, size = dense<4> : tensor<1xi64>} : (memref<512xf32>, i32) -> tensor<512xf32>
      "equeue.write"(%4286, %4281) {bank = 0 : i64} : (tensor<512xf32>, memref<16xi32>) -> ()
      %4287 = "equeue.unkOp"(%4283, %4281, %4282) {op_name = "mac4"} : (memref<4xi32>, memref<16xi32>, memref<8xi32>) -> memref<4xi32>
      %4288 = "equeue.read"(%4283) {bank = 0 : i64} : (memref<4xi32>) -> tensor<i32>
      "equeue.write"(%4288, %arg5, %4280) {bank = 0 : i64, size = dense<4> : tensor<1xi64>} : (tensor<i32>, memref<4xi32>, i32) -> ()
      "equeue.return"() : () -> ()
    }) : (!equeue.signal, i32, i32, i32, i32, memref<512xf32>, memref<4xi32>) -> !equeue.signal
    %4233 = "equeue.get_comp_field"(%122) {name = "proc"} : (i32) -> i32
    %4234 = "equeue.get_comp_field"(%122) {name = "ofmap"} : (i32) -> memref<4xi32>
    %done_2040 = "equeue.launch"(%4214, %4233, %5, %122, %115, %1, %4234) ( {
    ^bb0(%arg1: i32, %arg2: i32, %arg3: i32, %arg4: memref<512xf32>, %arg5: memref<4xi32>):  // no predecessors
      %4278 = "equeue.get_comp_field"(%5) {name = "stream9"} : (i32) -> i32
      %4279 = "equeue.get_comp_field"(%5) {name = "stream24"} : (i32) -> i32
      %4280 = "equeue.get_comp_field"(%5) {name = "stream25"} : (i32) -> i32
      %4281 = "equeue.get_comp_field"(%arg2) {name = "ifmap"} : (i32) -> memref<16xi32>
      %4282 = "equeue.get_comp_field"(%arg2) {name = "filter"} : (i32) -> memref<8xi32>
      %4283 = "equeue.get_comp_field"(%arg2) {name = "ofmap"} : (i32) -> memref<4xi32>
      %4284 = "equeue.get_comp_field"(%arg3) {name = "ofmap"} : (i32) -> memref<4xi32>
      %4285 = "equeue.read"(%4284, %4279) {bank = 0 : i64, size = dense<4> : tensor<1xi64>} : (memref<4xi32>, i32) -> tensor<4xi32>
      "equeue.write"(%4285, %4283) {bank = 0 : i64} : (tensor<4xi32>, memref<4xi32>) -> ()
      %4286 = "equeue.read"(%arg4, %4278) {bank = 0 : i64, size = dense<4> : tensor<1xi64>} : (memref<512xf32>, i32) -> tensor<512xf32>
      "equeue.write"(%4286, %4281) {bank = 0 : i64} : (tensor<512xf32>, memref<16xi32>) -> ()
      %4287 = "equeue.unkOp"(%4283, %4281, %4282) {op_name = "mac4"} : (memref<4xi32>, memref<16xi32>, memref<8xi32>) -> memref<4xi32>
      %4288 = "equeue.read"(%4283) {bank = 0 : i64} : (memref<4xi32>) -> tensor<i32>
      "equeue.write"(%4288, %arg5, %4280) {bank = 0 : i64, size = dense<4> : tensor<1xi64>} : (tensor<i32>, memref<4xi32>, i32) -> ()
      "equeue.return"() : () -> ()
    }) : (!equeue.signal, i32, i32, i32, i32, memref<512xf32>, memref<4xi32>) -> !equeue.signal
    %4235 = "equeue.get_comp_field"(%129) {name = "proc"} : (i32) -> i32
    %4236 = "equeue.get_comp_field"(%129) {name = "ofmap"} : (i32) -> memref<4xi32>
    %done_2041 = "equeue.launch"(%4214, %4235, %5, %129, %122, %1, %4236) ( {
    ^bb0(%arg1: i32, %arg2: i32, %arg3: i32, %arg4: memref<512xf32>, %arg5: memref<4xi32>):  // no predecessors
      %4278 = "equeue.get_comp_field"(%5) {name = "stream10"} : (i32) -> i32
      %4279 = "equeue.get_comp_field"(%5) {name = "stream25"} : (i32) -> i32
      %4280 = "equeue.get_comp_field"(%5) {name = "stream26"} : (i32) -> i32
      %4281 = "equeue.get_comp_field"(%arg2) {name = "ifmap"} : (i32) -> memref<16xi32>
      %4282 = "equeue.get_comp_field"(%arg2) {name = "filter"} : (i32) -> memref<8xi32>
      %4283 = "equeue.get_comp_field"(%arg2) {name = "ofmap"} : (i32) -> memref<4xi32>
      %4284 = "equeue.get_comp_field"(%arg3) {name = "ofmap"} : (i32) -> memref<4xi32>
      %4285 = "equeue.read"(%4284, %4279) {bank = 0 : i64, size = dense<4> : tensor<1xi64>} : (memref<4xi32>, i32) -> tensor<4xi32>
      "equeue.write"(%4285, %4283) {bank = 0 : i64} : (tensor<4xi32>, memref<4xi32>) -> ()
      %4286 = "equeue.read"(%arg4, %4278) {bank = 0 : i64, size = dense<4> : tensor<1xi64>} : (memref<512xf32>, i32) -> tensor<512xf32>
      "equeue.write"(%4286, %4281) {bank = 0 : i64} : (tensor<512xf32>, memref<16xi32>) -> ()
      %4287 = "equeue.unkOp"(%4283, %4281, %4282) {op_name = "mac4"} : (memref<4xi32>, memref<16xi32>, memref<8xi32>) -> memref<4xi32>
      %4288 = "equeue.read"(%4283) {bank = 0 : i64} : (memref<4xi32>) -> tensor<i32>
      "equeue.write"(%4288, %arg5, %4280) {bank = 0 : i64, size = dense<4> : tensor<1xi64>} : (tensor<i32>, memref<4xi32>, i32) -> ()
      "equeue.return"() : () -> ()
    }) : (!equeue.signal, i32, i32, i32, i32, memref<512xf32>, memref<4xi32>) -> !equeue.signal
    %4237 = "equeue.get_comp_field"(%136) {name = "proc"} : (i32) -> i32
    %4238 = "equeue.get_comp_field"(%136) {name = "ofmap"} : (i32) -> memref<4xi32>
    %done_2042 = "equeue.launch"(%4214, %4237, %5, %136, %129, %1, %4238) ( {
    ^bb0(%arg1: i32, %arg2: i32, %arg3: i32, %arg4: memref<512xf32>, %arg5: memref<4xi32>):  // no predecessors
      %4278 = "equeue.get_comp_field"(%5) {name = "stream11"} : (i32) -> i32
      %4279 = "equeue.get_comp_field"(%5) {name = "stream26"} : (i32) -> i32
      %4280 = "equeue.get_comp_field"(%5) {name = "stream27"} : (i32) -> i32
      %4281 = "equeue.get_comp_field"(%arg2) {name = "ifmap"} : (i32) -> memref<16xi32>
      %4282 = "equeue.get_comp_field"(%arg2) {name = "filter"} : (i32) -> memref<8xi32>
      %4283 = "equeue.get_comp_field"(%arg2) {name = "ofmap"} : (i32) -> memref<4xi32>
      %4284 = "equeue.get_comp_field"(%arg3) {name = "ofmap"} : (i32) -> memref<4xi32>
      %4285 = "equeue.read"(%4284, %4279) {bank = 0 : i64, size = dense<4> : tensor<1xi64>} : (memref<4xi32>, i32) -> tensor<4xi32>
      "equeue.write"(%4285, %4283) {bank = 0 : i64} : (tensor<4xi32>, memref<4xi32>) -> ()
      %4286 = "equeue.read"(%arg4, %4278) {bank = 0 : i64, size = dense<4> : tensor<1xi64>} : (memref<512xf32>, i32) -> tensor<512xf32>
      "equeue.write"(%4286, %4281) {bank = 0 : i64} : (tensor<512xf32>, memref<16xi32>) -> ()
      %4287 = "equeue.unkOp"(%4283, %4281, %4282) {op_name = "mac4"} : (memref<4xi32>, memref<16xi32>, memref<8xi32>) -> memref<4xi32>
      %4288 = "equeue.read"(%4283) {bank = 0 : i64} : (memref<4xi32>) -> tensor<i32>
      "equeue.write"(%4288, %arg5, %4280) {bank = 0 : i64, size = dense<4> : tensor<1xi64>} : (tensor<i32>, memref<4xi32>, i32) -> ()
      "equeue.return"() : () -> ()
    }) : (!equeue.signal, i32, i32, i32, i32, memref<512xf32>, memref<4xi32>) -> !equeue.signal
    %4239 = "equeue.get_comp_field"(%143) {name = "proc"} : (i32) -> i32
    %4240 = "equeue.get_comp_field"(%143) {name = "ofmap"} : (i32) -> memref<4xi32>
    %done_2043 = "equeue.launch"(%4214, %4239, %5, %143, %136, %1, %4240) ( {
    ^bb0(%arg1: i32, %arg2: i32, %arg3: i32, %arg4: memref<512xf32>, %arg5: memref<4xi32>):  // no predecessors
      %4278 = "equeue.get_comp_field"(%5) {name = "stream12"} : (i32) -> i32
      %4279 = "equeue.get_comp_field"(%5) {name = "stream27"} : (i32) -> i32
      %4280 = "equeue.get_comp_field"(%5) {name = "stream28"} : (i32) -> i32
      %4281 = "equeue.get_comp_field"(%arg2) {name = "ifmap"} : (i32) -> memref<16xi32>
      %4282 = "equeue.get_comp_field"(%arg2) {name = "filter"} : (i32) -> memref<8xi32>
      %4283 = "equeue.get_comp_field"(%arg2) {name = "ofmap"} : (i32) -> memref<4xi32>
      %4284 = "equeue.get_comp_field"(%arg3) {name = "ofmap"} : (i32) -> memref<4xi32>
      %4285 = "equeue.read"(%4284, %4279) {bank = 0 : i64, size = dense<4> : tensor<1xi64>} : (memref<4xi32>, i32) -> tensor<4xi32>
      "equeue.write"(%4285, %4283) {bank = 0 : i64} : (tensor<4xi32>, memref<4xi32>) -> ()
      %4286 = "equeue.read"(%arg4, %4278) {bank = 0 : i64, size = dense<4> : tensor<1xi64>} : (memref<512xf32>, i32) -> tensor<512xf32>
      "equeue.write"(%4286, %4281) {bank = 0 : i64} : (tensor<512xf32>, memref<16xi32>) -> ()
      %4287 = "equeue.unkOp"(%4283, %4281, %4282) {op_name = "mac4"} : (memref<4xi32>, memref<16xi32>, memref<8xi32>) -> memref<4xi32>
      %4288 = "equeue.read"(%4283) {bank = 0 : i64} : (memref<4xi32>) -> tensor<i32>
      "equeue.write"(%4288, %arg5, %4280) {bank = 0 : i64, size = dense<4> : tensor<1xi64>} : (tensor<i32>, memref<4xi32>, i32) -> ()
      "equeue.return"() : () -> ()
    }) : (!equeue.signal, i32, i32, i32, i32, memref<512xf32>, memref<4xi32>) -> !equeue.signal
    %4241 = "equeue.get_comp_field"(%150) {name = "proc"} : (i32) -> i32
    %4242 = "equeue.get_comp_field"(%150) {name = "ofmap"} : (i32) -> memref<4xi32>
    %done_2044 = "equeue.launch"(%4214, %4241, %5, %150, %143, %1, %4242) ( {
    ^bb0(%arg1: i32, %arg2: i32, %arg3: i32, %arg4: memref<512xf32>, %arg5: memref<4xi32>):  // no predecessors
      %4278 = "equeue.get_comp_field"(%5) {name = "stream13"} : (i32) -> i32
      %4279 = "equeue.get_comp_field"(%5) {name = "stream28"} : (i32) -> i32
      %4280 = "equeue.get_comp_field"(%5) {name = "stream29"} : (i32) -> i32
      %4281 = "equeue.get_comp_field"(%arg2) {name = "ifmap"} : (i32) -> memref<16xi32>
      %4282 = "equeue.get_comp_field"(%arg2) {name = "filter"} : (i32) -> memref<8xi32>
      %4283 = "equeue.get_comp_field"(%arg2) {name = "ofmap"} : (i32) -> memref<4xi32>
      %4284 = "equeue.get_comp_field"(%arg3) {name = "ofmap"} : (i32) -> memref<4xi32>
      %4285 = "equeue.read"(%4284, %4279) {bank = 0 : i64, size = dense<4> : tensor<1xi64>} : (memref<4xi32>, i32) -> tensor<4xi32>
      "equeue.write"(%4285, %4283) {bank = 0 : i64} : (tensor<4xi32>, memref<4xi32>) -> ()
      %4286 = "equeue.read"(%arg4, %4278) {bank = 0 : i64, size = dense<4> : tensor<1xi64>} : (memref<512xf32>, i32) -> tensor<512xf32>
      "equeue.write"(%4286, %4281) {bank = 0 : i64} : (tensor<512xf32>, memref<16xi32>) -> ()
      %4287 = "equeue.unkOp"(%4283, %4281, %4282) {op_name = "mac4"} : (memref<4xi32>, memref<16xi32>, memref<8xi32>) -> memref<4xi32>
      %4288 = "equeue.read"(%4283) {bank = 0 : i64} : (memref<4xi32>) -> tensor<i32>
      "equeue.write"(%4288, %arg5, %4280) {bank = 0 : i64, size = dense<4> : tensor<1xi64>} : (tensor<i32>, memref<4xi32>, i32) -> ()
      "equeue.return"() : () -> ()
    }) : (!equeue.signal, i32, i32, i32, i32, memref<512xf32>, memref<4xi32>) -> !equeue.signal
    %4243 = "equeue.get_comp_field"(%157) {name = "proc"} : (i32) -> i32
    %4244 = "equeue.get_comp_field"(%157) {name = "ofmap"} : (i32) -> memref<4xi32>
    %done_2045 = "equeue.launch"(%4214, %4243, %5, %157, %150, %1, %4244) ( {
    ^bb0(%arg1: i32, %arg2: i32, %arg3: i32, %arg4: memref<512xf32>, %arg5: memref<4xi32>):  // no predecessors
      %4278 = "equeue.get_comp_field"(%5) {name = "stream14"} : (i32) -> i32
      %4279 = "equeue.get_comp_field"(%5) {name = "stream29"} : (i32) -> i32
      %4280 = "equeue.get_comp_field"(%5) {name = "stream30"} : (i32) -> i32
      %4281 = "equeue.get_comp_field"(%arg2) {name = "ifmap"} : (i32) -> memref<16xi32>
      %4282 = "equeue.get_comp_field"(%arg2) {name = "filter"} : (i32) -> memref<8xi32>
      %4283 = "equeue.get_comp_field"(%arg2) {name = "ofmap"} : (i32) -> memref<4xi32>
      %4284 = "equeue.get_comp_field"(%arg3) {name = "ofmap"} : (i32) -> memref<4xi32>
      %4285 = "equeue.read"(%4284, %4279) {bank = 0 : i64, size = dense<4> : tensor<1xi64>} : (memref<4xi32>, i32) -> tensor<4xi32>
      "equeue.write"(%4285, %4283) {bank = 0 : i64} : (tensor<4xi32>, memref<4xi32>) -> ()
      %4286 = "equeue.read"(%arg4, %4278) {bank = 0 : i64, size = dense<4> : tensor<1xi64>} : (memref<512xf32>, i32) -> tensor<512xf32>
      "equeue.write"(%4286, %4281) {bank = 0 : i64} : (tensor<512xf32>, memref<16xi32>) -> ()
      %4287 = "equeue.unkOp"(%4283, %4281, %4282) {op_name = "mac4"} : (memref<4xi32>, memref<16xi32>, memref<8xi32>) -> memref<4xi32>
      %4288 = "equeue.read"(%4283) {bank = 0 : i64} : (memref<4xi32>) -> tensor<i32>
      "equeue.write"(%4288, %arg5, %4280) {bank = 0 : i64, size = dense<4> : tensor<1xi64>} : (tensor<i32>, memref<4xi32>, i32) -> ()
      "equeue.return"() : () -> ()
    }) : (!equeue.signal, i32, i32, i32, i32, memref<512xf32>, memref<4xi32>) -> !equeue.signal
    %4245 = "equeue.get_comp_field"(%164) {name = "proc"} : (i32) -> i32
    %done_2046 = "equeue.launch"(%4214, %4245, %5, %164, %157, %1, %3) ( {
    ^bb0(%arg1: i32, %arg2: i32, %arg3: i32, %arg4: memref<512xf32>, %arg5: memref<481xf32>):  // no predecessors
      %4278 = "equeue.get_comp_field"(%5) {name = "stream15"} : (i32) -> i32
      %4279 = "equeue.get_comp_field"(%5) {name = "stream30"} : (i32) -> i32
      %4280 = "equeue.get_comp_field"(%5) {name = "stream31"} : (i32) -> i32
      %4281 = "equeue.get_comp_field"(%arg2) {name = "ifmap"} : (i32) -> memref<16xi32>
      %4282 = "equeue.get_comp_field"(%arg2) {name = "filter"} : (i32) -> memref<8xi32>
      %4283 = "equeue.get_comp_field"(%arg2) {name = "ofmap"} : (i32) -> memref<4xi32>
      %4284 = "equeue.get_comp_field"(%arg3) {name = "ofmap"} : (i32) -> memref<4xi32>
      %4285 = "equeue.read"(%4284, %4279) {bank = 0 : i64, size = dense<4> : tensor<1xi64>} : (memref<4xi32>, i32) -> tensor<4xi32>
      "equeue.write"(%4285, %4283) {bank = 0 : i64} : (tensor<4xi32>, memref<4xi32>) -> ()
      %4286 = "equeue.read"(%arg4, %4278) {bank = 0 : i64, size = dense<4> : tensor<1xi64>} : (memref<512xf32>, i32) -> tensor<512xf32>
      "equeue.write"(%4286, %4281) {bank = 0 : i64} : (tensor<512xf32>, memref<16xi32>) -> ()
      %4287 = "equeue.unkOp"(%4283, %4281, %4282) {op_name = "mac4"} : (memref<4xi32>, memref<16xi32>, memref<8xi32>) -> memref<4xi32>
      %4288 = "equeue.read"(%4283) {bank = 0 : i64} : (memref<4xi32>) -> tensor<i32>
      "equeue.write"(%4288, %arg5, %4280) {bank = 0 : i64, size = dense<4> : tensor<1xi64>} : (tensor<i32>, memref<481xf32>, i32) -> ()
      "equeue.return"() : () -> ()
    }) : (!equeue.signal, i32, i32, i32, i32, memref<512xf32>, memref<481xf32>) -> !equeue.signal
    %4246 = "equeue.control_start"() : () -> !equeue.signal
    %4247 = "equeue.get_comp_field"(%59) {name = "proc"} : (i32) -> i32
    %4248 = "equeue.get_comp_field"(%59) {name = "ofmap"} : (i32) -> memref<4xi32>
    %done_2047 = "equeue.launch"(%4246, %4247, %5, %59, %1, %4248) ( {
    ^bb0(%arg1: i32, %arg2: i32, %arg3: memref<512xf32>, %arg4: memref<4xi32>):  // no predecessors
      %4278 = "equeue.get_comp_field"(%5) {name = "stream0"} : (i32) -> i32
      %4279 = "equeue.get_comp_field"(%5) {name = "stream16"} : (i32) -> i32
      %4280 = "equeue.get_comp_field"(%arg2) {name = "ifmap"} : (i32) -> memref<16xi32>
      %4281 = "equeue.get_comp_field"(%arg2) {name = "filter"} : (i32) -> memref<8xi32>
      %4282 = "equeue.get_comp_field"(%arg2) {name = "ofmap"} : (i32) -> memref<4xi32>
      %4283 = "equeue.read"(%arg3, %4278) {bank = 0 : i64, size = dense<4> : tensor<1xi64>} : (memref<512xf32>, i32) -> tensor<512xf32>
      "equeue.write"(%4283, %4280) {bank = 0 : i64} : (tensor<512xf32>, memref<16xi32>) -> ()
      %4284 = "equeue.unkOp"(%4282, %4280, %4281) {op_name = "mul4"} : (memref<4xi32>, memref<16xi32>, memref<8xi32>) -> memref<4xi32>
      %4285 = "equeue.read"(%4282) {bank = 0 : i64} : (memref<4xi32>) -> tensor<i32>
      "equeue.write"(%4285, %arg4, %4279) {bank = 0 : i64, size = dense<4> : tensor<1xi64>} : (tensor<i32>, memref<4xi32>, i32) -> ()
      "equeue.return"() : () -> ()
    }) : (!equeue.signal, i32, i32, i32, memref<512xf32>, memref<4xi32>) -> !equeue.signal
    %4249 = "equeue.get_comp_field"(%66) {name = "proc"} : (i32) -> i32
    %4250 = "equeue.get_comp_field"(%66) {name = "ofmap"} : (i32) -> memref<4xi32>
    %done_2048 = "equeue.launch"(%4246, %4249, %5, %66, %59, %1, %4250) ( {
    ^bb0(%arg1: i32, %arg2: i32, %arg3: i32, %arg4: memref<512xf32>, %arg5: memref<4xi32>):  // no predecessors
      %4278 = "equeue.get_comp_field"(%5) {name = "stream1"} : (i32) -> i32
      %4279 = "equeue.get_comp_field"(%5) {name = "stream16"} : (i32) -> i32
      %4280 = "equeue.get_comp_field"(%5) {name = "stream17"} : (i32) -> i32
      %4281 = "equeue.get_comp_field"(%arg2) {name = "ifmap"} : (i32) -> memref<16xi32>
      %4282 = "equeue.get_comp_field"(%arg2) {name = "filter"} : (i32) -> memref<8xi32>
      %4283 = "equeue.get_comp_field"(%arg2) {name = "ofmap"} : (i32) -> memref<4xi32>
      %4284 = "equeue.get_comp_field"(%arg3) {name = "ofmap"} : (i32) -> memref<4xi32>
      %4285 = "equeue.read"(%4284, %4279) {bank = 0 : i64, size = dense<4> : tensor<1xi64>} : (memref<4xi32>, i32) -> tensor<4xi32>
      "equeue.write"(%4285, %4283) {bank = 0 : i64} : (tensor<4xi32>, memref<4xi32>) -> ()
      %4286 = "equeue.read"(%arg4, %4278) {bank = 0 : i64, size = dense<4> : tensor<1xi64>} : (memref<512xf32>, i32) -> tensor<512xf32>
      "equeue.write"(%4286, %4281) {bank = 0 : i64} : (tensor<512xf32>, memref<16xi32>) -> ()
      %4287 = "equeue.unkOp"(%4283, %4281, %4282) {op_name = "mac4"} : (memref<4xi32>, memref<16xi32>, memref<8xi32>) -> memref<4xi32>
      %4288 = "equeue.read"(%4283) {bank = 0 : i64} : (memref<4xi32>) -> tensor<i32>
      "equeue.write"(%4288, %arg5, %4280) {bank = 0 : i64, size = dense<4> : tensor<1xi64>} : (tensor<i32>, memref<4xi32>, i32) -> ()
      "equeue.return"() : () -> ()
    }) : (!equeue.signal, i32, i32, i32, i32, memref<512xf32>, memref<4xi32>) -> !equeue.signal
    %4251 = "equeue.get_comp_field"(%73) {name = "proc"} : (i32) -> i32
    %4252 = "equeue.get_comp_field"(%73) {name = "ofmap"} : (i32) -> memref<4xi32>
    %done_2049 = "equeue.launch"(%4246, %4251, %5, %73, %66, %1, %4252) ( {
    ^bb0(%arg1: i32, %arg2: i32, %arg3: i32, %arg4: memref<512xf32>, %arg5: memref<4xi32>):  // no predecessors
      %4278 = "equeue.get_comp_field"(%5) {name = "stream2"} : (i32) -> i32
      %4279 = "equeue.get_comp_field"(%5) {name = "stream17"} : (i32) -> i32
      %4280 = "equeue.get_comp_field"(%5) {name = "stream18"} : (i32) -> i32
      %4281 = "equeue.get_comp_field"(%arg2) {name = "ifmap"} : (i32) -> memref<16xi32>
      %4282 = "equeue.get_comp_field"(%arg2) {name = "filter"} : (i32) -> memref<8xi32>
      %4283 = "equeue.get_comp_field"(%arg2) {name = "ofmap"} : (i32) -> memref<4xi32>
      %4284 = "equeue.get_comp_field"(%arg3) {name = "ofmap"} : (i32) -> memref<4xi32>
      %4285 = "equeue.read"(%4284, %4279) {bank = 0 : i64, size = dense<4> : tensor<1xi64>} : (memref<4xi32>, i32) -> tensor<4xi32>
      "equeue.write"(%4285, %4283) {bank = 0 : i64} : (tensor<4xi32>, memref<4xi32>) -> ()
      %4286 = "equeue.read"(%arg4, %4278) {bank = 0 : i64, size = dense<4> : tensor<1xi64>} : (memref<512xf32>, i32) -> tensor<512xf32>
      "equeue.write"(%4286, %4281) {bank = 0 : i64} : (tensor<512xf32>, memref<16xi32>) -> ()
      %4287 = "equeue.unkOp"(%4283, %4281, %4282) {op_name = "mac4"} : (memref<4xi32>, memref<16xi32>, memref<8xi32>) -> memref<4xi32>
      %4288 = "equeue.read"(%4283) {bank = 0 : i64} : (memref<4xi32>) -> tensor<i32>
      "equeue.write"(%4288, %arg5, %4280) {bank = 0 : i64, size = dense<4> : tensor<1xi64>} : (tensor<i32>, memref<4xi32>, i32) -> ()
      "equeue.return"() : () -> ()
    }) : (!equeue.signal, i32, i32, i32, i32, memref<512xf32>, memref<4xi32>) -> !equeue.signal
    %4253 = "equeue.get_comp_field"(%80) {name = "proc"} : (i32) -> i32
    %4254 = "equeue.get_comp_field"(%80) {name = "ofmap"} : (i32) -> memref<4xi32>
    %done_2050 = "equeue.launch"(%4246, %4253, %5, %80, %73, %1, %4254) ( {
    ^bb0(%arg1: i32, %arg2: i32, %arg3: i32, %arg4: memref<512xf32>, %arg5: memref<4xi32>):  // no predecessors
      %4278 = "equeue.get_comp_field"(%5) {name = "stream3"} : (i32) -> i32
      %4279 = "equeue.get_comp_field"(%5) {name = "stream18"} : (i32) -> i32
      %4280 = "equeue.get_comp_field"(%5) {name = "stream19"} : (i32) -> i32
      %4281 = "equeue.get_comp_field"(%arg2) {name = "ifmap"} : (i32) -> memref<16xi32>
      %4282 = "equeue.get_comp_field"(%arg2) {name = "filter"} : (i32) -> memref<8xi32>
      %4283 = "equeue.get_comp_field"(%arg2) {name = "ofmap"} : (i32) -> memref<4xi32>
      %4284 = "equeue.get_comp_field"(%arg3) {name = "ofmap"} : (i32) -> memref<4xi32>
      %4285 = "equeue.read"(%4284, %4279) {bank = 0 : i64, size = dense<4> : tensor<1xi64>} : (memref<4xi32>, i32) -> tensor<4xi32>
      "equeue.write"(%4285, %4283) {bank = 0 : i64} : (tensor<4xi32>, memref<4xi32>) -> ()
      %4286 = "equeue.read"(%arg4, %4278) {bank = 0 : i64, size = dense<4> : tensor<1xi64>} : (memref<512xf32>, i32) -> tensor<512xf32>
      "equeue.write"(%4286, %4281) {bank = 0 : i64} : (tensor<512xf32>, memref<16xi32>) -> ()
      %4287 = "equeue.unkOp"(%4283, %4281, %4282) {op_name = "mac4"} : (memref<4xi32>, memref<16xi32>, memref<8xi32>) -> memref<4xi32>
      %4288 = "equeue.read"(%4283) {bank = 0 : i64} : (memref<4xi32>) -> tensor<i32>
      "equeue.write"(%4288, %arg5, %4280) {bank = 0 : i64, size = dense<4> : tensor<1xi64>} : (tensor<i32>, memref<4xi32>, i32) -> ()
      "equeue.return"() : () -> ()
    }) : (!equeue.signal, i32, i32, i32, i32, memref<512xf32>, memref<4xi32>) -> !equeue.signal
    %4255 = "equeue.get_comp_field"(%87) {name = "proc"} : (i32) -> i32
    %4256 = "equeue.get_comp_field"(%87) {name = "ofmap"} : (i32) -> memref<4xi32>
    %done_2051 = "equeue.launch"(%4246, %4255, %5, %87, %80, %1, %4256) ( {
    ^bb0(%arg1: i32, %arg2: i32, %arg3: i32, %arg4: memref<512xf32>, %arg5: memref<4xi32>):  // no predecessors
      %4278 = "equeue.get_comp_field"(%5) {name = "stream4"} : (i32) -> i32
      %4279 = "equeue.get_comp_field"(%5) {name = "stream19"} : (i32) -> i32
      %4280 = "equeue.get_comp_field"(%5) {name = "stream20"} : (i32) -> i32
      %4281 = "equeue.get_comp_field"(%arg2) {name = "ifmap"} : (i32) -> memref<16xi32>
      %4282 = "equeue.get_comp_field"(%arg2) {name = "filter"} : (i32) -> memref<8xi32>
      %4283 = "equeue.get_comp_field"(%arg2) {name = "ofmap"} : (i32) -> memref<4xi32>
      %4284 = "equeue.get_comp_field"(%arg3) {name = "ofmap"} : (i32) -> memref<4xi32>
      %4285 = "equeue.read"(%4284, %4279) {bank = 0 : i64, size = dense<4> : tensor<1xi64>} : (memref<4xi32>, i32) -> tensor<4xi32>
      "equeue.write"(%4285, %4283) {bank = 0 : i64} : (tensor<4xi32>, memref<4xi32>) -> ()
      %4286 = "equeue.read"(%arg4, %4278) {bank = 0 : i64, size = dense<4> : tensor<1xi64>} : (memref<512xf32>, i32) -> tensor<512xf32>
      "equeue.write"(%4286, %4281) {bank = 0 : i64} : (tensor<512xf32>, memref<16xi32>) -> ()
      %4287 = "equeue.unkOp"(%4283, %4281, %4282) {op_name = "mac4"} : (memref<4xi32>, memref<16xi32>, memref<8xi32>) -> memref<4xi32>
      %4288 = "equeue.read"(%4283) {bank = 0 : i64} : (memref<4xi32>) -> tensor<i32>
      "equeue.write"(%4288, %arg5, %4280) {bank = 0 : i64, size = dense<4> : tensor<1xi64>} : (tensor<i32>, memref<4xi32>, i32) -> ()
      "equeue.return"() : () -> ()
    }) : (!equeue.signal, i32, i32, i32, i32, memref<512xf32>, memref<4xi32>) -> !equeue.signal
    %4257 = "equeue.get_comp_field"(%94) {name = "proc"} : (i32) -> i32
    %4258 = "equeue.get_comp_field"(%94) {name = "ofmap"} : (i32) -> memref<4xi32>
    %done_2052 = "equeue.launch"(%4246, %4257, %5, %94, %87, %1, %4258) ( {
    ^bb0(%arg1: i32, %arg2: i32, %arg3: i32, %arg4: memref<512xf32>, %arg5: memref<4xi32>):  // no predecessors
      %4278 = "equeue.get_comp_field"(%5) {name = "stream5"} : (i32) -> i32
      %4279 = "equeue.get_comp_field"(%5) {name = "stream20"} : (i32) -> i32
      %4280 = "equeue.get_comp_field"(%5) {name = "stream21"} : (i32) -> i32
      %4281 = "equeue.get_comp_field"(%arg2) {name = "ifmap"} : (i32) -> memref<16xi32>
      %4282 = "equeue.get_comp_field"(%arg2) {name = "filter"} : (i32) -> memref<8xi32>
      %4283 = "equeue.get_comp_field"(%arg2) {name = "ofmap"} : (i32) -> memref<4xi32>
      %4284 = "equeue.get_comp_field"(%arg3) {name = "ofmap"} : (i32) -> memref<4xi32>
      %4285 = "equeue.read"(%4284, %4279) {bank = 0 : i64, size = dense<4> : tensor<1xi64>} : (memref<4xi32>, i32) -> tensor<4xi32>
      "equeue.write"(%4285, %4283) {bank = 0 : i64} : (tensor<4xi32>, memref<4xi32>) -> ()
      %4286 = "equeue.read"(%arg4, %4278) {bank = 0 : i64, size = dense<4> : tensor<1xi64>} : (memref<512xf32>, i32) -> tensor<512xf32>
      "equeue.write"(%4286, %4281) {bank = 0 : i64} : (tensor<512xf32>, memref<16xi32>) -> ()
      %4287 = "equeue.unkOp"(%4283, %4281, %4282) {op_name = "mac4"} : (memref<4xi32>, memref<16xi32>, memref<8xi32>) -> memref<4xi32>
      %4288 = "equeue.read"(%4283) {bank = 0 : i64} : (memref<4xi32>) -> tensor<i32>
      "equeue.write"(%4288, %arg5, %4280) {bank = 0 : i64, size = dense<4> : tensor<1xi64>} : (tensor<i32>, memref<4xi32>, i32) -> ()
      "equeue.return"() : () -> ()
    }) : (!equeue.signal, i32, i32, i32, i32, memref<512xf32>, memref<4xi32>) -> !equeue.signal
    %4259 = "equeue.get_comp_field"(%101) {name = "proc"} : (i32) -> i32
    %4260 = "equeue.get_comp_field"(%101) {name = "ofmap"} : (i32) -> memref<4xi32>
    %done_2053 = "equeue.launch"(%4246, %4259, %5, %101, %94, %1, %4260) ( {
    ^bb0(%arg1: i32, %arg2: i32, %arg3: i32, %arg4: memref<512xf32>, %arg5: memref<4xi32>):  // no predecessors
      %4278 = "equeue.get_comp_field"(%5) {name = "stream6"} : (i32) -> i32
      %4279 = "equeue.get_comp_field"(%5) {name = "stream21"} : (i32) -> i32
      %4280 = "equeue.get_comp_field"(%5) {name = "stream22"} : (i32) -> i32
      %4281 = "equeue.get_comp_field"(%arg2) {name = "ifmap"} : (i32) -> memref<16xi32>
      %4282 = "equeue.get_comp_field"(%arg2) {name = "filter"} : (i32) -> memref<8xi32>
      %4283 = "equeue.get_comp_field"(%arg2) {name = "ofmap"} : (i32) -> memref<4xi32>
      %4284 = "equeue.get_comp_field"(%arg3) {name = "ofmap"} : (i32) -> memref<4xi32>
      %4285 = "equeue.read"(%4284, %4279) {bank = 0 : i64, size = dense<4> : tensor<1xi64>} : (memref<4xi32>, i32) -> tensor<4xi32>
      "equeue.write"(%4285, %4283) {bank = 0 : i64} : (tensor<4xi32>, memref<4xi32>) -> ()
      %4286 = "equeue.read"(%arg4, %4278) {bank = 0 : i64, size = dense<4> : tensor<1xi64>} : (memref<512xf32>, i32) -> tensor<512xf32>
      "equeue.write"(%4286, %4281) {bank = 0 : i64} : (tensor<512xf32>, memref<16xi32>) -> ()
      %4287 = "equeue.unkOp"(%4283, %4281, %4282) {op_name = "mac4"} : (memref<4xi32>, memref<16xi32>, memref<8xi32>) -> memref<4xi32>
      %4288 = "equeue.read"(%4283) {bank = 0 : i64} : (memref<4xi32>) -> tensor<i32>
      "equeue.write"(%4288, %arg5, %4280) {bank = 0 : i64, size = dense<4> : tensor<1xi64>} : (tensor<i32>, memref<4xi32>, i32) -> ()
      "equeue.return"() : () -> ()
    }) : (!equeue.signal, i32, i32, i32, i32, memref<512xf32>, memref<4xi32>) -> !equeue.signal
    %4261 = "equeue.get_comp_field"(%108) {name = "proc"} : (i32) -> i32
    %4262 = "equeue.get_comp_field"(%108) {name = "ofmap"} : (i32) -> memref<4xi32>
    %done_2054 = "equeue.launch"(%4246, %4261, %5, %108, %101, %1, %4262) ( {
    ^bb0(%arg1: i32, %arg2: i32, %arg3: i32, %arg4: memref<512xf32>, %arg5: memref<4xi32>):  // no predecessors
      %4278 = "equeue.get_comp_field"(%5) {name = "stream7"} : (i32) -> i32
      %4279 = "equeue.get_comp_field"(%5) {name = "stream22"} : (i32) -> i32
      %4280 = "equeue.get_comp_field"(%5) {name = "stream23"} : (i32) -> i32
      %4281 = "equeue.get_comp_field"(%arg2) {name = "ifmap"} : (i32) -> memref<16xi32>
      %4282 = "equeue.get_comp_field"(%arg2) {name = "filter"} : (i32) -> memref<8xi32>
      %4283 = "equeue.get_comp_field"(%arg2) {name = "ofmap"} : (i32) -> memref<4xi32>
      %4284 = "equeue.get_comp_field"(%arg3) {name = "ofmap"} : (i32) -> memref<4xi32>
      %4285 = "equeue.read"(%4284, %4279) {bank = 0 : i64, size = dense<4> : tensor<1xi64>} : (memref<4xi32>, i32) -> tensor<4xi32>
      "equeue.write"(%4285, %4283) {bank = 0 : i64} : (tensor<4xi32>, memref<4xi32>) -> ()
      %4286 = "equeue.read"(%arg4, %4278) {bank = 0 : i64, size = dense<4> : tensor<1xi64>} : (memref<512xf32>, i32) -> tensor<512xf32>
      "equeue.write"(%4286, %4281) {bank = 0 : i64} : (tensor<512xf32>, memref<16xi32>) -> ()
      %4287 = "equeue.unkOp"(%4283, %4281, %4282) {op_name = "mac4"} : (memref<4xi32>, memref<16xi32>, memref<8xi32>) -> memref<4xi32>
      %4288 = "equeue.read"(%4283) {bank = 0 : i64} : (memref<4xi32>) -> tensor<i32>
      "equeue.write"(%4288, %arg5, %4280) {bank = 0 : i64, size = dense<4> : tensor<1xi64>} : (tensor<i32>, memref<4xi32>, i32) -> ()
      "equeue.return"() : () -> ()
    }) : (!equeue.signal, i32, i32, i32, i32, memref<512xf32>, memref<4xi32>) -> !equeue.signal
    %4263 = "equeue.get_comp_field"(%115) {name = "proc"} : (i32) -> i32
    %4264 = "equeue.get_comp_field"(%115) {name = "ofmap"} : (i32) -> memref<4xi32>
    %done_2055 = "equeue.launch"(%4246, %4263, %5, %115, %108, %1, %4264) ( {
    ^bb0(%arg1: i32, %arg2: i32, %arg3: i32, %arg4: memref<512xf32>, %arg5: memref<4xi32>):  // no predecessors
      %4278 = "equeue.get_comp_field"(%5) {name = "stream8"} : (i32) -> i32
      %4279 = "equeue.get_comp_field"(%5) {name = "stream23"} : (i32) -> i32
      %4280 = "equeue.get_comp_field"(%5) {name = "stream24"} : (i32) -> i32
      %4281 = "equeue.get_comp_field"(%arg2) {name = "ifmap"} : (i32) -> memref<16xi32>
      %4282 = "equeue.get_comp_field"(%arg2) {name = "filter"} : (i32) -> memref<8xi32>
      %4283 = "equeue.get_comp_field"(%arg2) {name = "ofmap"} : (i32) -> memref<4xi32>
      %4284 = "equeue.get_comp_field"(%arg3) {name = "ofmap"} : (i32) -> memref<4xi32>
      %4285 = "equeue.read"(%4284, %4279) {bank = 0 : i64, size = dense<4> : tensor<1xi64>} : (memref<4xi32>, i32) -> tensor<4xi32>
      "equeue.write"(%4285, %4283) {bank = 0 : i64} : (tensor<4xi32>, memref<4xi32>) -> ()
      %4286 = "equeue.read"(%arg4, %4278) {bank = 0 : i64, size = dense<4> : tensor<1xi64>} : (memref<512xf32>, i32) -> tensor<512xf32>
      "equeue.write"(%4286, %4281) {bank = 0 : i64} : (tensor<512xf32>, memref<16xi32>) -> ()
      %4287 = "equeue.unkOp"(%4283, %4281, %4282) {op_name = "mac4"} : (memref<4xi32>, memref<16xi32>, memref<8xi32>) -> memref<4xi32>
      %4288 = "equeue.read"(%4283) {bank = 0 : i64} : (memref<4xi32>) -> tensor<i32>
      "equeue.write"(%4288, %arg5, %4280) {bank = 0 : i64, size = dense<4> : tensor<1xi64>} : (tensor<i32>, memref<4xi32>, i32) -> ()
      "equeue.return"() : () -> ()
    }) : (!equeue.signal, i32, i32, i32, i32, memref<512xf32>, memref<4xi32>) -> !equeue.signal
    %4265 = "equeue.get_comp_field"(%122) {name = "proc"} : (i32) -> i32
    %4266 = "equeue.get_comp_field"(%122) {name = "ofmap"} : (i32) -> memref<4xi32>
    %done_2056 = "equeue.launch"(%4246, %4265, %5, %122, %115, %1, %4266) ( {
    ^bb0(%arg1: i32, %arg2: i32, %arg3: i32, %arg4: memref<512xf32>, %arg5: memref<4xi32>):  // no predecessors
      %4278 = "equeue.get_comp_field"(%5) {name = "stream9"} : (i32) -> i32
      %4279 = "equeue.get_comp_field"(%5) {name = "stream24"} : (i32) -> i32
      %4280 = "equeue.get_comp_field"(%5) {name = "stream25"} : (i32) -> i32
      %4281 = "equeue.get_comp_field"(%arg2) {name = "ifmap"} : (i32) -> memref<16xi32>
      %4282 = "equeue.get_comp_field"(%arg2) {name = "filter"} : (i32) -> memref<8xi32>
      %4283 = "equeue.get_comp_field"(%arg2) {name = "ofmap"} : (i32) -> memref<4xi32>
      %4284 = "equeue.get_comp_field"(%arg3) {name = "ofmap"} : (i32) -> memref<4xi32>
      %4285 = "equeue.read"(%4284, %4279) {bank = 0 : i64, size = dense<4> : tensor<1xi64>} : (memref<4xi32>, i32) -> tensor<4xi32>
      "equeue.write"(%4285, %4283) {bank = 0 : i64} : (tensor<4xi32>, memref<4xi32>) -> ()
      %4286 = "equeue.read"(%arg4, %4278) {bank = 0 : i64, size = dense<4> : tensor<1xi64>} : (memref<512xf32>, i32) -> tensor<512xf32>
      "equeue.write"(%4286, %4281) {bank = 0 : i64} : (tensor<512xf32>, memref<16xi32>) -> ()
      %4287 = "equeue.unkOp"(%4283, %4281, %4282) {op_name = "mac4"} : (memref<4xi32>, memref<16xi32>, memref<8xi32>) -> memref<4xi32>
      %4288 = "equeue.read"(%4283) {bank = 0 : i64} : (memref<4xi32>) -> tensor<i32>
      "equeue.write"(%4288, %arg5, %4280) {bank = 0 : i64, size = dense<4> : tensor<1xi64>} : (tensor<i32>, memref<4xi32>, i32) -> ()
      "equeue.return"() : () -> ()
    }) : (!equeue.signal, i32, i32, i32, i32, memref<512xf32>, memref<4xi32>) -> !equeue.signal
    %4267 = "equeue.get_comp_field"(%129) {name = "proc"} : (i32) -> i32
    %4268 = "equeue.get_comp_field"(%129) {name = "ofmap"} : (i32) -> memref<4xi32>
    %done_2057 = "equeue.launch"(%4246, %4267, %5, %129, %122, %1, %4268) ( {
    ^bb0(%arg1: i32, %arg2: i32, %arg3: i32, %arg4: memref<512xf32>, %arg5: memref<4xi32>):  // no predecessors
      %4278 = "equeue.get_comp_field"(%5) {name = "stream10"} : (i32) -> i32
      %4279 = "equeue.get_comp_field"(%5) {name = "stream25"} : (i32) -> i32
      %4280 = "equeue.get_comp_field"(%5) {name = "stream26"} : (i32) -> i32
      %4281 = "equeue.get_comp_field"(%arg2) {name = "ifmap"} : (i32) -> memref<16xi32>
      %4282 = "equeue.get_comp_field"(%arg2) {name = "filter"} : (i32) -> memref<8xi32>
      %4283 = "equeue.get_comp_field"(%arg2) {name = "ofmap"} : (i32) -> memref<4xi32>
      %4284 = "equeue.get_comp_field"(%arg3) {name = "ofmap"} : (i32) -> memref<4xi32>
      %4285 = "equeue.read"(%4284, %4279) {bank = 0 : i64, size = dense<4> : tensor<1xi64>} : (memref<4xi32>, i32) -> tensor<4xi32>
      "equeue.write"(%4285, %4283) {bank = 0 : i64} : (tensor<4xi32>, memref<4xi32>) -> ()
      %4286 = "equeue.read"(%arg4, %4278) {bank = 0 : i64, size = dense<4> : tensor<1xi64>} : (memref<512xf32>, i32) -> tensor<512xf32>
      "equeue.write"(%4286, %4281) {bank = 0 : i64} : (tensor<512xf32>, memref<16xi32>) -> ()
      %4287 = "equeue.unkOp"(%4283, %4281, %4282) {op_name = "mac4"} : (memref<4xi32>, memref<16xi32>, memref<8xi32>) -> memref<4xi32>
      %4288 = "equeue.read"(%4283) {bank = 0 : i64} : (memref<4xi32>) -> tensor<i32>
      "equeue.write"(%4288, %arg5, %4280) {bank = 0 : i64, size = dense<4> : tensor<1xi64>} : (tensor<i32>, memref<4xi32>, i32) -> ()
      "equeue.return"() : () -> ()
    }) : (!equeue.signal, i32, i32, i32, i32, memref<512xf32>, memref<4xi32>) -> !equeue.signal
    %4269 = "equeue.get_comp_field"(%136) {name = "proc"} : (i32) -> i32
    %4270 = "equeue.get_comp_field"(%136) {name = "ofmap"} : (i32) -> memref<4xi32>
    %done_2058 = "equeue.launch"(%4246, %4269, %5, %136, %129, %1, %4270) ( {
    ^bb0(%arg1: i32, %arg2: i32, %arg3: i32, %arg4: memref<512xf32>, %arg5: memref<4xi32>):  // no predecessors
      %4278 = "equeue.get_comp_field"(%5) {name = "stream11"} : (i32) -> i32
      %4279 = "equeue.get_comp_field"(%5) {name = "stream26"} : (i32) -> i32
      %4280 = "equeue.get_comp_field"(%5) {name = "stream27"} : (i32) -> i32
      %4281 = "equeue.get_comp_field"(%arg2) {name = "ifmap"} : (i32) -> memref<16xi32>
      %4282 = "equeue.get_comp_field"(%arg2) {name = "filter"} : (i32) -> memref<8xi32>
      %4283 = "equeue.get_comp_field"(%arg2) {name = "ofmap"} : (i32) -> memref<4xi32>
      %4284 = "equeue.get_comp_field"(%arg3) {name = "ofmap"} : (i32) -> memref<4xi32>
      %4285 = "equeue.read"(%4284, %4279) {bank = 0 : i64, size = dense<4> : tensor<1xi64>} : (memref<4xi32>, i32) -> tensor<4xi32>
      "equeue.write"(%4285, %4283) {bank = 0 : i64} : (tensor<4xi32>, memref<4xi32>) -> ()
      %4286 = "equeue.read"(%arg4, %4278) {bank = 0 : i64, size = dense<4> : tensor<1xi64>} : (memref<512xf32>, i32) -> tensor<512xf32>
      "equeue.write"(%4286, %4281) {bank = 0 : i64} : (tensor<512xf32>, memref<16xi32>) -> ()
      %4287 = "equeue.unkOp"(%4283, %4281, %4282) {op_name = "mac4"} : (memref<4xi32>, memref<16xi32>, memref<8xi32>) -> memref<4xi32>
      %4288 = "equeue.read"(%4283) {bank = 0 : i64} : (memref<4xi32>) -> tensor<i32>
      "equeue.write"(%4288, %arg5, %4280) {bank = 0 : i64, size = dense<4> : tensor<1xi64>} : (tensor<i32>, memref<4xi32>, i32) -> ()
      "equeue.return"() : () -> ()
    }) : (!equeue.signal, i32, i32, i32, i32, memref<512xf32>, memref<4xi32>) -> !equeue.signal
    %4271 = "equeue.get_comp_field"(%143) {name = "proc"} : (i32) -> i32
    %4272 = "equeue.get_comp_field"(%143) {name = "ofmap"} : (i32) -> memref<4xi32>
    %done_2059 = "equeue.launch"(%4246, %4271, %5, %143, %136, %1, %4272) ( {
    ^bb0(%arg1: i32, %arg2: i32, %arg3: i32, %arg4: memref<512xf32>, %arg5: memref<4xi32>):  // no predecessors
      %4278 = "equeue.get_comp_field"(%5) {name = "stream12"} : (i32) -> i32
      %4279 = "equeue.get_comp_field"(%5) {name = "stream27"} : (i32) -> i32
      %4280 = "equeue.get_comp_field"(%5) {name = "stream28"} : (i32) -> i32
      %4281 = "equeue.get_comp_field"(%arg2) {name = "ifmap"} : (i32) -> memref<16xi32>
      %4282 = "equeue.get_comp_field"(%arg2) {name = "filter"} : (i32) -> memref<8xi32>
      %4283 = "equeue.get_comp_field"(%arg2) {name = "ofmap"} : (i32) -> memref<4xi32>
      %4284 = "equeue.get_comp_field"(%arg3) {name = "ofmap"} : (i32) -> memref<4xi32>
      %4285 = "equeue.read"(%4284, %4279) {bank = 0 : i64, size = dense<4> : tensor<1xi64>} : (memref<4xi32>, i32) -> tensor<4xi32>
      "equeue.write"(%4285, %4283) {bank = 0 : i64} : (tensor<4xi32>, memref<4xi32>) -> ()
      %4286 = "equeue.read"(%arg4, %4278) {bank = 0 : i64, size = dense<4> : tensor<1xi64>} : (memref<512xf32>, i32) -> tensor<512xf32>
      "equeue.write"(%4286, %4281) {bank = 0 : i64} : (tensor<512xf32>, memref<16xi32>) -> ()
      %4287 = "equeue.unkOp"(%4283, %4281, %4282) {op_name = "mac4"} : (memref<4xi32>, memref<16xi32>, memref<8xi32>) -> memref<4xi32>
      %4288 = "equeue.read"(%4283) {bank = 0 : i64} : (memref<4xi32>) -> tensor<i32>
      "equeue.write"(%4288, %arg5, %4280) {bank = 0 : i64, size = dense<4> : tensor<1xi64>} : (tensor<i32>, memref<4xi32>, i32) -> ()
      "equeue.return"() : () -> ()
    }) : (!equeue.signal, i32, i32, i32, i32, memref<512xf32>, memref<4xi32>) -> !equeue.signal
    %4273 = "equeue.get_comp_field"(%150) {name = "proc"} : (i32) -> i32
    %4274 = "equeue.get_comp_field"(%150) {name = "ofmap"} : (i32) -> memref<4xi32>
    %done_2060 = "equeue.launch"(%4246, %4273, %5, %150, %143, %1, %4274) ( {
    ^bb0(%arg1: i32, %arg2: i32, %arg3: i32, %arg4: memref<512xf32>, %arg5: memref<4xi32>):  // no predecessors
      %4278 = "equeue.get_comp_field"(%5) {name = "stream13"} : (i32) -> i32
      %4279 = "equeue.get_comp_field"(%5) {name = "stream28"} : (i32) -> i32
      %4280 = "equeue.get_comp_field"(%5) {name = "stream29"} : (i32) -> i32
      %4281 = "equeue.get_comp_field"(%arg2) {name = "ifmap"} : (i32) -> memref<16xi32>
      %4282 = "equeue.get_comp_field"(%arg2) {name = "filter"} : (i32) -> memref<8xi32>
      %4283 = "equeue.get_comp_field"(%arg2) {name = "ofmap"} : (i32) -> memref<4xi32>
      %4284 = "equeue.get_comp_field"(%arg3) {name = "ofmap"} : (i32) -> memref<4xi32>
      %4285 = "equeue.read"(%4284, %4279) {bank = 0 : i64, size = dense<4> : tensor<1xi64>} : (memref<4xi32>, i32) -> tensor<4xi32>
      "equeue.write"(%4285, %4283) {bank = 0 : i64} : (tensor<4xi32>, memref<4xi32>) -> ()
      %4286 = "equeue.read"(%arg4, %4278) {bank = 0 : i64, size = dense<4> : tensor<1xi64>} : (memref<512xf32>, i32) -> tensor<512xf32>
      "equeue.write"(%4286, %4281) {bank = 0 : i64} : (tensor<512xf32>, memref<16xi32>) -> ()
      %4287 = "equeue.unkOp"(%4283, %4281, %4282) {op_name = "mac4"} : (memref<4xi32>, memref<16xi32>, memref<8xi32>) -> memref<4xi32>
      %4288 = "equeue.read"(%4283) {bank = 0 : i64} : (memref<4xi32>) -> tensor<i32>
      "equeue.write"(%4288, %arg5, %4280) {bank = 0 : i64, size = dense<4> : tensor<1xi64>} : (tensor<i32>, memref<4xi32>, i32) -> ()
      "equeue.return"() : () -> ()
    }) : (!equeue.signal, i32, i32, i32, i32, memref<512xf32>, memref<4xi32>) -> !equeue.signal
    %4275 = "equeue.get_comp_field"(%157) {name = "proc"} : (i32) -> i32
    %4276 = "equeue.get_comp_field"(%157) {name = "ofmap"} : (i32) -> memref<4xi32>
    %done_2061 = "equeue.launch"(%4246, %4275, %5, %157, %150, %1, %4276) ( {
    ^bb0(%arg1: i32, %arg2: i32, %arg3: i32, %arg4: memref<512xf32>, %arg5: memref<4xi32>):  // no predecessors
      %4278 = "equeue.get_comp_field"(%5) {name = "stream14"} : (i32) -> i32
      %4279 = "equeue.get_comp_field"(%5) {name = "stream29"} : (i32) -> i32
      %4280 = "equeue.get_comp_field"(%5) {name = "stream30"} : (i32) -> i32
      %4281 = "equeue.get_comp_field"(%arg2) {name = "ifmap"} : (i32) -> memref<16xi32>
      %4282 = "equeue.get_comp_field"(%arg2) {name = "filter"} : (i32) -> memref<8xi32>
      %4283 = "equeue.get_comp_field"(%arg2) {name = "ofmap"} : (i32) -> memref<4xi32>
      %4284 = "equeue.get_comp_field"(%arg3) {name = "ofmap"} : (i32) -> memref<4xi32>
      %4285 = "equeue.read"(%4284, %4279) {bank = 0 : i64, size = dense<4> : tensor<1xi64>} : (memref<4xi32>, i32) -> tensor<4xi32>
      "equeue.write"(%4285, %4283) {bank = 0 : i64} : (tensor<4xi32>, memref<4xi32>) -> ()
      %4286 = "equeue.read"(%arg4, %4278) {bank = 0 : i64, size = dense<4> : tensor<1xi64>} : (memref<512xf32>, i32) -> tensor<512xf32>
      "equeue.write"(%4286, %4281) {bank = 0 : i64} : (tensor<512xf32>, memref<16xi32>) -> ()
      %4287 = "equeue.unkOp"(%4283, %4281, %4282) {op_name = "mac4"} : (memref<4xi32>, memref<16xi32>, memref<8xi32>) -> memref<4xi32>
      %4288 = "equeue.read"(%4283) {bank = 0 : i64} : (memref<4xi32>) -> tensor<i32>
      "equeue.write"(%4288, %arg5, %4280) {bank = 0 : i64, size = dense<4> : tensor<1xi64>} : (tensor<i32>, memref<4xi32>, i32) -> ()
      "equeue.return"() : () -> ()
    }) : (!equeue.signal, i32, i32, i32, i32, memref<512xf32>, memref<4xi32>) -> !equeue.signal
    %4277 = "equeue.get_comp_field"(%164) {name = "proc"} : (i32) -> i32
    %done_2062 = "equeue.launch"(%4246, %4277, %5, %164, %157, %1, %3) ( {
    ^bb0(%arg1: i32, %arg2: i32, %arg3: i32, %arg4: memref<512xf32>, %arg5: memref<481xf32>):  // no predecessors
      %4278 = "equeue.get_comp_field"(%5) {name = "stream15"} : (i32) -> i32
      %4279 = "equeue.get_comp_field"(%5) {name = "stream30"} : (i32) -> i32
      %4280 = "equeue.get_comp_field"(%5) {name = "stream31"} : (i32) -> i32
      %4281 = "equeue.get_comp_field"(%arg2) {name = "ifmap"} : (i32) -> memref<16xi32>
      %4282 = "equeue.get_comp_field"(%arg2) {name = "filter"} : (i32) -> memref<8xi32>
      %4283 = "equeue.get_comp_field"(%arg2) {name = "ofmap"} : (i32) -> memref<4xi32>
      %4284 = "equeue.get_comp_field"(%arg3) {name = "ofmap"} : (i32) -> memref<4xi32>
      %4285 = "equeue.read"(%4284, %4279) {bank = 0 : i64, size = dense<4> : tensor<1xi64>} : (memref<4xi32>, i32) -> tensor<4xi32>
      "equeue.write"(%4285, %4283) {bank = 0 : i64} : (tensor<4xi32>, memref<4xi32>) -> ()
      %4286 = "equeue.read"(%arg4, %4278) {bank = 0 : i64, size = dense<4> : tensor<1xi64>} : (memref<512xf32>, i32) -> tensor<512xf32>
      "equeue.write"(%4286, %4281) {bank = 0 : i64} : (tensor<512xf32>, memref<16xi32>) -> ()
      %4287 = "equeue.unkOp"(%4283, %4281, %4282) {op_name = "mac4"} : (memref<4xi32>, memref<16xi32>, memref<8xi32>) -> memref<4xi32>
      %4288 = "equeue.read"(%4283) {bank = 0 : i64} : (memref<4xi32>) -> tensor<i32>
      "equeue.write"(%4288, %arg5, %4280) {bank = 0 : i64, size = dense<4> : tensor<1xi64>} : (tensor<i32>, memref<481xf32>, i32) -> ()
      "equeue.return"() : () -> ()
    }) : (!equeue.signal, i32, i32, i32, i32, memref<512xf32>, memref<481xf32>) -> !equeue.signal
    "equeue.await"(%done_2062) : (!equeue.signal) -> ()
    return
  }
}
