

module {
  func @graph(%arg0: tensor<512xi32>) {
    %0 = "equeue.create_mem"() {banks = 1 : i64, data_bit = 32 : i64, shape = dense<512> : tensor<1xi64>, type = "SINK"} : () -> i32
    %1 = "equeue.alloc"(%0) {data_bit = 32 : i64, shape = dense<512> : tensor<1xi64>} : (i32) -> memref<512xf32>
    %2 = "equeue.create_mem"() {banks = 1 : i64, data_bit = 32 : i64, shape = dense<481> : tensor<1xi64>, type = "SINK"} : () -> i32
    %3 = "equeue.alloc"(%2) {data_bit = 32 : i64, shape = dense<481> : tensor<1xi64>} : (i32) -> memref<481xf32>
    %4 = "equeue.connection"() {bandwidth = 32 : i64, type = "Streaming"} : () -> i32
    %5 = "equeue.create_comp_field"(%4) {names = "stream0 "} : (i32) -> i32
    %6 = "equeue.connection"() {bandwidth = 32 : i64, type = "Streaming"} : () -> i32
    "equeue.add_comp_field"(%5, %6) {names = "stream1 "} : (i32, i32) -> ()
    %7 = "equeue.connection"() {bandwidth = 32 : i64, type = "Streaming"} : () -> i32
    "equeue.add_comp_field"(%5, %7) {names = "stream2 "} : (i32, i32) -> ()
    %8 = "equeue.connection"() {bandwidth = 32 : i64, type = "Streaming"} : () -> i32
    "equeue.add_comp_field"(%5, %8) {names = "stream3 "} : (i32, i32) -> ()
    %9 = "equeue.connection"() {bandwidth = 32 : i64, type = "Streaming"} : () -> i32
    "equeue.add_comp_field"(%5, %9) {names = "stream4 "} : (i32, i32) -> ()
    %10 = "equeue.connection"() {bandwidth = 32 : i64, type = "Streaming"} : () -> i32
    "equeue.add_comp_field"(%5, %10) {names = "stream5 "} : (i32, i32) -> ()
    %11 = "equeue.connection"() {bandwidth = 32 : i64, type = "Streaming"} : () -> i32
    "equeue.add_comp_field"(%5, %11) {names = "stream6 "} : (i32, i32) -> ()
    %12 = "equeue.connection"() {bandwidth = 32 : i64, type = "Streaming"} : () -> i32
    "equeue.add_comp_field"(%5, %12) {names = "stream7 "} : (i32, i32) -> ()
    %13 = "equeue.get_comp_field"(%5) {name = "stream0"} : (i32) -> i32
    "equeue.write"(%arg0, %1, %13) {bank = 0 : i64, size = dense<512> : tensor<1xi64>} : (tensor<512xi32>, memref<512xf32>, i32) -> ()
    %14 = "equeue.get_comp_field"(%5) {name = "stream1"} : (i32) -> i32
    "equeue.write"(%arg0, %1, %14) {bank = 0 : i64, size = dense<512> : tensor<1xi64>} : (tensor<512xi32>, memref<512xf32>, i32) -> ()
    %15 = "equeue.get_comp_field"(%5) {name = "stream2"} : (i32) -> i32
    "equeue.write"(%arg0, %1, %15) {bank = 0 : i64, size = dense<512> : tensor<1xi64>} : (tensor<512xi32>, memref<512xf32>, i32) -> ()
    %16 = "equeue.get_comp_field"(%5) {name = "stream3"} : (i32) -> i32
    "equeue.write"(%arg0, %1, %16) {bank = 0 : i64, size = dense<512> : tensor<1xi64>} : (tensor<512xi32>, memref<512xf32>, i32) -> ()
    %17 = "equeue.create_proc"() {type = "AIEngine"} : () -> i32
    %18 = "equeue.create_mem"() {banks = 1 : i64, data_bit = 32 : i64, shape = dense<16> : tensor<1xi64>, type = "RegisterFile"} : () -> i32
    %19 = "equeue.create_mem"() {banks = 1 : i64, data_bit = 32 : i64, shape = dense<8> : tensor<1xi64>, type = "RegisterFile"} : () -> i32
    %20 = "equeue.create_mem"() {banks = 1 : i64, data_bit = 32 : i64, shape = dense<4> : tensor<1xi64>, type = "RegisterFile"} : () -> i32
    %21 = "equeue.create_comp_field"(%17, %18, %19, %20) {names = "proc data taps acc "} : (i32, i32, i32, i32) -> i32
    %22 = "equeue.create_proc"() {type = "AIEngine"} : () -> i32
    %23 = "equeue.create_mem"() {banks = 1 : i64, data_bit = 32 : i64, shape = dense<16> : tensor<1xi64>, type = "RegisterFile"} : () -> i32
    %24 = "equeue.create_mem"() {banks = 1 : i64, data_bit = 32 : i64, shape = dense<8> : tensor<1xi64>, type = "RegisterFile"} : () -> i32
    %25 = "equeue.create_mem"() {banks = 1 : i64, data_bit = 32 : i64, shape = dense<4> : tensor<1xi64>, type = "RegisterFile"} : () -> i32
    %26 = "equeue.create_comp_field"(%22, %23, %24, %25) {names = "proc data taps acc "} : (i32, i32, i32, i32) -> i32
    %27 = "equeue.create_proc"() {type = "AIEngine"} : () -> i32
    %28 = "equeue.create_mem"() {banks = 1 : i64, data_bit = 32 : i64, shape = dense<16> : tensor<1xi64>, type = "RegisterFile"} : () -> i32
    %29 = "equeue.create_mem"() {banks = 1 : i64, data_bit = 32 : i64, shape = dense<8> : tensor<1xi64>, type = "RegisterFile"} : () -> i32
    %30 = "equeue.create_mem"() {banks = 1 : i64, data_bit = 32 : i64, shape = dense<4> : tensor<1xi64>, type = "RegisterFile"} : () -> i32
    %31 = "equeue.create_comp_field"(%27, %28, %29, %30) {names = "proc data taps acc "} : (i32, i32, i32, i32) -> i32
    %32 = "equeue.create_proc"() {type = "AIEngine"} : () -> i32
    %33 = "equeue.create_mem"() {banks = 1 : i64, data_bit = 32 : i64, shape = dense<16> : tensor<1xi64>, type = "RegisterFile"} : () -> i32
    %34 = "equeue.create_mem"() {banks = 1 : i64, data_bit = 32 : i64, shape = dense<8> : tensor<1xi64>, type = "RegisterFile"} : () -> i32
    %35 = "equeue.create_mem"() {banks = 1 : i64, data_bit = 32 : i64, shape = dense<4> : tensor<1xi64>, type = "RegisterFile"} : () -> i32
    %36 = "equeue.create_comp_field"(%32, %33, %34, %35) {names = "proc data taps acc "} : (i32, i32, i32, i32) -> i32
    %37 = "equeue.control_start"() : () -> !equeue.signal
    %38 = "equeue.get_comp_field"(%21) {name = "proc"} : (i32) -> i32
    %done = "equeue.launch"(%37, %38, %21) ( {
    ^bb0(%arg1: i32):  // no predecessors
      %298 = "equeue.get_comp_field"(%arg1) {name = "data"} : (i32) -> i32
      %299 = "equeue.alloc"(%298) {data_bit = 32 : i64, shape = dense<16> : tensor<1xi64>} : (i32) -> memref<16xf32>
      %300 = "equeue.get_comp_field"(%arg1) {name = "taps"} : (i32) -> i32
      %301 = "equeue.alloc"(%300) {data_bit = 32 : i64, shape = dense<8> : tensor<1xi64>} : (i32) -> memref<8xf32>
      %302 = "equeue.get_comp_field"(%arg1) {name = "acc"} : (i32) -> i32
      %303 = "equeue.alloc"(%302) {data_bit = 32 : i64, shape = dense<4> : tensor<1xi64>} : (i32) -> memref<4xf32>
      "equeue.add_comp_field"(%arg1, %299, %301, %303) {names = "ifmap filter ofmap "} : (i32, memref<16xf32>, memref<8xf32>, memref<4xf32>) -> ()
      "equeue.return"() : () -> ()
    }) : (!equeue.signal, i32, i32) -> !equeue.signal
    "equeue.await"(%done) : (!equeue.signal) -> ()
    %39 = "equeue.get_comp_field"(%26) {name = "proc"} : (i32) -> i32
    %done_0 = "equeue.launch"(%37, %39, %26) ( {
    ^bb0(%arg1: i32):  // no predecessors
      %298 = "equeue.get_comp_field"(%arg1) {name = "data"} : (i32) -> i32
      %299 = "equeue.alloc"(%298) {data_bit = 32 : i64, shape = dense<16> : tensor<1xi64>} : (i32) -> memref<16xf32>
      %300 = "equeue.get_comp_field"(%arg1) {name = "taps"} : (i32) -> i32
      %301 = "equeue.alloc"(%300) {data_bit = 32 : i64, shape = dense<8> : tensor<1xi64>} : (i32) -> memref<8xf32>
      %302 = "equeue.get_comp_field"(%arg1) {name = "acc"} : (i32) -> i32
      %303 = "equeue.alloc"(%302) {data_bit = 32 : i64, shape = dense<4> : tensor<1xi64>} : (i32) -> memref<4xf32>
      "equeue.add_comp_field"(%arg1, %299, %301, %303) {names = "ifmap filter ofmap "} : (i32, memref<16xf32>, memref<8xf32>, memref<4xf32>) -> ()
      "equeue.return"() : () -> ()
    }) : (!equeue.signal, i32, i32) -> !equeue.signal
    "equeue.await"(%done_0) : (!equeue.signal) -> ()
    %40 = "equeue.get_comp_field"(%31) {name = "proc"} : (i32) -> i32
    %done_1 = "equeue.launch"(%37, %40, %31) ( {
    ^bb0(%arg1: i32):  // no predecessors
      %298 = "equeue.get_comp_field"(%arg1) {name = "data"} : (i32) -> i32
      %299 = "equeue.alloc"(%298) {data_bit = 32 : i64, shape = dense<16> : tensor<1xi64>} : (i32) -> memref<16xf32>
      %300 = "equeue.get_comp_field"(%arg1) {name = "taps"} : (i32) -> i32
      %301 = "equeue.alloc"(%300) {data_bit = 32 : i64, shape = dense<8> : tensor<1xi64>} : (i32) -> memref<8xf32>
      %302 = "equeue.get_comp_field"(%arg1) {name = "acc"} : (i32) -> i32
      %303 = "equeue.alloc"(%302) {data_bit = 32 : i64, shape = dense<4> : tensor<1xi64>} : (i32) -> memref<4xf32>
      "equeue.add_comp_field"(%arg1, %299, %301, %303) {names = "ifmap filter ofmap "} : (i32, memref<16xf32>, memref<8xf32>, memref<4xf32>) -> ()
      "equeue.return"() : () -> ()
    }) : (!equeue.signal, i32, i32) -> !equeue.signal
    "equeue.await"(%done_1) : (!equeue.signal) -> ()
    %41 = "equeue.get_comp_field"(%36) {name = "proc"} : (i32) -> i32
    %done_2 = "equeue.launch"(%37, %41, %36) ( {
    ^bb0(%arg1: i32):  // no predecessors
      %298 = "equeue.get_comp_field"(%arg1) {name = "data"} : (i32) -> i32
      %299 = "equeue.alloc"(%298) {data_bit = 32 : i64, shape = dense<16> : tensor<1xi64>} : (i32) -> memref<16xf32>
      %300 = "equeue.get_comp_field"(%arg1) {name = "taps"} : (i32) -> i32
      %301 = "equeue.alloc"(%300) {data_bit = 32 : i64, shape = dense<8> : tensor<1xi64>} : (i32) -> memref<8xf32>
      %302 = "equeue.get_comp_field"(%arg1) {name = "acc"} : (i32) -> i32
      %303 = "equeue.alloc"(%302) {data_bit = 32 : i64, shape = dense<4> : tensor<1xi64>} : (i32) -> memref<4xf32>
      "equeue.add_comp_field"(%arg1, %299, %301, %303) {names = "ifmap filter ofmap "} : (i32, memref<16xf32>, memref<8xf32>, memref<4xf32>) -> ()
      "equeue.return"() : () -> ()
    }) : (!equeue.signal, i32, i32) -> !equeue.signal
    "equeue.await"(%done_2) : (!equeue.signal) -> ()
    %42 = "equeue.control_start"() : () -> !equeue.signal
    %43 = "equeue.get_comp_field"(%21) {name = "proc"} : (i32) -> i32
    %44 = "equeue.get_comp_field"(%21) {name = "ofmap"} : (i32) -> memref<4xi32>
    %done_3 = "equeue.launch"(%42, %43, %5, %21, %1, %44) ( {
    ^bb0(%arg1: i32, %arg2: i32, %arg3: memref<512xf32>, %arg4: memref<4xi32>):  // no predecessors
      %298 = "equeue.get_comp_field"(%arg1) {name = "stream0"} : (i32) -> i32
      %299 = "equeue.get_comp_field"(%arg1) {name = "stream4"} : (i32) -> i32
      %300 = "equeue.get_comp_field"(%arg2) {name = "ifmap"} : (i32) -> memref<16xi32>
      %301 = "equeue.get_comp_field"(%arg2) {name = "filter"} : (i32) -> memref<8xi32>
      %302 = "equeue.get_comp_field"(%arg2) {name = "ofmap"} : (i32) -> memref<4xi32>
      %303 = "equeue.unkOp"(%302, %300, %301) {op_name = "mul4"} : (memref<4xi32>, memref<16xi32>, memref<8xi32>) -> memref<4xi32>
      %304 = "equeue.unkOp"(%302, %300, %301) {op_name = "mac4"} : (memref<4xi32>, memref<16xi32>, memref<8xi32>) -> memref<4xi32>
      %305 = "equeue.read"(%arg3, %298) {bank = 0 : i64, size = dense<4> : tensor<1xi64>} : (memref<512xf32>, i32) -> tensor<512xf32>
      "equeue.write"(%305, %300) {bank = 0 : i64, size = dense<4> : tensor<1xi64>} : (tensor<512xf32>, memref<16xi32>) -> ()
      %306 = "equeue.unkOp"(%302, %300, %301) {op_name = "mac4"} : (memref<4xi32>, memref<16xi32>, memref<8xi32>) -> memref<4xi32>
      %307 = "equeue.unkOp"(%302, %300, %301) {op_name = "mac4"} : (memref<4xi32>, memref<16xi32>, memref<8xi32>) -> memref<4xi32>
      %308 = "equeue.read"(%302) {bank = 0 : i64, size = dense<4> : tensor<1xi64>} : (memref<4xi32>) -> tensor<4xi32>
      "equeue.write"(%308, %arg4, %299) {bank = 0 : i64, size = dense<4> : tensor<1xi64>} : (tensor<4xi32>, memref<4xi32>, i32) -> ()
      %309 = "equeue.unkOp"(%302, %300, %301) {op_name = "mul4"} : (memref<4xi32>, memref<16xi32>, memref<8xi32>) -> memref<4xi32>
      %310 = "equeue.unkOp"(%302, %300, %301) {op_name = "mac4"} : (memref<4xi32>, memref<16xi32>, memref<8xi32>) -> memref<4xi32>
      %311 = "equeue.read"(%arg3, %298) {bank = 0 : i64, size = dense<4> : tensor<1xi64>} : (memref<512xf32>, i32) -> tensor<512xf32>
      "equeue.write"(%311, %300) {bank = 0 : i64, size = dense<4> : tensor<1xi64>} : (tensor<512xf32>, memref<16xi32>) -> ()
      %312 = "equeue.unkOp"(%302, %300, %301) {op_name = "mac4"} : (memref<4xi32>, memref<16xi32>, memref<8xi32>) -> memref<4xi32>
      %313 = "equeue.unkOp"(%302, %300, %301) {op_name = "mac4"} : (memref<4xi32>, memref<16xi32>, memref<8xi32>) -> memref<4xi32>
      %314 = "equeue.read"(%302) {bank = 0 : i64, size = dense<4> : tensor<1xi64>} : (memref<4xi32>) -> tensor<4xi32>
      "equeue.write"(%314, %arg4, %299) {bank = 0 : i64, size = dense<4> : tensor<1xi64>} : (tensor<4xi32>, memref<4xi32>, i32) -> ()
      %315 = "equeue.unkOp"(%302, %300, %301) {op_name = "mul4"} : (memref<4xi32>, memref<16xi32>, memref<8xi32>) -> memref<4xi32>
      %316 = "equeue.unkOp"(%302, %300, %301) {op_name = "mac4"} : (memref<4xi32>, memref<16xi32>, memref<8xi32>) -> memref<4xi32>
      %317 = "equeue.read"(%arg3, %298) {bank = 0 : i64, size = dense<4> : tensor<1xi64>} : (memref<512xf32>, i32) -> tensor<512xf32>
      "equeue.write"(%317, %300) {bank = 0 : i64, size = dense<4> : tensor<1xi64>} : (tensor<512xf32>, memref<16xi32>) -> ()
      %318 = "equeue.unkOp"(%302, %300, %301) {op_name = "mac4"} : (memref<4xi32>, memref<16xi32>, memref<8xi32>) -> memref<4xi32>
      %319 = "equeue.unkOp"(%302, %300, %301) {op_name = "mac4"} : (memref<4xi32>, memref<16xi32>, memref<8xi32>) -> memref<4xi32>
      %320 = "equeue.read"(%302) {bank = 0 : i64, size = dense<4> : tensor<1xi64>} : (memref<4xi32>) -> tensor<4xi32>
      "equeue.write"(%320, %arg4, %299) {bank = 0 : i64, size = dense<4> : tensor<1xi64>} : (tensor<4xi32>, memref<4xi32>, i32) -> ()
      %321 = "equeue.unkOp"(%302, %300, %301) {op_name = "mul4"} : (memref<4xi32>, memref<16xi32>, memref<8xi32>) -> memref<4xi32>
      %322 = "equeue.unkOp"(%302, %300, %301) {op_name = "mac4"} : (memref<4xi32>, memref<16xi32>, memref<8xi32>) -> memref<4xi32>
      %323 = "equeue.read"(%arg3, %298) {bank = 0 : i64, size = dense<4> : tensor<1xi64>} : (memref<512xf32>, i32) -> tensor<512xf32>
      "equeue.write"(%323, %300) {bank = 0 : i64, size = dense<4> : tensor<1xi64>} : (tensor<512xf32>, memref<16xi32>) -> ()
      %324 = "equeue.unkOp"(%302, %300, %301) {op_name = "mac4"} : (memref<4xi32>, memref<16xi32>, memref<8xi32>) -> memref<4xi32>
      %325 = "equeue.unkOp"(%302, %300, %301) {op_name = "mac4"} : (memref<4xi32>, memref<16xi32>, memref<8xi32>) -> memref<4xi32>
      %326 = "equeue.read"(%302) {bank = 0 : i64, size = dense<4> : tensor<1xi64>} : (memref<4xi32>) -> tensor<4xi32>
      "equeue.write"(%326, %arg4, %299) {bank = 0 : i64, size = dense<4> : tensor<1xi64>} : (tensor<4xi32>, memref<4xi32>, i32) -> ()
      "equeue.return"() : () -> ()
    }) : (!equeue.signal, i32, i32, i32, memref<512xf32>, memref<4xi32>) -> !equeue.signal
    %45 = "equeue.get_comp_field"(%26) {name = "proc"} : (i32) -> i32
    %46 = "equeue.get_comp_field"(%26) {name = "ofmap"} : (i32) -> memref<4xi32>
    %done_4 = "equeue.launch"(%42, %45, %5, %26, %21, %1, %46) ( {
    ^bb0(%arg1: i32, %arg2: i32, %arg3: i32, %arg4: memref<512xf32>, %arg5: memref<4xi32>):  // no predecessors
      %298 = "equeue.get_comp_field"(%arg1) {name = "stream1"} : (i32) -> i32
      %299 = "equeue.get_comp_field"(%arg1) {name = "stream4"} : (i32) -> i32
      %300 = "equeue.get_comp_field"(%arg1) {name = "stream5"} : (i32) -> i32
      %301 = "equeue.get_comp_field"(%arg2) {name = "ifmap"} : (i32) -> memref<16xi32>
      %302 = "equeue.get_comp_field"(%arg2) {name = "filter"} : (i32) -> memref<8xi32>
      %303 = "equeue.get_comp_field"(%arg2) {name = "ofmap"} : (i32) -> memref<4xi32>
      %304 = "equeue.get_comp_field"(%arg3) {name = "ofmap"} : (i32) -> memref<4xi32>
      %305 = "equeue.read"(%304, %299) {bank = 0 : i64, size = dense<4> : tensor<1xi64>} : (memref<4xi32>, i32) -> tensor<4xi32>
      "equeue.write"(%305, %303) {bank = 0 : i64, size = dense<4> : tensor<1xi64>} : (tensor<4xi32>, memref<4xi32>) -> ()
      %306 = "equeue.unkOp"(%303, %301, %302) {op_name = "mac4"} : (memref<4xi32>, memref<16xi32>, memref<8xi32>) -> memref<4xi32>
      %307 = "equeue.unkOp"(%303, %301, %302) {op_name = "mac4"} : (memref<4xi32>, memref<16xi32>, memref<8xi32>) -> memref<4xi32>
      %308 = "equeue.read"(%arg4, %298) {bank = 0 : i64, size = dense<4> : tensor<1xi64>} : (memref<512xf32>, i32) -> tensor<512xf32>
      "equeue.write"(%308, %301) {bank = 0 : i64, size = dense<4> : tensor<1xi64>} : (tensor<512xf32>, memref<16xi32>) -> ()
      %309 = "equeue.unkOp"(%303, %301, %302) {op_name = "mac4"} : (memref<4xi32>, memref<16xi32>, memref<8xi32>) -> memref<4xi32>
      %310 = "equeue.unkOp"(%303, %301, %302) {op_name = "mac4"} : (memref<4xi32>, memref<16xi32>, memref<8xi32>) -> memref<4xi32>
      %311 = "equeue.read"(%303) {bank = 0 : i64, size = dense<4> : tensor<1xi64>} : (memref<4xi32>) -> tensor<4xi32>
      "equeue.write"(%311, %arg5, %300) {bank = 0 : i64, size = dense<4> : tensor<1xi64>} : (tensor<4xi32>, memref<4xi32>, i32) -> ()
      %312 = "equeue.read"(%304, %299) {bank = 0 : i64, size = dense<4> : tensor<1xi64>} : (memref<4xi32>, i32) -> tensor<4xi32>
      "equeue.write"(%312, %303) {bank = 0 : i64, size = dense<4> : tensor<1xi64>} : (tensor<4xi32>, memref<4xi32>) -> ()
      %313 = "equeue.unkOp"(%303, %301, %302) {op_name = "mac4"} : (memref<4xi32>, memref<16xi32>, memref<8xi32>) -> memref<4xi32>
      %314 = "equeue.unkOp"(%303, %301, %302) {op_name = "mac4"} : (memref<4xi32>, memref<16xi32>, memref<8xi32>) -> memref<4xi32>
      %315 = "equeue.read"(%arg4, %298) {bank = 0 : i64, size = dense<4> : tensor<1xi64>} : (memref<512xf32>, i32) -> tensor<512xf32>
      "equeue.write"(%315, %301) {bank = 0 : i64, size = dense<4> : tensor<1xi64>} : (tensor<512xf32>, memref<16xi32>) -> ()
      %316 = "equeue.unkOp"(%303, %301, %302) {op_name = "mac4"} : (memref<4xi32>, memref<16xi32>, memref<8xi32>) -> memref<4xi32>
      %317 = "equeue.unkOp"(%303, %301, %302) {op_name = "mac4"} : (memref<4xi32>, memref<16xi32>, memref<8xi32>) -> memref<4xi32>
      %318 = "equeue.read"(%303) {bank = 0 : i64, size = dense<4> : tensor<1xi64>} : (memref<4xi32>) -> tensor<4xi32>
      "equeue.write"(%318, %arg5, %300) {bank = 0 : i64, size = dense<4> : tensor<1xi64>} : (tensor<4xi32>, memref<4xi32>, i32) -> ()
      %319 = "equeue.read"(%304, %299) {bank = 0 : i64, size = dense<4> : tensor<1xi64>} : (memref<4xi32>, i32) -> tensor<4xi32>
      "equeue.write"(%319, %303) {bank = 0 : i64, size = dense<4> : tensor<1xi64>} : (tensor<4xi32>, memref<4xi32>) -> ()
      %320 = "equeue.unkOp"(%303, %301, %302) {op_name = "mac4"} : (memref<4xi32>, memref<16xi32>, memref<8xi32>) -> memref<4xi32>
      %321 = "equeue.unkOp"(%303, %301, %302) {op_name = "mac4"} : (memref<4xi32>, memref<16xi32>, memref<8xi32>) -> memref<4xi32>
      %322 = "equeue.read"(%arg4, %298) {bank = 0 : i64, size = dense<4> : tensor<1xi64>} : (memref<512xf32>, i32) -> tensor<512xf32>
      "equeue.write"(%322, %301) {bank = 0 : i64, size = dense<4> : tensor<1xi64>} : (tensor<512xf32>, memref<16xi32>) -> ()
      %323 = "equeue.unkOp"(%303, %301, %302) {op_name = "mac4"} : (memref<4xi32>, memref<16xi32>, memref<8xi32>) -> memref<4xi32>
      %324 = "equeue.unkOp"(%303, %301, %302) {op_name = "mac4"} : (memref<4xi32>, memref<16xi32>, memref<8xi32>) -> memref<4xi32>
      %325 = "equeue.read"(%303) {bank = 0 : i64, size = dense<4> : tensor<1xi64>} : (memref<4xi32>) -> tensor<4xi32>
      "equeue.write"(%325, %arg5, %300) {bank = 0 : i64, size = dense<4> : tensor<1xi64>} : (tensor<4xi32>, memref<4xi32>, i32) -> ()
      %326 = "equeue.read"(%304, %299) {bank = 0 : i64, size = dense<4> : tensor<1xi64>} : (memref<4xi32>, i32) -> tensor<4xi32>
      "equeue.write"(%326, %303) {bank = 0 : i64, size = dense<4> : tensor<1xi64>} : (tensor<4xi32>, memref<4xi32>) -> ()
      %327 = "equeue.unkOp"(%303, %301, %302) {op_name = "mac4"} : (memref<4xi32>, memref<16xi32>, memref<8xi32>) -> memref<4xi32>
      %328 = "equeue.unkOp"(%303, %301, %302) {op_name = "mac4"} : (memref<4xi32>, memref<16xi32>, memref<8xi32>) -> memref<4xi32>
      %329 = "equeue.read"(%arg4, %298) {bank = 0 : i64, size = dense<4> : tensor<1xi64>} : (memref<512xf32>, i32) -> tensor<512xf32>
      "equeue.write"(%329, %301) {bank = 0 : i64, size = dense<4> : tensor<1xi64>} : (tensor<512xf32>, memref<16xi32>) -> ()
      %330 = "equeue.unkOp"(%303, %301, %302) {op_name = "mac4"} : (memref<4xi32>, memref<16xi32>, memref<8xi32>) -> memref<4xi32>
      %331 = "equeue.unkOp"(%303, %301, %302) {op_name = "mac4"} : (memref<4xi32>, memref<16xi32>, memref<8xi32>) -> memref<4xi32>
      %332 = "equeue.read"(%303) {bank = 0 : i64, size = dense<4> : tensor<1xi64>} : (memref<4xi32>) -> tensor<4xi32>
      "equeue.write"(%332, %arg5, %300) {bank = 0 : i64, size = dense<4> : tensor<1xi64>} : (tensor<4xi32>, memref<4xi32>, i32) -> ()
      "equeue.return"() : () -> ()
    }) : (!equeue.signal, i32, i32, i32, i32, memref<512xf32>, memref<4xi32>) -> !equeue.signal
    %47 = "equeue.get_comp_field"(%31) {name = "proc"} : (i32) -> i32
    %48 = "equeue.get_comp_field"(%31) {name = "ofmap"} : (i32) -> memref<4xi32>
    %done_5 = "equeue.launch"(%42, %47, %5, %31, %26, %1, %48) ( {
    ^bb0(%arg1: i32, %arg2: i32, %arg3: i32, %arg4: memref<512xf32>, %arg5: memref<4xi32>):  // no predecessors
      %298 = "equeue.get_comp_field"(%arg1) {name = "stream2"} : (i32) -> i32
      %299 = "equeue.get_comp_field"(%arg1) {name = "stream5"} : (i32) -> i32
      %300 = "equeue.get_comp_field"(%arg1) {name = "stream6"} : (i32) -> i32
      %301 = "equeue.get_comp_field"(%arg2) {name = "ifmap"} : (i32) -> memref<16xi32>
      %302 = "equeue.get_comp_field"(%arg2) {name = "filter"} : (i32) -> memref<8xi32>
      %303 = "equeue.get_comp_field"(%arg2) {name = "ofmap"} : (i32) -> memref<4xi32>
      %304 = "equeue.get_comp_field"(%arg3) {name = "ofmap"} : (i32) -> memref<4xi32>
      %305 = "equeue.read"(%304, %299) {bank = 0 : i64, size = dense<4> : tensor<1xi64>} : (memref<4xi32>, i32) -> tensor<4xi32>
      "equeue.write"(%305, %303) {bank = 0 : i64, size = dense<4> : tensor<1xi64>} : (tensor<4xi32>, memref<4xi32>) -> ()
      %306 = "equeue.unkOp"(%303, %301, %302) {op_name = "mac4"} : (memref<4xi32>, memref<16xi32>, memref<8xi32>) -> memref<4xi32>
      %307 = "equeue.unkOp"(%303, %301, %302) {op_name = "mac4"} : (memref<4xi32>, memref<16xi32>, memref<8xi32>) -> memref<4xi32>
      %308 = "equeue.read"(%arg4, %298) {bank = 0 : i64, size = dense<4> : tensor<1xi64>} : (memref<512xf32>, i32) -> tensor<512xf32>
      "equeue.write"(%308, %301) {bank = 0 : i64, size = dense<4> : tensor<1xi64>} : (tensor<512xf32>, memref<16xi32>) -> ()
      %309 = "equeue.unkOp"(%303, %301, %302) {op_name = "mac4"} : (memref<4xi32>, memref<16xi32>, memref<8xi32>) -> memref<4xi32>
      %310 = "equeue.unkOp"(%303, %301, %302) {op_name = "mac4"} : (memref<4xi32>, memref<16xi32>, memref<8xi32>) -> memref<4xi32>
      %311 = "equeue.read"(%303) {bank = 0 : i64, size = dense<4> : tensor<1xi64>} : (memref<4xi32>) -> tensor<4xi32>
      "equeue.write"(%311, %arg5, %300) {bank = 0 : i64, size = dense<4> : tensor<1xi64>} : (tensor<4xi32>, memref<4xi32>, i32) -> ()
      %312 = "equeue.read"(%304, %299) {bank = 0 : i64, size = dense<4> : tensor<1xi64>} : (memref<4xi32>, i32) -> tensor<4xi32>
      "equeue.write"(%312, %303) {bank = 0 : i64, size = dense<4> : tensor<1xi64>} : (tensor<4xi32>, memref<4xi32>) -> ()
      %313 = "equeue.unkOp"(%303, %301, %302) {op_name = "mac4"} : (memref<4xi32>, memref<16xi32>, memref<8xi32>) -> memref<4xi32>
      %314 = "equeue.unkOp"(%303, %301, %302) {op_name = "mac4"} : (memref<4xi32>, memref<16xi32>, memref<8xi32>) -> memref<4xi32>
      %315 = "equeue.read"(%arg4, %298) {bank = 0 : i64, size = dense<4> : tensor<1xi64>} : (memref<512xf32>, i32) -> tensor<512xf32>
      "equeue.write"(%315, %301) {bank = 0 : i64, size = dense<4> : tensor<1xi64>} : (tensor<512xf32>, memref<16xi32>) -> ()
      %316 = "equeue.unkOp"(%303, %301, %302) {op_name = "mac4"} : (memref<4xi32>, memref<16xi32>, memref<8xi32>) -> memref<4xi32>
      %317 = "equeue.unkOp"(%303, %301, %302) {op_name = "mac4"} : (memref<4xi32>, memref<16xi32>, memref<8xi32>) -> memref<4xi32>
      %318 = "equeue.read"(%303) {bank = 0 : i64, size = dense<4> : tensor<1xi64>} : (memref<4xi32>) -> tensor<4xi32>
      "equeue.write"(%318, %arg5, %300) {bank = 0 : i64, size = dense<4> : tensor<1xi64>} : (tensor<4xi32>, memref<4xi32>, i32) -> ()
      %319 = "equeue.read"(%304, %299) {bank = 0 : i64, size = dense<4> : tensor<1xi64>} : (memref<4xi32>, i32) -> tensor<4xi32>
      "equeue.write"(%319, %303) {bank = 0 : i64, size = dense<4> : tensor<1xi64>} : (tensor<4xi32>, memref<4xi32>) -> ()
      %320 = "equeue.unkOp"(%303, %301, %302) {op_name = "mac4"} : (memref<4xi32>, memref<16xi32>, memref<8xi32>) -> memref<4xi32>
      %321 = "equeue.unkOp"(%303, %301, %302) {op_name = "mac4"} : (memref<4xi32>, memref<16xi32>, memref<8xi32>) -> memref<4xi32>
      %322 = "equeue.read"(%arg4, %298) {bank = 0 : i64, size = dense<4> : tensor<1xi64>} : (memref<512xf32>, i32) -> tensor<512xf32>
      "equeue.write"(%322, %301) {bank = 0 : i64, size = dense<4> : tensor<1xi64>} : (tensor<512xf32>, memref<16xi32>) -> ()
      %323 = "equeue.unkOp"(%303, %301, %302) {op_name = "mac4"} : (memref<4xi32>, memref<16xi32>, memref<8xi32>) -> memref<4xi32>
      %324 = "equeue.unkOp"(%303, %301, %302) {op_name = "mac4"} : (memref<4xi32>, memref<16xi32>, memref<8xi32>) -> memref<4xi32>
      %325 = "equeue.read"(%303) {bank = 0 : i64, size = dense<4> : tensor<1xi64>} : (memref<4xi32>) -> tensor<4xi32>
      "equeue.write"(%325, %arg5, %300) {bank = 0 : i64, size = dense<4> : tensor<1xi64>} : (tensor<4xi32>, memref<4xi32>, i32) -> ()
      %326 = "equeue.read"(%304, %299) {bank = 0 : i64, size = dense<4> : tensor<1xi64>} : (memref<4xi32>, i32) -> tensor<4xi32>
      "equeue.write"(%326, %303) {bank = 0 : i64, size = dense<4> : tensor<1xi64>} : (tensor<4xi32>, memref<4xi32>) -> ()
      %327 = "equeue.unkOp"(%303, %301, %302) {op_name = "mac4"} : (memref<4xi32>, memref<16xi32>, memref<8xi32>) -> memref<4xi32>
      %328 = "equeue.unkOp"(%303, %301, %302) {op_name = "mac4"} : (memref<4xi32>, memref<16xi32>, memref<8xi32>) -> memref<4xi32>
      %329 = "equeue.read"(%arg4, %298) {bank = 0 : i64, size = dense<4> : tensor<1xi64>} : (memref<512xf32>, i32) -> tensor<512xf32>
      "equeue.write"(%329, %301) {bank = 0 : i64, size = dense<4> : tensor<1xi64>} : (tensor<512xf32>, memref<16xi32>) -> ()
      %330 = "equeue.unkOp"(%303, %301, %302) {op_name = "mac4"} : (memref<4xi32>, memref<16xi32>, memref<8xi32>) -> memref<4xi32>
      %331 = "equeue.unkOp"(%303, %301, %302) {op_name = "mac4"} : (memref<4xi32>, memref<16xi32>, memref<8xi32>) -> memref<4xi32>
      %332 = "equeue.read"(%303) {bank = 0 : i64, size = dense<4> : tensor<1xi64>} : (memref<4xi32>) -> tensor<4xi32>
      "equeue.write"(%332, %arg5, %300) {bank = 0 : i64, size = dense<4> : tensor<1xi64>} : (tensor<4xi32>, memref<4xi32>, i32) -> ()
      "equeue.return"() : () -> ()
    }) : (!equeue.signal, i32, i32, i32, i32, memref<512xf32>, memref<4xi32>) -> !equeue.signal
    %49 = "equeue.get_comp_field"(%36) {name = "proc"} : (i32) -> i32
    %done_6 = "equeue.launch"(%42, %49, %5, %36, %31, %1, %3) ( {
    ^bb0(%arg1: i32, %arg2: i32, %arg3: i32, %arg4: memref<512xf32>, %arg5: memref<481xf32>):  // no predecessors
      %298 = "equeue.get_comp_field"(%arg1) {name = "stream3"} : (i32) -> i32
      %299 = "equeue.get_comp_field"(%arg1) {name = "stream6"} : (i32) -> i32
      %300 = "equeue.get_comp_field"(%arg1) {name = "stream7"} : (i32) -> i32
      %301 = "equeue.get_comp_field"(%arg2) {name = "ifmap"} : (i32) -> memref<16xi32>
      %302 = "equeue.get_comp_field"(%arg2) {name = "filter"} : (i32) -> memref<8xi32>
      %303 = "equeue.get_comp_field"(%arg2) {name = "ofmap"} : (i32) -> memref<4xi32>
      %304 = "equeue.get_comp_field"(%arg3) {name = "ofmap"} : (i32) -> memref<4xi32>
      %305 = "equeue.read"(%304, %299) {bank = 0 : i64, size = dense<4> : tensor<1xi64>} : (memref<4xi32>, i32) -> tensor<4xi32>
      "equeue.write"(%305, %303) {bank = 0 : i64, size = dense<4> : tensor<1xi64>} : (tensor<4xi32>, memref<4xi32>) -> ()
      %306 = "equeue.unkOp"(%303, %301, %302) {op_name = "mac4"} : (memref<4xi32>, memref<16xi32>, memref<8xi32>) -> memref<4xi32>
      %307 = "equeue.unkOp"(%303, %301, %302) {op_name = "mac4"} : (memref<4xi32>, memref<16xi32>, memref<8xi32>) -> memref<4xi32>
      %308 = "equeue.read"(%arg4, %298) {bank = 0 : i64, size = dense<4> : tensor<1xi64>} : (memref<512xf32>, i32) -> tensor<512xf32>
      "equeue.write"(%308, %301) {bank = 0 : i64, size = dense<4> : tensor<1xi64>} : (tensor<512xf32>, memref<16xi32>) -> ()
      %309 = "equeue.unkOp"(%303, %301, %302) {op_name = "mac4"} : (memref<4xi32>, memref<16xi32>, memref<8xi32>) -> memref<4xi32>
      %310 = "equeue.unkOp"(%303, %301, %302) {op_name = "mac4"} : (memref<4xi32>, memref<16xi32>, memref<8xi32>) -> memref<4xi32>
      %311 = "equeue.read"(%303) {bank = 0 : i64, size = dense<4> : tensor<1xi64>} : (memref<4xi32>) -> tensor<4xi32>
      "equeue.write"(%311, %arg5, %300) {bank = 0 : i64, size = dense<4> : tensor<1xi64>} : (tensor<4xi32>, memref<481xf32>, i32) -> ()
      %312 = "equeue.read"(%304, %299) {bank = 0 : i64, size = dense<4> : tensor<1xi64>} : (memref<4xi32>, i32) -> tensor<4xi32>
      "equeue.write"(%312, %303) {bank = 0 : i64, size = dense<4> : tensor<1xi64>} : (tensor<4xi32>, memref<4xi32>) -> ()
      %313 = "equeue.unkOp"(%303, %301, %302) {op_name = "mac4"} : (memref<4xi32>, memref<16xi32>, memref<8xi32>) -> memref<4xi32>
      %314 = "equeue.unkOp"(%303, %301, %302) {op_name = "mac4"} : (memref<4xi32>, memref<16xi32>, memref<8xi32>) -> memref<4xi32>
      %315 = "equeue.read"(%arg4, %298) {bank = 0 : i64, size = dense<4> : tensor<1xi64>} : (memref<512xf32>, i32) -> tensor<512xf32>
      "equeue.write"(%315, %301) {bank = 0 : i64, size = dense<4> : tensor<1xi64>} : (tensor<512xf32>, memref<16xi32>) -> ()
      %316 = "equeue.unkOp"(%303, %301, %302) {op_name = "mac4"} : (memref<4xi32>, memref<16xi32>, memref<8xi32>) -> memref<4xi32>
      %317 = "equeue.unkOp"(%303, %301, %302) {op_name = "mac4"} : (memref<4xi32>, memref<16xi32>, memref<8xi32>) -> memref<4xi32>
      %318 = "equeue.read"(%303) {bank = 0 : i64, size = dense<4> : tensor<1xi64>} : (memref<4xi32>) -> tensor<4xi32>
      "equeue.write"(%318, %arg5, %300) {bank = 0 : i64, size = dense<4> : tensor<1xi64>} : (tensor<4xi32>, memref<481xf32>, i32) -> ()
      %319 = "equeue.read"(%304, %299) {bank = 0 : i64, size = dense<4> : tensor<1xi64>} : (memref<4xi32>, i32) -> tensor<4xi32>
      "equeue.write"(%319, %303) {bank = 0 : i64, size = dense<4> : tensor<1xi64>} : (tensor<4xi32>, memref<4xi32>) -> ()
      %320 = "equeue.unkOp"(%303, %301, %302) {op_name = "mac4"} : (memref<4xi32>, memref<16xi32>, memref<8xi32>) -> memref<4xi32>
      %321 = "equeue.unkOp"(%303, %301, %302) {op_name = "mac4"} : (memref<4xi32>, memref<16xi32>, memref<8xi32>) -> memref<4xi32>
      %322 = "equeue.read"(%arg4, %298) {bank = 0 : i64, size = dense<4> : tensor<1xi64>} : (memref<512xf32>, i32) -> tensor<512xf32>
      "equeue.write"(%322, %301) {bank = 0 : i64, size = dense<4> : tensor<1xi64>} : (tensor<512xf32>, memref<16xi32>) -> ()
      %323 = "equeue.unkOp"(%303, %301, %302) {op_name = "mac4"} : (memref<4xi32>, memref<16xi32>, memref<8xi32>) -> memref<4xi32>
      %324 = "equeue.unkOp"(%303, %301, %302) {op_name = "mac4"} : (memref<4xi32>, memref<16xi32>, memref<8xi32>) -> memref<4xi32>
      %325 = "equeue.read"(%303) {bank = 0 : i64, size = dense<4> : tensor<1xi64>} : (memref<4xi32>) -> tensor<4xi32>
      "equeue.write"(%325, %arg5, %300) {bank = 0 : i64, size = dense<4> : tensor<1xi64>} : (tensor<4xi32>, memref<481xf32>, i32) -> ()
      %326 = "equeue.read"(%304, %299) {bank = 0 : i64, size = dense<4> : tensor<1xi64>} : (memref<4xi32>, i32) -> tensor<4xi32>
      "equeue.write"(%326, %303) {bank = 0 : i64, size = dense<4> : tensor<1xi64>} : (tensor<4xi32>, memref<4xi32>) -> ()
      %327 = "equeue.unkOp"(%303, %301, %302) {op_name = "mac4"} : (memref<4xi32>, memref<16xi32>, memref<8xi32>) -> memref<4xi32>
      %328 = "equeue.unkOp"(%303, %301, %302) {op_name = "mac4"} : (memref<4xi32>, memref<16xi32>, memref<8xi32>) -> memref<4xi32>
      %329 = "equeue.read"(%arg4, %298) {bank = 0 : i64, size = dense<4> : tensor<1xi64>} : (memref<512xf32>, i32) -> tensor<512xf32>
      "equeue.write"(%329, %301) {bank = 0 : i64, size = dense<4> : tensor<1xi64>} : (tensor<512xf32>, memref<16xi32>) -> ()
      %330 = "equeue.unkOp"(%303, %301, %302) {op_name = "mac4"} : (memref<4xi32>, memref<16xi32>, memref<8xi32>) -> memref<4xi32>
      %331 = "equeue.unkOp"(%303, %301, %302) {op_name = "mac4"} : (memref<4xi32>, memref<16xi32>, memref<8xi32>) -> memref<4xi32>
      %332 = "equeue.read"(%303) {bank = 0 : i64, size = dense<4> : tensor<1xi64>} : (memref<4xi32>) -> tensor<4xi32>
      "equeue.write"(%332, %arg5, %300) {bank = 0 : i64, size = dense<4> : tensor<1xi64>} : (tensor<4xi32>, memref<481xf32>, i32) -> ()
      "equeue.return"() : () -> ()
    }) : (!equeue.signal, i32, i32, i32, i32, memref<512xf32>, memref<481xf32>) -> !equeue.signal
    %50 = "equeue.control_start"() : () -> !equeue.signal
    %51 = "equeue.get_comp_field"(%21) {name = "proc"} : (i32) -> i32
    %52 = "equeue.get_comp_field"(%21) {name = "ofmap"} : (i32) -> memref<4xi32>
    %done_7 = "equeue.launch"(%50, %51, %5, %21, %1, %52) ( {
    ^bb0(%arg1: i32, %arg2: i32, %arg3: memref<512xf32>, %arg4: memref<4xi32>):  // no predecessors
      %298 = "equeue.get_comp_field"(%arg1) {name = "stream0"} : (i32) -> i32
      %299 = "equeue.get_comp_field"(%arg1) {name = "stream4"} : (i32) -> i32
      %300 = "equeue.get_comp_field"(%arg2) {name = "ifmap"} : (i32) -> memref<16xi32>
      %301 = "equeue.get_comp_field"(%arg2) {name = "filter"} : (i32) -> memref<8xi32>
      %302 = "equeue.get_comp_field"(%arg2) {name = "ofmap"} : (i32) -> memref<4xi32>
      %303 = "equeue.unkOp"(%302, %300, %301) {op_name = "mul4"} : (memref<4xi32>, memref<16xi32>, memref<8xi32>) -> memref<4xi32>
      %304 = "equeue.unkOp"(%302, %300, %301) {op_name = "mac4"} : (memref<4xi32>, memref<16xi32>, memref<8xi32>) -> memref<4xi32>
      %305 = "equeue.read"(%arg3, %298) {bank = 0 : i64, size = dense<4> : tensor<1xi64>} : (memref<512xf32>, i32) -> tensor<512xf32>
      "equeue.write"(%305, %300) {bank = 0 : i64, size = dense<4> : tensor<1xi64>} : (tensor<512xf32>, memref<16xi32>) -> ()
      %306 = "equeue.unkOp"(%302, %300, %301) {op_name = "mac4"} : (memref<4xi32>, memref<16xi32>, memref<8xi32>) -> memref<4xi32>
      %307 = "equeue.unkOp"(%302, %300, %301) {op_name = "mac4"} : (memref<4xi32>, memref<16xi32>, memref<8xi32>) -> memref<4xi32>
      %308 = "equeue.read"(%302) {bank = 0 : i64, size = dense<4> : tensor<1xi64>} : (memref<4xi32>) -> tensor<4xi32>
      "equeue.write"(%308, %arg4, %299) {bank = 0 : i64, size = dense<4> : tensor<1xi64>} : (tensor<4xi32>, memref<4xi32>, i32) -> ()
      %309 = "equeue.unkOp"(%302, %300, %301) {op_name = "mul4"} : (memref<4xi32>, memref<16xi32>, memref<8xi32>) -> memref<4xi32>
      %310 = "equeue.unkOp"(%302, %300, %301) {op_name = "mac4"} : (memref<4xi32>, memref<16xi32>, memref<8xi32>) -> memref<4xi32>
      %311 = "equeue.read"(%arg3, %298) {bank = 0 : i64, size = dense<4> : tensor<1xi64>} : (memref<512xf32>, i32) -> tensor<512xf32>
      "equeue.write"(%311, %300) {bank = 0 : i64, size = dense<4> : tensor<1xi64>} : (tensor<512xf32>, memref<16xi32>) -> ()
      %312 = "equeue.unkOp"(%302, %300, %301) {op_name = "mac4"} : (memref<4xi32>, memref<16xi32>, memref<8xi32>) -> memref<4xi32>
      %313 = "equeue.unkOp"(%302, %300, %301) {op_name = "mac4"} : (memref<4xi32>, memref<16xi32>, memref<8xi32>) -> memref<4xi32>
      %314 = "equeue.read"(%302) {bank = 0 : i64, size = dense<4> : tensor<1xi64>} : (memref<4xi32>) -> tensor<4xi32>
      "equeue.write"(%314, %arg4, %299) {bank = 0 : i64, size = dense<4> : tensor<1xi64>} : (tensor<4xi32>, memref<4xi32>, i32) -> ()
      %315 = "equeue.unkOp"(%302, %300, %301) {op_name = "mul4"} : (memref<4xi32>, memref<16xi32>, memref<8xi32>) -> memref<4xi32>
      %316 = "equeue.unkOp"(%302, %300, %301) {op_name = "mac4"} : (memref<4xi32>, memref<16xi32>, memref<8xi32>) -> memref<4xi32>
      %317 = "equeue.read"(%arg3, %298) {bank = 0 : i64, size = dense<4> : tensor<1xi64>} : (memref<512xf32>, i32) -> tensor<512xf32>
      "equeue.write"(%317, %300) {bank = 0 : i64, size = dense<4> : tensor<1xi64>} : (tensor<512xf32>, memref<16xi32>) -> ()
      %318 = "equeue.unkOp"(%302, %300, %301) {op_name = "mac4"} : (memref<4xi32>, memref<16xi32>, memref<8xi32>) -> memref<4xi32>
      %319 = "equeue.unkOp"(%302, %300, %301) {op_name = "mac4"} : (memref<4xi32>, memref<16xi32>, memref<8xi32>) -> memref<4xi32>
      %320 = "equeue.read"(%302) {bank = 0 : i64, size = dense<4> : tensor<1xi64>} : (memref<4xi32>) -> tensor<4xi32>
      "equeue.write"(%320, %arg4, %299) {bank = 0 : i64, size = dense<4> : tensor<1xi64>} : (tensor<4xi32>, memref<4xi32>, i32) -> ()
      %321 = "equeue.unkOp"(%302, %300, %301) {op_name = "mul4"} : (memref<4xi32>, memref<16xi32>, memref<8xi32>) -> memref<4xi32>
      %322 = "equeue.unkOp"(%302, %300, %301) {op_name = "mac4"} : (memref<4xi32>, memref<16xi32>, memref<8xi32>) -> memref<4xi32>
      %323 = "equeue.read"(%arg3, %298) {bank = 0 : i64, size = dense<4> : tensor<1xi64>} : (memref<512xf32>, i32) -> tensor<512xf32>
      "equeue.write"(%323, %300) {bank = 0 : i64, size = dense<4> : tensor<1xi64>} : (tensor<512xf32>, memref<16xi32>) -> ()
      %324 = "equeue.unkOp"(%302, %300, %301) {op_name = "mac4"} : (memref<4xi32>, memref<16xi32>, memref<8xi32>) -> memref<4xi32>
      %325 = "equeue.unkOp"(%302, %300, %301) {op_name = "mac4"} : (memref<4xi32>, memref<16xi32>, memref<8xi32>) -> memref<4xi32>
      %326 = "equeue.read"(%302) {bank = 0 : i64, size = dense<4> : tensor<1xi64>} : (memref<4xi32>) -> tensor<4xi32>
      "equeue.write"(%326, %arg4, %299) {bank = 0 : i64, size = dense<4> : tensor<1xi64>} : (tensor<4xi32>, memref<4xi32>, i32) -> ()
      "equeue.return"() : () -> ()
    }) : (!equeue.signal, i32, i32, i32, memref<512xf32>, memref<4xi32>) -> !equeue.signal
    %53 = "equeue.get_comp_field"(%26) {name = "proc"} : (i32) -> i32
    %54 = "equeue.get_comp_field"(%26) {name = "ofmap"} : (i32) -> memref<4xi32>
    %done_8 = "equeue.launch"(%50, %53, %5, %26, %21, %1, %54) ( {
    ^bb0(%arg1: i32, %arg2: i32, %arg3: i32, %arg4: memref<512xf32>, %arg5: memref<4xi32>):  // no predecessors
      %298 = "equeue.get_comp_field"(%arg1) {name = "stream1"} : (i32) -> i32
      %299 = "equeue.get_comp_field"(%arg1) {name = "stream4"} : (i32) -> i32
      %300 = "equeue.get_comp_field"(%arg1) {name = "stream5"} : (i32) -> i32
      %301 = "equeue.get_comp_field"(%arg2) {name = "ifmap"} : (i32) -> memref<16xi32>
      %302 = "equeue.get_comp_field"(%arg2) {name = "filter"} : (i32) -> memref<8xi32>
      %303 = "equeue.get_comp_field"(%arg2) {name = "ofmap"} : (i32) -> memref<4xi32>
      %304 = "equeue.get_comp_field"(%arg3) {name = "ofmap"} : (i32) -> memref<4xi32>
      %305 = "equeue.read"(%304, %299) {bank = 0 : i64, size = dense<4> : tensor<1xi64>} : (memref<4xi32>, i32) -> tensor<4xi32>
      "equeue.write"(%305, %303) {bank = 0 : i64, size = dense<4> : tensor<1xi64>} : (tensor<4xi32>, memref<4xi32>) -> ()
      %306 = "equeue.unkOp"(%303, %301, %302) {op_name = "mac4"} : (memref<4xi32>, memref<16xi32>, memref<8xi32>) -> memref<4xi32>
      %307 = "equeue.unkOp"(%303, %301, %302) {op_name = "mac4"} : (memref<4xi32>, memref<16xi32>, memref<8xi32>) -> memref<4xi32>
      %308 = "equeue.read"(%arg4, %298) {bank = 0 : i64, size = dense<4> : tensor<1xi64>} : (memref<512xf32>, i32) -> tensor<512xf32>
      "equeue.write"(%308, %301) {bank = 0 : i64, size = dense<4> : tensor<1xi64>} : (tensor<512xf32>, memref<16xi32>) -> ()
      %309 = "equeue.unkOp"(%303, %301, %302) {op_name = "mac4"} : (memref<4xi32>, memref<16xi32>, memref<8xi32>) -> memref<4xi32>
      %310 = "equeue.unkOp"(%303, %301, %302) {op_name = "mac4"} : (memref<4xi32>, memref<16xi32>, memref<8xi32>) -> memref<4xi32>
      %311 = "equeue.read"(%303) {bank = 0 : i64, size = dense<4> : tensor<1xi64>} : (memref<4xi32>) -> tensor<4xi32>
      "equeue.write"(%311, %arg5, %300) {bank = 0 : i64, size = dense<4> : tensor<1xi64>} : (tensor<4xi32>, memref<4xi32>, i32) -> ()
      %312 = "equeue.read"(%304, %299) {bank = 0 : i64, size = dense<4> : tensor<1xi64>} : (memref<4xi32>, i32) -> tensor<4xi32>
      "equeue.write"(%312, %303) {bank = 0 : i64, size = dense<4> : tensor<1xi64>} : (tensor<4xi32>, memref<4xi32>) -> ()
      %313 = "equeue.unkOp"(%303, %301, %302) {op_name = "mac4"} : (memref<4xi32>, memref<16xi32>, memref<8xi32>) -> memref<4xi32>
      %314 = "equeue.unkOp"(%303, %301, %302) {op_name = "mac4"} : (memref<4xi32>, memref<16xi32>, memref<8xi32>) -> memref<4xi32>
      %315 = "equeue.read"(%arg4, %298) {bank = 0 : i64, size = dense<4> : tensor<1xi64>} : (memref<512xf32>, i32) -> tensor<512xf32>
      "equeue.write"(%315, %301) {bank = 0 : i64, size = dense<4> : tensor<1xi64>} : (tensor<512xf32>, memref<16xi32>) -> ()
      %316 = "equeue.unkOp"(%303, %301, %302) {op_name = "mac4"} : (memref<4xi32>, memref<16xi32>, memref<8xi32>) -> memref<4xi32>
      %317 = "equeue.unkOp"(%303, %301, %302) {op_name = "mac4"} : (memref<4xi32>, memref<16xi32>, memref<8xi32>) -> memref<4xi32>
      %318 = "equeue.read"(%303) {bank = 0 : i64, size = dense<4> : tensor<1xi64>} : (memref<4xi32>) -> tensor<4xi32>
      "equeue.write"(%318, %arg5, %300) {bank = 0 : i64, size = dense<4> : tensor<1xi64>} : (tensor<4xi32>, memref<4xi32>, i32) -> ()
      %319 = "equeue.read"(%304, %299) {bank = 0 : i64, size = dense<4> : tensor<1xi64>} : (memref<4xi32>, i32) -> tensor<4xi32>
      "equeue.write"(%319, %303) {bank = 0 : i64, size = dense<4> : tensor<1xi64>} : (tensor<4xi32>, memref<4xi32>) -> ()
      %320 = "equeue.unkOp"(%303, %301, %302) {op_name = "mac4"} : (memref<4xi32>, memref<16xi32>, memref<8xi32>) -> memref<4xi32>
      %321 = "equeue.unkOp"(%303, %301, %302) {op_name = "mac4"} : (memref<4xi32>, memref<16xi32>, memref<8xi32>) -> memref<4xi32>
      %322 = "equeue.read"(%arg4, %298) {bank = 0 : i64, size = dense<4> : tensor<1xi64>} : (memref<512xf32>, i32) -> tensor<512xf32>
      "equeue.write"(%322, %301) {bank = 0 : i64, size = dense<4> : tensor<1xi64>} : (tensor<512xf32>, memref<16xi32>) -> ()
      %323 = "equeue.unkOp"(%303, %301, %302) {op_name = "mac4"} : (memref<4xi32>, memref<16xi32>, memref<8xi32>) -> memref<4xi32>
      %324 = "equeue.unkOp"(%303, %301, %302) {op_name = "mac4"} : (memref<4xi32>, memref<16xi32>, memref<8xi32>) -> memref<4xi32>
      %325 = "equeue.read"(%303) {bank = 0 : i64, size = dense<4> : tensor<1xi64>} : (memref<4xi32>) -> tensor<4xi32>
      "equeue.write"(%325, %arg5, %300) {bank = 0 : i64, size = dense<4> : tensor<1xi64>} : (tensor<4xi32>, memref<4xi32>, i32) -> ()
      %326 = "equeue.read"(%304, %299) {bank = 0 : i64, size = dense<4> : tensor<1xi64>} : (memref<4xi32>, i32) -> tensor<4xi32>
      "equeue.write"(%326, %303) {bank = 0 : i64, size = dense<4> : tensor<1xi64>} : (tensor<4xi32>, memref<4xi32>) -> ()
      %327 = "equeue.unkOp"(%303, %301, %302) {op_name = "mac4"} : (memref<4xi32>, memref<16xi32>, memref<8xi32>) -> memref<4xi32>
      %328 = "equeue.unkOp"(%303, %301, %302) {op_name = "mac4"} : (memref<4xi32>, memref<16xi32>, memref<8xi32>) -> memref<4xi32>
      %329 = "equeue.read"(%arg4, %298) {bank = 0 : i64, size = dense<4> : tensor<1xi64>} : (memref<512xf32>, i32) -> tensor<512xf32>
      "equeue.write"(%329, %301) {bank = 0 : i64, size = dense<4> : tensor<1xi64>} : (tensor<512xf32>, memref<16xi32>) -> ()
      %330 = "equeue.unkOp"(%303, %301, %302) {op_name = "mac4"} : (memref<4xi32>, memref<16xi32>, memref<8xi32>) -> memref<4xi32>
      %331 = "equeue.unkOp"(%303, %301, %302) {op_name = "mac4"} : (memref<4xi32>, memref<16xi32>, memref<8xi32>) -> memref<4xi32>
      %332 = "equeue.read"(%303) {bank = 0 : i64, size = dense<4> : tensor<1xi64>} : (memref<4xi32>) -> tensor<4xi32>
      "equeue.write"(%332, %arg5, %300) {bank = 0 : i64, size = dense<4> : tensor<1xi64>} : (tensor<4xi32>, memref<4xi32>, i32) -> ()
      "equeue.return"() : () -> ()
    }) : (!equeue.signal, i32, i32, i32, i32, memref<512xf32>, memref<4xi32>) -> !equeue.signal
    %55 = "equeue.get_comp_field"(%31) {name = "proc"} : (i32) -> i32
    %56 = "equeue.get_comp_field"(%31) {name = "ofmap"} : (i32) -> memref<4xi32>
    %done_9 = "equeue.launch"(%50, %55, %5, %31, %26, %1, %56) ( {
    ^bb0(%arg1: i32, %arg2: i32, %arg3: i32, %arg4: memref<512xf32>, %arg5: memref<4xi32>):  // no predecessors
      %298 = "equeue.get_comp_field"(%arg1) {name = "stream2"} : (i32) -> i32
      %299 = "equeue.get_comp_field"(%arg1) {name = "stream5"} : (i32) -> i32
      %300 = "equeue.get_comp_field"(%arg1) {name = "stream6"} : (i32) -> i32
      %301 = "equeue.get_comp_field"(%arg2) {name = "ifmap"} : (i32) -> memref<16xi32>
      %302 = "equeue.get_comp_field"(%arg2) {name = "filter"} : (i32) -> memref<8xi32>
      %303 = "equeue.get_comp_field"(%arg2) {name = "ofmap"} : (i32) -> memref<4xi32>
      %304 = "equeue.get_comp_field"(%arg3) {name = "ofmap"} : (i32) -> memref<4xi32>
      %305 = "equeue.read"(%304, %299) {bank = 0 : i64, size = dense<4> : tensor<1xi64>} : (memref<4xi32>, i32) -> tensor<4xi32>
      "equeue.write"(%305, %303) {bank = 0 : i64, size = dense<4> : tensor<1xi64>} : (tensor<4xi32>, memref<4xi32>) -> ()
      %306 = "equeue.unkOp"(%303, %301, %302) {op_name = "mac4"} : (memref<4xi32>, memref<16xi32>, memref<8xi32>) -> memref<4xi32>
      %307 = "equeue.unkOp"(%303, %301, %302) {op_name = "mac4"} : (memref<4xi32>, memref<16xi32>, memref<8xi32>) -> memref<4xi32>
      %308 = "equeue.read"(%arg4, %298) {bank = 0 : i64, size = dense<4> : tensor<1xi64>} : (memref<512xf32>, i32) -> tensor<512xf32>
      "equeue.write"(%308, %301) {bank = 0 : i64, size = dense<4> : tensor<1xi64>} : (tensor<512xf32>, memref<16xi32>) -> ()
      %309 = "equeue.unkOp"(%303, %301, %302) {op_name = "mac4"} : (memref<4xi32>, memref<16xi32>, memref<8xi32>) -> memref<4xi32>
      %310 = "equeue.unkOp"(%303, %301, %302) {op_name = "mac4"} : (memref<4xi32>, memref<16xi32>, memref<8xi32>) -> memref<4xi32>
      %311 = "equeue.read"(%303) {bank = 0 : i64, size = dense<4> : tensor<1xi64>} : (memref<4xi32>) -> tensor<4xi32>
      "equeue.write"(%311, %arg5, %300) {bank = 0 : i64, size = dense<4> : tensor<1xi64>} : (tensor<4xi32>, memref<4xi32>, i32) -> ()
      %312 = "equeue.read"(%304, %299) {bank = 0 : i64, size = dense<4> : tensor<1xi64>} : (memref<4xi32>, i32) -> tensor<4xi32>
      "equeue.write"(%312, %303) {bank = 0 : i64, size = dense<4> : tensor<1xi64>} : (tensor<4xi32>, memref<4xi32>) -> ()
      %313 = "equeue.unkOp"(%303, %301, %302) {op_name = "mac4"} : (memref<4xi32>, memref<16xi32>, memref<8xi32>) -> memref<4xi32>
      %314 = "equeue.unkOp"(%303, %301, %302) {op_name = "mac4"} : (memref<4xi32>, memref<16xi32>, memref<8xi32>) -> memref<4xi32>
      %315 = "equeue.read"(%arg4, %298) {bank = 0 : i64, size = dense<4> : tensor<1xi64>} : (memref<512xf32>, i32) -> tensor<512xf32>
      "equeue.write"(%315, %301) {bank = 0 : i64, size = dense<4> : tensor<1xi64>} : (tensor<512xf32>, memref<16xi32>) -> ()
      %316 = "equeue.unkOp"(%303, %301, %302) {op_name = "mac4"} : (memref<4xi32>, memref<16xi32>, memref<8xi32>) -> memref<4xi32>
      %317 = "equeue.unkOp"(%303, %301, %302) {op_name = "mac4"} : (memref<4xi32>, memref<16xi32>, memref<8xi32>) -> memref<4xi32>
      %318 = "equeue.read"(%303) {bank = 0 : i64, size = dense<4> : tensor<1xi64>} : (memref<4xi32>) -> tensor<4xi32>
      "equeue.write"(%318, %arg5, %300) {bank = 0 : i64, size = dense<4> : tensor<1xi64>} : (tensor<4xi32>, memref<4xi32>, i32) -> ()
      %319 = "equeue.read"(%304, %299) {bank = 0 : i64, size = dense<4> : tensor<1xi64>} : (memref<4xi32>, i32) -> tensor<4xi32>
      "equeue.write"(%319, %303) {bank = 0 : i64, size = dense<4> : tensor<1xi64>} : (tensor<4xi32>, memref<4xi32>) -> ()
      %320 = "equeue.unkOp"(%303, %301, %302) {op_name = "mac4"} : (memref<4xi32>, memref<16xi32>, memref<8xi32>) -> memref<4xi32>
      %321 = "equeue.unkOp"(%303, %301, %302) {op_name = "mac4"} : (memref<4xi32>, memref<16xi32>, memref<8xi32>) -> memref<4xi32>
      %322 = "equeue.read"(%arg4, %298) {bank = 0 : i64, size = dense<4> : tensor<1xi64>} : (memref<512xf32>, i32) -> tensor<512xf32>
      "equeue.write"(%322, %301) {bank = 0 : i64, size = dense<4> : tensor<1xi64>} : (tensor<512xf32>, memref<16xi32>) -> ()
      %323 = "equeue.unkOp"(%303, %301, %302) {op_name = "mac4"} : (memref<4xi32>, memref<16xi32>, memref<8xi32>) -> memref<4xi32>
      %324 = "equeue.unkOp"(%303, %301, %302) {op_name = "mac4"} : (memref<4xi32>, memref<16xi32>, memref<8xi32>) -> memref<4xi32>
      %325 = "equeue.read"(%303) {bank = 0 : i64, size = dense<4> : tensor<1xi64>} : (memref<4xi32>) -> tensor<4xi32>
      "equeue.write"(%325, %arg5, %300) {bank = 0 : i64, size = dense<4> : tensor<1xi64>} : (tensor<4xi32>, memref<4xi32>, i32) -> ()
      %326 = "equeue.read"(%304, %299) {bank = 0 : i64, size = dense<4> : tensor<1xi64>} : (memref<4xi32>, i32) -> tensor<4xi32>
      "equeue.write"(%326, %303) {bank = 0 : i64, size = dense<4> : tensor<1xi64>} : (tensor<4xi32>, memref<4xi32>) -> ()
      %327 = "equeue.unkOp"(%303, %301, %302) {op_name = "mac4"} : (memref<4xi32>, memref<16xi32>, memref<8xi32>) -> memref<4xi32>
      %328 = "equeue.unkOp"(%303, %301, %302) {op_name = "mac4"} : (memref<4xi32>, memref<16xi32>, memref<8xi32>) -> memref<4xi32>
      %329 = "equeue.read"(%arg4, %298) {bank = 0 : i64, size = dense<4> : tensor<1xi64>} : (memref<512xf32>, i32) -> tensor<512xf32>
      "equeue.write"(%329, %301) {bank = 0 : i64, size = dense<4> : tensor<1xi64>} : (tensor<512xf32>, memref<16xi32>) -> ()
      %330 = "equeue.unkOp"(%303, %301, %302) {op_name = "mac4"} : (memref<4xi32>, memref<16xi32>, memref<8xi32>) -> memref<4xi32>
      %331 = "equeue.unkOp"(%303, %301, %302) {op_name = "mac4"} : (memref<4xi32>, memref<16xi32>, memref<8xi32>) -> memref<4xi32>
      %332 = "equeue.read"(%303) {bank = 0 : i64, size = dense<4> : tensor<1xi64>} : (memref<4xi32>) -> tensor<4xi32>
      "equeue.write"(%332, %arg5, %300) {bank = 0 : i64, size = dense<4> : tensor<1xi64>} : (tensor<4xi32>, memref<4xi32>, i32) -> ()
      "equeue.return"() : () -> ()
    }) : (!equeue.signal, i32, i32, i32, i32, memref<512xf32>, memref<4xi32>) -> !equeue.signal
    %57 = "equeue.get_comp_field"(%36) {name = "proc"} : (i32) -> i32
    %done_10 = "equeue.launch"(%50, %57, %5, %36, %31, %1, %3) ( {
    ^bb0(%arg1: i32, %arg2: i32, %arg3: i32, %arg4: memref<512xf32>, %arg5: memref<481xf32>):  // no predecessors
      %298 = "equeue.get_comp_field"(%arg1) {name = "stream3"} : (i32) -> i32
      %299 = "equeue.get_comp_field"(%arg1) {name = "stream6"} : (i32) -> i32
      %300 = "equeue.get_comp_field"(%arg1) {name = "stream7"} : (i32) -> i32
      %301 = "equeue.get_comp_field"(%arg2) {name = "ifmap"} : (i32) -> memref<16xi32>
      %302 = "equeue.get_comp_field"(%arg2) {name = "filter"} : (i32) -> memref<8xi32>
      %303 = "equeue.get_comp_field"(%arg2) {name = "ofmap"} : (i32) -> memref<4xi32>
      %304 = "equeue.get_comp_field"(%arg3) {name = "ofmap"} : (i32) -> memref<4xi32>
      %305 = "equeue.read"(%304, %299) {bank = 0 : i64, size = dense<4> : tensor<1xi64>} : (memref<4xi32>, i32) -> tensor<4xi32>
      "equeue.write"(%305, %303) {bank = 0 : i64, size = dense<4> : tensor<1xi64>} : (tensor<4xi32>, memref<4xi32>) -> ()
      %306 = "equeue.unkOp"(%303, %301, %302) {op_name = "mac4"} : (memref<4xi32>, memref<16xi32>, memref<8xi32>) -> memref<4xi32>
      %307 = "equeue.unkOp"(%303, %301, %302) {op_name = "mac4"} : (memref<4xi32>, memref<16xi32>, memref<8xi32>) -> memref<4xi32>
      %308 = "equeue.read"(%arg4, %298) {bank = 0 : i64, size = dense<4> : tensor<1xi64>} : (memref<512xf32>, i32) -> tensor<512xf32>
      "equeue.write"(%308, %301) {bank = 0 : i64, size = dense<4> : tensor<1xi64>} : (tensor<512xf32>, memref<16xi32>) -> ()
      %309 = "equeue.unkOp"(%303, %301, %302) {op_name = "mac4"} : (memref<4xi32>, memref<16xi32>, memref<8xi32>) -> memref<4xi32>
      %310 = "equeue.unkOp"(%303, %301, %302) {op_name = "mac4"} : (memref<4xi32>, memref<16xi32>, memref<8xi32>) -> memref<4xi32>
      %311 = "equeue.read"(%303) {bank = 0 : i64, size = dense<4> : tensor<1xi64>} : (memref<4xi32>) -> tensor<4xi32>
      "equeue.write"(%311, %arg5, %300) {bank = 0 : i64, size = dense<4> : tensor<1xi64>} : (tensor<4xi32>, memref<481xf32>, i32) -> ()
      %312 = "equeue.read"(%304, %299) {bank = 0 : i64, size = dense<4> : tensor<1xi64>} : (memref<4xi32>, i32) -> tensor<4xi32>
      "equeue.write"(%312, %303) {bank = 0 : i64, size = dense<4> : tensor<1xi64>} : (tensor<4xi32>, memref<4xi32>) -> ()
      %313 = "equeue.unkOp"(%303, %301, %302) {op_name = "mac4"} : (memref<4xi32>, memref<16xi32>, memref<8xi32>) -> memref<4xi32>
      %314 = "equeue.unkOp"(%303, %301, %302) {op_name = "mac4"} : (memref<4xi32>, memref<16xi32>, memref<8xi32>) -> memref<4xi32>
      %315 = "equeue.read"(%arg4, %298) {bank = 0 : i64, size = dense<4> : tensor<1xi64>} : (memref<512xf32>, i32) -> tensor<512xf32>
      "equeue.write"(%315, %301) {bank = 0 : i64, size = dense<4> : tensor<1xi64>} : (tensor<512xf32>, memref<16xi32>) -> ()
      %316 = "equeue.unkOp"(%303, %301, %302) {op_name = "mac4"} : (memref<4xi32>, memref<16xi32>, memref<8xi32>) -> memref<4xi32>
      %317 = "equeue.unkOp"(%303, %301, %302) {op_name = "mac4"} : (memref<4xi32>, memref<16xi32>, memref<8xi32>) -> memref<4xi32>
      %318 = "equeue.read"(%303) {bank = 0 : i64, size = dense<4> : tensor<1xi64>} : (memref<4xi32>) -> tensor<4xi32>
      "equeue.write"(%318, %arg5, %300) {bank = 0 : i64, size = dense<4> : tensor<1xi64>} : (tensor<4xi32>, memref<481xf32>, i32) -> ()
      %319 = "equeue.read"(%304, %299) {bank = 0 : i64, size = dense<4> : tensor<1xi64>} : (memref<4xi32>, i32) -> tensor<4xi32>
      "equeue.write"(%319, %303) {bank = 0 : i64, size = dense<4> : tensor<1xi64>} : (tensor<4xi32>, memref<4xi32>) -> ()
      %320 = "equeue.unkOp"(%303, %301, %302) {op_name = "mac4"} : (memref<4xi32>, memref<16xi32>, memref<8xi32>) -> memref<4xi32>
      %321 = "equeue.unkOp"(%303, %301, %302) {op_name = "mac4"} : (memref<4xi32>, memref<16xi32>, memref<8xi32>) -> memref<4xi32>
      %322 = "equeue.read"(%arg4, %298) {bank = 0 : i64, size = dense<4> : tensor<1xi64>} : (memref<512xf32>, i32) -> tensor<512xf32>
      "equeue.write"(%322, %301) {bank = 0 : i64, size = dense<4> : tensor<1xi64>} : (tensor<512xf32>, memref<16xi32>) -> ()
      %323 = "equeue.unkOp"(%303, %301, %302) {op_name = "mac4"} : (memref<4xi32>, memref<16xi32>, memref<8xi32>) -> memref<4xi32>
      %324 = "equeue.unkOp"(%303, %301, %302) {op_name = "mac4"} : (memref<4xi32>, memref<16xi32>, memref<8xi32>) -> memref<4xi32>
      %325 = "equeue.read"(%303) {bank = 0 : i64, size = dense<4> : tensor<1xi64>} : (memref<4xi32>) -> tensor<4xi32>
      "equeue.write"(%325, %arg5, %300) {bank = 0 : i64, size = dense<4> : tensor<1xi64>} : (tensor<4xi32>, memref<481xf32>, i32) -> ()
      %326 = "equeue.read"(%304, %299) {bank = 0 : i64, size = dense<4> : tensor<1xi64>} : (memref<4xi32>, i32) -> tensor<4xi32>
      "equeue.write"(%326, %303) {bank = 0 : i64, size = dense<4> : tensor<1xi64>} : (tensor<4xi32>, memref<4xi32>) -> ()
      %327 = "equeue.unkOp"(%303, %301, %302) {op_name = "mac4"} : (memref<4xi32>, memref<16xi32>, memref<8xi32>) -> memref<4xi32>
      %328 = "equeue.unkOp"(%303, %301, %302) {op_name = "mac4"} : (memref<4xi32>, memref<16xi32>, memref<8xi32>) -> memref<4xi32>
      %329 = "equeue.read"(%arg4, %298) {bank = 0 : i64, size = dense<4> : tensor<1xi64>} : (memref<512xf32>, i32) -> tensor<512xf32>
      "equeue.write"(%329, %301) {bank = 0 : i64, size = dense<4> : tensor<1xi64>} : (tensor<512xf32>, memref<16xi32>) -> ()
      %330 = "equeue.unkOp"(%303, %301, %302) {op_name = "mac4"} : (memref<4xi32>, memref<16xi32>, memref<8xi32>) -> memref<4xi32>
      %331 = "equeue.unkOp"(%303, %301, %302) {op_name = "mac4"} : (memref<4xi32>, memref<16xi32>, memref<8xi32>) -> memref<4xi32>
      %332 = "equeue.read"(%303) {bank = 0 : i64, size = dense<4> : tensor<1xi64>} : (memref<4xi32>) -> tensor<4xi32>
      "equeue.write"(%332, %arg5, %300) {bank = 0 : i64, size = dense<4> : tensor<1xi64>} : (tensor<4xi32>, memref<481xf32>, i32) -> ()
      "equeue.return"() : () -> ()
    }) : (!equeue.signal, i32, i32, i32, i32, memref<512xf32>, memref<481xf32>) -> !equeue.signal
    %58 = "equeue.control_start"() : () -> !equeue.signal
    %59 = "equeue.get_comp_field"(%21) {name = "proc"} : (i32) -> i32
    %60 = "equeue.get_comp_field"(%21) {name = "ofmap"} : (i32) -> memref<4xi32>
    %done_11 = "equeue.launch"(%58, %59, %5, %21, %1, %60) ( {
    ^bb0(%arg1: i32, %arg2: i32, %arg3: memref<512xf32>, %arg4: memref<4xi32>):  // no predecessors
      %298 = "equeue.get_comp_field"(%arg1) {name = "stream0"} : (i32) -> i32
      %299 = "equeue.get_comp_field"(%arg1) {name = "stream4"} : (i32) -> i32
      %300 = "equeue.get_comp_field"(%arg2) {name = "ifmap"} : (i32) -> memref<16xi32>
      %301 = "equeue.get_comp_field"(%arg2) {name = "filter"} : (i32) -> memref<8xi32>
      %302 = "equeue.get_comp_field"(%arg2) {name = "ofmap"} : (i32) -> memref<4xi32>
      %303 = "equeue.unkOp"(%302, %300, %301) {op_name = "mul4"} : (memref<4xi32>, memref<16xi32>, memref<8xi32>) -> memref<4xi32>
      %304 = "equeue.unkOp"(%302, %300, %301) {op_name = "mac4"} : (memref<4xi32>, memref<16xi32>, memref<8xi32>) -> memref<4xi32>
      %305 = "equeue.read"(%arg3, %298) {bank = 0 : i64, size = dense<4> : tensor<1xi64>} : (memref<512xf32>, i32) -> tensor<512xf32>
      "equeue.write"(%305, %300) {bank = 0 : i64, size = dense<4> : tensor<1xi64>} : (tensor<512xf32>, memref<16xi32>) -> ()
      %306 = "equeue.unkOp"(%302, %300, %301) {op_name = "mac4"} : (memref<4xi32>, memref<16xi32>, memref<8xi32>) -> memref<4xi32>
      %307 = "equeue.unkOp"(%302, %300, %301) {op_name = "mac4"} : (memref<4xi32>, memref<16xi32>, memref<8xi32>) -> memref<4xi32>
      %308 = "equeue.read"(%302) {bank = 0 : i64, size = dense<4> : tensor<1xi64>} : (memref<4xi32>) -> tensor<4xi32>
      "equeue.write"(%308, %arg4, %299) {bank = 0 : i64, size = dense<4> : tensor<1xi64>} : (tensor<4xi32>, memref<4xi32>, i32) -> ()
      %309 = "equeue.unkOp"(%302, %300, %301) {op_name = "mul4"} : (memref<4xi32>, memref<16xi32>, memref<8xi32>) -> memref<4xi32>
      %310 = "equeue.unkOp"(%302, %300, %301) {op_name = "mac4"} : (memref<4xi32>, memref<16xi32>, memref<8xi32>) -> memref<4xi32>
      %311 = "equeue.read"(%arg3, %298) {bank = 0 : i64, size = dense<4> : tensor<1xi64>} : (memref<512xf32>, i32) -> tensor<512xf32>
      "equeue.write"(%311, %300) {bank = 0 : i64, size = dense<4> : tensor<1xi64>} : (tensor<512xf32>, memref<16xi32>) -> ()
      %312 = "equeue.unkOp"(%302, %300, %301) {op_name = "mac4"} : (memref<4xi32>, memref<16xi32>, memref<8xi32>) -> memref<4xi32>
      %313 = "equeue.unkOp"(%302, %300, %301) {op_name = "mac4"} : (memref<4xi32>, memref<16xi32>, memref<8xi32>) -> memref<4xi32>
      %314 = "equeue.read"(%302) {bank = 0 : i64, size = dense<4> : tensor<1xi64>} : (memref<4xi32>) -> tensor<4xi32>
      "equeue.write"(%314, %arg4, %299) {bank = 0 : i64, size = dense<4> : tensor<1xi64>} : (tensor<4xi32>, memref<4xi32>, i32) -> ()
      %315 = "equeue.unkOp"(%302, %300, %301) {op_name = "mul4"} : (memref<4xi32>, memref<16xi32>, memref<8xi32>) -> memref<4xi32>
      %316 = "equeue.unkOp"(%302, %300, %301) {op_name = "mac4"} : (memref<4xi32>, memref<16xi32>, memref<8xi32>) -> memref<4xi32>
      %317 = "equeue.read"(%arg3, %298) {bank = 0 : i64, size = dense<4> : tensor<1xi64>} : (memref<512xf32>, i32) -> tensor<512xf32>
      "equeue.write"(%317, %300) {bank = 0 : i64, size = dense<4> : tensor<1xi64>} : (tensor<512xf32>, memref<16xi32>) -> ()
      %318 = "equeue.unkOp"(%302, %300, %301) {op_name = "mac4"} : (memref<4xi32>, memref<16xi32>, memref<8xi32>) -> memref<4xi32>
      %319 = "equeue.unkOp"(%302, %300, %301) {op_name = "mac4"} : (memref<4xi32>, memref<16xi32>, memref<8xi32>) -> memref<4xi32>
      %320 = "equeue.read"(%302) {bank = 0 : i64, size = dense<4> : tensor<1xi64>} : (memref<4xi32>) -> tensor<4xi32>
      "equeue.write"(%320, %arg4, %299) {bank = 0 : i64, size = dense<4> : tensor<1xi64>} : (tensor<4xi32>, memref<4xi32>, i32) -> ()
      %321 = "equeue.unkOp"(%302, %300, %301) {op_name = "mul4"} : (memref<4xi32>, memref<16xi32>, memref<8xi32>) -> memref<4xi32>
      %322 = "equeue.unkOp"(%302, %300, %301) {op_name = "mac4"} : (memref<4xi32>, memref<16xi32>, memref<8xi32>) -> memref<4xi32>
      %323 = "equeue.read"(%arg3, %298) {bank = 0 : i64, size = dense<4> : tensor<1xi64>} : (memref<512xf32>, i32) -> tensor<512xf32>
      "equeue.write"(%323, %300) {bank = 0 : i64, size = dense<4> : tensor<1xi64>} : (tensor<512xf32>, memref<16xi32>) -> ()
      %324 = "equeue.unkOp"(%302, %300, %301) {op_name = "mac4"} : (memref<4xi32>, memref<16xi32>, memref<8xi32>) -> memref<4xi32>
      %325 = "equeue.unkOp"(%302, %300, %301) {op_name = "mac4"} : (memref<4xi32>, memref<16xi32>, memref<8xi32>) -> memref<4xi32>
      %326 = "equeue.read"(%302) {bank = 0 : i64, size = dense<4> : tensor<1xi64>} : (memref<4xi32>) -> tensor<4xi32>
      "equeue.write"(%326, %arg4, %299) {bank = 0 : i64, size = dense<4> : tensor<1xi64>} : (tensor<4xi32>, memref<4xi32>, i32) -> ()
      "equeue.return"() : () -> ()
    }) : (!equeue.signal, i32, i32, i32, memref<512xf32>, memref<4xi32>) -> !equeue.signal
    %61 = "equeue.get_comp_field"(%26) {name = "proc"} : (i32) -> i32
    %62 = "equeue.get_comp_field"(%26) {name = "ofmap"} : (i32) -> memref<4xi32>
    %done_12 = "equeue.launch"(%58, %61, %5, %26, %21, %1, %62) ( {
    ^bb0(%arg1: i32, %arg2: i32, %arg3: i32, %arg4: memref<512xf32>, %arg5: memref<4xi32>):  // no predecessors
      %298 = "equeue.get_comp_field"(%arg1) {name = "stream1"} : (i32) -> i32
      %299 = "equeue.get_comp_field"(%arg1) {name = "stream4"} : (i32) -> i32
      %300 = "equeue.get_comp_field"(%arg1) {name = "stream5"} : (i32) -> i32
      %301 = "equeue.get_comp_field"(%arg2) {name = "ifmap"} : (i32) -> memref<16xi32>
      %302 = "equeue.get_comp_field"(%arg2) {name = "filter"} : (i32) -> memref<8xi32>
      %303 = "equeue.get_comp_field"(%arg2) {name = "ofmap"} : (i32) -> memref<4xi32>
      %304 = "equeue.get_comp_field"(%arg3) {name = "ofmap"} : (i32) -> memref<4xi32>
      %305 = "equeue.read"(%304, %299) {bank = 0 : i64, size = dense<4> : tensor<1xi64>} : (memref<4xi32>, i32) -> tensor<4xi32>
      "equeue.write"(%305, %303) {bank = 0 : i64, size = dense<4> : tensor<1xi64>} : (tensor<4xi32>, memref<4xi32>) -> ()
      %306 = "equeue.unkOp"(%303, %301, %302) {op_name = "mac4"} : (memref<4xi32>, memref<16xi32>, memref<8xi32>) -> memref<4xi32>
      %307 = "equeue.unkOp"(%303, %301, %302) {op_name = "mac4"} : (memref<4xi32>, memref<16xi32>, memref<8xi32>) -> memref<4xi32>
      %308 = "equeue.read"(%arg4, %298) {bank = 0 : i64, size = dense<4> : tensor<1xi64>} : (memref<512xf32>, i32) -> tensor<512xf32>
      "equeue.write"(%308, %301) {bank = 0 : i64, size = dense<4> : tensor<1xi64>} : (tensor<512xf32>, memref<16xi32>) -> ()
      %309 = "equeue.unkOp"(%303, %301, %302) {op_name = "mac4"} : (memref<4xi32>, memref<16xi32>, memref<8xi32>) -> memref<4xi32>
      %310 = "equeue.unkOp"(%303, %301, %302) {op_name = "mac4"} : (memref<4xi32>, memref<16xi32>, memref<8xi32>) -> memref<4xi32>
      %311 = "equeue.read"(%303) {bank = 0 : i64, size = dense<4> : tensor<1xi64>} : (memref<4xi32>) -> tensor<4xi32>
      "equeue.write"(%311, %arg5, %300) {bank = 0 : i64, size = dense<4> : tensor<1xi64>} : (tensor<4xi32>, memref<4xi32>, i32) -> ()
      %312 = "equeue.read"(%304, %299) {bank = 0 : i64, size = dense<4> : tensor<1xi64>} : (memref<4xi32>, i32) -> tensor<4xi32>
      "equeue.write"(%312, %303) {bank = 0 : i64, size = dense<4> : tensor<1xi64>} : (tensor<4xi32>, memref<4xi32>) -> ()
      %313 = "equeue.unkOp"(%303, %301, %302) {op_name = "mac4"} : (memref<4xi32>, memref<16xi32>, memref<8xi32>) -> memref<4xi32>
      %314 = "equeue.unkOp"(%303, %301, %302) {op_name = "mac4"} : (memref<4xi32>, memref<16xi32>, memref<8xi32>) -> memref<4xi32>
      %315 = "equeue.read"(%arg4, %298) {bank = 0 : i64, size = dense<4> : tensor<1xi64>} : (memref<512xf32>, i32) -> tensor<512xf32>
      "equeue.write"(%315, %301) {bank = 0 : i64, size = dense<4> : tensor<1xi64>} : (tensor<512xf32>, memref<16xi32>) -> ()
      %316 = "equeue.unkOp"(%303, %301, %302) {op_name = "mac4"} : (memref<4xi32>, memref<16xi32>, memref<8xi32>) -> memref<4xi32>
      %317 = "equeue.unkOp"(%303, %301, %302) {op_name = "mac4"} : (memref<4xi32>, memref<16xi32>, memref<8xi32>) -> memref<4xi32>
      %318 = "equeue.read"(%303) {bank = 0 : i64, size = dense<4> : tensor<1xi64>} : (memref<4xi32>) -> tensor<4xi32>
      "equeue.write"(%318, %arg5, %300) {bank = 0 : i64, size = dense<4> : tensor<1xi64>} : (tensor<4xi32>, memref<4xi32>, i32) -> ()
      %319 = "equeue.read"(%304, %299) {bank = 0 : i64, size = dense<4> : tensor<1xi64>} : (memref<4xi32>, i32) -> tensor<4xi32>
      "equeue.write"(%319, %303) {bank = 0 : i64, size = dense<4> : tensor<1xi64>} : (tensor<4xi32>, memref<4xi32>) -> ()
      %320 = "equeue.unkOp"(%303, %301, %302) {op_name = "mac4"} : (memref<4xi32>, memref<16xi32>, memref<8xi32>) -> memref<4xi32>
      %321 = "equeue.unkOp"(%303, %301, %302) {op_name = "mac4"} : (memref<4xi32>, memref<16xi32>, memref<8xi32>) -> memref<4xi32>
      %322 = "equeue.read"(%arg4, %298) {bank = 0 : i64, size = dense<4> : tensor<1xi64>} : (memref<512xf32>, i32) -> tensor<512xf32>
      "equeue.write"(%322, %301) {bank = 0 : i64, size = dense<4> : tensor<1xi64>} : (tensor<512xf32>, memref<16xi32>) -> ()
      %323 = "equeue.unkOp"(%303, %301, %302) {op_name = "mac4"} : (memref<4xi32>, memref<16xi32>, memref<8xi32>) -> memref<4xi32>
      %324 = "equeue.unkOp"(%303, %301, %302) {op_name = "mac4"} : (memref<4xi32>, memref<16xi32>, memref<8xi32>) -> memref<4xi32>
      %325 = "equeue.read"(%303) {bank = 0 : i64, size = dense<4> : tensor<1xi64>} : (memref<4xi32>) -> tensor<4xi32>
      "equeue.write"(%325, %arg5, %300) {bank = 0 : i64, size = dense<4> : tensor<1xi64>} : (tensor<4xi32>, memref<4xi32>, i32) -> ()
      %326 = "equeue.read"(%304, %299) {bank = 0 : i64, size = dense<4> : tensor<1xi64>} : (memref<4xi32>, i32) -> tensor<4xi32>
      "equeue.write"(%326, %303) {bank = 0 : i64, size = dense<4> : tensor<1xi64>} : (tensor<4xi32>, memref<4xi32>) -> ()
      %327 = "equeue.unkOp"(%303, %301, %302) {op_name = "mac4"} : (memref<4xi32>, memref<16xi32>, memref<8xi32>) -> memref<4xi32>
      %328 = "equeue.unkOp"(%303, %301, %302) {op_name = "mac4"} : (memref<4xi32>, memref<16xi32>, memref<8xi32>) -> memref<4xi32>
      %329 = "equeue.read"(%arg4, %298) {bank = 0 : i64, size = dense<4> : tensor<1xi64>} : (memref<512xf32>, i32) -> tensor<512xf32>
      "equeue.write"(%329, %301) {bank = 0 : i64, size = dense<4> : tensor<1xi64>} : (tensor<512xf32>, memref<16xi32>) -> ()
      %330 = "equeue.unkOp"(%303, %301, %302) {op_name = "mac4"} : (memref<4xi32>, memref<16xi32>, memref<8xi32>) -> memref<4xi32>
      %331 = "equeue.unkOp"(%303, %301, %302) {op_name = "mac4"} : (memref<4xi32>, memref<16xi32>, memref<8xi32>) -> memref<4xi32>
      %332 = "equeue.read"(%303) {bank = 0 : i64, size = dense<4> : tensor<1xi64>} : (memref<4xi32>) -> tensor<4xi32>
      "equeue.write"(%332, %arg5, %300) {bank = 0 : i64, size = dense<4> : tensor<1xi64>} : (tensor<4xi32>, memref<4xi32>, i32) -> ()
      "equeue.return"() : () -> ()
    }) : (!equeue.signal, i32, i32, i32, i32, memref<512xf32>, memref<4xi32>) -> !equeue.signal
    %63 = "equeue.get_comp_field"(%31) {name = "proc"} : (i32) -> i32
    %64 = "equeue.get_comp_field"(%31) {name = "ofmap"} : (i32) -> memref<4xi32>
    %done_13 = "equeue.launch"(%58, %63, %5, %31, %26, %1, %64) ( {
    ^bb0(%arg1: i32, %arg2: i32, %arg3: i32, %arg4: memref<512xf32>, %arg5: memref<4xi32>):  // no predecessors
      %298 = "equeue.get_comp_field"(%arg1) {name = "stream2"} : (i32) -> i32
      %299 = "equeue.get_comp_field"(%arg1) {name = "stream5"} : (i32) -> i32
      %300 = "equeue.get_comp_field"(%arg1) {name = "stream6"} : (i32) -> i32
      %301 = "equeue.get_comp_field"(%arg2) {name = "ifmap"} : (i32) -> memref<16xi32>
      %302 = "equeue.get_comp_field"(%arg2) {name = "filter"} : (i32) -> memref<8xi32>
      %303 = "equeue.get_comp_field"(%arg2) {name = "ofmap"} : (i32) -> memref<4xi32>
      %304 = "equeue.get_comp_field"(%arg3) {name = "ofmap"} : (i32) -> memref<4xi32>
      %305 = "equeue.read"(%304, %299) {bank = 0 : i64, size = dense<4> : tensor<1xi64>} : (memref<4xi32>, i32) -> tensor<4xi32>
      "equeue.write"(%305, %303) {bank = 0 : i64, size = dense<4> : tensor<1xi64>} : (tensor<4xi32>, memref<4xi32>) -> ()
      %306 = "equeue.unkOp"(%303, %301, %302) {op_name = "mac4"} : (memref<4xi32>, memref<16xi32>, memref<8xi32>) -> memref<4xi32>
      %307 = "equeue.unkOp"(%303, %301, %302) {op_name = "mac4"} : (memref<4xi32>, memref<16xi32>, memref<8xi32>) -> memref<4xi32>
      %308 = "equeue.read"(%arg4, %298) {bank = 0 : i64, size = dense<4> : tensor<1xi64>} : (memref<512xf32>, i32) -> tensor<512xf32>
      "equeue.write"(%308, %301) {bank = 0 : i64, size = dense<4> : tensor<1xi64>} : (tensor<512xf32>, memref<16xi32>) -> ()
      %309 = "equeue.unkOp"(%303, %301, %302) {op_name = "mac4"} : (memref<4xi32>, memref<16xi32>, memref<8xi32>) -> memref<4xi32>
      %310 = "equeue.unkOp"(%303, %301, %302) {op_name = "mac4"} : (memref<4xi32>, memref<16xi32>, memref<8xi32>) -> memref<4xi32>
      %311 = "equeue.read"(%303) {bank = 0 : i64, size = dense<4> : tensor<1xi64>} : (memref<4xi32>) -> tensor<4xi32>
      "equeue.write"(%311, %arg5, %300) {bank = 0 : i64, size = dense<4> : tensor<1xi64>} : (tensor<4xi32>, memref<4xi32>, i32) -> ()
      %312 = "equeue.read"(%304, %299) {bank = 0 : i64, size = dense<4> : tensor<1xi64>} : (memref<4xi32>, i32) -> tensor<4xi32>
      "equeue.write"(%312, %303) {bank = 0 : i64, size = dense<4> : tensor<1xi64>} : (tensor<4xi32>, memref<4xi32>) -> ()
      %313 = "equeue.unkOp"(%303, %301, %302) {op_name = "mac4"} : (memref<4xi32>, memref<16xi32>, memref<8xi32>) -> memref<4xi32>
      %314 = "equeue.unkOp"(%303, %301, %302) {op_name = "mac4"} : (memref<4xi32>, memref<16xi32>, memref<8xi32>) -> memref<4xi32>
      %315 = "equeue.read"(%arg4, %298) {bank = 0 : i64, size = dense<4> : tensor<1xi64>} : (memref<512xf32>, i32) -> tensor<512xf32>
      "equeue.write"(%315, %301) {bank = 0 : i64, size = dense<4> : tensor<1xi64>} : (tensor<512xf32>, memref<16xi32>) -> ()
      %316 = "equeue.unkOp"(%303, %301, %302) {op_name = "mac4"} : (memref<4xi32>, memref<16xi32>, memref<8xi32>) -> memref<4xi32>
      %317 = "equeue.unkOp"(%303, %301, %302) {op_name = "mac4"} : (memref<4xi32>, memref<16xi32>, memref<8xi32>) -> memref<4xi32>
      %318 = "equeue.read"(%303) {bank = 0 : i64, size = dense<4> : tensor<1xi64>} : (memref<4xi32>) -> tensor<4xi32>
      "equeue.write"(%318, %arg5, %300) {bank = 0 : i64, size = dense<4> : tensor<1xi64>} : (tensor<4xi32>, memref<4xi32>, i32) -> ()
      %319 = "equeue.read"(%304, %299) {bank = 0 : i64, size = dense<4> : tensor<1xi64>} : (memref<4xi32>, i32) -> tensor<4xi32>
      "equeue.write"(%319, %303) {bank = 0 : i64, size = dense<4> : tensor<1xi64>} : (tensor<4xi32>, memref<4xi32>) -> ()
      %320 = "equeue.unkOp"(%303, %301, %302) {op_name = "mac4"} : (memref<4xi32>, memref<16xi32>, memref<8xi32>) -> memref<4xi32>
      %321 = "equeue.unkOp"(%303, %301, %302) {op_name = "mac4"} : (memref<4xi32>, memref<16xi32>, memref<8xi32>) -> memref<4xi32>
      %322 = "equeue.read"(%arg4, %298) {bank = 0 : i64, size = dense<4> : tensor<1xi64>} : (memref<512xf32>, i32) -> tensor<512xf32>
      "equeue.write"(%322, %301) {bank = 0 : i64, size = dense<4> : tensor<1xi64>} : (tensor<512xf32>, memref<16xi32>) -> ()
      %323 = "equeue.unkOp"(%303, %301, %302) {op_name = "mac4"} : (memref<4xi32>, memref<16xi32>, memref<8xi32>) -> memref<4xi32>
      %324 = "equeue.unkOp"(%303, %301, %302) {op_name = "mac4"} : (memref<4xi32>, memref<16xi32>, memref<8xi32>) -> memref<4xi32>
      %325 = "equeue.read"(%303) {bank = 0 : i64, size = dense<4> : tensor<1xi64>} : (memref<4xi32>) -> tensor<4xi32>
      "equeue.write"(%325, %arg5, %300) {bank = 0 : i64, size = dense<4> : tensor<1xi64>} : (tensor<4xi32>, memref<4xi32>, i32) -> ()
      %326 = "equeue.read"(%304, %299) {bank = 0 : i64, size = dense<4> : tensor<1xi64>} : (memref<4xi32>, i32) -> tensor<4xi32>
      "equeue.write"(%326, %303) {bank = 0 : i64, size = dense<4> : tensor<1xi64>} : (tensor<4xi32>, memref<4xi32>) -> ()
      %327 = "equeue.unkOp"(%303, %301, %302) {op_name = "mac4"} : (memref<4xi32>, memref<16xi32>, memref<8xi32>) -> memref<4xi32>
      %328 = "equeue.unkOp"(%303, %301, %302) {op_name = "mac4"} : (memref<4xi32>, memref<16xi32>, memref<8xi32>) -> memref<4xi32>
      %329 = "equeue.read"(%arg4, %298) {bank = 0 : i64, size = dense<4> : tensor<1xi64>} : (memref<512xf32>, i32) -> tensor<512xf32>
      "equeue.write"(%329, %301) {bank = 0 : i64, size = dense<4> : tensor<1xi64>} : (tensor<512xf32>, memref<16xi32>) -> ()
      %330 = "equeue.unkOp"(%303, %301, %302) {op_name = "mac4"} : (memref<4xi32>, memref<16xi32>, memref<8xi32>) -> memref<4xi32>
      %331 = "equeue.unkOp"(%303, %301, %302) {op_name = "mac4"} : (memref<4xi32>, memref<16xi32>, memref<8xi32>) -> memref<4xi32>
      %332 = "equeue.read"(%303) {bank = 0 : i64, size = dense<4> : tensor<1xi64>} : (memref<4xi32>) -> tensor<4xi32>
      "equeue.write"(%332, %arg5, %300) {bank = 0 : i64, size = dense<4> : tensor<1xi64>} : (tensor<4xi32>, memref<4xi32>, i32) -> ()
      "equeue.return"() : () -> ()
    }) : (!equeue.signal, i32, i32, i32, i32, memref<512xf32>, memref<4xi32>) -> !equeue.signal
    %65 = "equeue.get_comp_field"(%36) {name = "proc"} : (i32) -> i32
    %done_14 = "equeue.launch"(%58, %65, %5, %36, %31, %1, %3) ( {
    ^bb0(%arg1: i32, %arg2: i32, %arg3: i32, %arg4: memref<512xf32>, %arg5: memref<481xf32>):  // no predecessors
      %298 = "equeue.get_comp_field"(%arg1) {name = "stream3"} : (i32) -> i32
      %299 = "equeue.get_comp_field"(%arg1) {name = "stream6"} : (i32) -> i32
      %300 = "equeue.get_comp_field"(%arg1) {name = "stream7"} : (i32) -> i32
      %301 = "equeue.get_comp_field"(%arg2) {name = "ifmap"} : (i32) -> memref<16xi32>
      %302 = "equeue.get_comp_field"(%arg2) {name = "filter"} : (i32) -> memref<8xi32>
      %303 = "equeue.get_comp_field"(%arg2) {name = "ofmap"} : (i32) -> memref<4xi32>
      %304 = "equeue.get_comp_field"(%arg3) {name = "ofmap"} : (i32) -> memref<4xi32>
      %305 = "equeue.read"(%304, %299) {bank = 0 : i64, size = dense<4> : tensor<1xi64>} : (memref<4xi32>, i32) -> tensor<4xi32>
      "equeue.write"(%305, %303) {bank = 0 : i64, size = dense<4> : tensor<1xi64>} : (tensor<4xi32>, memref<4xi32>) -> ()
      %306 = "equeue.unkOp"(%303, %301, %302) {op_name = "mac4"} : (memref<4xi32>, memref<16xi32>, memref<8xi32>) -> memref<4xi32>
      %307 = "equeue.unkOp"(%303, %301, %302) {op_name = "mac4"} : (memref<4xi32>, memref<16xi32>, memref<8xi32>) -> memref<4xi32>
      %308 = "equeue.read"(%arg4, %298) {bank = 0 : i64, size = dense<4> : tensor<1xi64>} : (memref<512xf32>, i32) -> tensor<512xf32>
      "equeue.write"(%308, %301) {bank = 0 : i64, size = dense<4> : tensor<1xi64>} : (tensor<512xf32>, memref<16xi32>) -> ()
      %309 = "equeue.unkOp"(%303, %301, %302) {op_name = "mac4"} : (memref<4xi32>, memref<16xi32>, memref<8xi32>) -> memref<4xi32>
      %310 = "equeue.unkOp"(%303, %301, %302) {op_name = "mac4"} : (memref<4xi32>, memref<16xi32>, memref<8xi32>) -> memref<4xi32>
      %311 = "equeue.read"(%303) {bank = 0 : i64, size = dense<4> : tensor<1xi64>} : (memref<4xi32>) -> tensor<4xi32>
      "equeue.write"(%311, %arg5, %300) {bank = 0 : i64, size = dense<4> : tensor<1xi64>} : (tensor<4xi32>, memref<481xf32>, i32) -> ()
      %312 = "equeue.read"(%304, %299) {bank = 0 : i64, size = dense<4> : tensor<1xi64>} : (memref<4xi32>, i32) -> tensor<4xi32>
      "equeue.write"(%312, %303) {bank = 0 : i64, size = dense<4> : tensor<1xi64>} : (tensor<4xi32>, memref<4xi32>) -> ()
      %313 = "equeue.unkOp"(%303, %301, %302) {op_name = "mac4"} : (memref<4xi32>, memref<16xi32>, memref<8xi32>) -> memref<4xi32>
      %314 = "equeue.unkOp"(%303, %301, %302) {op_name = "mac4"} : (memref<4xi32>, memref<16xi32>, memref<8xi32>) -> memref<4xi32>
      %315 = "equeue.read"(%arg4, %298) {bank = 0 : i64, size = dense<4> : tensor<1xi64>} : (memref<512xf32>, i32) -> tensor<512xf32>
      "equeue.write"(%315, %301) {bank = 0 : i64, size = dense<4> : tensor<1xi64>} : (tensor<512xf32>, memref<16xi32>) -> ()
      %316 = "equeue.unkOp"(%303, %301, %302) {op_name = "mac4"} : (memref<4xi32>, memref<16xi32>, memref<8xi32>) -> memref<4xi32>
      %317 = "equeue.unkOp"(%303, %301, %302) {op_name = "mac4"} : (memref<4xi32>, memref<16xi32>, memref<8xi32>) -> memref<4xi32>
      %318 = "equeue.read"(%303) {bank = 0 : i64, size = dense<4> : tensor<1xi64>} : (memref<4xi32>) -> tensor<4xi32>
      "equeue.write"(%318, %arg5, %300) {bank = 0 : i64, size = dense<4> : tensor<1xi64>} : (tensor<4xi32>, memref<481xf32>, i32) -> ()
      %319 = "equeue.read"(%304, %299) {bank = 0 : i64, size = dense<4> : tensor<1xi64>} : (memref<4xi32>, i32) -> tensor<4xi32>
      "equeue.write"(%319, %303) {bank = 0 : i64, size = dense<4> : tensor<1xi64>} : (tensor<4xi32>, memref<4xi32>) -> ()
      %320 = "equeue.unkOp"(%303, %301, %302) {op_name = "mac4"} : (memref<4xi32>, memref<16xi32>, memref<8xi32>) -> memref<4xi32>
      %321 = "equeue.unkOp"(%303, %301, %302) {op_name = "mac4"} : (memref<4xi32>, memref<16xi32>, memref<8xi32>) -> memref<4xi32>
      %322 = "equeue.read"(%arg4, %298) {bank = 0 : i64, size = dense<4> : tensor<1xi64>} : (memref<512xf32>, i32) -> tensor<512xf32>
      "equeue.write"(%322, %301) {bank = 0 : i64, size = dense<4> : tensor<1xi64>} : (tensor<512xf32>, memref<16xi32>) -> ()
      %323 = "equeue.unkOp"(%303, %301, %302) {op_name = "mac4"} : (memref<4xi32>, memref<16xi32>, memref<8xi32>) -> memref<4xi32>
      %324 = "equeue.unkOp"(%303, %301, %302) {op_name = "mac4"} : (memref<4xi32>, memref<16xi32>, memref<8xi32>) -> memref<4xi32>
      %325 = "equeue.read"(%303) {bank = 0 : i64, size = dense<4> : tensor<1xi64>} : (memref<4xi32>) -> tensor<4xi32>
      "equeue.write"(%325, %arg5, %300) {bank = 0 : i64, size = dense<4> : tensor<1xi64>} : (tensor<4xi32>, memref<481xf32>, i32) -> ()
      %326 = "equeue.read"(%304, %299) {bank = 0 : i64, size = dense<4> : tensor<1xi64>} : (memref<4xi32>, i32) -> tensor<4xi32>
      "equeue.write"(%326, %303) {bank = 0 : i64, size = dense<4> : tensor<1xi64>} : (tensor<4xi32>, memref<4xi32>) -> ()
      %327 = "equeue.unkOp"(%303, %301, %302) {op_name = "mac4"} : (memref<4xi32>, memref<16xi32>, memref<8xi32>) -> memref<4xi32>
      %328 = "equeue.unkOp"(%303, %301, %302) {op_name = "mac4"} : (memref<4xi32>, memref<16xi32>, memref<8xi32>) -> memref<4xi32>
      %329 = "equeue.read"(%arg4, %298) {bank = 0 : i64, size = dense<4> : tensor<1xi64>} : (memref<512xf32>, i32) -> tensor<512xf32>
      "equeue.write"(%329, %301) {bank = 0 : i64, size = dense<4> : tensor<1xi64>} : (tensor<512xf32>, memref<16xi32>) -> ()
      %330 = "equeue.unkOp"(%303, %301, %302) {op_name = "mac4"} : (memref<4xi32>, memref<16xi32>, memref<8xi32>) -> memref<4xi32>
      %331 = "equeue.unkOp"(%303, %301, %302) {op_name = "mac4"} : (memref<4xi32>, memref<16xi32>, memref<8xi32>) -> memref<4xi32>
      %332 = "equeue.read"(%303) {bank = 0 : i64, size = dense<4> : tensor<1xi64>} : (memref<4xi32>) -> tensor<4xi32>
      "equeue.write"(%332, %arg5, %300) {bank = 0 : i64, size = dense<4> : tensor<1xi64>} : (tensor<4xi32>, memref<481xf32>, i32) -> ()
      "equeue.return"() : () -> ()
    }) : (!equeue.signal, i32, i32, i32, i32, memref<512xf32>, memref<481xf32>) -> !equeue.signal
    %66 = "equeue.control_start"() : () -> !equeue.signal
    %67 = "equeue.get_comp_field"(%21) {name = "proc"} : (i32) -> i32
    %68 = "equeue.get_comp_field"(%21) {name = "ofmap"} : (i32) -> memref<4xi32>
    %done_15 = "equeue.launch"(%66, %67, %5, %21, %1, %68) ( {
    ^bb0(%arg1: i32, %arg2: i32, %arg3: memref<512xf32>, %arg4: memref<4xi32>):  // no predecessors
      %298 = "equeue.get_comp_field"(%arg1) {name = "stream0"} : (i32) -> i32
      %299 = "equeue.get_comp_field"(%arg1) {name = "stream4"} : (i32) -> i32
      %300 = "equeue.get_comp_field"(%arg2) {name = "ifmap"} : (i32) -> memref<16xi32>
      %301 = "equeue.get_comp_field"(%arg2) {name = "filter"} : (i32) -> memref<8xi32>
      %302 = "equeue.get_comp_field"(%arg2) {name = "ofmap"} : (i32) -> memref<4xi32>
      %303 = "equeue.unkOp"(%302, %300, %301) {op_name = "mul4"} : (memref<4xi32>, memref<16xi32>, memref<8xi32>) -> memref<4xi32>
      %304 = "equeue.unkOp"(%302, %300, %301) {op_name = "mac4"} : (memref<4xi32>, memref<16xi32>, memref<8xi32>) -> memref<4xi32>
      %305 = "equeue.read"(%arg3, %298) {bank = 0 : i64, size = dense<4> : tensor<1xi64>} : (memref<512xf32>, i32) -> tensor<512xf32>
      "equeue.write"(%305, %300) {bank = 0 : i64, size = dense<4> : tensor<1xi64>} : (tensor<512xf32>, memref<16xi32>) -> ()
      %306 = "equeue.unkOp"(%302, %300, %301) {op_name = "mac4"} : (memref<4xi32>, memref<16xi32>, memref<8xi32>) -> memref<4xi32>
      %307 = "equeue.unkOp"(%302, %300, %301) {op_name = "mac4"} : (memref<4xi32>, memref<16xi32>, memref<8xi32>) -> memref<4xi32>
      %308 = "equeue.read"(%302) {bank = 0 : i64, size = dense<4> : tensor<1xi64>} : (memref<4xi32>) -> tensor<4xi32>
      "equeue.write"(%308, %arg4, %299) {bank = 0 : i64, size = dense<4> : tensor<1xi64>} : (tensor<4xi32>, memref<4xi32>, i32) -> ()
      %309 = "equeue.unkOp"(%302, %300, %301) {op_name = "mul4"} : (memref<4xi32>, memref<16xi32>, memref<8xi32>) -> memref<4xi32>
      %310 = "equeue.unkOp"(%302, %300, %301) {op_name = "mac4"} : (memref<4xi32>, memref<16xi32>, memref<8xi32>) -> memref<4xi32>
      %311 = "equeue.read"(%arg3, %298) {bank = 0 : i64, size = dense<4> : tensor<1xi64>} : (memref<512xf32>, i32) -> tensor<512xf32>
      "equeue.write"(%311, %300) {bank = 0 : i64, size = dense<4> : tensor<1xi64>} : (tensor<512xf32>, memref<16xi32>) -> ()
      %312 = "equeue.unkOp"(%302, %300, %301) {op_name = "mac4"} : (memref<4xi32>, memref<16xi32>, memref<8xi32>) -> memref<4xi32>
      %313 = "equeue.unkOp"(%302, %300, %301) {op_name = "mac4"} : (memref<4xi32>, memref<16xi32>, memref<8xi32>) -> memref<4xi32>
      %314 = "equeue.read"(%302) {bank = 0 : i64, size = dense<4> : tensor<1xi64>} : (memref<4xi32>) -> tensor<4xi32>
      "equeue.write"(%314, %arg4, %299) {bank = 0 : i64, size = dense<4> : tensor<1xi64>} : (tensor<4xi32>, memref<4xi32>, i32) -> ()
      %315 = "equeue.unkOp"(%302, %300, %301) {op_name = "mul4"} : (memref<4xi32>, memref<16xi32>, memref<8xi32>) -> memref<4xi32>
      %316 = "equeue.unkOp"(%302, %300, %301) {op_name = "mac4"} : (memref<4xi32>, memref<16xi32>, memref<8xi32>) -> memref<4xi32>
      %317 = "equeue.read"(%arg3, %298) {bank = 0 : i64, size = dense<4> : tensor<1xi64>} : (memref<512xf32>, i32) -> tensor<512xf32>
      "equeue.write"(%317, %300) {bank = 0 : i64, size = dense<4> : tensor<1xi64>} : (tensor<512xf32>, memref<16xi32>) -> ()
      %318 = "equeue.unkOp"(%302, %300, %301) {op_name = "mac4"} : (memref<4xi32>, memref<16xi32>, memref<8xi32>) -> memref<4xi32>
      %319 = "equeue.unkOp"(%302, %300, %301) {op_name = "mac4"} : (memref<4xi32>, memref<16xi32>, memref<8xi32>) -> memref<4xi32>
      %320 = "equeue.read"(%302) {bank = 0 : i64, size = dense<4> : tensor<1xi64>} : (memref<4xi32>) -> tensor<4xi32>
      "equeue.write"(%320, %arg4, %299) {bank = 0 : i64, size = dense<4> : tensor<1xi64>} : (tensor<4xi32>, memref<4xi32>, i32) -> ()
      %321 = "equeue.unkOp"(%302, %300, %301) {op_name = "mul4"} : (memref<4xi32>, memref<16xi32>, memref<8xi32>) -> memref<4xi32>
      %322 = "equeue.unkOp"(%302, %300, %301) {op_name = "mac4"} : (memref<4xi32>, memref<16xi32>, memref<8xi32>) -> memref<4xi32>
      %323 = "equeue.read"(%arg3, %298) {bank = 0 : i64, size = dense<4> : tensor<1xi64>} : (memref<512xf32>, i32) -> tensor<512xf32>
      "equeue.write"(%323, %300) {bank = 0 : i64, size = dense<4> : tensor<1xi64>} : (tensor<512xf32>, memref<16xi32>) -> ()
      %324 = "equeue.unkOp"(%302, %300, %301) {op_name = "mac4"} : (memref<4xi32>, memref<16xi32>, memref<8xi32>) -> memref<4xi32>
      %325 = "equeue.unkOp"(%302, %300, %301) {op_name = "mac4"} : (memref<4xi32>, memref<16xi32>, memref<8xi32>) -> memref<4xi32>
      %326 = "equeue.read"(%302) {bank = 0 : i64, size = dense<4> : tensor<1xi64>} : (memref<4xi32>) -> tensor<4xi32>
      "equeue.write"(%326, %arg4, %299) {bank = 0 : i64, size = dense<4> : tensor<1xi64>} : (tensor<4xi32>, memref<4xi32>, i32) -> ()
      "equeue.return"() : () -> ()
    }) : (!equeue.signal, i32, i32, i32, memref<512xf32>, memref<4xi32>) -> !equeue.signal
    %69 = "equeue.get_comp_field"(%26) {name = "proc"} : (i32) -> i32
    %70 = "equeue.get_comp_field"(%26) {name = "ofmap"} : (i32) -> memref<4xi32>
    %done_16 = "equeue.launch"(%66, %69, %5, %26, %21, %1, %70) ( {
    ^bb0(%arg1: i32, %arg2: i32, %arg3: i32, %arg4: memref<512xf32>, %arg5: memref<4xi32>):  // no predecessors
      %298 = "equeue.get_comp_field"(%arg1) {name = "stream1"} : (i32) -> i32
      %299 = "equeue.get_comp_field"(%arg1) {name = "stream4"} : (i32) -> i32
      %300 = "equeue.get_comp_field"(%arg1) {name = "stream5"} : (i32) -> i32
      %301 = "equeue.get_comp_field"(%arg2) {name = "ifmap"} : (i32) -> memref<16xi32>
      %302 = "equeue.get_comp_field"(%arg2) {name = "filter"} : (i32) -> memref<8xi32>
      %303 = "equeue.get_comp_field"(%arg2) {name = "ofmap"} : (i32) -> memref<4xi32>
      %304 = "equeue.get_comp_field"(%arg3) {name = "ofmap"} : (i32) -> memref<4xi32>
      %305 = "equeue.read"(%304, %299) {bank = 0 : i64, size = dense<4> : tensor<1xi64>} : (memref<4xi32>, i32) -> tensor<4xi32>
      "equeue.write"(%305, %303) {bank = 0 : i64, size = dense<4> : tensor<1xi64>} : (tensor<4xi32>, memref<4xi32>) -> ()
      %306 = "equeue.unkOp"(%303, %301, %302) {op_name = "mac4"} : (memref<4xi32>, memref<16xi32>, memref<8xi32>) -> memref<4xi32>
      %307 = "equeue.unkOp"(%303, %301, %302) {op_name = "mac4"} : (memref<4xi32>, memref<16xi32>, memref<8xi32>) -> memref<4xi32>
      %308 = "equeue.read"(%arg4, %298) {bank = 0 : i64, size = dense<4> : tensor<1xi64>} : (memref<512xf32>, i32) -> tensor<512xf32>
      "equeue.write"(%308, %301) {bank = 0 : i64, size = dense<4> : tensor<1xi64>} : (tensor<512xf32>, memref<16xi32>) -> ()
      %309 = "equeue.unkOp"(%303, %301, %302) {op_name = "mac4"} : (memref<4xi32>, memref<16xi32>, memref<8xi32>) -> memref<4xi32>
      %310 = "equeue.unkOp"(%303, %301, %302) {op_name = "mac4"} : (memref<4xi32>, memref<16xi32>, memref<8xi32>) -> memref<4xi32>
      %311 = "equeue.read"(%303) {bank = 0 : i64, size = dense<4> : tensor<1xi64>} : (memref<4xi32>) -> tensor<4xi32>
      "equeue.write"(%311, %arg5, %300) {bank = 0 : i64, size = dense<4> : tensor<1xi64>} : (tensor<4xi32>, memref<4xi32>, i32) -> ()
      %312 = "equeue.read"(%304, %299) {bank = 0 : i64, size = dense<4> : tensor<1xi64>} : (memref<4xi32>, i32) -> tensor<4xi32>
      "equeue.write"(%312, %303) {bank = 0 : i64, size = dense<4> : tensor<1xi64>} : (tensor<4xi32>, memref<4xi32>) -> ()
      %313 = "equeue.unkOp"(%303, %301, %302) {op_name = "mac4"} : (memref<4xi32>, memref<16xi32>, memref<8xi32>) -> memref<4xi32>
      %314 = "equeue.unkOp"(%303, %301, %302) {op_name = "mac4"} : (memref<4xi32>, memref<16xi32>, memref<8xi32>) -> memref<4xi32>
      %315 = "equeue.read"(%arg4, %298) {bank = 0 : i64, size = dense<4> : tensor<1xi64>} : (memref<512xf32>, i32) -> tensor<512xf32>
      "equeue.write"(%315, %301) {bank = 0 : i64, size = dense<4> : tensor<1xi64>} : (tensor<512xf32>, memref<16xi32>) -> ()
      %316 = "equeue.unkOp"(%303, %301, %302) {op_name = "mac4"} : (memref<4xi32>, memref<16xi32>, memref<8xi32>) -> memref<4xi32>
      %317 = "equeue.unkOp"(%303, %301, %302) {op_name = "mac4"} : (memref<4xi32>, memref<16xi32>, memref<8xi32>) -> memref<4xi32>
      %318 = "equeue.read"(%303) {bank = 0 : i64, size = dense<4> : tensor<1xi64>} : (memref<4xi32>) -> tensor<4xi32>
      "equeue.write"(%318, %arg5, %300) {bank = 0 : i64, size = dense<4> : tensor<1xi64>} : (tensor<4xi32>, memref<4xi32>, i32) -> ()
      %319 = "equeue.read"(%304, %299) {bank = 0 : i64, size = dense<4> : tensor<1xi64>} : (memref<4xi32>, i32) -> tensor<4xi32>
      "equeue.write"(%319, %303) {bank = 0 : i64, size = dense<4> : tensor<1xi64>} : (tensor<4xi32>, memref<4xi32>) -> ()
      %320 = "equeue.unkOp"(%303, %301, %302) {op_name = "mac4"} : (memref<4xi32>, memref<16xi32>, memref<8xi32>) -> memref<4xi32>
      %321 = "equeue.unkOp"(%303, %301, %302) {op_name = "mac4"} : (memref<4xi32>, memref<16xi32>, memref<8xi32>) -> memref<4xi32>
      %322 = "equeue.read"(%arg4, %298) {bank = 0 : i64, size = dense<4> : tensor<1xi64>} : (memref<512xf32>, i32) -> tensor<512xf32>
      "equeue.write"(%322, %301) {bank = 0 : i64, size = dense<4> : tensor<1xi64>} : (tensor<512xf32>, memref<16xi32>) -> ()
      %323 = "equeue.unkOp"(%303, %301, %302) {op_name = "mac4"} : (memref<4xi32>, memref<16xi32>, memref<8xi32>) -> memref<4xi32>
      %324 = "equeue.unkOp"(%303, %301, %302) {op_name = "mac4"} : (memref<4xi32>, memref<16xi32>, memref<8xi32>) -> memref<4xi32>
      %325 = "equeue.read"(%303) {bank = 0 : i64, size = dense<4> : tensor<1xi64>} : (memref<4xi32>) -> tensor<4xi32>
      "equeue.write"(%325, %arg5, %300) {bank = 0 : i64, size = dense<4> : tensor<1xi64>} : (tensor<4xi32>, memref<4xi32>, i32) -> ()
      %326 = "equeue.read"(%304, %299) {bank = 0 : i64, size = dense<4> : tensor<1xi64>} : (memref<4xi32>, i32) -> tensor<4xi32>
      "equeue.write"(%326, %303) {bank = 0 : i64, size = dense<4> : tensor<1xi64>} : (tensor<4xi32>, memref<4xi32>) -> ()
      %327 = "equeue.unkOp"(%303, %301, %302) {op_name = "mac4"} : (memref<4xi32>, memref<16xi32>, memref<8xi32>) -> memref<4xi32>
      %328 = "equeue.unkOp"(%303, %301, %302) {op_name = "mac4"} : (memref<4xi32>, memref<16xi32>, memref<8xi32>) -> memref<4xi32>
      %329 = "equeue.read"(%arg4, %298) {bank = 0 : i64, size = dense<4> : tensor<1xi64>} : (memref<512xf32>, i32) -> tensor<512xf32>
      "equeue.write"(%329, %301) {bank = 0 : i64, size = dense<4> : tensor<1xi64>} : (tensor<512xf32>, memref<16xi32>) -> ()
      %330 = "equeue.unkOp"(%303, %301, %302) {op_name = "mac4"} : (memref<4xi32>, memref<16xi32>, memref<8xi32>) -> memref<4xi32>
      %331 = "equeue.unkOp"(%303, %301, %302) {op_name = "mac4"} : (memref<4xi32>, memref<16xi32>, memref<8xi32>) -> memref<4xi32>
      %332 = "equeue.read"(%303) {bank = 0 : i64, size = dense<4> : tensor<1xi64>} : (memref<4xi32>) -> tensor<4xi32>
      "equeue.write"(%332, %arg5, %300) {bank = 0 : i64, size = dense<4> : tensor<1xi64>} : (tensor<4xi32>, memref<4xi32>, i32) -> ()
      "equeue.return"() : () -> ()
    }) : (!equeue.signal, i32, i32, i32, i32, memref<512xf32>, memref<4xi32>) -> !equeue.signal
    %71 = "equeue.get_comp_field"(%31) {name = "proc"} : (i32) -> i32
    %72 = "equeue.get_comp_field"(%31) {name = "ofmap"} : (i32) -> memref<4xi32>
    %done_17 = "equeue.launch"(%66, %71, %5, %31, %26, %1, %72) ( {
    ^bb0(%arg1: i32, %arg2: i32, %arg3: i32, %arg4: memref<512xf32>, %arg5: memref<4xi32>):  // no predecessors
      %298 = "equeue.get_comp_field"(%arg1) {name = "stream2"} : (i32) -> i32
      %299 = "equeue.get_comp_field"(%arg1) {name = "stream5"} : (i32) -> i32
      %300 = "equeue.get_comp_field"(%arg1) {name = "stream6"} : (i32) -> i32
      %301 = "equeue.get_comp_field"(%arg2) {name = "ifmap"} : (i32) -> memref<16xi32>
      %302 = "equeue.get_comp_field"(%arg2) {name = "filter"} : (i32) -> memref<8xi32>
      %303 = "equeue.get_comp_field"(%arg2) {name = "ofmap"} : (i32) -> memref<4xi32>
      %304 = "equeue.get_comp_field"(%arg3) {name = "ofmap"} : (i32) -> memref<4xi32>
      %305 = "equeue.read"(%304, %299) {bank = 0 : i64, size = dense<4> : tensor<1xi64>} : (memref<4xi32>, i32) -> tensor<4xi32>
      "equeue.write"(%305, %303) {bank = 0 : i64, size = dense<4> : tensor<1xi64>} : (tensor<4xi32>, memref<4xi32>) -> ()
      %306 = "equeue.unkOp"(%303, %301, %302) {op_name = "mac4"} : (memref<4xi32>, memref<16xi32>, memref<8xi32>) -> memref<4xi32>
      %307 = "equeue.unkOp"(%303, %301, %302) {op_name = "mac4"} : (memref<4xi32>, memref<16xi32>, memref<8xi32>) -> memref<4xi32>
      %308 = "equeue.read"(%arg4, %298) {bank = 0 : i64, size = dense<4> : tensor<1xi64>} : (memref<512xf32>, i32) -> tensor<512xf32>
      "equeue.write"(%308, %301) {bank = 0 : i64, size = dense<4> : tensor<1xi64>} : (tensor<512xf32>, memref<16xi32>) -> ()
      %309 = "equeue.unkOp"(%303, %301, %302) {op_name = "mac4"} : (memref<4xi32>, memref<16xi32>, memref<8xi32>) -> memref<4xi32>
      %310 = "equeue.unkOp"(%303, %301, %302) {op_name = "mac4"} : (memref<4xi32>, memref<16xi32>, memref<8xi32>) -> memref<4xi32>
      %311 = "equeue.read"(%303) {bank = 0 : i64, size = dense<4> : tensor<1xi64>} : (memref<4xi32>) -> tensor<4xi32>
      "equeue.write"(%311, %arg5, %300) {bank = 0 : i64, size = dense<4> : tensor<1xi64>} : (tensor<4xi32>, memref<4xi32>, i32) -> ()
      %312 = "equeue.read"(%304, %299) {bank = 0 : i64, size = dense<4> : tensor<1xi64>} : (memref<4xi32>, i32) -> tensor<4xi32>
      "equeue.write"(%312, %303) {bank = 0 : i64, size = dense<4> : tensor<1xi64>} : (tensor<4xi32>, memref<4xi32>) -> ()
      %313 = "equeue.unkOp"(%303, %301, %302) {op_name = "mac4"} : (memref<4xi32>, memref<16xi32>, memref<8xi32>) -> memref<4xi32>
      %314 = "equeue.unkOp"(%303, %301, %302) {op_name = "mac4"} : (memref<4xi32>, memref<16xi32>, memref<8xi32>) -> memref<4xi32>
      %315 = "equeue.read"(%arg4, %298) {bank = 0 : i64, size = dense<4> : tensor<1xi64>} : (memref<512xf32>, i32) -> tensor<512xf32>
      "equeue.write"(%315, %301) {bank = 0 : i64, size = dense<4> : tensor<1xi64>} : (tensor<512xf32>, memref<16xi32>) -> ()
      %316 = "equeue.unkOp"(%303, %301, %302) {op_name = "mac4"} : (memref<4xi32>, memref<16xi32>, memref<8xi32>) -> memref<4xi32>
      %317 = "equeue.unkOp"(%303, %301, %302) {op_name = "mac4"} : (memref<4xi32>, memref<16xi32>, memref<8xi32>) -> memref<4xi32>
      %318 = "equeue.read"(%303) {bank = 0 : i64, size = dense<4> : tensor<1xi64>} : (memref<4xi32>) -> tensor<4xi32>
      "equeue.write"(%318, %arg5, %300) {bank = 0 : i64, size = dense<4> : tensor<1xi64>} : (tensor<4xi32>, memref<4xi32>, i32) -> ()
      %319 = "equeue.read"(%304, %299) {bank = 0 : i64, size = dense<4> : tensor<1xi64>} : (memref<4xi32>, i32) -> tensor<4xi32>
      "equeue.write"(%319, %303) {bank = 0 : i64, size = dense<4> : tensor<1xi64>} : (tensor<4xi32>, memref<4xi32>) -> ()
      %320 = "equeue.unkOp"(%303, %301, %302) {op_name = "mac4"} : (memref<4xi32>, memref<16xi32>, memref<8xi32>) -> memref<4xi32>
      %321 = "equeue.unkOp"(%303, %301, %302) {op_name = "mac4"} : (memref<4xi32>, memref<16xi32>, memref<8xi32>) -> memref<4xi32>
      %322 = "equeue.read"(%arg4, %298) {bank = 0 : i64, size = dense<4> : tensor<1xi64>} : (memref<512xf32>, i32) -> tensor<512xf32>
      "equeue.write"(%322, %301) {bank = 0 : i64, size = dense<4> : tensor<1xi64>} : (tensor<512xf32>, memref<16xi32>) -> ()
      %323 = "equeue.unkOp"(%303, %301, %302) {op_name = "mac4"} : (memref<4xi32>, memref<16xi32>, memref<8xi32>) -> memref<4xi32>
      %324 = "equeue.unkOp"(%303, %301, %302) {op_name = "mac4"} : (memref<4xi32>, memref<16xi32>, memref<8xi32>) -> memref<4xi32>
      %325 = "equeue.read"(%303) {bank = 0 : i64, size = dense<4> : tensor<1xi64>} : (memref<4xi32>) -> tensor<4xi32>
      "equeue.write"(%325, %arg5, %300) {bank = 0 : i64, size = dense<4> : tensor<1xi64>} : (tensor<4xi32>, memref<4xi32>, i32) -> ()
      %326 = "equeue.read"(%304, %299) {bank = 0 : i64, size = dense<4> : tensor<1xi64>} : (memref<4xi32>, i32) -> tensor<4xi32>
      "equeue.write"(%326, %303) {bank = 0 : i64, size = dense<4> : tensor<1xi64>} : (tensor<4xi32>, memref<4xi32>) -> ()
      %327 = "equeue.unkOp"(%303, %301, %302) {op_name = "mac4"} : (memref<4xi32>, memref<16xi32>, memref<8xi32>) -> memref<4xi32>
      %328 = "equeue.unkOp"(%303, %301, %302) {op_name = "mac4"} : (memref<4xi32>, memref<16xi32>, memref<8xi32>) -> memref<4xi32>
      %329 = "equeue.read"(%arg4, %298) {bank = 0 : i64, size = dense<4> : tensor<1xi64>} : (memref<512xf32>, i32) -> tensor<512xf32>
      "equeue.write"(%329, %301) {bank = 0 : i64, size = dense<4> : tensor<1xi64>} : (tensor<512xf32>, memref<16xi32>) -> ()
      %330 = "equeue.unkOp"(%303, %301, %302) {op_name = "mac4"} : (memref<4xi32>, memref<16xi32>, memref<8xi32>) -> memref<4xi32>
      %331 = "equeue.unkOp"(%303, %301, %302) {op_name = "mac4"} : (memref<4xi32>, memref<16xi32>, memref<8xi32>) -> memref<4xi32>
      %332 = "equeue.read"(%303) {bank = 0 : i64, size = dense<4> : tensor<1xi64>} : (memref<4xi32>) -> tensor<4xi32>
      "equeue.write"(%332, %arg5, %300) {bank = 0 : i64, size = dense<4> : tensor<1xi64>} : (tensor<4xi32>, memref<4xi32>, i32) -> ()
      "equeue.return"() : () -> ()
    }) : (!equeue.signal, i32, i32, i32, i32, memref<512xf32>, memref<4xi32>) -> !equeue.signal
    %73 = "equeue.get_comp_field"(%36) {name = "proc"} : (i32) -> i32
    %done_18 = "equeue.launch"(%66, %73, %5, %36, %31, %1, %3) ( {
    ^bb0(%arg1: i32, %arg2: i32, %arg3: i32, %arg4: memref<512xf32>, %arg5: memref<481xf32>):  // no predecessors
      %298 = "equeue.get_comp_field"(%arg1) {name = "stream3"} : (i32) -> i32
      %299 = "equeue.get_comp_field"(%arg1) {name = "stream6"} : (i32) -> i32
      %300 = "equeue.get_comp_field"(%arg1) {name = "stream7"} : (i32) -> i32
      %301 = "equeue.get_comp_field"(%arg2) {name = "ifmap"} : (i32) -> memref<16xi32>
      %302 = "equeue.get_comp_field"(%arg2) {name = "filter"} : (i32) -> memref<8xi32>
      %303 = "equeue.get_comp_field"(%arg2) {name = "ofmap"} : (i32) -> memref<4xi32>
      %304 = "equeue.get_comp_field"(%arg3) {name = "ofmap"} : (i32) -> memref<4xi32>
      %305 = "equeue.read"(%304, %299) {bank = 0 : i64, size = dense<4> : tensor<1xi64>} : (memref<4xi32>, i32) -> tensor<4xi32>
      "equeue.write"(%305, %303) {bank = 0 : i64, size = dense<4> : tensor<1xi64>} : (tensor<4xi32>, memref<4xi32>) -> ()
      %306 = "equeue.unkOp"(%303, %301, %302) {op_name = "mac4"} : (memref<4xi32>, memref<16xi32>, memref<8xi32>) -> memref<4xi32>
      %307 = "equeue.unkOp"(%303, %301, %302) {op_name = "mac4"} : (memref<4xi32>, memref<16xi32>, memref<8xi32>) -> memref<4xi32>
      %308 = "equeue.read"(%arg4, %298) {bank = 0 : i64, size = dense<4> : tensor<1xi64>} : (memref<512xf32>, i32) -> tensor<512xf32>
      "equeue.write"(%308, %301) {bank = 0 : i64, size = dense<4> : tensor<1xi64>} : (tensor<512xf32>, memref<16xi32>) -> ()
      %309 = "equeue.unkOp"(%303, %301, %302) {op_name = "mac4"} : (memref<4xi32>, memref<16xi32>, memref<8xi32>) -> memref<4xi32>
      %310 = "equeue.unkOp"(%303, %301, %302) {op_name = "mac4"} : (memref<4xi32>, memref<16xi32>, memref<8xi32>) -> memref<4xi32>
      %311 = "equeue.read"(%303) {bank = 0 : i64, size = dense<4> : tensor<1xi64>} : (memref<4xi32>) -> tensor<4xi32>
      "equeue.write"(%311, %arg5, %300) {bank = 0 : i64, size = dense<4> : tensor<1xi64>} : (tensor<4xi32>, memref<481xf32>, i32) -> ()
      %312 = "equeue.read"(%304, %299) {bank = 0 : i64, size = dense<4> : tensor<1xi64>} : (memref<4xi32>, i32) -> tensor<4xi32>
      "equeue.write"(%312, %303) {bank = 0 : i64, size = dense<4> : tensor<1xi64>} : (tensor<4xi32>, memref<4xi32>) -> ()
      %313 = "equeue.unkOp"(%303, %301, %302) {op_name = "mac4"} : (memref<4xi32>, memref<16xi32>, memref<8xi32>) -> memref<4xi32>
      %314 = "equeue.unkOp"(%303, %301, %302) {op_name = "mac4"} : (memref<4xi32>, memref<16xi32>, memref<8xi32>) -> memref<4xi32>
      %315 = "equeue.read"(%arg4, %298) {bank = 0 : i64, size = dense<4> : tensor<1xi64>} : (memref<512xf32>, i32) -> tensor<512xf32>
      "equeue.write"(%315, %301) {bank = 0 : i64, size = dense<4> : tensor<1xi64>} : (tensor<512xf32>, memref<16xi32>) -> ()
      %316 = "equeue.unkOp"(%303, %301, %302) {op_name = "mac4"} : (memref<4xi32>, memref<16xi32>, memref<8xi32>) -> memref<4xi32>
      %317 = "equeue.unkOp"(%303, %301, %302) {op_name = "mac4"} : (memref<4xi32>, memref<16xi32>, memref<8xi32>) -> memref<4xi32>
      %318 = "equeue.read"(%303) {bank = 0 : i64, size = dense<4> : tensor<1xi64>} : (memref<4xi32>) -> tensor<4xi32>
      "equeue.write"(%318, %arg5, %300) {bank = 0 : i64, size = dense<4> : tensor<1xi64>} : (tensor<4xi32>, memref<481xf32>, i32) -> ()
      %319 = "equeue.read"(%304, %299) {bank = 0 : i64, size = dense<4> : tensor<1xi64>} : (memref<4xi32>, i32) -> tensor<4xi32>
      "equeue.write"(%319, %303) {bank = 0 : i64, size = dense<4> : tensor<1xi64>} : (tensor<4xi32>, memref<4xi32>) -> ()
      %320 = "equeue.unkOp"(%303, %301, %302) {op_name = "mac4"} : (memref<4xi32>, memref<16xi32>, memref<8xi32>) -> memref<4xi32>
      %321 = "equeue.unkOp"(%303, %301, %302) {op_name = "mac4"} : (memref<4xi32>, memref<16xi32>, memref<8xi32>) -> memref<4xi32>
      %322 = "equeue.read"(%arg4, %298) {bank = 0 : i64, size = dense<4> : tensor<1xi64>} : (memref<512xf32>, i32) -> tensor<512xf32>
      "equeue.write"(%322, %301) {bank = 0 : i64, size = dense<4> : tensor<1xi64>} : (tensor<512xf32>, memref<16xi32>) -> ()
      %323 = "equeue.unkOp"(%303, %301, %302) {op_name = "mac4"} : (memref<4xi32>, memref<16xi32>, memref<8xi32>) -> memref<4xi32>
      %324 = "equeue.unkOp"(%303, %301, %302) {op_name = "mac4"} : (memref<4xi32>, memref<16xi32>, memref<8xi32>) -> memref<4xi32>
      %325 = "equeue.read"(%303) {bank = 0 : i64, size = dense<4> : tensor<1xi64>} : (memref<4xi32>) -> tensor<4xi32>
      "equeue.write"(%325, %arg5, %300) {bank = 0 : i64, size = dense<4> : tensor<1xi64>} : (tensor<4xi32>, memref<481xf32>, i32) -> ()
      %326 = "equeue.read"(%304, %299) {bank = 0 : i64, size = dense<4> : tensor<1xi64>} : (memref<4xi32>, i32) -> tensor<4xi32>
      "equeue.write"(%326, %303) {bank = 0 : i64, size = dense<4> : tensor<1xi64>} : (tensor<4xi32>, memref<4xi32>) -> ()
      %327 = "equeue.unkOp"(%303, %301, %302) {op_name = "mac4"} : (memref<4xi32>, memref<16xi32>, memref<8xi32>) -> memref<4xi32>
      %328 = "equeue.unkOp"(%303, %301, %302) {op_name = "mac4"} : (memref<4xi32>, memref<16xi32>, memref<8xi32>) -> memref<4xi32>
      %329 = "equeue.read"(%arg4, %298) {bank = 0 : i64, size = dense<4> : tensor<1xi64>} : (memref<512xf32>, i32) -> tensor<512xf32>
      "equeue.write"(%329, %301) {bank = 0 : i64, size = dense<4> : tensor<1xi64>} : (tensor<512xf32>, memref<16xi32>) -> ()
      %330 = "equeue.unkOp"(%303, %301, %302) {op_name = "mac4"} : (memref<4xi32>, memref<16xi32>, memref<8xi32>) -> memref<4xi32>
      %331 = "equeue.unkOp"(%303, %301, %302) {op_name = "mac4"} : (memref<4xi32>, memref<16xi32>, memref<8xi32>) -> memref<4xi32>
      %332 = "equeue.read"(%303) {bank = 0 : i64, size = dense<4> : tensor<1xi64>} : (memref<4xi32>) -> tensor<4xi32>
      "equeue.write"(%332, %arg5, %300) {bank = 0 : i64, size = dense<4> : tensor<1xi64>} : (tensor<4xi32>, memref<481xf32>, i32) -> ()
      "equeue.return"() : () -> ()
    }) : (!equeue.signal, i32, i32, i32, i32, memref<512xf32>, memref<481xf32>) -> !equeue.signal
    %74 = "equeue.control_start"() : () -> !equeue.signal
    %75 = "equeue.get_comp_field"(%21) {name = "proc"} : (i32) -> i32
    %76 = "equeue.get_comp_field"(%21) {name = "ofmap"} : (i32) -> memref<4xi32>
    %done_19 = "equeue.launch"(%74, %75, %5, %21, %1, %76) ( {
    ^bb0(%arg1: i32, %arg2: i32, %arg3: memref<512xf32>, %arg4: memref<4xi32>):  // no predecessors
      %298 = "equeue.get_comp_field"(%arg1) {name = "stream0"} : (i32) -> i32
      %299 = "equeue.get_comp_field"(%arg1) {name = "stream4"} : (i32) -> i32
      %300 = "equeue.get_comp_field"(%arg2) {name = "ifmap"} : (i32) -> memref<16xi32>
      %301 = "equeue.get_comp_field"(%arg2) {name = "filter"} : (i32) -> memref<8xi32>
      %302 = "equeue.get_comp_field"(%arg2) {name = "ofmap"} : (i32) -> memref<4xi32>
      %303 = "equeue.unkOp"(%302, %300, %301) {op_name = "mul4"} : (memref<4xi32>, memref<16xi32>, memref<8xi32>) -> memref<4xi32>
      %304 = "equeue.unkOp"(%302, %300, %301) {op_name = "mac4"} : (memref<4xi32>, memref<16xi32>, memref<8xi32>) -> memref<4xi32>
      %305 = "equeue.read"(%arg3, %298) {bank = 0 : i64, size = dense<4> : tensor<1xi64>} : (memref<512xf32>, i32) -> tensor<512xf32>
      "equeue.write"(%305, %300) {bank = 0 : i64, size = dense<4> : tensor<1xi64>} : (tensor<512xf32>, memref<16xi32>) -> ()
      %306 = "equeue.unkOp"(%302, %300, %301) {op_name = "mac4"} : (memref<4xi32>, memref<16xi32>, memref<8xi32>) -> memref<4xi32>
      %307 = "equeue.unkOp"(%302, %300, %301) {op_name = "mac4"} : (memref<4xi32>, memref<16xi32>, memref<8xi32>) -> memref<4xi32>
      %308 = "equeue.read"(%302) {bank = 0 : i64, size = dense<4> : tensor<1xi64>} : (memref<4xi32>) -> tensor<4xi32>
      "equeue.write"(%308, %arg4, %299) {bank = 0 : i64, size = dense<4> : tensor<1xi64>} : (tensor<4xi32>, memref<4xi32>, i32) -> ()
      %309 = "equeue.unkOp"(%302, %300, %301) {op_name = "mul4"} : (memref<4xi32>, memref<16xi32>, memref<8xi32>) -> memref<4xi32>
      %310 = "equeue.unkOp"(%302, %300, %301) {op_name = "mac4"} : (memref<4xi32>, memref<16xi32>, memref<8xi32>) -> memref<4xi32>
      %311 = "equeue.read"(%arg3, %298) {bank = 0 : i64, size = dense<4> : tensor<1xi64>} : (memref<512xf32>, i32) -> tensor<512xf32>
      "equeue.write"(%311, %300) {bank = 0 : i64, size = dense<4> : tensor<1xi64>} : (tensor<512xf32>, memref<16xi32>) -> ()
      %312 = "equeue.unkOp"(%302, %300, %301) {op_name = "mac4"} : (memref<4xi32>, memref<16xi32>, memref<8xi32>) -> memref<4xi32>
      %313 = "equeue.unkOp"(%302, %300, %301) {op_name = "mac4"} : (memref<4xi32>, memref<16xi32>, memref<8xi32>) -> memref<4xi32>
      %314 = "equeue.read"(%302) {bank = 0 : i64, size = dense<4> : tensor<1xi64>} : (memref<4xi32>) -> tensor<4xi32>
      "equeue.write"(%314, %arg4, %299) {bank = 0 : i64, size = dense<4> : tensor<1xi64>} : (tensor<4xi32>, memref<4xi32>, i32) -> ()
      %315 = "equeue.unkOp"(%302, %300, %301) {op_name = "mul4"} : (memref<4xi32>, memref<16xi32>, memref<8xi32>) -> memref<4xi32>
      %316 = "equeue.unkOp"(%302, %300, %301) {op_name = "mac4"} : (memref<4xi32>, memref<16xi32>, memref<8xi32>) -> memref<4xi32>
      %317 = "equeue.read"(%arg3, %298) {bank = 0 : i64, size = dense<4> : tensor<1xi64>} : (memref<512xf32>, i32) -> tensor<512xf32>
      "equeue.write"(%317, %300) {bank = 0 : i64, size = dense<4> : tensor<1xi64>} : (tensor<512xf32>, memref<16xi32>) -> ()
      %318 = "equeue.unkOp"(%302, %300, %301) {op_name = "mac4"} : (memref<4xi32>, memref<16xi32>, memref<8xi32>) -> memref<4xi32>
      %319 = "equeue.unkOp"(%302, %300, %301) {op_name = "mac4"} : (memref<4xi32>, memref<16xi32>, memref<8xi32>) -> memref<4xi32>
      %320 = "equeue.read"(%302) {bank = 0 : i64, size = dense<4> : tensor<1xi64>} : (memref<4xi32>) -> tensor<4xi32>
      "equeue.write"(%320, %arg4, %299) {bank = 0 : i64, size = dense<4> : tensor<1xi64>} : (tensor<4xi32>, memref<4xi32>, i32) -> ()
      %321 = "equeue.unkOp"(%302, %300, %301) {op_name = "mul4"} : (memref<4xi32>, memref<16xi32>, memref<8xi32>) -> memref<4xi32>
      %322 = "equeue.unkOp"(%302, %300, %301) {op_name = "mac4"} : (memref<4xi32>, memref<16xi32>, memref<8xi32>) -> memref<4xi32>
      %323 = "equeue.read"(%arg3, %298) {bank = 0 : i64, size = dense<4> : tensor<1xi64>} : (memref<512xf32>, i32) -> tensor<512xf32>
      "equeue.write"(%323, %300) {bank = 0 : i64, size = dense<4> : tensor<1xi64>} : (tensor<512xf32>, memref<16xi32>) -> ()
      %324 = "equeue.unkOp"(%302, %300, %301) {op_name = "mac4"} : (memref<4xi32>, memref<16xi32>, memref<8xi32>) -> memref<4xi32>
      %325 = "equeue.unkOp"(%302, %300, %301) {op_name = "mac4"} : (memref<4xi32>, memref<16xi32>, memref<8xi32>) -> memref<4xi32>
      %326 = "equeue.read"(%302) {bank = 0 : i64, size = dense<4> : tensor<1xi64>} : (memref<4xi32>) -> tensor<4xi32>
      "equeue.write"(%326, %arg4, %299) {bank = 0 : i64, size = dense<4> : tensor<1xi64>} : (tensor<4xi32>, memref<4xi32>, i32) -> ()
      "equeue.return"() : () -> ()
    }) : (!equeue.signal, i32, i32, i32, memref<512xf32>, memref<4xi32>) -> !equeue.signal
    %77 = "equeue.get_comp_field"(%26) {name = "proc"} : (i32) -> i32
    %78 = "equeue.get_comp_field"(%26) {name = "ofmap"} : (i32) -> memref<4xi32>
    %done_20 = "equeue.launch"(%74, %77, %5, %26, %21, %1, %78) ( {
    ^bb0(%arg1: i32, %arg2: i32, %arg3: i32, %arg4: memref<512xf32>, %arg5: memref<4xi32>):  // no predecessors
      %298 = "equeue.get_comp_field"(%arg1) {name = "stream1"} : (i32) -> i32
      %299 = "equeue.get_comp_field"(%arg1) {name = "stream4"} : (i32) -> i32
      %300 = "equeue.get_comp_field"(%arg1) {name = "stream5"} : (i32) -> i32
      %301 = "equeue.get_comp_field"(%arg2) {name = "ifmap"} : (i32) -> memref<16xi32>
      %302 = "equeue.get_comp_field"(%arg2) {name = "filter"} : (i32) -> memref<8xi32>
      %303 = "equeue.get_comp_field"(%arg2) {name = "ofmap"} : (i32) -> memref<4xi32>
      %304 = "equeue.get_comp_field"(%arg3) {name = "ofmap"} : (i32) -> memref<4xi32>
      %305 = "equeue.read"(%304, %299) {bank = 0 : i64, size = dense<4> : tensor<1xi64>} : (memref<4xi32>, i32) -> tensor<4xi32>
      "equeue.write"(%305, %303) {bank = 0 : i64, size = dense<4> : tensor<1xi64>} : (tensor<4xi32>, memref<4xi32>) -> ()
      %306 = "equeue.unkOp"(%303, %301, %302) {op_name = "mac4"} : (memref<4xi32>, memref<16xi32>, memref<8xi32>) -> memref<4xi32>
      %307 = "equeue.unkOp"(%303, %301, %302) {op_name = "mac4"} : (memref<4xi32>, memref<16xi32>, memref<8xi32>) -> memref<4xi32>
      %308 = "equeue.read"(%arg4, %298) {bank = 0 : i64, size = dense<4> : tensor<1xi64>} : (memref<512xf32>, i32) -> tensor<512xf32>
      "equeue.write"(%308, %301) {bank = 0 : i64, size = dense<4> : tensor<1xi64>} : (tensor<512xf32>, memref<16xi32>) -> ()
      %309 = "equeue.unkOp"(%303, %301, %302) {op_name = "mac4"} : (memref<4xi32>, memref<16xi32>, memref<8xi32>) -> memref<4xi32>
      %310 = "equeue.unkOp"(%303, %301, %302) {op_name = "mac4"} : (memref<4xi32>, memref<16xi32>, memref<8xi32>) -> memref<4xi32>
      %311 = "equeue.read"(%303) {bank = 0 : i64, size = dense<4> : tensor<1xi64>} : (memref<4xi32>) -> tensor<4xi32>
      "equeue.write"(%311, %arg5, %300) {bank = 0 : i64, size = dense<4> : tensor<1xi64>} : (tensor<4xi32>, memref<4xi32>, i32) -> ()
      %312 = "equeue.read"(%304, %299) {bank = 0 : i64, size = dense<4> : tensor<1xi64>} : (memref<4xi32>, i32) -> tensor<4xi32>
      "equeue.write"(%312, %303) {bank = 0 : i64, size = dense<4> : tensor<1xi64>} : (tensor<4xi32>, memref<4xi32>) -> ()
      %313 = "equeue.unkOp"(%303, %301, %302) {op_name = "mac4"} : (memref<4xi32>, memref<16xi32>, memref<8xi32>) -> memref<4xi32>
      %314 = "equeue.unkOp"(%303, %301, %302) {op_name = "mac4"} : (memref<4xi32>, memref<16xi32>, memref<8xi32>) -> memref<4xi32>
      %315 = "equeue.read"(%arg4, %298) {bank = 0 : i64, size = dense<4> : tensor<1xi64>} : (memref<512xf32>, i32) -> tensor<512xf32>
      "equeue.write"(%315, %301) {bank = 0 : i64, size = dense<4> : tensor<1xi64>} : (tensor<512xf32>, memref<16xi32>) -> ()
      %316 = "equeue.unkOp"(%303, %301, %302) {op_name = "mac4"} : (memref<4xi32>, memref<16xi32>, memref<8xi32>) -> memref<4xi32>
      %317 = "equeue.unkOp"(%303, %301, %302) {op_name = "mac4"} : (memref<4xi32>, memref<16xi32>, memref<8xi32>) -> memref<4xi32>
      %318 = "equeue.read"(%303) {bank = 0 : i64, size = dense<4> : tensor<1xi64>} : (memref<4xi32>) -> tensor<4xi32>
      "equeue.write"(%318, %arg5, %300) {bank = 0 : i64, size = dense<4> : tensor<1xi64>} : (tensor<4xi32>, memref<4xi32>, i32) -> ()
      %319 = "equeue.read"(%304, %299) {bank = 0 : i64, size = dense<4> : tensor<1xi64>} : (memref<4xi32>, i32) -> tensor<4xi32>
      "equeue.write"(%319, %303) {bank = 0 : i64, size = dense<4> : tensor<1xi64>} : (tensor<4xi32>, memref<4xi32>) -> ()
      %320 = "equeue.unkOp"(%303, %301, %302) {op_name = "mac4"} : (memref<4xi32>, memref<16xi32>, memref<8xi32>) -> memref<4xi32>
      %321 = "equeue.unkOp"(%303, %301, %302) {op_name = "mac4"} : (memref<4xi32>, memref<16xi32>, memref<8xi32>) -> memref<4xi32>
      %322 = "equeue.read"(%arg4, %298) {bank = 0 : i64, size = dense<4> : tensor<1xi64>} : (memref<512xf32>, i32) -> tensor<512xf32>
      "equeue.write"(%322, %301) {bank = 0 : i64, size = dense<4> : tensor<1xi64>} : (tensor<512xf32>, memref<16xi32>) -> ()
      %323 = "equeue.unkOp"(%303, %301, %302) {op_name = "mac4"} : (memref<4xi32>, memref<16xi32>, memref<8xi32>) -> memref<4xi32>
      %324 = "equeue.unkOp"(%303, %301, %302) {op_name = "mac4"} : (memref<4xi32>, memref<16xi32>, memref<8xi32>) -> memref<4xi32>
      %325 = "equeue.read"(%303) {bank = 0 : i64, size = dense<4> : tensor<1xi64>} : (memref<4xi32>) -> tensor<4xi32>
      "equeue.write"(%325, %arg5, %300) {bank = 0 : i64, size = dense<4> : tensor<1xi64>} : (tensor<4xi32>, memref<4xi32>, i32) -> ()
      %326 = "equeue.read"(%304, %299) {bank = 0 : i64, size = dense<4> : tensor<1xi64>} : (memref<4xi32>, i32) -> tensor<4xi32>
      "equeue.write"(%326, %303) {bank = 0 : i64, size = dense<4> : tensor<1xi64>} : (tensor<4xi32>, memref<4xi32>) -> ()
      %327 = "equeue.unkOp"(%303, %301, %302) {op_name = "mac4"} : (memref<4xi32>, memref<16xi32>, memref<8xi32>) -> memref<4xi32>
      %328 = "equeue.unkOp"(%303, %301, %302) {op_name = "mac4"} : (memref<4xi32>, memref<16xi32>, memref<8xi32>) -> memref<4xi32>
      %329 = "equeue.read"(%arg4, %298) {bank = 0 : i64, size = dense<4> : tensor<1xi64>} : (memref<512xf32>, i32) -> tensor<512xf32>
      "equeue.write"(%329, %301) {bank = 0 : i64, size = dense<4> : tensor<1xi64>} : (tensor<512xf32>, memref<16xi32>) -> ()
      %330 = "equeue.unkOp"(%303, %301, %302) {op_name = "mac4"} : (memref<4xi32>, memref<16xi32>, memref<8xi32>) -> memref<4xi32>
      %331 = "equeue.unkOp"(%303, %301, %302) {op_name = "mac4"} : (memref<4xi32>, memref<16xi32>, memref<8xi32>) -> memref<4xi32>
      %332 = "equeue.read"(%303) {bank = 0 : i64, size = dense<4> : tensor<1xi64>} : (memref<4xi32>) -> tensor<4xi32>
      "equeue.write"(%332, %arg5, %300) {bank = 0 : i64, size = dense<4> : tensor<1xi64>} : (tensor<4xi32>, memref<4xi32>, i32) -> ()
      "equeue.return"() : () -> ()
    }) : (!equeue.signal, i32, i32, i32, i32, memref<512xf32>, memref<4xi32>) -> !equeue.signal
    %79 = "equeue.get_comp_field"(%31) {name = "proc"} : (i32) -> i32
    %80 = "equeue.get_comp_field"(%31) {name = "ofmap"} : (i32) -> memref<4xi32>
    %done_21 = "equeue.launch"(%74, %79, %5, %31, %26, %1, %80) ( {
    ^bb0(%arg1: i32, %arg2: i32, %arg3: i32, %arg4: memref<512xf32>, %arg5: memref<4xi32>):  // no predecessors
      %298 = "equeue.get_comp_field"(%arg1) {name = "stream2"} : (i32) -> i32
      %299 = "equeue.get_comp_field"(%arg1) {name = "stream5"} : (i32) -> i32
      %300 = "equeue.get_comp_field"(%arg1) {name = "stream6"} : (i32) -> i32
      %301 = "equeue.get_comp_field"(%arg2) {name = "ifmap"} : (i32) -> memref<16xi32>
      %302 = "equeue.get_comp_field"(%arg2) {name = "filter"} : (i32) -> memref<8xi32>
      %303 = "equeue.get_comp_field"(%arg2) {name = "ofmap"} : (i32) -> memref<4xi32>
      %304 = "equeue.get_comp_field"(%arg3) {name = "ofmap"} : (i32) -> memref<4xi32>
      %305 = "equeue.read"(%304, %299) {bank = 0 : i64, size = dense<4> : tensor<1xi64>} : (memref<4xi32>, i32) -> tensor<4xi32>
      "equeue.write"(%305, %303) {bank = 0 : i64, size = dense<4> : tensor<1xi64>} : (tensor<4xi32>, memref<4xi32>) -> ()
      %306 = "equeue.unkOp"(%303, %301, %302) {op_name = "mac4"} : (memref<4xi32>, memref<16xi32>, memref<8xi32>) -> memref<4xi32>
      %307 = "equeue.unkOp"(%303, %301, %302) {op_name = "mac4"} : (memref<4xi32>, memref<16xi32>, memref<8xi32>) -> memref<4xi32>
      %308 = "equeue.read"(%arg4, %298) {bank = 0 : i64, size = dense<4> : tensor<1xi64>} : (memref<512xf32>, i32) -> tensor<512xf32>
      "equeue.write"(%308, %301) {bank = 0 : i64, size = dense<4> : tensor<1xi64>} : (tensor<512xf32>, memref<16xi32>) -> ()
      %309 = "equeue.unkOp"(%303, %301, %302) {op_name = "mac4"} : (memref<4xi32>, memref<16xi32>, memref<8xi32>) -> memref<4xi32>
      %310 = "equeue.unkOp"(%303, %301, %302) {op_name = "mac4"} : (memref<4xi32>, memref<16xi32>, memref<8xi32>) -> memref<4xi32>
      %311 = "equeue.read"(%303) {bank = 0 : i64, size = dense<4> : tensor<1xi64>} : (memref<4xi32>) -> tensor<4xi32>
      "equeue.write"(%311, %arg5, %300) {bank = 0 : i64, size = dense<4> : tensor<1xi64>} : (tensor<4xi32>, memref<4xi32>, i32) -> ()
      %312 = "equeue.read"(%304, %299) {bank = 0 : i64, size = dense<4> : tensor<1xi64>} : (memref<4xi32>, i32) -> tensor<4xi32>
      "equeue.write"(%312, %303) {bank = 0 : i64, size = dense<4> : tensor<1xi64>} : (tensor<4xi32>, memref<4xi32>) -> ()
      %313 = "equeue.unkOp"(%303, %301, %302) {op_name = "mac4"} : (memref<4xi32>, memref<16xi32>, memref<8xi32>) -> memref<4xi32>
      %314 = "equeue.unkOp"(%303, %301, %302) {op_name = "mac4"} : (memref<4xi32>, memref<16xi32>, memref<8xi32>) -> memref<4xi32>
      %315 = "equeue.read"(%arg4, %298) {bank = 0 : i64, size = dense<4> : tensor<1xi64>} : (memref<512xf32>, i32) -> tensor<512xf32>
      "equeue.write"(%315, %301) {bank = 0 : i64, size = dense<4> : tensor<1xi64>} : (tensor<512xf32>, memref<16xi32>) -> ()
      %316 = "equeue.unkOp"(%303, %301, %302) {op_name = "mac4"} : (memref<4xi32>, memref<16xi32>, memref<8xi32>) -> memref<4xi32>
      %317 = "equeue.unkOp"(%303, %301, %302) {op_name = "mac4"} : (memref<4xi32>, memref<16xi32>, memref<8xi32>) -> memref<4xi32>
      %318 = "equeue.read"(%303) {bank = 0 : i64, size = dense<4> : tensor<1xi64>} : (memref<4xi32>) -> tensor<4xi32>
      "equeue.write"(%318, %arg5, %300) {bank = 0 : i64, size = dense<4> : tensor<1xi64>} : (tensor<4xi32>, memref<4xi32>, i32) -> ()
      %319 = "equeue.read"(%304, %299) {bank = 0 : i64, size = dense<4> : tensor<1xi64>} : (memref<4xi32>, i32) -> tensor<4xi32>
      "equeue.write"(%319, %303) {bank = 0 : i64, size = dense<4> : tensor<1xi64>} : (tensor<4xi32>, memref<4xi32>) -> ()
      %320 = "equeue.unkOp"(%303, %301, %302) {op_name = "mac4"} : (memref<4xi32>, memref<16xi32>, memref<8xi32>) -> memref<4xi32>
      %321 = "equeue.unkOp"(%303, %301, %302) {op_name = "mac4"} : (memref<4xi32>, memref<16xi32>, memref<8xi32>) -> memref<4xi32>
      %322 = "equeue.read"(%arg4, %298) {bank = 0 : i64, size = dense<4> : tensor<1xi64>} : (memref<512xf32>, i32) -> tensor<512xf32>
      "equeue.write"(%322, %301) {bank = 0 : i64, size = dense<4> : tensor<1xi64>} : (tensor<512xf32>, memref<16xi32>) -> ()
      %323 = "equeue.unkOp"(%303, %301, %302) {op_name = "mac4"} : (memref<4xi32>, memref<16xi32>, memref<8xi32>) -> memref<4xi32>
      %324 = "equeue.unkOp"(%303, %301, %302) {op_name = "mac4"} : (memref<4xi32>, memref<16xi32>, memref<8xi32>) -> memref<4xi32>
      %325 = "equeue.read"(%303) {bank = 0 : i64, size = dense<4> : tensor<1xi64>} : (memref<4xi32>) -> tensor<4xi32>
      "equeue.write"(%325, %arg5, %300) {bank = 0 : i64, size = dense<4> : tensor<1xi64>} : (tensor<4xi32>, memref<4xi32>, i32) -> ()
      %326 = "equeue.read"(%304, %299) {bank = 0 : i64, size = dense<4> : tensor<1xi64>} : (memref<4xi32>, i32) -> tensor<4xi32>
      "equeue.write"(%326, %303) {bank = 0 : i64, size = dense<4> : tensor<1xi64>} : (tensor<4xi32>, memref<4xi32>) -> ()
      %327 = "equeue.unkOp"(%303, %301, %302) {op_name = "mac4"} : (memref<4xi32>, memref<16xi32>, memref<8xi32>) -> memref<4xi32>
      %328 = "equeue.unkOp"(%303, %301, %302) {op_name = "mac4"} : (memref<4xi32>, memref<16xi32>, memref<8xi32>) -> memref<4xi32>
      %329 = "equeue.read"(%arg4, %298) {bank = 0 : i64, size = dense<4> : tensor<1xi64>} : (memref<512xf32>, i32) -> tensor<512xf32>
      "equeue.write"(%329, %301) {bank = 0 : i64, size = dense<4> : tensor<1xi64>} : (tensor<512xf32>, memref<16xi32>) -> ()
      %330 = "equeue.unkOp"(%303, %301, %302) {op_name = "mac4"} : (memref<4xi32>, memref<16xi32>, memref<8xi32>) -> memref<4xi32>
      %331 = "equeue.unkOp"(%303, %301, %302) {op_name = "mac4"} : (memref<4xi32>, memref<16xi32>, memref<8xi32>) -> memref<4xi32>
      %332 = "equeue.read"(%303) {bank = 0 : i64, size = dense<4> : tensor<1xi64>} : (memref<4xi32>) -> tensor<4xi32>
      "equeue.write"(%332, %arg5, %300) {bank = 0 : i64, size = dense<4> : tensor<1xi64>} : (tensor<4xi32>, memref<4xi32>, i32) -> ()
      "equeue.return"() : () -> ()
    }) : (!equeue.signal, i32, i32, i32, i32, memref<512xf32>, memref<4xi32>) -> !equeue.signal
    %81 = "equeue.get_comp_field"(%36) {name = "proc"} : (i32) -> i32
    %done_22 = "equeue.launch"(%74, %81, %5, %36, %31, %1, %3) ( {
    ^bb0(%arg1: i32, %arg2: i32, %arg3: i32, %arg4: memref<512xf32>, %arg5: memref<481xf32>):  // no predecessors
      %298 = "equeue.get_comp_field"(%arg1) {name = "stream3"} : (i32) -> i32
      %299 = "equeue.get_comp_field"(%arg1) {name = "stream6"} : (i32) -> i32
      %300 = "equeue.get_comp_field"(%arg1) {name = "stream7"} : (i32) -> i32
      %301 = "equeue.get_comp_field"(%arg2) {name = "ifmap"} : (i32) -> memref<16xi32>
      %302 = "equeue.get_comp_field"(%arg2) {name = "filter"} : (i32) -> memref<8xi32>
      %303 = "equeue.get_comp_field"(%arg2) {name = "ofmap"} : (i32) -> memref<4xi32>
      %304 = "equeue.get_comp_field"(%arg3) {name = "ofmap"} : (i32) -> memref<4xi32>
      %305 = "equeue.read"(%304, %299) {bank = 0 : i64, size = dense<4> : tensor<1xi64>} : (memref<4xi32>, i32) -> tensor<4xi32>
      "equeue.write"(%305, %303) {bank = 0 : i64, size = dense<4> : tensor<1xi64>} : (tensor<4xi32>, memref<4xi32>) -> ()
      %306 = "equeue.unkOp"(%303, %301, %302) {op_name = "mac4"} : (memref<4xi32>, memref<16xi32>, memref<8xi32>) -> memref<4xi32>
      %307 = "equeue.unkOp"(%303, %301, %302) {op_name = "mac4"} : (memref<4xi32>, memref<16xi32>, memref<8xi32>) -> memref<4xi32>
      %308 = "equeue.read"(%arg4, %298) {bank = 0 : i64, size = dense<4> : tensor<1xi64>} : (memref<512xf32>, i32) -> tensor<512xf32>
      "equeue.write"(%308, %301) {bank = 0 : i64, size = dense<4> : tensor<1xi64>} : (tensor<512xf32>, memref<16xi32>) -> ()
      %309 = "equeue.unkOp"(%303, %301, %302) {op_name = "mac4"} : (memref<4xi32>, memref<16xi32>, memref<8xi32>) -> memref<4xi32>
      %310 = "equeue.unkOp"(%303, %301, %302) {op_name = "mac4"} : (memref<4xi32>, memref<16xi32>, memref<8xi32>) -> memref<4xi32>
      %311 = "equeue.read"(%303) {bank = 0 : i64, size = dense<4> : tensor<1xi64>} : (memref<4xi32>) -> tensor<4xi32>
      "equeue.write"(%311, %arg5, %300) {bank = 0 : i64, size = dense<4> : tensor<1xi64>} : (tensor<4xi32>, memref<481xf32>, i32) -> ()
      %312 = "equeue.read"(%304, %299) {bank = 0 : i64, size = dense<4> : tensor<1xi64>} : (memref<4xi32>, i32) -> tensor<4xi32>
      "equeue.write"(%312, %303) {bank = 0 : i64, size = dense<4> : tensor<1xi64>} : (tensor<4xi32>, memref<4xi32>) -> ()
      %313 = "equeue.unkOp"(%303, %301, %302) {op_name = "mac4"} : (memref<4xi32>, memref<16xi32>, memref<8xi32>) -> memref<4xi32>
      %314 = "equeue.unkOp"(%303, %301, %302) {op_name = "mac4"} : (memref<4xi32>, memref<16xi32>, memref<8xi32>) -> memref<4xi32>
      %315 = "equeue.read"(%arg4, %298) {bank = 0 : i64, size = dense<4> : tensor<1xi64>} : (memref<512xf32>, i32) -> tensor<512xf32>
      "equeue.write"(%315, %301) {bank = 0 : i64, size = dense<4> : tensor<1xi64>} : (tensor<512xf32>, memref<16xi32>) -> ()
      %316 = "equeue.unkOp"(%303, %301, %302) {op_name = "mac4"} : (memref<4xi32>, memref<16xi32>, memref<8xi32>) -> memref<4xi32>
      %317 = "equeue.unkOp"(%303, %301, %302) {op_name = "mac4"} : (memref<4xi32>, memref<16xi32>, memref<8xi32>) -> memref<4xi32>
      %318 = "equeue.read"(%303) {bank = 0 : i64, size = dense<4> : tensor<1xi64>} : (memref<4xi32>) -> tensor<4xi32>
      "equeue.write"(%318, %arg5, %300) {bank = 0 : i64, size = dense<4> : tensor<1xi64>} : (tensor<4xi32>, memref<481xf32>, i32) -> ()
      %319 = "equeue.read"(%304, %299) {bank = 0 : i64, size = dense<4> : tensor<1xi64>} : (memref<4xi32>, i32) -> tensor<4xi32>
      "equeue.write"(%319, %303) {bank = 0 : i64, size = dense<4> : tensor<1xi64>} : (tensor<4xi32>, memref<4xi32>) -> ()
      %320 = "equeue.unkOp"(%303, %301, %302) {op_name = "mac4"} : (memref<4xi32>, memref<16xi32>, memref<8xi32>) -> memref<4xi32>
      %321 = "equeue.unkOp"(%303, %301, %302) {op_name = "mac4"} : (memref<4xi32>, memref<16xi32>, memref<8xi32>) -> memref<4xi32>
      %322 = "equeue.read"(%arg4, %298) {bank = 0 : i64, size = dense<4> : tensor<1xi64>} : (memref<512xf32>, i32) -> tensor<512xf32>
      "equeue.write"(%322, %301) {bank = 0 : i64, size = dense<4> : tensor<1xi64>} : (tensor<512xf32>, memref<16xi32>) -> ()
      %323 = "equeue.unkOp"(%303, %301, %302) {op_name = "mac4"} : (memref<4xi32>, memref<16xi32>, memref<8xi32>) -> memref<4xi32>
      %324 = "equeue.unkOp"(%303, %301, %302) {op_name = "mac4"} : (memref<4xi32>, memref<16xi32>, memref<8xi32>) -> memref<4xi32>
      %325 = "equeue.read"(%303) {bank = 0 : i64, size = dense<4> : tensor<1xi64>} : (memref<4xi32>) -> tensor<4xi32>
      "equeue.write"(%325, %arg5, %300) {bank = 0 : i64, size = dense<4> : tensor<1xi64>} : (tensor<4xi32>, memref<481xf32>, i32) -> ()
      %326 = "equeue.read"(%304, %299) {bank = 0 : i64, size = dense<4> : tensor<1xi64>} : (memref<4xi32>, i32) -> tensor<4xi32>
      "equeue.write"(%326, %303) {bank = 0 : i64, size = dense<4> : tensor<1xi64>} : (tensor<4xi32>, memref<4xi32>) -> ()
      %327 = "equeue.unkOp"(%303, %301, %302) {op_name = "mac4"} : (memref<4xi32>, memref<16xi32>, memref<8xi32>) -> memref<4xi32>
      %328 = "equeue.unkOp"(%303, %301, %302) {op_name = "mac4"} : (memref<4xi32>, memref<16xi32>, memref<8xi32>) -> memref<4xi32>
      %329 = "equeue.read"(%arg4, %298) {bank = 0 : i64, size = dense<4> : tensor<1xi64>} : (memref<512xf32>, i32) -> tensor<512xf32>
      "equeue.write"(%329, %301) {bank = 0 : i64, size = dense<4> : tensor<1xi64>} : (tensor<512xf32>, memref<16xi32>) -> ()
      %330 = "equeue.unkOp"(%303, %301, %302) {op_name = "mac4"} : (memref<4xi32>, memref<16xi32>, memref<8xi32>) -> memref<4xi32>
      %331 = "equeue.unkOp"(%303, %301, %302) {op_name = "mac4"} : (memref<4xi32>, memref<16xi32>, memref<8xi32>) -> memref<4xi32>
      %332 = "equeue.read"(%303) {bank = 0 : i64, size = dense<4> : tensor<1xi64>} : (memref<4xi32>) -> tensor<4xi32>
      "equeue.write"(%332, %arg5, %300) {bank = 0 : i64, size = dense<4> : tensor<1xi64>} : (tensor<4xi32>, memref<481xf32>, i32) -> ()
      "equeue.return"() : () -> ()
    }) : (!equeue.signal, i32, i32, i32, i32, memref<512xf32>, memref<481xf32>) -> !equeue.signal
    %82 = "equeue.control_start"() : () -> !equeue.signal
    %83 = "equeue.get_comp_field"(%21) {name = "proc"} : (i32) -> i32
    %84 = "equeue.get_comp_field"(%21) {name = "ofmap"} : (i32) -> memref<4xi32>
    %done_23 = "equeue.launch"(%82, %83, %5, %21, %1, %84) ( {
    ^bb0(%arg1: i32, %arg2: i32, %arg3: memref<512xf32>, %arg4: memref<4xi32>):  // no predecessors
      %298 = "equeue.get_comp_field"(%arg1) {name = "stream0"} : (i32) -> i32
      %299 = "equeue.get_comp_field"(%arg1) {name = "stream4"} : (i32) -> i32
      %300 = "equeue.get_comp_field"(%arg2) {name = "ifmap"} : (i32) -> memref<16xi32>
      %301 = "equeue.get_comp_field"(%arg2) {name = "filter"} : (i32) -> memref<8xi32>
      %302 = "equeue.get_comp_field"(%arg2) {name = "ofmap"} : (i32) -> memref<4xi32>
      %303 = "equeue.unkOp"(%302, %300, %301) {op_name = "mul4"} : (memref<4xi32>, memref<16xi32>, memref<8xi32>) -> memref<4xi32>
      %304 = "equeue.unkOp"(%302, %300, %301) {op_name = "mac4"} : (memref<4xi32>, memref<16xi32>, memref<8xi32>) -> memref<4xi32>
      %305 = "equeue.read"(%arg3, %298) {bank = 0 : i64, size = dense<4> : tensor<1xi64>} : (memref<512xf32>, i32) -> tensor<512xf32>
      "equeue.write"(%305, %300) {bank = 0 : i64, size = dense<4> : tensor<1xi64>} : (tensor<512xf32>, memref<16xi32>) -> ()
      %306 = "equeue.unkOp"(%302, %300, %301) {op_name = "mac4"} : (memref<4xi32>, memref<16xi32>, memref<8xi32>) -> memref<4xi32>
      %307 = "equeue.unkOp"(%302, %300, %301) {op_name = "mac4"} : (memref<4xi32>, memref<16xi32>, memref<8xi32>) -> memref<4xi32>
      %308 = "equeue.read"(%302) {bank = 0 : i64, size = dense<4> : tensor<1xi64>} : (memref<4xi32>) -> tensor<4xi32>
      "equeue.write"(%308, %arg4, %299) {bank = 0 : i64, size = dense<4> : tensor<1xi64>} : (tensor<4xi32>, memref<4xi32>, i32) -> ()
      %309 = "equeue.unkOp"(%302, %300, %301) {op_name = "mul4"} : (memref<4xi32>, memref<16xi32>, memref<8xi32>) -> memref<4xi32>
      %310 = "equeue.unkOp"(%302, %300, %301) {op_name = "mac4"} : (memref<4xi32>, memref<16xi32>, memref<8xi32>) -> memref<4xi32>
      %311 = "equeue.read"(%arg3, %298) {bank = 0 : i64, size = dense<4> : tensor<1xi64>} : (memref<512xf32>, i32) -> tensor<512xf32>
      "equeue.write"(%311, %300) {bank = 0 : i64, size = dense<4> : tensor<1xi64>} : (tensor<512xf32>, memref<16xi32>) -> ()
      %312 = "equeue.unkOp"(%302, %300, %301) {op_name = "mac4"} : (memref<4xi32>, memref<16xi32>, memref<8xi32>) -> memref<4xi32>
      %313 = "equeue.unkOp"(%302, %300, %301) {op_name = "mac4"} : (memref<4xi32>, memref<16xi32>, memref<8xi32>) -> memref<4xi32>
      %314 = "equeue.read"(%302) {bank = 0 : i64, size = dense<4> : tensor<1xi64>} : (memref<4xi32>) -> tensor<4xi32>
      "equeue.write"(%314, %arg4, %299) {bank = 0 : i64, size = dense<4> : tensor<1xi64>} : (tensor<4xi32>, memref<4xi32>, i32) -> ()
      %315 = "equeue.unkOp"(%302, %300, %301) {op_name = "mul4"} : (memref<4xi32>, memref<16xi32>, memref<8xi32>) -> memref<4xi32>
      %316 = "equeue.unkOp"(%302, %300, %301) {op_name = "mac4"} : (memref<4xi32>, memref<16xi32>, memref<8xi32>) -> memref<4xi32>
      %317 = "equeue.read"(%arg3, %298) {bank = 0 : i64, size = dense<4> : tensor<1xi64>} : (memref<512xf32>, i32) -> tensor<512xf32>
      "equeue.write"(%317, %300) {bank = 0 : i64, size = dense<4> : tensor<1xi64>} : (tensor<512xf32>, memref<16xi32>) -> ()
      %318 = "equeue.unkOp"(%302, %300, %301) {op_name = "mac4"} : (memref<4xi32>, memref<16xi32>, memref<8xi32>) -> memref<4xi32>
      %319 = "equeue.unkOp"(%302, %300, %301) {op_name = "mac4"} : (memref<4xi32>, memref<16xi32>, memref<8xi32>) -> memref<4xi32>
      %320 = "equeue.read"(%302) {bank = 0 : i64, size = dense<4> : tensor<1xi64>} : (memref<4xi32>) -> tensor<4xi32>
      "equeue.write"(%320, %arg4, %299) {bank = 0 : i64, size = dense<4> : tensor<1xi64>} : (tensor<4xi32>, memref<4xi32>, i32) -> ()
      %321 = "equeue.unkOp"(%302, %300, %301) {op_name = "mul4"} : (memref<4xi32>, memref<16xi32>, memref<8xi32>) -> memref<4xi32>
      %322 = "equeue.unkOp"(%302, %300, %301) {op_name = "mac4"} : (memref<4xi32>, memref<16xi32>, memref<8xi32>) -> memref<4xi32>
      %323 = "equeue.read"(%arg3, %298) {bank = 0 : i64, size = dense<4> : tensor<1xi64>} : (memref<512xf32>, i32) -> tensor<512xf32>
      "equeue.write"(%323, %300) {bank = 0 : i64, size = dense<4> : tensor<1xi64>} : (tensor<512xf32>, memref<16xi32>) -> ()
      %324 = "equeue.unkOp"(%302, %300, %301) {op_name = "mac4"} : (memref<4xi32>, memref<16xi32>, memref<8xi32>) -> memref<4xi32>
      %325 = "equeue.unkOp"(%302, %300, %301) {op_name = "mac4"} : (memref<4xi32>, memref<16xi32>, memref<8xi32>) -> memref<4xi32>
      %326 = "equeue.read"(%302) {bank = 0 : i64, size = dense<4> : tensor<1xi64>} : (memref<4xi32>) -> tensor<4xi32>
      "equeue.write"(%326, %arg4, %299) {bank = 0 : i64, size = dense<4> : tensor<1xi64>} : (tensor<4xi32>, memref<4xi32>, i32) -> ()
      "equeue.return"() : () -> ()
    }) : (!equeue.signal, i32, i32, i32, memref<512xf32>, memref<4xi32>) -> !equeue.signal
    %85 = "equeue.get_comp_field"(%26) {name = "proc"} : (i32) -> i32
    %86 = "equeue.get_comp_field"(%26) {name = "ofmap"} : (i32) -> memref<4xi32>
    %done_24 = "equeue.launch"(%82, %85, %5, %26, %21, %1, %86) ( {
    ^bb0(%arg1: i32, %arg2: i32, %arg3: i32, %arg4: memref<512xf32>, %arg5: memref<4xi32>):  // no predecessors
      %298 = "equeue.get_comp_field"(%arg1) {name = "stream1"} : (i32) -> i32
      %299 = "equeue.get_comp_field"(%arg1) {name = "stream4"} : (i32) -> i32
      %300 = "equeue.get_comp_field"(%arg1) {name = "stream5"} : (i32) -> i32
      %301 = "equeue.get_comp_field"(%arg2) {name = "ifmap"} : (i32) -> memref<16xi32>
      %302 = "equeue.get_comp_field"(%arg2) {name = "filter"} : (i32) -> memref<8xi32>
      %303 = "equeue.get_comp_field"(%arg2) {name = "ofmap"} : (i32) -> memref<4xi32>
      %304 = "equeue.get_comp_field"(%arg3) {name = "ofmap"} : (i32) -> memref<4xi32>
      %305 = "equeue.read"(%304, %299) {bank = 0 : i64, size = dense<4> : tensor<1xi64>} : (memref<4xi32>, i32) -> tensor<4xi32>
      "equeue.write"(%305, %303) {bank = 0 : i64, size = dense<4> : tensor<1xi64>} : (tensor<4xi32>, memref<4xi32>) -> ()
      %306 = "equeue.unkOp"(%303, %301, %302) {op_name = "mac4"} : (memref<4xi32>, memref<16xi32>, memref<8xi32>) -> memref<4xi32>
      %307 = "equeue.unkOp"(%303, %301, %302) {op_name = "mac4"} : (memref<4xi32>, memref<16xi32>, memref<8xi32>) -> memref<4xi32>
      %308 = "equeue.read"(%arg4, %298) {bank = 0 : i64, size = dense<4> : tensor<1xi64>} : (memref<512xf32>, i32) -> tensor<512xf32>
      "equeue.write"(%308, %301) {bank = 0 : i64, size = dense<4> : tensor<1xi64>} : (tensor<512xf32>, memref<16xi32>) -> ()
      %309 = "equeue.unkOp"(%303, %301, %302) {op_name = "mac4"} : (memref<4xi32>, memref<16xi32>, memref<8xi32>) -> memref<4xi32>
      %310 = "equeue.unkOp"(%303, %301, %302) {op_name = "mac4"} : (memref<4xi32>, memref<16xi32>, memref<8xi32>) -> memref<4xi32>
      %311 = "equeue.read"(%303) {bank = 0 : i64, size = dense<4> : tensor<1xi64>} : (memref<4xi32>) -> tensor<4xi32>
      "equeue.write"(%311, %arg5, %300) {bank = 0 : i64, size = dense<4> : tensor<1xi64>} : (tensor<4xi32>, memref<4xi32>, i32) -> ()
      %312 = "equeue.read"(%304, %299) {bank = 0 : i64, size = dense<4> : tensor<1xi64>} : (memref<4xi32>, i32) -> tensor<4xi32>
      "equeue.write"(%312, %303) {bank = 0 : i64, size = dense<4> : tensor<1xi64>} : (tensor<4xi32>, memref<4xi32>) -> ()
      %313 = "equeue.unkOp"(%303, %301, %302) {op_name = "mac4"} : (memref<4xi32>, memref<16xi32>, memref<8xi32>) -> memref<4xi32>
      %314 = "equeue.unkOp"(%303, %301, %302) {op_name = "mac4"} : (memref<4xi32>, memref<16xi32>, memref<8xi32>) -> memref<4xi32>
      %315 = "equeue.read"(%arg4, %298) {bank = 0 : i64, size = dense<4> : tensor<1xi64>} : (memref<512xf32>, i32) -> tensor<512xf32>
      "equeue.write"(%315, %301) {bank = 0 : i64, size = dense<4> : tensor<1xi64>} : (tensor<512xf32>, memref<16xi32>) -> ()
      %316 = "equeue.unkOp"(%303, %301, %302) {op_name = "mac4"} : (memref<4xi32>, memref<16xi32>, memref<8xi32>) -> memref<4xi32>
      %317 = "equeue.unkOp"(%303, %301, %302) {op_name = "mac4"} : (memref<4xi32>, memref<16xi32>, memref<8xi32>) -> memref<4xi32>
      %318 = "equeue.read"(%303) {bank = 0 : i64, size = dense<4> : tensor<1xi64>} : (memref<4xi32>) -> tensor<4xi32>
      "equeue.write"(%318, %arg5, %300) {bank = 0 : i64, size = dense<4> : tensor<1xi64>} : (tensor<4xi32>, memref<4xi32>, i32) -> ()
      %319 = "equeue.read"(%304, %299) {bank = 0 : i64, size = dense<4> : tensor<1xi64>} : (memref<4xi32>, i32) -> tensor<4xi32>
      "equeue.write"(%319, %303) {bank = 0 : i64, size = dense<4> : tensor<1xi64>} : (tensor<4xi32>, memref<4xi32>) -> ()
      %320 = "equeue.unkOp"(%303, %301, %302) {op_name = "mac4"} : (memref<4xi32>, memref<16xi32>, memref<8xi32>) -> memref<4xi32>
      %321 = "equeue.unkOp"(%303, %301, %302) {op_name = "mac4"} : (memref<4xi32>, memref<16xi32>, memref<8xi32>) -> memref<4xi32>
      %322 = "equeue.read"(%arg4, %298) {bank = 0 : i64, size = dense<4> : tensor<1xi64>} : (memref<512xf32>, i32) -> tensor<512xf32>
      "equeue.write"(%322, %301) {bank = 0 : i64, size = dense<4> : tensor<1xi64>} : (tensor<512xf32>, memref<16xi32>) -> ()
      %323 = "equeue.unkOp"(%303, %301, %302) {op_name = "mac4"} : (memref<4xi32>, memref<16xi32>, memref<8xi32>) -> memref<4xi32>
      %324 = "equeue.unkOp"(%303, %301, %302) {op_name = "mac4"} : (memref<4xi32>, memref<16xi32>, memref<8xi32>) -> memref<4xi32>
      %325 = "equeue.read"(%303) {bank = 0 : i64, size = dense<4> : tensor<1xi64>} : (memref<4xi32>) -> tensor<4xi32>
      "equeue.write"(%325, %arg5, %300) {bank = 0 : i64, size = dense<4> : tensor<1xi64>} : (tensor<4xi32>, memref<4xi32>, i32) -> ()
      %326 = "equeue.read"(%304, %299) {bank = 0 : i64, size = dense<4> : tensor<1xi64>} : (memref<4xi32>, i32) -> tensor<4xi32>
      "equeue.write"(%326, %303) {bank = 0 : i64, size = dense<4> : tensor<1xi64>} : (tensor<4xi32>, memref<4xi32>) -> ()
      %327 = "equeue.unkOp"(%303, %301, %302) {op_name = "mac4"} : (memref<4xi32>, memref<16xi32>, memref<8xi32>) -> memref<4xi32>
      %328 = "equeue.unkOp"(%303, %301, %302) {op_name = "mac4"} : (memref<4xi32>, memref<16xi32>, memref<8xi32>) -> memref<4xi32>
      %329 = "equeue.read"(%arg4, %298) {bank = 0 : i64, size = dense<4> : tensor<1xi64>} : (memref<512xf32>, i32) -> tensor<512xf32>
      "equeue.write"(%329, %301) {bank = 0 : i64, size = dense<4> : tensor<1xi64>} : (tensor<512xf32>, memref<16xi32>) -> ()
      %330 = "equeue.unkOp"(%303, %301, %302) {op_name = "mac4"} : (memref<4xi32>, memref<16xi32>, memref<8xi32>) -> memref<4xi32>
      %331 = "equeue.unkOp"(%303, %301, %302) {op_name = "mac4"} : (memref<4xi32>, memref<16xi32>, memref<8xi32>) -> memref<4xi32>
      %332 = "equeue.read"(%303) {bank = 0 : i64, size = dense<4> : tensor<1xi64>} : (memref<4xi32>) -> tensor<4xi32>
      "equeue.write"(%332, %arg5, %300) {bank = 0 : i64, size = dense<4> : tensor<1xi64>} : (tensor<4xi32>, memref<4xi32>, i32) -> ()
      "equeue.return"() : () -> ()
    }) : (!equeue.signal, i32, i32, i32, i32, memref<512xf32>, memref<4xi32>) -> !equeue.signal
    %87 = "equeue.get_comp_field"(%31) {name = "proc"} : (i32) -> i32
    %88 = "equeue.get_comp_field"(%31) {name = "ofmap"} : (i32) -> memref<4xi32>
    %done_25 = "equeue.launch"(%82, %87, %5, %31, %26, %1, %88) ( {
    ^bb0(%arg1: i32, %arg2: i32, %arg3: i32, %arg4: memref<512xf32>, %arg5: memref<4xi32>):  // no predecessors
      %298 = "equeue.get_comp_field"(%arg1) {name = "stream2"} : (i32) -> i32
      %299 = "equeue.get_comp_field"(%arg1) {name = "stream5"} : (i32) -> i32
      %300 = "equeue.get_comp_field"(%arg1) {name = "stream6"} : (i32) -> i32
      %301 = "equeue.get_comp_field"(%arg2) {name = "ifmap"} : (i32) -> memref<16xi32>
      %302 = "equeue.get_comp_field"(%arg2) {name = "filter"} : (i32) -> memref<8xi32>
      %303 = "equeue.get_comp_field"(%arg2) {name = "ofmap"} : (i32) -> memref<4xi32>
      %304 = "equeue.get_comp_field"(%arg3) {name = "ofmap"} : (i32) -> memref<4xi32>
      %305 = "equeue.read"(%304, %299) {bank = 0 : i64, size = dense<4> : tensor<1xi64>} : (memref<4xi32>, i32) -> tensor<4xi32>
      "equeue.write"(%305, %303) {bank = 0 : i64, size = dense<4> : tensor<1xi64>} : (tensor<4xi32>, memref<4xi32>) -> ()
      %306 = "equeue.unkOp"(%303, %301, %302) {op_name = "mac4"} : (memref<4xi32>, memref<16xi32>, memref<8xi32>) -> memref<4xi32>
      %307 = "equeue.unkOp"(%303, %301, %302) {op_name = "mac4"} : (memref<4xi32>, memref<16xi32>, memref<8xi32>) -> memref<4xi32>
      %308 = "equeue.read"(%arg4, %298) {bank = 0 : i64, size = dense<4> : tensor<1xi64>} : (memref<512xf32>, i32) -> tensor<512xf32>
      "equeue.write"(%308, %301) {bank = 0 : i64, size = dense<4> : tensor<1xi64>} : (tensor<512xf32>, memref<16xi32>) -> ()
      %309 = "equeue.unkOp"(%303, %301, %302) {op_name = "mac4"} : (memref<4xi32>, memref<16xi32>, memref<8xi32>) -> memref<4xi32>
      %310 = "equeue.unkOp"(%303, %301, %302) {op_name = "mac4"} : (memref<4xi32>, memref<16xi32>, memref<8xi32>) -> memref<4xi32>
      %311 = "equeue.read"(%303) {bank = 0 : i64, size = dense<4> : tensor<1xi64>} : (memref<4xi32>) -> tensor<4xi32>
      "equeue.write"(%311, %arg5, %300) {bank = 0 : i64, size = dense<4> : tensor<1xi64>} : (tensor<4xi32>, memref<4xi32>, i32) -> ()
      %312 = "equeue.read"(%304, %299) {bank = 0 : i64, size = dense<4> : tensor<1xi64>} : (memref<4xi32>, i32) -> tensor<4xi32>
      "equeue.write"(%312, %303) {bank = 0 : i64, size = dense<4> : tensor<1xi64>} : (tensor<4xi32>, memref<4xi32>) -> ()
      %313 = "equeue.unkOp"(%303, %301, %302) {op_name = "mac4"} : (memref<4xi32>, memref<16xi32>, memref<8xi32>) -> memref<4xi32>
      %314 = "equeue.unkOp"(%303, %301, %302) {op_name = "mac4"} : (memref<4xi32>, memref<16xi32>, memref<8xi32>) -> memref<4xi32>
      %315 = "equeue.read"(%arg4, %298) {bank = 0 : i64, size = dense<4> : tensor<1xi64>} : (memref<512xf32>, i32) -> tensor<512xf32>
      "equeue.write"(%315, %301) {bank = 0 : i64, size = dense<4> : tensor<1xi64>} : (tensor<512xf32>, memref<16xi32>) -> ()
      %316 = "equeue.unkOp"(%303, %301, %302) {op_name = "mac4"} : (memref<4xi32>, memref<16xi32>, memref<8xi32>) -> memref<4xi32>
      %317 = "equeue.unkOp"(%303, %301, %302) {op_name = "mac4"} : (memref<4xi32>, memref<16xi32>, memref<8xi32>) -> memref<4xi32>
      %318 = "equeue.read"(%303) {bank = 0 : i64, size = dense<4> : tensor<1xi64>} : (memref<4xi32>) -> tensor<4xi32>
      "equeue.write"(%318, %arg5, %300) {bank = 0 : i64, size = dense<4> : tensor<1xi64>} : (tensor<4xi32>, memref<4xi32>, i32) -> ()
      %319 = "equeue.read"(%304, %299) {bank = 0 : i64, size = dense<4> : tensor<1xi64>} : (memref<4xi32>, i32) -> tensor<4xi32>
      "equeue.write"(%319, %303) {bank = 0 : i64, size = dense<4> : tensor<1xi64>} : (tensor<4xi32>, memref<4xi32>) -> ()
      %320 = "equeue.unkOp"(%303, %301, %302) {op_name = "mac4"} : (memref<4xi32>, memref<16xi32>, memref<8xi32>) -> memref<4xi32>
      %321 = "equeue.unkOp"(%303, %301, %302) {op_name = "mac4"} : (memref<4xi32>, memref<16xi32>, memref<8xi32>) -> memref<4xi32>
      %322 = "equeue.read"(%arg4, %298) {bank = 0 : i64, size = dense<4> : tensor<1xi64>} : (memref<512xf32>, i32) -> tensor<512xf32>
      "equeue.write"(%322, %301) {bank = 0 : i64, size = dense<4> : tensor<1xi64>} : (tensor<512xf32>, memref<16xi32>) -> ()
      %323 = "equeue.unkOp"(%303, %301, %302) {op_name = "mac4"} : (memref<4xi32>, memref<16xi32>, memref<8xi32>) -> memref<4xi32>
      %324 = "equeue.unkOp"(%303, %301, %302) {op_name = "mac4"} : (memref<4xi32>, memref<16xi32>, memref<8xi32>) -> memref<4xi32>
      %325 = "equeue.read"(%303) {bank = 0 : i64, size = dense<4> : tensor<1xi64>} : (memref<4xi32>) -> tensor<4xi32>
      "equeue.write"(%325, %arg5, %300) {bank = 0 : i64, size = dense<4> : tensor<1xi64>} : (tensor<4xi32>, memref<4xi32>, i32) -> ()
      %326 = "equeue.read"(%304, %299) {bank = 0 : i64, size = dense<4> : tensor<1xi64>} : (memref<4xi32>, i32) -> tensor<4xi32>
      "equeue.write"(%326, %303) {bank = 0 : i64, size = dense<4> : tensor<1xi64>} : (tensor<4xi32>, memref<4xi32>) -> ()
      %327 = "equeue.unkOp"(%303, %301, %302) {op_name = "mac4"} : (memref<4xi32>, memref<16xi32>, memref<8xi32>) -> memref<4xi32>
      %328 = "equeue.unkOp"(%303, %301, %302) {op_name = "mac4"} : (memref<4xi32>, memref<16xi32>, memref<8xi32>) -> memref<4xi32>
      %329 = "equeue.read"(%arg4, %298) {bank = 0 : i64, size = dense<4> : tensor<1xi64>} : (memref<512xf32>, i32) -> tensor<512xf32>
      "equeue.write"(%329, %301) {bank = 0 : i64, size = dense<4> : tensor<1xi64>} : (tensor<512xf32>, memref<16xi32>) -> ()
      %330 = "equeue.unkOp"(%303, %301, %302) {op_name = "mac4"} : (memref<4xi32>, memref<16xi32>, memref<8xi32>) -> memref<4xi32>
      %331 = "equeue.unkOp"(%303, %301, %302) {op_name = "mac4"} : (memref<4xi32>, memref<16xi32>, memref<8xi32>) -> memref<4xi32>
      %332 = "equeue.read"(%303) {bank = 0 : i64, size = dense<4> : tensor<1xi64>} : (memref<4xi32>) -> tensor<4xi32>
      "equeue.write"(%332, %arg5, %300) {bank = 0 : i64, size = dense<4> : tensor<1xi64>} : (tensor<4xi32>, memref<4xi32>, i32) -> ()
      "equeue.return"() : () -> ()
    }) : (!equeue.signal, i32, i32, i32, i32, memref<512xf32>, memref<4xi32>) -> !equeue.signal
    %89 = "equeue.get_comp_field"(%36) {name = "proc"} : (i32) -> i32
    %done_26 = "equeue.launch"(%82, %89, %5, %36, %31, %1, %3) ( {
    ^bb0(%arg1: i32, %arg2: i32, %arg3: i32, %arg4: memref<512xf32>, %arg5: memref<481xf32>):  // no predecessors
      %298 = "equeue.get_comp_field"(%arg1) {name = "stream3"} : (i32) -> i32
      %299 = "equeue.get_comp_field"(%arg1) {name = "stream6"} : (i32) -> i32
      %300 = "equeue.get_comp_field"(%arg1) {name = "stream7"} : (i32) -> i32
      %301 = "equeue.get_comp_field"(%arg2) {name = "ifmap"} : (i32) -> memref<16xi32>
      %302 = "equeue.get_comp_field"(%arg2) {name = "filter"} : (i32) -> memref<8xi32>
      %303 = "equeue.get_comp_field"(%arg2) {name = "ofmap"} : (i32) -> memref<4xi32>
      %304 = "equeue.get_comp_field"(%arg3) {name = "ofmap"} : (i32) -> memref<4xi32>
      %305 = "equeue.read"(%304, %299) {bank = 0 : i64, size = dense<4> : tensor<1xi64>} : (memref<4xi32>, i32) -> tensor<4xi32>
      "equeue.write"(%305, %303) {bank = 0 : i64, size = dense<4> : tensor<1xi64>} : (tensor<4xi32>, memref<4xi32>) -> ()
      %306 = "equeue.unkOp"(%303, %301, %302) {op_name = "mac4"} : (memref<4xi32>, memref<16xi32>, memref<8xi32>) -> memref<4xi32>
      %307 = "equeue.unkOp"(%303, %301, %302) {op_name = "mac4"} : (memref<4xi32>, memref<16xi32>, memref<8xi32>) -> memref<4xi32>
      %308 = "equeue.read"(%arg4, %298) {bank = 0 : i64, size = dense<4> : tensor<1xi64>} : (memref<512xf32>, i32) -> tensor<512xf32>
      "equeue.write"(%308, %301) {bank = 0 : i64, size = dense<4> : tensor<1xi64>} : (tensor<512xf32>, memref<16xi32>) -> ()
      %309 = "equeue.unkOp"(%303, %301, %302) {op_name = "mac4"} : (memref<4xi32>, memref<16xi32>, memref<8xi32>) -> memref<4xi32>
      %310 = "equeue.unkOp"(%303, %301, %302) {op_name = "mac4"} : (memref<4xi32>, memref<16xi32>, memref<8xi32>) -> memref<4xi32>
      %311 = "equeue.read"(%303) {bank = 0 : i64, size = dense<4> : tensor<1xi64>} : (memref<4xi32>) -> tensor<4xi32>
      "equeue.write"(%311, %arg5, %300) {bank = 0 : i64, size = dense<4> : tensor<1xi64>} : (tensor<4xi32>, memref<481xf32>, i32) -> ()
      %312 = "equeue.read"(%304, %299) {bank = 0 : i64, size = dense<4> : tensor<1xi64>} : (memref<4xi32>, i32) -> tensor<4xi32>
      "equeue.write"(%312, %303) {bank = 0 : i64, size = dense<4> : tensor<1xi64>} : (tensor<4xi32>, memref<4xi32>) -> ()
      %313 = "equeue.unkOp"(%303, %301, %302) {op_name = "mac4"} : (memref<4xi32>, memref<16xi32>, memref<8xi32>) -> memref<4xi32>
      %314 = "equeue.unkOp"(%303, %301, %302) {op_name = "mac4"} : (memref<4xi32>, memref<16xi32>, memref<8xi32>) -> memref<4xi32>
      %315 = "equeue.read"(%arg4, %298) {bank = 0 : i64, size = dense<4> : tensor<1xi64>} : (memref<512xf32>, i32) -> tensor<512xf32>
      "equeue.write"(%315, %301) {bank = 0 : i64, size = dense<4> : tensor<1xi64>} : (tensor<512xf32>, memref<16xi32>) -> ()
      %316 = "equeue.unkOp"(%303, %301, %302) {op_name = "mac4"} : (memref<4xi32>, memref<16xi32>, memref<8xi32>) -> memref<4xi32>
      %317 = "equeue.unkOp"(%303, %301, %302) {op_name = "mac4"} : (memref<4xi32>, memref<16xi32>, memref<8xi32>) -> memref<4xi32>
      %318 = "equeue.read"(%303) {bank = 0 : i64, size = dense<4> : tensor<1xi64>} : (memref<4xi32>) -> tensor<4xi32>
      "equeue.write"(%318, %arg5, %300) {bank = 0 : i64, size = dense<4> : tensor<1xi64>} : (tensor<4xi32>, memref<481xf32>, i32) -> ()
      %319 = "equeue.read"(%304, %299) {bank = 0 : i64, size = dense<4> : tensor<1xi64>} : (memref<4xi32>, i32) -> tensor<4xi32>
      "equeue.write"(%319, %303) {bank = 0 : i64, size = dense<4> : tensor<1xi64>} : (tensor<4xi32>, memref<4xi32>) -> ()
      %320 = "equeue.unkOp"(%303, %301, %302) {op_name = "mac4"} : (memref<4xi32>, memref<16xi32>, memref<8xi32>) -> memref<4xi32>
      %321 = "equeue.unkOp"(%303, %301, %302) {op_name = "mac4"} : (memref<4xi32>, memref<16xi32>, memref<8xi32>) -> memref<4xi32>
      %322 = "equeue.read"(%arg4, %298) {bank = 0 : i64, size = dense<4> : tensor<1xi64>} : (memref<512xf32>, i32) -> tensor<512xf32>
      "equeue.write"(%322, %301) {bank = 0 : i64, size = dense<4> : tensor<1xi64>} : (tensor<512xf32>, memref<16xi32>) -> ()
      %323 = "equeue.unkOp"(%303, %301, %302) {op_name = "mac4"} : (memref<4xi32>, memref<16xi32>, memref<8xi32>) -> memref<4xi32>
      %324 = "equeue.unkOp"(%303, %301, %302) {op_name = "mac4"} : (memref<4xi32>, memref<16xi32>, memref<8xi32>) -> memref<4xi32>
      %325 = "equeue.read"(%303) {bank = 0 : i64, size = dense<4> : tensor<1xi64>} : (memref<4xi32>) -> tensor<4xi32>
      "equeue.write"(%325, %arg5, %300) {bank = 0 : i64, size = dense<4> : tensor<1xi64>} : (tensor<4xi32>, memref<481xf32>, i32) -> ()
      %326 = "equeue.read"(%304, %299) {bank = 0 : i64, size = dense<4> : tensor<1xi64>} : (memref<4xi32>, i32) -> tensor<4xi32>
      "equeue.write"(%326, %303) {bank = 0 : i64, size = dense<4> : tensor<1xi64>} : (tensor<4xi32>, memref<4xi32>) -> ()
      %327 = "equeue.unkOp"(%303, %301, %302) {op_name = "mac4"} : (memref<4xi32>, memref<16xi32>, memref<8xi32>) -> memref<4xi32>
      %328 = "equeue.unkOp"(%303, %301, %302) {op_name = "mac4"} : (memref<4xi32>, memref<16xi32>, memref<8xi32>) -> memref<4xi32>
      %329 = "equeue.read"(%arg4, %298) {bank = 0 : i64, size = dense<4> : tensor<1xi64>} : (memref<512xf32>, i32) -> tensor<512xf32>
      "equeue.write"(%329, %301) {bank = 0 : i64, size = dense<4> : tensor<1xi64>} : (tensor<512xf32>, memref<16xi32>) -> ()
      %330 = "equeue.unkOp"(%303, %301, %302) {op_name = "mac4"} : (memref<4xi32>, memref<16xi32>, memref<8xi32>) -> memref<4xi32>
…
      "equeue.write"(%318, %arg5, %300) {bank = 0 : i64, size = dense<4> : tensor<1xi64>} : (tensor<4xi32>, memref<481xf32>, i32) -> ()
      %319 = "equeue.read"(%304, %299) {bank = 0 : i64, size = dense<4> : tensor<1xi64>} : (memref<4xi32>, i32) -> tensor<4xi32>
      "equeue.write"(%319, %303) {bank = 0 : i64, size = dense<4> : tensor<1xi64>} : (tensor<4xi32>, memref<4xi32>) -> ()
      %320 = "equeue.unkOp"(%303, %301, %302) {op_name = "mac4"} : (memref<4xi32>, memref<16xi32>, memref<8xi32>) -> memref<4xi32>
      %321 = "equeue.unkOp"(%303, %301, %302) {op_name = "mac4"} : (memref<4xi32>, memref<16xi32>, memref<8xi32>) -> memref<4xi32>
      %322 = "equeue.read"(%arg4, %298) {bank = 0 : i64, size = dense<4> : tensor<1xi64>} : (memref<512xf32>, i32) -> tensor<512xf32>
      "equeue.write"(%322, %301) {bank = 0 : i64, size = dense<4> : tensor<1xi64>} : (tensor<512xf32>, memref<16xi32>) -> ()
      %323 = "equeue.unkOp"(%303, %301, %302) {op_name = "mac4"} : (memref<4xi32>, memref<16xi32>, memref<8xi32>) -> memref<4xi32>
      %324 = "equeue.unkOp"(%303, %301, %302) {op_name = "mac4"} : (memref<4xi32>, memref<16xi32>, memref<8xi32>) -> memref<4xi32>
      %325 = "equeue.read"(%303) {bank = 0 : i64, size = dense<4> : tensor<1xi64>} : (memref<4xi32>) -> tensor<4xi32>
      "equeue.write"(%325, %arg5, %300) {bank = 0 : i64, size = dense<4> : tensor<1xi64>} : (tensor<4xi32>, memref<481xf32>, i32) -> ()
      %326 = "equeue.read"(%304, %299) {bank = 0 : i64, size = dense<4> : tensor<1xi64>} : (memref<4xi32>, i32) -> tensor<4xi32>
      "equeue.write"(%326, %303) {bank = 0 : i64, size = dense<4> : tensor<1xi64>} : (tensor<4xi32>, memref<4xi32>) -> ()
      %327 = "equeue.unkOp"(%303, %301, %302) {op_name = "mac4"} : (memref<4xi32>, memref<16xi32>, memref<8xi32>) -> memref<4xi32>
      %328 = "equeue.unkOp"(%303, %301, %302) {op_name = "mac4"} : (memref<4xi32>, memref<16xi32>, memref<8xi32>) -> memref<4xi32>
      %329 = "equeue.read"(%arg4, %298) {bank = 0 : i64, size = dense<4> : tensor<1xi64>} : (memref<512xf32>, i32) -> tensor<512xf32>
      "equeue.write"(%329, %301) {bank = 0 : i64, size = dense<4> : tensor<1xi64>} : (tensor<512xf32>, memref<16xi32>) -> ()
      %330 = "equeue.unkOp"(%303, %301, %302) {op_name = "mac4"} : (memref<4xi32>, memref<16xi32>, memref<8xi32>) -> memref<4xi32>
      %331 = "equeue.unkOp"(%303, %301, %302) {op_name = "mac4"} : (memref<4xi32>, memref<16xi32>, memref<8xi32>) -> memref<4xi32>
      %332 = "equeue.read"(%303) {bank = 0 : i64, size = dense<4> : tensor<1xi64>} : (memref<4xi32>) -> tensor<4xi32>
      "equeue.write"(%332, %arg5, %300) {bank = 0 : i64, size = dense<4> : tensor<1xi64>} : (tensor<4xi32>, memref<481xf32>, i32) -> ()
      "equeue.return"() : () -> ()
    }) : (!equeue.signal, i32, i32, i32, i32, memref<512xf32>, memref<481xf32>) -> !equeue.signal
    %282 = "equeue.control_start"() : () -> !equeue.signal
    %283 = "equeue.get_comp_field"(%21) {name = "proc"} : (i32) -> i32
    %284 = "equeue.get_comp_field"(%21) {name = "ofmap"} : (i32) -> memref<4xi32>
    %done_123 = "equeue.launch"(%282, %283, %5, %21, %1, %284) ( {
    ^bb0(%arg1: i32, %arg2: i32, %arg3: memref<512xf32>, %arg4: memref<4xi32>):  // no predecessors
      %298 = "equeue.get_comp_field"(%arg1) {name = "stream0"} : (i32) -> i32
      %299 = "equeue.get_comp_field"(%arg1) {name = "stream4"} : (i32) -> i32
      %300 = "equeue.get_comp_field"(%arg2) {name = "ifmap"} : (i32) -> memref<16xi32>
      %301 = "equeue.get_comp_field"(%arg2) {name = "filter"} : (i32) -> memref<8xi32>
      %302 = "equeue.get_comp_field"(%arg2) {name = "ofmap"} : (i32) -> memref<4xi32>
      %303 = "equeue.unkOp"(%302, %300, %301) {op_name = "mul4"} : (memref<4xi32>, memref<16xi32>, memref<8xi32>) -> memref<4xi32>
      %304 = "equeue.unkOp"(%302, %300, %301) {op_name = "mac4"} : (memref<4xi32>, memref<16xi32>, memref<8xi32>) -> memref<4xi32>
      %305 = "equeue.read"(%arg3, %298) {bank = 0 : i64, size = dense<4> : tensor<1xi64>} : (memref<512xf32>, i32) -> tensor<512xf32>
      "equeue.write"(%305, %300) {bank = 0 : i64, size = dense<4> : tensor<1xi64>} : (tensor<512xf32>, memref<16xi32>) -> ()
      %306 = "equeue.unkOp"(%302, %300, %301) {op_name = "mac4"} : (memref<4xi32>, memref<16xi32>, memref<8xi32>) -> memref<4xi32>
      %307 = "equeue.unkOp"(%302, %300, %301) {op_name = "mac4"} : (memref<4xi32>, memref<16xi32>, memref<8xi32>) -> memref<4xi32>
      %308 = "equeue.read"(%302) {bank = 0 : i64, size = dense<4> : tensor<1xi64>} : (memref<4xi32>) -> tensor<4xi32>
      "equeue.write"(%308, %arg4, %299) {bank = 0 : i64, size = dense<4> : tensor<1xi64>} : (tensor<4xi32>, memref<4xi32>, i32) -> ()
      %309 = "equeue.unkOp"(%302, %300, %301) {op_name = "mul4"} : (memref<4xi32>, memref<16xi32>, memref<8xi32>) -> memref<4xi32>
      %310 = "equeue.unkOp"(%302, %300, %301) {op_name = "mac4"} : (memref<4xi32>, memref<16xi32>, memref<8xi32>) -> memref<4xi32>
      %311 = "equeue.read"(%arg3, %298) {bank = 0 : i64, size = dense<4> : tensor<1xi64>} : (memref<512xf32>, i32) -> tensor<512xf32>
      "equeue.write"(%311, %300) {bank = 0 : i64, size = dense<4> : tensor<1xi64>} : (tensor<512xf32>, memref<16xi32>) -> ()
      %312 = "equeue.unkOp"(%302, %300, %301) {op_name = "mac4"} : (memref<4xi32>, memref<16xi32>, memref<8xi32>) -> memref<4xi32>
      %313 = "equeue.unkOp"(%302, %300, %301) {op_name = "mac4"} : (memref<4xi32>, memref<16xi32>, memref<8xi32>) -> memref<4xi32>
      %314 = "equeue.read"(%302) {bank = 0 : i64, size = dense<4> : tensor<1xi64>} : (memref<4xi32>) -> tensor<4xi32>
      "equeue.write"(%314, %arg4, %299) {bank = 0 : i64, size = dense<4> : tensor<1xi64>} : (tensor<4xi32>, memref<4xi32>, i32) -> ()
      %315 = "equeue.unkOp"(%302, %300, %301) {op_name = "mul4"} : (memref<4xi32>, memref<16xi32>, memref<8xi32>) -> memref<4xi32>
      %316 = "equeue.unkOp"(%302, %300, %301) {op_name = "mac4"} : (memref<4xi32>, memref<16xi32>, memref<8xi32>) -> memref<4xi32>
      %317 = "equeue.read"(%arg3, %298) {bank = 0 : i64, size = dense<4> : tensor<1xi64>} : (memref<512xf32>, i32) -> tensor<512xf32>
      "equeue.write"(%317, %300) {bank = 0 : i64, size = dense<4> : tensor<1xi64>} : (tensor<512xf32>, memref<16xi32>) -> ()
      %318 = "equeue.unkOp"(%302, %300, %301) {op_name = "mac4"} : (memref<4xi32>, memref<16xi32>, memref<8xi32>) -> memref<4xi32>
      %319 = "equeue.unkOp"(%302, %300, %301) {op_name = "mac4"} : (memref<4xi32>, memref<16xi32>, memref<8xi32>) -> memref<4xi32>
      %320 = "equeue.read"(%302) {bank = 0 : i64, size = dense<4> : tensor<1xi64>} : (memref<4xi32>) -> tensor<4xi32>
      "equeue.write"(%320, %arg4, %299) {bank = 0 : i64, size = dense<4> : tensor<1xi64>} : (tensor<4xi32>, memref<4xi32>, i32) -> ()
      %321 = "equeue.unkOp"(%302, %300, %301) {op_name = "mul4"} : (memref<4xi32>, memref<16xi32>, memref<8xi32>) -> memref<4xi32>
      %322 = "equeue.unkOp"(%302, %300, %301) {op_name = "mac4"} : (memref<4xi32>, memref<16xi32>, memref<8xi32>) -> memref<4xi32>
      %323 = "equeue.read"(%arg3, %298) {bank = 0 : i64, size = dense<4> : tensor<1xi64>} : (memref<512xf32>, i32) -> tensor<512xf32>
      "equeue.write"(%323, %300) {bank = 0 : i64, size = dense<4> : tensor<1xi64>} : (tensor<512xf32>, memref<16xi32>) -> ()
      %324 = "equeue.unkOp"(%302, %300, %301) {op_name = "mac4"} : (memref<4xi32>, memref<16xi32>, memref<8xi32>) -> memref<4xi32>
      %325 = "equeue.unkOp"(%302, %300, %301) {op_name = "mac4"} : (memref<4xi32>, memref<16xi32>, memref<8xi32>) -> memref<4xi32>
      %326 = "equeue.read"(%302) {bank = 0 : i64, size = dense<4> : tensor<1xi64>} : (memref<4xi32>) -> tensor<4xi32>
      "equeue.write"(%326, %arg4, %299) {bank = 0 : i64, size = dense<4> : tensor<1xi64>} : (tensor<4xi32>, memref<4xi32>, i32) -> ()
      "equeue.return"() : () -> ()
    }) : (!equeue.signal, i32, i32, i32, memref<512xf32>, memref<4xi32>) -> !equeue.signal
    %285 = "equeue.get_comp_field"(%26) {name = "proc"} : (i32) -> i32
    %286 = "equeue.get_comp_field"(%26) {name = "ofmap"} : (i32) -> memref<4xi32>
    %done_124 = "equeue.launch"(%282, %285, %5, %26, %21, %1, %286) ( {
    ^bb0(%arg1: i32, %arg2: i32, %arg3: i32, %arg4: memref<512xf32>, %arg5: memref<4xi32>):  // no predecessors
      %298 = "equeue.get_comp_field"(%arg1) {name = "stream1"} : (i32) -> i32
      %299 = "equeue.get_comp_field"(%arg1) {name = "stream4"} : (i32) -> i32
      %300 = "equeue.get_comp_field"(%arg1) {name = "stream5"} : (i32) -> i32
      %301 = "equeue.get_comp_field"(%arg2) {name = "ifmap"} : (i32) -> memref<16xi32>
      %302 = "equeue.get_comp_field"(%arg2) {name = "filter"} : (i32) -> memref<8xi32>
      %303 = "equeue.get_comp_field"(%arg2) {name = "ofmap"} : (i32) -> memref<4xi32>
      %304 = "equeue.get_comp_field"(%arg3) {name = "ofmap"} : (i32) -> memref<4xi32>
      %305 = "equeue.read"(%304, %299) {bank = 0 : i64, size = dense<4> : tensor<1xi64>} : (memref<4xi32>, i32) -> tensor<4xi32>
      "equeue.write"(%305, %303) {bank = 0 : i64, size = dense<4> : tensor<1xi64>} : (tensor<4xi32>, memref<4xi32>) -> ()
      %306 = "equeue.unkOp"(%303, %301, %302) {op_name = "mac4"} : (memref<4xi32>, memref<16xi32>, memref<8xi32>) -> memref<4xi32>
      %307 = "equeue.unkOp"(%303, %301, %302) {op_name = "mac4"} : (memref<4xi32>, memref<16xi32>, memref<8xi32>) -> memref<4xi32>
      %308 = "equeue.read"(%arg4, %298) {bank = 0 : i64, size = dense<4> : tensor<1xi64>} : (memref<512xf32>, i32) -> tensor<512xf32>
      "equeue.write"(%308, %301) {bank = 0 : i64, size = dense<4> : tensor<1xi64>} : (tensor<512xf32>, memref<16xi32>) -> ()
      %309 = "equeue.unkOp"(%303, %301, %302) {op_name = "mac4"} : (memref<4xi32>, memref<16xi32>, memref<8xi32>) -> memref<4xi32>
      %310 = "equeue.unkOp"(%303, %301, %302) {op_name = "mac4"} : (memref<4xi32>, memref<16xi32>, memref<8xi32>) -> memref<4xi32>
      %311 = "equeue.read"(%303) {bank = 0 : i64, size = dense<4> : tensor<1xi64>} : (memref<4xi32>) -> tensor<4xi32>
      "equeue.write"(%311, %arg5, %300) {bank = 0 : i64, size = dense<4> : tensor<1xi64>} : (tensor<4xi32>, memref<4xi32>, i32) -> ()
      %312 = "equeue.read"(%304, %299) {bank = 0 : i64, size = dense<4> : tensor<1xi64>} : (memref<4xi32>, i32) -> tensor<4xi32>
      "equeue.write"(%312, %303) {bank = 0 : i64, size = dense<4> : tensor<1xi64>} : (tensor<4xi32>, memref<4xi32>) -> ()
      %313 = "equeue.unkOp"(%303, %301, %302) {op_name = "mac4"} : (memref<4xi32>, memref<16xi32>, memref<8xi32>) -> memref<4xi32>
      %314 = "equeue.unkOp"(%303, %301, %302) {op_name = "mac4"} : (memref<4xi32>, memref<16xi32>, memref<8xi32>) -> memref<4xi32>
      %315 = "equeue.read"(%arg4, %298) {bank = 0 : i64, size = dense<4> : tensor<1xi64>} : (memref<512xf32>, i32) -> tensor<512xf32>
      "equeue.write"(%315, %301) {bank = 0 : i64, size = dense<4> : tensor<1xi64>} : (tensor<512xf32>, memref<16xi32>) -> ()
      %316 = "equeue.unkOp"(%303, %301, %302) {op_name = "mac4"} : (memref<4xi32>, memref<16xi32>, memref<8xi32>) -> memref<4xi32>
      %317 = "equeue.unkOp"(%303, %301, %302) {op_name = "mac4"} : (memref<4xi32>, memref<16xi32>, memref<8xi32>) -> memref<4xi32>
      %318 = "equeue.read"(%303) {bank = 0 : i64, size = dense<4> : tensor<1xi64>} : (memref<4xi32>) -> tensor<4xi32>
      "equeue.write"(%318, %arg5, %300) {bank = 0 : i64, size = dense<4> : tensor<1xi64>} : (tensor<4xi32>, memref<4xi32>, i32) -> ()
      %319 = "equeue.read"(%304, %299) {bank = 0 : i64, size = dense<4> : tensor<1xi64>} : (memref<4xi32>, i32) -> tensor<4xi32>
      "equeue.write"(%319, %303) {bank = 0 : i64, size = dense<4> : tensor<1xi64>} : (tensor<4xi32>, memref<4xi32>) -> ()
      %320 = "equeue.unkOp"(%303, %301, %302) {op_name = "mac4"} : (memref<4xi32>, memref<16xi32>, memref<8xi32>) -> memref<4xi32>
      %321 = "equeue.unkOp"(%303, %301, %302) {op_name = "mac4"} : (memref<4xi32>, memref<16xi32>, memref<8xi32>) -> memref<4xi32>
      %322 = "equeue.read"(%arg4, %298) {bank = 0 : i64, size = dense<4> : tensor<1xi64>} : (memref<512xf32>, i32) -> tensor<512xf32>
      "equeue.write"(%322, %301) {bank = 0 : i64, size = dense<4> : tensor<1xi64>} : (tensor<512xf32>, memref<16xi32>) -> ()
      %323 = "equeue.unkOp"(%303, %301, %302) {op_name = "mac4"} : (memref<4xi32>, memref<16xi32>, memref<8xi32>) -> memref<4xi32>
      %324 = "equeue.unkOp"(%303, %301, %302) {op_name = "mac4"} : (memref<4xi32>, memref<16xi32>, memref<8xi32>) -> memref<4xi32>
      %325 = "equeue.read"(%303) {bank = 0 : i64, size = dense<4> : tensor<1xi64>} : (memref<4xi32>) -> tensor<4xi32>
      "equeue.write"(%325, %arg5, %300) {bank = 0 : i64, size = dense<4> : tensor<1xi64>} : (tensor<4xi32>, memref<4xi32>, i32) -> ()
      %326 = "equeue.read"(%304, %299) {bank = 0 : i64, size = dense<4> : tensor<1xi64>} : (memref<4xi32>, i32) -> tensor<4xi32>
      "equeue.write"(%326, %303) {bank = 0 : i64, size = dense<4> : tensor<1xi64>} : (tensor<4xi32>, memref<4xi32>) -> ()
      %327 = "equeue.unkOp"(%303, %301, %302) {op_name = "mac4"} : (memref<4xi32>, memref<16xi32>, memref<8xi32>) -> memref<4xi32>
      %328 = "equeue.unkOp"(%303, %301, %302) {op_name = "mac4"} : (memref<4xi32>, memref<16xi32>, memref<8xi32>) -> memref<4xi32>
      %329 = "equeue.read"(%arg4, %298) {bank = 0 : i64, size = dense<4> : tensor<1xi64>} : (memref<512xf32>, i32) -> tensor<512xf32>
      "equeue.write"(%329, %301) {bank = 0 : i64, size = dense<4> : tensor<1xi64>} : (tensor<512xf32>, memref<16xi32>) -> ()
      %330 = "equeue.unkOp"(%303, %301, %302) {op_name = "mac4"} : (memref<4xi32>, memref<16xi32>, memref<8xi32>) -> memref<4xi32>
      %331 = "equeue.unkOp"(%303, %301, %302) {op_name = "mac4"} : (memref<4xi32>, memref<16xi32>, memref<8xi32>) -> memref<4xi32>
      %332 = "equeue.read"(%303) {bank = 0 : i64, size = dense<4> : tensor<1xi64>} : (memref<4xi32>) -> tensor<4xi32>
      "equeue.write"(%332, %arg5, %300) {bank = 0 : i64, size = dense<4> : tensor<1xi64>} : (tensor<4xi32>, memref<4xi32>, i32) -> ()
      "equeue.return"() : () -> ()
    }) : (!equeue.signal, i32, i32, i32, i32, memref<512xf32>, memref<4xi32>) -> !equeue.signal
    %287 = "equeue.get_comp_field"(%31) {name = "proc"} : (i32) -> i32
    %288 = "equeue.get_comp_field"(%31) {name = "ofmap"} : (i32) -> memref<4xi32>
    %done_125 = "equeue.launch"(%282, %287, %5, %31, %26, %1, %288) ( {
    ^bb0(%arg1: i32, %arg2: i32, %arg3: i32, %arg4: memref<512xf32>, %arg5: memref<4xi32>):  // no predecessors
      %298 = "equeue.get_comp_field"(%arg1) {name = "stream2"} : (i32) -> i32
      %299 = "equeue.get_comp_field"(%arg1) {name = "stream5"} : (i32) -> i32
      %300 = "equeue.get_comp_field"(%arg1) {name = "stream6"} : (i32) -> i32
      %301 = "equeue.get_comp_field"(%arg2) {name = "ifmap"} : (i32) -> memref<16xi32>
      %302 = "equeue.get_comp_field"(%arg2) {name = "filter"} : (i32) -> memref<8xi32>
      %303 = "equeue.get_comp_field"(%arg2) {name = "ofmap"} : (i32) -> memref<4xi32>
      %304 = "equeue.get_comp_field"(%arg3) {name = "ofmap"} : (i32) -> memref<4xi32>
      %305 = "equeue.read"(%304, %299) {bank = 0 : i64, size = dense<4> : tensor<1xi64>} : (memref<4xi32>, i32) -> tensor<4xi32>
      "equeue.write"(%305, %303) {bank = 0 : i64, size = dense<4> : tensor<1xi64>} : (tensor<4xi32>, memref<4xi32>) -> ()
      %306 = "equeue.unkOp"(%303, %301, %302) {op_name = "mac4"} : (memref<4xi32>, memref<16xi32>, memref<8xi32>) -> memref<4xi32>
      %307 = "equeue.unkOp"(%303, %301, %302) {op_name = "mac4"} : (memref<4xi32>, memref<16xi32>, memref<8xi32>) -> memref<4xi32>
      %308 = "equeue.read"(%arg4, %298) {bank = 0 : i64, size = dense<4> : tensor<1xi64>} : (memref<512xf32>, i32) -> tensor<512xf32>
      "equeue.write"(%308, %301) {bank = 0 : i64, size = dense<4> : tensor<1xi64>} : (tensor<512xf32>, memref<16xi32>) -> ()
      %309 = "equeue.unkOp"(%303, %301, %302) {op_name = "mac4"} : (memref<4xi32>, memref<16xi32>, memref<8xi32>) -> memref<4xi32>
      %310 = "equeue.unkOp"(%303, %301, %302) {op_name = "mac4"} : (memref<4xi32>, memref<16xi32>, memref<8xi32>) -> memref<4xi32>
      %311 = "equeue.read"(%303) {bank = 0 : i64, size = dense<4> : tensor<1xi64>} : (memref<4xi32>) -> tensor<4xi32>
      "equeue.write"(%311, %arg5, %300) {bank = 0 : i64, size = dense<4> : tensor<1xi64>} : (tensor<4xi32>, memref<4xi32>, i32) -> ()
      %312 = "equeue.read"(%304, %299) {bank = 0 : i64, size = dense<4> : tensor<1xi64>} : (memref<4xi32>, i32) -> tensor<4xi32>
      "equeue.write"(%312, %303) {bank = 0 : i64, size = dense<4> : tensor<1xi64>} : (tensor<4xi32>, memref<4xi32>) -> ()
      %313 = "equeue.unkOp"(%303, %301, %302) {op_name = "mac4"} : (memref<4xi32>, memref<16xi32>, memref<8xi32>) -> memref<4xi32>
      %314 = "equeue.unkOp"(%303, %301, %302) {op_name = "mac4"} : (memref<4xi32>, memref<16xi32>, memref<8xi32>) -> memref<4xi32>
      %315 = "equeue.read"(%arg4, %298) {bank = 0 : i64, size = dense<4> : tensor<1xi64>} : (memref<512xf32>, i32) -> tensor<512xf32>
      "equeue.write"(%315, %301) {bank = 0 : i64, size = dense<4> : tensor<1xi64>} : (tensor<512xf32>, memref<16xi32>) -> ()
      %316 = "equeue.unkOp"(%303, %301, %302) {op_name = "mac4"} : (memref<4xi32>, memref<16xi32>, memref<8xi32>) -> memref<4xi32>
      %317 = "equeue.unkOp"(%303, %301, %302) {op_name = "mac4"} : (memref<4xi32>, memref<16xi32>, memref<8xi32>) -> memref<4xi32>
      %318 = "equeue.read"(%303) {bank = 0 : i64, size = dense<4> : tensor<1xi64>} : (memref<4xi32>) -> tensor<4xi32>
      "equeue.write"(%318, %arg5, %300) {bank = 0 : i64, size = dense<4> : tensor<1xi64>} : (tensor<4xi32>, memref<4xi32>, i32) -> ()
      %319 = "equeue.read"(%304, %299) {bank = 0 : i64, size = dense<4> : tensor<1xi64>} : (memref<4xi32>, i32) -> tensor<4xi32>
      "equeue.write"(%319, %303) {bank = 0 : i64, size = dense<4> : tensor<1xi64>} : (tensor<4xi32>, memref<4xi32>) -> ()
      %320 = "equeue.unkOp"(%303, %301, %302) {op_name = "mac4"} : (memref<4xi32>, memref<16xi32>, memref<8xi32>) -> memref<4xi32>
      %321 = "equeue.unkOp"(%303, %301, %302) {op_name = "mac4"} : (memref<4xi32>, memref<16xi32>, memref<8xi32>) -> memref<4xi32>
      %322 = "equeue.read"(%arg4, %298) {bank = 0 : i64, size = dense<4> : tensor<1xi64>} : (memref<512xf32>, i32) -> tensor<512xf32>
      "equeue.write"(%322, %301) {bank = 0 : i64, size = dense<4> : tensor<1xi64>} : (tensor<512xf32>, memref<16xi32>) -> ()
      %323 = "equeue.unkOp"(%303, %301, %302) {op_name = "mac4"} : (memref<4xi32>, memref<16xi32>, memref<8xi32>) -> memref<4xi32>
      %324 = "equeue.unkOp"(%303, %301, %302) {op_name = "mac4"} : (memref<4xi32>, memref<16xi32>, memref<8xi32>) -> memref<4xi32>
      %325 = "equeue.read"(%303) {bank = 0 : i64, size = dense<4> : tensor<1xi64>} : (memref<4xi32>) -> tensor<4xi32>
      "equeue.write"(%325, %arg5, %300) {bank = 0 : i64, size = dense<4> : tensor<1xi64>} : (tensor<4xi32>, memref<4xi32>, i32) -> ()
      %326 = "equeue.read"(%304, %299) {bank = 0 : i64, size = dense<4> : tensor<1xi64>} : (memref<4xi32>, i32) -> tensor<4xi32>
      "equeue.write"(%326, %303) {bank = 0 : i64, size = dense<4> : tensor<1xi64>} : (tensor<4xi32>, memref<4xi32>) -> ()
      %327 = "equeue.unkOp"(%303, %301, %302) {op_name = "mac4"} : (memref<4xi32>, memref<16xi32>, memref<8xi32>) -> memref<4xi32>
      %328 = "equeue.unkOp"(%303, %301, %302) {op_name = "mac4"} : (memref<4xi32>, memref<16xi32>, memref<8xi32>) -> memref<4xi32>
      %329 = "equeue.read"(%arg4, %298) {bank = 0 : i64, size = dense<4> : tensor<1xi64>} : (memref<512xf32>, i32) -> tensor<512xf32>
      "equeue.write"(%329, %301) {bank = 0 : i64, size = dense<4> : tensor<1xi64>} : (tensor<512xf32>, memref<16xi32>) -> ()
      %330 = "equeue.unkOp"(%303, %301, %302) {op_name = "mac4"} : (memref<4xi32>, memref<16xi32>, memref<8xi32>) -> memref<4xi32>
      %331 = "equeue.unkOp"(%303, %301, %302) {op_name = "mac4"} : (memref<4xi32>, memref<16xi32>, memref<8xi32>) -> memref<4xi32>
      %332 = "equeue.read"(%303) {bank = 0 : i64, size = dense<4> : tensor<1xi64>} : (memref<4xi32>) -> tensor<4xi32>
      "equeue.write"(%332, %arg5, %300) {bank = 0 : i64, size = dense<4> : tensor<1xi64>} : (tensor<4xi32>, memref<4xi32>, i32) -> ()
      "equeue.return"() : () -> ()
    }) : (!equeue.signal, i32, i32, i32, i32, memref<512xf32>, memref<4xi32>) -> !equeue.signal
    %289 = "equeue.get_comp_field"(%36) {name = "proc"} : (i32) -> i32
    %done_126 = "equeue.launch"(%282, %289, %5, %36, %31, %1, %3) ( {
    ^bb0(%arg1: i32, %arg2: i32, %arg3: i32, %arg4: memref<512xf32>, %arg5: memref<481xf32>):  // no predecessors
      %298 = "equeue.get_comp_field"(%arg1) {name = "stream3"} : (i32) -> i32
      %299 = "equeue.get_comp_field"(%arg1) {name = "stream6"} : (i32) -> i32
      %300 = "equeue.get_comp_field"(%arg1) {name = "stream7"} : (i32) -> i32
      %301 = "equeue.get_comp_field"(%arg2) {name = "ifmap"} : (i32) -> memref<16xi32>
      %302 = "equeue.get_comp_field"(%arg2) {name = "filter"} : (i32) -> memref<8xi32>
      %303 = "equeue.get_comp_field"(%arg2) {name = "ofmap"} : (i32) -> memref<4xi32>
      %304 = "equeue.get_comp_field"(%arg3) {name = "ofmap"} : (i32) -> memref<4xi32>
      %305 = "equeue.read"(%304, %299) {bank = 0 : i64, size = dense<4> : tensor<1xi64>} : (memref<4xi32>, i32) -> tensor<4xi32>
      "equeue.write"(%305, %303) {bank = 0 : i64, size = dense<4> : tensor<1xi64>} : (tensor<4xi32>, memref<4xi32>) -> ()
      %306 = "equeue.unkOp"(%303, %301, %302) {op_name = "mac4"} : (memref<4xi32>, memref<16xi32>, memref<8xi32>) -> memref<4xi32>
      %307 = "equeue.unkOp"(%303, %301, %302) {op_name = "mac4"} : (memref<4xi32>, memref<16xi32>, memref<8xi32>) -> memref<4xi32>
      %308 = "equeue.read"(%arg4, %298) {bank = 0 : i64, size = dense<4> : tensor<1xi64>} : (memref<512xf32>, i32) -> tensor<512xf32>
      "equeue.write"(%308, %301) {bank = 0 : i64, size = dense<4> : tensor<1xi64>} : (tensor<512xf32>, memref<16xi32>) -> ()
      %309 = "equeue.unkOp"(%303, %301, %302) {op_name = "mac4"} : (memref<4xi32>, memref<16xi32>, memref<8xi32>) -> memref<4xi32>
      %310 = "equeue.unkOp"(%303, %301, %302) {op_name = "mac4"} : (memref<4xi32>, memref<16xi32>, memref<8xi32>) -> memref<4xi32>
      %311 = "equeue.read"(%303) {bank = 0 : i64, size = dense<4> : tensor<1xi64>} : (memref<4xi32>) -> tensor<4xi32>
      "equeue.write"(%311, %arg5, %300) {bank = 0 : i64, size = dense<4> : tensor<1xi64>} : (tensor<4xi32>, memref<481xf32>, i32) -> ()
      %312 = "equeue.read"(%304, %299) {bank = 0 : i64, size = dense<4> : tensor<1xi64>} : (memref<4xi32>, i32) -> tensor<4xi32>
      "equeue.write"(%312, %303) {bank = 0 : i64, size = dense<4> : tensor<1xi64>} : (tensor<4xi32>, memref<4xi32>) -> ()
      %313 = "equeue.unkOp"(%303, %301, %302) {op_name = "mac4"} : (memref<4xi32>, memref<16xi32>, memref<8xi32>) -> memref<4xi32>
      %314 = "equeue.unkOp"(%303, %301, %302) {op_name = "mac4"} : (memref<4xi32>, memref<16xi32>, memref<8xi32>) -> memref<4xi32>
      %315 = "equeue.read"(%arg4, %298) {bank = 0 : i64, size = dense<4> : tensor<1xi64>} : (memref<512xf32>, i32) -> tensor<512xf32>
      "equeue.write"(%315, %301) {bank = 0 : i64, size = dense<4> : tensor<1xi64>} : (tensor<512xf32>, memref<16xi32>) -> ()
      %316 = "equeue.unkOp"(%303, %301, %302) {op_name = "mac4"} : (memref<4xi32>, memref<16xi32>, memref<8xi32>) -> memref<4xi32>
      %317 = "equeue.unkOp"(%303, %301, %302) {op_name = "mac4"} : (memref<4xi32>, memref<16xi32>, memref<8xi32>) -> memref<4xi32>
      %318 = "equeue.read"(%303) {bank = 0 : i64, size = dense<4> : tensor<1xi64>} : (memref<4xi32>) -> tensor<4xi32>
      "equeue.write"(%318, %arg5, %300) {bank = 0 : i64, size = dense<4> : tensor<1xi64>} : (tensor<4xi32>, memref<481xf32>, i32) -> ()
      %319 = "equeue.read"(%304, %299) {bank = 0 : i64, size = dense<4> : tensor<1xi64>} : (memref<4xi32>, i32) -> tensor<4xi32>
      "equeue.write"(%319, %303) {bank = 0 : i64, size = dense<4> : tensor<1xi64>} : (tensor<4xi32>, memref<4xi32>) -> ()
      %320 = "equeue.unkOp"(%303, %301, %302) {op_name = "mac4"} : (memref<4xi32>, memref<16xi32>, memref<8xi32>) -> memref<4xi32>
      %321 = "equeue.unkOp"(%303, %301, %302) {op_name = "mac4"} : (memref<4xi32>, memref<16xi32>, memref<8xi32>) -> memref<4xi32>
      %322 = "equeue.read"(%arg4, %298) {bank = 0 : i64, size = dense<4> : tensor<1xi64>} : (memref<512xf32>, i32) -> tensor<512xf32>
      "equeue.write"(%322, %301) {bank = 0 : i64, size = dense<4> : tensor<1xi64>} : (tensor<512xf32>, memref<16xi32>) -> ()
      %323 = "equeue.unkOp"(%303, %301, %302) {op_name = "mac4"} : (memref<4xi32>, memref<16xi32>, memref<8xi32>) -> memref<4xi32>
      %324 = "equeue.unkOp"(%303, %301, %302) {op_name = "mac4"} : (memref<4xi32>, memref<16xi32>, memref<8xi32>) -> memref<4xi32>
      %325 = "equeue.read"(%303) {bank = 0 : i64, size = dense<4> : tensor<1xi64>} : (memref<4xi32>) -> tensor<4xi32>
      "equeue.write"(%325, %arg5, %300) {bank = 0 : i64, size = dense<4> : tensor<1xi64>} : (tensor<4xi32>, memref<481xf32>, i32) -> ()
      %326 = "equeue.read"(%304, %299) {bank = 0 : i64, size = dense<4> : tensor<1xi64>} : (memref<4xi32>, i32) -> tensor<4xi32>
      "equeue.write"(%326, %303) {bank = 0 : i64, size = dense<4> : tensor<1xi64>} : (tensor<4xi32>, memref<4xi32>) -> ()
      %327 = "equeue.unkOp"(%303, %301, %302) {op_name = "mac4"} : (memref<4xi32>, memref<16xi32>, memref<8xi32>) -> memref<4xi32>
      %328 = "equeue.unkOp"(%303, %301, %302) {op_name = "mac4"} : (memref<4xi32>, memref<16xi32>, memref<8xi32>) -> memref<4xi32>
      %329 = "equeue.read"(%arg4, %298) {bank = 0 : i64, size = dense<4> : tensor<1xi64>} : (memref<512xf32>, i32) -> tensor<512xf32>
      "equeue.write"(%329, %301) {bank = 0 : i64, size = dense<4> : tensor<1xi64>} : (tensor<512xf32>, memref<16xi32>) -> ()
      %330 = "equeue.unkOp"(%303, %301, %302) {op_name = "mac4"} : (memref<4xi32>, memref<16xi32>, memref<8xi32>) -> memref<4xi32>
      %331 = "equeue.unkOp"(%303, %301, %302) {op_name = "mac4"} : (memref<4xi32>, memref<16xi32>, memref<8xi32>) -> memref<4xi32>
      %332 = "equeue.read"(%303) {bank = 0 : i64, size = dense<4> : tensor<1xi64>} : (memref<4xi32>) -> tensor<4xi32>
      "equeue.write"(%332, %arg5, %300) {bank = 0 : i64, size = dense<4> : tensor<1xi64>} : (tensor<4xi32>, memref<481xf32>, i32) -> ()
      "equeue.return"() : () -> ()
    }) : (!equeue.signal, i32, i32, i32, i32, memref<512xf32>, memref<481xf32>) -> !equeue.signal
    %290 = "equeue.control_start"() : () -> !equeue.signal
    %291 = "equeue.get_comp_field"(%21) {name = "proc"} : (i32) -> i32
    %292 = "equeue.get_comp_field"(%21) {name = "ofmap"} : (i32) -> memref<4xi32>
    %done_127 = "equeue.launch"(%290, %291, %5, %21, %1, %292) ( {
    ^bb0(%arg1: i32, %arg2: i32, %arg3: memref<512xf32>, %arg4: memref<4xi32>):  // no predecessors
      %298 = "equeue.get_comp_field"(%arg1) {name = "stream0"} : (i32) -> i32
      %299 = "equeue.get_comp_field"(%arg1) {name = "stream4"} : (i32) -> i32
      %300 = "equeue.get_comp_field"(%arg2) {name = "ifmap"} : (i32) -> memref<16xi32>
      %301 = "equeue.get_comp_field"(%arg2) {name = "filter"} : (i32) -> memref<8xi32>
      %302 = "equeue.get_comp_field"(%arg2) {name = "ofmap"} : (i32) -> memref<4xi32>
      %303 = "equeue.unkOp"(%302, %300, %301) {op_name = "mul4"} : (memref<4xi32>, memref<16xi32>, memref<8xi32>) -> memref<4xi32>
      %304 = "equeue.unkOp"(%302, %300, %301) {op_name = "mac4"} : (memref<4xi32>, memref<16xi32>, memref<8xi32>) -> memref<4xi32>
      %305 = "equeue.read"(%arg3, %298) {bank = 0 : i64, size = dense<4> : tensor<1xi64>} : (memref<512xf32>, i32) -> tensor<512xf32>
      "equeue.write"(%305, %300) {bank = 0 : i64, size = dense<4> : tensor<1xi64>} : (tensor<512xf32>, memref<16xi32>) -> ()
      %306 = "equeue.unkOp"(%302, %300, %301) {op_name = "mac4"} : (memref<4xi32>, memref<16xi32>, memref<8xi32>) -> memref<4xi32>
      %307 = "equeue.unkOp"(%302, %300, %301) {op_name = "mac4"} : (memref<4xi32>, memref<16xi32>, memref<8xi32>) -> memref<4xi32>
      %308 = "equeue.read"(%302) {bank = 0 : i64, size = dense<4> : tensor<1xi64>} : (memref<4xi32>) -> tensor<4xi32>
      "equeue.write"(%308, %arg4, %299) {bank = 0 : i64, size = dense<4> : tensor<1xi64>} : (tensor<4xi32>, memref<4xi32>, i32) -> ()
      %309 = "equeue.unkOp"(%302, %300, %301) {op_name = "mul4"} : (memref<4xi32>, memref<16xi32>, memref<8xi32>) -> memref<4xi32>
      %310 = "equeue.unkOp"(%302, %300, %301) {op_name = "mac4"} : (memref<4xi32>, memref<16xi32>, memref<8xi32>) -> memref<4xi32>
      %311 = "equeue.read"(%arg3, %298) {bank = 0 : i64, size = dense<4> : tensor<1xi64>} : (memref<512xf32>, i32) -> tensor<512xf32>
      "equeue.write"(%311, %300) {bank = 0 : i64, size = dense<4> : tensor<1xi64>} : (tensor<512xf32>, memref<16xi32>) -> ()
      %312 = "equeue.unkOp"(%302, %300, %301) {op_name = "mac4"} : (memref<4xi32>, memref<16xi32>, memref<8xi32>) -> memref<4xi32>
      %313 = "equeue.unkOp"(%302, %300, %301) {op_name = "mac4"} : (memref<4xi32>, memref<16xi32>, memref<8xi32>) -> memref<4xi32>
      %314 = "equeue.read"(%302) {bank = 0 : i64, size = dense<4> : tensor<1xi64>} : (memref<4xi32>) -> tensor<4xi32>
      "equeue.write"(%314, %arg4, %299) {bank = 0 : i64, size = dense<4> : tensor<1xi64>} : (tensor<4xi32>, memref<4xi32>, i32) -> ()
      %315 = "equeue.unkOp"(%302, %300, %301) {op_name = "mul4"} : (memref<4xi32>, memref<16xi32>, memref<8xi32>) -> memref<4xi32>
      %316 = "equeue.unkOp"(%302, %300, %301) {op_name = "mac4"} : (memref<4xi32>, memref<16xi32>, memref<8xi32>) -> memref<4xi32>
      %317 = "equeue.read"(%arg3, %298) {bank = 0 : i64, size = dense<4> : tensor<1xi64>} : (memref<512xf32>, i32) -> tensor<512xf32>
      "equeue.write"(%317, %300) {bank = 0 : i64, size = dense<4> : tensor<1xi64>} : (tensor<512xf32>, memref<16xi32>) -> ()
      %318 = "equeue.unkOp"(%302, %300, %301) {op_name = "mac4"} : (memref<4xi32>, memref<16xi32>, memref<8xi32>) -> memref<4xi32>
      %319 = "equeue.unkOp"(%302, %300, %301) {op_name = "mac4"} : (memref<4xi32>, memref<16xi32>, memref<8xi32>) -> memref<4xi32>
      %320 = "equeue.read"(%302) {bank = 0 : i64, size = dense<4> : tensor<1xi64>} : (memref<4xi32>) -> tensor<4xi32>
      "equeue.write"(%320, %arg4, %299) {bank = 0 : i64, size = dense<4> : tensor<1xi64>} : (tensor<4xi32>, memref<4xi32>, i32) -> ()
      %321 = "equeue.unkOp"(%302, %300, %301) {op_name = "mul4"} : (memref<4xi32>, memref<16xi32>, memref<8xi32>) -> memref<4xi32>
      %322 = "equeue.unkOp"(%302, %300, %301) {op_name = "mac4"} : (memref<4xi32>, memref<16xi32>, memref<8xi32>) -> memref<4xi32>
      %323 = "equeue.read"(%arg3, %298) {bank = 0 : i64, size = dense<4> : tensor<1xi64>} : (memref<512xf32>, i32) -> tensor<512xf32>
      "equeue.write"(%323, %300) {bank = 0 : i64, size = dense<4> : tensor<1xi64>} : (tensor<512xf32>, memref<16xi32>) -> ()
      %324 = "equeue.unkOp"(%302, %300, %301) {op_name = "mac4"} : (memref<4xi32>, memref<16xi32>, memref<8xi32>) -> memref<4xi32>
      %325 = "equeue.unkOp"(%302, %300, %301) {op_name = "mac4"} : (memref<4xi32>, memref<16xi32>, memref<8xi32>) -> memref<4xi32>
      %326 = "equeue.read"(%302) {bank = 0 : i64, size = dense<4> : tensor<1xi64>} : (memref<4xi32>) -> tensor<4xi32>
      "equeue.write"(%326, %arg4, %299) {bank = 0 : i64, size = dense<4> : tensor<1xi64>} : (tensor<4xi32>, memref<4xi32>, i32) -> ()
      "equeue.return"() : () -> ()
    }) : (!equeue.signal, i32, i32, i32, memref<512xf32>, memref<4xi32>) -> !equeue.signal
    %293 = "equeue.get_comp_field"(%26) {name = "proc"} : (i32) -> i32
    %294 = "equeue.get_comp_field"(%26) {name = "ofmap"} : (i32) -> memref<4xi32>
    %done_128 = "equeue.launch"(%290, %293, %5, %26, %21, %1, %294) ( {
    ^bb0(%arg1: i32, %arg2: i32, %arg3: i32, %arg4: memref<512xf32>, %arg5: memref<4xi32>):  // no predecessors
      %298 = "equeue.get_comp_field"(%arg1) {name = "stream1"} : (i32) -> i32
      %299 = "equeue.get_comp_field"(%arg1) {name = "stream4"} : (i32) -> i32
      %300 = "equeue.get_comp_field"(%arg1) {name = "stream5"} : (i32) -> i32
      %301 = "equeue.get_comp_field"(%arg2) {name = "ifmap"} : (i32) -> memref<16xi32>
      %302 = "equeue.get_comp_field"(%arg2) {name = "filter"} : (i32) -> memref<8xi32>
      %303 = "equeue.get_comp_field"(%arg2) {name = "ofmap"} : (i32) -> memref<4xi32>
      %304 = "equeue.get_comp_field"(%arg3) {name = "ofmap"} : (i32) -> memref<4xi32>
      %305 = "equeue.read"(%304, %299) {bank = 0 : i64, size = dense<4> : tensor<1xi64>} : (memref<4xi32>, i32) -> tensor<4xi32>
      "equeue.write"(%305, %303) {bank = 0 : i64, size = dense<4> : tensor<1xi64>} : (tensor<4xi32>, memref<4xi32>) -> ()
      %306 = "equeue.unkOp"(%303, %301, %302) {op_name = "mac4"} : (memref<4xi32>, memref<16xi32>, memref<8xi32>) -> memref<4xi32>
      %307 = "equeue.unkOp"(%303, %301, %302) {op_name = "mac4"} : (memref<4xi32>, memref<16xi32>, memref<8xi32>) -> memref<4xi32>
      %308 = "equeue.read"(%arg4, %298) {bank = 0 : i64, size = dense<4> : tensor<1xi64>} : (memref<512xf32>, i32) -> tensor<512xf32>
      "equeue.write"(%308, %301) {bank = 0 : i64, size = dense<4> : tensor<1xi64>} : (tensor<512xf32>, memref<16xi32>) -> ()
      %309 = "equeue.unkOp"(%303, %301, %302) {op_name = "mac4"} : (memref<4xi32>, memref<16xi32>, memref<8xi32>) -> memref<4xi32>
      %310 = "equeue.unkOp"(%303, %301, %302) {op_name = "mac4"} : (memref<4xi32>, memref<16xi32>, memref<8xi32>) -> memref<4xi32>
      %311 = "equeue.read"(%303) {bank = 0 : i64, size = dense<4> : tensor<1xi64>} : (memref<4xi32>) -> tensor<4xi32>
      "equeue.write"(%311, %arg5, %300) {bank = 0 : i64, size = dense<4> : tensor<1xi64>} : (tensor<4xi32>, memref<4xi32>, i32) -> ()
      %312 = "equeue.read"(%304, %299) {bank = 0 : i64, size = dense<4> : tensor<1xi64>} : (memref<4xi32>, i32) -> tensor<4xi32>
      "equeue.write"(%312, %303) {bank = 0 : i64, size = dense<4> : tensor<1xi64>} : (tensor<4xi32>, memref<4xi32>) -> ()
      %313 = "equeue.unkOp"(%303, %301, %302) {op_name = "mac4"} : (memref<4xi32>, memref<16xi32>, memref<8xi32>) -> memref<4xi32>
      %314 = "equeue.unkOp"(%303, %301, %302) {op_name = "mac4"} : (memref<4xi32>, memref<16xi32>, memref<8xi32>) -> memref<4xi32>
      %315 = "equeue.read"(%arg4, %298) {bank = 0 : i64, size = dense<4> : tensor<1xi64>} : (memref<512xf32>, i32) -> tensor<512xf32>
      "equeue.write"(%315, %301) {bank = 0 : i64, size = dense<4> : tensor<1xi64>} : (tensor<512xf32>, memref<16xi32>) -> ()
      %316 = "equeue.unkOp"(%303, %301, %302) {op_name = "mac4"} : (memref<4xi32>, memref<16xi32>, memref<8xi32>) -> memref<4xi32>
      %317 = "equeue.unkOp"(%303, %301, %302) {op_name = "mac4"} : (memref<4xi32>, memref<16xi32>, memref<8xi32>) -> memref<4xi32>
      %318 = "equeue.read"(%303) {bank = 0 : i64, size = dense<4> : tensor<1xi64>} : (memref<4xi32>) -> tensor<4xi32>
      "equeue.write"(%318, %arg5, %300) {bank = 0 : i64, size = dense<4> : tensor<1xi64>} : (tensor<4xi32>, memref<4xi32>, i32) -> ()
      %319 = "equeue.read"(%304, %299) {bank = 0 : i64, size = dense<4> : tensor<1xi64>} : (memref<4xi32>, i32) -> tensor<4xi32>
      "equeue.write"(%319, %303) {bank = 0 : i64, size = dense<4> : tensor<1xi64>} : (tensor<4xi32>, memref<4xi32>) -> ()
      %320 = "equeue.unkOp"(%303, %301, %302) {op_name = "mac4"} : (memref<4xi32>, memref<16xi32>, memref<8xi32>) -> memref<4xi32>
      %321 = "equeue.unkOp"(%303, %301, %302) {op_name = "mac4"} : (memref<4xi32>, memref<16xi32>, memref<8xi32>) -> memref<4xi32>
      %322 = "equeue.read"(%arg4, %298) {bank = 0 : i64, size = dense<4> : tensor<1xi64>} : (memref<512xf32>, i32) -> tensor<512xf32>
      "equeue.write"(%322, %301) {bank = 0 : i64, size = dense<4> : tensor<1xi64>} : (tensor<512xf32>, memref<16xi32>) -> ()
      %323 = "equeue.unkOp"(%303, %301, %302) {op_name = "mac4"} : (memref<4xi32>, memref<16xi32>, memref<8xi32>) -> memref<4xi32>
      %324 = "equeue.unkOp"(%303, %301, %302) {op_name = "mac4"} : (memref<4xi32>, memref<16xi32>, memref<8xi32>) -> memref<4xi32>
      %325 = "equeue.read"(%303) {bank = 0 : i64, size = dense<4> : tensor<1xi64>} : (memref<4xi32>) -> tensor<4xi32>
      "equeue.write"(%325, %arg5, %300) {bank = 0 : i64, size = dense<4> : tensor<1xi64>} : (tensor<4xi32>, memref<4xi32>, i32) -> ()
      %326 = "equeue.read"(%304, %299) {bank = 0 : i64, size = dense<4> : tensor<1xi64>} : (memref<4xi32>, i32) -> tensor<4xi32>
      "equeue.write"(%326, %303) {bank = 0 : i64, size = dense<4> : tensor<1xi64>} : (tensor<4xi32>, memref<4xi32>) -> ()
      %327 = "equeue.unkOp"(%303, %301, %302) {op_name = "mac4"} : (memref<4xi32>, memref<16xi32>, memref<8xi32>) -> memref<4xi32>
      %328 = "equeue.unkOp"(%303, %301, %302) {op_name = "mac4"} : (memref<4xi32>, memref<16xi32>, memref<8xi32>) -> memref<4xi32>
      %329 = "equeue.read"(%arg4, %298) {bank = 0 : i64, size = dense<4> : tensor<1xi64>} : (memref<512xf32>, i32) -> tensor<512xf32>
      "equeue.write"(%329, %301) {bank = 0 : i64, size = dense<4> : tensor<1xi64>} : (tensor<512xf32>, memref<16xi32>) -> ()
      %330 = "equeue.unkOp"(%303, %301, %302) {op_name = "mac4"} : (memref<4xi32>, memref<16xi32>, memref<8xi32>) -> memref<4xi32>
      %331 = "equeue.unkOp"(%303, %301, %302) {op_name = "mac4"} : (memref<4xi32>, memref<16xi32>, memref<8xi32>) -> memref<4xi32>
      %332 = "equeue.read"(%303) {bank = 0 : i64, size = dense<4> : tensor<1xi64>} : (memref<4xi32>) -> tensor<4xi32>
      "equeue.write"(%332, %arg5, %300) {bank = 0 : i64, size = dense<4> : tensor<1xi64>} : (tensor<4xi32>, memref<4xi32>, i32) -> ()
      "equeue.return"() : () -> ()
    }) : (!equeue.signal, i32, i32, i32, i32, memref<512xf32>, memref<4xi32>) -> !equeue.signal
    %295 = "equeue.get_comp_field"(%31) {name = "proc"} : (i32) -> i32
    %296 = "equeue.get_comp_field"(%31) {name = "ofmap"} : (i32) -> memref<4xi32>
    %done_129 = "equeue.launch"(%290, %295, %5, %31, %26, %1, %296) ( {
    ^bb0(%arg1: i32, %arg2: i32, %arg3: i32, %arg4: memref<512xf32>, %arg5: memref<4xi32>):  // no predecessors
      %298 = "equeue.get_comp_field"(%arg1) {name = "stream2"} : (i32) -> i32
      %299 = "equeue.get_comp_field"(%arg1) {name = "stream5"} : (i32) -> i32
      %300 = "equeue.get_comp_field"(%arg1) {name = "stream6"} : (i32) -> i32
      %301 = "equeue.get_comp_field"(%arg2) {name = "ifmap"} : (i32) -> memref<16xi32>
      %302 = "equeue.get_comp_field"(%arg2) {name = "filter"} : (i32) -> memref<8xi32>
      %303 = "equeue.get_comp_field"(%arg2) {name = "ofmap"} : (i32) -> memref<4xi32>
      %304 = "equeue.get_comp_field"(%arg3) {name = "ofmap"} : (i32) -> memref<4xi32>
      %305 = "equeue.read"(%304, %299) {bank = 0 : i64, size = dense<4> : tensor<1xi64>} : (memref<4xi32>, i32) -> tensor<4xi32>
      "equeue.write"(%305, %303) {bank = 0 : i64, size = dense<4> : tensor<1xi64>} : (tensor<4xi32>, memref<4xi32>) -> ()
      %306 = "equeue.unkOp"(%303, %301, %302) {op_name = "mac4"} : (memref<4xi32>, memref<16xi32>, memref<8xi32>) -> memref<4xi32>
      %307 = "equeue.unkOp"(%303, %301, %302) {op_name = "mac4"} : (memref<4xi32>, memref<16xi32>, memref<8xi32>) -> memref<4xi32>
      %308 = "equeue.read"(%arg4, %298) {bank = 0 : i64, size = dense<4> : tensor<1xi64>} : (memref<512xf32>, i32) -> tensor<512xf32>
      "equeue.write"(%308, %301) {bank = 0 : i64, size = dense<4> : tensor<1xi64>} : (tensor<512xf32>, memref<16xi32>) -> ()
      %309 = "equeue.unkOp"(%303, %301, %302) {op_name = "mac4"} : (memref<4xi32>, memref<16xi32>, memref<8xi32>) -> memref<4xi32>
      %310 = "equeue.unkOp"(%303, %301, %302) {op_name = "mac4"} : (memref<4xi32>, memref<16xi32>, memref<8xi32>) -> memref<4xi32>
      %311 = "equeue.read"(%303) {bank = 0 : i64, size = dense<4> : tensor<1xi64>} : (memref<4xi32>) -> tensor<4xi32>
      "equeue.write"(%311, %arg5, %300) {bank = 0 : i64, size = dense<4> : tensor<1xi64>} : (tensor<4xi32>, memref<4xi32>, i32) -> ()
      %312 = "equeue.read"(%304, %299) {bank = 0 : i64, size = dense<4> : tensor<1xi64>} : (memref<4xi32>, i32) -> tensor<4xi32>
      "equeue.write"(%312, %303) {bank = 0 : i64, size = dense<4> : tensor<1xi64>} : (tensor<4xi32>, memref<4xi32>) -> ()
      %313 = "equeue.unkOp"(%303, %301, %302) {op_name = "mac4"} : (memref<4xi32>, memref<16xi32>, memref<8xi32>) -> memref<4xi32>
      %314 = "equeue.unkOp"(%303, %301, %302) {op_name = "mac4"} : (memref<4xi32>, memref<16xi32>, memref<8xi32>) -> memref<4xi32>
      %315 = "equeue.read"(%arg4, %298) {bank = 0 : i64, size = dense<4> : tensor<1xi64>} : (memref<512xf32>, i32) -> tensor<512xf32>
      "equeue.write"(%315, %301) {bank = 0 : i64, size = dense<4> : tensor<1xi64>} : (tensor<512xf32>, memref<16xi32>) -> ()
      %316 = "equeue.unkOp"(%303, %301, %302) {op_name = "mac4"} : (memref<4xi32>, memref<16xi32>, memref<8xi32>) -> memref<4xi32>
      %317 = "equeue.unkOp"(%303, %301, %302) {op_name = "mac4"} : (memref<4xi32>, memref<16xi32>, memref<8xi32>) -> memref<4xi32>
      %318 = "equeue.read"(%303) {bank = 0 : i64, size = dense<4> : tensor<1xi64>} : (memref<4xi32>) -> tensor<4xi32>
      "equeue.write"(%318, %arg5, %300) {bank = 0 : i64, size = dense<4> : tensor<1xi64>} : (tensor<4xi32>, memref<4xi32>, i32) -> ()
      %319 = "equeue.read"(%304, %299) {bank = 0 : i64, size = dense<4> : tensor<1xi64>} : (memref<4xi32>, i32) -> tensor<4xi32>
      "equeue.write"(%319, %303) {bank = 0 : i64, size = dense<4> : tensor<1xi64>} : (tensor<4xi32>, memref<4xi32>) -> ()
      %320 = "equeue.unkOp"(%303, %301, %302) {op_name = "mac4"} : (memref<4xi32>, memref<16xi32>, memref<8xi32>) -> memref<4xi32>
      %321 = "equeue.unkOp"(%303, %301, %302) {op_name = "mac4"} : (memref<4xi32>, memref<16xi32>, memref<8xi32>) -> memref<4xi32>
      %322 = "equeue.read"(%arg4, %298) {bank = 0 : i64, size = dense<4> : tensor<1xi64>} : (memref<512xf32>, i32) -> tensor<512xf32>
      "equeue.write"(%322, %301) {bank = 0 : i64, size = dense<4> : tensor<1xi64>} : (tensor<512xf32>, memref<16xi32>) -> ()
      %323 = "equeue.unkOp"(%303, %301, %302) {op_name = "mac4"} : (memref<4xi32>, memref<16xi32>, memref<8xi32>) -> memref<4xi32>
      %324 = "equeue.unkOp"(%303, %301, %302) {op_name = "mac4"} : (memref<4xi32>, memref<16xi32>, memref<8xi32>) -> memref<4xi32>
      %325 = "equeue.read"(%303) {bank = 0 : i64, size = dense<4> : tensor<1xi64>} : (memref<4xi32>) -> tensor<4xi32>
      "equeue.write"(%325, %arg5, %300) {bank = 0 : i64, size = dense<4> : tensor<1xi64>} : (tensor<4xi32>, memref<4xi32>, i32) -> ()
      %326 = "equeue.read"(%304, %299) {bank = 0 : i64, size = dense<4> : tensor<1xi64>} : (memref<4xi32>, i32) -> tensor<4xi32>
      "equeue.write"(%326, %303) {bank = 0 : i64, size = dense<4> : tensor<1xi64>} : (tensor<4xi32>, memref<4xi32>) -> ()
      %327 = "equeue.unkOp"(%303, %301, %302) {op_name = "mac4"} : (memref<4xi32>, memref<16xi32>, memref<8xi32>) -> memref<4xi32>
      %328 = "equeue.unkOp"(%303, %301, %302) {op_name = "mac4"} : (memref<4xi32>, memref<16xi32>, memref<8xi32>) -> memref<4xi32>
      %329 = "equeue.read"(%arg4, %298) {bank = 0 : i64, size = dense<4> : tensor<1xi64>} : (memref<512xf32>, i32) -> tensor<512xf32>
      "equeue.write"(%329, %301) {bank = 0 : i64, size = dense<4> : tensor<1xi64>} : (tensor<512xf32>, memref<16xi32>) -> ()
      %330 = "equeue.unkOp"(%303, %301, %302) {op_name = "mac4"} : (memref<4xi32>, memref<16xi32>, memref<8xi32>) -> memref<4xi32>
      %331 = "equeue.unkOp"(%303, %301, %302) {op_name = "mac4"} : (memref<4xi32>, memref<16xi32>, memref<8xi32>) -> memref<4xi32>
      %332 = "equeue.read"(%303) {bank = 0 : i64, size = dense<4> : tensor<1xi64>} : (memref<4xi32>) -> tensor<4xi32>
      "equeue.write"(%332, %arg5, %300) {bank = 0 : i64, size = dense<4> : tensor<1xi64>} : (tensor<4xi32>, memref<4xi32>, i32) -> ()
      "equeue.return"() : () -> ()
    }) : (!equeue.signal, i32, i32, i32, i32, memref<512xf32>, memref<4xi32>) -> !equeue.signal
    %297 = "equeue.get_comp_field"(%36) {name = "proc"} : (i32) -> i32
    %done_130 = "equeue.launch"(%290, %297, %5, %36, %31, %1, %3) ( {
    ^bb0(%arg1: i32, %arg2: i32, %arg3: i32, %arg4: memref<512xf32>, %arg5: memref<481xf32>):  // no predecessors
      %298 = "equeue.get_comp_field"(%arg1) {name = "stream3"} : (i32) -> i32
      %299 = "equeue.get_comp_field"(%arg1) {name = "stream6"} : (i32) -> i32
      %300 = "equeue.get_comp_field"(%arg1) {name = "stream7"} : (i32) -> i32
      %301 = "equeue.get_comp_field"(%arg2) {name = "ifmap"} : (i32) -> memref<16xi32>
      %302 = "equeue.get_comp_field"(%arg2) {name = "filter"} : (i32) -> memref<8xi32>
      %303 = "equeue.get_comp_field"(%arg2) {name = "ofmap"} : (i32) -> memref<4xi32>
      %304 = "equeue.get_comp_field"(%arg3) {name = "ofmap"} : (i32) -> memref<4xi32>
      %305 = "equeue.read"(%304, %299) {bank = 0 : i64, size = dense<4> : tensor<1xi64>} : (memref<4xi32>, i32) -> tensor<4xi32>
      "equeue.write"(%305, %303) {bank = 0 : i64, size = dense<4> : tensor<1xi64>} : (tensor<4xi32>, memref<4xi32>) -> ()
      %306 = "equeue.unkOp"(%303, %301, %302) {op_name = "mac4"} : (memref<4xi32>, memref<16xi32>, memref<8xi32>) -> memref<4xi32>
      %307 = "equeue.unkOp"(%303, %301, %302) {op_name = "mac4"} : (memref<4xi32>, memref<16xi32>, memref<8xi32>) -> memref<4xi32>
      %308 = "equeue.read"(%arg4, %298) {bank = 0 : i64, size = dense<4> : tensor<1xi64>} : (memref<512xf32>, i32) -> tensor<512xf32>
      "equeue.write"(%308, %301) {bank = 0 : i64, size = dense<4> : tensor<1xi64>} : (tensor<512xf32>, memref<16xi32>) -> ()
      %309 = "equeue.unkOp"(%303, %301, %302) {op_name = "mac4"} : (memref<4xi32>, memref<16xi32>, memref<8xi32>) -> memref<4xi32>
      %310 = "equeue.unkOp"(%303, %301, %302) {op_name = "mac4"} : (memref<4xi32>, memref<16xi32>, memref<8xi32>) -> memref<4xi32>
      %311 = "equeue.read"(%303) {bank = 0 : i64, size = dense<4> : tensor<1xi64>} : (memref<4xi32>) -> tensor<4xi32>
      "equeue.write"(%311, %arg5, %300) {bank = 0 : i64, size = dense<4> : tensor<1xi64>} : (tensor<4xi32>, memref<481xf32>, i32) -> ()
      %312 = "equeue.read"(%304, %299) {bank = 0 : i64, size = dense<4> : tensor<1xi64>} : (memref<4xi32>, i32) -> tensor<4xi32>
      "equeue.write"(%312, %303) {bank = 0 : i64, size = dense<4> : tensor<1xi64>} : (tensor<4xi32>, memref<4xi32>) -> ()
      %313 = "equeue.unkOp"(%303, %301, %302) {op_name = "mac4"} : (memref<4xi32>, memref<16xi32>, memref<8xi32>) -> memref<4xi32>
      %314 = "equeue.unkOp"(%303, %301, %302) {op_name = "mac4"} : (memref<4xi32>, memref<16xi32>, memref<8xi32>) -> memref<4xi32>
      %315 = "equeue.read"(%arg4, %298) {bank = 0 : i64, size = dense<4> : tensor<1xi64>} : (memref<512xf32>, i32) -> tensor<512xf32>
      "equeue.write"(%315, %301) {bank = 0 : i64, size = dense<4> : tensor<1xi64>} : (tensor<512xf32>, memref<16xi32>) -> ()
      %316 = "equeue.unkOp"(%303, %301, %302) {op_name = "mac4"} : (memref<4xi32>, memref<16xi32>, memref<8xi32>) -> memref<4xi32>
      %317 = "equeue.unkOp"(%303, %301, %302) {op_name = "mac4"} : (memref<4xi32>, memref<16xi32>, memref<8xi32>) -> memref<4xi32>
      %318 = "equeue.read"(%303) {bank = 0 : i64, size = dense<4> : tensor<1xi64>} : (memref<4xi32>) -> tensor<4xi32>
      "equeue.write"(%318, %arg5, %300) {bank = 0 : i64, size = dense<4> : tensor<1xi64>} : (tensor<4xi32>, memref<481xf32>, i32) -> ()
      %319 = "equeue.read"(%304, %299) {bank = 0 : i64, size = dense<4> : tensor<1xi64>} : (memref<4xi32>, i32) -> tensor<4xi32>
      "equeue.write"(%319, %303) {bank = 0 : i64, size = dense<4> : tensor<1xi64>} : (tensor<4xi32>, memref<4xi32>) -> ()
      %320 = "equeue.unkOp"(%303, %301, %302) {op_name = "mac4"} : (memref<4xi32>, memref<16xi32>, memref<8xi32>) -> memref<4xi32>
      %321 = "equeue.unkOp"(%303, %301, %302) {op_name = "mac4"} : (memref<4xi32>, memref<16xi32>, memref<8xi32>) -> memref<4xi32>
      %322 = "equeue.read"(%arg4, %298) {bank = 0 : i64, size = dense<4> : tensor<1xi64>} : (memref<512xf32>, i32) -> tensor<512xf32>
      "equeue.write"(%322, %301) {bank = 0 : i64, size = dense<4> : tensor<1xi64>} : (tensor<512xf32>, memref<16xi32>) -> ()
      %323 = "equeue.unkOp"(%303, %301, %302) {op_name = "mac4"} : (memref<4xi32>, memref<16xi32>, memref<8xi32>) -> memref<4xi32>
      %324 = "equeue.unkOp"(%303, %301, %302) {op_name = "mac4"} : (memref<4xi32>, memref<16xi32>, memref<8xi32>) -> memref<4xi32>
      %325 = "equeue.read"(%303) {bank = 0 : i64, size = dense<4> : tensor<1xi64>} : (memref<4xi32>) -> tensor<4xi32>
      "equeue.write"(%325, %arg5, %300) {bank = 0 : i64, size = dense<4> : tensor<1xi64>} : (tensor<4xi32>, memref<481xf32>, i32) -> ()
      %326 = "equeue.read"(%304, %299) {bank = 0 : i64, size = dense<4> : tensor<1xi64>} : (memref<4xi32>, i32) -> tensor<4xi32>
      "equeue.write"(%326, %303) {bank = 0 : i64, size = dense<4> : tensor<1xi64>} : (tensor<4xi32>, memref<4xi32>) -> ()
      %327 = "equeue.unkOp"(%303, %301, %302) {op_name = "mac4"} : (memref<4xi32>, memref<16xi32>, memref<8xi32>) -> memref<4xi32>
      %328 = "equeue.unkOp"(%303, %301, %302) {op_name = "mac4"} : (memref<4xi32>, memref<16xi32>, memref<8xi32>) -> memref<4xi32>
      %329 = "equeue.read"(%arg4, %298) {bank = 0 : i64, size = dense<4> : tensor<1xi64>} : (memref<512xf32>, i32) -> tensor<512xf32>
      "equeue.write"(%329, %301) {bank = 0 : i64, size = dense<4> : tensor<1xi64>} : (tensor<512xf32>, memref<16xi32>) -> ()
      %330 = "equeue.unkOp"(%303, %301, %302) {op_name = "mac4"} : (memref<4xi32>, memref<16xi32>, memref<8xi32>) -> memref<4xi32>
      %331 = "equeue.unkOp"(%303, %301, %302) {op_name = "mac4"} : (memref<4xi32>, memref<16xi32>, memref<8xi32>) -> memref<4xi32>
      %332 = "equeue.read"(%303) {bank = 0 : i64, size = dense<4> : tensor<1xi64>} : (memref<4xi32>) -> tensor<4xi32>
      "equeue.write"(%332, %arg5, %300) {bank = 0 : i64, size = dense<4> : tensor<1xi64>} : (tensor<4xi32>, memref<481xf32>, i32) -> ()
      "equeue.return"() : () -> ()
    }) : (!equeue.signal, i32, i32, i32, i32, memref<512xf32>, memref<481xf32>) -> !equeue.signal
    "equeue.await"(%done_130) : (!equeue.signal) -> ()
    return
  }
}
